Project/Ming_Jiang_1016239_Gengcong_Yan_1009903_Project/Part1/trained agents/ppo/HalfCheetahBulletEnv-v0_PPO_2_1638448506_ppo.pth (torch, 35262 bytes, 12 tensors)

actor_logstd f4 [6]
000000 90 a0 59 bf 29 ae 7e bf b3 85 70 bf 38 fa 9a bf
       -0.85010624 -0.994845 -0.9395401 -1.2107611
000010 2c 90 86 bf d9 56 85 bf
       -1.0512748 -1.0417129

critic.0.weight f4 [64, 26]
000000 da 0b 95 be 7b e6 d4 bc 6a c9 11 bd a0 14 3c be
       -0.29110605 -0.025988808 -0.035592474 -0.18367243
000010 69 26 80 3e 88 57 08 be 43 35 50 be 40 89 9d be
       0.25029305 -0.1331464 -0.20332818 -0.30768776
000020 c6 4e f2 3d 95 fd bf bd b4 b2 ee 3d 40 96 27 bc
       0.11831431 -0.09374539 0.11655179 -0.0102286935
000030 8e 62 98 3e f6 05 f2 3d 7b 82 fd 3d b1 50 02 be
       0.2976269 0.11817543 0.12378403 -0.12726094
000040 d7 a3 5f 3e dd 42 ef bd 27 d7 ca be 49 b4 da bd
       0.21839844 -0.11682675 -0.39617273 -0.10678918
000050 98 b1 84 bd b6 8d 50 3e 99 df 1b 3e 83 cc e2 bc
       -0.06479186 0.20366558 0.15222014 -0.02768541
000060 64 bd 8f 3e b0 23 c8 3e 02 c8 b4 3e 6f c0 cc bd
       0.2807418 0.39089727 0.35308844 -0.09997641
000070 c2 01 30 3e fd 6f 94 3d 3c cf a8 3d bd bc 32 bd
       0.1718817 0.072479226 0.08242652 -0.043637026
000080 ce 8e 90 3d 4a ce ca 3d 96 e9 29 3e c6 9e b8 bd
       0.07058488 0.09902628 0.16593012 -0.09014659
000090 90 af de 3d c6 25 5d bd 10 41 2d be 61 62 18 3e
       0.1087333 -0.0539911 -0.1691935 0.14881279
0000a0 36 e8 bb 3e 38 e6 50 3e a4 30 cc 3d b4 10 e5 3d
       0.367006 0.20400321 0.09970215 0.111848265
0000b0 1b 86 ea 3d 92 1c cf 3c 21 a8 37 3d 3e d9 bc bd
       0.1145136 0.025282178 0.044838075 -0.09221123
0000c0 28 64 7f 3d 34 6f d2 3d f5 28 16 3d 6e 6c a8 be
       0.062351376 0.102751166 0.036660153 -0.32895225
0000d0 1f 7c bd 3e 2c 90 07 3d 12 c6 b5 3c 6c 7a 5b 3d
       0.3700876 0.033096477 0.022189174 0.053583547
0000e0 60 ea 2f 3e ca c2 f8 3d 68 ed fc 3c 8e 57 27 3e
       0.1717925 0.12146528 0.030874923 0.16341993
0000f0 c5 14 00 3e 84 56 38 be 2b 4f 30 3e e4 b3 da bd
       0.12507923 -0.18001753 0.172177 -0.10678843
000100 58 1b 77 3e 58 90 3d bd 77 01 fd bc ef 6f 96 be
       0.24131525 -0.046280235 -0.030884488 -0.29382274
000110 f6 68 09 be e6 a7 3a be f1 35 09 3e 45 f7 5e bd
       -0.13418946 -0.1822811 0.13399483 -0.054435033
000120 37 4a 6a be ef 12 f0 3d 82 7d 18 be 77 8b 3c bc
       -0.22879873 0.11722361 -0.14891627 -0.01150786
000130 d7 bf c5 bd 5c 42 d7 3d ee 39 89 be 80 8a 86 bd
       -0.09655731 0.10510704 -0.2680201 -0.065693855
000140 8d 6a 96 be c9 6b 08 be ce 09 08 3c 07 fb 0a be
       -0.29378167 -0.13322367 0.008303119 -0.13572322
000150 9d b9 d3 bc 61 6d ab 3e 74 39 17 3d a7 26 50 3d
       -0.025845343 0.33481887 0.036920026 0.05081811
000160 02 69 37 3e ad 6c 29 3d 74 7a 33 be 93 19 b9 3d
       0.17911151 0.041363407 -0.17527181 0.09038081
000170 31 88 68 3e 2e 8c 2f 3d 6f 99 1a be 70 e3 95 bd
       0.22708203 0.042858295 -0.15097593 -0.07318771
000180 4d 89 3c be 4a 10 f8 bd 9b d4 8e 3d 8b 2d 86 3e
       -0.18411751 -0.12112482 0.06974145 0.26206622
000190 7e 7d 4f 3e d4 2c bc bd 9e 1d c3 3d d5 69 bd bd
       0.20262715 -0.09188238 0.095271334 -0.092487015
0001a0 63 a2 fc bd 54 96 b8 be 4c 93 61 3e d3 9b 93 be
       -0.1233566 -0.3605219 0.22028846 -0.28829822
0001b0 80 6b 6c 3c 90 ff 5c 3e 73 ee 58 be 44 de 3d 3e
       0.014429927 0.21581864 -0.21184711 0.18541819
0001c0 38 92 28 3e 45 eb bc 3d 8e 5e d8 bd bf f3 41 3c
       0.16462028 0.092245616 -0.1056491 0.011837899
0001d0 7c 68 3a 3e cb eb 94 3d c5 4a 43 3d f7 c2 04 3e
       0.1820392 0.072715364 0.047678728 0.12964998
0001e0 52 74 73 bd 6b a0 62 3e 34 e7 cf be fd a0 b2 3a
       -0.059437104 0.22131507 -0.4060608 0.00136283
0001f0 8d 76 9e 3e f8 55 d2 bd 1a 13 16 3c 1e 1f 39 3d
       0.30949822 -0.102703035 0.009159828 0.04519569
000200 d0 d1 da bb 1f d9 ac 3d cc 44 67 3e 46 92 ea 3d
       -0.0066778436 0.0843985 0.22584838 0.11453681
000210 40 37 8b bd ce 4e a9 3e b1 a3 03 3e 14 52 93 3d
       -0.067976475 0.33067936 0.12855412 0.071933895
000220 2b d7 ef bd 36 ed ff be 37 52 d1 bc c5 70 ca be
       -0.11710962 -0.49985665 -0.025551898 -0.3953916
000230 1d 3f 0b 3b ac 19 13 be b3 ac 24 be 5b 15 f0 bd
       0.0021247335 -0.14365262 -0.16081505 -0.11722823
000240 d7 be fe 3c e4 5d 8a 3e c6 09 65 bc 64 42 ae bd
       0.031096859 0.27024758 -0.013979381 -0.08508757
000250 ce fd 69 be 53 9c ec 3d 05 8b 12 3d f2 69 2f 3e
       -0.22850725 0.11553254 0.03577711 0.17130259
000260 2e c7 d6 bc 50 ba 19 be 7e 3b d4 bd e7 d7 2d bd
       -0.026218023 -0.15012479 -0.1036291 -0.04244223
000270 7d 67 ac 3d 57 e3 08 be f3 9d 85 bc a7 d5 60 3b
       0.08418176 -0.13367973 -0.016310668 0.0034307034
000280 32 96 75 3e 82 1f 5d be 5b 0b 33 bd d7 62 bd 3e
       0.23983076 -0.2159405 -0.043712 0.3698947
000290 6a 30 38 3e fd 10 e5 bd 5f 07 04 3e ea 21 84 be
       0.17987218 -0.11184881 0.12893437 -0.25807124
0002a0 1b b5 45 3e d3 96 f7 3d b0 69 81 3b 5d dc 3f bd
       0.19307368 0.12089314 0.0039493665 -0.046841014
0002b0 70 38 09 3f e3 d3 bf bd a9 88 3a 3e 99 e6 0e be
       0.5360174 -0.09366586 0.18216194 -0.13955154
0002c0 7a 1d 5e 3c 81 ef 9e bd 8b 78 85 3c a5 46 01 be
       0.013556832 -0.077605255 0.01629283 -0.12624605
0002d0 a2 02 85 be 9c f5 44 3d 61 8e 00 3e db 69 c8 3e
       -0.2597857 0.048085794 0.12554313 0.3914326
0002e0 bf 55 34 3e 95 7b 22 be 29 30 1b 3e 54 eb 43 bd
       0.17610835 -0.15867455 0.1515509 -0.04783185
0002f0 3d 6b 37 bc 37 38 e2 3e 6a d5 99 3e 6a 9a 7d 3d
       -0.011195001 0.44183514 0.30045635 0.06191484
000300 4e aa 94 3e 5a 95 01 3c 34 fa be 3d e9 9c 40 3c
       0.29036182 0.007909143 0.09325066 0.01175616
000310 ea 31 8f bd 8f bf c7 3d 1e 46 29 3e 50 52 3f 3e
       -0.06991942 0.09753334 0.16530654 0.18683743
000320 65 70 cc bd 7c cc fc 3d 08 a3 59 3d 11 4b 07 3d
       -0.09982375 0.1234369 0.053133994 0.033030573
000330 0f 61 0e bd a7 f6 34 3d 04 77 0c 3d 6c 76 22 be
       -0.03476053 0.04418054 0.03429319 -0.15865487
000340 bb 39 08 be bf 46 25 3d 40 cb b1 3d bb 30 b4 bd
       -0.13303272 0.04035067 0.08681345 -0.08798357
000350 94 5c 3b 3e 24 38 d2 bd 03 63 2a 3e c4 9e d8 3c
       0.18297035 -0.10264614 0.16639332 0.026442893
000360 65 7b fc 3d cb 7c e4 3d f4 86 72 3e 65 73 d8 bb
       0.12328223 0.11156615 0.23684293 -0.006605553
000370 4b 1e 98 3e 55 54 17 bc 29 20 8a be 93 5b 10 be
       0.29710612 -0.009236415 -0.2697766 -0.14097433
000380 d7 ac 2c 3d 1b da 59 bd af 64 84 bd da d8 56 bd
       0.04215702 -0.053186517 -0.06464516 -0.0524529
000390 6b 8d 25 3e 46 13 4a bd e4 a3 32 3e 58 6a d7 3d
       0.16167228 -0.049334787 0.17445332 0.1051833
0003a0 80 14 6f 3d 12 0b 40 3e 26 d9 39 3e e7 3b d2 3d
       0.05836916 0.18754223 0.18149242 0.10265332
0003b0 0d 39 d4 3d 42 bc 02 be 8a 33 8c be 3f 31 93 3e
       0.10362444 -0.12767127 -0.2738307 0.2874851
0003c0 33 8a 12 bc 37 c0 de be 61 cd d0 3c 1c 31 e1 3d
       -0.008944082 -0.43506023 0.025488557 0.10995695
0003d0 2a e7 a5 3e c3 7c e3 3d e2 68 e0 be 7e 7d 19 be
       0.32402927 0.11107781 -0.4383002 -0.14989278
0003e0 83 bc 39 3e f1 c0 3a 3e db 33 86 3d cd 48 24 3e
       0.18138318 0.18237664 0.065528594 0.16043396
0003f0 ee 29 f7 bd 9c 04 a9 3d 16 9a a1 bd 4c b9 5a be
       -0.12068544 0.08252832 -0.07890718 -0.21359748

critic.0.bias f4 [64]
000000 4f 3c 15 bf eb ab e0 3e b6 25 de 3d 96 b4 12 3e
       -0.5829515 0.43881163 0.108470365 0.143267
000010 8d 9f 8b be e4 13 01 3d e8 b7 eb 3e 39 88 32 3f
       -0.27270165 0.03151311 0.46038747 0.6973911
000020 9c 57 1e bf f9 f5 34 3d 02 19 d8 3e 3b 01 18 bf
       -0.6185243 0.04417989 0.4220658 -0.5937688
000030 01 ae 0e bf 7d 1c 7e be 56 b6 25 3e bf 22 ad be
       -0.5573426 -0.24815555 0.16182837 -0.33815572
000040 11 44 b2 be da 68 67 3e 95 ee bd bc 36 3a df bc
       -0.34817556 0.22598591 -0.023185054 -0.027249437
000050 6c 23 0f 3e 6b bc 15 bf ef 6a 0a bd 4e 8a 85 bd
       0.13978356 -0.5849063 -0.033793386 -0.0652052
000060 3d 9d c9 bd f8 f6 a2 be e7 75 e0 be 32 d3 07 bf
       -0.09844444 -0.31829047 -0.43839952 -0.53056633
000070 b2 f0 82 bb 46 9d cd be 23 97 8b be 2d c9 0f 3d
       -0.0039959783 -0.40159053 -0.27263746 0.035103966
000080 67 09 84 be 89 84 3d be 89 1e b7 3e 40 3a da 3c
       -0.25788423 -0.1850759 0.35765484 0.026639104
000090 e9 ed 11 3d ca 5f 59 3d e3 79 e0 be f0 5a 25 3f
       0.03562728 0.053069867 -0.43842992 0.64591885
0000a0 32 5a 0d 3f 4d f1 d5 3e 2c 3d 5c be 35 1b 11 3e
       0.5521575 0.4178566 -0.2150771 0.14170535
0000b0 a1 24 64 3e 52 95 d5 be 0a bf 68 3e 0c 25 d0 3e
       0.22279598 -0.41715485 0.22729126 0.40653265
0000c0 98 11 29 be 18 2e a3 3e ab 87 bc 3e 60 d0 f1 bd
       -0.16510618 0.31871104 0.36822256 -0.118073225
0000d0 86 77 c1 3e 74 c4 29 3e f2 18 0a 3e 3f 87 07 be
       0.37786502 0.16578847 0.13486078 -0.13235186
0000e0 e5 ec 13 bf 08 80 97 3e fa eb 19 be 6d 32 58 be
       -0.5778335 0.29589868 -0.15031424 -0.21112986
0000f0 78 01 45 3e 00 f3 27 bd 65 8a 96 be f4 85 96 3e
       0.19238842 -0.041003227 -0.29402462 0.29399073

critic.2.weight f4 [32, 64]
000000 00 ac ec bb b1 15 17 3c 19 a6 d0 bd 9b d8 8e 3e
       -0.0072226524 0.00922148 -0.101879306 0.27899632
000010 2c c9 7f 3d ad 2d 28 bd 12 81 2c bd ed 5c 62 3e
       0.06244771 -0.041059185 -0.04211528 0.22105761
000020 08 7d 6c be f1 dd fb 3c ef 54 8e 3e db 1f d9 be
       -0.2309457 0.030745478 0.27799174 -0.42407116
000030 23 fd 96 bd da e0 12 3e 57 af 19 3e 32 f0 0e 3e
       -0.07372501 0.14343587 0.15008293 0.13958815
000040 31 75 c9 bd bf 97 45 be db 6a d7 bc f1 d2 65 3e
       -0.098368056 -0.19296168 -0.02629607 0.22443749
000050 b2 39 1f 3e ad 52 27 bd ac 78 0c be 01 2b 5b be
       0.15549353 -0.04085033 -0.13717908 -0.21403123
000060 b4 20 00 be 0d fe 6b 3c 75 ac 2d bd 38 7c 41 bd
       -0.12512475 0.014403832 -0.042400796 -0.047237605
000070 b6 c7 0d 3e 4d 1e d6 ba 39 f6 27 3e ea 36 97 be
       0.13845715 -0.0016335935 0.1640252 -0.29534084
000080 4e 02 a9 bb b4 28 ba be 9a 44 99 bd 06 2f 01 be
       -0.0051577454 -0.3635918 -0.07483788 -0.12615594
000090 8a 0b ae 3d e6 04 56 3d 0f f5 2a bd 83 ac 98 3e
       0.08498295 0.052250765 -0.041737612 0.29819116
0000a0 c0 d8 98 bd e1 db 65 3e 2a ec b0 be 64 88 9c be
       -0.07463217 0.22447158 -0.3455518 -0.30572808
0000b0 57 3a a3 be e1 b6 6e 3d 6a 67 74 bd 4a 1a 17 bb
       -0.31880447 0.058279876 -0.059668936 -0.002305644
0000c0 c7 bd f7 be c4 37 02 3e a9 6f 01 3e f2 97 85 be
       -0.48386976 0.12716585 0.12640251 -0.26092488
0000d0 2f 0e fe bd f5 b7 28 be 9a a3 25 3e 5d 3d bc be
       -0.12405049 -0.16476424 0.1617569 -0.36765566
0000e0 2f 77 a4 be c5 d6 c4 3e 5c a4 17 be 9f 96 99 bd
       -0.3212218 0.38445106 -0.14808792 -0.07499432
0000f0 38 ce 16 be 85 cd 32 3e 19 03 08 be 2b ac 30 3e
       -0.14727104 0.17461212 -0.13282432 0.17253177
000100 3d d6 71 be de 58 1e 3c 79 e5 0f 3c 12 bc 17 3e
       -0.23616882 0.009664742 0.008782738 0.14817837
000110 b5 73 16 be cc 5f 06 3e da a0 5e 3e ec e5 b2 3e
       -0.14692576 0.13122481 0.21741048 0.3494104
000120 a6 16 d2 3d e7 5b 5f 3e de 68 c3 3e 96 47 c3 3e
       0.10258226 0.21812402 0.38165945 0.38140553
000130 bf 2c 3e be d1 7e 18 bf ce 38 ed 3c 7f 96 b9 be
       -0.18571757 -0.59568506 0.02895775 -0.36247632
000140 0d a2 b7 3d c1 3e f8 3c 30 e3 a9 3e 5d fe 1b 3d
       0.089664556 0.03030336 0.33181143 0.038084377
000150 eb 32 f9 3c 24 ae ab bd b9 7e 3d 3e de a1 1f be
       0.030419787 -0.08382824 0.18505372 -0.15589091
000160 32 ee 2b 3c 11 cf 50 bd b8 85 b6 be c8 67 f9 bd
       0.010493802 -0.050978724 -0.35648894 -0.12177998
000170 fa 36 7d be 54 21 88 be f7 10 7b be e2 a5 45 bd
       -0.24728003 -0.26587927 -0.2451819 -0.0482539
000180 b5 0c 10 3e a6 cd cc be c5 13 ef 3e d4 5d ae bd
       0.14067347 -0.40000647 0.4669477 -0.0851399
000190 2e 6b 93 be ab ed 47 be ea cc 4d be bb 03 9a 3e
       -0.2879271 -0.19524257 -0.200977 0.3008097
0001a0 8d e6 7f 3e d0 41 70 bd 3c f2 1b 3e fa b3 74 3e
       0.24990292 -0.058656514 0.15229124 0.2389678
0001b0 db ae 62 be 02 7e d2 be 43 72 13 3e 85 d6 5a 3e
       -0.22137015 -0.4111176 0.14399056 0.21370895
0001c0 5e 4d 37 be 75 2f ec bc 7d 71 83 3e e2 bc 0a be
       -0.17900607 -0.028831223 0.25672522 -0.13548616
0001d0 e9 3e ec 3e c5 d1 71 3d 4a 6c a1 3e c7 33 46 3d
       0.46141747 0.059037942 0.3152793 0.048389222
0001e0 db 86 eb be 6d 0e 25 3e 5d d8 10 be 50 64 c6 be
       -0.46001324 0.16118784 -0.14145036 -0.38748407
0001f0 15 65 fd 3d bd de bb 3e 6f aa 4a 3e e2 6f 9b bd
       0.123727955 0.36693373 0.19791578 -0.07589699
000200 d6 07 e3 be ed db b1 3d 5e 67 85 3e c1 5b f4 bd
       -0.44341916 0.08684526 0.26055425 -0.11931563
000210 e1 ee 3d be e3 81 96 3e 31 b7 0a bf f1 df 1c 3c
       -0.18548156 0.2939597 -0.5418578 0.009574876
000220 5d ef 56 be f3 4c 38 be 91 d7 68 be 17 de 51 3e
       -0.20989747 -0.17998104 -0.22738482 0.20494877
000230 c6 70 a2 3e a2 1f 36 3e e4 14 26 bd f5 d6 9e 3e
       0.31726664 0.17785504 -0.040547267 0.31023374
000240 bc a1 40 3e 83 53 7f 3e 4d d1 20 3d 96 45 bd 3a
       0.18811697 0.24934201 0.039262105 0.0014440294
000250 f6 2c b5 3b 7c 91 d1 3d 88 d6 b5 3e bc 6e 18 be
       0.0055290414 0.10232827 0.35515237 -0.14885992
000260 30 0b 9e 3d e6 94 84 3e cd a1 8e 3d 03 62 3f bc
       0.077169776 0.2589485 0.06964455 -0.011681083
000270 5a 18 ce 3d 2d d8 cd 3d 3d 3c 8f be 43 e0 36 be
       0.100632384 0.10050998 -0.27975646 -0.17858987
000280 8e d7 42 3e 37 6c 52 bb 04 6f 78 be 52 de 4c 3d
       0.1902754 -0.0032107958 -0.24261099 0.05001671
000290 51 dc cb 3e b9 a9 8e bc bf 89 c1 bd 67 6f a8 bd
       0.39816526 -0.017414914 -0.09450101 -0.08224373
0002a0 2e 31 a3 be bc 70 81 be dd eb 8f be 5b 41 80 be
       -0.3187346 -0.25281322 -0.28109637 -0.25049862
0002b0 9d 39 18 3c 9e ef 44 3c 4a d2 a0 3b cb 70 20 3e
       0.00929108 0.01202002 0.004907881 0.15668027
0002c0 65 b9 ea bd 4b ed e3 3e f6 57 7e be 46 62 e7 bd
       -0.114611425 0.44516978 -0.24838242 -0.11298041
0002d0 97 e0 29 bd ba 08 ab 3e 79 89 aa bd a4 b2 8d 3e
       -0.04147395 0.33405095 -0.08327002 0.27675354
0002e0 fe 0b 9e bd b0 af e8 be a7 f0 35 3c 1c ee 5d be
       -0.07717131 -0.4544654 0.011104739 -0.21672863
0002f0 4e 7e 7d 3e 20 b6 2d be 3d ce 91 3d f1 f5 83 bc
       0.24755213 -0.16964006 0.07119415 -0.016108485
000300 e4 ab bb 3e f1 f1 95 3d 2c 6a 26 3e 88 63 dd bd
       0.3665458 0.07321537 0.16251439 -0.1081
000310 7d 54 3c be 0c b6 1c 3e 65 f1 a1 bc 44 d1 f0 3d
       -0.18391605 0.1530382 -0.019768426 0.11758664
000320 2d 0c 9a bd 14 eb ed be 12 8b 9d be 36 5a 1b 3e
       -0.075218536 -0.46468413 -0.30770165 0.15171131
000330 9f 73 23 bd 0b 97 b0 be 95 ff c7 be 33 bd bf bc
       -0.039905187 -0.34490237 -0.3906218 -0.023405647
000340 07 29 f3 bd 64 6a c0 3e 55 e3 34 3c df a7 96 3d
       -0.1187306 0.3758117 0.011040528 0.073562376
000350 59 73 44 be 30 f6 b8 3e ae 4f 67 be fa c4 14 3d
       -0.19184627 0.36125326 -0.22588989 0.036320664
000360 70 73 fa bc b1 d1 81 be a8 2a aa 3d 24 20 46 be
       -0.030572623 -0.25355294 0.08308917 -0.19348198
000370 3d fa 5a 3e a5 76 72 3b 8b 90 fd bc ea f7 9a be
       0.21384521 0.0036996987 -0.030952713 -0.30267268
000380 c2 5e 2f 3e 6f c8 5f bd af 7c e0 bd 36 63 0f 3d
       0.17125991 -0.054634508 -0.109612815 0.035006724
000390 3c 70 c6 bd 40 f1 02 bf b5 ec 24 3d 9c 82 a0 be
       -0.09689376 -0.5114937 0.040264804 -0.31349647
0003a0 3e 4e 35 3c fd ed a3 3d 6c db 78 be fc f2 78 be
       0.011066018 0.08004377 -0.24302453 -0.24311441
0003b0 1a a0 dd bd c1 9a 09 3e 84 fa 70 be bd c7 1f 3e
       -0.108215526 0.1343794 -0.23533064 0.15603538
0003c0 de 90 09 3e 62 82 3b 3e 06 9a fa bd a8 e5 da 3e
       0.13434169 0.18311456 -0.12236409 0.4275334
0003d0 fe 42 1f 3e 51 d5 d9 3d 53 eb 20 3d a8 0f 55 3d
       0.15552899 0.1063639 0.039286923 0.052016884
0003e0 aa 6e 93 be f7 c2 43 bd 10 1e ec bc 9a 84 86 be
       -0.28795367 -0.047793355 -0.028822929 -0.26273042
0003f0 9a ee 6d be 36 aa 90 3d c9 25 86 bd a3 ce 1c be
       -0.2323555 0.07063715 -0.06550176 -0.153132

critic.2.bias f4 [32]
000000 af 52 a6 3e 4f fd e2 3e c6 65 ba bd be 25 85 bc
       0.32484958 0.44333884 -0.09101443 -0.016253348
000010 6c 4f f9 3e 24 e3 0a 3c de fc 8b 3e 98 00 1f be
       0.48693407 0.008477006 0.2734136 -0.1552757
000020 75 a6 98 bd 16 0e b1 bd 0c 75 fd 3e 8b 86 af 3d
       -0.07453624 -0.08645265 0.49503362 0.08570584
000030 4f 90 5a 3e aa 34 bd 3d 62 41 17 3f 52 70 5a 3e
       0.21344112 0.092385605 0.5908414 0.2133191
000040 85 85 d0 bc e8 7c 01 bd d9 45 db 3e c5 b9 64 bc
       -0.025454292 -0.03161326 0.42826727 -0.0139603065
000050 75 92 d4 3e f4 14 e3 bd 47 d2 ac 3e ee 86 04 bd
       0.41517988 -0.11087981 0.3375418 -0.03235524
000060 45 3d 5b bd 22 97 b9 bc 9d 67 79 be 68 1c 47 3c
       -0.053525228 -0.022655074 -0.24355932 0.012152769
000070 e6 4f ee 3d 81 7f 6d 3e f7 c2 d1 3d eb fa 25 3c
       0.11636333 0.2319317 0.10242265 0.010130624

critic.4.weight f4 [1, 32]
000000 28 ad 76 3d 18 94 18 3e f6 75 bc 3c 8b 39 f5 3c
       0.06022373 0.14900243 0.023005467 0.029934665
000010 55 f3 ce 3d 6f 46 ba bc 68 01 ab 3d ce c2 08 bd
       0.10105006 -0.022738663 0.083498776 -0.033388905
000020 73 ad 43 3d b2 67 89 3c 0c b3 b1 3e 86 02 c6 3a
       0.047772836 0.016773079 0.34706914 0.0015106953
000030 da e0 62 3e 66 66 3e bd 7c 33 32 3e ab 38 ae 3d
       0.22156087 -0.046484374 0.17402452 0.08506902
000040 57 36 6b 3d 91 95 3e 3d 1d a4 64 3e 21 cb c8 bd
       0.05742487 0.046529356 0.22328229 -0.09804369
000050 44 c5 06 3e 23 8b 98 bc 68 d0 cb 3d 01 69 df bc
       0.13161188 -0.018621033 0.0995186 -0.02727175
000060 3a 81 04 bd 0d 1a 83 bd 29 85 b3 bd f5 ad 3b 3d
       -0.032349803 -0.06401453 -0.08765633 0.045820195
000070 f4 01 39 bd ff 90 06 3e 4c 65 54 bc d7 e5 30 3d
       -0.04516788 0.13141249 -0.012963604 0.043187942

actor_mean.0.weight f4 [64, 26]
000000 c3 5a 3d bb ef 96 12 3e 56 6c 35 bd f0 08 b1 3e
       -0.002889321 0.14315389 -0.04429277 0.3457713
000010 8e 33 23 bd f3 07 a2 bc 04 12 0b bc 8d 0c 96 bd
       -0.03984409 -0.019779181 -0.008488182 -0.073266126
000020 6a 28 1c bf ed 5d 69 3e b1 29 6f be 6a b2 81 ba
       -0.60999167 0.22789736 -0.23355748 -0.000989509
000030 28 93 b3 bd a1 69 92 be f7 85 2d 3e cb 36 c4 3a
       -0.08768302 -0.28596213 0.16945635 0.0014969943
000040 77 95 0e 3e 0b 1a 8f bd 99 bc 9a bc ae e8 70 be
       0.13924204 -0.06987389 -0.018888758 -0.2352626
000050 33 d5 8d be 32 73 f1 3d 62 8a 92 bd bb 94 53 be
       -0.2770172 0.1178955 -0.07155301 -0.20662205
000060 d4 fc 9a 3b a1 90 66 be af 05 50 bc ad 0a e4 bd
       0.0047298465 -0.22516109 -0.012696668 -0.11134849
000070 31 6a 10 3e 3c 5d 4d be 3d 47 46 3e 3d f8 58 3b
       0.14103009 -0.20055097 0.19363113 0.0033106946
000080 b5 1f d0 3d bf 2f c6 3e 53 02 96 bd 4d 13 6e 3e
       0.10162298 0.38708302 -0.07324662 0.2324955
000090 15 74 f7 bd 7b 5b 83 3e 1b 92 e3 be 14 ac c3 bb
       -0.12082688 0.25655732 -0.44447407 -0.005971441
0000a0 25 34 23 be d8 3b 7e 3e 7c 51 5a 3d a7 a8 37 be
       -0.1593786 0.24827516 0.053300366 -0.1793543
0000b0 cc ce 3a 3b 62 a7 63 be 75 5a 15 3d 57 f3 7d 3e
       0.0028504608 -0.2223182 0.03646322 0.24799858
0000c0 73 07 9d bc 77 54 1f 3e 64 9e c5 3e e7 b8 a6 3c
       -0.019168591 0.15559565 0.38597405 0.02035184
0000d0 d2 86 bf 3e 2b df cb 3d 1f 3f 81 be aa 45 ed bd
       0.37407547 0.09954675 -0.2524347 -0.11585553
0000e0 5d 26 d8 bd ea 7f 83 3e 73 4d 1a 3e 48 b3 23 be
       -0.10554192 0.25683528 0.15068607 -0.15986359
0000f0 cf 70 2c bd 5d d4 06 3e e9 6f 1a 3e 47 8f fa 3c
       -0.04209977 0.13166948 0.15081753 0.030585898
000100 a6 fc 54 be 97 c2 ed 3d 8d 72 2e 3e 08 c9 a5 be
       -0.20799503 0.11609381 0.17035885 -0.32379937
000110 de cb a1 ba 03 9a 2b 3f 89 90 4b 3e 6c 74 86 be
       -0.0012344082 0.6703188 0.19879355 -0.26260698
000120 6e 71 3e be a9 35 3d 3e cc d5 04 3e 6e fa fe 3d
       -0.18597957 0.18477501 0.12972182 0.124501094
000130 84 1c 24 3e 8a 5c b9 be 1d 8c d2 bb 17 f8 db bd
       0.16026503 -0.36203414 -0.006425394 -0.10740679
000140 03 f8 04 be 26 53 0e be 03 09 a5 be 67 a5 28 be
       -0.12985234 -0.13898906 -0.32233438 -0.16469346
000150 e1 b5 94 bd ca 74 2f 3e 19 09 c2 3e 2a 12 9f be
       -0.07261253 0.17134395 0.37897566 -0.31068546
000160 80 3c 49 3e ce e9 1e 3e c0 bb 8d 3e a4 2a a5 bd
       0.19651985 0.15518877 0.27682304 -0.08064774
000170 6e 25 54 bd 8b 44 3a 3e 84 54 93 bd e2 22 b4 3d
       -0.05179351 0.1819021 -0.071938545 0.08795716
000180 32 2e 90 be b1 4a 04 be fd ce 5b 3e 7b fd aa 3e
       -0.28160244 -0.12919118 0.21465679 0.33396515
000190 97 cc e9 bc 89 f7 b0 3e d7 31 46 3d ba df 81 bd
       -0.028539939 0.34563854 0.048387375 -0.063415006
0001a0 f3 91 cf be 21 10 fa bd 8e c1 b4 bd cd e8 b3 3d
       -0.40541038 -0.122101076 -0.0882598 0.087846376
0001b0 70 e0 a5 3d 28 0d bc be 49 be fd 3e 38 5c 2f 3e
       0.08099449 -0.36728787 0.4955924 0.17125022
0001c0 74 58 8a 3e 49 14 99 3d 04 68 85 bb 8f ae 75 be
       0.2702061 0.07474572 -0.0040712375 -0.2399237
0001d0 af 1a fc 3c 68 45 2f 3e 7b 96 db bd 20 d5 c7 be
       0.030774442 0.1711632 -0.10722061 -0.3902979
0001e0 bc dc 86 3e 9f e3 7c be 4c 09 3e be 61 17 65 3d
       0.26340282 -0.24696206 -0.18558234 0.0559305
0001f0 5e 1f 76 3d 23 48 00 3e 80 df 2b 3e ce 2e a3 3e
       0.060088508 0.12527518 0.16784477 0.31871647
000200 cf 0b 06 be f1 40 00 bd f3 d9 94 be 49 35 6d 3d
       -0.13090442 -0.031311933 -0.29072532 0.057912145
000210 4d 71 6a 3d a3 d3 ca be 49 be 04 bd af 62 91 be
       0.05723696 -0.3961459 -0.032408033 -0.28395602
000220 d2 fd 15 be ec 15 2d 3e b8 1d dc be 73 a2 cd 3d
       -0.14647606 0.16902894 -0.42991424 0.1004075
000230 ef ce 24 bd 24 7c 2c be 24 31 8d bd ce 8e f3 3d
       -0.04023641 -0.16844231 -0.068941385 0.11892472
000240 b4 86 f6 be be 00 6c 3d 62 9b 6a 3e fa b1 20 3d
       -0.48149645 0.057617895 0.22910836 0.03923223
000250 7e 62 93 3e 89 c1 08 3e 43 0f 0b 3e 92 68 11 3c
       0.2878608 0.13355078 0.1358004 0.008875029
000260 33 25 b6 bd 00 78 2e be 9c 1a f8 3d bc 4d 76 3b
       -0.08893814 -0.17037964 0.1211445 0.0037582954
000270 a1 bb 8d be 20 96 9e bd 01 84 c9 bd 7d 71 b9 be
       -0.27682212 -0.07743478 -0.09839631 -0.36219397
000280 c3 81 53 be f5 49 60 3e 6c ef 90 bd 7d 58 52 be
       -0.20654969 0.21903212 -0.07076916 -0.20541568
000290 5b 10 45 be ad 56 b6 bd e6 ff b4 be 82 1b 8f be
       -0.1924452 -0.08903251 -0.35351485 -0.27950674
0002a0 a8 d1 ef bc 01 85 ad 3d e6 58 9f 3e 16 c5 38 3c
       -0.029274777 0.08472634 0.31122512 0.011277458
0002b0 76 29 62 bd 64 43 67 3e 99 42 19 be 5f 70 b5 3e
       -0.05521532 0.22584301 -0.14966811 0.35437295
0002c0 a6 f8 cb bd 89 fb 3b bd 29 5d 7e bd 8e 00 e7 3c
       -0.09959535 -0.04589418 -0.062100563 0.028198507
0002d0 3c 26 36 3e 09 6d 55 3e dd f4 1b 3b 1a fe a4 bd
       0.17788023 0.20842375 0.0023797073 -0.080562785
0002e0 e1 5d 69 3e 70 b0 08 3e ad 78 8c 3c c5 9d 64 3c
       0.22789718 0.13348556 0.017147386 0.013953631
0002f0 f1 6d 8d 3e 6c f8 96 bd ba 76 0e be 10 25 61 3e
       0.2762294 -0.073716015 -0.13912478 0.21986794
000300 ee dd b7 bb c1 0e 80 bd 71 24 07 3e 00 b3 d8 be
       -0.005611173 -0.06252814 0.13197495 -0.42324066
000310 9f 8d 63 be 0e 62 5a 3e 65 7e 55 be cc e4 f4 3d
       -0.22221993 0.21326467 -0.20848997 0.11957702
000320 22 c6 09 3e 70 6c 15 3e 41 b3 23 be c2 17 b3 3e
       0.13454488 0.14592147 -0.15986349 0.34979063
000330 a3 08 7e 3e 6f c7 fe bc 22 42 b0 bd 34 83 ea 3e
       0.24807982 -0.031100957 -0.08606364 0.45803225
000340 c3 6d 0e 3e 96 8a ae be 95 e4 99 bc b2 e4 fe bd
       0.13909058 -0.34090108 -0.018785754 -0.12445964
000350 d0 9b 23 3e 6f 8c 59 3e cb 58 43 bd 16 6f 6e bd
       0.15977407 0.21244977 -0.0476921 -0.05821141
000360 7b 72 b2 3e fc a0 c4 bd 03 70 83 3e cf 54 85 3d
       0.34852967 -0.09601018 0.25671396 0.065103166
000370 47 cb 23 3e 29 98 3c 3d 3b d5 80 be ea 38 2f be
       0.15995513 0.04604355 -0.25162682 -0.17111555
000380 5b 96 cf bd 39 8b 1a 3d 14 27 9e 3c c1 26 1a 3e
       -0.101361 0.03773043 0.019305743 0.15053846
000390 6f 3b 1e 3e 99 97 98 bd 1e 89 59 3d 48 ac 18 3e
       0.1545236 -0.0745079 0.05310928 0.1490947
0003a0 6c 89 89 be 0f 14 3d bc 2a 48 ee bd ef 88 f1 bd
       -0.26862657 -0.011540427 -0.11634858 -0.11793696
0003b0 64 94 7c bd 05 a1 72 3d be 52 c5 be 83 da 60 3e
       -0.061664954 0.05923559 -0.3853969 0.21958356
0003c0 35 f3 77 be 32 f9 83 bb 30 f9 26 3e f7 14 2a 3e
       -0.2421387 -0.004027509 0.16305995 0.1660956
0003d0 8d 3f c7 bc ea fc bf bd 20 8c 96 3e 56 19 70 3c
       -0.024322296 -0.093744114 0.29403782 0.014654478
0003e0 7c fb 66 be 82 1b 18 3e 6d e2 ee 3c 5e 96 dc be
       -0.22556871 0.14854243 0.029160703 -0.4308347
0003f0 0d 73 c7 3c 10 a5 89 3d 96 5c 56 3e 14 d6 7a bd
       0.024346853 0.06720936 0.20933756 -0.061239317

actor_mean.0.bias f4 [64]
000000 ab 6e 0c 3d 0d 9e 2a bd c1 8d d0 3d 9e d2 7a 3d
       0.03428523 -0.041654635 0.101832874 0.061236016
000010 ff 9e e5 bb 06 cc 16 be e6 75 27 be 21 e1 b0 bd
       -0.007007479 -0.14726266 -0.16353568 -0.0863669
000020 7b 92 ce 3c 79 5e 5c 3c 46 42 c0 bd 7c a4 e0 bd
       0.025216332 0.013450258 -0.09387641 -0.10968873
000030 13 8c 63 3c 22 69 12 bc 2d 28 a6 bd 98 34 98 3b
       0.013888377 -0.008936198 -0.08113132 0.0046449415
000040 d1 7c 76 bd a9 68 91 3d 14 a2 68 bd 68 9f 41 bd
       -0.060177628 0.071000405 -0.056795195 -0.047271162
000050 fd f6 d4 3c cb 45 0a be c6 fc 24 3e ff b8 be 3d
       0.02599668 -0.13503186 0.1611205 0.09312629
000060 9a 72 4d 3e 68 24 23 3e 50 6b a5 3d 09 90 43 bd
       0.20063248 0.15931857 0.08077109 -0.047744785
000070 d5 b0 92 3c 04 1d 72 bc 3d 34 fb 3d c8 5e ec b9
       0.017906586 -0.014777426 0.12265823 -0.00045084045
000080 37 6a da bc 2e ae ba bd b7 64 fb bd c4 a5 0e 3d
       -0.026661975 -0.091152534 -0.12275069 0.034826055
000090 96 69 22 3d aa 71 a2 3c 94 8d 7c 3d 0e 7c 83 bd
       0.039651476 0.01982959 0.061658457 -0.06420146
0000a0 f1 14 9c 3d c2 69 f3 bd d3 65 fb 3d ad aa 81 3d
       0.07621182 -0.11885406 0.12275281 0.06331382
0000b0 24 1d 03 bd 4b 1c ef 3d 5f 4d b9 3c 90 6e 29 3c
       -0.032010213 0.11675318 0.022619901 0.010341302
0000c0 d4 97 6f bd 80 75 c4 3c dd 56 6f bd c6 13 89 3d
       -0.058494404 0.02398181 -0.05843245 0.066932246
0000d0 71 3d 75 3c 58 65 ca 3c d5 46 d0 bd 1c ea 94 3c
       0.014968262 0.024706528 -0.1016976 0.018178038
0000e0 d4 bf 1c 3c da 7f 17 bd a5 ba 9b 3d 1d 6a 98 ba
       0.00956722 -0.036987163 0.07603959 -0.0011628304
0000f0 ec d1 ca 3d 7c da fb bb ba 3d 3c bd 4d f7 9d bd
       0.09903321 -0.0076859575 -0.045957305 -0.077131845

actor_mean.2.weight f4 [32, 64]
000000 07 11 a5 be 54 37 92 bb 4e 97 3d be 12 c1 1b 3e
       -0.32239553 -0.004462162 -0.1851475 0.15210369
000010 d1 d3 41 3e 96 47 e1 bd ba 91 a0 bc bd be 38 bd
       0.18928458 -0.10999982 -0.019600738 -0.045103777
000020 1a 68 88 3e e4 c1 8c 3e a1 5b 59 bd 8c 8c 9c 3c
       0.26641923 0.27491677 -0.0530659 0.019109987
000030 ab 4b 94 3e 3e 53 cc 3c fd b5 f6 3d 9f 10 25 3d
       0.2896398 0.024942037 0.1204643 0.040299054
000040 d0 31 49 3d f9 39 e9 bd df ec 0a 3d af 85 9d be
       0.04911977 -0.113880105 0.033917304 -0.30766055
000050 55 d6 b6 bc 92 c3 cb 3e 5e 8d be be d2 86 87 3e
       -0.022318998 0.39797646 -0.3721723 0.26470047
000060 b5 56 4f 3c 38 ca 26 bf a3 0d 51 3d d5 0a 6a 3d
       0.01265495 -0.6515231 0.051038396 0.057139236
000070 ff f0 fb 3b 2c cd b3 bd 7d a2 03 3e 77 cf 86 bd
       0.007688641 -0.08779368 0.12854953 -0.065825395
000080 e6 94 87 be 3a a2 67 be cc 8b 55 3c 69 98 8c bc
       -0.26480788 -0.22620478 0.013033818 -0.017162519
000090 52 4a 0c 3e 5e d3 37 3c 70 ae 25 bd 22 ab ae 3e
       0.13700226 0.011219827 -0.04044956 0.3411494
0000a0 cb ca 43 3c 2a af 5f bd 66 96 89 be 00 50 72 be
       0.011950205 -0.05461041 -0.26872557 -0.2366333
0000b0 82 ed 3f 3e a9 6f 6a 3c ae ee af 3d bb 3d a3 3d
       0.18742946 0.014308848 0.085904464 0.079707585
0000c0 4e e4 5a 3e 9a a8 c9 3d 08 a7 47 bd 10 af 91 be
       0.21376154 0.09846611 -0.048743278 -0.28453875
0000d0 88 34 dc 3d 83 4a ce bd 12 96 b3 be e8 1e 98 be
       0.10752207 -0.10072806 -0.35075432 -0.2971108
0000e0 41 7f db bd c0 0a ee be ef 1b 02 bd f4 ff fb 3c
       -0.10717631 -0.46492577 -0.03176492 0.030761696
0000f0 66 af 88 be 95 69 cb 3d dd f4 28 3e 9b 4d f8 3d
       -0.26696318 0.099322475 0.16499658 0.12124177
000100 9c 2c 1c be 58 15 90 bd 88 56 94 3e 46 f0 09 3f
       -0.15251392 -0.07035321 0.28972268 0.53882253
000110 e7 a4 4c 3e af 1b 06 3d 3a 96 40 3d b3 97 02 be
       0.1998478 0.032741245 0.047018267 -0.12753181
000120 4e 76 ba bd d2 15 3e 3e de b3 65 3d 42 2a 02 be
       -0.09104596 0.18563011 0.056079738 -0.12711433
000130 11 55 a7 bc 97 de d8 bd 46 5c 78 be cc 1c 9f 3c
       -0.020426305 -0.10589331 -0.2425395 0.019422911
000140 25 66 da 3d 8f 2f 80 3d 46 e2 7c 3e e0 12 a5 be
       0.10664014 0.06259071 0.24695691 -0.32240963
000150 ad f5 0c 3f b3 f3 8d 3d d3 4b 56 3d a7 2a e2 bd
       0.5506237 0.069312476 0.052318405 -0.110432915
000160 cc d3 8a be 06 93 27 bd e2 3e 78 3e a9 e4 24 3e
       -0.27114713 -0.040911697 0.24242738 0.16102852
000170 b6 36 14 be e9 96 e1 3d 06 7b 22 bd 95 36 c0 bc
       -0.14473996 0.11015112 -0.039668106 -0.023463527
000180 d1 07 40 3e 10 8f 85 3d 47 af 3a be 96 07 2d be
       0.18752982 0.06521428 -0.18230926 -0.16897425
000190 c6 cb aa bd 0a 50 70 3e f0 58 a0 3c 51 5e c9 3e
       -0.08339648 0.23468032 0.019573659 0.3932977
0001a0 9c 47 2b be c5 c2 aa 3e 3e 45 2a 3e f4 6e 13 3b
       -0.16726536 0.33351722 0.16627976 0.0022496553
0001b0 77 b2 9c bd a1 e2 ac bd 70 95 ff 3d 6e f6 2a 3e
       -0.07651227 -0.084416635 0.12479675 0.16695568
0001c0 bb 9a 32 3e ba 14 d0 3e 56 53 10 bc 66 d6 a5 be
       0.17441837 0.40640813 -0.008808931 -0.32390136
0001d0 e3 50 38 be 02 63 02 be fa e0 0b be c5 56 c5 bd
       -0.17999606 -0.12733081 -0.1366004 -0.096356906
0001e0 cf ea 97 be 31 a6 64 bc 9c 9d a3 bd 78 4d 67 be
       -0.29671332 -0.013955639 -0.07989046 -0.22588146
0001f0 8d 6d 5e 3d 20 9d 1a be 91 50 b6 3d be 33 0a 3c
       0.054303695 -0.15099001 0.089020856 0.008435188
000200 31 f5 82 3e 2a 91 d0 3b 82 43 9d bd f2 b1 82 be
       0.2557769 0.006364961 -0.07678892 -0.25526386
000210 c7 e5 7e 3c 72 de 8e 3d 74 b8 61 be c2 4a b4 3e
       0.015557713 0.06976022 -0.2204302 0.35213286
000220 27 9a 06 be d1 ac 71 3e 67 b1 bf be 75 5c e8 bd
       -0.13144742 0.2360108 -0.37440035 -0.1134576
000230 c5 7b 42 3d eb 43 31 bc 41 47 4c be 92 ac 9c bd
       0.047481317 -0.010819416 -0.19949056 -0.07650103
000240 6d b4 37 be 6d bf 67 3e c7 1b 68 3d bf db 6a 3d
       -0.1793992 0.22631617 0.056667116 0.057338472
000250 00 b8 98 3e 47 bc 06 3e f7 e6 73 bd c7 c6 f2 be
       0.2982788 0.1315776 -0.059546437 -0.4741728
000260 59 3b c6 3e b9 c2 0d 3d 77 4b d9 be 40 e8 46 3d
       0.38717154 0.03460953 -0.42440388 0.048561335
000270 7f b4 9a 3d 22 f8 09 be 99 39 5a 3c de eb d7 bd
       0.07553958 -0.13473561 0.013319396 -0.10543035
000280 ff a4 f2 bd 62 df ba bd e9 8a 34 be 68 c6 62 bd
       -0.11847877 -0.09124638 -0.17631115 -0.055364996
000290 75 b6 75 3e cb be d0 be 6c ca 92 3d b6 00 33 be
       0.23995383 -0.40770563 0.07167515 -0.1748074
0002a0 43 0d 50 3e a6 da e6 bc f6 5c db 3e 0e 0a d4 3d
       0.20317559 -0.028180432 0.4284436 0.1035348
0002b0 db 6f e5 3e 33 b2 a7 3e 28 1e 86 be 5a 3c 4c be
       0.448119 0.32753143 -0.26194882 -0.19944897
0002c0 b3 59 da bc be 5f 2a 3e 38 67 34 3e 53 b5 ac 3c
       -0.0266541 0.16638085 0.176175 0.021082556
0002d0 31 93 24 3e e9 d1 7a be 6b 47 2e 3e fd d7 1f 3d
       0.16071774 -0.24494137 0.17019431 0.03902434
0002e0 10 27 30 3e fb cb 7e 3d cf 0a ab 3d 36 f5 01 3e
       0.17202401 0.06220625 0.08351671 0.12691197
0002f0 92 73 fd 3d 78 df d7 3c 26 0d e8 bd c5 36 48 ba
       0.12375559 0.026351675 -0.11330633 -0.0007637556
000300 5c 85 eb 3c cc 19 50 be ea 98 2c 3c 90 9c 5d be
       0.028750114 -0.2032234 0.010534504 -0.21641755
000310 26 28 a0 ba 07 a0 26 be 95 92 95 be 88 3b 66 3d
       -0.0012218996 -0.16271983 -0.29213396 0.056209117
000320 66 a3 9c bd 1b 68 d6 bd 4f f0 99 be 1c 4b fa bd
       -0.07648353 -0.10469075 -0.30066153 -0.12221357
000330 e2 cc 0e 3d 09 44 60 3d 16 7a 7e 3c fe 03 c5 3d
       0.03486336 0.054752383 0.015532037 0.09619902
000340 6b 61 2d be 01 ee 28 be 66 b4 03 3e a3 80 6a be
       -0.16931693 -0.16497041 0.12861785 -0.22900634
000350 34 11 c2 3e 9b 1a 19 be c1 0a b0 3c 7b 79 8e 3e
       0.3790375 -0.14951555 0.021489503 0.27827057
000360 ad b7 c5 3e ea a3 91 3d 14 6f 3f 3e ed c7 53 bc
       0.38616696 0.07111342 0.18694717 -0.012926084
000370 48 61 4d 3d 43 94 62 3e 8f 9c 94 3e 77 fe 1f bd
       0.050141603 0.2212687 0.29025695 -0.039061036
000380 37 96 30 3e 89 a5 df bb d6 3c 7f 3e 0a 82 71 3d
       0.17244802 -0.0068251533 0.24925551 0.058961906
000390 9a bd cc 3c d8 bb f3 3e 22 3d 0b bf 4c e5 85 3d
       0.024992753 0.4760425 -0.54390156 0.065378755
0003a0 26 04 32 3e b4 86 3f be f0 36 99 bd 0c 84 a2 bd
       0.17384395 -0.18703729 -0.074811816 -0.07935342
0003b0 86 00 29 bc 8a f3 7d 3e d0 de 4b be 51 59 b3 3d
       -0.010315066 0.24799934 -0.19909215 0.0875727
0003c0 68 5a 5a be 12 2a 38 3e a2 57 83 3d 5b b7 7e 3e
       -0.2132355 0.17984799 0.06413199 0.24874632
0003d0 88 dc 28 3e 31 d3 71 3e d5 57 d2 be 8c 16 47 3e
       0.16490376 0.2361572 -0.41082636 0.19442195
0003e0 f8 26 7a bb c3 44 8a bc 14 0c 6b be d2 9a 21 3d
       -0.00381702 -0.016878491 -0.22953826 0.03945429
0003f0 bb 44 41 3e 55 e8 8a be 7f 4b 95 be 40 69 32 be
       0.18873875 -0.2713038 -0.2915916 -0.17422962

actor_mean.2.bias f4 [32]
000000 2d b8 d2 bd 99 86 c8 bc 6b e9 ce 3d 22 ef 28 3e
       -0.10289035 -0.024478244 0.10103115 0.16497472
000010 78 59 0b be 53 56 03 3c bf 35 05 be 8e 73 0a 3b
       -0.13608348 0.008016187 -0.13008784 0.0021126005
000020 9a 8c 28 bd b1 5e 2a 3d 61 ca d2 bd 00 7c eb 3d
       -0.041149713 0.04159421 -0.10292507 0.114982605
000030 c3 0e c6 3c d4 6c a8 bd 67 53 3f bc 71 29 f6 bd
       0.02417696 -0.08223882 -0.0116775995 -0.12019623
000040 f4 18 c1 3d 26 86 ec 3c 26 e8 89 bd a7 21 aa bd
       0.094285876 0.02887256 -0.06733732 -0.083072
000050 1c a2 c2 3c c5 ec 2b bc 71 f3 d1 3d 39 4e 64 3d
       0.02375894 -0.010493462 0.10251511 0.05573866
000060 e9 d1 69 3d b4 5e 7d 3d 25 c8 08 3d 2e 5d 37 bd
       0.05708495 0.061857894 0.033393998 -0.044766597
000070 d9 70 e8 3d 06 d6 b7 3c 42 e8 70 3d de e8 c3 bc
       0.11349649 0.022440922 0.05881525 -0.02391475

actor_mean.4.weight f4 [6, 32]
000000 5e 49 c4 be 3b e3 3d be c7 72 4f bc 61 87 dc 3c
       -0.38337225 -0.18543713 -0.012661642 0.026920022
000010 0f ba 0b 3d e0 3a 82 3e da 3f b2 3e 0a f0 24 3e
       0.034112986 0.25435543 0.3481434 0.16107193
000020 91 18 b5 3e 8d f8 10 3d f9 35 7c 3e 06 75 5e be
       0.35370305 0.035393286 0.24629964 -0.21724328
000030 73 c0 d2 bd 18 ad 64 be d6 7f b2 3d d2 11 b4 3e
       -0.10290613 -0.22331655 0.08715789 0.35169846
000040 07 a1 7a bd 75 e8 1b 3e 63 6d af bc fd 2b a8 bd
       -0.061188724 0.15225394 -0.021414464 -0.08211515
000050 a8 7f b4 be 6e fd df 3e 3c 1f e8 3d b8 c4 ae bd
       -0.35253644 0.4374804 0.113340825 -0.08533615
000060 1b c9 6a 3d d8 94 e4 3d 86 25 7b be 57 8c 40 3e
       0.057320695 0.11161202 -0.24526033 0.18803535
000070 a1 80 66 3e eb b8 ee bd 2b 36 a5 3c 44 80 99 3c
       0.22510006 -0.11656364 0.02016743 0.01873792
000080 d9 6c 6a 3d 7e ce a1 bd eb 91 3a be 73 60 85 be
       0.05723271 -0.079007134 -0.18219726 -0.26050147
000090 cc 65 bf 3d 1a 61 17 bd 9b 52 80 3d ba e6 f6 bc
       0.09345588 -0.036957838 0.06265756 -0.030139316
0000a0 4f 57 f3 3d e9 e6 0a bd 88 6d 0d 3f 8e 1e 83 be
       0.11881887 -0.03391162 0.55245256 -0.2560925
0000b0 94 dd 43 3e f9 b3 7a 3e a2 20 23 be fe ee 96 3d
       0.19127494 0.24482717 -0.15930417 0.07369803
0000c0 5e 74 af be 9e 5e 17 be 13 03 ae 3e f3 9b 26 bd
       -0.3426847 -0.14782187 0.3398672 -0.04067607
0000d0 e7 da 30 be ef 7d 84 3d c2 5d cb be 3f be 9c be
       -0.17271005 0.064693324 -0.3971997 -0.30613896
0000e0 56 f4 99 3d d9 08 3a 3d d7 b8 0f be 4e 61 fb bd
       0.075173065 0.045418594 -0.14035355 -0.12274419
0000f0 16 8a e3 be f1 1c 3e be 80 08 c0 3d d0 cf 22 3e
       -0.4444129 -0.18565728 0.09376621 0.15899587
000100 9b c9 6a be bb e8 5f bd 31 ef 96 3d 1e 49 9e 3e
       -0.22928469 -0.05466531 0.07369841 0.3091516
000110 27 03 eb 3c 70 2c b4 bd cf af 5e bd 2e 9f 8b 3d
       0.028688027 -0.08797538 -0.054366883 0.068174705
000120 32 50 f1 3d ed ee b1 3e 16 f9 c9 3e 90 78 ed bd
       0.11782874 0.34752598 0.3944785 -0.11595261
000130 fa 72 07 3e 6a 5e c1 3d 9b a2 da be 39 fe db be
       0.13227454 0.09441836 -0.42702183 -0.42967394
000140 b2 a8 2d 3c 17 4a 05 be ad 5c 82 bd 72 8c 8f 3d
       0.010599302 -0.13016544 -0.06365333 0.0700921
000150 41 9a 9e be d3 98 80 be ae dd 84 bd 90 2a c5 3e
       -0.3097706 -0.25116596 -0.064875945 0.38509035
000160 a2 e4 60 3e 85 82 d5 bd 96 99 d2 bd 18 da 60 bd
       0.21962216 -0.10425285 -0.102832004 -0.05489549
000170 c2 a0 6e 3e 28 77 1c 3d 88 5f 10 bd ca ae 31 3e
       0.23303512 0.038199574 -0.035247356 0.17351833
000180 28 0e a1 be aa 82 8b be a4 c4 24 3f e8 40 87 be
       -0.31456113 -0.27248126 0.6436255 -0.26416707
000190 3d 0f b9 bd 4e e8 62 3e e2 e0 7f 3e 92 14 c9 3d
       -0.090361096 0.2215893 0.2498813 0.098183766
0001a0 1c 6f b3 3d 2e 5b 52 3e e1 b0 2e bd a7 21 b1 3e
       0.08761427 0.20542595 -0.042649154 0.34595987
0001b0 c1 62 01 3f 2e c5 a0 3c 17 0d 5d bb 51 b1 55 bd
       0.5054131 0.019625273 -0.0033729726 -0.052171055
0001c0 98 c8 c2 3d 16 91 ac bd 2c 7c dc 3e 71 37 9e be
       0.095109165 -0.084261104 0.43063486 -0.30901673
0001d0 c8 b9 fc 3d bb e3 26 3d 1d 6f 73 3e fd 76 f1 bd
       0.123401225 0.040744524 0.23772855 -0.11790273
0001e0 82 d8 b9 3e 85 62 65 3e dc 64 58 be 75 c0 c4 bd
       0.36297995 0.22400863 -0.21132225 -0.09607021
0001f0 ec dd 85 bd 90 fa 40 bd 8c d4 ab 3e 9b 74 e2 bd
       -0.06536469 -0.047113955 0.33560598 -0.11057397
000200 d4 20 df bd 81 fc 2c 3d db d2 1b 3e 4c 40 d5 3d
       -0.10894933 0.042232994 0.15217154 0.10412654
000210 e1 41 bd be 71 33 72 3d ab e8 74 3e 55 34 5f 3d
       -0.36964324 0.05913109 0.23916881 0.054493267
000220 75 cf 99 3e aa 83 c6 be 3b 03 60 bc 72 13 03 3d
       0.3004109 -0.38772327 -0.013672645 0.032000966
000230 92 82 16 3d 10 0d 51 3c cc a8 3e 3d 08 bd a5 3d
       0.036745615 0.012759462 0.046547696 0.080926955
000240 22 58 89 be a3 e3 84 be 12 bb 4b be a6 56 36 be
       -0.26825052 -0.25954923 -0.1989558 -0.17806491
000250 d8 25 30 3e 09 12 13 be f9 8a 40 be d4 e6 49 be
       0.17201936 -0.14362349 -0.18803014 -0.1971696
000260 d6 c0 14 be 1e 56 15 be 37 f5 b2 bd ca cf b1 3e
       -0.14526686 -0.14583632 -0.08738177 0.34728843
000270 87 9c 41 3c cc d4 28 3e 49 bc a2 3b 24 c2 af bc
       0.011817104 0.16487426 0.004966293 -0.021454878
000280 06 40 c6 bd 57 32 11 3e 87 ee 7c be 15 3d 86 3e
       -0.0968018 0.1417936 -0.24700366 0.26218477
000290 e1 aa 8f be bc 01 56 3e 06 a0 72 3e b7 61 1b bd
       -0.28060058 0.20899099 0.23693857 -0.037934985
0002a0 a4 89 73 be 8f 4f ac be 4b b6 9a 3c 42 3b fe bd
       -0.23782974 -0.33654448 0.018885752 -0.12413646
0002b0 4f 33 34 3e 25 1f 94 be 43 de 23 3e 08 c8 a6 bd
       0.17597698 -0.2893001 0.16002755 -0.08143622
0002c0 a7 27 9d 3e 2f f7 3e 3e e9 86 71 3e 73 ab a8 bc
       0.30694315 0.1864898 0.2358662 -0.020589566
0002d0 d7 64 57 be 4e 55 b9 bd b3 0b e2 3d 7e 0e e2 bc
       -0.21034561 -0.09049474 0.11037388 -0.027594801
0002e0 56 f0 3b 3e 58 04 73 3e 9c 2b c8 3d 3e 23 dd 3d
       0.183534 0.23732126 0.09773943 0.107977375
0002f0 be 78 52 be de b3 f2 bd b4 98 1c 3e 94 fb 18 3e
       -0.20553872 -0.11850713 0.15292627 0.1493972

actor_mean.4.bias f4 [6]
000000 9a 54 14 bd b9 3f 5e be 9d 46 91 3d 5d db da 3d
       -0.036213495 -0.21703996 0.070935465 0.106863715
000010 11 9b 0e bc 34 8c c1 3c
       -0.008703963 0.023626424
