Project/Ming_Jiang_1016239_Gengcong_Yan_1009903_Project/Part1/trained agents/ppo/InvertedPendulumBulletEnv-v0_PPO_403_1638452956_ppo.pth (torch, 23870 bytes, 10 tensors)

critic.0.weight f4 [64, 5]
-0.21497491 -0.27822378 0.30737615 -0.269348 0.03177964 0.31285998 0.15599884 0.032772847
-0.08838952 -0.1404402 -0.31396773 0.065226145 -0.30213127 0.013046537 -0.10264047 0.10701721
-0.45169958 -0.25491884 -0.1865616 -0.21292815 0.3168449 -0.35325727 -0.08651854 0.11634698
0.20143986 -0.29821932 -0.02084344 0.14642163 -0.12944697 -0.08654526 0.42604986 0.17051166
0.15650883 -0.06425878 -0.16176666 -0.15696691 -0.42509267 -0.11829259 -0.102570035 -0.008399149
0.0908668 -0.23852251 -0.023583276 -0.0026431275 -0.1220212 -0.2717139 -0.20183413 -0.04397324
-0.30371755 0.09886155 -0.43971902 -0.2760346 -0.015138404 0.14967063 -0.01558741 -0.038207114
0.07777677 -0.0357228 0.041085843 0.3258056 0.15849075 -0.16131377 -0.079256974 0.10086753
0.17805122 -0.12836486 0.26590872 -0.19008501 0.026907023 0.22652665 0.2997698 0.08606071
-0.104417704 0.021535425 0.033692192 0.49793723 -0.23485118 0.17561369 -0.067735106 -0.19685793
-0.43162054 -0.19822562 -0.412041 -0.3032586 -0.14533739 0.34072277 -0.11292825 -0.07074168
0.2554166 0.14661957 -0.2193431 -0.06379921 -0.12360646 -0.003928709 -0.18738215 -0.31217664
0.02620509 0.23290205 -0.032674544 -0.04815792 -0.13601683 -0.6303185 -0.19675528 -0.16224042
-0.40018383 -0.32299557 -0.21787207 0.025368465 0.2098153 -0.28454277 0.46570304 0.0369171
0.15873483 -0.2637414 0.023162588 0.27332738 0.16459009 0.097081274 0.08860615 0.14324549
-0.2632994 0.19468299 0.43022344 0.16455278 -0.03195864 0.08787246 0.2567926 -0.021434309
0.37964836 0.09235207 -0.12954749 0.10816116 0.26113415 0.013128401 -0.4772312 -0.3166372
0.1572033 0.07389531 -0.35000357 -0.0115808025 0.21271938 0.20104636 -0.22904453 -0.11664247
0.11414766 -0.1299295 -0.28767693 -0.13783887 0.008416092 -0.013679666 -0.13448086 0.11225297
-0.11759756 -0.11662381 -0.09069778 -0.34987703 -0.22830114 -0.22970097 0.085980654 -0.34638932
0.09678143 -0.075502194 -0.5307713 0.22692654 -0.21878564 0.25943556 0.18152098 -0.26345086
0.08762682 0.033880632 -0.1424834 -0.3511621 -0.05694382 -0.20504685 0.005920857 0.212883
0.23754638 0.22484384 0.011228198 -0.19880687 -0.41558114 0.017072652 0.5729825 0.1715502
0.0045887628 0.09781917 0.060675684 0.11864761 0.022753181 0.087058015 0.33588868 0.06963008
0.07038302 -0.21915832 0.2872939 0.5795464 -0.10186554 -0.11904866 -0.23435682 -0.11283652
0.3209577 -0.45743337 0.040835284 0.07498797 -0.27120987 -0.29709575 0.34966102 -0.1371969
-0.15062253 0.01139879 -0.124375395 0.053701513 -0.11885885 0.25688937 0.029112957 -0.44969106
-0.15235464 0.2714294 -0.20196405 0.07063931 0.19221592 -0.12115563 0.2050591 -0.040117696
0.3850732 0.32210055 0.2505842 -0.18613723 -0.1673492 0.14255656 -0.24642175 -0.1931524
0.119523965 -0.16757335 -0.12580639 0.32499966 0.10988304 -0.211176 0.17947967 -0.13698848
-0.36354983 0.086099215 0.1284578 -0.31125107 0.15004171 0.5960524 -0.19990624 -0.019631682
-0.18054245 -0.12557545 -0.62371874 -0.0073404154 -0.1426797 -0.17265531 -0.017365495 -0.4659697
00000000: 6222 5cbe 5973 8ebe 6860 9d3e fbe7 89be
00000010: 5e2b 023d 2f2f a03e 29be 1f3e d23c 063d
00000020: 9105 b5bd 8ecf 0fbe 61c0 a0be 4995 853d
00000030: f3b0 9abe 24c1 553c 2b35 d2bd d72b db3d
00000040: 2b45 e7be b984 82be 010a 3fbe d609 5abe
00000050: 7f39 a23e 23de b4be a230 b1bd 5347 ee3d
00000060: 4046 4e3e 34b0 98be ddbf aabc 8def 153e
00000070: bf8d 04be a43e b1bd 3523 da3e 9c9a 2e3e
00000080: da43 203e 1b9a 83bd 29a6 25be efbb 20be
00000090: bfa5 d9be 6343 f2bd 3d10 d2bd 969c 09bc
000000a0: 5f18 ba3d 3f3f 74be b731 c1bc 5238 2dbb
000000b0: 40e6 f9bd 161e 8bbe 9bad 4ebe 491d 34bd
000000c0: de80 9bbe ed77 ca3d da22 e1be 6854 8dbe
000000d0: 1207 78bc 4243 193e 5662 7fbc 107f 1cbd
000000e0: 6d49 9f3d 1252 12bd a149 283d fecf a63e
000000f0: 664b 223e 702f 25be 7b51 a2bd a393 ce3d
00000100: 0f53 363e 1472 03be 3025 883e a5a5 42be
00000110: 1e6c dc3c 9af6 673e 6d7b 993e 9940 b03d
00000120: f3d8 d5bd 0f6b b03c d300 0a3d a1f1 fe3e
00000130: d47c 70be 13d4 333e b4b8 8abd 2095 49be
00000140: 5efd dcbe a8fb 4abe 0af7 d2be b644 9bbe
00000150: 53d3 14be 3773 ae3e ed46 e7bd 04e1 90bd
00000160: f7c5 823e 7123 163e 7a9b 60be 29a9 82bd
00000170: 6225 fdbd 66bc 80bb 1be1 3fbe 9ed5 9fbe
00000180: 0fac d63c e07d 6e3e bed5 05bd 3d41 45bd
00000190: ff47 0bbe 8e5c 21bf 377a 49be 5a22 26be
000001a0: e5e4 ccbe ad5f a5be db19 5fbe 87d1 cf3c
000001b0: d2d9 563e 97af 91be a170 ee3e 6336 173d
000001c0: 628b 223e 1d09 87be 78bf bd3c 91f1 8b3e
000001d0: 4e8a 283e 8cd2 c63d 2477 b53d f2ae 123e
000001e0: 2ecf 86be fa5a 473e 3f46 dc3e 8680 283e
000001f0: 10e7 02bd 7af6 b33d 527a 833e 0197 afbc
00000200: 4561 c23e 1523 bd3d 19a8 04be 9983 dd3d
00000210: 60b3 853e 8118 573c a657 f4be 451e a2be
00000220: e7f9 203e 6d56 973d ab33 b3be 68bd 3dbc
00000230: 1cd3 593e 19df 4d3e a68a 6abe 3fe2 eebd
00000240: 40c6 e93d 3d0c 05be 644a 93be a225 0dbe
00000250: a6e3 093c ae20 60bc 5ab5 09be e3e4 e53d
00000260: fdd6 f0bd 77d8 eebd c2bf b9bd 1523 b3be
00000270: c6c7 69be bb36 6bbe a016 b03d f159 b1be
00000280: 5835 c63d e5a0 9abd a1e0 07bf 6e5f 683e
00000290: 5809 60be bdd4 843e a3e0 393e 08e3 86be
000002a0: b175 b33d 6bc6 0a3d 2be7 11be 85cb b3be
000002b0: ec3d 69bd cdf7 51be c003 c23b 00fe 593e
000002c0: 5c3f 733e 773d 663e 7af6 373c 0794 4bbe
000002d0: 0dc7 d4be f2db 8b3c fbae 123f dbaa 2f3e
000002e0: 555d 963b 6b55 c83d 1187 783d 85fd f23d
000002f0: e164 ba3c 794b b23d 9af9 ab3e 379a 8e3d
00000300: f924 903d 0a6b 60be 3018 933e 275d 143f
00000310: e19e d0bd c9cf f3bd 3cfb 6fbe d516 e7bd
00000320: 9154 a43e b534 eabe e642 273d 4b93 993d
00000330: 05dc 8abe ef1c 98be c506 b33e 587d 0cbe
00000340: cb3c 1abe fec1 3a3c 87b8 febd 1ef6 5b3d
00000350: 456c f3bd 0187 833e 4c7e ee3c e83d e6be
00000360: db02 1cbe cbf8 8a3e aacf 4ebe 58ab 903d
00000370: 40d4 443e 7120 f8bd 03fb 513e 7452 24bd
00000380: 5128 c53e 5dea a43e 924c 803e c29a 3ebe
00000390: 975d 2bbe 59fa 113e fc55 7cbe bec9 45be
000003a0: fbc8 f43d 5998 2bbe 64d3 00be 5b66 a63e
000003b0: 5c0a e13d 853e 58be 85c9 373e b546 0cbe
000003c0: 3423 babe c954 b03d 718a 033e 4d5c 9fbe
000003d0: 89a4 193e e496 183f 39b4 4cbe 9fd2 a0bc
000003e0: 1fe0 38be da96 00be 08ac 1fbf de87 f0bb
000003f0: a11a 12be 8ecc 30be 1542 8ebc 9593 eebe

critic.0.bias f4 [64]
0.29620615 -0.18664695 -0.078681044 -0.2699224 -0.4905184 0.11592629 -0.13574125 0.2740263
-0.14314651 0.1378039 0.5139783 -0.23996879 -0.37894666 -0.0668932 -0.22664978 0.14536098
-0.28348455 -0.064009525 0.20399462 0.19455017 -0.24962638 -0.13257766 0.2930914 0.35925135
0.23112236 -0.12511855 -0.1358848 -0.33207867 0.025163442 0.2532218 -0.29059854 -0.689127
-0.11481752 -0.19455983 -0.23558316 0.3662671 0.22004895 -0.114205465 -0.02970325 0.11499836
0.030048233 0.08522629 0.1121972 -0.17360184 0.6130026 -0.20316291 0.23152293 0.13524891
0.0726799 0.064366855 -0.5941242 0.27951965 -0.15501447 0.2633372 -0.077630125 0.09213988
0.27362683 -0.31155813 0.22779499 0.5323495 0.34996247 0.093563944 0.18592563 0.21325082
00000000: 55a8 973e 6120 3fbe 8723 a1bd 4533 8abe
00000010: 3a25 fbbe c36a ed3d c1ff 0abe 2d4d 8c3e
00000020: 0095 12be 771c 0d3e 1594 033f 61ba 75be
00000030: 4c05 c2be 4dff 88bd e116 68be 82d9 143e
00000040: e324 91be 6d17 83bd f7e3 503e 2938 473e
00000050: 0f9e 7fbe 70c2 07be 1310 963e cbef b73e
00000060: 57ab 6c3e 141f 00be 6325 0bbe 3706 aabe
00000070: 9023 ce3c 4aa6 813e 55c9 94be a16a 30bf
00000080: 7325 ebbd b13a 47be b63c 71be 5d87 bb3e
00000090: 8354 613e 8ee4 e9bd 3b54 f3bc 4384 eb3d
000000a0: b627 f63c 1f8b ae3d a5c7 e53d aec4 31be
000000b0: bded 1c3f f009 50be 5914 6d3e b17e 0a3e
000000c0: 33d9 943d c5d2 833d 8618 18bf 331d 8f3e
000000d0: 1dbc 1ebe 22d4 863e 8bfc 9ebd d5b3 bc3d
000000e0: d118 8c3e 8c84 9fbe 1743 693e 0f48 083f
000000f0: 482e b33e 749e bf3d 4a63 3e3e 6c5e 5a3e

critic.2.weight f4 [32, 64]
0.26269194 0.2831279 -0.32328933 -0.030294968 -0.2794919 -0.2611998 0.29286245 0.097037956
0.29607713 -0.32427 0.07918015 -0.04385546 0.21322615 -0.16483696 0.31976968 0.4368501
-0.24870326 0.22540611 -0.5945902 -0.10878607 0.1713509 -0.09791511 0.035800282 -0.13502903
-0.33890516 0.6799933 0.1758942 0.11969855 0.14493775 0.07690583 0.07805804 -0.19839443
0.13668668 -0.0034351845 0.0831437 0.22417209 -0.33720708 0.28861645 0.25549978 0.29991785
0.18431813 -0.45910725 -0.11685353 -0.22372033 0.07197111 -0.12692462 -0.08784218 0.19236386
-0.3823023 0.37000906 -0.06270783 -0.28247628 -0.0138635365 0.19390382 0.29929936 -0.28818262
0.13134094 0.1174006 0.23812017 0.26319033 -0.34260947 -0.3834263 -0.04146658 -0.07369311
0.05252207 -0.13152553 0.2497175 -0.14500332 -0.24888283 0.010121219 -0.4801602 -0.31520924
-0.3654126 -0.11231964 0.15597814 0.15407342 -0.07661492 0.1689817 -0.07874911 0.10304463
-0.5404219 -0.09016704 -0.03991781 0.067510456 -0.5460051 -0.8087941 0.23484702 0.14199157
0.27023715 -0.14145532 -0.26510146 -0.36413345 0.016035847 0.1257834 -0.01258215 -0.40636107
-0.49460143 -0.051550306 -0.223383 0.19791411 0.019134512 -0.111816995 -0.086320244 -0.2727282
-0.23183195 0.3541795 0.25196868 -0.18207729 0.50644636 0.16238825 0.13208577 0.11629324
-3.0034375e-05 -0.12931539 -0.24472325 -0.075094275 -0.30037552 0.3234339 0.351199 0.18045917
0.09804669 0.20145003 0.108038925 0.25695395 -0.23210049 0.4323262 0.17724897 0.3181698
-0.101012856 0.049544852 -0.031057362 0.31733674 0.16142602 -0.1475074 0.057492644 -0.26408413
0.10340329 0.23968135 0.018600078 0.23218101 0.36651865 0.016212491 -0.06932724 -0.16189094
0.17632034 0.16697046 0.021400478 0.07158183 -0.055295333 0.42851353 -0.01602747 -0.1286992
-0.3358974 0.3360469 0.041502 0.22713216 -0.11005576 -0.10407118 -0.059759237 -0.04640836
0.1058489 -0.0841622 0.20390247 0.15430143 -0.18293013 0.4566138 -0.16806486 -0.006934682
-0.27266172 0.051378313 0.091845416 0.24961606 -0.019859247 0.14892282 0.12886003 -0.35931885
-0.16601998 -0.2549814 0.514723 -0.25537887 -0.35458344 -0.43367094 -0.16872892 -0.13386105
-0.51422316 0.018227076 0.015382293 -0.27502933 0.050161038 -0.031846374 -0.18471092 -0.36555025
-0.38183707 0.0986872 -0.257669 0.027305996 -0.14069533 -0.352154 -0.036320265 -0.19113399
0.021178404 -0.28912076 -0.29638532 -0.1482917 -0.111239016 -0.23116417 0.22098696 0.4142138
-0.20364282 0.22354338 -0.4350819 -0.006590176 -0.19169673 -0.047319844 0.35187075 0.051828947
-0.11113103 0.1346227 0.07396344 0.5296089 -0.13450876 -0.1170867 -0.07043974 -0.31025147
0.36632574 0.25216594 -0.15946323 0.013780218 -0.05927925 -0.076412044 0.3109784 0.24213263
0.29905993 -0.78775114 0.18335691 -0.24468265 0.22453643 0.24970132 -0.04979882 -0.047923513
-0.013647012 0.24840088 -0.055712063 -0.6047735 0.25716314 -0.24692291 0.10080136 -0.28209686
-0.09464014 0.32001328 0.05662414 0.10014038 0.2140581 -0.09587525 -0.18108493 0.14227168
00000000: 8f7f 863e 24f6 903e 2e86 a5be 272d f8bc
00000010: 9019 8fbe fbbb 85be 11f2 953e d6bb c63d
00000020: 6c97 973e b806 a6be 3429 a23d c8a1 33bd
00000030: f557 5a3e 05cb 28be dab8 a33e d1aa df3e
00000040: 11ac 7ebe dcd0 663e 1037 18bf 3bcb debd
00000050: 9c76 2f3e b887 c8bd 51a3 123d 0d45 0abe
00000060: fa84 adbe 0a14 2e3f 9c1d 343e 8324 f53d
00000070: 906a 143e ce80 9d3d e5dc 9f3d e927 4bbe
00000080: 98f7 0b3e d520 61bb 3f47 aa3d 5e8d 653e
00000090: 68a6 acbe 89c5 933e ded0 823e d58e 993e
000000a0: e4bd 3c3e 1b10 ebbe e750 efbd f116 65be
000000b0: 9765 933d 87f8 01be 9ae6 b3bd 08fb 443e
000000c0: 21bd c3be d471 bd3e f66c 80bd bba0 90be
000000d0: e323 63bc b98e 463e c43d 993e ac8c 93be
000000e0: 3d7e 063e ba6f f03d c6d5 733e e2c0 863e
000000f0: 826a afbe 7450 c4be dcd8 29bd 6aec 96bd
00000100: 6221 573d a1ae 06be f2b5 7f3e c07b 14be
00000110: 24db 7ebe 78d3 253c 8fd7 f5be 1b63 a1be
00000120: 5c17 bbbe d707 e6bd bcb8 1f3e 6cc5 1d3e
00000130: 48e8 9cbd 8a09 2d3e 3747 a1bd 1009 d33d
00000140: 1759 0abf 7fa9 b8bd dc80 23bd ec42 8a3d
00000150: fdc6 0bbf 210d 4fbf bd7b 703e 3d66 113e
00000160: 865c 8a3e aad9 10be 61bb 87be b36f babe
00000170: 9c5d 833c 5dcd 003e 5d25 4ebc 8f0e d0be
00000180: 663c fdbe 6a26 53bd 83be 64be ffa9 4a3e
00000190: fbbf 9c3c 4f00 e5bd abc8 b0bd 08a3 8bbe
000001a0: 5b65 6dbe 0457 b53e 0a02 813e 7872 3abe
000001b0: 78a6 013f 1b49 263e 7e41 073e 262b ee3d
000001c0: 54f2 fbb7 416b 04be bb98 7abe 07cb 99bd
000001d0: d2ca 99be 2199 a53e 5bd0 b33e 4aca 383e
000001e0: b4cc c83d eb48 4e3e 8343 dd3d 788f 833e
000001f0: c0ab 6dbe dc59 dd3e c180 353e 27e7 a23e
00000200: d4df cebd 8bef 4a3d 026c febc f679 a23e
00000210: dd4c 253e 2e0c 17be 687d 6b3d 0936 87be
00000220: 1bc5 d33d 076f 753e 315f 983c dcc0 6d3e
00000230: 55a8 bb3e 0fd0 843c 71fb 8dbd bdc6 25be
00000240: 528d 343e 4efa 2a3e 0e50 af3c 7f99 923d
00000250: 5c7d 62bd 2066 db3e 0a4c 83bc b9c9 03be
00000260: befa abbe 570e ac3e 00fe 293d 5595 683e
00000270: ea64 e1bd 4523 d5bd 1ac6 74bd b116 3ebd
00000280: 4fc7 d83d 3b5d acbd cfcb 503e 3201 1e3e
00000290: 0952 3bbe 49c9 e93e 3219 2cbe 543c e3bb
000002a0: 519a 8bbe 1172 523d 7319 bc3d 5a9b 7f3e
000002b0: dcaf a2bc 397f 183e e2f3 033e a4f8 b7be
000002c0: 2401 2abe ec8c 82be e3c4 033f 05c1 82be
000002d0: f68b b5be 1e0a debe 46c7 2cbe df12 09be
000002e0: 21a4 03bf f350 953c 0306 7c3c a5d0 8cbe
000002f0: a975 4d3d 5871 02bd dc24 3dbe 6729 bbbe
00000300: 2680 c3be 841c ca3d 31ed 83be d3b0 df3c
00000310: 7012 10be 874d b4be 8fc4 14bd a1b8 43be
00000320: 557e ad3c a307 94be d1bf 97be c8d9 17be
00000330: 48d1 e3bd 4db6 6cbe 684a 623e d513 d43e
00000340: be87 50be 8ee8 643e 0ec3 debe 67f2 d7bb
00000350: 264c 44be 74d2 41bd 6728 b43e 974a 543d
00000360: aa98 e3bd 88da 093e 257a 973d 7394 073f
00000370: aabc 09be 27cb efbd b642 90bd 48d9 9ebe
00000380: 0c8f bb3e e51b 813e 544a 23be 6cc6 613c
00000390: cdce 72bd eb7d 9cbd 9038 9f3e 9ef1 773e
000003a0: 621e 993e 0faa 49bf eac1 3b3e 178e 7abe
000003b0: e1ec 653e b4b1 7f3e d9f9 4bbd 724b 44bd
000003c0: b897 5fbc cd5c 7e3e 5532 64bd 70d2 1abf
000003d0: e3aa 833e 5cd9 7cbe f270 ce3d 006f 90be
000003e0: b1d2 c1bd c8d8 a33e b7ee 673d 6616 cd3d
000003f0: 0c32 5b3e 3e5a c4bd 546e 39be abaf 113e

critic.2.bias f4 [32]
-0.114040606 0.23758839 -0.17075384 -0.059252594 -0.061729368 -0.07255803 -0.08707998 0.121212125
-0.21121944 0.010336025 0.14371268 0.1569168 -0.029195536 0.08111828 0.06108021 -0.22815731
-0.070809096 -0.20732938 0.06884022 0.14018814 0.06750328 0.14698407 0.17109144 0.17369753
0.0014313315 -0.061830025 -0.16545726 -0.2526961 -0.079111785 0.15636766 -0.26118383 0.25917354
00000000: 1f8e e9bd 5f4a 733e 18da 2ebe d9b2 72bd
00000010: efd7 7cbd 4e99 94bd fd56 b2bd 103e f83d
00000020: e949 58be 6e58 293c 6b29 133e ccae 203e
00000030: 7a2b efbc 5721 a63d 3e2f 7a3d 12a2 69be
00000040: 5c04 91bd 274e 54be 1afc 8c3d 7b8d 0f3e
00000050: 293f 8a3d fe82 163e 9832 2f3e c4dd 313e
00000060: 849b bb3a 7b41 7dbd a16d 29be 6261 81be
00000070: 5c05 a2bd d81e 203e e3b9 85be 65b2 843e

critic.4.weight f4 [1, 32]
-0.15878648 0.16933629 -0.12191654 -0.14848816 -0.23312408 -0.10617667 -0.1267725 0.19479103
-0.17372248 -0.107059404 0.13235328 0.17312153 -0.1289981 0.075787716 0.14946584 -0.06820589
-0.11419749 -0.0548537 0.1547346 -0.19032516 -0.21429443 0.155803 -0.26025814 0.13499813
0.14939982 -0.23452984 -0.13398093 -0.14576736 -0.11784667 0.21814439 -0.10897894 0.20278437
00000000: ec98 22be 7e66 2d3e 61af f9bd 480d 18be
00000010: 14b8 6ebe 2773 d9bd a6d0 01be 4d77 473e
00000020: 4ee4 31be f641 dbbd 9e87 073e c546 313e
00000030: 1418 04be 9736 9b3d 930d 193e 88af 8bbd
00000040: 60e0 e9bd 46ae 60bd bf72 1e3e 99e4 42be
00000050: 0070 5bbe d28a 1f3e 8e40 85be f33c 0a3e
00000060: 44fc 183e 9728 70be 4c32 09be 0a44 15be
00000070: 9859 f1bd 3e61 5f3e 5a30 dfbd b5a6 4f3e

actor_mean.0.weight f4 [64, 5]
-0.23346098 -0.015960263 -0.2156482 -0.43837523 0.06541025 -0.26544413 0.025368424 -0.1307972
0.0038272645 0.06680622 0.02819973 0.07245022 0.2564093 -0.22921401 0.3127402 -0.03622384
0.40700296 0.034122106 0.21572037 0.2324411 0.33686578 -0.03814339 -0.14017577 0.2863009
0.14508039 -0.09215488 -0.06250388 0.01669524 -0.034189258 -0.46371475 0.044036355 0.029390793
0.27571684 -0.042533625 0.17322856 -0.2062708 0.34073207 -0.22349384 -0.16069426 0.20496562
-0.17213197 0.16704799 -0.09168787 0.10224538 -0.04278374 -0.20047797 0.12232683 -0.35047483
-0.07684064 0.22933288 0.17334631 0.13797739 0.117756 0.060330257 -0.017166026 -0.008346785
0.36275184 0.052369885 0.34213203 0.13337898 0.15095365 -0.29599604 -0.19319795 0.017841378
-0.12762552 0.0165587 -0.043621864 -0.09656706 -0.1836313 -0.014911311 0.14649525 -0.3035272
0.14805716 0.14053744 -0.19546306 -0.15986699 0.29260343 0.30772313 -0.034912843 0.10906416
0.052492827 -0.12249385 -0.068014465 -0.009125888 -0.24411254 -0.06787005 -0.077389956 -0.3205087
0.3978676 0.08168255 -0.019915024 0.13824378 -0.06688131 0.33035415 -0.03194061 0.025040584
-0.2477205 0.0532182 -0.2515665 -0.29172027 -0.22240156 0.0005005404 0.2867209 -0.06561462
0.3813252 0.12664442 -0.2398506 -0.108772494 -0.025824493 -0.17729022 0.13476442 -0.25258973
0.18686534 -0.17227107 -0.1853231 0.008699963 0.1820392 -0.14510621 0.03799234 0.104791
-0.17064546 -0.28537 -0.2476759 0.07112444 -0.16255224 0.25347745 0.31573072 -0.39653432
0.17061672 0.047430642 -0.24048539 0.001456063 -0.112666875 0.024163868 0.34121776 0.10942635
-0.029071027 0.056835253 0.12592809 0.13112397 0.041930377 -0.075212024 -0.120884605 0.009487074
0.26178932 0.0020303177 -0.029395863 -0.00069431623 -0.019626608 -0.04606991 -0.013544119 0.17603219
0.23815687 0.12969166 0.0186674 0.015023091 -0.10365466 0.03329828 0.048989624 0.10144077
-0.40698355 -0.5537775 0.24352847 0.23483934 -0.17357126 -0.27819952 -0.3137015 0.21385787
0.3741517 -0.045513228 -0.12738469 -0.0067569828 0.2764296 0.014861667 0.063365445 -0.17769569
0.06377461 0.1024116 -0.038377892 -0.28645357 -0.07105752 -0.11045294 -0.012813209 -0.10543323
0.007023632 -0.043715473 0.02539673 -0.061438683 0.20765513 0.5691514 0.08319929 -0.21797648
0.02699737 0.08248457 0.4755035 -0.21463507 0.11411506 0.14714643 -0.24890299 -0.46449298
-0.33978862 0.20416291 0.076482154 -0.07692154 -0.03923954 -0.22738427 0.07396988 0.18476579
-0.01502704 0.2912821 -0.19621947 0.21297932 -0.23099633 0.035186157 0.3509855 0.2754559
0.044591364 -0.12039577 -0.06592409 0.031815067 0.14071578 -0.06496695 -0.0054467036 -0.10726384
-0.3273508 0.29094538 0.1600201 -0.01291172 -0.17492281 0.3249128 0.118412584 -0.1936588
-0.028214127 -0.29129234 -0.17874044 0.10242919 0.13496722 -0.03335716 -0.272314 0.5751341
-0.14096573 -0.12085946 -0.14469403 -0.17214857 -0.08038327 -0.08033752 -0.02073375 -0.20081337
-0.20193547 -0.11282251 -0.28223294 0.051490493 -0.40790254 0.37225655 -0.025716549 -0.09720661
00000000: 6510 6fbe 19bf 82bc e2d2 5cbe b872 e0be
00000010: cff5 853d 4be8 87be 71d1 cf3c b4ef 05be
00000020: d8d2 7a3b b3d1 883d 1f03 e73c c860 943d
00000030: 1448 833e 14b7 6abe 7c1f a03e 735f 14bd
00000040: b162 d03e 9fc3 0b3d cde5 5c3e 0a05 6e3e
00000050: ac79 ac3e 3e3c 1cbd 3d8a 0fbe 0896 923e
00000060: f48f 143e b3bb bcbd 0902 80bd 75c4 883c
00000070: 090a 0cbd 056c edbe 775f 343d f6c4 f03c
00000080: c22a 8d3e bd37 2ebd d462 313e a738 53be
00000090: 6f74 ae3e 92db 64be 098d 24be 82e2 513e
000000a0: 5d43 30be a10e 2b3e dac6 bbbd 0766 d13d
000000b0: 013e 2fbd 194a 4dbe 7d86 fa3d 7071 b3be
000000c0: a05e 9dbd 3dd6 6a3e b281 313e f249 0d3e
000000d0: 0f2a f13d dc1c 773d c49f 8cbc f4c0 08bc
000000e0: 9cba b93e ce81 563d ee2b af3e 8094 083e
000000f0: 9893 1a3e cb8c 97be afd5 45be 1528 923c
00000100: 44b0 02be 1ca6 873c d7ac 32bd f3c4 c5bd
00000110: d809 3cbe 924e 74bc da02 163e eb67 9bbe
00000120: 4c9c 173e 0ce9 0f3e 7827 48be 2cb4 23be
00000130: 1ed0 953e e38d 9d3e c500 0fbd 085d df3d
00000140: b802 573d 0ede fabd 2b4b 8bbd c084 15bc
00000150: a3f8 79be 74ff 8abd a07e 9ebd b719 a4be
00000160: 4db5 cb3e 2e49 a73d d524 a3bc c78f 0d3e
00000170: 11f9 88bd 2e24 a93e 28d4 02bd e921 cd3c
00000180: 71aa 7dbe 54fb 593d 53cd 80be 5c5c 95be
00000190: 3cbd 63be b336 033a 15cd 923e f560 86bd
000001a0: 0e3d c33e 13af 013e 659b 75be 1dc4 debd
000001b0: e38d d3bc 918b 35be afff 093e 7153 81be
000001c0: a159 3f3e d467 30be 57c5 3dbe 4a8a 0e3c
000001d0: 7c68 3a3e b996 14be db9d 1b3d aa9c d63d
000001e0: afbd 2ebe 041c 92be c09e 7dbe b1a9 913d
000001f0: 1874 26be ccc7 813e 75a7 a13e 8c06 cbbe
00000200: 26b6 2e3e a246 423d cd41 76be 5ed9 be3a
00000210: e4bd e6bd 4ef3 c53c 18b4 ae3e ec1a e03d
00000220: 5d26 eebc 15cc 683d 4bf3 003e 5d45 063e
00000230: 30bf 2b3d c308 9abd 5992 f7bd ac6f 1b3c
00000240: 4009 863e 140f 053b 98cf f0bc c602 36ba
00000250: fbc7 a0bc cdb3 3cbd 27e8 5dbc c841 343e
00000260: 65df 733e e4cd 043e 60ec 983c 6923 763c
00000270: e548 d4bd c763 083d 58a9 483d 2ec0 cf3d
00000280: 2660 d0be 5dc4 0dbf 875f 793e b979 703e
00000290: aabc 31be 2b70 8ebe 7c9d a0be 8ffd 5a3e
000002a0: d090 bf3e 146c 3abd 2271 02be ae69 ddbb
000002b0: 2e88 8d3e 597e 733c bec5 813d dcf5 35be
000002c0: 439c 823d 2cbd d13d 2332 1dbd 0baa 92be
000002d0: 9b86 91bd 2735 e2bd 7eee 51bc 61ed d7bd
000002e0: 7f26 e63b ff0e 33bd ce0c d03c 21a7 7bbd
000002f0: 8ca3 543e e8b3 113f 6464 aa3d 3a35 5fbe
00000300: 9729 dd3c aced a83d 3275 f33e 4cc9 5bbe
00000310: 28b5 e93d 8ead 163e 6de0 7ebe 06d2 edbe
00000320: c6f8 adbe 1510 513e ada2 9c3d 0a89 9dbd
00000330: a4b9 20bd 6cd7 68be 857d 973d 3e33 3d3e
00000340: f933 76bc ed22 953e c2ed 48be 4017 5a3e
00000350: 4d8a 6cbe 5c1f 103d 5fb4 b33e 8e08 8d3e
00000360: 6fa5 363d 0f92 f6bd 3603 87bd 8450 023d
00000370: cc17 103e 640d 85bd 437a b2bb 25ad dbbd
00000380: 869a a7be cbf6 943e 4fdc 233e ae8b 53bc
00000390: f71e 33be f85a a63e 4c82 f23d 7e4e 46be
000003a0: 5021 e7bc 4524 95be bc07 37be 65c6 d13d
000003b0: d934 0a3e 84a1 08bd be6c 8bbe fd3b 133f
000003c0: 5259 10be 2a85 f7bd ac2a 14be b747 30be
000003d0: fc9f a4bd ff87 a4bd d3d9 a9bc 05a2 4dbe
000003e0: 2cc8 4ebe 7d0f e7bd d680 90be b2e7 523d
000003f0: 9ad8 d0be 6998 be3e 83ab d2bc 4214 c7bd

actor_mean.0.bias f4 [64]
-0.006247095 -0.024385776 0.01140101 -0.03522936 -0.042491402 0.027364416 -0.0067887106 0.14501959
0.0063358685 0.0092655355 -0.06316009 -0.10128512 -0.035156045 0.008538655 -0.08483775 0.000882673
-0.07287388 -0.068945326 -0.03669956 0.078302495 0.023302156 0.009148319 0.011076846 0.013280833
-0.13032432 -0.011774724 0.0076696062 -0.007299238 0.047371514 -0.0872604 -0.02684604 -0.1017245
2.9369468e-05 -0.0018246986 -0.17522883 -0.042097613 -0.0029872265 -0.03430523 0.012845106 0.024313431
-0.00652486 -0.00078079756 -0.0006959917 0.1706359 -0.00080683356 -0.002806392 0.0597341 -0.022597414
0.0044065043 -0.096558504 -0.075339146 0.0054055657 -0.021122208 -0.0023410525 0.01411777 -0.0044065504
-0.033302505 -0.007833836 0.056057304 -0.00076236826 -0.10555257 -0.041809108 0.12694484 -0.06882302
00000000: 6eb4 ccbb aec4 c7bc 4dcb 3a3c a94c 10bd
00000010: 770b 2ebd 572b e03c d573 debb 0480 143e
00000020: 1e9d cf3b 79ce 173c 145a 81bd 936e cfbd
00000030: c9ff 0fbd b7e5 0b3c 6abf adbd 2f63 673a
00000040: e73e 95bd 3533 8dbd 4752 16bd 0f5d a03d
00000050: 2ae4 be3c d5e2 153c a97b 353c da97 593c
00000060: bd73 05be c6ea 40bc 5251 fb3b 722e efbb
00000070: a208 423d 95b5 b2bd 3aec dbbc ef54 d0bd
00000080: 745e f637 ba2a efba 306f 33be 8c6e 2cbd
00000090: 58c5 43bb a483 0cbd 4874 523c f62c c73c
000000a0: 7ece d5bb 70ae 4cba 3673 36ba 2dbb 2e3e
000000b0: af81 53ba 72eb 37bb beab 743d 361e b9bc
000000c0: 7064 903b 77c0 c5bd 694b 9abd 2c21 b13b
000000d0: 7b08 adbc 586c 19bb 384e 673c d364 90bb
000000e0: 3568 08bd 7d59 00bc 589c 653d abd9 47ba
000000f0: f22b d8bd 0740 2bbd d4fd 013e 15f3 8cbd

actor_mean.2.weight f4 [32, 64]
-0.2289402 0.009026718 -0.013929222 -0.17437273 0.12914366 0.40492094 0.19955656 -0.3217439
-0.27474168 -0.32542264 0.117916115 0.18206938 -0.20734324 -0.09008152 0.06878848 0.046440262
-0.27212554 0.2547019 0.038519733 -0.09728781 0.2943913 0.22059423 0.24734338 -0.06764167
0.082379304 0.04449628 -0.32223564 0.11335902 -0.22275612 -0.020889757 0.20336969 -0.29608852
0.32756132 0.026384188 -0.1604099 0.121376865 0.029694384 -0.23344325 -0.26759478 0.19958587
0.05859886 0.16041599 -0.252333 -0.06419212 0.26828107 -0.3145339 -0.030777449 -0.16474736
0.009809662 -0.19695926 0.20119601 -0.04640387 0.02037709 0.09572722 -0.28998008 0.11987382
0.12859297 0.20665495 -0.005608876 -0.24876375 0.02031006 0.18031114 0.11573019 0.25366333
0.23122023 0.06407647 -0.04049698 -0.44641793 -0.3802469 0.093167104 0.02729874 0.032412566
0.0675615 -0.2253266 -0.33894986 -0.3475315 -0.10036489 0.016010173 0.33782285 -0.13561875
-0.011336472 -0.0634688 -0.23121938 0.12089117 0.009046077 0.32404765 0.20172882 0.013270764
-0.14240958 -0.15525426 0.047224194 -0.050440326 0.0036349401 -0.16383336 0.028345715 0.028682074
0.15981288 0.24945709 -0.08277204 -0.19601092 -0.02749355 -0.1389553 0.1279535 -0.101055704
-0.20194566 -0.05806259 -0.19961134 0.4966094 -0.13072672 0.08756549 0.20415294 0.029042494
-0.024281448 -0.32019657 -0.2617815 0.24090163 -0.31941107 0.05365871 0.023108061 0.1864883
-0.1852558 -0.16582881 0.055473324 -0.12430275 0.027748745 0.04614962 0.34929162 0.24022785
0.07725193 0.15927783 0.15903941 -0.3047958 -0.28349426 -0.11758342 -0.10803221 -0.229104
-0.052037247 0.12796585 0.1956986 -0.043894682 -0.0242492 0.25426024 -0.081951626 0.15226628
0.416885 -0.2525538 0.17504844 0.15999162 -0.14144102 0.073113635 0.23761682 0.055488873
0.19002077 -0.08258828 -0.030288545 -0.15606564 -0.08811869 -0.18242657 0.15468979 -0.019329168
0.108477294 0.20695935 -0.08448764 -0.124833405 -0.21754862 -0.18579657 -0.30988887 0.27654508
0.038320776 0.36054868 0.035160385 -0.1786973 0.3106841 -0.014930392 0.106797546 0.015988795
-0.057557378 0.38663217 0.06717469 0.081075765 0.085966356 -0.16896807 0.08562381 0.027215496
-0.12623475 0.018833945 0.37670323 0.020989237 -0.25838247 0.17727281 -0.04616537 0.0915875
0.31640556 -0.01897631 -0.06557968 -0.28612313 -0.030273734 0.09561499 0.089341775 0.0965007
-0.091910906 0.19758466 -0.028944565 0.27443528 0.20222817 0.19600683 -0.076115526 -0.5434995
0.07440019 -0.24837215 0.0015208768 0.162042 0.089638874 -0.020299925 0.3122492 -0.24155499
0.10618958 0.04047251 0.11774281 0.093696214 -0.2121889 0.22479035 -0.04733931 -0.13558769
0.01678663 -0.20500125 0.18818696 0.037224695 -0.42404523 -0.061888132 0.045203228 0.25297043
-0.24205096 -0.016566213 -0.27525523 0.0322289 0.059907813 -0.068339445 0.20515525 -0.18931037
0.031476945 -0.028008083 -0.09759224 0.10432193 0.18100539 0.25685725 -0.20545755 0.42535406
0.21751615 -0.10992652 -0.0047096275 -0.19694206 0.3736408 -0.20247781 0.005553885 0.14661975
00000000: 4d6f 6abe cde4 133c 6437 64bc c48e 32be
00000010: 3c3e 043e cc51 cf3e 8e58 4c3e 9ebb a4be
00000020: f1aa 8cbe cc9d a6be 017e f13d 6570 3a3e
00000030: c951 54be a97c b8bd f9e0 8c3d 2538 3e3d
00000040: 0a54 8bbe 4a68 823e dec6 1d3d d53e c7bd
00000050: 75ba 963e 74e3 613e 9547 7d3e b787 8abd
00000060: 7bb6 a83d bb41 363d 12fc a4be c628 e83d
00000070: 2e1a 64be ff20 abbc 2540 503e ea98 97be
00000080: 1eb6 a73e a723 d83c 7e42 24be 6f94 f83d
00000090: a341 f33c bf0b 6fbe 2f02 89be 3d60 4c3e
000000a0: 5c05 703d 1744 243e ca31 81be 2977 83bd
000000b0: 235c 893e 960a a1be fd20 fcbc 88b3 28be
000000c0: b4b8 203c b0af 49be 5406 4e3e fc11 3ebd
000000d0: dbed a63c a20c c43d 4578 94be 6880 f53d
000000e0: e0ad 033e 5b9d 533e a9ca b7bb edbb 7ebe
000000f0: 4861 a63c 7ca3 383e f303 ed3d 29e0 813e
00000100: ffc4 6c3e 863a 833d 29e0 25bd e490 e4be
00000110: b9af c2be 65ce be3d 9ba1 df3c 0ac3 043d
00000120: af5d 8a3d 04bc 66be d68a adbe a6ef b1be
00000130: 1c8c cdbd c427 833c 1ef7 ac3e a4df 0abe
00000140: 9cbc 39bc eefb 81bd c6c4 6cbe ca95 f73d
00000150: ff35 143c 93e9 a53e 0092 4e3e 9e6d 593c
00000160: d1d3 11be f9fa 1ebe 286e 413d 849a 4ebd
00000170: 2d38 6e3b efc3 27be 4635 e83c abf6 ea3c
00000180: fda5 233e ae71 7f3e 6384 a9bd 16b7 48be
00000190: 273a e1bc 4c4a 0ebe 3e06 033e 4bf6 cebd
000001a0: d8ca 4ebe 0ad3 6dbd ea66 4cbe 9643 fe3e
000001b0: 3add 05be 8955 b33d 780d 513e 86ea ed3c
000001c0: e3e9 c6bc cef0 a3be 3a08 86be ebae 763e
000001d0: d989 a3be 3cc9 5b3d 1e4d bd3c caf6 3e3e
000001e0: b2b3 3dbe 07cf 29be ff37 633d 7192 febd
000001f0: 5651 e33c 6207 3d3d 5ad6 b23e 4afe 753e
00000200: 4336 9e3d ba19 233e 3adb 223e 320e 9cbe
00000210: 2926 91be 93cf f0bd fe3f ddbd 3d9a 6abe
00000220: 0225 55bd 7b09 033e 3765 483e e9ca 33bd
00000230: 42a6 c6bc 662e 823e 41d6 a7bd b1eb 1b3e
00000240: f371 d53e bb4e 81be e63f 333e d8d4 233e
00000250: ead5 10be 9abc 953d d351 733e 4d48 633d
00000260: ce94 423e 0b24 a9bd af1f f8bc accf 1fbe
00000270: 9277 b4bd 08ce 3abe 0067 1e3e 3458 9ebc
00000280: 5829 de3d 27ed 533e db07 adbd a8a8 ffbd
00000290: 11c5 5ebe 7541 3ebe c1a9 9ebe 5197 8d3e
000002a0: 3ff6 1c3d d699 b83e 5604 103d 6dfc 36be
000002b0: fd11 9f3e 9a9e 74bc acb8 da3d effa 823c
000002c0: 49c1 6bbd a7f4 c53e e292 893d 0d0b a63d
000002d0: 210f b03d f705 2dbe 895b af3d 08f3 de3c
000002e0: af43 01be a549 9a3c 3fdf c03e 9ff1 ab3c
000002f0: b54a 84be 0187 353e e617 3dbd 3a92 bb3d
00000300: e9ff a13e 3574 9bbc a44e 86bd bb7e 92be
00000310: 9f00 f8bc cbd1 c33d d2f8 b63d 29a2 c53d
00000320: c93b bcbd a253 4a3e 271d edbc c882 8c3e
00000330: e714 4f3e 04b6 483e 75e2 9bbd c922 0bbf
00000340: 205f 983d 4555 7ebe 2858 c73a 57ee 253e
00000350: 9694 b73d 074c a6bc 21df 9f3e 315a 77be
00000360: ec79 d93d 81c6 253d 2423 f13d cde3 bf3d
00000370: 0c48 59be 712f 663e dde6 41bd 80d7 0abe
00000380: 1d84 893c d9eb 51be 15b4 403e ec78 183d
00000390: 751c d9be 697e 7dbd 0527 393d 5785 813e
000003a0: 35dc 77be deb5 87bc 41ee 8cbe 7302 043d
000003b0: e561 753d 8df5 8bbd 3814 523e 94da 41be
000003c0: f8ed 003d 3571 e5bc 71de c7bd bca6 d53d
000003d0: 7a59 393e cb82 833e 7763 52be 02c8 d93e
000003e0: 8ebc 5e3e 2821 e1bd 3853 9abb 2eab 49be
000003f0: d94d bf3e 5856 4fbe 5dfd b53b 7d23 163e

actor_mean.2.bias f4 [32]
-0.015747946 0.038819596 -0.017938098 -0.009106432 -0.0044096652 -0.011306957 0.007824841 -0.021935655
0.004406541 0.006596985 -0.014065486 -0.0060447636 -0.03536038 0.03203468 -0.00073040475 0.0021101702
-0.013776824 -0.0029153486 0.010221945 0.11230623 0.031675708 0.011735208 -0.00031944914 -0.024934238
0.04058252 0.01958098 -0.0036402626 0.006784535 -0.009273997 -0.020549323 0.0032877838 -0.022876274
00000000: d601 81bc 4c01 1f3d ebf2 92bc 2533 15bc
00000010: f47e 90bb d140 39bc c333 003c 67b2 b3bc
00000020: bf64 903b 852b d83b ed72 66bc 2713 c6bb
00000030: 0cd6 10bd cc36 033d a278 3fba c84a 0a3b
00000040: 30b8 61bc 6f0f 3fbb f279 273c cf00 e63d
00000050: 63be 013d 0845 403c bd7b a7b9 e342 ccbc
00000060: db39 263d 4b68 a03c 7991 6ebb ce50 de3b
00000070: f6f1 17bc 0e57 a8bc dc77 573b 0667 bbbc

actor_mean.4.weight f4 [1, 32]
-0.28980178 -0.35723677 -0.15813388 -0.1735325 -0.35441163 -0.23372613 0.17983289 -0.39425498
-0.18401553 -0.16478516 0.41074443 -0.21400657 -0.17604087 -0.16568634 0.51349807 -0.22336403
0.17989713 0.3057611 -0.07337715 0.062170845 0.03295688 0.22927798 -0.18295157 -0.090380736
0.13265015 0.145477 -0.3047579 0.25509185 -0.117794946 0.29837495 0.22895885 -0.1776785
00000000: e660 94be bde7 b6be d9ed 21be 81b2 31be
00000010: 7175 b5be e755 6fbe 1d26 383e cadb c9be
00000020: 916e 3cbe 71bd 28be 184d d23e 8a24 5bbe
00000030: 0f44 34be aea9 29be 9c74 033f 8ab9 64be
00000040: f436 383e b88c 9c3e c246 96bd dba6 7e3d
00000050: cbfd 063d d9c7 6a3e a857 3bbe 8919 b9bd
00000060: 71d5 073e ecf7 143e 3a09 9cbe 669b 823e
00000070: 7a3e f1bd 9ac4 983e 3074 6a3e 5af1 35be
