Project/Ming_Jiang_1016239_Gengcong_Yan_1009903_Project/Part1/trained agents/ppo/InvertedPendulumBulletEnv-v0_PPO_402_1638452765_ppo.pth (torch, 23870 bytes, 10 tensors)

critic.0.weight f4 [64, 5]
00000000: 96d3 973e 009e 62be 734a 53be d8ad 11bd
00000010: 31ab a0bc 7720 863d 14ad 063d cb9d f33c
00000020: a7b1 1abe e522 0dbe 6bc1 c83d a70a 413e
00000030: c325 bd3d b1da 453c 83e4 003e dbe9 a13e
00000040: 4250 e13d 22ff 2abe f8c8 98bd 8b58 853d
00000050: 75a3 e9be 4b15 51bd 8d5c fabe f872 5e3d
00000060: f426 d3bd 2122 a43e 37cb 0abe 2c0e 37bd
00000070: b0b9 563e 3542 b73d 0618 06bb 4185 013e
00000080: 7c10 95ba ac89 dc3d 5b91 973e e7a5 cc3c
00000090: dc67 a9be ddf7 8a3e 5630 00bf 3c81 76be
000000a0: 5806 d7be d853 573d 69fb 22be 782b 6f3e
000000b0: 6c6c 913e 581a f63d bfc1 39bf 864b 3f3d
000000c0: 7edb 97bd 1038 1a3e f1f3 73be e1e4 8abc
000000d0: 7044 293d 959f 52bd 390c cfbd 4ee4 ad3e
000000e0: d8fb 34be bb1d f5be f5e7 84bc e54c d0bd
000000f0: 5f34 e73e a5a3 d8bd bac9 dd3d d1b8 0dbe
00000100: 2c74 15be 73c0 b1bd 6600 a53c 60c1 993d
00000110: 060d 0d3e d230 a13d 11cc d9be 03a3 363e
00000120: 32d6 bc3d c1a9 be3e cb9c 9abd 58f0 15be
00000130: 4450 16be c695 613d 8eea 93bd 8a53 993b
00000140: e2af 943e efb0 aebe 6bd7 893c 6f97 273e
00000150: ac7e 803d b842 a0be 6c65 38bd 31ed 053e
00000160: a93e 7dbd ce51 edbb a641 383d b805 8b3e
00000170: 98e5 1d3e ab57 023d e1e9 623e 06c6 11bf
00000180: ab21 1dbd ae35 c83d 9cbc e93d 394c 513e
00000190: ac0c b0be 99bd 3dbd 48df b2bd 8c82 bcbe
000001a0: bd80 a4bd 6ac5 9f3e 17ec e33c 643e 783e
000001b0: b2cb 1d3e 0e14 753d b962 70bd 57f1 9ebc
000001c0: 8c6e 543d 6616 7dbd e384 893d f186 a23e
000001d0: 2de9 d2be 484d 30be 7538 753d d511 bebd
000001e0: 7282 b7be 3800 1abd c18e 803e 8f38 df3c
000001f0: 50ed 4bbe 5f3e dcbd 1162 793d 0ad0 9dbd
00000200: 097a 063c 6061 92bd 5f17 6bbe df75 8f3e
00000210: 9659 203e ad43 1a3e 81a9 a03e cfe7 6fbe
00000220: 6c8e 51be 624c 1c3e 101e 543d e69a 383d
00000230: a8ff 39bc ac4a a3bd 6952 783d c7e6 ae38
00000240: aa57 6c3e 7da3 bc3d 1eb8 1f3e 255a 3c3d
00000250: 10fc 7b3d ecbd 4c3e 7d11 ac3e 2020 1d3e
00000260: 3d3b e13e dcee 8e3e 125a a93d 38d1 bdbb
00000270: 4a7e 1ebe 5a96 11bd 23ca e03d bca1 d8bd
00000280: 6dd1 c23e f885 4d3e 57bd 8e3e 8772 65bd
00000290: 3007 aebc c557 2cbe fd52 c23d 678b 063e
000002a0: 0fb5 653c ebdc 083e 5e69 1f3e 27d5 fd3d
000002b0: 01c7 b8be f6e0 b63e e5a5 8d3c 9391 a13e
000002c0: 5bc0 b93e 6bc5 b73d 3098 7a3e d8ec d63d
000002d0: 31d9 3fbe 3b6c 3dbe 8b45 52be 043c 503e
000002e0: d9e3 f7bd 8ba8 48be 9709 7ebe 1eaf 8fba
000002f0: e56a 293e a9fa bbbd 02ef a83c b3fa f8bd
00000300: 108a 093e 4626 fd3b eb1f 133e 9ded efbe
00000310: 3bcf 963e 2a7b 0d3d 9eb7 c8bd 7589 303e
00000320: 38a9 63be 8fb6 82be c5fd 0bbe 84ec 99be
00000330: 6439 41be e011 09be 712b 1abd 0360 95bd
00000340: b69b b3bd a0d1 abbe fc2c 6cbe ae9e 85be
00000350: 088b 893e 69cf b2bd b049 0fbe 266a 3ebb
00000360: 703b 82be 0b0b 39be e268 5a3e ce32 9cbe
00000370: 6d9d 3fbe d52f b93d f875 2ebd 1138 0cbd
00000380: f7d1 ff3d 53fb a8be 1223 42be 41ad 7e3e
00000390: 9ef4 6e3d 664c cbbe cbb0 bd3e 92c6 9a3d
000003a0: 9f74 093d eb54 0c3e 5651 b0bd 3268 e43d
000003b0: ccf9 bf3d 388e 013c 36d7 84bd 001c 5d3c
000003c0: 604f fb3b d469 ac3e 066b 46be d0c0 803d
000003d0: 2dab a53e c38c 643d 8cdf c03d b5ef 35be
000003e0: 5b5f 243d b75b 9e3d 69c5 b0be 5b68 85be
000003f0: bc67 8bbe 90e1 ae3d 192f 34be 5349 d9bc
0.29653615 -0.22130585 -0.20633869 -0.03556618 -0.01961288 0.06549161 0.032879904 0.029738327
-0.15106831 -0.13782842 0.098025165 0.1885172 0.09235718 0.012076066 0.1258717 0.3162373
0.11001636 -0.16698888 -0.07460207 0.06511029 -0.4563252 -0.051045697 -0.48898736 0.05430886
-0.10310164 0.32057288 -0.13554083 -0.04469125 0.20969272 0.08948175 -0.0020461096 0.12648489
-0.001137271 0.10768446 0.29603085 0.024981452 -0.3308705 0.2714223 -0.50073755 -0.24072737
-0.41997027 0.052570194 -0.15916218 0.23356426 0.28403032 0.120167434 -0.7256126 0.046702884
-0.07414912 0.15060449 -0.23823525 -0.016954841 0.041325033 -0.05142172 -0.10109753 0.33963245
-0.17674196 -0.47874245 -0.016223887 -0.101709165 0.45157143 -0.10578088 0.10829492 -0.13840033
-0.14595097 -0.08679285 0.020141792 0.075075865 0.137745 0.0787064 -0.42538503 0.17835622
0.09220542 0.37238887 -0.07549437 -0.14642465 -0.14679056 0.055074476 -0.07222472 0.004679148
0.29040438 -0.34119365 0.016826352 0.16366361 0.06274161 -0.31300902 -0.0450186 0.13078763
-0.061827336 -0.007242418 0.044984482 0.271528 0.15419614 0.031821888 0.2215953 -0.56942785
-0.038362186 0.097758636 0.114129275 0.20439233 -0.34384668 -0.046323393 -0.08733994 -0.3681835
-0.080323674 0.31205302 0.027822537 0.2424255 0.15409735 0.05983358 -0.0586879 -0.01940219
0.05186324 -0.06178894 0.06714799 0.31743577 -0.41193524 -0.1721698 0.059868295 -0.09280745
-0.3584171 -0.037597865 0.25108913 0.027248649 -0.19914746 -0.10754084 0.06088454 -0.07705696
0.008207806 -0.07147479 -0.22958134 0.28019616 0.15659174 0.15064879 0.3137932 -0.23428272
-0.20464486 0.15263513 0.051786482 0.045069598 -0.011352457 -0.07973227 0.060625467 8.339952e-05
0.23080316 0.092108704 0.15597579 0.045984406 0.061519682 0.19994324 0.33607092 0.15344286
0.43990508 0.2791661 0.08269133 -0.005792763 -0.15477863 -0.035543777 0.109760545 -0.105777234
0.38050404 0.20070636 0.2787883 -0.056017425 -0.021243662 -0.16830356 0.09488485 0.13139115
0.0140202185 0.13365524 0.15567538 0.12394171 -0.36089328 0.35718507 0.017291019 0.31556377
0.36279568 0.08973201 0.24472117 0.10494393 -0.18735196 -0.18498318 -0.20534341 0.20335394
-0.12104005 -0.19595544 -0.24808346 -0.0010962223 0.16544683 -0.09178669 0.02062178 -0.12157192
0.13431573 0.00772551 0.14367644 -0.46860972 0.2945498 0.034541287 -0.09800647 0.17239936
-0.2223252 -0.25529906 -0.13671024 -0.3006326 -0.18869549 -0.13385725 -0.037639085 -0.072937034
-0.08769934 -0.3355837 -0.23064035 -0.26097625 0.26863885 -0.087309666 -0.13992953 -0.0029054969
-0.25435972 -0.18070619 0.21329072 -0.3050751 -0.18712397 0.09042326 -0.042592973 -0.034233157
0.124912195 -0.33004245 -0.18958691 0.24870779 0.058338754 -0.39706725 0.37048945 0.075574055
0.033558484 0.13704269 -0.086092636 0.11152686 0.09373817 0.007907443 -0.06486361 0.013495445
0.0076693743 0.3367449 -0.19376764 0.06286776 0.3235716 0.055798303 0.09417638 -0.17767222
0.04013 0.07732337 -0.34525612 -0.2605618 -0.2722758 0.085391164 -0.17596091 -0.026524222

critic.0.bias f4 [64]
00000000: 4ee7 443e 256a 173e 0081 9bbe a331 833e
00000010: aa95 8cbe 6bba 823e 2e59 63be 5938 333e
00000020: 04ce 4ebe e0ca 533e 8ea1 6c3e 378a 2cbe
00000030: 63ef 903e 5fb1 6e3e ed73 4cbe e70b 8d3e
00000040: 2e02 4a3e c11d 6bbe cdee 43be 6f27 40be
00000050: 00ec 7dbe 5f1a 683e c8b6 8a3e d3ea 723e
00000060: 3dc4 89be e61e 553e b529 31be fbc1 42be
00000070: 4085 46be fdce 82be 3ed4 413e f8ba 323e
00000080: c4c0 4f3e abec 3cbe 7f39 87be 7264 563e
00000090: 7cc8 9c3e a6d0 3cbe 197a 6ebe 3210 95be
000000a0: f513 37be bd21 25be 8c9f 5fbe 6bab 853e
000000b0: 1d6c 653e 1b66 5cbe e0e5 763e e99b 7abe
000000c0: 3ea3 9ebe 0021 7e3e 1755 5bbe 1eec 8abe
000000d0: c319 94be 58a7 493e 1c78 793e 0785 5cbe
000000e0: 21bb 47be 4d71 0d3e d358 453e 93fd 443e
000000f0: cf62 2bbe febf 3ebe cd95 60be 24d9 73be
0.1922886 0.14786585 -0.30371857 0.25623807 -0.27457935 0.2553285 -0.22201988 0.17501964
-0.20195776 0.2068286 0.23108503 -0.168496 0.28307638 0.23309849 -0.19966097 0.27548143
0.19727394 -0.22960569 -0.19134064 -0.18765043 -0.24797058 0.2266631 0.27092576 0.23722391
-0.2690753 0.20812568 -0.17301066 -0.1901931 -0.19386768 -0.25548545 0.1892862 0.17454135
0.20288378 -0.18449657 -0.26411054 0.20936754 0.30621707 -0.18438968 -0.23288764 -0.2911392
-0.17878707 -0.16126151 -0.21838206 0.26107344 0.22404523 -0.21523325 0.24111128 -0.24473538
-0.3098392 0.24817276 -0.21419178 -0.27133268 -0.28925905 0.19692743 0.24362224 -0.21535121
-0.19504978 0.13812752 0.19272165 0.19237356 -0.16736911 -0.18627927 -0.21932144 -0.23813301

critic.2.weight f4 [32, 64]
00000000: 4514 43bf cb7e a7be caff a338 11c3 7fbf
00000010: 7d3d 663f 131a 11bf 156b 4a3e 1872 b7bd
00000020: 6c29 1e3f baf3 6f3e 2137 38be 5893 32be
00000030: 9f37 8cbf b820 99bd c5df ff3e 4026 53be
00000040: 5e04 0bbf c002 273f 7388 393c fa19 273e
00000050: 990f 393f 219a 8cbe cd9a 193e da2a 43bf
00000060: 470b 1a3f 3f44 d9bd c0e7 933e 5694 b03e
00000070: e761 903d b683 c23e eaaf d6be 4e01 e53c
00000080: 476c 3bbf d081 d73e 6943 5ebe f397 4bbf
00000090: 3204 913e 392b 0dbe 7fe9 e0bd eff5 273f
000000a0: 9b92 de3e 0508 473e 71fc fc3e 7544 b0be
000000b0: d7e0 2a3e 7aba 963e 3f9c 4fbf 3f64 833d
000000c0: 2ba8 26bd e314 acbe 038f 303f 0c34 d83c
000000d0: fca8 90bd 4a12 41bf 5ba7 853d 3e3f 943f
000000e0: bb18 4a3e 21fa 14bd 2c0c 33be db73 5ebf
000000f0: 5984 a03e 1b39 e8bd 4e6d ae3e 7940 05be
00000100: e5a5 863e 1e9d 93bd 0271 95bd ae95 573f
00000110: d350 ddbe fad4 873e 0a1c 00bf 6390 143e
00000120: 3105 23be 7eca b73e 15dd 4b3e bfc3 3bbd
00000130: f93c 303f 99fa e23d 60b0 a1bd 1da1 b93c
00000140: 4a0f f63e 16c6 0fbf c3ca a7be cf82 26be
00000150: 66c7 cfbd 84ba 013e da1d 1abd 33dd b93e
00000160: 21fa 10bf add1 373e 3156 ebbe c6bd 57be
00000170: 18c6 69be 6ae2 85be 5c2b 03be a378 db3e
00000180: 2f34 a73e 16a4 cbbe 53f7 cfbc 9ec0 54bc
00000190: 008d 483e f76a c53d 003b b8be a21b e8be
000001a0: ee12 843d e3fe 553e 6c31 a13e 5f04 093e
000001b0: 0670 97bd 741b 5fbe 0d48 233f cd6e c4be
000001c0: 1850 c9be 1019 503e 682e c93e ca90 1ebe
000001d0: 0b1a 6dbe 226a bd3e 8a1f 413e 96f8 c0be
000001e0: 4015 313e 807c ad3e 7754 2d3f 6473 223f
000001f0: e535 ecbd a08f 58be 71b2 81bd 73dc afbe
00000200: 0823 d73e c09a 81bd 26bd e4bd a99d b03e
00000210: eecb 733d 85c7 d43e 1912 dbbd a7a4 9e3d
00000220: 4e9a 36bd e3ac 833c ae1c 453e 71d4 9abe
00000230: 35d5 55be 34dd afbc 720a 7bbe 10c9 b83d
00000240: 6be0 b83d b381 62be 1bec 8bbe 6b8e babe
00000250: 1dd8 b83c 328b 3ebe b7a6 1a3d 1424 c23e
00000260: 1410 17be 78b7 f63e 74ad e0be 589a 28bd
00000270: 0955 cfbe fc91 1dbe 9238 123c 8a8d 113e
00000280: 7f26 8d3d 23ff cbbe 1d81 c1bd f0ad 50be
00000290: c372 903e c44b 233e 9ed0 44be 9425 09bf
000002a0: a764 7b3e 1ba8 17be 4922 8fbe b900 3d3e
000002b0: 02a1 c4bd 1064 b4be 7999 7c3e 989d a53d
000002c0: fb10 113d 42ef 1f3e f106 3cbd 86cd 91bd
000002d0: c836 0d3d ad70 d13d 4a48 233e 900f bcbe
000002e0: 4fd4 383e e654 883e e281 b53b 67ed 0e3f
000002f0: d187 88be 13a1 91be 0bde 87be 84a9 53be
00000300: 46ab 03be ea0c a13c 665e ddbe 5ce5 c7bc
00000310: 7a94 15be b5b7 853d 5c29 8dbe 3b5c 173d
00000320: 87ac 143e 4877 cd3d 7095 423d 91e3 a4be
00000330: 9d49 8fbe f190 f63d 3776 b73e a6f3 133f
00000340: 98e9 203e 6b9b e0be a6b9 5ebe bc11 47be
00000350: 81fa 10be bdd7 583e 780b 743e 6caf bb3d
00000360: 920e b8be 5b8f 1d3e 2887 d6bc 8290 2a3d
00000370: 4e1a 9c3d b5b4 08be 5fae 6a3e 5d08 ef3e
00000380: d907 063e 7962 67be ec65 9dbd 4a65 8d3e
00000390: c8c1 a0bd 7ef5 4bbc 366d 663a 1d05 2a3e
000003a0: e144 d1be 0d35 45be 14e0 6abe ac62 c53e
000003b0: 8a87 a6bd 2f99 0bbe 5401 debd ba74 3f3d
000003c0: 0fb8 94bd cc1f ec3d ab34 a6bc a351 683e
000003d0: 7d45 4bbe 55e9 23be 793b af3d 91c9 76be
000003e0: 33f9 963e 9ef3 bd3d 5365 1e3e a744 ad3e
000003f0: 865a 42be b562 d8be 35f0 24bd d089 49be
-0.76202804 -0.32713923 7.82009e-05 -0.9990702 0.89937574 -0.5668041 0.19767411 -0.089573085
0.61781955 0.23432818 -0.1798978 -0.1743902 -1.0954474 -0.07476944 0.4997541 -0.2062006
-0.5430354 0.6523857 0.011324036 0.16318503 0.72289425 -0.2746134 0.15000458 -0.7623726
0.6017346 -0.1060872 0.2888775 0.3448817 0.070499234 0.37991112 -0.41931087 0.027954724
-0.73212093 0.42091227 -0.21705402 -0.7952873 0.28323513 -0.1378602 -0.10982036 0.6560964
0.43471226 0.19436653 0.49411348 -0.3442723 0.16687332 0.29439145 -0.8109779 0.06415605
-0.04068772 -0.33609685 0.6896822 0.026392005 -0.07063481 -0.7541853 0.06526061 1.15818
0.19735996 -0.036371354 -0.17485112 -0.8689553 0.31350973 -0.11339017 0.34067768 -0.13012876
0.26298442 -0.07207702 -0.07296945 0.8421277 -0.43225726 0.26529676 -0.50042784 0.14508204
-0.15919949 0.35896677 0.19908555 -0.045840975 0.68843037 0.11082954 -0.07894969 0.022659833
0.4805854 -0.5616163 -0.32771882 -0.16260837 -0.10145454 0.12668806 -0.037626125 0.36301574
-0.56631666 0.17951079 -0.45964196 -0.21068487 -0.22829473 -0.26149303 -0.12809509 0.42865476
0.32657 -0.39773625 -0.025386488 -0.012985377 0.19585037 0.096395425 -0.35982513 -0.45333582
0.06448923 0.20898013 0.31483018 0.13380574 -0.07394414 -0.21787816 0.63781816 -0.38365784
-0.3931892 0.2032206 0.39293218 -0.1548492 -0.23154466 0.36995035 0.18859687 -0.37689656
0.17293262 0.33884048 0.6770701 0.6345732 -0.11533717 -0.21148539 -0.06332863 -0.34347877
0.42018914 -0.06328344 -0.1116889 0.34495285 0.059520654 0.4155847 -0.10696811 0.07746249
-0.04458075 0.01607365 0.19249222 -0.30240205 -0.20882113 -0.021467783 -0.24515703 0.09022725
0.09027179 -0.22119789 -0.27328572 -0.3643678 0.022563988 -0.18607786 0.037756648 0.3791815
-0.14752227 0.4818685 -0.43882334 -0.04116282 -0.40494564 -0.1538772 0.00892462 0.14214149
0.06892108 -0.3984309 -0.094484545 -0.20378852 0.28212556 0.15946871 -0.19220206 -0.53572965
0.24550115 -0.14810221 -0.27955845 0.18457307 -0.09601022 -0.35232592 0.2466792 0.08086699
0.035416584 0.15618613 -0.045905057 -0.071192786 0.03447607 0.10226569 0.15945545 -0.36730623
0.1804974 0.26627272 0.005539165 0.55831 -0.2666612 -0.28443202 -0.26536593 -0.20670134
-0.12858304 0.019659478 -0.43236083 -0.02440136 -0.1460742 0.0652918 -0.27570617 0.036953192
0.14518939 0.10032517 0.047505796 -0.3220487 -0.2798585 0.12039364 0.35832378 0.57793653
0.15714109 -0.43868575 -0.21750507 -0.19440359 -0.1415806 0.21176048 0.238325 0.091643184
-0.35948616 0.15386717 -0.026187494 0.04164172 0.07622205 -0.13350184 0.2291808 0.46686068
0.13088931 -0.22596158 -0.07685456 0.2761634 -0.07849461 -0.012448667 0.00087900774 0.16603513
-0.40872863 -0.19258519 -0.22937042 0.38551843 -0.08131321 -0.13632654 -0.10840097 0.04674218
-0.07261669 0.11529502 -0.020288786 0.22687392 -0.19850726 -0.16006978 0.085562654 -0.24100329
0.29487 0.09274982 0.1546834 0.3384144 -0.18979844 -0.42262807 -0.04026814 -0.19681478

critic.2.bias f4 [32]
00000000: 194c 33be fc82 003e 4669 113e 0e44 163e
00000010: 17b6 293d edc0 5f3e 77f0 183e 1084 45be
00000020: 4982 163e c639 383e a44a 903e 3cfc 713e
00000030: 6cf3 d93d 5929 11be 8cb1 c73d ebc7 08be
00000040: d695 10be c337 09be 1eb2 403e f8d1 ec3c
00000050: ddfd 1a3b 9f95 0fbe 6980 19be 161a 2f3e
00000060: 3d81 33be be89 14be 96e2 3b3e 4cf6 53be
00000070: 9938 2e3e d99d 50be f3f6 1b3e 693b 3e3e
-0.17509498 0.12549967 0.14200315 0.14674398 0.04143342 0.21850939 0.1493548 -0.19288659
0.14698137 0.17990789 0.28181946 0.23631376 0.10642132 -0.14175929 0.09750661 -0.13357513
-0.14119658 -0.13400178 0.18817946 0.028908715 0.002364985 -0.1402192 -0.14990391 0.17099795
-0.17529769 -0.1450567 0.18348154 -0.20699424 0.17013778 -0.20372714 0.15230922 0.1857735

critic.4.weight f4 [1, 32]
00000000: 33a3 74be d3b8 033e 1e62 fd3d 9d4e d73d
00000010: 4d4a b43d 8a1e 9b3d a4f5 223d 63d7 a9bd
00000020: bf29 cb3d 62fa 8b3e af60 d03d d01a a93d
00000030: 9b2b 0b3e cea7 c2bd 5c61 163c ba85 10be
00000040: 28ce 58bd f293 14be e73b 3b3e 19dd 48be
00000050: 06c0 67be 48e5 cbbd 3183 a8bd 8b6b 923e
00000060: b132 9cbe 8b98 b4bd 15ea 8a3e 5201 ccbd
00000070: e127 a33e 6f65 bdbd dcad 283e 9db6 523e
-0.2389038 0.12863474 0.1237223 0.10513041 0.08803234 0.07574184 0.039785042 -0.08293035
0.09920072 0.27339464 0.10174691 0.08257067 0.13590853 -0.095046625 0.009178486 -0.14113513
-0.05293098 -0.14509562 0.1828457 -0.19615592 -0.22631845 -0.09955841 -0.08228148 0.28597674
-0.30507424 -0.08818158 0.27131715 -0.09961189 0.31866363 -0.092478625 0.16472572 0.20577474

actor_mean.0.weight f4 [64, 5]
00000000: edd1 9c3d a73c d73d c188 ed3c 1aae 87be
00000010: 2a99 f7bd 3d03 44be d819 063e 3277 38be
00000020: 22c9 ccbd ced3 c73b 0312 5fbd 2d69 a93d
00000030: 8f43 0ebd a948 653e 0505 ae3e 3204 4c3e
00000040: 887a a0bd f0f9 eb3d 0c5a 6cbe baee d93d
00000050: 919b 9abe a636 ec3d 42c6 a83d ae66 b8bc
00000060: 5ff4 ecbe 582a 62bd fc02 28be 70ce 84bc
00000070: 094d 223e ca6b 4ebe 7844 ae3d 0876 1d3e
00000080: 08f9 05be 1500 c23d 6c67 3d3e 4315 1f3e
00000090: 6f88 f83c d25d afbe af46 b0bd e725 babe
000000a0: 6933 a73e 29c7 02bc a281 8abd 7467 f43e
000000b0: 25fd d23e 2a00 53bd 4d60 9abe 7c5d 1abd
000000c0: ef96 26be 94cf debe 336a acbd b9fd 95bd
000000d0: b3d1 c3bc e26a 99be b7d2 803d 0b42 8c3d
000000e0: 5f21 563c 5378 19be 0704 553e 8d8c ec3e
000000f0: 3b4a a13d c247 a3bd 7010 a93d c998 20be
00000100: d42e 43be 259d 2dbe 9fe9 a73b 9bab 73bd
00000110: 280c 523d 9f9d 313e ed46 81bd 87c3 893e
00000120: 5257 e13d 20f8 363d b40b ea3e 8108 f83d
00000130: 5cb2 083c 65ae da3e 34ee f83c 52c7 35be
00000140: 619e aabd b172 b43c 0d5d f0bd c33f d43d
00000150: 566b 85be 3062 a13d 0816 dfbe 568d e43d
00000160: 94b9 22bd 54c8 a4bd 0340 73be 4f55 fcbc
00000170: 9120 9c3e 6d62 cd3a b247 993e cdbc e8bd
00000180: 943c 96bc 344f 0ebb 2a34 8dbd 6add 19bd
00000190: c834 92be 4fa4 42bd 7657 9ebe 333a ebbd
000001a0: a206 6b3e 9043 5bbe daef bcba 6b1c 943d
000001b0: e5be 69be a058 79be 91c1 e5bd 8468 8e3a
000001c0: c1bc b6bd 0283 c13e b14d 4f3b fd18 70be
000001d0: 33f9 9cbd c3dc 473e d288 0e3e 894a 6e3e
000001e0: d154 da3d 9884 75be 1169 c7bd 1afc c33d
000001f0: 3fcc 583e 19fb 35be bb59 8cbe 7164 353e
00000200: a7cf b33e 8eab 2f3b e1e5 e03d e09b 773e
00000210: 0807 dcbd ae8f 893d 152e 833e f907 5dbe
00000220: d60d a0be e307 2a3e 2d7f 17be 3989 84be
00000230: 98bc d0be de0a 37bc 1ef4 0cbe 204c b03e
00000240: 8b41 37be ab6a b7bd 1ff3 4f3e ef5c 31be
00000250: f4ab f8bd 2463 96bd 6e9c 8f3a 70f0 44be
00000260: 0cff a9be 054f 1e3d 9fe7 f9bd 04bc 043e
00000270: dfaf 413d af1b 773e 41cd 8d3e e495 64be
00000280: 5faa 9b3d a67d cc3d edae 2a3d f334 c03e
00000290: 5f6d 083e 50aa adbe 1aba ed3d 9251 c1bc
000002a0: d669 933e 8562 393e fcff 8dbc 185b d83b
000002b0: 21e3 96bd 1cb3 72be a58e 5bbb 22e7 5cbd
000002c0: f652 aabd 5509 69be 1938 c8bc 1f43 b3bd
000002d0: 9e95 3bbd 70e8 0dbe 003a 123e 6c80 f2be
000002e0: 66ce 873e 4dac 1b3e c253 15be a0fd 1a3e
000002f0: 8584 b73d ad15 4ebe a1ce c7bd 8541 efbe
00000300: 0388 4dbe b118 a03e 7563 25bd 224e d33b
00000310: cdf2 e63d 63a1 1fbe 9635 15be 1f0c 01bd
00000320: 28df 98be f7e0 0c3e 54e0 2dbe 8b8e cf3d
00000330: 07ee c6bd 6f95 49be cab4 95bd 0945 5ebe
00000340: 39be f8bd c000 afbd ce87 9b3c 4541 debe
00000350: d1d7 57be e727 8bbe 92f6 5abe ff61 173d
00000360: e550 a1be b1cc d5be 297a 093d 93d9 4ebe
00000370: 412e 4fbe b31f a53d b176 ad3c 4aeb 87bc
00000380: a8c9 31be 43a4 ae3d 46e4 91be 400f 69bd
00000390: 611a e93d 0d11 46be f432 3ebe c961 2f3e
000003a0: 2e4c f03d d922 1abd c8e1 863d 8358 733e
000003b0: cdf7 1a3f 4023 dabb 50e7 493c b8de f93e
000003c0: 972d 543e 3d13 56be e32b 1bbe 5fec 27bd
000003d0: 6ae2 ed3d 65a4 473d 5b44 f63d 2338 25be
000003e0: c0e6 2abd e554 c0be 355d 1fbe 8830 05bf
000003f0: 9deb 9dbd eaca a9bc d93a 70be 65f1 3cbe
0.07657228 0.105096154 0.028995873 -0.26500016 -0.120897606 -0.1914186 0.13095796 -0.1801422
-0.099993005 0.006098247 -0.054460537 0.08272014 -0.034732398 0.22390999 0.33988205 0.19923475
-0.07835871 0.11522281 -0.23081225 0.106412366 -0.30196813 0.11533861 0.0824094 -0.022509899
-0.4628019 -0.055216163 -0.16407388 -0.016211718 0.15849699 -0.20158306 0.08509153 0.15377057
-0.13083279 0.09472672 0.18496484 0.15535454 0.030338494 -0.34251267 -0.08607232 -0.36357042
0.3265641 -0.007982054 -0.06763007 0.47735178 0.4120876 -0.05151383 -0.30151597 -0.03768681
-0.16268514 -0.43517745 -0.084186934 -0.073237844 -0.023903703 -0.29964358 0.06290191 0.06848534
0.01306948 -0.14987306 0.20802318 0.46200982 0.078754865 -0.07972671 0.08255088 -0.15683283
-0.19060832 -0.16954477 0.0051242854 -0.059489828 0.051281124 0.17345284 -0.06312356 0.26906988
0.11002983 0.044670224 0.45712054 0.12110997 0.008343305 0.42711177 0.030387022 -0.17751816
-0.0833099 0.022027345 -0.11736498 0.10363724 -0.26058453 0.07880056 -0.43571496 0.1115977
-0.039727762 -0.08046022 -0.23754887 -0.030802397 0.30493596 0.0015669592 0.29937512 -0.11364136
-0.018339433 -0.002171469 -0.06894715 -0.037564673 -0.28555894 -0.047519978 -0.30926102 -0.1148571
0.22951749 -0.21412492 -0.0014414743 0.07231983 -0.22826727 -0.24350214 -0.112185605 0.0010864888
-0.08922721 0.37795264 0.0031632 -0.23447032 -0.076647185 0.19517808 0.1391938 0.2327062
0.10660709 -0.23976362 -0.09736837 0.09569569 0.21171664 -0.17771567 -0.2741221 0.17714097
0.35119364 0.0026805135 0.10981346 0.24180555 -0.107435286 0.06716858 0.25621095 -0.21585073
-0.31260556 0.16604571 -0.14794607 -0.25885943 -0.40768886 -0.0111720245 -0.13764998 0.3443308
-0.17896096 -0.08955892 0.20307587 -0.17320608 -0.121421725 -0.07343128 0.0010956654 -0.19232345
-0.33202398 0.038649578 -0.12202381 0.12962347 0.047286864 0.24131654 0.2769566 -0.22322804
0.07600855 0.09984903 0.04167073 0.37540397 0.13322972 -0.33919 0.11607762 -0.023598466
0.28791684 0.18103988 -0.017333977 0.006602656 -0.0736754 -0.23701137 -0.003350177 -0.053931363
-0.08316605 -0.22757466 -0.024440812 -0.08753037 -0.045796983 -0.13858199 0.14279938 -0.47363603
0.26524657 0.15202446 -0.14582732 0.15135813 0.08960823 -0.20125456 -0.09756208 -0.46729675
-0.20071416 0.31268838 -0.040378053 0.006448523 0.11276779 -0.15588908 -0.14571223 -0.0315057
-0.29857755 0.13757692 -0.16980106 0.1013461 -0.09713369 -0.1968591 -0.073098734 -0.21706022
-0.12145657 -0.08545065 0.018985655 -0.43409172 -0.21078421 -0.2717888 -0.21383122 0.03695869
-0.3150703 -0.4175773 0.033563767 -0.20200185 -0.20232488 0.08062687 0.02117476 -0.016591687
-0.17362082 0.08527424 -0.2849447 -0.05689931 0.113819845 -0.19342442 -0.18574125 0.17127146
0.1173328 -0.03763089 0.06586033 0.23764233 0.60534364 -0.006657034 0.012323216 0.48802733
0.20720516 -0.20905776 -0.1515346 -0.040996905 0.11615451 0.048740763 0.120247565 -0.16134696
-0.041723967 -0.3756477 -0.155629 -0.5202718 -0.07710955 -0.02072664 -0.23459949 -0.1845146

actor_mean.0.bias f4 [64]
00000000: de9e 463c 2e49 bdbc 0dee 353d 88c2 723d
00000010: aec2 8abd c439 b8bb 5d1b c03c 3571 b53c
00000020: 7d1b ea3c aac3 553b 8fa7 80b8 6e82 083d
00000030: 43de 7a3c 7ce7 2cb9 16a6 a93c c7e9 113c
00000040: 7676 41b8 d715 a33c 2ebc 8cbc a77f 84bc
00000050: f8ae 643c fb01 1ebb 9151 fc3b 223e 283c
00000060: 08ca 133d 2bd0 f8ba bb71 8e3c 446d b9bc
00000070: 53b6 26bc f6d1 5bbd a3b7 d63c 0428 023d
00000080: 4b79 d93b 97f9 84bb aaaf 4dbc ac64 50bd
00000090: 64fb daba ca59 7d3c 107e a13c 38a7 7938
000000a0: 0209 c33b f348 eebc de27 023d c039 173c
000000b0: f422 05bd 762b 3d3d 7018 b8bc 0ce4 893c
000000c0: 648f 0b3c c02b a53c b418 60bb 9b42 39bd
000000d0: fd85 aebb 7e98 48bc 30d0 17bc 9a07 7e3d
000000e0: d798 803c b0cf 863d ad9a 5bbc 78bf bc3d
000000f0: 9d64 b23c 2f01 fdbc 4544 46bd 03d2 dabc
0.012122838 -0.023106184 0.044416476 0.05926755 -0.067754135 -0.0056221206 0.023450548 0.022148708
0.02857756 0.0032617846 -6.134726e-05 0.033327512 0.01531178 -0.00016489433 0.020709079 0.0089058345
-4.612511e-05 0.019907875 -0.017179575 -0.01617415 0.013957731 -0.0024110067 0.007700153 0.01026872
0.036081344 -0.0018982937 0.017388215 -0.02263511 -0.010175305 -0.05366703 0.026210612 0.031776443
0.0066367737 -0.0040580737 -0.012554089 -0.05087726 -0.0016707 0.015463302 0.019713432 5.952196e-05
0.0059520015 -0.02908752 0.0317763 0.009230077 -0.032504037 0.046184026 -0.02247259 0.016832374
0.008518074 0.020162463 -0.0034194412 -0.045229536 -0.0053260312 -0.012243388 -0.009265944 0.06201897
0.01569788 0.06582582 -0.013403577 0.09216207 0.021776492 -0.030884353 -0.04840495 -0.02671147

actor_mean.2.weight f4 [32, 64]
00000000: 77ab 9cbc 3b90 7ebd a18d 97be eb2e 3b3d
00000010: 6d67 813e 2997 4e3e 5c28 85be 2292 593e
00000020: 8a0c f4be b48b 843e 9ada 5c3d 75a9 7fbe
00000030: f9ce f13d 4c19 83bd e7a8 3abd 002a e03d
00000040: 2fca 81bd 7f78 00bd 986a 81bd d4d1 253e
00000050: 7d4e aabd 6751 6b3e 3541 d6bd bca4 b9be
00000060: b163 813d 2ed4 333e aa11 bcbe 83af db3d
00000070: 57d4 3fbe 26ed ecbd 870b 00be d058 5b3d
00000080: ef7c c43d 28a6 79bd c8ec 243e bab6 a43e
00000090: a55b 2f3d 3aaf c4bb 7718 17be 645e d73d
000000a0: db5b 113e b556 5dbe c4c9 79bd 1640 253e
000000b0: cc3b 47be 5882 8dbe 9540 373d ccf7 fdbe
000000c0: 4d42 e73e 44fc 7b3e 720d 5d3e 0767 8a3e
000000d0: 646f 1b3e f3da 52be 970a c73d 545f 273e
000000e0: a92e 08be 9652 5b3e cfdf 3bbe 0a4d 9b3c
000000f0: 6da4 43be 7c74 11bd 4a52 8c3e e6f4 cb3d
00000100: f4d9 37bd 2f3d 7abc 646c bcbe af5c 38be
00000110: 8cbc aebd 2cd6 073e 0ed8 d3bd 788b 18be
00000120: 444b 0dbe f1ba 04bd 4de8 8e3c c994 ba3e
00000130: 7eb6 a83d 13b3 df3d e262 56be 075b 8cbe
00000140: d265 8b3e 4343 f03e efd8 82be d6a4 f1bc
00000150: 660d 233e 5dd8 82bd 5f42 bb3e 8150 293e
00000160: 9ab3 223e e3f6 2e3e 64da 803e 6d1a 4d3b
00000170: aeed f63d e2a6 55bc 711d 1d3a 4b2e d33d
00000180: 4633 cd3d c164 f53d 1857 1dbe e7b7 3ebe
00000190: fcbe 2dbd f7f2 40bd e8e6 8abe b275 6f3e
000001a0: 9201 30bd 1f4a f3bd 5acd 483d 25fe f4bd
000001b0: 55f6 65bd 421b f4bb 11e0 f6bd 0a56 123e
000001c0: 014c e13d 4002 d43d 6154 03be c266 16bc
000001d0: 9535 413e 6a4d 5c3e f4d3 633d 218b 98bd
000001e0: 4203 d2bd eaf9 42bc 63b7 56be c438 24bd
000001f0: d7c4 78be 9e94 35be 5a16 96bd 1bf9 713e
00000200: 1fad dabd a8b1 0dbe 3991 b13e 2058 b3bd
00000210: 0d89 943d 3105 b63b c8c4 eabe 822a e43d
00000220: 7cfb 983e 197f ddbd 3b6f 6f3e 12d0 cebb
00000230: 156b bbbc 6938 a7bc 7e72 21be 6db2 bd3b
00000240: 30bc 813a 69ab 11bc af15 683e 0857 803e
00000250: 9a22 5ebe a4af 31be 44c6 45be 5728 363d
00000260: 5beb a53b 8ad7 c9bd c311 1c3e 96f1 41be
00000270: ac44 7c3e 3577 9cbd 46dd 53be a7e1 943c
00000280: 3f6c cc3e 0e1d 243b 898b 903d 9285 383e
00000290: 6751 673c 80b0 64bd a4ad 11bd 9fbd 353e
000002a0: c8b9 b2be 04fb 0dbc ff32 5cbd bafc a0be
000002b0: 53a8 04bd 7f0c d23e 8066 32be c2b4 ebbc
000002c0: f41b 9b3e 4157 8cbd 753f adbd b0b1 eebd
000002d0: 1a54 11be 493e 9b3c cec5 203e 55fa 20be
000002e0: d9d8 8fbc 0d42 20be b246 753c 0439 dc3d
000002f0: f4d0 f8bd dfb3 49be 25e0 6d3e 7de2 63be
00000300: 0713 d6bd 4421 65bd ca44 bb3d 70ca 583e
00000310: b70e f03d 2722 2bbc ea9c 4a3d a5e1 1a3d
00000320: af76 b4bc 522d 233f c141 0f3e a6e0 9b3e
00000330: 546c f93d cf45 61be d63d 06be ce71 04be
00000340: 14aa cdbc 4932 5a3e a008 ccbd 4639 b93d
00000350: 8f90 0bbe 35e2 73bd e306 f03d 153b e1bd
00000360: 4000 f8bd 45f6 b5bc 4d00 1cbf f024 a0bd
00000370: bf05 d9bd 3bcf 4bbd 1b22 143e f495 153e
00000380: f964 64be a9d1 e83e 77c2 51be 7bba 0b3e
00000390: cf23 893c 00d4 94bc 8854 ca3e cb66 35be
000003a0: 89da 4f3d c0cf 993e b644 093e 36d8 2fbd
000003b0: d46b 8abd 2e82 bfbc 333a 20be 8b50 5ebe
000003c0: 26ab 0a3e 046c cbbd 946e 243d befb eabd
000003d0: 66f0 a73e 8c8d 813e 770e 4f3c 7a32 babd
000003e0: 879f 243e 0be8 c3bd ba6f dc39 acbf 293e
000003f0: 471f 91bd 3584 1f3e 43c8 9c3e 4502 6f3e
-0.01912473 -0.062149268 -0.29600242 0.04569904 0.2527422 0.2017485 -0.26007354 0.21247151
-0.47665817 0.25887835 0.053919412 -0.24966986 0.11807055 -0.06401309 -0.045571234 0.10945511
-0.063373916 -0.031364914 -0.06319159 0.16193324 -0.08315752 0.22980271 -0.10461656 -0.36258495
0.06317843 0.17561409 -0.36732227 0.107268356 -0.18733345 -0.1156867 -0.12504397 0.053551495
0.09594142 -0.060949475 0.1610595 0.3217066 0.04281201 -0.006002334 -0.14755426 0.105160505
0.14195196 -0.21615107 -0.060983434 0.16137728 -0.19456404 -0.27638507 0.044739325 -0.49603117
0.4516777 0.2460795 0.2158716 0.2703173 0.15179211 -0.20591335 0.09718817 0.16344959
-0.1329905 0.21418223 -0.18347095 0.018957634 -0.19105692 -0.03551148 0.27406532 0.0995882
-0.04488559 -0.015273376 -0.36801445 -0.18004106 -0.08532056 0.13265294 -0.103439435 -0.14896953
-0.13798243 -0.032404844 0.017444754 0.3644164 0.082379326 0.109228276 -0.20936158 -0.27413198
0.2722612 0.46926317 -0.25556132 -0.029497545 0.1592308 -0.06388924 0.36574075 0.16534616
0.15888825 0.17086367 0.2516662 0.0031296269 0.120570526 -0.013040276 0.0005993462 0.10311564
0.10019545 0.11982108 -0.15365255 -0.1862484 -0.042418465 -0.04710671 -0.27129292 0.23384741
-0.042970248 -0.11879372 0.049023964 -0.11962537 -0.056143124 -0.0074495384 -0.12054456 0.14290634
0.11000825 0.10351992 -0.12825157 -0.009179773 0.18868096 0.21513906 0.055622056 -0.07448412
-0.10254528 -0.0119004045 -0.20968394 -0.0400932 -0.24293838 -0.17732474 -0.07328482 0.23630182
-0.106775515 -0.13837302 0.3468111 -0.08757043 0.07252703 0.005554818 -0.45853257 0.1114092
0.29879367 -0.108152576 0.23382275 -0.006311425 -0.02287821 -0.02041264 -0.15766332 0.0057890923
0.0009898003 -0.008890965 0.22664522 0.250664 -0.21692887 -0.17352158 -0.19313914 0.044472065
0.005063457 -0.09855564 0.1524115 -0.18939814 0.24635571 -0.076399244 -0.20689878 0.018174006
0.39926335 0.0025041732 0.07057864 0.18019703 0.014118529 -0.055832386 -0.035565987 0.17748116
-0.34907365 -0.008665804 -0.05375957 -0.31442815 -0.03238709 0.4102516 -0.17421913 -0.028772715
0.30294764 -0.0685258 -0.08459369 -0.11654985 -0.14192238 0.018950598 0.15700457 -0.15720494
-0.017559456 -0.15650196 0.014970468 0.10753062 -0.1214923 -0.19697522 0.23230036 -0.22254367
-0.10452848 -0.055939928 0.0914398 0.21170974 0.11721557 -0.010445154 0.04946605 0.037812848
-0.022029249 0.6374103 0.13989927 0.3044483 0.12178865 -0.21999286 -0.13109526 -0.12934038
-0.025105514 0.21308245 -0.099625826 0.09044127 -0.13629363 -0.0595419 0.117200635 -0.10997597
-0.12109423 -0.022212157 -0.6093796 -0.07819545 -0.10596799 -0.049758177 0.14466135 0.14607984
-0.22304143 0.45472458 -0.20484339 0.13645355 0.016740708 -0.018167496 0.39517617 -0.17714994
0.05074552 0.30041313 0.13405117 -0.042930804 -0.06758848 -0.023377504 -0.15647201 -0.21710412
0.1354185 -0.09932712 0.040144518 -0.11473797 0.32800597 0.25303304 0.012637726 -0.09091659
0.1607648 -0.09565743 0.00042044913 0.16577023 -0.07086044 0.15577777 0.30621538 0.2334071

actor_mean.2.bias f4 [32]
00000000: de58 acbc 6cbe 6e3d 2b62 16bc 146d 053c
00000010: ff78 713c 2025 413c ed2a 0abc 81df 5b3c
00000020: fbb1 26bb b06f 1b3c ed66 433b 68bc 023b
00000030: 6253 27bb ded9 b73b ea96 44bc 346e e33c
00000040: 1682 23bc 8b3b 253c 7093 a93c c321 9bbc
00000050: d8e6 ebbb 2c33 873c 5d72 36bc e174 6f3b
00000060: 58cd 2bbc a112 d03c 71b3 8cbc 5b88 233b
00000070: 2946 8a3c 25f4 4fbc 683a a2bc 8140 0abd
-0.021038469 0.05828707 -0.0091786785 0.008143682 0.01473832 0.011788636 -0.008433086 0.013419987
-0.0025435674 0.009487078 0.0029815987 0.0019948725 -0.0025531878 0.0056106886 -0.011998871 0.02776251
-0.009979745 0.010084997 0.020700186 -0.018936997 -0.0071991496 0.016503893 -0.011135665 0.003653817
-0.0104859695 0.025399508 -0.017175408 0.00249531 0.016879158 -0.012692486 -0.01980324 -0.033752922

actor_mean.4.weight f4 [1, 32]
00000000: 5ac6 57be eb9a e9bc fa3b a53e af60 b6bd
00000010: 2a65 073d c542 17be 2a98 ae3e 68ab 53be
00000020: 8a1f 1e3e 90ec 6cbd 4302 57be eacc 87bd
00000030: 1b04 4d3a c1c7 683d 60f4 80b9 1060 a6bd
00000040: bbbe 8e3e ad64 3abe dbf0 473e 3e22 1b3d
00000050: fb46 c63e 7053 7c3e 41f8 2f3e c991 66be
00000060: 63c2 b93d 2f2e f23d 39e3 8b3d 9db6 7ebd
00000070: 900c 053d 620c a8be 3205 c63d 0b7a 853e
-0.21071759 -0.028516253 0.3227232 -0.0890516 0.033055462 -0.14771564 0.34100467 -0.20670855
0.15441719 -0.05784279 -0.20996957 -0.06630881 0.0007820741 0.056831125 -0.00024596136 -0.08123791
0.2787989 -0.18202467 0.19525473 0.037874453 0.3872603 0.24641204 0.17184545 -0.2251655
0.090702794 0.11825215 0.06830449 -0.062185872 0.032482684 -0.32821947 0.0966896 0.26069674
