Project/Ming_Jiang_1016239_Gengcong_Yan_1009903_Project/Part1/trained agents/ppo/InvertedPendulumBulletEnv-v0_PPO_401_1638452497_ppo.pth (torch, 23870 bytes, 10 tensors)

critic.0.weight f4 [64, 5]
0	0xbe84fb90	-0.25973177
1	0x3dd98728	0.10621482
2	0x3d105d01	0.035244945
3	0x3cfefaea	0.031125505
4	0x3e7e3ea4	0.24828583
5	0xbdd91c6e	-0.10601126
6	0xbe35b153	-0.17743425
7	0x3e1de8a7	0.15420781
8	0xbe8970c6	-0.26843852
9	0x3dc78190	0.09741509
10	0x3f113ab5	0.56730205
11	0xbd7af9dc	-0.06127344
12	0x3d3b390e	0.04570871
13	0x3dd72f7e	0.10507105
14	0x3bc78cfe	0.0060898056
15	0xbec271f9	-0.3797758
16	0x3de0a8e4	0.10969713
17	0x3e5fe625	0.21865137
18	0xbe72ee87	-0.23723803
19	0x3e23e2d6	0.160045
20	0x3e939ce7	0.28830644
21	0x3e50a06e	0.20373699
22	0x3e1b9df7	0.15196978
23	0xbe883b4f	-0.2660775
24	0x3e10e843	0.14151101
25	0xbc1f272f	-0.009713932
26	0xbed36fcf	-0.4129624
27	0xbea9da7b	-0.331745
28	0xbe630fa7	-0.2217394
29	0xbdd3818d	-0.10327444
30	0x3e345dbb	0.1761388
31	0xbe110202	-0.14160922
32	0xbe2c82f5	-0.16846831
33	0xbdd06f15	-0.10177437
34	0xbea0ab20	-0.31380558
35	0x3f431dac	0.7621715
36	0x3e3052ec	0.17219132
37	0x3df436ec	0.11924538
38	0x3e6003f0	0.21876502
39	0x3e433f06	0.1906701
40	0xbe5efd66	-0.21776351
41	0xbe3b049e	-0.1826348
42	0xbc68ddbf	-0.014213025
43	0x3d20b8a7	0.0392386
44	0xbded7587	-0.11594682
45	0x3e588b2f	0.21146844
46	0x3d69dd19	0.05709562
47	0xbd94b1ef	-0.07260501
48	0x39a5230d	0.00031497367
49	0x3d11a3f1	0.035556737
50	0xbe012f04	-0.12615591
51	0xbecf132b	-0.40444311
52	0xbf3bb583	-0.7332384
53	0xbe74f6ce	-0.23922274
54	0xbe833f3a	-0.25634176
55	0xbdc92c30	-0.09822881
56	0x3e8c9e2b	0.27464423
57	0xbe0187f6	-0.12649521
58	0x3decb82f	0.11558568
59	0x3e180978	0.14847362
60	0x3e710ba7	0.23539601
61	0xbd34f97d	-0.044183243
62	0xbe26e995	-0.16300042
63	0x3e1d5349	0.15363802
64	0xbc2eb33c	-0.01066285
65	0xbc4308bb	-0.011903937
66	0xbeaae476	-0.33377427
67	0xbdfed903	-0.124437355
68	0xbdf709df	-0.1206243
69	0xbd23c493	-0.03998239
70	0xbe3a6229	-0.18201508
71	0xbda90287	-0.08252435
72	0xbdd3e53b	-0.103464566
73	0xbd4581f5	-0.04821964
74	0xbdebb3ae	-0.115088806
75	0x3e401d44	0.18761164
76	0x3cd0239c	0.025407605
77	0x3eb3d923	0.351266
78	0x3e78ff08	0.24316037
79	0x3d0298dc	0.03188406
80	0xbf033ed7	-0.5126776
81	0x3eb6cb2e	0.3570189
82	0x3d8d6492	0.06903948
83	0xbd7daf87	-0.061934974
84	0x3c81327c	0.015771143
85	0xbdfdc134	-0.12390366
86	0x3e30e704	0.17275625
87	0xbe7065c5	-0.23476322
88	0x3e8e66fc	0.27812946
89	0x3e427670	0.18990493
90	0xbc07c04f	-0.008285596
91	0x3e2b3b38	0.16721809
92	0x3e338bf2	0.17533854
93	0xbd510879	-0.05103347
94	0xbdd1b9a2	-0.10240485
95	0x3e5a8874	0.21341115
96	0x3dccc89a	0.09999199
97	0xbbd13942	-0.0063849995
98	0xbdc145ad	-0.09437118
99	0x3e332f76	0.17498574
100	0x3f2df7c3	0.6795618
101	0xbed2eb25	-0.41195026
102	0x3af36d4d	0.0018572003
103	0xbd3d89c5	-0.046273965
104	0xbd63c6b3	-0.055609416
105	0xbe549411	-0.20759608
106	0xbe854413	-0.260285
107	0xbac28071	-0.0014839304
108	0x3e163d3b	0.14671795
109	0x3da3f5d0	0.080058694
110	0xbe9be925	-0.30451313
111	0x3e08bf20	0.13354158
112	0x3e4c8393	0.19972067
113	0xbe6becc3	-0.23039536
114	0x3dd980dc	0.10620281
115	0x3eae2402	0.34011847
116	0x3d19eabd	0.03757738
117	0x3e1b03b6	0.15138134
118	0xbcca829f	-0.024720488
119	0xbd9a6179	-0.07538123
120	0xbe0ae106	-0.13562402
121	0x3e649b98	0.2232498
122	0xbe061479	-0.13093747
123	0x3bd96f57	0.006635587
124	0x3ea5636d	0.32302418
125	0x3d09d134	0.033646777
126	0xbeaf27e1	-0.34210113
127	0x3eaed983	0.34150323
128	0xbe5bd230	-0.21466899
129	0xbe68640e	-0.22694418
130	0xbe5f0ed8	-0.21783006
131	0x3ec3026b	0.38087782
132	0x3e760b2e	0.24027702
133	0x3daa7c27	0.083244614
134	0x3f2001cd	0.6250275
135	0x3b6a3cb2	0.0035741744
136	0x3df3f7d9	0.119125076
137	0xbe127e08	-0.1430589
138	0xbd3c4a54	-0.045969322
139	0x3e91e562	0.28495318
140	0xbd2c1815	-0.042015154
141	0xbe4a5edd	-0.1976275
142	0x3e10f4b1	0.14155842
143	0x3d9cd9a4	0.07658699
144	0xbe261896	-0.16220316
145	0x3e39085e	0.18069598
146	0x3df793a6	0.120887086
147	0xbcd0b37e	-0.025476214
148	0xbe1c582b	-0.15268008
149	0x3e239bc3	0.15977387
150	0xbedf100c	-0.4356693
151	0x3e1163ac	0.14198178
152	0xbdb898bf	-0.09013509
153	0xbe8d6d57	-0.27622482
154	0x3e1cdffa	0.15319815
155	0x3ed93fe0	0.42431545
156	0xbe360ffb	-0.17779534
157	0xbbf04fb8	-0.007333722
158	0xbe47be63	-0.1950622
159	0xbd443ee5	-0.047911543
160	0xbf1a0c52	-0.6017505
161	0xbdbf9cc7	-0.09356075
162	0x3d73c55d	0.059514392
163	0xbe5298cc	-0.205661
164	0xbd751142	-0.05983091
165	0xbdbe26d5	-0.0928475
166	0x3e07ec07	0.13273631
167	0xbde983cb	-0.11402091
168	0x3ee3c0f9	0.44483164
169	0x3d5600be	0.0522468
170	0xbe829e4f	-0.25511405
171	0x3e905829	0.2819226
172	0xbe2d5593	-0.16927175
173	0x3e53b297	0.20673595
174	0x3d86e340	0.06586313
175	0x3e3aa90a	0.18228546
176	0x3e878675	0.2646977
177	0xbd9ed730	-0.077558875
178	0xbe57c79c	-0.21072239
179	0x3e28d99f	0.16489266
180	0xbe8ddeee	-0.27709144
181	0xbc8c23d5	-0.01710693
182	0x3da66f6a	0.08126719
183	0xbec35fe7	-0.38159105
184	0xbd25b832	-0.040458865
185	0x3e40b001	0.1881714
186	0x3e2ced28	0.16887343
187	0x3d318326	0.043337964
188	0x3d097524	0.03355898
189	0xbe4a5eab	-0.19762675
190	0x3e3f734e	0.18696329
191	0x3e1d629a	0.15369645
192	0xbe09d790	-0.13461137
193	0x3deb5694	0.11491123
194	0x3da004e8	0.07813436
195	0xbdbf7423	-0.09348323
196	0x3ebcc987	0.36872503
197	0x3c8cc04d	0.01718154
198	0xbe22a6c7	-0.15883933
199	0x3e9946f0	0.29936934
200	0xbb98164f	-0.0046413313
201	0xbe0e883a	-0.13919154
202	0x3e1c4c75	0.15263541
203	0xbe00ccf6	-0.12578186
204	0xbe3ed60c	-0.1863634
205	0x3e779114	0.24176437
206	0x3d3fb7fc	0.04680632
207	0xbdf20f35	-0.11819307
208	0x3e13b9a3	0.14426284
209	0x3caab2ec	0.02083727
210	0xbd423da3	-0.047422063
211	0xbe896303	-0.26833352
212	0x3d6ebe67	0.05828705
213	0xbd89e29c	-0.067326754
214	0xbd28e60c	-0.041235015
215	0x3e5d7820	0.21627855
216	0x3dd8c588	0.10584551
217	0x3d9dbe81	0.07702351
218	0xbd407740	-0.046988726
219	0x3d5385b6	0.05164119
220	0x3dfe45bc	0.124156445
221	0x3d6ddd0b	0.05807213
222	0x3ef18149	0.4716895
223	0x3e9cb260	0.3060484
224	0x3c226c8c	0.009913575
225	0xbe1fe63d	-0.15615173
226	0x3e3d6549	0.18495668
227	0xbe3d7236	-0.185006
228	0x3e12db01	0.14341356
229	0x3e7b18f0	0.24521232
230	0xbddfa960	-0.109209776
231	0xbe21bda4	-0.15794998
232	0x3cdf85e8	0.027285531
233	0xbcdad471	-0.026712628
234	0xbe1cdb52	-0.15318039
235	0xbe8b3969	-0.27192238
236	0x3deec2ca	0.11658247
237	0x3d826856	0.06367557
238	0x3c2b8cf4	0.010470618
239	0x3deb0ed6	0.11477439
240	0xbde9a8eb	-0.11409172
241	0xbf082aa0	-0.5319004
242	0x3e65dd93	0.22447805
243	0x3e4f465f	0.20241688
244	0x3e39790e	0.18112585
245	0xbd69bb7d	-0.05706357
246	0x3daa57cf	0.083175294
247	0x3e34c8a8	0.1765467
248	0xbdddb250	-0.10825026
249	0x3d996c6e	0.074913844
250	0x3e2d331f	0.16914032
251	0xbe219b1e	-0.15781829
252	0xbdc34d8d	-0.09536276
253	0x3e3cc650	0.18435025
254	0x3dcd2862	0.10017468
255	0x3ececdfe	0.40391535

critic.0.bias f4 [64]
0	0xbea22569	-0.31669167
1	0xbe583e64	-0.2111755
2	0xbe6f6255	-0.23377354
3	0xbe822b9d	-0.254239
4	0xbeb2ffd7	-0.34960815
5	0xbe6765dd	-0.22597452
6	0x3ed8a511	0.42313436
7	0x3d0f53c5	0.034992
8	0xbe747e85	-0.23876388
9	0x3ea0f8b9	0.3143976
10	0xbe98264a	-0.29716712
11	0xbecb0c70	-0.39657927
12	0x3ed323ca	0.41238242
13	0x3e89224e	0.26783985
14	0x3ef15023	0.47131452
15	0x3f0cee7e	0.5505141
16	0x3e1ad6c4	0.15120989
17	0xbee78dd6	-0.452254
18	0xbe85d68e	-0.26140255
19	0x3e34836a	0.17628255
20	0x3e45fa6f	0.19333814
21	0x3eda5b76	0.42647904
22	0xbeb302ed	-0.3496317
23	0xbeab4510	-0.33451128
24	0xbecb699f	-0.3972902
25	0x3f172781	0.59044653
26	0x3db7d08e	0.089753255
27	0x3e5161e6	0.20447502
28	0xbe1db155	-0.15399678
29	0x3eb386d0	0.3506379
30	0x3e836883	0.25665674
31	0x3e66278d	0.22476025
32	0xbdcb6070	-0.09930503
33	0xbedbe40a	-0.42947417
34	0xbeb8fe25	-0.36131397
35	0xbef3f983	-0.476513
36	0x3e52c727	0.20583783
37	0xbebbd6fd	-0.3668746
38	0x3ef84a5e	0.48494238
39	0xbefda956	-0.49543256
40	0xbe545c75	-0.20738395
41	0x3ed92265	0.42409053
42	0xbe7d5a67	-0.24741517
43	0xbea783ca	-0.32717735
44	0x3eb45e1e	0.35228056
45	0x3e0b7188	0.13617527
46	0x3eaf8a27	0.3428509
47	0xbe9a4878	-0.30133414
48	0x3ef01298	0.46889186
49	0xbe67d8fc	-0.22641367
50	0xbea4d5e6	-0.32194442
51	0x3e1a8e8a	0.15093437
52	0x3eb58fe0	0.3546133
53	0x3edf4f96	0.43615407
54	0x3e5df2d2	0.2167466
55	0xbe6ce4e5	-0.23134191
56	0xbec0d3b5	-0.3766152
57	0x3ec04335	0.37551275
58	0xbe78407f	-0.24243353
59	0x3eadf7e6	0.33978194
60	0xbe890a78	-0.267658
61	0x3dfe09be	0.12404202
62	0xbe746b7c	-0.23869127
63	0x3e48d88f	0.1961386

critic.2.weight f4 [32, 64]
0	0xbe8b2dc9	-0.2718337
1	0xbeffe6e9	-0.49980858
2	0xbc5be394	-0.013420958
3	0xbe42857f	-0.18996237
4	0x3e0b9aac	0.13633221
5	0xbdbc022d	-0.091801025
6	0x3e41d54f	0.18929027
7	0x3d76cfa8	0.06025663
8	0xbe788c91	-0.24272372
9	0x3db6939b	0.08914872
10	0x3e3e7e0e	0.18602774
11	0x3d9c5d22	0.07634951
12	0x3f24ddb7	0.6440081
13	0x3f07ed89	0.53096825
14	0x3e6bce03	0.23027806
15	0x3e4ad6bc	0.19808477
16	0xbd0f7e55	-0.03503259
17	0xbecab325	-0.395898
18	0xbe1379f7	-0.14401995
19	0x3ba3f545	0.0050036036
20	0x3e52047b	0.20509522
21	0x3d702fdd	0.058639396
22	0xbe46057c	-0.1933803
23	0xbe8080d5	-0.2509829
24	0xbecb42ee	-0.396995
25	0x3eee8240	0.46583748
26	0xbdbdd018	-0.09268206
27	0xbe12b4b9	-0.14326753
28	0xbe46cd1a	-0.19414178
29	0x3df2cace	0.11855088
30	0x3ea4639f	0.32107255
31	0xbe262a73	-0.1622713
32	0xbe5f0c16	-0.21781954
33	0xbdff1836	-0.1245579
34	0xbe8f00e6	-0.27930373
35	0xbf1acc8f	-0.6046838
36	0x3ea3b19b	0.3197144
37	0xbe8bb210	-0.27284288
38	0x3e4d1253	0.20026521
39	0xbeeedec2	-0.46654326
40	0xbe82ad08	-0.25522637
41	0x3ea4d620	0.32194614
42	0xbe525717	-0.20541035
43	0x3dd0b65f	0.101910345
44	0x3e336794	0.1751998
45	0xbb2ee9d8	-0.0026689675
46	0x3e8267dd	0.25469866
47	0xbea1591e	-0.31513304
48	0xbdcf03c2	-0.101081386
49	0xbec6e91b	-0.3884972
50	0xbe87a7b3	-0.26495132
51	0x3e7cfe3f	0.24706362
52	0x3e91ef05	0.2850267
53	0x3e1a8bfa	0.1509246
54	0xbdb17baf	-0.08666169
55	0xbe25298c	-0.1612913
56	0x3e2da459	0.16957225
57	0x3eafe6b2	0.34355694
58	0xbea862fb	-0.32888016
59	0x3dc887cd	0.09791527
60	0xbe847a2d	-0.25874463
61	0x3e8edbae	0.27901977
62	0xbea3f6cb	-0.32024226
63	0xbd414e43	-0.047193777
64	0xbd2b277d	-0.041785706
65	0x3eb0512b	0.34436926
66	0x3f29e002	0.66357434
67	0xbd9563f5	-0.07294456
68	0x3e1126c1	0.1417494
69	0x3e8f1660	0.27946758
70	0x3e63c304	0.22242361
71	0x3f014196	0.504907
72	0x3eae2c95	0.34018388
73	0xbe9908a3	-0.29889402
74	0x3eff9e68	0.49925542
75	0xbebb0639	-0.36528185
76	0x3c6d82b2	0.014496492
77	0x3d20d9e9	0.039270315
78	0xbed93fa3	-0.42431363
79	0xbefaeb67	-0.49007723
80	0xbda6e907	-0.08149915
81	0xbe5ad744	-0.2137118
82	0x3db91f0a	0.09039123
83	0xbe1dd515	-0.15413316
84	0x3df7f29e	0.121068224
85	0x3e2a7887	0.1664754
86	0x3dc0f616	0.09421937
87	0x3defd75a	0.11710997
88	0xbd534810	-0.051582396
89	0x3e9991f4	0.29994166
90	0xbecda2a7	-0.40163156
91	0xbe6d23ad	-0.2315814
92	0x3ca0f55a	0.019648243
93	0xbe941303	-0.28920755
94	0xbeec5f3e	-0.46166414
95	0xbeb84601	-0.3599091
96	0xbe312ce8	-0.17302287
97	0x3d940bf2	0.07228841
98	0xbd9fe5c3	-0.078074954
99	0x3e22b8a1	0.15890743
100	0xbd3c5b16	-0.045985304
101	0xbcc0fc92	-0.023557935
102	0xbe56ffac	-0.20995969
103	0x3d571b5d	0.05251633
104	0x3edd9126	0.43274802
105	0xbda3ec19	-0.080040164
106	0x3e1a4645	0.15065868
107	0x3e7c69e0	0.24649763
108	0xbdc955ad	-0.098307945
109	0xbde94120	-0.11389375
110	0xbe7adff1	-0.2449949
111	0x3e7aefe9	0.24505581
112	0xbe3900a1	-0.18066646
113	0x3d88d5fb	0.066814385
114	0x3f0c9d2f	0.54927343
115	0xbd11e138	-0.035615176
116	0xbf092071	-0.53565127
117	0xbec0f8c2	-0.37689787
118	0xbd851a7b	-0.064991914
119	0x3d2381fa	0.039918877
120	0x3eda66f4	0.42656672
121	0xbeae1b41	-0.34005168
122	0x3e1ec891	0.15506198
123	0x3d9b42b6	0.075810835
124	0xbc1c6db5	-0.009547641
125	0xbe6519a0	-0.22373056
126	0x3e512d78	0.20427501
127	0xbe4d01e5	-0.20020254
128	0xbeaa4d66	-0.33262175
129	0xbe51c1cf	-0.20484088
130	0xbe607099	-0.21917953
131	0xbf0c2995	-0.5475095
132	0xbdfa73c0	-0.12229109
133	0xbe8226e5	-0.254203
134	0xbcee79ea	-0.029110868
135	0x3ea156c6	0.31511515
136	0xbc9775e3	-0.01848883
137	0x3e9f4e6f	0.31114528
138	0xbd9b8f33	-0.075956725
139	0xbef00b1b	-0.46883473
140	0x3df52982	0.119708076
141	0x3e893f52	0.26806122
142	0xbdb11cbf	-0.08648061
143	0x3af07cb2	0.0018347709
144	0xbd8f9604	-0.07011035
145	0xbe435e82	-0.1907902
146	0xbd91ddb0	-0.07122362
147	0xbe43c675	-0.19118674
148	0x3e4ea415	0.2017978
149	0xbdbea277	-0.093083315
150	0xbe56f06e	-0.20990154
151	0xbea2f6d4	-0.3182894
152	0xbe399925	-0.18124826
153	0x3ee0c0f0	0.438972
154	0x3d7d7781	0.061881546
155	0x3e8421e0	0.25807095
156	0xbdf05d05	-0.11736492
157	0x3d06620c	0.03280835
158	0xbe055c89	-0.1302358
159	0x3e4025a3	0.18764357
160	0xbe1a2eee	-0.15056965
161	0xbe622e01	-0.22087862
162	0xbe7e7991	-0.24851061
163	0xbe1f6d5b	-0.1556906
164	0x3d3de5e9	0.046361838
165	0xbe87d41a	-0.26529008
166	0x3e492a59	0.1964506
167	0xbe8b8f24	-0.27257645
168	0xbe1f8dd1	-0.15581442
169	0x3e897766	0.26848906
170	0xbda36a31	-0.07979239
171	0xbe99f15e	-0.3006696
172	0xbebdcca7	-0.370702
173	0xbdaca0a8	-0.0842908
174	0x3d88725c	0.06662437
175	0xbf06134d	-0.523732
176	0xbecef261	-0.40419295
177	0xbe3d15ba	-0.1846532
178	0xbde438a7	-0.11143618
179	0x3e535e3c	0.20641416
180	0x3eede1c5	0.4646131
181	0x3eba8863	0.3643218
182	0x3d121447	0.03566387
183	0xbe3d93c3	-0.18513398
184	0xbdb97fb2	-0.09057559
185	0x3d803304	0.062597305
186	0xbe4261c1	-0.18982603
187	0x3ece57e5	0.40301433
188	0xbd81fcac	-0.063470215
189	0xbe4cc679	-0.19997586
190	0xbf174f9e	-0.5910586
191	0x3e4f84ee	0.20265552
192	0xbe8185be	-0.2529735
193	0xbeaa0e1a	-0.33213884
194	0xbe38d6fc	-0.1805076
195	0x3ecab0e6	0.39588088
196	0xbe9fba54	-0.31196845
197	0x3d93783d	0.07200668
198	0x3e334f1d	0.17510648
199	0x3e3e0d49	0.18559755
200	0x3e0ef5eb	0.13960998
201	0x3e495059	0.19659556
202	0xbdfb5007	-0.122711234
203	0xbf15ac68	-0.58466196
204	0xbe92f450	-0.2870202
205	0x3e1a1bcb	0.15049665
206	0x3ed56d73	0.41685066
207	0x3d85e59c	0.06537935
208	0xbe0416e3	-0.12899356
209	0xbeb42317	-0.3518302
210	0xbedda9c9	-0.43293598
211	0xbdcb8180	-0.099368095
212	0x3dc7d961	0.097582586
213	0x3ecfc7c1	0.40582088
214	0xbe8237da	-0.25433236
215	0xbeba96a0	-0.36443043
216	0xbf2167b8	-0.6304889
217	0x3e3ae9e1	0.1825328
218	0xbea6ebc5	-0.32601753
219	0xbe9ffc44	-0.3124715
220	0xbe7d6e03	-0.24748997
221	0xbe189e5b	-0.14904158
222	0x3e790305	0.24317558
223	0x3dacf8d2	0.08445896
224	0x3d2fa79f	0.042884465
225	0xbf0c06b6	-0.5469774
226	0xbf14ea46	-0.5816997
227	0xbe8cef7b	-0.2752646
228	0x3e9db08d	0.3079876
229	0x3da659a3	0.081225656
230	0x3dda8a4a	0.10670908
231	0xbeb61b62	-0.35567766
232	0xbdd905e2	-0.10596825
233	0xbe0c1f43	-0.136838
234	0xbc3eec8f	-0.01165308
235	0xbed2a3e3	-0.4114066
236	0x3e0c3d1a	0.13695183
237	0x3e96dc4f	0.29464957
238	0x3e4ed284	0.20197493
239	0xbe9bc5fe	-0.30424494
240	0x3d4cf3d0	0.050037205
241	0x3d34354b	0.043996137
242	0xbe5fb82b	-0.21847598
243	0xbd97035d	-0.07373688
244	0x3d891ba0	0.06694722
245	0x3e98ede0	0.29868984
246	0xbc87feb9	-0.016600953
247	0x3dc6c066	0.09704666
248	0x3eafbaba	0.3432215
249	0x3e841fa0	0.25805378
250	0xbec00ec2	-0.3751126
251	0x3d2726ea	0.040808596
252	0x3d05f240	0.03270173
253	0xbd04cf31	-0.032424156
254	0xbf0c56eb	-0.54820126
255	0xbcb7d985	-0.022442589

critic.2.bias f4 [32]
0	0x3e50cff2	0.20391825
1	0xbe269898	-0.16269147
2	0x3e41b938	0.18918312
3	0x3e2cf48d	0.16890164
4	0xbe78a751	-0.24282576
5	0xbddc6d6b	-0.10763057
6	0x3e10359e	0.14082953
7	0x3dfee439	0.12445874
8	0xbe6d1360	-0.23151922
9	0x3e5caf5b	0.21551268
10	0x3e619a3f	0.22031496
11	0xbe5b7a91	-0.21433474
12	0x3e601e8d	0.21886654
13	0x3b3e4ba1	0.0029036778
14	0xbe23c23b	-0.15992062
15	0x3eb0d464	0.3453704
16	0x3e0c3c93	0.13694982
17	0x3dda5bcc	0.1066204
18	0x3e430c1b	0.19047587
19	0xbe01e8e6	-0.126865
20	0xbdd398f9	-0.103319116
21	0x3e2e53e7	0.17024194
22	0xbe38cfdd	-0.18048044
23	0xbeb37c57	-0.350558
24	0xbe3acb4b	-0.18241613
25	0x3e9e397d	0.30903235
26	0xbe571a1d	-0.21006055
27	0x3e3e51ad	0.18585844
28	0x3d5b6501	0.05356312
29	0xbe61f7b7	-0.22067152
30	0x3e878c2c	0.2647413
31	0xbe5fb08a	-0.21844688

critic.4.weight f4 [1, 32]
0	0x3e3c1b7b	0.18369858
1	0xbe1c8a05	-0.15287025
2	0x3de621f4	0.11236945
3	0x3e064a1d	0.1311421
4	0xbd6f9d1d	-0.058499444
5	0xbe965d4a	-0.2936805
6	0x3e2fad84	0.17156035
7	0x3e16304c	0.14666861
8	0xbe208fb9	-0.15679826
9	0x3e2370d6	0.15961012
10	0x3e4a3e38	0.19750297
11	0xbe10477c	-0.14089769
12	0x3d5ef952	0.05443699
13	0x3e6cb14e	0.23114511
14	0xbd38cbf8	-0.045116395
15	0x3e178dd5	0.14800198
16	0x3dd106c4	0.102063686
17	0x3da1ce75	0.07900707
18	0x3d50b55f	0.05095422
19	0x3e3f7c93	0.18699865
20	0xbe05075b	-0.12991087
21	0x3d677e0b	0.05651669
22	0xbe489fa9	-0.19592156
23	0xbe5a796a	-0.21335378
24	0xbdfbfd75	-0.123042025
25	0x3e3b444d	0.18287773
26	0xbe267ae6	-0.1625782
27	0x3de9c064	0.11413649
28	0x3d12d0f8	0.03584382
29	0xbdc2f254	-0.09518877
30	0x3e6b9642	0.23006538
31	0xbdccc09c	-0.09997675

actor_mean.0.weight f4 [64, 5]
0	0x3b947092	0.004530021
1	0x3bdd28e0	0.0067492574
2	0xbe91976f	-0.28435847
3	0x3d3137a1	0.043265942
4	0x3e67e5ec	0.22646302
5	0xbe919a7e	-0.2843818
6	0xbe2a58c0	-0.16635418
7	0xbd877fb7	-0.066161565
8	0xbe4d6679	-0.20058621
9	0xbea1d35c	-0.31606567
10	0x3d8c2e24	0.06844738
11	0xbe08d68c	-0.13363093
12	0x3ca2c55a	0.019869495
13	0xbe01c91b	-0.12674372
14	0xbe0ddbf4	-0.13853437
15	0x3de40fab	0.11135801
16	0x3e854dc7	0.26035902
17	0x3dcdc215	0.10046784
18	0xbe53d2e1	-0.20685913
19	0xbe1f3fab	-0.15551631
20	0x3d4898e6	0.04897394
21	0xbd87921e	-0.066196665
22	0xbe36822a	-0.17823091
23	0x3e0ef342	0.13959983
24	0xbed4375f	-0.41448495
25	0xbc7c302a	-0.015392343
26	0x3e575333	0.21027832
27	0xbd8c31d1	-0.06845439
28	0x3d684af4	0.056712106
29	0x3c835347	0.01603092
30	0x3d48a9ce	0.048990063
31	0xbe045981	-0.12924768
32	0xbd7bb828	-0.061454922
33	0xbe3a3d85	-0.1818753
34	0x3cfde99c	0.030995183
35	0xbd803d61	-0.06261707
36	0xbd40f0c1	-0.0471046
37	0xbdaccf1f	-0.08437943
38	0xbeacc6e4	-0.33745492
39	0x3e2455c1	0.16048338
40	0xbd811c27	-0.06304198
41	0x3c8d90a7	0.01728089
42	0xbbb98fa4	-0.0056628752
43	0x3d549264	0.05189742
44	0xbc0b0ca1	-0.008486898
45	0x3e67bc8a	0.22630516
46	0xbe615b41	-0.22007467
47	0x3dd8358f	0.105570905
48	0x3ddebd5e	0.10875963
49	0x3edac77a	0.42730314
50	0x3d2e2f98	0.042525858
51	0x3e72567b	0.23665802
52	0xbdcf5c66	-0.101250455
53	0x3e07cadd	0.1326098
54	0xbe508cc9	-0.20366205
55	0x3ec80b70	0.39071226
56	0x3db4d5db	0.08829852
57	0x3ed06929	0.4070523
58	0xbd3fa960	-0.046792388
59	0x3da365f0	0.079784274
60	0x3db9ee86	0.09078698
61	0xbe6631ee	-0.22479984
62	0x3e146a4c	0.14493674
63	0x3e55f055	0.2089246
64	0xbe6320eb	-0.22180526
65	0x3e577340	0.21040058
66	0xbd5d8d02	-0.054089554
67	0xbcad040a	-0.02112009
68	0x3e80debe	0.2516994
69	0x3e40ca7b	0.1882724
70	0x3e32d679	0.17464627
71	0x3c63d2a2	0.013905199
72	0xbdb0ae58	-0.086270034
73	0x3d33c8fd	0.04389285
74	0x3e424e6b	0.18975227
75	0xbc93593f	-0.017986892
76	0x3df1d411	0.118080266
77	0x3db0c7d8	0.08631867
78	0x3e41b6e2	0.1891742
79	0x3e8593b5	0.26089254
80	0x3ea73262	0.32655627
81	0x3e194fe9	0.1497189
82	0xbd3bdd97	-0.04586562
83	0xbde35646	-0.1110044
84	0xbda2c671	-0.07948006
85	0xbe5b3141	-0.21405508
86	0x3d3f3da9	0.046689663
87	0xbe206573	-0.156637
88	0xbddaf200	-0.10690689
89	0x3de30b78	0.11086172
90	0xbe4bf507	-0.1991769
91	0x3d24c2a0	0.04022467
92	0xbd477a8d	-0.048700858
93	0x3e3249a7	0.17410909
94	0xbe0d4f38	-0.13799751
95	0xbe2e4b37	-0.1702088
96	0x3cc29ff7	0.023757918
97	0xbe4970d0	-0.19671941
98	0x3d3ff374	0.046863034
99	0xbe7c5d8a	-0.24645057
100	0x3dea7ba1	0.114493616
101	0xbcad9d45	-0.021193156
102	0xbd6663db	-0.056247573
103	0x3ecc45aa	0.398969
104	0xbd5c0c8d	-0.053722907
105	0xbc726b31	-0.014796064
106	0xbc4c90eb	-0.012485723
107	0x3c3f7300	0.011685133
108	0x3e69859b	0.22804873
109	0xbe66a8d2	-0.22525337
110	0xbee23102	-0.44178015
111	0xbebd9850	-0.37030268
112	0x3e9a4269	0.30128792
113	0xbec2215e	-0.37916082
114	0xbe07d216	-0.13263735
115	0x3dbc2874	0.09187403
116	0x3da0a908	0.0784474
117	0x3d879da9	0.06621868
118	0xbeab94a3	-0.33511838
119	0x3d9a829c	0.07544443
120	0x3e963417	0.29336616
121	0x3c88324c	0.016625546
122	0x3db0f348	0.08640152
123	0xbdc0f5d5	-0.09421889
124	0x3dc404fb	0.095712624
125	0xbec29ce0	-0.3801031
126	0xbde31602	-0.11088182
127	0xbe557abb	-0.20847599
128	0xbba57e30	-0.005050443
129	0x3cdcbc91	0.026945384
130	0x3d9bffe3	0.07617166
131	0x3df813c7	0.12113147
132	0xbe0212b6	-0.1270245
133	0xbe60e505	-0.21962364
134	0xbd0f3e68	-0.034971625
135	0x3ed1f507	0.41007254
136	0x3e6a0798	0.2285446
137	0x3de41fac	0.111388534
138	0x3e359cd5	0.17735608
139	0x3c58c0e1	0.01322958
140	0xbdd0ca93	-0.10194888
141	0xbeb55737	-0.35418102
142	0xbda77531	-0.08176649
143	0xbc135cd8	-0.008994304
144	0x3e9a6356	0.30153912
145	0xbeb79cd9	-0.35861853
146	0xbdd87d97	-0.10570829
147	0xbe8cbf36	-0.27489632
148	0x3ea410fc	0.32044208
149	0xbdc50e00	-0.09621811
150	0xbe0fbb44	-0.1403628
151	0xbe877b2a	-0.26461154
152	0xbe149cac	-0.1451289
153	0x3d50f355	0.05101331
154	0x3e932488	0.2873881
155	0xbe3d00e8	-0.18457377
156	0xbd3f427c	-0.046694264
157	0x3d130270	0.035890996
158	0xbe3db787	-0.18527041
159	0xbea4ecf2	-0.32212025
160	0xbe39a44f	-0.18129085
161	0x3e866d50	0.26255274
162	0x3e53c9c0	0.2068243
163	0x3d831642	0.0640073
164	0x3eb8d069	0.36096504
165	0xbe2fd9af	-0.17172883
166	0x3e6ae22f	0.22937845
167	0x3d31b92f	0.043389495
168	0x3e48533e	0.19563004
169	0xbd442852	-0.047890015
170	0xbcaa225c	-0.020768337
171	0xbee7b34c	-0.4525398
172	0xbcb13d41	-0.021635653
173	0x3ed2f191	0.41199926
174	0x3d842518	0.064523876
175	0x3d69c4bf	0.057072397
176	0xbea21197	-0.31654045
177	0x3e6faae1	0.23405029
178	0xbcbf78ae	-0.023372974
179	0x3c667f85	0.014068489
180	0x3d6f1416	0.058368765
181	0xbeec4290	-0.46144533
182	0x3e45115c	0.19244903
183	0xbdadc896	-0.08485524
184	0x3d7f9c85	0.062405128
185	0xbe83990c	-0.25702703
186	0x3dad6753	0.08466973
187	0x3e8bc930	0.2730193
188	0xbe7dd637	-0.24788748
189	0xbe486494	-0.19569618
190	0xbde2a048	-0.110657275
191	0x3e7158be	0.23569009
192	0x3ed51ed3	0.4162508
193	0xba60e7c8	-0.000857946
194	0x3d915eb7	0.070981435
195	0xbce4c602	-0.027926449
196	0xbe110782	-0.1416302
197	0xbd8cb62d	-0.06870685
198	0xbdbee996	-0.09321897
199	0x3f259983	0.64687365
200	0xbd63dea0	-0.055632234
201	0x3df17e97	0.11791723
202	0x3e3b3c05	0.18284614
203	0x3e2417d6	0.16024718
204	0xbde509c6	-0.11183505
205	0xbe867e6e	-0.26268333
206	0xbde92166	-0.11383323
207	0x3e84ed61	0.25962356
208	0x3e78393c	0.24240583
209	0xbb0ef9c9	-0.0021816364
210	0x3dad8585	0.084727325
211	0x3d178d8e	0.03700023
212	0x3e2d1d62	0.1690574
213	0xbc923b93	-0.017850673
214	0x3e712bb6	0.2355183
215	0x3db1bb8c	0.0867835
216	0xba04df43	-0.0005068669
217	0x3d822845	0.06355337
218	0xbd84467a	-0.06458755
219	0x3e4a15c0	0.1973486
220	0x3e51afab	0.20477168
221	0xbea4968f	-0.32146117
222	0x3dd047da	0.101699546
223	0x3e9b4d53	0.3033243
224	0x3d02296d	0.031777788
225	0xbe3c4c6e	-0.1838853
226	0xbdcab21d	-0.09897254
227	0x3e15bdb3	0.14623146
228	0x3cf49906	0.029858124
229	0xbdbeacf2	-0.093103305
230	0xbd6633c4	-0.05620171
231	0x3ddfe7ff	0.109329216
232	0xbe8a0ee1	-0.26964477
233	0xbe9c4b70	-0.30526304
234	0xbe3e6386	-0.18592653
235	0x3c89aa05	0.016804704
236	0xbe7874b7	-0.24263273
237	0x3ec2dfca	0.38061363
238	0x3e08cabc	0.13358587
239	0xbdc4e78a	-0.09614475
240	0xbd5aa079	-0.053375695
241	0xbebea975	-0.3723866
242	0xbb8ab85f	-0.0042334045
243	0x3d14ee74	0.03636022
244	0xbd176d17	-0.03696927
245	0xbe40ab94	-0.18815452
246	0x3eb446e8	0.35210347
247	0x3e5b2c28	0.21403563
248	0x3e7437cf	0.23849414
249	0x3e9a2f58	0.30114245
250	0x3e2bcf84	0.1677838
251	0x3e2a8c73	0.1665514
252	0xbd94c2c4	-0.07263711
253	0xbe89a84b	-0.2688621
254	0xbeeb54dc	-0.4596318
255	0xbda47a08	-0.08031088

actor_mean.0.bias f4 [64]
0	0x3bddd45d	0.0067697004
1	0xbb6aa683	-0.0035804815
2	0x3b6d477a	0.0036205933
3	0xbb9829ae	-0.0046436405
4	0xbd81b7fd	-0.06333921
5	0xbb88dcfe	-0.004176735
6	0x3dea92f8	0.11453813
7	0x3c167398	0.009182833
8	0xbdb0d61c	-0.08634588
9	0x3d09cc1b	0.033641916
10	0xbcb8a959	-0.022541689
11	0x3d47d36c	0.048785612
12	0xbe1a13c3	-0.15046601
13	0xbc17a8c3	-0.0092565445
14	0x3c445c17	0.011984847
15	0x3ba41e83	0.00500852
16	0x3dda4a6e	0.106587276
17	0xbd9b70a7	-0.07589846
18	0xbd00aa8e	-0.031412654
19	0xbd4e6a21	-0.05039418
20	0xbc9e579b	-0.019328883
21	0xbd427ec4	-0.047484174
22	0xbcb3d076	-0.021949988
23	0x3c983418	0.018579528
24	0x3cc73b4c	0.024320267
25	0xbcf2887a	-0.029606093
26	0x3a11dc5f	0.0005564149
27	0x3d2152f8	0.039385766
28	0x3c6e66fa	0.014550919
29	0xbde36822	-0.11103846
30	0x3db060b3	0.08612194
31	0x3b92aff1	0.0044765403
32	0x3af42e95	0.0018629605
33	0xbc95e1cb	-0.018296143
34	0x3b108a42	0.0022055064
35	0x3d11cb02	0.035593994
36	0x3d7535b3	0.059865665
37	0x3d3d37e4	0.04619588
38	0xbc2c9a4c	-0.010534834
39	0x3c95a9f0	0.01826951
40	0xbd1004f1	-0.035160962
41	0xbdea98ad	-0.11454902
42	0x3cb8437a	0.022493113
43	0x3c65ed80	0.014033675
44	0xbbcc741c	-0.0062394273
45	0xbc865b5f	-0.016400991
46	0xbaeca190	-0.001805352
47	0xbdd22e9e	-0.10262798
48	0xbafa227f	-0.0019083767
49	0xbd16b4cd	-0.03679352
50	0xbbd2330e	-0.0064147776
51	0x3c8cd2ec	0.01719042
52	0x3ca58d68	0.02020903
53	0xbcc85392	-0.024453912
54	0x3dccb2d2	0.09995045
55	0x3a9763bc	0.0011550109
56	0xbd4e082e	-0.05030077
57	0x3e1b8832	0.15188673
58	0x3be04e3b	0.0068452633
59	0x3c7d102d	0.015445751
60	0x3d05829a	0.032595254
61	0x3c43de1b	0.01195481
62	0xbbd5514f	-0.006509937
63	0x3d819c1c	0.063286036

actor_mean.2.weight f4 [32, 64]
0	0xbd0fe175	-0.035127122
1	0xbdc71998	-0.097216785
2	0x3e675ce3	0.22594027
3	0x3ca11dcb	0.019667527
4	0xbde412e1	-0.11136413
5	0xbdd24593	-0.102671765
6	0x3dc22287	0.09479242
7	0x3dcfedec	0.10152802
8	0xbe01662b	-0.1263663
9	0x3dcca109	0.099916525
10	0x3e46bb7b	0.19407456
11	0x3ca2ca34	0.019871809
12	0xbe0902a0	-0.13379908
13	0xbe448db6	-0.19194683
14	0x3e19f5b0	0.15035129
15	0x3df29dfd	0.1184654
16	0xbe972df6	-0.29527253
17	0xbe05d274	-0.13068563
18	0xbe0caf4f	-0.1373875
19	0xbe64b965	-0.22336347
20	0x3eb55160	0.35413647
21	0xbe973753	-0.29534397
22	0xbeb1f6bd	-0.3475856
23	0xbe0c3539	-0.13692178
24	0xbe004004	-0.1252442
25	0x3dfe8ce2	0.12429215
26	0xbdbb7ab6	-0.09154265
27	0x3e31c35b	0.17359678
28	0x3e33d11b	0.17560236
29	0xbe90fd90	-0.28318453
30	0x3b426105	0.002965988
31	0xbe4f30c1	-0.20233442
32	0xbe5afde0	-0.21385908
33	0xbd96c795	-0.07362286
34	0x3c72dc9b	0.014823104
35	0x3ce4001e	0.027832087
36	0xbe8527ac	-0.2600683
37	0xbe0f53f9	-0.13996877
38	0xbd57a6ef	-0.052649435
39	0xbe861e7d	-0.26195136
40	0x3e436817	0.19082676
41	0xbeae840f	-0.34085128
42	0x3e1fe579	0.1561488
43	0x3d2c1051	0.042007748
44	0xbe1d5f50	-0.1536839
45	0x3dc31a60	0.09526515
46	0x3e0899f6	0.13339981
47	0xbdb0e993	-0.08638301
48	0x3c96ed6d	0.01842376
49	0xbe9545fd	-0.2915496
50	0x3ca06b99	0.019582557
51	0xbce16de1	-0.027518215
52	0x3e5905d5	0.21193631
53	0x3d01c4ac	0.0316817
54	0xbf051409	-0.51983696
55	0xbe573107	-0.21014796
56	0x3e0142cf	0.12623142
57	0xbd880ac8	-0.06642681
58	0xbd94b5d0	-0.072612405
59	0xbe34b075	-0.17645438
60	0x3d7b8558	0.061406463
61	0x3e5c85e2	0.21535447
62	0x3e832e46	0.2562124
63	0xbd1dcad1	-0.0385235
64	0xbe836389	-0.25661877
65	0xbe8d576b	-0.27605757
66	0x3e167cf4	0.14696103
67	0x3e7597a6	0.2398363
68	0x3e2f929b	0.1714577
69	0x3da360e2	0.07977463
70	0xbedd570b	-0.4323047
71	0xbeb9c32d	-0.3628172
72	0xbd183d33	-0.03716774
73	0xbed37662	-0.41301256
74	0xbe3af0d9	-0.18255939
75	0x3d83c9a0	0.06434941
76	0x3d3a4463	0.045475375
77	0xbe6501eb	-0.22364013
78	0xbceaf076	-0.028679114
79	0x3e140808	0.14456189
80	0x3d424022	0.047424443
81	0x3dee61a5	0.11639718
82	0xbd2c20de	-0.042023532
83	0x3eac6703	0.33672342
84	0xbea69335	-0.32534185
85	0xbe236248	-0.1595546
86	0x3d061b6b	0.03274099
87	0xbcab8be3	-0.020940727
88	0x3daa6a6a	0.08321078
89	0xbb93ea6e	-0.00451403
90	0xbb737ca1	-0.0037153142
91	0x3d993e73	0.07482614
92	0x3cdcf1c7	0.026970757
93	0x3e4bad63	0.1989036
94	0xbeb319f4	-0.34980738
95	0x3e861c5c	0.2619351
96	0xbeb63b10	-0.35591936
97	0x3cf457cd	0.029827023
98	0xbe7ddc0c	-0.24790972
99	0x3d99856b	0.074961506
100	0xbed64698	-0.41850734
101	0x3e73e600	0.23818207
102	0xbe6a6423	-0.22889762
103	0xbea95780	-0.3307457
104	0x3e912fe5	0.28356853
105	0x3ce2bc52	0.027677689
106	0xbe4229c8	-0.18961251
107	0xbe21baf9	-0.1579398
108	0xbe00ff4b	-0.12597387
109	0x3d92ba08	0.07164389
110	0x3d1673c1	0.036731485
111	0xbdc09191	-0.094027646
112	0xbe785ba6	-0.24253711
113	0x3d6039d3	0.054742645
114	0x3dbd15c2	0.092326656
115	0xbdc96833	-0.098343275
116	0xbe215c7c	-0.15757936
117	0x3e6d81c7	0.23194037
118	0x3de0190c	0.10942277
119	0xbe52e549	-0.20595278
120	0xbc207747	-0.009794063
121	0x3dab4598	0.08362883
122	0x3e6cded3	0.23131876
123	0x3e69ad02	0.22819903
124	0x3c50cdf6	0.012744417
125	0x3ea4663f	0.32109258
126	0x3daf7ec9	0.08569104
127	0xbdcc59db	-0.09978076
128	0x3da24634	0.079235464
129	0xbe0f737d	-0.14008899
130	0xbddda90f	-0.10823261
131	0x3d745b31	0.05965728
132	0x3ef2a3d7	0.47390625
133	0xbe095494	-0.1341117
134	0xbd1ccd1f	-0.038281556
135	0xbe36c275	-0.17847617
136	0x3e677f4b	0.22607152
137	0xbe11a215	-0.14221986
138	0x3d4b26d8	0.04959759
139	0xbd138d76	-0.03602358
140	0xbc6acce5	-0.014331077
141	0xbe1db184	-0.15399748
142	0x3e58ce33	0.21172409
143	0x3e3c1761	0.18368293
144	0x3e86a26e	0.262958
145	0x3e2e4d72	0.1702173
146	0xbd909629	-0.07059891
147	0x3c033771	0.008008824
148	0x3eb87f93	0.3603483
149	0x3dbe1b07	0.09282499
150	0xbf26cd8e	-0.651574
151	0xbe709b8e	-0.2349684
152	0xbe15f923	-0.1464582
153	0xbdc3566e	-0.095379695
154	0xbe834364	-0.25637352
155	0x3e81a1e1	0.25318816
156	0x3d3bf62b	0.04588906
157	0x3e55de10	0.20885491
158	0xbe06c536	-0.13161168
159	0xbe8a4078	-0.2700231
160	0x3e6ee44d	0.23329277
161	0x3cfe1558	0.031016037
162	0xbdb1cfe9	-0.08682234
163	0xbe81eaee	-0.2537455
164	0xbe15d4bd	-0.14631934
165	0x3d838fb8	0.064238966
166	0x3cd07d5a	0.025450397
167	0xbd2b0188	-0.041749507
168	0xbd2fd878	-0.04293105
169	0x3d20c4e5	0.039250273
170	0xbd9dd2fe	-0.07706259
171	0xbd1ab9a0	-0.037774682
172	0x3e95c1c9	0.2924941
173	0xbd28ec20	-0.04124081
174	0xbe0c97b8	-0.13729751
175	0x3d90bc4d	0.070671655
176	0x3cf4dd20	0.029890597
177	0x3d87b91c	0.06627104
178	0xbe2ce966	-0.1688591
179	0x3db9b8fa	0.090684846
180	0xbc871ea7	-0.016494108
181	0x3d1a4091	0.03765923
182	0x3e18bb27	0.14915143
183	0x3ce207c4	0.027591594
184	0x3d86434f	0.06555807
185	0xbea570fd	-0.32312766
186	0xbd7e2107	-0.062043216
187	0x3dcfae0c	0.10140619
188	0xbdf23600	-0.11826706
189	0x3e41a3e9	0.18910183
190	0xbe91ba4b	-0.28462443
191	0x3de19c84	0.11016181
192	0xbdfef302	-0.12448694
193	0xbddc4fad	-0.107573844
194	0xbe25a0b7	-0.16174589
195	0xbe6baae5	-0.2301441
196	0x3dad3dfa	0.08459087
197	0xbe1fb391	-0.15595843
198	0xbd81a6b3	-0.063306235
199	0xbb938e8c	-0.004503077
200	0xbe2b655c	-0.16737884
201	0x3dca8dcf	0.09890329
202	0xbe0bd046	-0.13653669
203	0x3d91c92e	0.0711845
204	0xbd8847bf	-0.066543095
205	0x3ebc963b	0.36833367
206	0xbea0cd8d	-0.31406823
207	0xbe19a920	-0.15005922
208	0x3dfec8b7	0.12440627
209	0xbe15687c	-0.14590639
210	0xbeace6b4	-0.33769763
211	0x3edeb1c6	0.43495005
212	0x3e214971	0.15750672
213	0x3dd574d6	0.10422675
214	0x3e1d9d14	0.15391952
215	0xbd697f22	-0.05700601
216	0xbc0050e4	-0.007831786
217	0xbd8dc416	-0.06922166
218	0x3d792dd9	0.06083474
219	0xbc4f90ab	-0.012668769
220	0xbc8acdc6	-0.016943824
221	0x3d307390	0.04307896
222	0x3b257f77	0.0025252977
223	0xbcec2746	-0.02882732
224	0x3c489e44	0.012244765
225	0x3e87ab5c	0.26497924
226	0xbe47061c	-0.19435924
227	0xbebd2522	-0.36942393
228	0x3dcee141	0.101015575
229	0x3de74371	0.1129216
230	0x3dbc664c	0.09199199
231	0xbebc3399	-0.36758116
232	0xbdd5e2f6	-0.1044368
233	0xbe16a04d	-0.14709587
234	0x3d3e51fe	0.046464913
235	0x3d9b594a	0.0758539
236	0xbd008553	-0.031377148
237	0xbe081221	-0.13288166
238	0x3d85981f	0.065231554
239	0xbcb398b2	-0.021923397
240	0xbe785b18	-0.242535
241	0x3d84d362	0.064856306
242	0xbe2769c9	-0.16348948
243	0x3ca98307	0.020692362
244	0x3edf3487	0.43594763
245	0xbe234387	-0.15943728
246	0xbd1c1524	-0.0381061
247	0xbdb16f80	-0.08663845
248	0x3e414a34	0.18875962
249	0xbcc3334b	-0.02382817
250	0x3dcf9d95	0.10137478
251	0xbeabcc71	-0.33554414
252	0x3d599359	0.053119037
253	0x3ecbf213	0.39833125
254	0xbd2521b9	-0.040315364
255	0x3d258c12	0.040416785

actor_mean.2.bias f4 [32]
0	0x3ca44f8d	0.020057464
1	0xbcac4085	-0.021026859
2	0xbd08c96a	-0.03339521
3	0xbc51e354	-0.012810547
4	0xbc009a77	-0.007849327
5	0xbbc0663f	-0.0058715637
6	0xba72c78c	-0.0009261302
7	0x3c442899	0.01197257
8	0xbd12a6b8	-0.035803527
9	0xbb1aba56	-0.00236096
10	0x3ce71a6d	0.028210843
11	0xbc58af00	-0.013225317
12	0x3c931548	0.017954484
13	0xb9b4dbd9	-0.00034496075
14	0x3a49f34c	0.00077037956
15	0x3d0427c6	0.032264493
16	0xbc4f0999	-0.012636566
17	0x3b859419	0.0040764925
18	0x3b19d3c3	0.0023472167
19	0xbb82573a	-0.0039776834
20	0xbc8d80c5	-0.017273316
21	0x3be4de28	0.006984491
22	0x3ba78df4	0.0051133577
23	0xbbc86c65	-0.0061164373
24	0xbb0958a2	-0.002095737
25	0xbc3cef75	-0.0115317
26	0x3d191b22	0.03737939
27	0x3c18b17e	0.009319661
28	0x3d2f373a	0.042777278
29	0x3cada244	0.021195538
30	0x3bc797fa	0.006091115
31	0x3bc7b9d4	0.0060951505

actor_mean.4.weight f4 [1, 32]
0	0x3d51704c	0.051132485
1	0xbe124997	-0.14285885
2	0x3ee975f3	0.455978
3	0x3c850b75	0.016240815
4	0x3db049bf	0.08607816
5	0xbe3f6ef1	-0.18694665
6	0xbe6beba0	-0.23039103
7	0x3dbebfad	0.09313903
8	0xbe13a6bc	-0.14419073
9	0x3c392c83	0.011302116
10	0x3e5fbf78	0.21850383
11	0xbe169e47	-0.14708816
12	0x3ddaeaa5	0.10689286
13	0x3d95de6b	0.073178135
14	0xbdf3b009	-0.118988104
15	0x3c8b451c	0.017000727
16	0xbe8207eb	-0.25396666
17	0xbda3ea23	-0.080036424
18	0x3ddc7d07	0.107660346
19	0xbcccb89d	-0.024990374
20	0xbea99c28	-0.3312695
21	0x3e3d5921	0.18491031
22	0x3d6de7ae	0.058082275
23	0xbd92ebb6	-0.071738645
24	0x3e370361	0.17872383
25	0x3e46235d	0.19349428
26	0x3d898cb4	0.0671629
27	0x3e12b533	0.14326935
28	0x3e0d1583	0.13777737
29	0x3ec42ed8	0.3831699
30	0x3e01df99	0.12682952
31	0xbe8d6b26	-0.2762081
