Project/upload/Part1_q4/noise/InvertedPendulumBulletEnv-v0_TD3_2003_1638458537_td3_q4.pth (torch, 818223 bytes, 15 tensors)

l1.weight f4 [256, 6]
00000000: 884e c33e c12e ddbb fecd c2be 0d51 733f
00000010: 9b81 2e3e c2eb c4bc fcc0 a63e 4b2f a23d
00000020: e15a a13e d2af 17bf 4c62 1fbe 5327 10be
00000030: 9eb5 abbe 4339 9a3e adf1 dfbc 5b88 a63f
00000040: 818a c33e fec2 8dbd bbb3 b73e c5cd 993e
00000050: 8eaa 32be 03d7 27be b89a 35be f7c3 f8be
00000060: b8d1 51be 3815 a13e 53c4 493e 284e 92be
00000070: aef5 723e dee7 953c 9856 ccbe a8db d2be
00000080: a7c5 80be 36ca 613f 3bb0 cb3e 7d19 90be
00000090: 3cbb 77be 66ed 5b3e 38cc 5fbe 0105 a63f
000000a0: d4f6 953e 2ad1 06bd 884f 51be 763a c7be
000000b0: 1bbc d8be 6fba 30bf b595 eebd 9ef9 94be
000000c0: bdda 083e 0a39 22be c8af ac3c 3309 063d
000000d0: 2012 be3d 5e00 6a3e e59d 843e 7b7e 0f3e
000000e0: 2d0b ecbe 2ae0 f2be 2432 b0be b379 debe
000000f0: df74 47bf 07ae 443d 3864 22be f94e 703f
00000100: 6d3d a6be c3a4 dc3c 9ce0 a3be b6b8 f3bd
00000110: 58f4 9e3e 4366 10bf 5ef8 9b3e de78 273e
00000120: af84 22bf 4a94 423d 38d1 0ebe 92bc 8dbf
00000130: 0a1d c03e 4188 273e 66ca 1a3e 5400 6bbd
00000140: eb8a a73e 0c98 27bf 9c74 aebe e9fd 5e3d
00000150: 5fa3 9bbd 937e 55be f277 75bd 4f13 143d
00000160: 243b 0b3f 9f97 b3bd 86f4 c63e fa0e 123e
00000170: 1919 b03e 385d 863f 861d 03bf c29e 74be
00000180: 3c4a d9bd 0a21 f2be c62f 9a3d 1bf2 ecbe
00000190: 535e afbd 2935 84be c3c9 50be 02ef a8be
000001a0: c0e6 a4be cd33 9fbf 94c2 a9be 6458 6c3d
000001b0: a428 b53d f6a6 f1bd c0b8 933e 2575 1fbf
000001c0: 05c2 9a3e 0ff6 0a3d 37a1 95be dd61 903e
000001d0: 0540 88bb 59b4 a0be e0e4 123e 19ef 8c3d
000001e0: ec4c 4cbe e992 a2be bce4 d23e 5670 b2be
000001f0: ea99 fd3d d7ac 79bc c1ef 00be 22e6 0dbd
00000200: 8fa8 9a3e e8fb 3fbf 47d3 83be 3ac5 173d
00000210: d777 91be 4115 bd3d 7611 a5bd 8eec 0b3f
00000220: 606f a5be 20ce dc3d fd32 bf3e a479 1ebe
00000230: 12a6 273e 2f8b afbf fb6c 8ebe 7cfc 5c3d
00000240: 4a95 023e 02a7 a6be f812 5abe abc6 bc3e
00000250: 06f5 8fbd 5a8f db3d 5f22 b83e 862a b73d
00000260: 5d9c c33d 07bf 82bf 9e1b 37be aac4 2d3e
00000270: 482a e43d be66 8d3c bb06 b5bd 4fa5 243f
00000280: 4f65 4b3e 1646 c2bb 59fd bebd 66cf 083e
00000290: 7e90 f5bd 056c 9b3f 9e1f 9b3e 8ae1 b1bc
000002a0: 89dc e73c 9888 b4be 4ba1 3e3d 8b07 8b3f
000002b0: 03d9 56be 0e38 5b3a 75db d6be 9378 09bf
000002c0: 1bc2 a5be 8a4d 71bf d0fe a8be c4da aa3c
000002d0: 1d43 e13e 0eca 153f fd39 11be edec 8c3f
000002e0: 43ef 933e 0483 b7bb 46dc b93e 56c4 d53e
000002f0: 105f 3fbe c738 123f a447 513e b027 50bb
00000300: c78f dbbe 4176 71be 991c 923e 2acb 6b3f
00000310: 21b4 edbd fe3f 833d c54e 61bf 67dd 223d
00000320: 5fed 91be 2c91 253e 7ed1 84be f7da 163d
00000330: 5bf4 a43e b2f9 13be 86a5 17be cee7 c9bf
00000340: 7510 8dbe 37a6 5d3d 6f99 a83e 2564 8dbd
00000350: 025e 623e e604 9b3f 257d ff3d 15fc 01bd
00000360: 091b 05be f53e 5ebd c02a 913e b538 10bf
00000370: 17a7 983d 62e9 84be acf5 1b3e ca61 60be
00000380: 9083 c83e 8c16 b8be 693f 5ebe 1933 2c3e
00000390: cc78 173f 24d3 b6be ea7c 28be 31bd b4bf
000003a0: 455e edbe 11d4 913d e648 22be ad9a a5bd
000003b0: f790 633e 42c2 77bf cab4 73be f858 6dbe
000003c0: f046 3c3f ac8a b93e 0b51 c13b e7c1 97bf
000003d0: fac0 82bd 9d7d ee3d 8f84 b0be bd27 993e
000003e0: b2f2 8dbe 81b3 07bf 1eed e43d b921 45be
000003f0: f48e 5abe 7894 08be d899 4d3c 924a bbbd
0.38145852 -0.0067499583 -0.38047785 0.9504555 0.17041628 -0.0240382 0.3256911 0.07919177
0.31514648 -0.59252656 -0.15564841 -0.14077501 -0.33537 0.30121812 -0.02733692 1.3010362
0.38191608 -0.069219574 0.3587931 0.30039802 -0.17447874 -0.16390614 -0.17734802 -0.4858701
-0.20490158 0.314615 0.19703798 -0.28575253 0.23726532 0.01829904 -0.39909816 -0.4118321
-0.25150797 0.88199174 0.3978289 -0.28144446 -0.24192518 0.21477279 -0.21855247 1.2970277
0.29289877 -0.03291432 -0.20440495 -0.3891179 -0.42331013 -0.69034475 -0.11649648 -0.29096693
0.13364692 -0.15842071 0.021079913 0.032723617 0.09280801 0.22851703 0.25901714 0.14013092
-0.46102276 -0.4743665 -0.34413254 -0.43452224 -0.77912706 0.048017528 -0.15858543 0.938705
-0.3246874 0.026934033 -0.320073 -0.11900465 0.31045794 -0.5640604 0.30462927 0.16354701
-0.6348371 0.0475047 -0.13946998 -1.1073172 0.37522155 0.1636057 0.15116271 -0.05737336
0.32723173 -0.6546638 -0.3407334 0.054441366 -0.0759952 -0.20849065 -0.059928842 0.036151227
0.54387116 -0.08769154 0.38858432 0.14263526 0.34394148 1.0497198 -0.51216924 -0.23888686
-0.10609862 -0.47290832 0.07528643 -0.46278462 -0.08562913 -0.25821808 -0.20389466 -0.32994848
-0.32207298 -1.2437683 -0.33156264 0.057701483 0.08845642 -0.117994234 0.2885189 -0.62288123
0.3022615 0.033926066 -0.2922456 0.28199664 -0.0041580223 -0.31387594 0.14345121 0.06881542
-0.19951218 -0.3175271 0.41190135 -0.3485133 0.123828724 -0.015238962 -0.12591459 -0.0346433
0.30206725 -0.74993753 -0.2574713 0.037053324 -0.28411743 0.092325695 -0.08059971 0.5465783
-0.32311535 0.10781503 0.37343588 -0.1547609 0.16371945 -1.371435 -0.2781752 0.053951725
0.12752262 -0.32549292 -0.21296299 0.36870322 -0.070291564 0.107207015 0.35963723 0.089436576
0.09551308 -1.0214547 -0.17881629 0.16969553 0.11140877 0.017260905 -0.08839174 0.6431474
0.19862865 -0.005928765 -0.09325666 0.13360366 -0.1199045 1.214234 0.3029756 -0.02171399
0.028303402 -0.35260463 0.04654054 1.0861677 -0.20981221 0.000836254 -0.41964307 -0.53699607
-0.32374653 -0.9425894 -0.33006907 0.020856269 0.43996516 0.58511436 -0.14182277 1.1009804
0.2889348 -0.005600335 0.36300868 0.41751355 -0.18688607 0.57117885 0.20437485 -0.0031761937
-0.4288313 -0.23580267 0.28537443 0.9210688 -0.116066225 0.0640869 -0.8801082 0.039761927
-0.28501412 0.1616866 -0.2594108 0.036829915 0.32217678 -0.1445072 -0.14809236 -1.5773866
-0.27551618 0.054113593 0.3292956 -0.06903867 0.22106174 1.211087 0.12475041 -0.031734545
-0.12998594 -0.05425926 0.28352928 -0.5633653 0.07453745 -0.25959307 0.15230435 -0.21912304
0.39162874 -0.35954702 -0.21703877 0.16816367 0.59168696 -0.35707963 -0.16453901 -1.4120237
-0.46360984 0.071205266 -0.15848121 -0.08086143 0.22223268 -0.9678079 -0.23799434 -0.2317847
0.7354574 0.3623861 0.0058995537 -1.1856049 -0.063844636 0.116450526 -0.34476134 0.2991313
-0.27724224 -0.53008276 0.11178039 -0.19251145 -0.21343595 -0.13337886 0.012548886 -0.091450825

l1.bias f4 [256]
00000000: 72cd 783d f428 a63e a957 d3be faa0 08be
00000010: 5e6c 9cbe 7000 b1be 5e00 28be 5b2e f33a
00000020: fec2 32be ace1 b6be cb6c 543e b87f 9c3e
00000030: 5a46 223c 0194 343e 0788 a3be 23b1 d3be
00000040: 3555 8c3e f0a5 bd3d f087 c83d fe21 bcbe
00000050: f924 c73b 8197 d63d f265 a33e 3f0b 0cbf
00000060: 060c 6ebe 1e5f c63e facc cf3e 7b11 7cbe
00000070: 2b0f 213e b08d 863e 8a35 ff3d 8113 eebe
00000080: 9063 e43d c8c6 b7be 1cc6 8abe 040d cdbe
00000090: aee6 1a3e f832 163e 3486 a6be 3420 44be
000000a0: 0ac5 57be 998d a83e dc7e 983e d686 25be
000000b0: d7ba 9b3d cb99 af3d 4181 b4be 53dc debc
000000c0: 117d 43be 6d1e 993e 8fbf f2bd 239b ccbc
000000d0: 88c5 48bd 2c97 bfbe 0fcd 08bd 6bf9 f7be
000000e0: a4b2 9ebe 0b96 73be aa36 663e bc3a b5be
000000f0: ac02 073e 3343 b83e 31b8 943e 0400 8bbe
00000100: 7309 793d b133 c23e aa28 b83e abfb d0bd
00000110: ef58 0fbe 484c fabd 92bd bf3d a196 c5bd
00000120: 6b71 903e d535 62bc 5048 5bbe 2ea9 863e
00000130: e8ab 38be 5c19 79be a274 af3e 6bce 663e
00000140: a97c 293e 1d35 c33c fec2 a43e 1db7 d43d
00000150: 920c bfbe b7e9 503d f773 be3e edcb 85bc
00000160: 52cf 9b3e 1996 603e 7b54 7d3e c22f f6be
00000170: 3eb2 323e fdb0 dcbe b914 b23e f796 a13d
00000180: cfe2 c23e 66fb 1abf d96d f13b bf4b b03e
00000190: 7e9f f8be 4cee b8bc 4e90 9ebe 5c71 7a3e
000001a0: 2a4a 243d 805f 013d b2a4 863e 056a b1be
000001b0: ffad a73e de90 d4be 5b6f 53be 73ab 4dbd
000001c0: b286 cb3e 3e6d 45be 63be 003e ba0a dabe
000001d0: eeb6 86be 9e18 18bc a13e 86be c477 0ebd
000001e0: 064d acbe bf11 3fbd bff0 823d 70c1 b0be
000001f0: 1e63 9cbe 61bf 09be ddc1 093e cf63 5fbd
00000200: 8850 9ebe 62ec 9dbd 829e c1be cf76 d43b
00000210: 1941 dabd 4064 393d 2775 b2be f47e d4be
00000220: ee1a b63e 3619 a53d da27 ea3d 791a 01be
00000230: 7bb1 863e d3e7 08be 0f56 f63d da88 97be
00000240: a793 a0bd 3588 a93e 4bcd 4e3e 8e59 bf3d
00000250: 4f4a a53e a361 7d3e 1ff5 703e 2e30 043e
00000260: 53ed 0abc 240b 5c3e 6a08 233e 2822 4bbd
00000270: 2e8e 97be b247 aabe 3f3a 32be a16a 9dbe
00000280: 21e8 8bbe 1653 4a3e 5301 adbd 4811 80be
00000290: d621 9b3e da64 a53e b40b 8dbe bd6c bd3d
000002a0: dc47 e8be 8d3e 80be bc83 6f3e 9346 7cbe
000002b0: ab37 b3be 9dcc 67bd 9846 c53e fe47 55be
000002c0: 69ab 5b3e f6ad 33bd 0d34 8bbe cf85 933e
000002d0: d29f 0dbf 0689 e2bc 537c ecbd bc09 c93e
000002e0: 2aa5 623e 3ea4 083e 92d7 dbbe bd00 c7be
000002f0: 3252 a1be 1d49 04bc cebb 8bbe b1c5 d8be
00000300: c2d7 7dbe b89f a33e 014a b7be 0749 49be
00000310: c439 96bd 6e2e 793e 9fa4 883e b3df 613e
00000320: 5c00 253e a2d4 6f3e 9f73 d83e 6e40 35bd
00000330: 227c b83e ec9a 08be ac69 cc3c 5a17 753d
00000340: 9c77 f73d 8213 cfbe ddcd 943e 7af5 48bb
00000350: 409f 473d 9fa3 68be b3c5 0fbe 6967 93bb
00000360: f57f ddbe edd2 813e b017 49b8 3d03 cf3e
00000370: 7eb3 a73e 0b23 f1be 5dc6 1c3d 733a bb3e
00000380: 0e34 203e 9e4e 213e b129 b23a 9ab4 2dbe
00000390: d979 803e e87d 0ebe f9b9 80be 4d42 933e
000003a0: c68e ad3d 0ff2 babe 8ad5 44be 87af 463e
000003b0: e008 7f3e c891 4b3e dabf 60be 4965 7a3e
000003c0: 11b6 2cbd a54a 6b3e 9f3d 45be 56b2 943d
000003d0: de51 4dbd 50e9 8e3e cc41 113e af5f 65bd
000003e0: ff68 a6be 9464 e7be 00f7 063d 5f49 bc3e
000003f0: 1c3c 74be 8246 1b3d c1e3 7dbc 6c6a 9cbe
0.060742803 0.3245312 -0.41277817 -0.13342658 -0.30551428 -0.34570646 -0.1640639 0.0018553244
-0.17457196 -0.3571905 0.20744626 0.30566192 0.009904468 0.17634584 -0.31939718 -0.41346082
0.27408758 0.09260166 0.09791553 -0.36744684 0.0060774055 0.10478116 0.31913716 -0.5470466
-0.23246774 0.38744444 0.40586072 -0.24616043 0.15728442 0.26279974 0.12461384 -0.46499255
0.111518025 -0.35893846 -0.2710427 -0.40048993 0.1512706 0.1466788 -0.32524264 -0.1915291
-0.21071258 0.3292053 0.29784286 -0.16164717 0.07603996 0.085742556 -0.35254863 -0.027204668
-0.19090678 0.29906026 -0.11852943 -0.024976319 -0.049016505 -0.37420022 -0.033398684 -0.48432478
-0.30995667 -0.23787706 0.2248179 -0.35396373 0.13184613 0.3598877 0.29046777 -0.2714845
0.060800027 0.37930062 0.35968524 -0.10204252 -0.13998769 -0.12221581 0.093623295 -0.09647871
0.2821153 -0.01380678 -0.21414304 0.2630095 -0.18034327 -0.2432608 0.3426867 0.2253968
0.1655146 0.023829037 0.32180017 0.103864886 -0.37314278 0.051004138 0.3719785 -0.016332591
0.3043161 0.21932258 0.24739258 -0.4808331 0.17450806 -0.4310378 0.34781435 0.078901224
0.38063666 -0.60539854 0.007367831 0.3443279 -0.48559183 -0.022574566 -0.3096947 0.24457306
0.04010979 0.031585217 0.26297528 -0.346512 0.32749936 -0.41516775 -0.20647947 -0.050212335
0.39751202 -0.19279954 0.12572627 -0.4258631 -0.2631144 -0.009283213 -0.26219657 -0.034782186
-0.33652514 -0.046647783 0.06393575 -0.3452258 -0.3054437 -0.13451912 0.13452859 -0.054538544
-0.30920815 -0.07711102 -0.37816244 0.0064838897 -0.10656948 0.04526162 -0.34855005 -0.41503108
0.3556742 0.08061449 0.11433382 -0.12607755 0.26307282 -0.13369684 0.12028133 -0.29596597
-0.078406624 0.3311173 0.201955 0.09343253 0.32283255 0.24744277 0.23531006 0.12909004
-0.008479434 0.21488625 0.15921178 -0.04959312 -0.29600662 -0.33257824 -0.17405032 -0.30745414
-0.27325538 0.19758257 -0.08447518 -0.25013185 0.30299252 0.32303506 -0.2754799 0.09249256
-0.45367324 -0.25047722 0.23390096 -0.24636297 -0.3500341 -0.05659162 0.3853042 -0.20828244
0.21452107 -0.043867074 -0.2718815 0.28813025 -0.5532199 -0.027653228 -0.115471505 0.3926524
0.22133318 0.13343903 -0.42937905 -0.3886775 -0.31508023 -0.008074072 -0.2729172 -0.42338327
-0.24789336 0.31957793 -0.35798648 -0.19656764 -0.07335237 0.24334118 0.26688096 0.2205799
0.16113418 0.23420957 0.42275712 -0.044250898 0.36032206 -0.13340348 0.024952732 0.059836723
0.120833606 -0.4044457 0.2906331 -0.0030663894 0.048735857 -0.22718666 -0.1404026 -0.0044984114
-0.43261686 0.25356236 -4.7944195e-05 0.40432158 0.3275413 -0.47097048 0.03827511 0.3656803
0.15644857 0.15752646 0.0013592747 -0.16963425 0.25092962 -0.13915217 -0.25141886 0.2876152
0.084744975 -0.365128 -0.19222084 0.19402896 0.2490573 0.1987983 -0.21948186 0.244527
-0.04216582 0.22977693 -0.19261788 0.072605774 -0.050126903 0.27912378 0.14185256 -0.055999454
-0.3250198 -0.45193923 0.0329504 0.36774728 -0.23851055 0.03790904 -0.015496195 -0.30549943

l2.weight f4 [256, 256]
00000000: 87e7 8bbe 376e 933d fe61 d4bf a3e2 22be
00000010: 5694 ac3d 6e3c 34be a9c4 c2bf e813 8cbd
00000020: a7d1 51bc 9d54 0ebe 92ac a3bb da60 c93d
00000030: eee4 733d 2e36 893d 3e92 813d 2e0c 113d
00000040: f6b8 d03d b87a 2cbf 04f4 033e 5485 e7bb
00000050: 0e57 fd3c 7f7f b33d d681 0f3d f9cb 29c0
00000060: beb7 7ebd 6495 033d dee3 d03c ea80 72bf
00000070: fab8 4b3d ea3e abbe cbd8 03be 9d66 89bf
00000080: cac9 b23c 7d5b 39be 3bfb 20c0 58a4 c7be
00000090: 60ac 893d 4997 d53d bee9 09c0 9499 9ebd
000000a0: eb1d 32be c936 023d a9e2 b33a 46c9 5b3d
000000b0: 4a64 863d 2dba 81bd 3638 5a3c f7b6 2dbe
000000c0: f0be 40bf daac 193e 4030 51bc 64d9 d4bd
000000d0: da62 813d 01b1 c03e 1868 05be e05e 88bc
000000e0: 3bd3 a8be 8368 34bd d26a c3bc 5264 08bf
000000f0: 27cc 413d 8075 d3bc 5cf8 bf3d a781 5d3e
00000100: 043d debb 9957 233d 39e0 f8bc 34d2 053e
00000110: 3bcb bf3c 7a2e c1bf 5e4e aa3d cb05 03bf
00000120: 3021 db3d b51b c53c f91d 073e 11a3 1d3b
00000130: 409d 92bd 85ac d13a 23b6 093e 7111 893d
00000140: 0350 bebc 3afb 73bd c3b9 c73c e46f ad3d
00000150: 1c70 1ebc f21c 8b3d ad44 b43d 8d5e fd3d
00000160: e744 9f3d f204 5d3d d3c9 a63c a5d6 1abf
00000170: 5084 11bc 6ded 0ebf 0969 ca3d 7a46 f63c
00000180: d66d 013e 2194 40be 3e68 1dbe 633e 59bd
00000190: b62f e3be 57d5 953d a0b7 66bd f19e 553c
000001a0: 76ce 0cbe 298b bf3d a35c aa3c cb50 a3be
000001b0: 6e99 0f3e de63 0ec0 995d 22bf 5323 c03d
000001c0: a3e2 90be 0344 57be 7c38 043e 91d4 4fbf
000001d0: e458 1dbe d4fc 2f3d 110f e2bd 2316 0bbf
000001e0: ef02 efbe 1ff2 9b3d 40cb fdbd 90bb 573d
000001f0: 73ea 32c0 12e1 bf3d 424b b73d a5b3 7f3a
00000200: 58fa cebc a142 8c3b 2c5e f33c 4489 a13b
00000210: af46 98be 00a9 53be 1c04 80bc c30b cfbf
00000220: d70b c4be 3995 84bd e590 fc3d e656 5a3d
00000230: df20 b33d 0079 16bb a649 913d 9744 8ebe
00000240: b783 a43d f172 653d c646 003e 6dce 85bd
00000250: 5bc0 6d3c 7b05 d13d d5e8 073d 211e 383c
00000260: 67be 56be 255f 4b3d bf24 c63c cf92 2a3d
00000270: 7f7e 81be 8934 3cbe dc15 a5bf 5071 9fbe
00000280: 2573 aebe df2d 5f3e c3f1 dfbc 67a2 673d
00000290: 03c7 813d a8b5 adbc 075d b23c d8df 0fbf
000002a0: 9acc 81be d3d3 b2be d03f a7be e002 47be
000002b0: 7ac7 16be 2ce6 a63d 03b5 f83b f229 443c
000002c0: 4872 9b3b 3acb 7e3d a9e5 01c0 b01e 613c
000002d0: 0732 02bd 446d 793d a211 9ebd 5279 df3a
000002e0: fece e43d 0dd0 073d fa55 56c0 b198 3cbd
000002f0: 2bc3 83bf 85c0 cabd 1b6d 5ebf bc4e cabb
00000300: 3b95 8b3e 844e 883d 8dae 2f3d 0821 6ebe
00000310: f6a2 29c0 6d70 133d b96c 9f3d c38b 5a3d
00000320: 037b d23d 3704 ac3c 5b09 513d 824a 693d
00000330: 262a 573d 1987 e93d e479 22bf 1ed7 61c0
00000340: 7c6d 133d 9ed9 32bd 5fe3 053d a2cb babc
00000350: 59d4 bdbb 4afa 3c3e 04e1 febe ae70 0c3e
00000360: ebe9 09bc 9ef7 793d be41 51bd 8021 b0be
00000370: dc29 37bd c76d 83bf 021c a1bc e546 fa3d
00000380: fd89 0c3e 27f1 363e 1753 adbf 8953 62bd
00000390: b3e1 583d 204e fd3d 85aa 25c0 71b2 5e3d
000003a0: 67bf e73d 1416 40be 3b02 92be a8f7 8cbe
000003b0: f66c b03d 0cf4 1fbe b8b4 743d a209 763d
000003c0: 51da fa3d f83e 5b3d 2a95 51be 73b4 2dc0
000003d0: 8c4e 96bc 074a 0c3d b242 ed3c a09a a1bd
000003e0: 9532 45be 379f 083c 6d8a 80bd eedc 833d
000003f0: 9718 0ebd a5d3 78c0 f596 7f3d a9e7 c5bd
-0.2732508 0.07198756 -1.6592405 -0.15906768 0.0842673 -0.17601177 -1.5216266 -0.06839734
-0.012806333 -0.13899465 -0.004994937 0.09832926 0.059544496 0.06699787 0.063267216 0.035412006
0.101915285 -0.67374754 0.12886053 -0.0070654545 0.0309253 0.08764552 0.03503593 -2.6530745
-0.06218695 0.032124892 0.02549928 -0.9472796 0.049736954 -0.33446437 -0.12875669 -1.073444
0.021824736 -0.18101306 -2.515334 -0.38992572 0.06722331 0.10429246 -2.1548915 -0.077441365
-0.17394225 0.03179053 0.0013724166 0.053658746 0.06562097 -0.06334338 0.013319066 -0.16964327
-0.7529135 0.15007344 -0.012767851 -0.103930265 0.063176826 0.37635043 -0.1302799 -0.016646802
-0.32973656 -0.044044983 -0.023854647 -0.53278077 0.047313835 -0.025812864 0.09373543 0.2163149
-0.006782176 0.03987846 -0.030380355 0.13068467 0.023412338 -1.5092309 0.083157286 -0.51180714
0.106996894 0.024061063 0.13195027 0.0024053494 -0.07158899 0.0015996849 0.13448386 0.0669278
-0.023231512 -0.05956576 0.02438057 0.08468607 -0.009670284 0.0679263 0.08802161 0.1237155
0.07776814 0.053959794 0.02035991 -0.6048377 -0.008881643 -0.55831033 0.09883315 0.030062903
0.12639555 -0.18806507 -0.15371796 -0.053038012 -0.44372338 0.07316082 -0.056327462 0.013038383
-0.13750634 0.093527146 0.020796126 -0.31897578 0.14023373 -2.2248454 -0.6342407 0.093817376
-0.2829791 -0.21022038 0.12912172 -0.81183726 -0.1536594 0.042965725 -0.1103803 -0.5433065
-0.46681926 0.0761454 -0.123922825 0.052669108 -2.7955596 0.09369101 0.08949901 0.0009754247
-0.025265858 0.0042804037 0.02970799 0.0049296934 -0.29741427 -0.20669937 -0.01562696 -1.6175464
-0.38290283 -0.064737745 0.12332324 0.05330553 0.08746504 -0.0022960305 0.070941254 -0.27786705
0.08032935 0.05601782 0.12526998 -0.06533513 0.014511193 0.102061234 0.03318103 0.011237652
-0.2097107 0.049651284 0.024187444 0.041643914 -0.2529182 -0.18379416 -1.2897296 -0.31141138
-0.34072223 0.21794842 -0.02733696 0.056551363 0.063367866 -0.021204785 0.021772875 -0.56200933
-0.2535141 -0.34927234 -0.32665873 -0.1943469 -0.14724532 0.081493706 0.0075899377 0.011972891
0.004743848 0.06220553 -2.0296423 0.013740227 -0.03178599 0.06089522 -0.07718207 0.0017049706
0.11172293 0.033157397 -3.3489976 -0.046044055 -1.0293936 -0.099000014 -0.8688523 -0.0061739367
0.2726229 0.06655601 0.042891074 -0.23254788 -2.6505713 0.03599589 0.07784409 0.053355943
0.10277369 0.020998104 0.051034313 0.05695582 0.05253043 0.11402721 -0.6346724 -3.5287547
0.035993084 -0.043664567 0.03268754 -0.022802178 -0.005793136 0.18454853 -0.49781048 0.13714859
-0.008417587 0.06102716 -0.051088087 -0.34400558 -0.044717655 -1.0267876 -0.019666675 0.12220553
0.13724513 0.1786543 -1.3540982 -0.055255447 0.05294962 0.12368417 -2.5885327 0.054369394
0.11315804 -0.18758422 -0.28517327 -0.27532697 0.08614533 -0.1562044 0.05974266 0.06006778
0.12248672 0.05352685 -0.20467058 -2.7141387 -0.018348001 0.034250285 0.028962467 -0.078908205
-0.19257577 0.008338741 -0.062764026 0.06438623 -0.03469142 -3.8879178 0.062399823 -0.09663326

l2.bias f4 [256]
00000000: 574e 5e3d 47da 0f3e 3b18 c33d 78a4 b5bc
00000010: 2330 5e3b 5560 cdbc 668b 70bc a904 88bd
00000020: 0dfd fd3c 7b0b 883c 2c0e b3bb 840a 723c
00000030: ceb7 7dbd de0b 74bc d147 663d 91e7 13bd
00000040: ef87 81bd e7d9 f33d d29c 723c 3f32 ea3d
00000050: ed0c 3cbc 1359 cbbc 50f1 b239 0e0c 1bbd
00000060: 4d14 0b3d 42dd 663d 0d77 063b 55c1 a93d
00000070: 7c47 76bd f085 9c3a 9d49 b5bc 59d3 babc
00000080: 7177 e6bb 16cd 243d ff6a 9cbd 8584 4e3d
00000090: 7d19 e53d caac 553d 202a f5bc 0beb 033e
000000a0: 38db 8cbc e4d3 dabd 529f aebd e094 8b3d
000000b0: 5c32 e13c 7c45 e63d ab9a 6cbc 43d0 6e3d
000000c0: 540d 84bd 88bc 2e3d f61c 913b 5776 273d
000000d0: 7f92 ecbc 8ae1 57bd dc2b 6b3d 9a60 f3bc
000000e0: c34b 383d dbf1 c63d 0d69 cd3d 6334 e13c
000000f0: c8c3 c9bc 3711 6b3d a1ca b03b 0c20 2abc
00000100: 3167 46bd dc7d 7ebc c468 853d 724e d4bc
00000110: a21c f43d 1b1e 183c 6edb 80bd e66f 343d
00000120: f9f2 ce3d f2e2 4b3d d053 633d 699d 87bd
00000130: 5db0 c6bc 156d c7bb 33a8 f9bc 8175 80bd
00000140: a57c 473d 407b 9f3d bfba ca3d 2134 913d
00000150: dc3c ca3d 599f 543d 09f8 833c e9f3 f63c
00000160: 1167 b03c 30a7 cc3b 6493 f73b f549 463c
00000170: d35e 58bd 192a 7e3d 41d2 233c 41ab 183e
00000180: 309f 043d 5175 073d 7e37 863d 1726 4dbd
00000190: 0e85 b73d 414e ca3c 3db6 fd3c 9a80 e23c
000001a0: ef5e 3fbc 781d 1dbd a895 b53c e126 0d3e
000001b0: 94f4 2e3d c7fc a3bc 1795 2f3d 3983 57bd
000001c0: 867b 7fbd 8bf5 b43d dc2d 023e ee67 d03d
000001d0: 8a6f 833d 4e35 243c 3348 af3d f990 933d
000001e0: f573 db3d 8197 a2bd 892c 903d 16e1 c83c
000001f0: 6ee7 2bbd c637 9a3c 0eb7 13bd e133 d2bc
00000200: 99dc ab3d 5dd0 3e3c 480a f2bc 022f 54bd
00000210: 0bfa 343d 995f 1f3d ef51 873b 92f7 d03d
00000220: 0376 033e 64d8 c43d def2 c33d 623c f03c
00000230: 313f fc3c 76c9 043e 3cf4 213c 233b 053e
00000240: 9022 e73b 8d16 1e3e ed3b 593d 5d21 803c
00000250: 4e91 d13c b0a5 20bd 65de 053e c080 16bc
00000260: 560b 4ebd 6058 3c3d 5ad2 073e 8819 753d
00000270: a41a edbc 1f8b 7fbd 825d 853d 2174 5cbd
00000280: a179 743d 9191 123e c708 eabc 1ce3 973d
00000290: 6b0c 7d3c 392f 8ebd b4b5 6e3d d86c 79bd
000002a0: 7bd7 033d f878 9b3c b1c5 7f3d f4a1 a23d
000002b0: e2d9 efbc 5441 6f3d 75f9 56bd 4b56 d63d
000002c0: 3322 cd3d 38e6 5d3d 36ab 013e 6872 89bc
000002d0: c00c 1a3d b725 0f3e cbce 6d3b d196 503d
000002e0: 3236 f43d 254b 123e 3709 463d 4afb b53d
000002f0: eeff 07bd 8fff f1bc 029f 6d3c 3beb 7fbd
00000300: e064 d7bc 92a5 97bc f5b3 8c3c 5b3d 7dbd
00000310: 0de8 10bb 9bb6 ad3c 0a69 f13c dced e73d
00000320: 6cc1 e8bc 3ae1 30bd 41d5 4a3d 7329 5a3d
00000330: 1128 b7bc e348 81bd 0831 c4bc a60d b53d
00000340: 098a f03c f2be 243d e1b7 e33c f61e 89bb
00000350: fc82 3e3d d6b4 393c 5c69 0d3d e15e 943c
00000360: 474e e3bb 3fc6 a0bd 8677 4abd 2031 7fbc
00000370: 52fd e33d 77c6 30bd 24c5 f93b 2024 e53c
00000380: 70ca 21be 1fdd 453d 030d e43d 4030 0a3c
00000390: f15c 34bd 09a6 613c 5687 c23d 5603 8b3d
000003a0: 5f3f a43d 6f7d 5ebd 208b 213d dfbf e3bc
000003b0: 4403 d83d 4ce7 82bd 6903 543d 9b5c 81bd
000003c0: 8d43 803d 5c5e 00ba 175a 77bc 9df6 ec3d
000003d0: 5bd9 023e f485 9b3c 252c b63d b811 043d
000003e0: ed57 d23d 9587 80bc 3805 d93d c7b9 8cbd
000003f0: dc03 a3bc e43d a73d 7c94 4abd b1d2 9bbc
0.05427393 0.1404811 0.09526106 -0.022173151 0.0033903203 -0.025070349 -0.014681673 -0.06641514
0.031004453 0.016607037 -0.005464336 0.014773015 -0.061942868 -0.0148954075 0.056220833 -0.03610951
-0.063247554 0.11906796 0.014807897 0.11435365 -0.011477691 -0.024822747 0.00034130597 -0.037853293
0.033954907 0.05636335 0.0020517737 0.08288828 -0.060126767 0.0011941772 -0.022129828 -0.022805857
-0.0070332815 0.040234648 -0.076375954 0.05041935 0.11186502 0.052166738 -0.029927313 0.1288263
-0.017194375 -0.10684946 -0.08526482 0.06815505 0.027489834 0.11243722 -0.014441173 0.058304083
-0.06447855 0.042660266 0.0044285012 0.040884342 -0.028878449 -0.052705325 0.057414874 -0.02970915
0.044994127 0.09714099 0.100298025 0.0274908 -0.024629489 0.057389464 0.005395249 -0.010383617
-0.048438255 -0.015532937 0.06514123 -0.025916312 0.11919524 0.009284521 -0.06291853 0.044052027
0.10104937 0.04977698 0.05549985 -0.066218205 -0.024254018 -0.0060860016 -0.030475711 -0.06272412
0.048702855 0.0778718 0.098989 0.07090021 0.09874889 0.05190978 0.016109483 0.030145602
0.02153352 0.0062455162 0.007555412 0.012102594 -0.052824806 0.062051866 0.009998859 0.14909078
0.032378376 0.033070866 0.06553553 -0.050085153 0.08960925 0.024695517 0.030970687 0.027649213
-0.011680349 -0.03835818 0.022166088 0.13784362 0.042713717 -0.020017995 0.042866793 -0.052615378
-0.06237366 0.08835896 0.12712806 0.10176073 0.06417759 0.010022474 0.08558693 0.07205386
0.107154764 -0.07939053 0.070397444 0.024521392 -0.041968755 0.018825423 -0.036063246 -0.025659503
0.08391685 0.011646357 -0.029545918 -0.051802643 0.044183772 0.03890953 0.0041296403 0.1020347
0.12837987 0.09611586 0.095678076 0.029325668 0.03079185 0.12967476 0.00988489 0.1301084
0.0070536807 0.1543829 0.053035665 0.015640909 0.025581982 -0.039220512 0.13073118 -0.00918597
-0.05030378 0.04598272 0.13263837 0.0598388 -0.028943367 -0.062388536 0.06511976 -0.053821687
0.059686307 0.14313342 -0.028568638 0.074163646 0.015444855 -0.06942601 0.058278754 -0.060894817
0.03218792 0.01897858 0.062444393 0.07941046 -0.0292787 0.05841191 -0.052483995 0.10465678
0.100162886 0.05417463 0.12662968 -0.016778186 0.037609816 0.13979231 0.0036286588 0.05092508
0.119243994 0.14286478 0.04834863 0.0888582 -0.033203058 -0.029540805 0.014503242 -0.062480193
-0.026293218 -0.018511567 0.017175654 -0.06182609 -0.002211097 0.021205237 0.029469032 0.11324665
-0.028412543 -0.043183543 0.04951978 0.053262185 -0.022357972 -0.0631273 -0.023949161 0.08840494
0.029362695 0.040221162 0.027797641 -0.004184599 0.046511635 0.011334619 0.034524307 0.018111648
-0.0069368216 -0.078503124 -0.049430393 -0.015575677 0.111323014 -0.04315802 0.007622378 0.027971327
-0.1579988 0.04830658 0.11135294 0.008434355 -0.04403395 0.013772496 0.094984695 0.06787746
0.080198996 -0.05431884 0.03943932 -0.027801452 0.10547498 -0.06391773 0.051761065 -0.06316491
0.06262884 -0.0004896873 -0.015097163 0.11570475 0.12778227 0.018984772 0.08895139 0.03224346
0.10270677 -0.01568965 0.105966985 -0.06871372 -0.019899301 0.081661016 -0.049458012 -0.019021364

l3.weight f4 [1, 256]
00000000: 00f0 603f b181 7d3f d87f d13e a61a 04bd
00000010: 90a3 6bc0 252b 233d f8a3 a2bc c717 3cbd
00000020: 8338 06bf 478f bdbf 99e8 f8bf 1a5a c5bc
00000030: ddab db3c 7133 0cbd aed4 0cbf a992 b9ba
00000040: 08c2 58bd 0dfd 753f d42a fabe 7559 4f3f
00000050: 1258 87bc d1d5 66bd 642a ea3b 7cff f13c
00000060: 1ea8 92bc b89d b8bf 95c0 33bd 48fa ea3e
00000070: c4f1 4f3d ebfc ca3e 58a1 593d a0d1 c2bc
00000080: 834e 1abb 603d dd3e 3021 d83e 30b0 f13e
00000090: efc1 bf3e e89c dfbe e01d 1dbd f1f9 1d3f
000000a0: b798 b8bc c25b 613f 849f 17bf fd8b 0b3f
000000b0: 0bb3 ecbf b0fe f73e 6b57 a7bf cb72 b5be
000000c0: be8d 99bd 0ffb 7b3f 4e1f ebbf 0d45 6abd
000000d0: 65d1 1fbd ea18 57bf ffb5 fc3e 48b0 88bf
000000e0: 731f e73e 8b49 4f3f 52b2 b83e d881 d6bc
000000f0: 356f 34c0 b1e8 e43e 1895 e33e 34c7 b0bf
00000100: 50d5 9cba 6271 dbbf 1d06 d7be 9cfb 39bf
00000110: 1f3f 943f 7a9d 6abf 0068 da3c 6acc 383b
00000120: 7887 6c3f 8150 203f 6809 d63e dc98 90ba
00000130: a480 3cbd 3215 08c0 f075 0bbf fa38 a8be
00000140: 34fa fe3e 2123 c83e f9a2 e83e 3b8c 753e
00000150: 4775 003f 446f bb3e e05f cb3a 859e 923e
00000160: 5d61 46bd 30e1 04bd d914 f63e 6854 1dbd
00000170: bfa4 f9be 065c 403e 4d5d 9dbc a42a e43e
00000180: 2144 bb3e 5017 5e3e 252a bf3e a8b4 6bbe
00000190: 3f7e 6a3f 9896 c73b df6c 05bd ef20 123d
000001a0: 1fc4 6ebd c640 94bc 8b86 153e 678d 6c3f
000001b0: 66f9 df3e 2fcc 80be ed63 f839 37b1 f6bf
000001c0: 9d33 a0bc d7d4 d33e bbaf be3e 9456 e03e
000001d0: 1b5e 943e 17b3 d23d 91e8 de3e f3db da3e
000001e0: 66ff d03e fb99 6fbf 3e03 dd3e 9956 c4bc
000001f0: 06b6 c6bf d07f a9bf 201e 2f3b 1a77 dfb9
00000200: be20 7b3f 6dd0 57bd 20d4 353e b4c3 60bd
00000210: 1e4d 9b3c a3dc 1aba 455c 80bf 4366 723f
00000220: 6011 d63e 099b cc3e 5a22 d23e 7c9c 54bb
00000230: 574e 11bc 5344 e03e ea70 eabc 6014 c93e
00000240: c00e ec3b 3b5c 733f b463 5d3d 6986 273b
00000250: 1a44 f7bc aed6 7ebc 479b cd3e 5ca9 7dbd
00000260: 3e47 59bd aec6 5e39 b903 673f 3e78 223e
00000270: cc9a 733d 51f9 7abb 78aa 7d3f 4b5c ae3b
00000280: fdbf 243f 68b4 c83e 11e9 30bc 7d61 dc3e
00000290: 5482 e03e 0ced 46bd 87b3 35c0 cce5 653d
000002a0: 1699 2cbd e2c6 4e3d b367 ce3e 6ffd d83e
000002b0: e6ac 93bc 24ed ff3e 1977 e2bb 0dda ce3e
000002c0: 796d db3e f381 b53e 7ba2 ee3e 9c35 d3bc
000002d0: bd6b 1bbd cb90 ea3e 9ffe 4fbd b57b ac3e
000002e0: fa36 f03e 654f d23e 7af1 de3e 249b ec3e
000002f0: 5f3c 2bbd c0fc 1c3d 4c0a a53e 827a b53c
00000300: 3c91 e7bc 1463 233e 4016 223d fa17 1ebb
00000310: 094e a33e 2479 ecbf 113b 94bf f866 6b3f
00000320: 6ab8 773b 1579 d0bd 0252 e03e 2f63 e83e
00000330: aaef 1f3b 2934 86bf 2917 77bf e85c f3be
00000340: ed46 b73e 536a 643f 148a abbf a5e5 45bc
00000350: 16f2 0dbd 72c6 d93e 9309 57bc c653 dcbc
00000360: 37c1 0dc0 26b2 f1bf 0c68 b0bc 6cf1 f2bf
00000370: 28ee c63e 3d6a 9cbc 06de be3a 2379 dbbc
00000380: 7046 bcbf 15eb 7a3f 2550 eb3e b9a7 d63b
00000390: 03e5 16bd 5387 9abc eb0c 703f b733 cf3e
000003a0: ccc9 ed3e 15d1 433c 6ff8 dfbe eafb 59bc
000003b0: 8ea3 703f a115 68bf 9f1a de3e 3fe7 0dba
000003c0: 9dc9 163d fab7 43bb 89e7 86bf 513f db3e
000003d0: bf35 8b3e dfea 25c0 19ea 073f a336 84bb
000003e0: f152 cc3e 1dd4 1fbf e469 d33e a8b2 a2bc
000003f0: 7d77 80bc 0efe af3e 00e4 d23e dee1 353a
0.8786621 0.9902602 0.4091785 -0.032251976 -3.681858 0.039836068 -0.019853577 -0.045921113
-0.5242998 -1.480935 -1.9445983 -0.024090815 0.02681535 -0.034228746 -0.55012023 -0.0014158088
-0.052919418 0.9608925 -0.488608 0.80995876 -0.016521487 -0.056356255 0.0071461666 0.02954077
-0.01790243 -1.4423132 -0.043884832 0.45894074 0.050767675 0.39646086 0.053132385 -0.023781598
-0.0023545332 0.43210888 0.4221282 0.47204733 0.37452647 -0.43674397 -0.03835857 0.61709505
-0.022533758 0.88030636 -0.59227777 0.5451048 -1.849214 0.484365 -1.3073553 -0.35439143
-0.07497738 0.9842996 -1.8368928 -0.05719476 -0.039018054 -0.8402239 0.49357602 -1.0678797
0.4514118 0.8097159 0.36073548 -0.026184961 -2.8192875 0.4470878 0.44449687 -1.3810792
-0.0011965428 -1.7143977 -0.41996852 -0.7264955 1.1581763 -0.9164654 0.02666092 0.0028198012
0.9239421 0.6262284 0.4180405 -0.0011031884 -0.04602112 -2.1262937 -0.54476833 -0.3285597
0.49800265 0.390893 0.45436838 0.23979275 0.5017895 0.36608326 0.0015516244 0.28636566
-0.048432697 -0.032441318 0.4806278 -0.038410574 -0.48758504 0.18785104 -0.019209528 0.44563782
0.36575416 0.2168858 0.3733684 -0.23018134 0.91598886 0.00609095 -0.03257453 0.03567594
-0.058292504 -0.018097293 0.14602105 0.9240326 0.43744963 -0.2515578 0.00047376697 -1.9272832
-0.019555861 0.4137332 0.37243447 0.43816054 0.28978047 0.10288065 0.4353681 0.42745933
0.40819854 -0.9359433 0.43166536 -0.023967074 -1.5524299 -1.324213 0.0026720837 -0.00042622612
0.98096836 -0.052689005 0.177567 -0.054874137 0.01895767 -0.0005907511 -1.0028158 0.9468729
0.4181013 0.39962032 0.41041833 -0.0032441905 -0.008868775 0.43802127 -0.028618295 0.39273357
0.007203907 0.9506261 0.054050162 0.0025562292 -0.03018384 -0.015554113 0.4015753 -0.06192909
-0.053046457 0.00021245584 0.90240055 0.15866181 0.059473798 -0.0038295577 0.9908824 0.005321061
0.6435545 0.3920014 -0.010797755 0.43043128 0.43849432 -0.04856591 -2.8390825 0.056127355
-0.04213818 0.05048264 0.4031349 0.42380854 -0.01802678 0.4998561 -0.00691117 0.40400735
0.42856959 0.35450706 0.46608338 -0.025782399 -0.037944544 0.45813593 -0.050779935 0.3368813
0.46916944 0.41076198 0.43543607 0.46212113 -0.04180562 0.03832698 0.32234418 0.022153143
-0.028267495 0.15955764 0.039572 -0.0024123178 0.31895474 -1.8474469 -1.1580526 0.9195399
0.0037799128 -0.101793446 0.43812567 0.4538817 0.0024404326 -1.0484668 -0.96519715 -0.4753182
0.357963 0.8922474 -1.3401513 -0.012078677 -0.0346547 0.42534214 -0.013124841 -0.026895415
-2.214918 -1.8882492 -0.021533988 -1.8979926 0.38853574 -0.019093627 0.0014562018 -0.02679116
-1.4708996 0.98014957 0.45959583 0.006550756 -0.036839496 -0.018863356 0.9376971 0.40469143
0.4644302 0.0119517045 -0.43744227 -0.01330469 0.93999565 -0.90658003 0.43379685 -0.00054131815
0.036813367 -0.0029864297 -1.0539409 0.42821744 0.27189443 -2.5924604 0.5309158 -0.0040348335
0.3990703 -0.62433034 0.41291726 -0.01986058 -0.015681976 0.34373516 0.41189575 0.0006938259

l4.weight f4 [256, 6]
00000000: 1c3a 7ebe c413 013e 2ed7 903e 2141 c83f
00000010: 9712 8d3e 38fe 7bbd b10e b0be 2021 aa3e
00000020: 04dd 1e3e b91c ae3f ef1d db3e e024 82bd
00000030: d98e ce3e b17a c4be 5754 49be 56a2 79be
00000040: 7c4a 07be 595c 993d 37ca 553e e21a b3bd
00000050: 71cd ac3e 76f9 193f 5eb3 ed3d 4c2d 7dbd
00000060: 0742 893e 55fa 033d 7dec be3e f9c6 8ebf
00000070: bd49 153e 1574 753d 2ab1 2f3f 842b 293e
00000080: 6873 0abf 4350 543e 5e4d 67be 031d f03d
00000090: 0021 833e 0192 ffbe c451 2cbc ec40 82bf
000000a0: 85af da3e 5e6f c0bd aa4b 943d d9c8 043e
000000b0: 085d 923e 6312 08bf 259a 0fbe 77f1 553e
000000c0: 17ca 873e 5a19 b6bd 16fd b6be 2cc7 a43e
000000d0: 165e 31bd 2249 8c3e 5397 7c3d 0725 1fbe
000000e0: bb89 be3e 9f70 4f3f 381f e73d c879 4e3e
000000f0: ca35 d4bd 229d f33d 0103 e0be 1e90 db3f
00000100: 1489 9a3e 2958 9cbd 06d9 3a3e 48ee 8d3e
00000110: 02ff 183d fdd5 63bf 201d 6c3e 3567 673e
00000120: 188d c2be 2977 bbbe 2203 2fbe b144 acbf
00000130: ac6b d4be b560 453d b903 24bd f3fc cc3d
00000140: 94f7 b1bb e76f 983f d0a1 5a3e 5678 81bd
00000150: d1bb 84bd c583 99bd dad8 273c 1fda 6c3f
00000160: 070b a6be 17f1 193e afb2 223f 3202 833e
00000170: 358d ea3c 3a5d 4abf 1d30 9fbd 605f c4bd
00000180: c6b9 a4bc 1aae 76be 3ba0 833e 8538 233f
00000190: f2b0 923e 1cb4 d13a 61d6 f53d 6708 5cbe
000001a0: 65cf a93e afed 63bf b5fe a53e cbce 633d
000001b0: f39e fcbd 04b4 f5bd 5521 c33c 4c97 95bf
000001c0: 64db 50be 3149 3b3d 6ddf 8cbe 7844 843e
000001d0: 5662 3abe edb3 2f3f 5e8a babd 4b11 903d
000001e0: c3c7 f13d a8d9 9a3e 4660 943e 0d40 60be
000001f0: d55e ac3e 2070 043e 0bce 323e f81a a5be
00000200: 1f97 5e3e 27d3 c1bf dfb0 e4be f2d3 c73d
00000210: d215 b5bc c060 8ebe c843 5abe 9e98 87bf
00000220: f379 03bd ddd1 a9be 528c c43d ea80 2c3e
00000230: 2bf4 f33d 4b93 2abf 04f8 b63d 7a08 893e
00000240: c663 55be 7006 523e 5075 dfbd 02aa 8b3f
00000250: 9693 6bbe 3083 0abd f0c5 8dbe 240b d2be
00000260: 534b 563e bde9 28bf 7651 4abe 1caf e03c
00000270: 246c f1bd e551 d23d 328c 9ebe eba5 483f
00000280: f449 36be e9fa ccbd 59ad d43c e39c 2f3e
00000290: d068 abbc ac75 48bf 738a 6b3e f467 553d
000002a0: b0c9 6ebd 8668 30be 9a07 ad3e a2d7 e33d
000002b0: 68a3 9fbe 8d31 8fbe 5864 3dbf 9593 ea3e
000002c0: 2cf3 80be 745f 6abe 6de1 ed3e 7f5e d8bc
000002d0: baca 233f 4cee e13e 04bc 48be 744d b13e
000002e0: c30e 07be d118 103e 824d aa3e e337 98bd
000002f0: c454 a3be 149f 5b3f 2793 6fbe 5915 afbe
00000300: 6651 cf3e ce27 00be e7f6 dbbd 1154 babf
00000310: aa6e 8abe 4dad 663d c764 993d d435 bebc
00000320: 2c2e 143e b677 05bf 1a43 77bd b8fa 323e
00000330: 7c0c bf3e 757e 8b3a 538e b9be a3e5 9b3f
00000340: 2df0 273e 5b94 4cbd ed94 81be 483e a63d
00000350: 523a 3ebe ebc9 34bf d7f0 833e 7931 973e
00000360: f766 63be 60c5 7b3e 8c66 39bc 8639 95bf
00000370: 5077 bf3e 29ff 9bbd b862 04be 8738 db3d
00000380: 155e c93e e190 173f 1de3 12be 68bc c63d
00000390: 5730 d3be ec4a 8f3e 48c2 68be d069 37bd
000003a0: 5125 d93d 98c2 963e a15a ab3e 90ad 13be
000003b0: e68c 423e 3fd5 9dbf 60e3 863e 3fe9 39be
000003c0: a38d 0dbe ba8f e13d 8fa6 f0be 0ebb fbbd
000003d0: 6fbd efbe f0a4 77bd 1d0a d6be d10f e0be
000003e0: cba5 c0be c487 aebe 6abe ce3d 231a 553e
000003f0: 031c a63e ceaa 8ebe aaab 493d 7834 57bf
-0.24826854 0.12605196 0.2828917 1.5644876 0.27553245 -0.06152174 -0.3438621 0.33228397
0.15513998 1.3602515 0.42796275 -0.063546896 0.4034336 -0.38374856 -0.1966108 -0.24378332
-0.13212007 0.07488317 0.2087792 -0.08745362 0.3375049 0.6014627 0.11606477 -0.061810777
0.26808187 0.032221157 0.372898 -1.1154472 0.1457891 0.059925158 0.68629706 0.16520506
-0.54082346 0.20733742 -0.22588107 0.117242835 0.25611115 -0.4991608 -0.010517541 -1.0176063
0.42712036 -0.093962416 0.07240994 0.12967242 0.28586602 -0.53153056 -0.14023645 0.20892893
0.2652137 -0.08891554 -0.35739964 0.32183206 -0.043302618 0.27399546 0.06166775 -0.15541469
0.37214455 0.8103122 0.112852514 0.20163643 -0.10361822 0.11895205 -0.43752292 1.7153356
0.30182707 -0.07634003 0.1824685 0.27720857 0.03735257 -0.88998395 0.23057985 0.22597964
-0.3799827 -0.3661435 -0.17091039 -1.3458463 -0.41488397 0.04818793 -0.040042613 0.10009184
-0.005431125 1.190915 0.21350789 -0.063217804 -0.06481136 -0.07495836 0.010244573 0.92520326
-0.32430288 0.15033375 0.635539 0.25587612 0.028631786 -0.790485 -0.07772849 -0.09588504
-0.020108115 -0.24089852 0.25708184 0.63758117 0.28650624 0.0015999111 0.1200378 -0.2148758
0.33166042 -0.8903455 0.3242089 0.055617135 -0.12335005 -0.11997226 0.023819605 -1.1686797
-0.20396191 0.045724098 -0.2751421 0.25833488 -0.18201575 0.6863392 -0.09108423 0.07034548
0.1180568 0.30244184 0.289797 -0.21899433 0.336661 0.12933397 0.17461412 -0.32247138
0.21737336 -1.5142564 -0.44666192 0.09757222 -0.022105131 -0.2780819 -0.21314919 -1.059345
-0.03209872 -0.33167925 0.095970765 0.16846052 0.11911806 -0.66631 0.08934024 0.2676428
-0.20838842 0.20510268 -0.109110475 1.0911257 -0.23005518 -0.033816516 -0.27690077 -0.41024125
0.20927171 -0.65981656 -0.19757637 0.027427249 -0.11788204 0.102695264 -0.30966336 0.7837817
-0.17801648 -0.10008795 0.025961565 0.17149691 -0.020924002 -0.78304553 0.23002033 0.05210109
-0.058297813 -0.17227373 0.33794862 0.11125113 -0.31179357 -0.27967492 -0.7398124 0.4581572
-0.25185525 -0.22887975 0.4646105 -0.026412247 0.6398121 0.4412712 -0.19602972 0.34629405
-0.13189225 0.14071967 0.3326226 -0.074325345 -0.3190061 0.8578961 -0.23395978 -0.34195974
0.4049179 -0.12515184 -0.10740452 -1.4556905 -0.27037555 0.056317616 0.07489925 -0.023219027
0.14470738 -0.5213579 -0.060366727 0.17478454 0.37314212 0.0010642546 -0.36241397 1.2179455
0.16400214 -0.04994617 -0.25308934 0.08117348 -0.18576935 -0.706206 0.25769684 0.29529932
-0.22207247 0.24587011 -0.011315953 -1.165818 0.37395716 -0.07617027 -0.12928283 0.10704141
0.3932959 0.5920544 -0.1434445 0.097039044 -0.41247818 0.27986848 -0.22730362 -0.044778645
0.10602821 0.29445338 0.33467582 -0.14421678 0.18999061 -1.2330703 0.26345348 -0.18155383
-0.13823561 0.11013742 -0.47002074 -0.12291537 -0.46824214 -0.06046003 -0.4180459 -0.43762067
-0.3762649 -0.34087956 0.10094912 0.20810752 0.32443246 -0.2786469 0.049235977 -0.84064436

l4.bias f4 [256]
00000000: 4c95 3f3e 946a c03e 3562 c2be 7477 a6bd
00000010: 75e9 22be 1f3b 00be 6593 c93d a7b8 0c3e
00000020: a86e 2fbe 5ceb e43d 5c0a 52bc bfa9 d73d
00000030: 1146 15be 46c8 89be 82e9 743d 7a70 d6bb
00000040: 644c d73e 6b73 ffbc dbc1 9e3e cdca d63d
00000050: b3f8 8c3e 2da4 c33e c9d1 723d 5113 883e
00000060: bfcf 1a3e ef70 3f3e 11f3 c33e 1963 473e
00000070: 73fe 3c3e d592 c23c 6207 97be 879c 833e
00000080: 187c 8abe ba8b 0f3e 7f55 073e 3749 42bd
00000090: c8e2 9b3d d855 95be 8b80 75be 09df c1bd
000000a0: 4de3 ecbe 0878 dbbc 9938 84be 1673 adbe
000000b0: f26a c8be 83c8 5b3e 3ad1 8a3e 9187 acbd
000000c0: 83d2 0b3f 61b8 a53e 61a0 4e3e 9536 0cbf
000000d0: 3364 9d3c fcd9 55be 7ede 58be ef37 d7bd
000000e0: 6367 403e 85ed 9e3e d539 b7bd 4eac 4fbe
000000f0: 549f 063e bb76 05be 0313 183e 23e1 123e
00000100: 2083 41be 3192 c2bc 303b 69be 2635 81be
00000110: e6d4 b8be de62 87be bbea abbe 0556 dfbe
00000120: 0724 d3bd 4f66 9abe 5bda 0a3e b1fa d43e
00000130: f7ab 84be 6a22 78bd b12d 943d 03b8 833e
00000140: eb99 d3be 0bcf b6be c474 3d3d 4ddf 70bd
00000150: b134 173e 5a45 6dbe c4ca fabd 7b5b c43e
00000160: d545 2abe 0be8 8d3c b2b2 643e 6583 1cbe
00000170: 2492 d8be 32b3 b53d d38b 3b3d 63c6 8a3e
00000180: a1ba 413e da61 8cbe 0dfc bf3e d6e0 b4bd
00000190: ac83 ac3e b19d c23d b9b4 80be 68c7 793e
000001a0: a4d6 01bf 4ae9 6d3e 48f8 953d 779a 2ebd
000001b0: 3976 963e 0e3e b13c 5585 3f3d 7cae ca3e
000001c0: df0d 93be 6f9c 233d 2ff6 6c3e f33b 8a3e
000001d0: 7f61 933e d79c 72bd 2c63 4cbe 0003 a83e
000001e0: e0ef 6ebd fba7 623e c8bf ab3e fb67 09bf
000001f0: 8d02 893e 338d 743e 8acf abbe ecf9 a43e
00000200: 06dd b9be d66f 823d 389f 2ebe 732e 413e
00000210: 6eaf 19be 76ed dc3d 87a1 6cbd 64e5 c03e
00000220: 6134 86be 73a7 54be 6096 d8bd d871 503e
00000230: e212 e9bd 73eb 45be f4f9 983e 7ae5 883e
00000240: f18f 163e 85c6 a9be 2167 8f3e 6c13 1bbe
00000250: e321 643e cc67 81be 75f0 153c 0d03 c2be
00000260: ea4f c43e 1982 c7be 1287 a5be 4cf6 563d
00000270: b35c a7be ba51 47bc f8cf 883e a34b 4a3e
00000280: 6a75 463d 4b4d d5bd 2afd 1abe 776b 1c3e
00000290: f102 3e3e 6dda 98be 3a55 f5bd 6f86 833e
000002a0: 7f47 7f3e 234b 8abe a4e1 1dbe 306f a13d
000002b0: 6423 b2bd 35ec c7be b059 b5be 7c83 ae3d
000002c0: 0f59 30bc 8ddb e5be 13d7 a4be f4ea 563e
000002d0: f56c cdbe a4a2 99bc 8e98 7fbe a803 cc3e
000002e0: b198 7c3d 9449 9e3d db81 3a3e d278 91be
000002f0: f0b7 77be 03fa 993e fda1 c2be fdff d7bc
00000300: c78d c43c b7d8 e7bd e671 6b3e 3d6b f53e
00000310: 346d 523e 8b06 463d 8972 623d 4e15 723e
00000320: c794 78bd 57c5 dabe 27b3 5e3d a54e 9fbe
00000330: 9f41 81bd b3c6 923e a184 8ebe b9df d0bd
00000340: f8b1 66be 0ecb c63d d003 2ebe 6b0a 523d
00000350: 8b18 1cbe eca1 b1be 5ed2 603e 9a67 eebc
00000360: a9dc db3d 0f0b ccbe 580b 103d fb04 b8be
00000370: b523 cc3e 9b14 963e 3c28 e73d 180f e53e
00000380: 82ac 973e e033 54be 9778 97be b84c ddbe
00000390: d8b8 cebc 4ae0 c33d b0d4 203e e8ef 40be
000003a0: 204d 203e 5393 913e dec8 c7bd 980f c23d
000003b0: 76d1 9bbe 20d3 91be 102c 213e d618 403d
000003c0: 0f51 633e bc09 8d3e d989 e13d 3b2b babe
000003d0: 4392 c4be 80d3 84b9 efe8 4bbe bc0e 89be
000003e0: 6520 593e d58a 66be 78cb 4f3e c12c 67be
000003f0: 34b4 f2bd 48d0 433e 3f08 233e 430d 973d
0.18709296 0.37581313 -0.3796555 -0.081282526 -0.1590937 -0.12522553 0.098425664 0.13742314
-0.17132056 0.11177704 -0.012819853 0.105304234 -0.1457751 -0.2691061 0.059793003 -0.00654417
0.4205047 -0.031182965 0.31007275 0.104879 0.27533492 0.38211194 0.059282098 0.26577237
0.15118311 0.18695424 0.38271382 0.19471397 0.1845644 0.023751656 -0.2949782 0.25705358
-0.270478 0.14018145 0.13216208 -0.047433104 0.076116145 -0.29167056 -0.23974817 -0.09466369
-0.46267167 -0.026790634 -0.2582443 -0.33876866 -0.39144093 0.21463208 0.27112752 -0.08424295
0.5461809 0.32367232 0.20178367 -0.54770786 0.019212818 -0.20883936 -0.21178624 -0.10508715
0.18789439 0.31040588 -0.089465775 -0.20280573 0.13146716 -0.13033573 0.14851002 0.14343695
-0.18897676 -0.02375135 -0.22776484 -0.25235862 -0.3609993 -0.26442617 -0.33577523 -0.43620315
-0.10309606 -0.3015618 0.13559859 0.41597512 -0.2591245 -0.060579695 0.072352774 0.25726327
-0.41328368 -0.35704836 0.046253935 -0.058806706 0.14766194 -0.23170987 -0.12245706 0.38351044
-0.16628201 0.01732256 0.22333792 -0.15284498 -0.42298996 0.088720694 0.045787644 0.27104482
0.1891885 -0.27418405 0.37496987 -0.088319466 0.33694208 0.095027335 -0.2513788 0.24392474
-0.5071814 0.23233524 0.073227465 -0.042627778 0.29387072 0.021636035 0.046758015 0.39586246
-0.2872152 0.03994411 0.23140787 0.26998863 0.2878532 -0.059231605 -0.19959706 0.3281479
-0.05833423 0.22134392 0.33544755 -0.53674287 0.2675976 0.23881988 -0.33556777 0.32221925
-0.3630144 0.06368987 -0.17052925 0.18865375 -0.15008327 0.107874796 -0.057771232 0.3767501
-0.26211837 -0.20767002 -0.10575557 0.20355928 -0.11380555 -0.19328098 0.298782 0.26737577
0.14703347 -0.3315927 0.2800837 -0.15144128 0.22278552 -0.25274503 0.009151568 -0.37892953
0.3834222 -0.38966444 -0.32329613 0.05248098 -0.3268791 -0.012165481 0.26721168 0.19755416
0.04845182 -0.10415133 -0.15135637 0.1527537 0.1855581 -0.29854146 -0.11979146 0.25688502
0.24929617 -0.2701045 -0.15418106 0.078825355 -0.086981565 -0.390474 -0.3541999 0.085211724
-0.010763421 -0.44894066 -0.3219534 0.20988065 -0.4012219 -0.01875431 -0.24960539 0.3984654
0.061669055 0.07728878 0.18213598 -0.2841249 -0.2419126 0.30073556 -0.38014212 -0.026367182
0.023993386 -0.11320632 0.22992668 0.4793338 0.2054947 0.048346084 0.05528501 0.2364094
-0.06068876 -0.42728683 0.05437007 -0.3111469 -0.06311344 0.2866722 -0.27835563 -0.10198922
-0.22528827 0.09706698 -0.16993642 0.051279467 -0.15243737 -0.3469385 0.21955249 -0.029102135
0.10735447 -0.39852187 0.03516707 -0.359413 0.39870992 0.29312596 0.11286971 0.44738078
0.296238 -0.20722914 -0.2958419 -0.43222594 -0.025234625 0.09564264 0.15706134 -0.18841517
0.15654421 0.28432712 -0.09755109 0.094756305 -0.30433244 -0.28481388 0.15739465 0.046898685
0.2219889 0.2754649 0.110126205 -0.36361107 -0.3839284 -0.00025334582 -0.19913076 -0.26769054
0.21203764 -0.22513898 0.20292461 -0.22575666 -0.11850777 0.19122422 0.15921114 0.07375576

l5.weight f4 [256, 256]
00000000: 5c7d 6fbd 2c99 1dbd de98 1dbd a362 33bd
00000010: 13ee 72bd acd1 143d b25b 43bc 20af 07bb
00000020: e01b 123d 6653 033d 4cf7 743d 12bb 2e3c
00000030: 7335 153d d134 dc3c e017 f73c f8d1 aebc
00000040: 5f37 cdbc de6a 72bc befd a63c a4c1 e23b
00000050: 0dfd 47bb 288a 5cbd d2cb 233d f51f 533c
00000060: a5d6 133d f27a bebc e4eb 91bd aa33 8abd
00000070: 601d 96bc c45d 1abd 8fbf cdbc 4776 f53a
00000080: 45b0 df3b 1112 e3bb c917 74bd 8e16 873c
00000090: 7355 75bd 8c04 203d 0f01 ea3c 42f2 d7bb
000000a0: d85d 3e3a 6833 58bd eae8 4a3d 6896 5bbd
000000b0: 8cce 20bd a2c4 893c 09ec 84bd 7d72 a7bd
000000c0: 0f2c df3c 53a2 7cbd 34ae 3cbc f32a f93c
000000d0: 552f 8abd 4980 88bd 8455 89bd 5f75 9bbc
000000e0: 49eb b13b 7f71 403d bf22 55bd 2543 883d
000000f0: 6e74 913c b6a0 253c d526 2cbd 9454 3fbd
00000100: efdf f5b9 600c 7fbc 03d0 60bc 5529 ab3c
00000110: b7a5 043c c9db c1bd d8d4 d13c 859e c4bc
00000120: 0d9d 47bd ebcc ebbc c9f6 92bc 46f7 4c3d
00000130: 71fd 76bd 5788 b5bc 2514 8fbd 87bc 543d
00000140: c976 d8bc ca88 a8bc 9344 cdbc fd2f 0b3c
00000150: 18a2 82bd 6c84 6bbc 283e d23c 1d5f 1fbd
00000160: 8151 12bc a8f8 a63d be98 9abc d397 c63c
00000170: 7c17 05bd 1332 f1bc 3a0b 0f3d 769a 093d
00000180: 49c6 de3b fc15 54bd 471d 493d 1aff 8e3c
00000190: 322e 99bd 56ad c2bc d3b4 97bd 5c35 083d
000001a0: 5a9d 093c a0df 1a3d 0a82 abbb 7dc0 42bc
000001b0: 55bc 85bd 9c64 49bc 6943 06bd 4570 493d
000001c0: 7e4d ff3c 51fc 23bc 35c2 a13c e14d a53c
000001d0: 5fc9 20bd 445d 073c 5eaa 71bd 6de4 18bd
000001e0: 41fd 41bd 342e fabc 3b2c 0b3d 110a 27bd
000001f0: b360 8b3c d983 073d 48d1 84bb f304 30bc
00000200: 3f7b 043c ee07 b33c 6cc1 933c d73d 83bd
00000210: 35e2 0bbd 0b53 1a3d e259 653c 215a 143d
00000220: 4e4a 453d 12db 9abd 89c6 b9bc 648e 023d
00000230: aead 17bc b02c a0bc 3fc3 113d e34f 04bc
00000240: ab29 023c 3e86 303d 7921 99bc be8e acbb
00000250: 5b85 5fbc e9a8 3fbc c534 283d c323 523d
00000260: 6a00 703c 45c9 b63c d311 f43c 86e5 3d3d
00000270: a616 bbbd 9561 a9bc 6e21 2e3d ec24 963a
00000280: ae65 fa3c 1234 54bd e403 1f3c c71c a73c
00000290: bd97 4e3d 9a0c 2bbd 0022 173c a162 14bd
000002a0: 1914 8abd 656f c03c cf80 4dbd 66e7 28bb
000002b0: 5e97 523c 4c79 3ebd 0a2e d9bc 388c b8bd
000002c0: 3d4a 193c b2a4 bbbc a8c2 173d 5586 0f3c
000002d0: 8cf8 cebc 8835 2e3d 31de 7fbc 81d5 ff3c
000002e0: 03a2 5dbd a316 1abd 19dc 33bd d2f1 04bc
000002f0: 7abb f33b 1e6b 8fbd f2f4 6a3d 7f5d d5bb
00000300: 4109 3abd 1b3b 29bd 8f8a 8ebd db77 24bd
00000310: ad64 d43c 41c1 92bb 1d6e 07bd dde1 22bd
00000320: 40ff 3a3d 57a2 903c 0cf1 f5bc 1665 2abd
00000330: 1ec0 553d 1ee8 35bd 69ac 743c 5dbd 19bd
00000340: 2dac 093d fe96 6bbd 903b fa3a a6be 83bd
00000350: 0811 e43c f0a3 0b3d 260e d8bb 9c47 5bbd
00000360: 086b 85bc 308c d2bc 835c 863d 83d1 a63c
00000370: 8f1b a9bc ca49 9f3c 6f90 d63c 3aa4 cbbc
00000380: 1f43 3fbd 6409 16bd 81fe a4bd 6fde 143c
00000390: df6b 9ebd fb2e 32bd 2e88 5ebc e70a 54bc
000003a0: ae04 0fbc eb4d bb3c 4e18 09bd 8131 49bd
000003b0: 888f 9abd 3104 8fbd fc80 8cbc 3b8e 053d
000003c0: 9263 423c 9fe4 0bbd 3856 2dbd 13ed 3abd
000003d0: 0899 adbd a88c 2d3d 72d8 75bc 6e4d 16bd
000003e0: 8ad2 9dbd e109 58bd 255b 97bc 1ed2 01bd
000003f0: d1a1 9dbd e295 6d3b 18f3 b23b ff3f 9fbd
-0.05846916 -0.038476154 -0.038475864 -0.04379524 -0.059309077 0.03633277 -0.011923717 -0.0020703748
0.035671115 0.032061957 0.059806153 0.010664718 0.036427926 0.026880654 0.030162752 -0.021340355
-0.025050817 -0.014795987 0.020384666 0.0069200564 -0.003051582 -0.053842694 0.0399893 0.012886037
0.036093373 -0.023251984 -0.07125071 -0.067481354 -0.018324554 -0.037687078 -0.025115756 0.0018727266
0.006826433 -0.006929644 -0.059592996 0.016490247 -0.059895944 0.039066836 0.028564958 -0.0065901587
0.00072619086 -0.0527834 0.04953853 -0.053610235 -0.03925948 0.016817395 -0.06490333 -0.08176134
0.027242688 -0.061678242 -0.011516143 0.030415988 -0.06747309 -0.066650935 -0.06705764 -0.018976865
0.0054296595 0.04698324 -0.05203509 0.06653432 0.017755713 0.010109117 -0.04202922 -0.04671152
-0.00046896885 -0.015566915 -0.013721469 0.020893732 0.00809615 -0.09465749 0.025614187 -0.02400137
-0.04873376 -0.028784236 -0.017939942 0.050040506 -0.060300294 -0.022159738 -0.06986264 0.051937606
-0.026423829 -0.020573039 -0.025057113 0.008495328 -0.06378573 -0.014374834 0.025664404 -0.038909066
-0.008930565 0.08152896 -0.018871661 0.024242317 -0.0324931 -0.029442823 0.034922816 0.03359457
0.00679854 -0.05177878 0.049100187 0.017455626 -0.07479514 -0.023764294 -0.07407536 0.033254012
0.008399332 0.03781092 -0.0052340077 -0.011886713 -0.06530062 -0.012292054 -0.03277913 0.049179334
0.03116488 -0.010008887 0.019745925 0.020178737 -0.039254542 0.008261982 -0.059000365 -0.03732722
-0.047360662 -0.03053961 0.03397773 -0.040781084 0.017013883 0.033084724 -0.0040532686 -0.0107433675
0.008086025 0.021854367 0.018036567 -0.064082794 -0.034151275 0.037676852 0.0139984805 0.036218766
0.048166566 -0.075613156 -0.022677677 0.031874076 -0.009257717 -0.019552559 0.03558659 -0.008075687
0.007944505 0.043096773 -0.018692719 -0.0052660396 -0.013642634 -0.011697986 0.04106595 0.051303636
0.014648536 0.02231277 0.029793655 0.04636147 -0.09135179 -0.020676414 0.04251235 0.0011455095
0.030566063 -0.05180747 0.009705517 0.020399464 0.050437678 -0.041760065 0.009224415 -0.036226872
-0.067421146 0.023490617 -0.05017167 -0.002577269 0.012853472 -0.046502396 -0.026511211 -0.090111196
0.009356079 -0.022905681 0.037050873 0.008760055 -0.025265 0.04253152 -0.015616939 0.031229736
-0.054109585 -0.037619244 -0.043911073 -0.008114295 0.0074381204 -0.07002853 0.057362504 -0.0065113897
-0.04541898 -0.041316133 -0.06960022 -0.040153366 0.025926912 -0.004478604 -0.033063997 -0.03976618
0.04565358 0.017655535 -0.030022167 -0.04160031 0.05218517 -0.044410817 0.014933684 -0.037534107
0.033611465 -0.057517044 0.0019091237 -0.06432848 0.027840152 0.03409189 -0.0065934835 -0.05353509
-0.016286388 -0.025701612 0.06560614 0.020363575 -0.020643024 0.019444365 0.026191918 -0.024858583
-0.04669487 -0.03663005 -0.08056355 0.009086235 -0.077354185 -0.043501835 -0.013582272 -0.012942052
-0.008729143 0.022864303 -0.033470444 -0.049119476 -0.07546908 -0.06983221 -0.017151348 0.032606345
0.01186456 -0.034153577 -0.042318553 -0.045636248 -0.08476454 0.04237047 -0.015005218 -0.036694936
-0.07706173 -0.052743796 -0.018476078 -0.031694524 -0.0769688 0.0036252667 0.005461108 -0.07775878
