Project/upload/Part1_q4/noise/InvertedPendulumBulletEnv-v0_TD3_2002_1638458528_td3_q4.pth (torch, 818223 bytes, 15 tensors)

l1.weight f4 [256, 6]
000000 12 ce 6a 3d 78 64 29 3d 36 52 8c 3e 60 49 9f 3d
       0.05732543 0.04135558 0.27406472 0.07777667
000010 e6 ca 36 be 2a ea 51 bb d3 28 f0 3d 2e 49 df 3d
       -0.17850837 -0.0032030442 0.117265366 0.1090263
000020 77 85 7b bd 9c ec 85 bf d2 ad b5 3e b9 37 3a bd
       -0.06140658 -1.0462832 0.35484177 -0.045463298
000030 79 58 c1 be 01 7c 33 3e 95 4e 1a be fe f5 a8 3f
       -0.37762812 0.17527772 -0.15069039 1.3200071
000040 83 3b 8e 3e 73 82 70 bd 76 1b 86 3e 31 a4 94 3e
       0.2777978 -0.058718156 0.26192826 0.29031518
000050 4c e2 98 be 1f 8a 22 bf b7 a2 2c be d7 b4 be 3e
       -0.2986015 -0.63492006 -0.16858946 0.37247345
000060 cc 47 ae 3b c9 a3 cc 3d f1 dc de 3d 8b a7 a5 bf
       0.0053186174 0.09992177 0.10881985 -1.2941755
000070 66 f0 2b be ae 75 37 bd 16 40 66 be 52 7d bc be
       -0.16790923 -0.044789962 -0.22485384 -0.36814362
000080 ca 27 25 3e e5 c1 40 be 57 ee 85 3c 92 1d 29 be
       0.1612846 -0.18823965 0.016349 -0.16515186
000090 0b ab 0b bf c5 46 9a 3e 32 b1 17 3e 97 9f 31 3d
       -0.54557866 0.30132118 0.14813688 0.043365087
0000a0 6a 7a 1a 3e a6 e7 2c 3e f2 35 b3 be 96 f7 30 3e
       0.1508576 0.16885242 -0.35002095 0.17281947
0000b0 b8 00 62 bd 11 0c 80 be b2 3b b5 3c 25 be 74 be
       -0.055176467 -0.25009206 0.022123192 -0.2390066
0000c0 9c 32 df be fe 19 2a 3c 2e 42 b3 3c 40 6a 76 bf
       -0.435933 0.010382174 0.021882143 -0.96255875
0000d0 a2 1e 9d 3e 02 09 62 be 3d 2a 60 3f 88 a3 93 be
       0.30687433 -0.22073749 0.8756445 -0.28835702
0000e0 b9 d7 98 3e 19 d4 09 3f ef 60 b0 bc 58 08 ba bc
       0.29852083 0.5383926 -0.021530597 -0.022709057
0000f0 d8 22 e8 bd 31 5a 93 3e dd 6a 94 3e 25 75 52 bf
       -0.11334771 0.28779748 0.2898778 -0.8221
000100 cb 79 90 bd d7 69 d2 bd bc e5 84 be fd 50 be 3d
       -0.0705448 -0.102740936 -0.25956523 0.09292791
000110 53 c5 ba 3e b8 b7 20 bf bb 0a 21 3d 7d 67 19 bd
       0.3647867 -0.6278033 0.039316874 -0.03745221
000120 41 3f 96 be 66 74 5d 3e 0b b3 c2 3e 7a 62 13 bf
       -0.29345134 0.21626434 0.38027224 -0.5757214
000130 61 69 6e bd a2 6d fb bc 33 49 2a bf 94 74 16 3e
       -0.058205966 -0.030691925 -0.66517943 0.14692909
000140 39 e8 a9 bd 9e cb 8b bf 56 e1 3f be d5 09 08 3d
       -0.08296246 -1.0921514 -0.18738303 0.0332125
000150 a4 8a 16 3e 15 19 b6 bd 48 8e bb be a8 86 21 3d
       0.14701325 -0.08891503 -0.3663199 0.03943506
000160 42 67 6f bc f8 ef b6 be 19 21 61 3e db 3f e4 3e
       -0.014612021 -0.35729957 0.21985282 0.44579968
000170 99 71 c9 bd 83 0d 8d 3e 1a 26 9a be 3c ea a7 3e
       -0.0983612 0.2754937 -0.30107194 0.32795894
000180 76 4e ed bc d4 d8 c4 3e 26 47 04 3e 00 ab 67 bf
       -0.028968077 0.38446677 0.12917766 -0.904953
000190 a6 4a 3b 3e 22 55 82 3d 89 9c 08 3f 67 83 ed 3d
       0.18290195 0.06363894 0.53363854 0.11597329
0001a0 16 ca b9 bc a6 c2 8d bf 05 37 d9 3c d0 54 81 3e
       -0.02267937 -1.1075027 0.026515493 0.2526002
0001b0 dd df c0 be 6b 9d c0 be 40 22 a4 be df 0b 48 3f
       -0.37670794 -0.376201 -0.3205738 0.78143114
0001c0 d4 e6 5c bd 84 1b dd 3d ed ed 89 be 4f bb 42 3e
       -0.053931072 0.10796264 -0.26939335 0.19016765
0001d0 64 de 32 be 0f 86 37 bf 2f 45 a1 3e 6d 39 83 3e
       -0.17467648 -0.7168893 0.31498095 0.2562975
0001e0 f8 d4 ca be 01 6e 8d bb 24 9f 0f 3d 0b f5 60 bf
       -0.39615607 -0.004316092 0.035063878 -0.87873906
0001f0 84 00 05 3f ee 4d 0e bd 58 c3 f6 be ee 6f 16 be
       0.5195391 -0.03474229 -0.4819591 -0.14691135
000200 d7 c8 ab be ee 4b 41 3f 93 c6 80 bd e8 e3 7f bc
       -0.33551666 0.75506485 -0.06287875 -0.015618302
000210 2c 63 9f bd a3 c8 2c 3e 8b c6 a2 be ad 58 a3 3f
       -0.077825874 0.16873412 -0.317921 1.2761437
000220 a1 36 d3 3e fc bc a8 bd af bb e9 bb d5 cb 3d be
       0.41252616 -0.08239171 -0.0071329693 -0.18534787
000230 67 b4 3d 3e 51 5b 31 be 69 8b cf be ed 87 91 3d
       0.1852585 -0.1731999 -0.4053605 0.07106004
000240 55 4c 92 3e f9 53 b3 be 31 15 20 be b9 72 92 3e
       0.28573862 -0.35025004 -0.15633084 0.2860315
000250 00 83 0f be fc 1a 20 b9 36 26 5b be 10 9d 64 be
       -0.14014816 -0.00015268842 -0.21401295 -0.2232554
000260 7a a4 86 3e 28 93 46 3d d2 e7 11 3e 9f 1c 51 be
       0.2629736 0.048480183 0.14248589 -0.20421074
000270 7a 4c 68 bf 11 4e 29 3e 3d e9 83 3d fb 56 95 3f
       -0.90741694 0.16533686 0.06440971 1.1667169
000280 5c 23 85 3e 28 f3 09 bd 6c 92 95 be d5 3b 3f bd
       0.2600354 -0.033679157 -0.29213274 -0.04668792
000290 b3 e0 d6 bb c1 6d 8e bd 5b fb 86 be a0 6f 00 3e
       -0.006557548 -0.06954528 -0.26363644 0.12542582
0002a0 a2 35 90 3e c8 52 19 3d 3d a2 bb be 61 b2 0a 3d
       0.2816592 0.037432462 -0.36647215 0.03386152
0002b0 71 68 7b be 53 2b f1 be e8 3b de bd 4e 48 b4 3d
       -0.2455156 -0.47103366 -0.1085127 0.088028535
0002c0 a9 6b 07 3e 29 01 d3 3e 2f b0 b9 be 3d 0a 28 3e
       0.13224663 0.41211823 -0.3626723 0.16410156
0002d0 b8 0f 07 3d 50 4d 3f be b1 24 f8 bd d5 7e 6a bf
       0.032973975 -0.18681836 -0.12116373 -0.9159978
0002e0 da fb 36 be 87 d7 bc be 93 8f d0 3d 72 96 8d be
       -0.17869511 -0.36883184 0.101836346 -0.27653843
0002f0 8d 42 b7 3e 0d 42 3d bf 43 9c a8 3e 2a f4 9e bd
       0.35792962 -0.7392891 0.32931718 -0.07761414
000300 16 5d 1a be 43 44 cf be 82 53 93 3e c1 af 39 3f
       -0.15074572 -0.40481767 0.2877465 0.72533804
000310 57 94 38 3e 36 aa 54 bd 62 74 ed 3e 9f 84 6d 3e
       0.18025337 -0.05192014 0.46377856 0.23195122
000320 89 55 60 bd 85 2f 4c 3e 69 6b b7 3e ea b4 58 bd
       -0.054769073 0.19940002 0.35824135 -0.052906908
000330 74 9f 85 bf 95 64 da bd ad 4a 6e 3d f7 d6 a1 3f
       -1.0439286 -0.10663716 0.058176685 1.2643727
000340 5f 3d ad 3d b9 11 5d bd bd 5d 1f 3c b5 01 1b be
       0.08458971 -0.05397198 0.009726939 -0.1513737
000350 c5 15 a6 be 15 c8 4d bf 6a 9c 54 be 98 33 2e be
       -0.32438484 -0.80383426 -0.20762792 -0.17011869
000360 bf 2d b8 3d 72 51 bb be 20 8f 1b 3e e0 8b ec 3e
       0.089931004 -0.36585575 0.15191317 0.46200466
000370 c3 a8 9d bd 8c dd 35 bd 68 b1 fc be d3 7e b4 be
       -0.07698204 -0.044400737 -0.493541 -0.3525301
000380 ad 13 83 bd 2f 67 68 bf 08 5b 66 be 3f ea 9b 3c
       -0.06400237 -0.90782446 -0.22495663 0.019032596
000390 ea 88 a6 3e 20 dd a5 3e 19 6b 20 3d 2b 6a 38 bf
       0.32526332 0.32395267 0.039164636 -0.72037
0003a0 3e 05 73 bd ed 6c 9a 3d a4 7f 05 be a7 06 0e 3e
       -0.05933117 0.07540307 -0.13036972 0.13869725
0003b0 0e 53 c1 bd 7c 64 e0 3f b0 86 b6 3e 73 13 9b bd
       -0.094396695 1.7530665 0.35649633 -0.07572069
0003c0 a1 d3 8b be 5f a4 a7 3d a3 97 ba 3e 90 7b 66 be
       -0.27309898 0.08185648 0.36443815 -0.22508073
0003d0 ec 65 9a 3e 80 8f 1b 3e ae b1 5f bf 3c b3 47 be
       0.30155885 0.1519146 -0.8738049 -0.19501966
0003e0 05 ec 9d bd 54 de b1 3f c8 2f 27 3e 43 ed 20 bd
       -0.07711033 1.3895974 0.16326821 -0.03928877
0003f0 21 a5 09 be 4c f0 ad 3c e4 db b0 3e ce 99 a6 3e
       -0.13441898 0.021232747 0.34542763 0.3253922

l1.bias f4 [256]
000000 a5 b0 89 3e 02 14 cf 3d 5c f3 6a be 37 39 72 be
       0.26892582 0.10111238 -0.22944397 -0.23654638
000010 c7 68 b9 be eb 23 c5 3e 26 0f 9c 3e 7d 5c c9 3e
       -0.3621275 0.38503966 0.30480307 0.39328375
000020 d6 76 09 3e b7 cf 9f be b8 4f c5 3e 86 b3 d7 bd
       0.13424239 -0.3121316 0.38537383 -0.10532288
000030 10 16 46 be c8 23 c0 bd cf 1c a1 be bf e5 a8 3c
       -0.19344354 -0.09381825 -0.31467292 0.020617364
000040 7d 79 11 3e f5 22 b7 3d 2a 27 a1 3e 07 2f 3f 3e
       0.142065 0.089422144 0.31475192 0.18670283
000050 22 fd ec bd cb 8f 96 3e 29 bb 24 be 87 ac 86 3e
       -0.11571719 0.2940658 -0.16087021 0.26303503
000060 cc 2c e5 3d 66 f2 cb 3e c9 d2 bf be 9c 5e ae 3e
       0.11190185 0.39833373 -0.37465504 0.34056556
000070 76 5d 37 be 67 cc 73 3e 46 f7 2c be e4 70 9d be
       -0.17906746 0.23808442 -0.16891202 -0.3075019
000080 40 ac 82 bb 7b 2a a4 be 99 04 75 be 70 14 bd bd
       -0.003987819 -0.3206366 -0.23927535 -0.09232414
000090 1c 51 c1 3d 59 1b 3b 3e be 57 a3 3e e2 44 bb be
       0.094392985 0.18272151 0.3190288 -0.3657599
0000a0 d3 5c aa 3c a5 34 55 be df 52 bf 3e 6f c8 b2 3e
       0.020796215 -0.20820864 0.37367913 0.34918544
0000b0 84 ef cd bd ba a4 9c be 03 f6 dc bd 5f 2d 14 bd
       -0.100554496 -0.30594426 -0.107891105 -0.03617608
0000c0 07 33 76 3e 25 69 f7 3c c2 d2 75 be 79 ae 39 3e
       0.24042903 0.030201504 -0.24006179 0.18132962
0000d0 62 ba 85 3e bb f4 91 be a9 98 dc bd e6 2f bf 3d
       0.2611876 -0.28507027 -0.10771305 0.09335308
0000e0 dc 86 ae be 68 ab 11 3d a9 aa eb bd 4c c7 fc bc
       -0.34087265 0.035563856 -0.1150716 -0.03085675
0000f0 43 c6 99 3e 26 94 b2 3e 14 40 9c be 82 2a d8 bb
       0.30034074 0.34878653 -0.30517638 -0.006596864
000100 16 06 65 3e 7d 65 b5 3d 84 73 06 3e 5e a9 64 bd
       0.22365603 0.08857248 0.13130003 -0.055825584
000110 70 01 aa 3e f2 c2 72 be d8 cb e0 bd d6 73 95 3e
       0.33204222 -0.23707178 -0.1097638 0.29189938
000120 a9 93 0f 3e 1c c2 f7 3d a3 f8 7f 3e e3 f9 c5 be
       0.14021172 0.1209757 0.24997191 -0.3866721
000130 aa d4 3d 3e 87 32 16 3e e6 f5 37 3e 8e 7e ae be
       0.18538156 0.14667712 0.17964897 -0.3408093
000140 86 79 24 3d 20 9b 90 be 28 eb 02 3e 6e da bc 3d
       0.040154956 -0.2824335 0.12785017 0.0922135
000150 94 45 ab 3d c9 a1 7f bd b7 53 ed be b0 08 6a be
       0.0836288 -0.06241015 -0.46352932 -0.22854877
000160 de 4f 5b 3a e7 5d 30 be fa 49 3c 3d 4a 05 bd be
       0.0008366088 -0.17223321 0.045968987 -0.36918098
000170 2c 3f 79 3c 23 b1 68 be 3f b0 bb 3e 75 a7 14 be
       0.015212815 -0.22723822 0.36657903 -0.14517005
000180 45 9c 8a be 7d 2c 98 be ca 51 89 be b5 35 a0 3e
       -0.2707235 -0.29721442 -0.26820213 0.31290975
000190 e0 ca 25 be 12 6b 9c be 61 8e 8c bb 5a 23 67 3d
       -0.16190672 -0.30550438 -0.004289434 0.0564302
0001a0 6b c8 14 be ed 16 1e 3e c7 a6 49 3e 2b 7a 0c bf
       -0.14529578 0.15438433 0.19692527 -0.54873914
0001b0 9f 86 3a be 48 8a 94 be 16 07 53 3e bb 21 d1 3e
       -0.18215416 -0.2901175 0.20608172 0.40846047
0001c0 bc c2 8a 3e 89 f2 bc bc bd 3c 95 be b2 5b be bd
       0.27101696 -0.023064869 -0.29147902 -0.09294833
0001d0 63 ef dd ba 44 79 4e be 5a 4d 0e be 75 ef b4 bc
       -0.0016932305 -0.20163447 -0.13896695 -0.022086838
0001e0 d8 0e 8f 3e a1 0c 97 3e 05 9d 14 be 71 b0 18 3e
       0.27941012 0.29501823 -0.14513023 0.14911057
0001f0 d9 cd c2 3e 0b f6 e0 bd 1c e7 ac be 7a d5 65 bd
       0.38047674 -0.10984429 -0.33770072 -0.05611179
000200 0a c6 7a be c3 a7 29 be c3 aa 83 be f9 a1 96 be
       -0.24489608 -0.16567902 -0.25716218 -0.2942045
000210 04 d7 82 be bf 91 21 bd 5a 3b 64 be 73 b5 12 be
       -0.2555467 -0.039445635 -0.22288266 -0.1432703
000220 a0 29 88 3e 49 76 48 3c 89 c2 65 be e3 88 fd 3d
       0.26594257 0.012235233 -0.2243749 0.12379625
000230 32 1a 67 3e 3e 70 9c bd 72 c3 44 be ef a2 8c be
       0.22568586 -0.07638596 -0.19215181 -0.27468058
000240 3d 81 94 3d e9 44 97 3e 4f 7a 96 bd 9d d1 5d 3e
       0.07251213 0.29544762 -0.07347547 0.21661992
000250 dc 28 d1 bd 57 0b 86 3d 02 69 6e 3e 1c ca 81 3e
       -0.102128714 0.06545132 0.23282245 0.2534951
000260 36 9b 55 3d 0d 35 12 3e c9 6a b3 3e a8 e4 9d 3e
       0.052149974 0.1427805 0.35042408 0.30838513
000270 85 c4 12 3e 92 bc d2 be 4e 44 b3 3e d5 55 a8 3e
       0.14332779 -0.41159493 0.3501305 0.32877985
000280 3b 5e 99 3e 1a 50 47 be c9 0b a3 be 63 15 26 3e
       0.29954705 -0.1946415 -0.3184493 0.16219096
000290 11 bd 9c 3e 31 7d 35 3e 9a 7d 8a bd 9a c0 be 3e
       0.30612996 0.17723538 -0.06762238 0.37256318
0002a0 15 a1 40 3e 89 94 86 3e 2c b2 36 3e 1e e7 e9 bd
       0.18811448 0.26285198 0.17841405 -0.11421035
0002b0 5c 5a 7e bd 64 58 8f bc ae 39 87 be 3e da 68 3d
       -0.062097892 -0.017498203 -0.26411194 0.056848757
0002c0 05 3d 8e 3e d6 97 60 3c 55 7f 4e 3e 0a 0f 95 3e
       0.2778093 0.0137080755 0.20165761 0.29113036
0002d0 8e 0d 88 3e 40 8e fb 3c d1 66 e9 bd 0b b6 11 be
       0.2657284 0.030707479 -0.11396564 -0.142296
0002e0 eb 41 98 be bb 24 5d 3e dc 84 23 be 39 4a 9d 3e
       -0.2973779 0.21596043 -0.1596865 0.3072069
0002f0 3d 03 79 be a0 fd 64 3e e9 27 d3 bd 5b d9 a7 3e
       -0.24317642 0.22362375 -0.10310347 0.32783017
000300 e8 46 77 3e 68 2e 67 bd 65 1c 8a 3e 85 8e 81 3e
       0.24148142 -0.05644074 0.26974788 0.25304046
000310 2c f0 6f 3e c0 a9 95 3d 46 c2 27 bc 1c 90 41 3e
       0.23431462 0.07307768 -0.0102391895 0.1890263
000320 e0 22 91 be 5c ce 84 be 91 9a 07 be c7 7f a7 3e
       -0.2834692 -0.2593869 -0.13242556 0.32714674
000330 a0 7f 20 3e 86 d9 d8 3e a3 a0 86 be b3 0f 19 bd
       0.15673685 0.42353457 -0.2629443 -0.037368488
000340 99 4f 54 3e 27 c2 88 3c b1 f8 93 3e 2c 82 64 3e
       0.20733489 0.016694142 0.28900674 0.22315282
000350 02 c3 40 3e 0f 0f 9f 3e 4e 1f a9 3e 6c c0 ce 3c
       0.1882439 0.31066176 0.33031696 0.025238238
000360 db f3 34 be 4c ff 0b bd 88 a1 fc bd 31 a5 c8 be
       -0.17671148 -0.034179017 -0.12335497 -0.3918853
000370 c0 51 b1 3d 7e 30 03 be 11 a4 6f bd 6a 40 e3 be
       0.08658171 -0.12811467 -0.058506075 -0.44385082
000380 70 d9 57 bc 65 bd 9b 3e 62 3c af be 4e 7b 09 be
       -0.0131744 0.30417934 -0.34225756 -0.13425943
000390 d3 9a d8 3d 0c 44 8a be 25 8a b0 be c6 cf e5 bd
       0.105764054 -0.2700504 -0.34480396 -0.1122127
0003a0 46 93 6b be 54 d1 89 bd 6a 84 eb bc 6a b7 b9 be
       -0.23005399 -0.06729379 -0.028749663 -0.36272746
0003b0 23 f9 e7 3d e0 3b 8e be 71 a0 93 be 7d c4 24 3e
       0.11326816 -0.27780056 -0.28833345 0.1609058
0003c0 a7 a9 7e 3e 8b cd b0 be 69 2d bb be 4b f5 5a 3e
       0.24869405 -0.34531817 -0.36558083 0.21382634
0003d0 4f a0 84 be 85 ac 25 be 77 c5 19 3e 17 9b 2f 3d
       -0.25903556 -0.16179092 0.15016733 0.042872515
0003e0 c2 98 98 bd 8f f3 7d 3e b1 5e 32 bd 6f 61 d3 3e
       -0.07451011 0.24799941 -0.043547336 0.41285273
0003f0 1e e4 75 be 19 23 05 3e 9b 8b 07 bf d1 40 0c bd
       -0.24012801 0.1300167 -0.52947396 -0.0342415

l2.weight f4 [256, 256]
000000 2a 13 15 bd 4d 2f 43 bd 90 46 69 bd 1a fd 79 bd
       -0.03639523 -0.04765253 -0.05695206 -0.061032392
000010 32 44 fa 3c 08 cd 15 bc d3 e8 42 3b d5 94 5f bd
       0.030550096 -0.009143122 0.0029740825 -0.054585297
000020 54 57 1d 3d 87 4b a0 3c b4 60 2c bd 94 27 cf bc
       0.03841336 0.019567264 -0.04208441 -0.025287427
000030 9d a1 77 3b 79 8c da 3c d8 aa af bc 86 d3 39 bd
       0.0037785538 0.02667831 -0.02144377 -0.04536774
000040 d4 3b d4 bc 25 1d 06 3d f7 09 aa bd 5f ee 88 bd
       -0.025907435 0.03274264 -0.08302682 -0.06686091
000050 4d e5 bf 3c 27 e8 a1 3c c0 6c b6 3a 9a 99 59 3d
       0.023424769 0.01976402 0.0013917908 0.053125
000060 8a 19 07 bd 4a 81 1a 3d 22 c7 5f bd 4f 0f ec bc
       -0.03298334 0.037720956 -0.054633267 -0.028815893
000070 64 90 63 bd ea 10 33 3d 2a ab 0d 3d 27 e5 9c bd
       -0.055557624 0.043717302 0.034587063 -0.07660895
000080 cf 73 81 bd c0 58 4b 3d e0 31 5c bc 24 ef b5 bc
       -0.06320917 0.049645185 -0.0134396255 -0.022208758
000090 8c 15 6a bd 37 6c 0a 3d 39 c9 c9 3b d2 cb 18 3c
       -0.057149455 0.033794608 0.006158021 0.009325938
0000a0 60 4d 94 bd 4a 96 69 bd 32 87 28 3d b1 d6 83 bd
       -0.072413206 -0.057028092 0.041144557 -0.064374335
0000b0 49 1d ba bc 88 8e 1d 3d 34 6e fe 3c 50 79 66 3d
       -0.022719042 0.038466007 0.031058408 0.056268036
0000c0 d2 26 8d bd fd 3a 10 bd 46 e1 14 3d e3 cc 0c 3c
       -0.0689217 -0.035212506 0.03634765 0.008593771
0000d0 6c 90 c3 3c db 93 9a bd 78 b3 22 bd fa ca 23 bd
       0.023872577 -0.075477324 -0.039721936 -0.039988495
0000e0 b1 75 72 bd eb 3b 70 bd 3a 7e 9c 3c 01 cf bb bd
       -0.05919427 -0.058650892 0.019103158 -0.09170342
0000f0 fc 64 2d bd e5 f7 1a bd cd d9 4e 3c 7f a4 ed bc
       -0.042332634 -0.037834067 0.01262517 -0.029009102
000100 6e 82 76 bc 12 64 d4 bc 06 3f 87 3c 67 61 66 bd
       -0.015045745 -0.025926623 0.016509544 -0.056245234
000110 75 5a 82 3c 36 22 a4 bb 2e 31 7b bc 1d 6f 53 bd
       0.015912274 -0.005008961 -0.01533155 -0.051619638
000120 a1 fb e3 bc 64 70 4b bd f1 8f 43 bd 96 0f 3a 3d
       -0.027829947 -0.04966773 -0.047744695 0.04542502
000130 fd ed ab bd f4 64 32 3d e5 fd 1d 3a d0 8d 2d 3c
       -0.08395002 0.043553308 0.0006026908 0.010592893
000140 24 b2 8c bb c4 3f a3 3b c1 ed d2 3c bb 98 4d bd
       -0.004293697 0.0049819667 0.025748136 -0.050194483
000150 05 7d 92 3c 20 db 09 bd e8 fe 22 3d 4a c3 35 3d
       0.01788188 -0.03365624 0.03979388 0.044375695
000160 c3 5c 46 bd 1c 5a 5c 3d 81 a4 d9 3c c4 c2 c3 bc
       -0.04842831 0.053796872 0.0265677 -0.023896582
000170 c2 70 5c 3c 0b 73 8f 3b 67 a6 02 bd 30 34 86 3d
       0.013454618 0.004377728 -0.031896975 0.06552923
000180 c4 ca 56 3d 00 cb 8d bd 30 fd 2f bc 93 39 b3 39
       0.052439466 -0.06923485 -0.010741517 0.00034184437
000190 4e c2 59 3b 60 a6 0e 3d ae 7a 9c bd d5 73 d1 3b
       0.0033227387 0.034826636 -0.07640587 0.006391982
0001a0 59 12 42 3d b8 db ab bd a5 fb 2e bd bb de 12 3d
       0.04738078 -0.083915174 -0.042720456 0.035856944
0001b0 b1 14 4c bd da 2c 39 bd 97 2c 5c bc f5 85 c8 bc
       -0.04982442 -0.04520879 -0.013438365 -0.024477938
0001c0 2d d4 c3 bb d1 84 d8 bb 9a b3 10 3d 2d 44 a7 bd
       -0.005976221 -0.00660763 0.03532753 -0.081673004
0001d0 9a 4b 22 bd 2b b8 0e 3d 66 34 20 3c 22 b0 33 3d
       -0.03962288 0.034843605 0.009778118 0.043869145
0001e0 04 9a fe bc 71 2c a3 bc 90 ce 56 3c 41 94 47 bd
       -0.0310793 -0.019918652 0.013110772 -0.04872537
0001f0 3d cf a2 3c a3 d5 13 3d 6f ce 67 3c 0a 5f 01 3c
       0.01987421 0.03609241 0.014148339 0.007896194
000200 ca bc 56 3d f1 a6 b8 3c 48 29 26 3c ba 5d e0 ba
       0.052426137 0.022540541 0.010141678 -0.0017117776
000210 ef 59 6b 3c 5a aa 9c bc 10 3f fe bb ca 7b 31 bd
       0.014364704 -0.019124199 -0.0077589825 -0.043330945
000220 72 f4 68 bd 74 da bb 3a b1 2d ac 3c 0c da 34 bd
       -0.056873746 0.0014332072 0.021017881 -0.04415326
000230 71 bc 77 bc 13 14 af bc fe 21 d2 3c 6a 65 3a bc
       -0.0151206115 -0.021371877 0.025650974 -0.011376718
000240 92 da 8c 3c 94 37 7b bc a1 84 84 bd 5e 35 0b bc
       0.017194066 -0.015333075 -0.064706095 -0.00849661
000250 02 25 f6 bc 8b 2e 67 bd 39 05 5e bd c4 4a 8f bc
       -0.030046944 -0.05644087 -0.0542042 -0.017491706
000260 69 74 71 3c 3d e9 63 bd 7c c1 e5 3c 4b 6e 67 3c
       0.014737227 -0.055642355 0.028046362 0.014125417
000270 32 9c e4 bb ee d7 02 bd 2c aa 29 bd a5 72 bb bb
       -0.0069766277 -0.031944208 -0.041422054 -0.005720454
000280 5e 99 43 3d 71 5b e3 bb d8 2b c9 3c f5 c4 a9 bb
       0.047753684 -0.006938391 0.02455704 -0.00518095
000290 c0 f1 15 bc c0 a5 c0 bc c5 ca 45 bd 0a a2 98 bc
       -0.009151876 -0.023516536 -0.04828908 -0.018631954
0002a0 bd 30 45 3d 45 04 3a 3d 3b 32 29 bd ba 38 72 bc
       0.048142184 0.045414228 -0.04130767 -0.0147840325
0002b0 a1 25 3e 3c ae aa d2 3a 5b 54 79 3c 7d 59 c6 bc
       0.011605651 0.0016072595 0.015217866 -0.024212593
0002c0 0e 2b aa 3a 09 54 8c 3c f0 c1 39 3d b5 81 84 bd
       0.0012982802 0.017129915 0.04535097 -0.06470052
0002d0 43 4b 2c bd d7 0a 9f bb 72 37 53 bd d5 25 a0 3a
       -0.042063963 -0.004853587 -0.05156655 0.0012218306
0002e0 c2 89 d2 3c 9b 6a 8d bc 0b 3f 62 bd 78 ec d8 bc
       0.025700454 -0.017262748 -0.055235904 -0.026479945
0002f0 f6 97 65 3d aa 81 4b 3d 24 0b 31 bc ca 24 04 3d
       0.056053124 0.049684204 -0.010805879 0.032261647
000300 42 c2 b8 3b b4 61 18 bd a2 8f 71 bc c0 38 26 bd
       0.0056383917 -0.037202552 -0.014743717 -0.040581465
000310 37 b6 2c 3d 1d cb e4 bc 1d d4 6d bc 20 9d 6e bd
       0.04216596 -0.027928883 -0.014515904 -0.058255315
000320 64 22 96 bd fd f0 3b 3c d2 f5 d6 3c 63 08 8c bc
       -0.07330778 0.01147103 0.026240263 -0.017093843
000330 d0 bd 02 3d b6 24 1d 3d 3d 9e 6b bd 8b 5e 23 3c
       0.0319193 0.03836509 -0.057523955 0.009971271
000340 db fd 9b 3c e0 d0 88 bc 8e 60 9e bd e4 bd 2c bd
       0.019041946 -0.016701162 -0.0773326 -0.04217328
000350 16 18 95 bc 47 1f 60 3b df 56 00 3d 20 a7 48 bd
       -0.018199962 0.003419833 0.031332847 -0.048987508
000360 56 a6 b5 bc e0 a4 55 bd e0 bb f1 bc 61 f2 b5 3c
       -0.022174042 -0.05215919 -0.029508531 0.022210302
000370 a5 d4 e6 3c 45 94 02 bd 5b 5a 1d 3c 54 7b 24 bd
       0.028177569 -0.031879682 0.009604062 -0.040156677
000380 bb 95 9a 3d 3f 2e 59 bd c0 1c da 3c df 60 bf bc
       0.0754809 -0.05302262 0.026625037 -0.023361621
000390 a2 72 d9 bc 34 de 94 bb 5f bd 9d bc 6d b1 7e bd
       -0.026543919 -0.0045430902 -0.019255338 -0.062180925
0003a0 18 3c 85 bd d0 5f ef 3c e9 a4 36 3d 96 6f 65 3d
       -0.065056026 0.029220492 0.044590864 0.05601462
0003b0 14 a0 2c 3d f6 fd df bc 94 5a 91 bc b8 2e ac 3a
       0.04214485 -0.027342778 -0.017743386 0.0013136482
0003c0 2a 56 c2 bb f6 37 14 3d 2e 30 90 3b 20 2b 94 bd
       -0.0059306817 0.03618618 0.0044002747 -0.07234788
0003d0 18 f5 89 bd 24 d5 a1 bc b1 c0 4a 3d f7 1d 32 3d
       -0.06736201 -0.019754954 0.04950017 0.043485608
0003e0 d8 72 13 bd 4f 95 07 3d e6 12 0f bd c0 25 cc bb
       -0.035998195 0.033101376 -0.034930132 -0.006230086
0003f0 d3 fd 33 3d ff 30 8e bc 48 1a a3 3c f5 65 df 3c
       0.043943238 -0.017357348 0.019909993 0.027270297

l2.bias f4 [256]
000000 bc 97 eb bc ce 2a 51 bc 11 fc 86 3d aa 1c dd bc
       -0.028758876 -0.012766553 0.065910466 -0.026991207
000010 40 4c 13 3e 7a 5e 6b bd d2 23 1d 3d 30 50 2a 3d
       0.14384556 -0.057463147 0.03836424 0.04158038
000020 ae 87 af bb 92 15 69 bd 88 66 09 bd 0c 36 37 bd
       -0.0053567505 -0.056905337 -0.033545047 -0.044729277
000030 5f ed 9b bd 1e d2 82 bd 70 35 0f 3e 7b 15 9f 3b
       -0.07613634 -0.06387733 0.13985229 0.0048548556
000040 7b a6 0d 3e fc a1 a4 3c 2b 1d 4f bd 1d 4a 0e 3e
       0.13833039 0.020096771 -0.050564926 0.1389546
000050 01 e4 f6 3b 3a f6 d5 3c fc 83 5c bd ed 53 df 3b
       0.0075345044 0.026118387 -0.053836808 0.0068154247
000060 1a 87 05 3d 51 b7 10 3d ad 64 b3 3d 2f ac 74 bd
       0.032599546 0.035331074 0.08759437 -0.05973452
000070 a3 f6 e1 3d c0 49 78 bd 02 ca 0f 3e fb dd 97 3d
       0.1103337 -0.06061721 0.14041904 0.07415386
000080 e0 9c 82 3c 0b c1 3a bc 4c 0a 04 3c 0c 9a 1f bd
       0.015943944 -0.011398564 0.008059096 -0.03896527
000090 54 ab 0a 3e 78 37 09 3d 6b 62 96 3d 5a e8 4b bd
       0.13541919 0.033500165 0.073429905 -0.049782135
0000a0 78 4d d1 bc 2c 41 48 bd f2 8c a7 3d 91 14 1a bd
       -0.025549635 -0.048890278 0.0818118 -0.03761727
0000b0 e6 28 ba 3c fc e6 51 bd 54 3b 29 bd 29 22 d4 3d
       0.02272458 -0.051245674 -0.041316345 0.10358078
0000c0 8b 25 81 bc af 88 44 3b 50 50 5b bc c1 60 88 bd
       -0.015764972 0.0029988696 -0.013385847 -0.06659079
0000d0 d8 7d 13 3d b7 b5 c3 3d 64 e2 ca 3d 76 e7 ad 3d
       0.036008686 0.09556144 0.09906462 0.08491413
0000e0 50 be c4 bc 9e c3 76 3c e8 da 52 bc 55 3b b5 3d
       -0.02401653 0.015061287 -0.012869574 0.08849207
0000f0 b1 81 0c 3e 6e 25 11 3c 96 59 59 3a 54 f5 1c 3e
       0.13721348 0.008859022 0.00082912424 0.1532796
000100 e4 82 5e 3c 0a 05 b8 3d 96 19 07 3e b4 8e d5 3d
       0.013581011 0.08985336 0.13193354 0.10427609
000110 7d b0 86 bd 92 4e a5 3d 85 b6 c1 bd e7 e8 e8 3b
       -0.06576631 0.08071627 -0.09458641 0.0071078422
000120 a8 3f 8e 3b e8 4a a8 3c dd 96 cd 3d 34 93 7f bd
       0.0043410845 0.02054353 0.100385405 -0.062396243
000130 cc 37 71 bd 61 18 86 3c 71 78 2c bd cd 68 f7 3c
       -0.058891103 0.016369047 -0.04210705 0.03020134
000140 05 2a 0d bd c5 0a b6 bc 7b 53 0e 3d f8 be 69 bd
       -0.0344639 -0.022221932 0.034747582 -0.057066888
000150 5f d9 9e bd 10 45 09 be a1 c8 46 3d b6 db 60 3d
       -0.07756304 -0.13405252 0.04853118 0.054897033
000160 1f 99 63 bb 73 2f 02 3e da e6 47 bd c0 bc 84 bd
       -0.0034728718 0.12713413 -0.04880414 -0.06481314
000170 80 39 0d 3d 78 0e 1a bd da 34 ba bc 7d 55 81 3a
       0.034478664 -0.037611455 -0.02273028 0.0009867396
000180 3d 24 41 3d c6 1d 70 3d 8b 6f 11 bd 03 7a 10 bd
       0.0471537 0.058622144 -0.035506766 -0.03527261
000190 96 2a a4 bd a6 36 4f bb 74 97 56 3d 60 76 23 3d
       -0.08015935 -0.0031618266 0.05239053 0.039907813
0001a0 01 16 21 3d e3 00 11 bd 87 e5 48 bd ce ab 0a 3d
       0.039327625 -0.035401236 -0.04904702 0.033855252
0001b0 35 e4 86 3c af 7e 11 bd 27 41 ac 3c f8 9f a9 3d
       0.01646624 -0.035521206 0.02102716 0.08282465
0001c0 a9 42 4c 3d 7b 9f 1f 3d d8 48 0d 3e 71 04 6a bd
       0.04986826 0.03897045 0.13797319 -0.057133142
0001d0 ae 6a 7a 3d 6b 6d b0 bc 2a 61 0b 3e 2c f2 d9 bc
       0.061136894 -0.02153655 0.13611284 -0.026604734
0001e0 df 66 6b 3d 06 64 07 3d 91 86 88 3d eb 9f 5c bd
       0.057471152 0.033054374 0.066662915 -0.053863447
0001f0 c0 24 c3 3d 2f fb d2 bb 13 c3 03 3d be 74 2c bd
       0.09528494 -0.006438635 0.03216846 -0.04210352
000200 7b e9 a2 3c fe c6 de bd 3c ab 1f bd da 72 8e 3c
       0.019886723 -0.108777985 -0.03898166 0.01738875
000210 5e 55 5f 3d 55 95 3c 3d 16 6f 98 bb 5f 47 ed 3a
       0.054524772 0.04604085 -0.0046519144 0.0018102935
000220 ba 1b f7 b9 1e e0 ea 3d 2c aa e1 bb 87 f1 2d 3d
       -0.0004713217 0.11468528 -0.006886741 0.042466667
000230 e4 f8 73 3d d4 8c 09 3e 20 98 95 3c 10 cf 3f 3d
       0.059563532 0.13432628 0.018261015 0.04682833
000240 20 42 07 bc c8 48 dd 3d 95 8a 0a bd 1f cc bb 3d
       -0.0082555115 0.108048975 -0.03382357 0.091697924
000250 ce 12 1f bd 0e 18 2a 3d 52 8b ab 3d 89 19 84 bd
       -0.038836293 0.041526847 0.083761826 -0.06450183
000260 3a d5 cc bc 6a 0d 1c bd df 05 4d 3d 5a c3 17 3d
       -0.025004018 -0.03809873 0.050054427 0.037051536
000270 b6 bb 2c 3b 22 a1 8f 3d 7c eb 58 bd ed ff 20 b9
       0.0026357002 0.070131555 -0.05295895 -0.00015354129
000280 f7 36 05 3e 6e 8d d3 bc ed 34 a1 3c b6 f9 a4 3d
       0.13009249 -0.025824275 0.019678557 0.08055441
000290 c0 75 27 bd a6 29 99 bb c7 16 88 3d 96 c1 3b bd
       -0.04088378 -0.0046741543 0.066449694 -0.045838915
0002a0 f0 98 ce bc 29 de 58 bc 9b 94 22 3d e9 b0 ef 3d
       -0.02521941 -0.013236561 0.039692502 0.11703665
0002b0 15 f9 8b 3d 50 1e 23 bd 27 5d ee bc 01 ff 50 bd
       0.06834618 -0.03982383 -0.029097153 -0.05102444
0002c0 41 fe 16 3d 72 28 5d 3d d3 af 0c bd b4 87 d8 3d
       0.03686357 0.05399365 -0.034347367 0.10572758
0002d0 9f a8 7d 3d 51 b7 27 bd 3c b5 82 3c 3f 1c 98 3d
       0.061928388 -0.04094631 0.01595556 0.074272625
0002e0 f4 37 0a 3d ac 80 ee 3c cf bb df bc cf ed af 3d
       0.033744767 0.02911409 -0.027311234 0.0859028
0002f0 76 3c 11 bd 99 41 8c bd aa 7e 02 3e 30 83 35 bd
       -0.03545805 -0.06848449 0.12743631 -0.044314563
000300 f6 31 f5 bc 86 90 6a 3c 18 cb 80 bc fe 5c 20 3d
       -0.02993105 0.014316684 -0.015721843 0.039151184
000310 45 ee 0a 3e 6f 86 d4 3d 3d 6f 1c bd d4 09 64 bd
       0.13567455 0.10377204 -0.038192023 -0.055673435
000320 fb 49 1c 3d c6 8c 01 be dc 89 1d 3e 33 81 8c bd
       0.03815649 -0.12651357 0.1538462 -0.0686058
000330 98 6a f3 3c a1 27 d0 3d 27 8c 1a bd e5 d6 17 3d
       0.029713914 0.101638086 -0.037731316 0.037070174
000340 4f ae 47 3d 5b 7d 1b 3d 60 e9 a2 3c 34 be 07 3c
       0.048750218 0.037961345 0.019886672 0.008285094
000350 d7 fc 80 bd 9f 67 95 3d 52 09 74 3c dc 59 3f be
       -0.062982254 0.07295155 0.0148948 -0.18686622
000360 ca d0 14 bd ad ff 7d 3d 25 0d 05 bd 9c ad 01 3c
       -0.03633193 0.06201141 -0.03248324 0.007914927
000370 fe de 66 3c e1 17 66 bc 3b c6 26 3d 47 e2 92 3a
       0.014091251 -0.014043779 0.04071639 0.0011206352
000380 fb 86 fd 3d df c9 28 3c e2 3d b8 3d 42 60 1a 3e
       0.12379261 0.010302036 0.08996178 0.15075782
000390 b8 d4 de 3c cb 91 b8 3d 0b bb 15 bd a7 29 95 3d
       0.027201042 0.09012183 -0.03655533 0.07283335
0003a0 94 4c 30 bd 06 bf 34 3d dc 2e 8d bd ba 1a 9e 3b
       -0.04304178 0.044127487 -0.06893703 0.0048249634
0003b0 28 fa 3b 3d 84 9a 4a 3d d9 33 22 3e 99 7d 81 3c
       0.045892864 0.049463764 0.15840091 0.01580696
0003c0 78 56 87 3c e3 08 8f bc 27 73 79 3d 42 fc e4 bc
       0.016520724 -0.017460292 0.060900833 -0.027952317
0003d0 da 51 92 3c e1 82 f2 3c f0 06 e3 3d 70 3c 11 bc
       0.017861295 0.029603424 0.110853076 -0.008864507
0003e0 20 00 4f 3b eb 41 de 3c c1 04 8c 3d 9e ae e8 3d
       0.0031585768 0.027131042 0.06836844 0.113614306
0003f0 94 a4 d1 3d 2f ff 29 bc 41 66 7d bd ef 61 8d 3d
       0.10236469 -0.010375782 -0.061865095 0.06903445

l3.weight f4 [1, 256]
000000 14 d2 57 3b 98 3a dc bf 36 1c 81 3f 82 b4 56 3e
       0.0032931613 -1.7205381 1.0086734 0.20967296
000010 50 b9 73 3f 32 f5 3e bd 13 af 04 3f b4 4e 9b bc
       0.9520464 -0.046620555 0.5182964 -0.018958427
000020 84 a9 2b bd 18 b3 74 bc e9 7a c3 bf f8 c0 f7 3c
       -0.04190971 -0.014935277 -1.5271884 0.030243382
000030 e1 5c 77 3b 7d 9d b2 bc c8 63 ca 3e a2 c8 e0 bf
       0.003774457 -0.021803612 0.39529252 -1.7561228
000040 8b ae c5 3e 0f cb ba bf 9a a8 c1 ba 64 67 5f 3f
       0.38609728 -1.4593219 -0.0014774979 0.87267137
000050 cd ab 7c 3c 3d 7b 2e bd 8d 02 ee bc f8 6d ff bc
       0.01542182 -0.042597998 -0.02905395 -0.031180367
000060 69 87 3b bf 25 02 ce bc 46 2c d6 3e 0a 6a 1c bc
       -0.73253495 -0.025147507 0.41830653 -0.009546766
000070 5b 56 c9 3e ab 29 45 3c 33 7b 7f 3f ac 33 ae 3e
       0.39323696 0.01203386 0.9979736 0.34023798
000080 90 b6 89 bb 02 6c f0 bc 40 fa 2d bd 55 17 e8 bc
       -0.0042026713 -0.029348377 -0.042474985 -0.028331438
000090 66 64 d7 3e 56 03 fa 3d 08 c2 96 3e c5 b8 dd bf
       0.42068785 0.122076675 0.2944491 -1.7322012
0000a0 cc 1c 1d bd 87 03 1d 3d 31 c5 d4 3e 54 8c 8f bc
       -0.03835754 0.038333442 0.41556695 -0.017522968
0000b0 21 b8 ce 3e a9 2b 4b bf 3e 1c 24 bd 10 5b af 3e
       0.40374854 -0.79363495 -0.040065996 0.34249163
0000c0 a9 2a 3b bb aa ef d8 3e 9a 9c e0 3c 68 0b a9 bc
       -0.0028559363 0.4237035 0.027418423 -0.020635322
0000d0 21 b3 f9 bf 5e 9f 04 3f dc 98 ff 3e a7 c8 fa 3e
       -1.9507791 0.51805675 0.4992131 0.4898121
0000e0 58 a8 04 bf 2d 07 c2 3e a5 b7 10 bd fa a0 7c 3f
       -0.5181937 0.378961 -0.035331387 0.9868313
0000f0 1c c3 6c 3f 4e 35 28 bf 49 63 29 3e af 2f fa 3e
       0.92485213 -0.65706336 0.1654178 0.48864505
000100 cd d3 2f c0 ed e0 c9 3e 65 f6 65 3f 3d d1 44 3e
       -2.7473023 0.39429417 0.89829093 0.19220443
000110 c4 a2 51 bf a1 01 cd 3e 7d f3 78 bf 29 04 dd bc
       -0.81888986 0.40040305 -0.97246534 -0.026979523
000120 c6 74 c9 3e dd 50 c3 3c 87 31 ca 3e f9 63 af bc
       0.39346904 0.02384227 0.3949091 -0.021409975
000130 14 35 42 bb 78 eb e2 bf ab ea 12 bb 69 82 dc 3e
       -0.0029633688 -1.7728109 -0.0022417705 0.43068245
000140 10 f4 15 3d 84 4e e6 bc e0 cd 2d bd ef 87 8a bc
       0.03660971 -0.028113611 -0.042432666 -0.016910521
000150 a6 cb f0 be 68 44 53 bf 41 a6 66 bf d4 9f 7c 3f
       -0.4703037 -0.82526255 -0.90097433 0.9868138
000160 d2 82 4b bd b0 96 c6 3e 36 d9 3c 3c 38 72 32 c0
       -0.049685307 0.3878684 0.0115263965 -2.7882214
000170 96 dc 2d 3e 76 dd a1 bf 5b c9 db bf b6 1d d2 bf
       0.16978678 -1.264571 -1.7170824 -1.6415317
000180 7e 25 98 bf 26 6f 72 3f 19 5b d5 be dd 9d 2b c0
       -1.1886442 0.9470085 -0.41671064 -2.6815102
000190 8a 51 ae bf 38 bf df bc 7b 75 01 3f b4 fc bd 3e
       -1.3618634 -0.02731286 0.50569886 0.3710686
0001a0 2f 56 0f 3e b1 8b e7 3b 04 7a 24 bd 32 f5 cc 3e
       0.1399772 0.007066213 -0.040155426 0.4003082
0001b0 c1 b1 d5 bf 4c 05 84 bf 8a 3c 02 3b 07 72 cf 3e
       -1.6694871 -1.0314116 0.001987251 0.40516683
0001c0 bd 08 11 3f 99 e2 d2 3e 52 0b f4 3e 91 3f 1f 3c
       0.5665396 0.41188505 0.47664887 0.009719745
0001d0 fc a1 06 3f 9d 24 8b bc 52 0a 06 3f a6 1b 87 bf
       0.5259092 -0.016985232 0.523595 -1.0555313
0001e0 e2 0a 17 bd 45 c2 9b 3e 4c b7 b1 3e c9 f0 b6 bf
       -0.036875613 0.30421653 0.34710157 -1.4292232
0001f0 9e 46 8d 3e 91 26 1c bd b7 b5 1d 3b da 9b 5e 3b
       0.2759294 -0.038122717 0.002406461 0.0033967406
000200 c0 0f fd bc 9e 93 14 3f 39 ad de 3c e4 7c f1 be
       -0.0308913 0.58037746 0.027182208 -0.47165596
000210 03 f5 18 c0 45 b4 cc 3e e8 15 21 bd e2 86 c2 bb
       -2.3899543 0.39981285 -0.039327532 -0.0059364894
000220 c7 9b 27 3e 01 68 65 3f 1c 36 8b 3e f9 fa 86 3e
       0.16368018 0.8961182 0.2718972 0.26363352
000230 a7 04 d4 3e cb 45 b6 3e 95 dd 12 bf 70 0c ea 3e
       0.414098 0.35600123 -0.5736936 0.45712614
000240 bc ce de 3c 7d 73 7f 3f 62 7e f3 bf 58 5e f6 3e
       0.027198188 0.99785596 -1.9022944 0.48118854
000250 84 8b 58 be cb 6d d6 3e f7 2b da 3e 94 9d 93 bf
       -0.21146971 0.4188064 0.42611668 -1.1532464
000260 ce d3 65 bc dc 4a 2f bd 88 29 0e bf 92 45 f8 bb
       -0.014027549 -0.042796 -0.5553212 -0.007576653
000270 29 65 bd 3e 80 27 82 3e f0 65 40 bf 7c b4 24 bc
       0.36991242 0.2542076 -0.75155544 -0.010052796
000280 6d d9 c2 3e ab 10 cc bc 22 74 bb 3e 7a ca e0 3e
       0.38056508 -0.024910292 0.3661204 0.43904477
000290 4c ce 3e 3d ca 69 f0 3c 44 af ce 3e 1b 32 13 3d
       0.04658346 0.02934732 0.40368092 0.035936456
0002a0 38 15 5c bd 68 63 53 3d d0 67 26 bd d2 20 15 3f
       -0.053731173 0.051608473 -0.040626347 0.58253205
0002b0 7e cf f9 3e 38 1b e9 3c 7b ce 64 bd ea 5b 26 bf
       0.48791116 0.028455362 -0.055860978 -0.64984
0002c0 e2 c0 c3 bc 12 e3 b9 3e 4d 95 4c bf 57 e9 c7 3e
       -0.023895685 0.36306053 -0.79915315 0.39045212
0002d0 09 d6 9b 3e 20 61 83 3b f8 7a b7 3e 6d 53 07 3f
       0.30436733 0.004009381 0.35836005 0.5286167
0002e0 a3 67 15 bf c1 ff 89 3a f2 93 05 bd 3c 96 f3 3e
       -0.5836126 0.0010528491 -0.032611795 0.47575557
0002f0 70 a2 e5 bc d0 d5 fe b9 16 49 f2 3e 49 f1 01 bb
       -0.028031558 -0.00048605958 0.47321385 -0.0019827655
000300 28 a0 b4 bb e9 de c0 3e bd 83 8a bf 41 a0 f5 3e
       -0.005512256 0.37670067 -1.0821453 0.47973827
000310 81 2b 81 bf a7 f9 f4 3e 69 39 32 bd 36 23 00 bd
       -1.0091401 0.4784672 -0.04351178 -0.03128358
000320 e0 50 e5 3e 78 4f 6f bf 07 8d 80 3f d3 b2 0a bd
       0.44788265 -0.93480635 1.0043038 -0.033861946
000330 a2 22 ed bf 87 14 d8 3e 38 d0 27 bf d9 ef 8b bc
       -1.8526194 0.4220316 -0.6555209 -0.017082142
000340 2e e9 6a bf 90 38 95 bc 81 27 9d 3d 69 38 1d bd
       -0.91762054 -0.018215448 0.076735504 -0.038383875
000350 1e b4 31 bd aa 2a d8 3e 72 62 18 bf e8 ae b9 3e
       -0.043384664 0.4222005 -0.59525216 0.36266255
000360 1c 30 66 bc bf 5f 15 c0 f8 a7 4a bf a7 04 11 bd
       -0.014049556 -2.3339689 -0.7916255 -0.035404827
000370 07 9b d3 3e 66 00 4c bc 21 4b 5f 3e a4 8b 23 bd
       0.41329214 -0.012451267 0.21806003 -0.039928094
000380 1f df b5 3e e3 58 43 bd 5b fc 6d 3e 4b 60 70 3f
       0.3552179 -0.04769219 0.23240797 0.9389693
000390 cd 1e 86 39 50 10 e5 3e ab 9c 24 bd ef bf c3 3e
       0.0002558142 0.44739008 -0.040188473 0.3823237
0003a0 fe e8 2a bd ed b2 d5 3e 34 3b 4e 3c b9 63 f6 bf
       -0.041726105 0.41738072 0.012587357 -1.9249183
0003b0 69 6f e5 3e a8 9b 00 3f 0f 2e 77 3f e0 e5 49 3e
       0.44811562 0.5023751 0.96554655 0.19716597
0003c0 1e f5 df 3e f1 26 e7 bc 96 c7 2b 3e ab 29 5b bc
       0.43741697 -0.02821681 0.16775355 -0.013376634
0003d0 d6 8f ab bf 8b db 79 bf 29 40 c8 3e 40 3c c3 ba
       -1.340327 -0.9760062 0.3911145 -0.0014895275
0003e0 c2 ec 61 bd fe 8a a8 3e 0e f7 bb 3e a6 6f 7d 3f
       -0.05515743 0.32918543 0.36711925 0.98998487
0003f0 c6 5d ae 3e 11 f0 a2 3e cd 03 c5 be b0 e8 37 3e
       0.34055918 0.3182378 -0.38479462 0.17959857

l4.weight f4 [256, 6]
000000 29 50 1c bf 86 84 81 3e 6c 19 5a be 79 47 a2 3f
       -0.61059815 0.2529642 -0.2129876 1.2678062
000010 e2 fd a8 3e 8b 95 87 bd e1 fd ea 3c 68 2c 8a be
       0.33006197 -0.0662032 0.028685512 -0.26987004
000020 9b 5a d1 be eb ed 8d bf 5d 5c 12 be bb 8f a4 be
       -0.4088944 -1.1088232 -0.14293046 -0.32140908
000030 12 bd af 3e 8e 70 f5 3d 83 28 47 be 4b 89 69 3f
       0.34323937 0.11984359 -0.19449048 0.9122512
000040 19 a6 5f be 6f d6 43 3d 64 1e ff 3d 19 3c 4a 3e
       -0.21840705 0.04781192 0.124569684 0.19749488
000050 9d 2f f1 3d 7a 13 b8 3e 0c b2 a7 3e 20 03 5a bd
       0.1177666 0.3595236 0.32753026 -0.053225636
000060 bf ab 54 bd 91 fa 7f bd fb 0b 9e 3e cd 1d ac bf
       -0.051921602 -0.062494818 0.30868515 -1.3446594
000070 7b fc d5 be 87 2f f4 3d 75 e6 11 3f 33 54 6e be
       -0.4179419 0.119231276 0.56992275 -0.23274307
000080 e5 e2 af 3e 45 d1 90 bf 9e c3 a8 be 92 dc 82 3d
       0.34352794 -1.1313864 -0.32961744 0.06389727
000090 20 92 64 3c 04 99 fa 3c cc de b3 be bc a4 dc 3d
       0.013950855 0.030590542 -0.35130918 0.10773608
0000a0 35 2c 7a 3e f1 20 ae 3e 35 d5 2d bf f7 81 02 bf
       0.24430926 0.34009507 -0.67903453 -0.5097956
0000b0 87 31 5b bd 21 bf a7 bf 99 c9 a9 be 18 0f 75 3c
       -0.05351403 -1.3105203 -0.3316162 0.014957212
0000c0 8a 0b f5 3d 2c 8b 45 be f6 84 7b 3e 78 94 c4 3e
       0.119650915 -0.19291371 0.2456244 0.38394523
0000d0 3e 31 2d bd 68 52 fc bd 56 bd 15 3f a1 21 29 3e
       -0.04228329 -0.12320405 0.5849203 0.16516735
0000e0 9b 7b a2 be 95 83 a1 bf 00 aa 02 be a6 21 83 3d
       -0.31734928 -1.2618281 -0.12760162 0.06402902
0000f0 69 b4 e7 bd 6b 70 48 3d 49 ee a6 3e 25 11 ad 3f
       -0.113137074 0.048935335 0.32603672 1.3520857
000100 a6 97 40 3e 69 ab 3c bd d9 c8 02 3f b8 20 f9 3e
       0.1880785 -0.046061907 0.5108772 0.48657775
000110 42 60 b6 be 81 d1 ba 3f 25 ef b7 3e 23 56 21 bd
       -0.35620314 1.4595186 0.3592464 -0.039388787
000120 49 68 ab be ff bb a2 3d db 37 70 bb d0 1f b4 3f
       -0.33478 0.07946014 -0.0036654386 1.4072208
000130 63 02 c8 be 56 2c 4d 3e 6d 42 ba bd de c4 15 3f
       -0.3906432 0.20036444 -0.09094701 0.5850352
000140 83 a1 1c be c2 15 92 3f f7 22 07 3f 67 53 30 bd
       -0.15295987 1.141289 0.5278773 -0.04304829
000150 4f bd 88 3e ae 6e 05 bc f0 87 99 bd ce 55 12 3f
       0.2670693 -0.008144064 -0.07496631 0.5716218
000160 4e 1c e2 bd f2 6d a0 3d 32 72 6b 3f 65 fe cb 3e
       -0.11040555 0.078334704 0.91971123 0.39842525
000170 aa 83 72 be a2 8c f3 be 41 50 84 3d f4 4c 0a 3d
       -0.23683038 -0.47568232 0.0646062 0.033764794
000180 74 94 63 3d e3 6a 0d be f4 bd 6c be c0 d8 6f bd
       0.055561498 -0.13810305 -0.23119336 -0.05855632
000190 d4 e9 e3 bd 77 38 ae 3d 1e 06 fd 3e be b8 c7 3e
       -0.111285836 0.085068636 0.4941873 0.39008135
0001a0 f2 76 ad bd 98 10 8f 3f a2 a3 ee 3d 36 4f 86 39
       -0.08469953 1.1176939 0.11652304 0.00025617488
0001b0 b4 e0 00 be 5f 8c 27 3e c7 67 ac 3d 76 f3 d3 be
       -0.12585717 0.16362141 0.084182315 -0.41396683
0001c0 59 3b 55 3e 17 43 e0 3e 52 b2 09 be 9c 44 67 3e
       0.2082342 0.43801185 -0.1344693 0.22584766
0001d0 98 a8 16 3d 51 ec 67 bf ea ef 46 3d 6c c9 6a bd
       0.036781877 -0.90594965 0.048568644 -0.057320997
0001e0 18 d9 2c bd 72 ac c7 bc 22 49 2a 3e ee 20 7c 3e
       -0.042199224 -0.02437422 0.1662946 0.24621937
0001f0 16 7b ad bd 7a b0 e9 be 7d 71 e4 3e c6 53 99 bc
       -0.084707424 -0.45642453 0.44617835 -0.018716704
000200 56 95 7e be b6 a2 91 3f 04 5a 00 bd 0b 70 02 3e
       -0.24861655 1.137778 -0.031335846 0.12738054
000210 3a 0f 2b 3e 5d 33 fb 3d 22 2b 8f 3e dd 68 67 3f
       0.16705027 0.12265656 0.27962595 0.90394384
000220 36 67 48 be bd 9d 00 3d bb 29 91 be d1 e4 1b 3d
       -0.19570622 0.03140043 -0.2835215 0.038060013
000230 4a 7e 8c 3d 4d 2f 59 bf 96 a6 68 be b7 74 57 3d
       0.06860025 -0.848378 -0.22719797 0.052601542
000240 34 a2 39 bf ec f2 2a bf 3b 36 32 3e de 6e 88 3e
       -0.7251313 -0.6677692 0.174035 0.26647085
000250 0b ce 05 bf 2e f1 24 3d 4e 28 85 be a3 8b 22 3e
       -0.5226752 0.04026907 -0.26007313 0.1587358
000260 96 79 e7 3c 36 ed 33 bf 42 9c 75 3d cd 02 66 be
       0.028256219 -0.7028383 0.059963472 -0.22462006
000270 5b 16 b2 be 4a cc 1d 3e c3 1e 93 3e db 69 9b be
       -0.3478268 0.15409961 0.28734407 -0.303542
000280 1a e7 2e be 82 f7 f8 3d fb 3a f4 be d3 ea 06 bf
       -0.17080346 0.12156583 -0.4770125 -0.52702063
000290 17 e0 05 be 4c d9 fb 3d a5 67 8e 3d 4c cb af 3e
       -0.13073765 0.122973055 0.069533624 0.3433479
0002a0 a9 eb f2 bd 13 e7 8a bd b7 ef d8 bc 7d ef 83 bf
       -0.11861355 -0.06782355 -0.026481492 -1.0307461
0002b0 9c d5 68 3e e5 f9 b1 bd a6 7b bf bd d0 08 b3 3b
       0.22737736 -0.08690242 -0.09349756 0.005463697
0002c0 ff eb da bd be cf b1 be 28 05 36 bd 9c ad e3 bd
       -0.10689544 -0.34728807 -0.04443851 -0.11117098
0002d0 eb 18 ed 3e 8f bf 89 3e 4b b8 eb be 0b 2c 51 bf
       0.46308073 0.2690396 -0.46039042 -0.8170783
0002e0 7c 73 b8 bd 2b 9b 71 3e bc 8e 19 be bb 1f a8 3e
       -0.09006402 0.23594348 -0.14995855 0.32836708
0002f0 08 a3 68 be 0d 94 78 3d 75 2e 11 3e ad d1 87 3e
       -0.22718441 0.060688067 0.14177878 0.26527157
000300 14 39 d0 3e 20 68 16 3f 34 88 41 bd 78 e3 70 3f
       0.40668547 0.5875263 -0.047249034 0.9409709
000310 be da a6 3e 2b 0a 16 bc 32 f3 1c bd 7b 43 90 be
       0.32588762 -0.009157698 -0.038317867 -0.28176484
000320 10 86 42 be ae 9e 92 bf 10 8d 87 be f1 b3 1b be
       -0.18996453 -1.1454675 -0.2647481 -0.15205361
000330 cf cb 00 bf 23 7f 2c 3f 21 c9 8b bd 42 90 6e 3b
       -0.5031099 0.67381495 -0.06825472 0.0036401902
000340 37 af 96 be f5 dd a1 3e d2 7b b2 3e 12 7a eb be
       -0.29430553 0.31614652 0.34860092 -0.4599157
000350 b0 36 46 3d 17 7e 64 3f 33 09 9c 3e 11 55 cc bd
       0.048391998 0.892549 0.30475768 -0.09977163
000360 96 e4 fc 3e c5 2f 9f 3e 16 53 93 be 7b 16 58 3f
       0.49393147 0.31091133 -0.28774327 0.844093
000370 50 99 9f 3e bb e9 32 bd 80 b2 3c be 80 c1 d6 3d
       0.31171656 -0.043679934 -0.18427467 0.10486126
000380 83 93 9b 3e 52 7e 39 3f 34 18 f3 bc 01 00 19 be
       0.3038598 0.72458375 -0.029674627 -0.14941408
000390 9e 11 cd be e0 e8 b1 3d 8a 3c 41 3d 7d f5 3f be
       -0.40052503 0.086869955 0.047176875 -0.1874599
0003a0 2b 5d ac be 46 78 f5 bc 42 81 24 bf 73 5c bf be
       -0.33664832 -0.029964577 -0.6425973 -0.3737522
0003b0 97 47 0d 3e a9 a5 19 bf c9 b2 8b be 2a 70 92 3c
       0.1379684 -0.600184 -0.2728484 0.01787575
0003c0 de c1 18 3d 68 52 04 bf 85 3e 31 bd ba c5 19 be
       0.03729426 -0.5168824 -0.043272514 -0.15016833
0003d0 6a 5b e2 bd cd 26 71 3e ef f6 ea 3d 5c a2 a7 3d
       -0.11052592 0.23549958 0.1147288 0.081852645
0003e0 ea 08 85 3e fd e8 af 3e 3e ef 16 3e 1f ca 1e 3e
       0.25983363 0.34357443 0.14739701 0.1550679
0003f0 d1 de 9c 3d 2c 35 6b be 56 b6 a6 3e 94 90 51 be
       0.07659686 -0.22969502 0.32560986 -0.20465308

l4.bias f4 [256]
000000 89 84 49 be 49 87 92 3d 3b 34 5e 3e 4e 03 a0 3e
       -0.19679464 0.0715471 0.21699612 0.3125252
000010 b1 9e a7 3e 90 9f d7 3d 05 ac 2e be 11 fc d4 bd
       0.3273826 0.10528481 -0.17057808 -0.1039964
000020 78 20 a2 bc 0e 1d e5 3c 3a 63 19 3d ba 2b d7 3d
       -0.019790873 0.027967956 0.037448145 0.10506387
000030 8b 11 9d 3d b3 58 a2 be ba 8e dc bc af f2 0a 3e
       0.07669362 -0.31708297 -0.026923526 0.13569139
000040 8f 3e af be 5d c8 4a 3d a8 ec a0 be 2a bc 20 3e
       -0.34227416 0.049507488 -0.31430554 0.15696779
000050 73 df b7 be 95 50 25 3e 4c cd 69 3b c0 f9 9a 3e
       -0.35912666 0.16144021 0.0035675345 0.3026867
000060 0e f2 31 be 73 ba a6 3e cb ab ec 3d e7 73 8a be
       -0.17377493 0.32564124 0.115562044 -0.2704155
000070 a2 a4 19 3e 79 e5 a7 be ef b5 02 3e fd 09 84 bc
       0.15004209 -0.3279226 0.12764715 -0.016118044
000080 06 04 3a bd d8 50 28 3e 00 b7 b2 bb 35 bc 59 be
       -0.045413993 0.1643709 -0.005453944 -0.21263202
000090 49 26 7d 3d bd f4 86 3e c8 ee 20 3e 70 01 12 bb
       0.06180409 0.26358595 0.15716088 -0.002227869
0000a0 cf d5 bf bb 40 0e 05 bd b5 6a 12 3e 5a 6b 3c 3e
       -0.0058543454 -0.032484293 0.14298518 0.18400326
0000b0 14 84 ca 3e 07 5b 07 3f 41 a2 ca be 3d c4 cc be
       0.39553893 0.5287327 -0.39576915 -0.39993468
0000c0 2e e0 cb 3d b3 f5 99 3e 68 c2 c7 be fb 51 a4 3e
       0.09954868 0.30070266 -0.39015508 0.32093796
0000d0 72 46 bb 3d 33 bc 55 be 8c 5b be bd ad 61 13 3e
       0.09144296 -0.20872574 -0.09294805 0.14392729
0000e0 49 8f 45 3d cc 32 c7 be 38 6b f7 bd 1c de ee be
       0.04823235 -0.38905942 -0.12080997 -0.4665383
0000f0 33 20 9f be c9 cb 5f 3e 46 eb d1 3d 82 d7 b3 3e
       -0.31079254 0.21855082 0.10249953 0.35125357
000100 15 46 6f bd a9 b4 85 be e4 9e de bb 81 f3 9b be
       -0.058416445 -0.26114395 -0.0067938436 -0.30459216
000110 38 54 92 3d 69 40 5e 3e 16 ca 28 be 57 14 15 3e
       0.0714497 0.21704258 -0.1648334 0.1455854
000120 bf ad fd 3d 9c 85 2a 3e bf c8 5f 3e 2e c5 b5 be
       0.12386655 0.1665253 0.21853922 -0.35502
000130 af 0b cf 3e 1c ae 9a be 46 05 83 be 5c 2e 17 be
       0.404386 -0.3021096 -0.2558996 -0.14763778
000140 f9 93 cf be 9b cb ad be cb 0b e2 3c 24 8f 18 bc
       -0.40542582 -0.339444 0.027593514 -0.009311471
000150 38 69 5d be 27 7b 2c be e7 82 07 3d c3 72 00 3e
       -0.21622169 -0.16843854 0.033083823 0.12543778
000160 97 7d 36 3e 0c 25 87 3c df 12 83 bd 3e d7 ab 3e
       0.17821346 0.016497158 -0.06400084 0.33562654
000170 25 25 90 3e e4 75 9b 3e 33 1f 6c 3e f4 78 9b be
       0.2815334 0.3036338 0.23058777 -0.30365717
000180 08 a6 a0 3d 5b ca 87 be 12 2b 1c 3d 00 2d 31 3e
       0.07844168 -0.26521572 0.038127013 0.17302322
000190 b4 db 08 3e f2 88 c4 bd 92 0c be be 7c 95 d0 3d
       0.1336506 -0.09596433 -0.37118965 0.10184762
0001a0 49 cf 86 3e ba 86 c8 bd 64 3c ab be 28 fb 44 3e
       0.2633002 -0.09791322 -0.33444512 0.19236434
0001b0 9a 8d a3 bd 4f d0 3c be f9 9f bd be be 45 b2 3e
       -0.07985993 -0.18438838 -0.37036112 0.34818834
0001c0 4e 98 5d 3c b7 6f b5 be 29 8c 44 bc 74 f2 a6 3e
       0.013525082 -0.35436794 -0.011996307 0.32606852
0001d0 50 b8 cb 3e 5a 6d 8f 3e 82 ff 8a bd 31 ec d6 bb
       0.39789057 0.28013116 -0.067870155 -0.006558918
0001e0 97 81 f9 bd 65 eb 02 be 92 b5 af 3e ab 82 7b 3e
       -0.121829204 -0.12785108 0.34318215 0.24561565
0001f0 52 67 a2 3c a5 5c fd bc 0b af 95 bd a8 c1 27 3e
       0.019824658 -0.030927965 -0.073087774 0.16382468
000200 18 46 8e be da 65 b6 bd 76 e4 af 3e 51 25 a3 be
       -0.27787852 -0.089061454 0.3435399 -0.31864408
000210 99 c5 97 be ab d7 d0 be de cf f8 bd 70 7e 83 3e
       -0.29642943 -0.40789542 -0.121490225 0.25682402
000220 ab 56 65 3e 3d 1d 1d 3e 36 f9 bb 3e af fe af be
       0.22396342 0.15343185 0.3671357 -0.34373996
000230 00 77 b3 be 5c 89 05 be b5 6f 8f 3e 44 43 26 be
       -0.35051727 -0.1304068 0.28014913 -0.16236597
000240 51 6a ee 3d f8 36 40 bd e3 28 ba bd 8e 2c 22 3e
       0.11641372 -0.046927422 -0.0908983 0.15837309
000250 20 08 89 be 57 ce af bd 66 49 bf 3c 79 fc aa 3e
       -0.2676401 -0.08584278 0.023350429 0.33395746
000260 61 47 08 3d ab 8c 8e bd d7 c1 0b be 09 bb 01 bf
       0.033271197 -0.06960424 -0.13648163 -0.5067602
000270 09 c6 d2 3e b7 53 62 3e 2e 54 99 bd af 97 00 be
       0.41166714 0.22102247 -0.07486759 -0.12557863
000280 1b e6 9b be c3 84 10 3d 76 00 8a 3e 66 69 b5 3e
       -0.30448994 0.03528286 0.26953477 0.35431975
000290 eb da a9 3e 85 92 b8 bc 02 af c3 be 48 c3 3c bc
       0.33174834 -0.022530803 -0.38219458 -0.011521168
0002a0 16 1c 8d 3e 24 70 bd 3e 31 ee e1 bd 8a ab f8 3d
       0.2756049 0.3699962 -0.110317595 0.121420935
0002b0 38 f2 da be 8f 7c e3 3e 7c 89 40 be e6 d7 20 3e
       -0.42762923 0.44430968 -0.18802446 0.15707359
0002c0 88 74 66 be 80 92 f4 bc 86 0f 48 3c 3c a1 68 bc
       -0.2250539 -0.029855013 0.012210732 -0.0141985975
0002d0 2b 94 1b be bb 26 21 3e 09 ff d0 be 38 ed 24 3d
       -0.1519324 0.15737431 -0.40819576 0.040265292
0002e0 df 54 92 3e 68 2e 87 be 71 51 cc 3e 33 da 29 bd
       0.28580377 -0.26402593 0.39905885 -0.041467857
0002f0 96 55 93 3e d4 e4 e8 be 12 bf d9 bd f7 40 48 bd
       0.28776234 -0.45487082 -0.10632147 -0.04889008
000300 af 71 69 3d dc 7d b5 be cf 5a 9d 3e 38 f5 20 3e
       0.056993183 -0.35447586 0.30733344 0.15718544
000310 a9 e3 34 3d 6e 85 79 bd d8 ec 10 be 4a 88 1b 3d
       0.044162426 -0.060918264 -0.14152849 0.037971772
000320 aa a3 52 bd aa 84 2e be b3 c9 95 3d 1d 81 33 be
       -0.051425613 -0.17042795 0.07313862 -0.17529722
000330 1b 3d e6 be 6f 48 45 3e 5a 97 bb be 0f 71 88 3e
       -0.44968495 0.19265912 -0.3663891 0.26648757
000340 6e d2 65 be 9d c1 28 3e fa ce 48 be ae 51 76 be
       -0.22443554 0.16480108 -0.19610205 -0.24054596
000350 ef 4d d9 be f9 61 01 3e c3 3c 09 3e 31 ba 0d be
       -0.4244227 0.1263503 0.13402085 -0.13840558
000360 54 b5 d3 be 31 87 34 be af 98 bc 3e 68 6a 26 be
       -0.4134928 -0.17629696 0.36835238 -0.16251528
000370 8f 4b 74 be 1f 0e 79 3e 95 59 11 be 65 e1 e0 be
       -0.23856948 0.24321793 -0.14194329 -0.43921962
000380 84 7d 90 bd 7b e8 0d be 2c 36 e6 3b f6 30 aa be
       -0.0705519 -0.13858216 0.0070255008 -0.3324048
000390 78 aa 06 3e a6 84 2b 3e ff 73 b1 3c b5 7e f8 bd
       0.13150966 0.1674982 0.021661757 -0.121335424
0003a0 57 dc 99 3d e0 37 02 3e fa 7d 3c bd bc e3 98 3e
       0.075127296 0.12716627 -0.046018578 0.29861248
0003b0 3a b3 f3 be cc bb 77 3e cd e3 c2 be da ff 6f 3e
       -0.47597677 0.24192733 -0.38064423 0.23437443
0003c0 31 af 32 3b c1 ae 35 be 3d 4e 5f bc 98 c8 87 bd
       0.0027265067 -0.17742445 -0.013629493 -0.06630057
0003d0 42 1c d1 be 21 f2 84 be 1f 43 ab 3e 14 44 0c be
       -0.40841872 -0.2596598 0.33449647 -0.13697845
0003e0 96 58 04 3e c5 78 bf 3e 7b b4 e8 bd 08 bf 17 bd
       0.12924418 0.37396827 -0.11362549 -0.037047416
0003f0 d8 79 84 be 27 90 b3 bd 8c 4f 8b 3c 34 c1 e5 bb
       -0.2587421 -0.08767729 0.017005704 -0.007011557
