Project/upload/Part1_q4/noise/InvertedPendulumBulletEnv-v0_TD3_2001_1638458513_td3_q4.pth (torch, 818223 bytes, 15 tensors)

l1.weight f4 [256, 6]
00000000: fb8f fdbe 55ad 4f3e 9fb5 f33d cbb1 573f
00000010: 5f45 613e a60e 1ebd 5c88 4e3e fd83 7fbd
00000020: ff37 cdbe 254d 68bf 2480 10be 9ca3 003d
00000030: 7e1e 4e3f 77d3 cbbe c0e1 afbe dd7b aebf
00000040: 2c60 dcbe 4432 753d 6cb8 f2bd 15a1 71be
00000050: 311d 9bbe c00d 493f 9eab e13e 15ad 0ebe
00000060: 4c99 cdbe e0e6 3b3d 4086 86be 9b58 003f
00000070: e6a5 ee3d 21c6 853e 72a3 f5be 22d4 dcbd
00000080: 915e c3bd 1923 4b3f d858 273e f20d 063e
00000090: ccbf c2be a54a a93e 6c32 8cbe e053 be3f
000000a0: 9232 bd3e 0e85 78bd e93e 793e c3a1 25be
000000b0: fd48 c03e df9e 6ebf 5ba3 8e3e a3fe 8b3e
000000c0: e1a9 333f f837 d73e 8b32 4f3e ef21 813f
000000d0: 97ba 753e f5cb fdbd 7c0e 4d3d 4849 cb3d
000000e0: d844 663d a332 6f3f 233d febd 14ab 923e
000000f0: 2091 883b 6d24 cb3d 57de 013e ed68 813d
00000100: 6971 773e a1c4 06be 4685 6e3e 6839 293e
00000110: 113e 96be 46a7 993f e3bd 63bd 9fa5 02be
00000120: cfc1 91bc 2dbc 8f3e f2e4 5a3e 6fbe 0e3f
00000130: b22f f4bd d704 2ebd a497 963b 40d8 873e
00000140: f4b2 cdbc e0f6 17bf 990d 053e c27c bd3d
00000150: 7559 4e3f 445b ea3c 1b54 6e3d 0321 37bf
00000160: d850 5bbd 2542 513e 5bfc 173f c25e a83e
00000170: 2dcf 813e 14ec 9d3f 1308 933e a170 06bd
00000180: e416 e63e 9d42 9abe da22 dcbe eaf0 923f
00000190: e1f1 ea3e 727a 47be d1c7 0f3f 54e0 aebe
000001a0: 58cd 2cbe 6b91 96bf 39d5 c4be 71db 513d
000001b0: f30c c83d bcdd 29be 3178 76be 9d82 94bf
000001c0: a4a4 b9be 816f 613d 52c5 dfbe 7b2d 9fbe
000001d0: 2a7f ccbe e74e 23bf e75e 56be e6c1 2dbe
000001e0: 6e55 b8be 2847 fe3d 3fe2 ae3e 30fa 073f
000001f0: d0fd 1e3e 2707 813e 56bf dc3d 95f1 23bb
00000200: 24d2 cb3d ab62 2c3f 1b34 633e b644 29bd
00000210: 8b2e 863e 86fe 8bbd a031 aa3e cf95 afbe
00000220: 0f54 4f3b cbe8 03be caad c8be 5c06 243e
00000230: 152b ce3e 777b c4bd be3d 3f3e d123 413e
00000240: 18fe 60bf a8dc 7bbe 4776 4fbe 0852 c9be
00000250: c6e8 08be eba4 1ebe f186 c13d a787 e43e
00000260: b511 373d 62f6 a43f 9019 e13e 3865 53bd
00000270: b791 3f3e e040 c73e aa43 c33d 6dd4 b53d
00000280: f29b 8a3e ab8a 4e3d 4f7d 6f3d 460c a83d
00000290: 9455 81be a7ab 963e e926 9ebd 3558 903e
000002a0: 86bb ab3f 85b8 e13e f692 6b3e 2f21 9c3f
000002b0: 6dba 953e c059 a5bc e6f2 b23d c072 f33e
000002c0: bf56 653e afbf 2ebf 763e 413d 0d71 1fbe
000002d0: e0a6 ebbe 202c 2c3d 170f 8ebe 105c a2bf
000002e0: b689 abbe b79b b13d 50be 26bf 93db a6be
000002f0: 746a 44be 826b 4cbf 1b7a a1be dfb6 0e3d
00000300: 6752 083f 4f6e 0a3d 4dff ca3d 8f8e 52bf
00000310: 7811 0d3e e1cd 10bd 0f7a 733f b77b 743e
00000320: 41ab 7ebe 2a93 0fbf f0b8 873d 4cec 0a3d
00000330: 0925 a63e 7a14 1dbe aa66 3e3e e09f 90bf
00000340: 5c1e 5ebe 778f 1d3d ca0a abbe 65b2 bc3e
00000350: 0bde abbe b7e9 ba3e 0d46 133e 2a5c 973e
00000360: c947 543f adc3 cf3e aaa7 99be d677 633f
00000370: 98d3 723e 66d0 46bc 5bb1 2c3f b043 9c3e
00000380: 8cdc 20be 87d2 a53f 7338 9a3e 9ab9 48bd
00000390: d3e3 86bd eccd 81be 36fd ea3c b616 6bbf
000003a0: 126c 3f3e 88c6 353e 7f13 383f 1d8e dbbe
000003b0: d888 98bc 2d13 31bf 58da 0d3e 2b00 84bd
000003c0: a58b 2ebf 7e78 02bd 9ebb 63be d211 503f
000003d0: eda7 013e d61a e8bc 14cc 4bbd e5fd 07be
000003e0: b8de e03e 28aa 3ebf b459 93be b9ed 133d
000003f0: 4fbf 2cbe d5bb 17bd fab8 afbe 5bdf 9cbf
-0.4952391 0.20280965 0.11899876 0.84255666 0.21999119 -0.03858819 0.20169204 -0.062381733
-0.40081784 -0.90742713 -0.14111382 0.03140603 0.8051528 -0.39809772 -0.3435192 -1.363155
-0.43042123 0.05986239 -0.11851582 -0.23596604 -0.3029571 0.78536606 0.44076246 -0.13933213
-0.4015602 0.045874476 -0.262743 0.501352 0.11652736 0.26127723 -0.4797626 -0.107826486
-0.095395215 0.7935043 0.16342485 0.13091257 -0.38036954 0.33064762 -0.2738222 1.4869347
0.36952645 -0.060673766 0.24340405 -0.16174988 0.37555686 -0.9321117 0.27859005 0.2734271
0.7018109 0.42034888 0.20234124 1.0088481 0.2399696 -0.12392417 0.05006264 0.09926087
0.056218 0.9343664 -0.12414005 0.28646147 0.004167691 0.09919057 0.12682472 0.06318841
0.24164356 -0.13160945 0.23293027 0.16525805 -0.29344228 1.2004173 -0.055601012 -0.12758492
-0.01779261 0.28073254 0.21376398 0.5575933 -0.1192316 -0.042485084 0.0045957137 0.26532173
-0.025109746 -0.59361076 0.12993468 0.09252311 0.8060525 0.028607972 0.058185678 -0.71534747
-0.053543895 0.20435388 0.5936944 0.32884794 0.25353375 1.233767 0.28717098 -0.032822255
0.4493934 -0.30128947 -0.4299534 1.1479771 0.45887664 -0.19480303 0.5616427 -0.34155524
-0.16875207 -1.1763128 -0.38443926 0.051234666 0.09768095 -0.16588491 -0.24069287 -1.160236
-0.36258423 0.05503798 -0.4370523 -0.31089386 -0.39940768 -0.6379227 -0.2093464 -0.16968498
-0.36002678 0.12415916 0.34156987 0.5311613 0.1552651 0.2520077 0.10778682 -0.002501582
0.099521905 0.67338055 0.22187845 -0.041325293 0.26207384 -0.06835656 0.33240986 -0.34293982
0.0031635796 -0.12881772 -0.3919509 0.16018051 0.40267244 -0.095938616 0.18675897 0.18861319
-0.87887716 -0.24595892 -0.20259963 -0.39320397 -0.13370046 -0.15492599 0.09449566 0.44634745
0.04469462 1.288769 0.43964815 -0.0516102 0.1870793 0.38916683 0.0953439 0.088784076
0.27072102 0.050425213 0.058469113 0.08205466 -0.25260603 0.29427835 -0.07722265 0.28192297
1.3416603 0.4408609 0.2300528 1.2197627 0.29243794 -0.020184398 0.087377355 0.47548485
0.22396372 -0.68261236 0.047178708 -0.15570469 -0.46025753 0.04203427 -0.27745888 -1.2684345
-0.33503503 0.086722784 -0.65134144 -0.32589397 -0.19181234 -0.79851544 -0.31538472 0.03484237
0.53250736 0.033796605 0.09911976 -0.8224878 0.13776195 -0.03535259 0.9510812 0.23875318
-0.24870016 -0.5608393 0.06627071 0.033916757 0.3245013 -0.15339842 0.1859385 -1.129879
-0.21691269 0.038466897 -0.3340667 0.36854854 -0.33567843 0.36506435 0.14382191 0.29562503
0.82922035 0.40578976 -0.3001073 0.8885473 0.23713529 -0.012134647 0.6745812 0.3052039
-0.15709132 1.2954873 0.30121192 -0.04900513 -0.06586423 -0.25352418 0.028685194 -0.9183153
0.1869357 0.17751515 0.7190475 -0.4288186 -0.01861994 -0.69169885 0.13852823 -0.064453445
-0.6818183 -0.03185319 -0.22239539 0.8127719 0.12661715 -0.028333109 -0.04975517 -0.13280447
0.4391992 -0.7447839 -0.28779376 0.036115382 -0.16869853 -0.037044365 -0.34320813 -1.2255663

l1.bias f4 [256]
00000000: b385 363e e383 4b3e 1c38 afbd e238 7ebe
00000010: e56f 56be a6f1 e4bd f47e 69be a3c5 d6bb
00000020: 2b3d 5f3d ac3f b8be e217 8a3e 42ec f03e
00000030: c435 ae3e 8456 b03e c8ae 07bd 7d75 e3be
00000040: 03f2 a4be 7876 67be 3131 08be 903e a13e
00000050: c6bb fd3d 9899 883e 2188 ebbe 066e 0b3d
00000060: 7abe b8bd 3ff7 cb3e 2d63 b53e 9d6a 59bd
00000070: 21fb acbe 0d40 673b 1338 3abe 24be 483b
00000080: e6de 133d b108 0a3e d3d6 eabe 27ca 76be
00000090: 5387 7e3e d4e5 98bd 5f68 c03e 4ff9 1dbd
000000a0: 32fc 19bd 938f 57bc e7e5 a4be d221 c3be
000000b0: 763f ecbd e1eb d0be 6e7c 8dbd 81dd 7cbd
000000c0: 8142 5bbe d757 f8bd fe27 063e 4469 bb3e
000000d0: 3c85 b43e 2890 323e 9575 bebe e903 033e
000000e0: 9f2d d6bd 7f4d 343e e5af 6fbe 6751 bd3e
000000f0: 13f7 20be ff98 863e d088 963e dcd0 05bc
00000100: e6d3 813c 7b6b ba3d 8abe 31be 55cc 413e
00000110: 5891 a1be 38de bdbe 0eff c5be fe7d 59be
00000120: 8d3b e53c 68e3 9c3e 9d07 8e3e c229 563e
00000130: 3467 a4bd 81cb 133e ae15 4b3e 2cd1 d93e
00000140: de30 2dbe caa6 99be 1a6f eabb 22d5 a8be
00000150: 8434 a03e 6690 54bd 8e73 863d 74af 95be
00000160: efce dc3d b127 bfbe 141c c03e eb2c f23d
00000170: 19d1 99bd 5377 0dbd f624 213e 01b8 0c3c
00000180: 7396 553e 2d19 25be f8f4 413e 9d0c ddbd
00000190: 8cb2 b7be 0f66 583e f018 cc3d d3b2 1b3e
000001a0: 005c bbbe 1b0b 033e f9b8 353b 42d9 86be
000001b0: 8dd8 6c3e 07c1 58be 0bdb 22bd 120d 5ebe
000001c0: 3ed8 cb3d 79c0 393e cecf 7bbe 49ab 1fbe
000001d0: c060 64be a92f b8be 68ba c1be 96ef c8be
000001e0: b995 2b3e a1f9 c9bc aa8c af3e 76a2 953e
000001f0: 1608 083e d0a8 dc3c d54e 363e 122b 3d3e
00000200: 301f 003e 695c 88be d158 dd3d cac4 ff3c
00000210: dc25 b8be 7456 3bbe e391 b93d 19a9 163e
00000220: 9871 a5be 2251 0c3e 3f8c 25be ee36 b4be
00000230: 99dc 8ebe cc48 bf39 0721 c23e eb39 073e
00000240: 5be2 68be c13e ad3e c6c2 693e 35e8 a33e
00000250: 1cc9 f93c fb25 8bbe d8ca ccbe 268c 073e
00000260: fe1c 793d 8b0e 46bc e302 a43e 17f4 aabd
00000270: 2ca1 093c 727e 5b3e acd7 8ebd a4ac 893e
00000280: a867 9c3e d45f 3d3e 6936 72be b326 443e
00000290: 8c30 8e3e 00cc c23e 2bfb b83d 51fb 043e
000002a0: d391 cd3e 55b3 123d c5ca 0bbd 5245 ac3e
000002b0: 5419 c83d 4c32 a03e 9bce 97be 9d06 01bd
000002c0: 4d1c a7be e68e 0abf 9c0c a6be 04d1 a83e
000002d0: 81d8 12bc 2c6f ca3e 4642 22be 4f58 20bd
000002e0: 6045 bbbe bd83 703d 92cf ad3e b7bc 783e
000002f0: 76ea 763e 65f9 28bd 0443 6b3e f3fa 7dbe
00000300: 36d1 5b3d 1995 3c3d 6af1 6e3c d505 a13e
00000310: 6393 323e 75f8 303e f68a 15bd 8ed2 6ebd
00000320: 1190 dbbe 5242 eabb 723f a2be 9ecb 7fbe
00000330: fff6 e5bd 8e20 693e d8d8 7abe 8e20 783e
00000340: 84cc 6fbe ee0f 333e 6469 6d3e 0079 a5be
00000350: 982e 7d3d 6688 d1bd 3589 f6bd 1a0b a43e
00000360: f4d1 853c a78e 94be 6a1b 1ebe 6a1e d53e
00000370: 23b1 c03e 412b 99bd f8ed c33e e9a9 c8bd
00000380: 6322 b1be 8c59 c53d af6b 86be 2b53 0cbc
00000390: fc04 7a3e cb58 5abe 0d91 b2be 30ab 82be
000003a0: 6b4c 723e 3201 353d f9b1 7cbe 609a aebe
000003b0: d2a1 a2be f5a1 5dbc b3b3 8a3e 091f a53e
000003c0: 3c03 863e 3dda a73d 71b7 bbbe c401 cc3e
000003d0: 02d7 643d f178 843e b058 b33e 3c22 b7be
000003e0: 4651 35be 61e8 b3be d4f8 49be 8ba2 773e
000003f0: 938b c93e 6100 ccbe 24ea c43e 800c d2be
0.1782444 0.1987453 -0.08555624 -0.24826387 -0.20941122 -0.11178903 -0.22802335 -0.006554322
0.054501694 -0.35986078 0.26971346 0.4705525 0.34025395 0.34441006 -0.03312567 -0.44425574
-0.3221589 -0.22603786 -0.13300015 0.31493044 0.123893306 0.26679683 -0.46002296 0.034040473
-0.090207055 0.3983707 0.35427228 -0.05308019 -0.33785346 0.003528598 -0.18185453 0.003063091
0.036101244 0.13479878 -0.45867023 -0.24100552 0.2485631 -0.07465711 0.3757963 -0.038567837
-0.037594028 -0.013156789 -0.32206652 -0.3811174 -0.11535542 -0.4080496 -0.06908499 -0.06173468
-0.21412088 -0.12126129 0.13101193 0.3660375 0.352579 0.17437804 -0.37199083 0.1279446
-0.1045792 0.17607687 -0.23406942 0.36976168 -0.15719251 0.26288602 0.29401255 -0.008167472
0.015848111 0.091025315 -0.17357841 0.18925603 -0.315562 -0.37083602 -0.38671154 -0.21239468
0.027982498 0.30642247 0.27740183 0.20914367 -0.08027497 0.144331 0.19832489 0.42542398
-0.16913173 -0.30010062 -0.0071543576 -0.32975107 0.31290066 -0.05189552 0.06565009 -0.29235423
0.10781657 -0.3733497 0.37521422 0.11824974 -0.07510585 -0.034537625 0.15736756 0.008588792
0.20858173 -0.16122885 0.18941104 -0.107934214 -0.35878408 0.21132682 0.09965694 0.15204935
-0.36593628 0.12797205 0.002772866 -0.2633763 0.23129483 -0.21167384 -0.039759677 -0.21684673
0.09953354 0.18139829 -0.2459099 -0.15592684 -0.22302532 -0.35973862 -0.3783753 -0.3924529
0.16756333 -0.024655165 0.34287006 0.2922551 0.13284335 0.026935965 0.1780351 0.18473461
0.12511897 -0.26633003 0.10807956 0.031221766 -0.35966384 -0.18294698 0.09061029 0.14712943
-0.32313228 0.13702825 -0.16166781 -0.35198158 -0.27902678 0.00036484597 0.37915823 0.13205688
-0.22742598 0.3383694 0.22828206 0.32013097 0.030491404 -0.27177414 -0.39998507 0.13237056
0.060818665 -0.012088428 0.32033452 -0.08347338 0.008400243 0.21434954 -0.0697473 0.26889527
0.30547833 0.18493587 -0.23653568 0.19155388 0.27771413 0.38046265 0.090322815 0.12986495
0.40150318 0.035815556 -0.034128923 0.33646637 0.09770456 0.31288373 -0.29649815 -0.031500448
-0.3263878 -0.54124296 -0.32431495 0.32971966 -0.008962751 0.39537942 -0.15845594 -0.039146718
-0.36576366 0.058719385 0.33947426 0.24290739 0.24112877 -0.041253466 0.22974783 -0.24802761
0.053666316 0.046040628 0.014583925 0.31449762 0.17439036 0.17282279 -0.036509477 -0.05830627
-0.4288335 -0.0071490193 -0.3168903 -0.24980018 -0.112287514 0.22766325 -0.24496782 0.24231169
-0.2341786 0.17486545 0.23184735 -0.32318878 0.061812013 -0.10231094 -0.12037889 0.3203972
0.016335465 -0.29015085 -0.15440145 0.41624767 0.37635145 -0.07478953 0.38267493 -0.09798033
-0.34596547 0.0963622 -0.2625403 -0.008564751 0.24415964 -0.21322934 -0.3487629 -0.2552123
0.23661964 0.044190593 -0.24677266 -0.34102154 -0.31764084 -0.013527383 0.27090225 0.3225024
0.26174343 0.081959225 -0.36663392 0.39845097 0.05586911 0.2587352 0.350286 -0.35768306
-0.17706785 -0.3513823 -0.19723827 0.24183099 0.393643 -0.3984404 0.38459885 -0.41025162

l2.weight f4 [256, 256]
00000000: 5467 813d cb87 adbf ba05 b8bf 58b0 da3d
00000010: 63f8 3cbe 3a13 903c 7852 50bf 3174 a5bc
00000020: 18db 40bd 0339 8cbd 283f 4d3d 7eba d9bc
00000030: bb3e aa3c e610 093d f67a 02bd 38b8 99bf
00000040: 52eb 153e 0cc3 93bf 4bf2 9ebe 22bd a2bc
00000050: 6b4d 0a3d 7a81 173d abf4 cabc 01b3 443d
00000060: e930 3abd 17a9 e03c 76d9 aabc bee6 30bd
00000070: 50e5 0cbf 487d 17bd 7244 84be 2a6a 6abe
00000080: 5add 67bd 263c 3a3e a44f abbf dd17 c33c
00000090: 1623 4fbf c445 47bf 4f17 3c3d c30f 5dbe
000000a0: 2b35 213e 5afc d63d 5bf1 a6be df09 c43a
000000b0: 1766 94be fc2a 59be 72b2 c3bf 0e85 663a
000000c0: 532f 31be 3d86 74bf 22f2 a43d 6e71 acbd
000000d0: 2dab 183d cd8c b63d fbe7 bebe 3ecf b5bc
000000e0: 340b 80bc 5a9c 3bb9 2a34 cb3e faf6 f43c
000000f0: 87c7 4cbf 7015 273b 743c 73be 46bc a9bd
00000100: 0eaa bdba dd54 d3bd 3929 d3be 0846 533e
00000110: 404b 8abd dd9a e13b 6e2d 273d 7e0d 083e
00000120: 90c3 973d 59c1 0c3d 686c efbc 7ecd 7c3d
00000130: 3178 51ba ab29 5b3d b8af 05be ed0f a43c
00000140: e8e1 913d 6716 36bd 39d4 9abb a049 973c
00000150: d7dd 423d 5b58 babd 057d ef3d 3513 17be
00000160: eccf 3f3b 0294 4abc 02f7 813d e73d 253d
00000170: 2872 27bf d995 c13b 9dfc b13d fcf0 0d3d
00000180: 3801 683b 84db bb3d 0cc6 e1bd d200 6fbd
00000190: b488 8dbe 0623 573d e500 d53c 9258 24be
000001a0: 690f 4ebb ef6e fbbd bce6 353c 3e17 c93c
000001b0: 9aec 7cbf 025c 513e 505e fcbe f38b ae3c
000001c0: 9fbd b3bd 417e 403d 9253 0dbf 14a3 c63b
000001d0: 5582 d03b 2cb9 cd3c dee7 a83d 471a 043e
000001e0: 7417 c63d 4223 67bf fe7b 033e 3872 acbd
000001f0: 3f3a f1bd bb4a b3be b37e dabc c94d 1dbe
00000200: 5e36 b63d 6386 49bf 6001 343c e4ef 833d
00000210: f5e0 46bd d0f7 cc3d b78c 50be a8fc 1fbe
00000220: 31a5 86be 2d02 c93c 0e06 ac3c 9850 28bc
00000230: ad55 08bd 56ee f8be 5967 2e3c 07d1 35bc
00000240: 8125 0e3d a7ea b03d a647 2f3d 3a51 f03a
00000250: 3d95 a43d 31ac 7ebd 5494 53be 549d ea3c
00000260: 7815 fe3c d448 253c 1aa3 043d 5f95 4bbd
00000270: 7807 c03d 7121 d33e 1892 4b3d ee5c 3f3d
00000280: 18b2 4c3b 324f aa3d 1cc4 033c bec2 7ebf
00000290: b972 2b3d d2ce b9bd 9b39 b33c 202f b73d
000002a0: 2d8f 973d fb0b 7fbd 7217 b5bd 5665 8e3d
000002b0: 7357 873d 5214 bd3d 7443 a83c b353 47bb
000002c0: 8a0c dcbb ec48 dbbe c6a1 64be 00ad ba3d
000002d0: bd4a 90bd c7dd 9c3d c7b2 3bbf 85fe b5bd
000002e0: 2011 96bf 5c3c 29be 0840 ab3c 48f2 573d
000002f0: aa09 b03a 06cd 7fbd c8f7 8c3b ec98 adbe
00000300: 4c1b 203c af10 a2bf 208c bb3c b2ed a6bc
00000310: 8715 c3bd d54f 0abf ffeb b0bd f3c4 9f3d
00000320: a428 9ebe cbb5 4b3b a3c6 a8bc 596b 4ebf
00000330: 2514 07be 858b 9abc 8940 b63c f221 01bd
00000340: dcb8 a83c 0d8b e63d 6b3c 63bd 78af 1cbe
00000350: dfa2 d83b 907d e33d af78 5f3d 4424 22be
00000360: f88d 96be e31e 8f3e 47ef 9abd bcdc ac3d
00000370: a363 4bbd cf2d b0bd 7ba2 7d3c 2672 87be
00000380: 3846 6ebe 5e8b d4bf 0738 103e efa0 c6ba
00000390: 60ff 043d bb47 97bf 815a 9fbe a975 1abe
000003a0: 2a89 4ebe eb36 503d eda0 1fbe 61e5 9cbf
000003b0: 6e5f 99bb 7dfa 683c 86c9 8d3d 9e2f b83d
000003c0: 94e7 babd cffb 9139 490b 34bd d1d1 97bc
000003d0: cc5f 04be 1c4f 2cbd 3de7 683d 6064 56bd
000003e0: 7b73 64be 727e dabd 9001 243c e34b 513c
000003f0: a52a 003d 7741 723d f880 dcbc 2cfa c0bd
0.063185364 -1.3557066 -1.4376748 0.10678166 -0.18454127 0.017587293 -0.8137584 -0.020197006
-0.047083944 -0.068468116 0.05010906 -0.026578184 0.020781865 0.03346338 -0.031855546 -1.2009344
0.14640549 -1.1543899 -0.3104423 -0.019865576 0.033765238 0.036988713 -0.02477487 0.048022274
-0.0454568 0.027424378 -0.020855647 -0.043188803 -0.55037403 -0.036984712 -0.2583347 -0.22892061
-0.05660758 0.18187007 -1.3383679 0.02381509 -0.8091291 -0.7784083 0.045920666 -0.21588044
0.15742938 0.10497351 -0.32606015 0.0014956555 -0.28984138 -0.21207803 -1.5288832 0.00087936304
-0.17303209 -0.9551733 0.08053996 -0.084200725 0.03727262 0.08913574 -0.37286362 -0.022193547
-0.015630342 -0.00017891955 0.39688236 0.029902924 -0.79991955 0.0025494955 -0.2375353 -0.082878634
-0.0014470236 -0.10318921 -0.41242388 0.20632184 -0.06752634 0.006884916 0.04081481 0.13286397
0.074103475 0.03436408 -0.029226497 0.06171941 -0.0007990627 0.053506535 -0.13055313 0.020027125
0.07123166 -0.04445496 -0.004725006 0.018467724 0.047574844 -0.09098884 0.116937675 -0.1475342
0.0029268218 -0.012364389 0.06345941 0.040342238 -0.65408564 0.005907756 0.0869076 0.03465365
0.0035401117 0.09172729 -0.110241026 -0.05835039 -0.2764336 0.052523635 0.026001403 -0.16049412
-0.003144229 -0.12277018 0.011102375 0.024547216 -0.98798525 0.20445254 -0.49290705 0.021306967
-0.08776402 0.046995405 -0.55205643 0.006061921 0.006363193 0.02511271 0.0824735 0.12900649
0.09672442 -0.90288174 0.12840268 -0.08420223 -0.11778688 -0.35017952 -0.026671743 -0.15361704
0.088970885 -0.7872068 0.010986656 0.0644224 -0.04855438 0.10008204 -0.20366178 -0.15623724
-0.26297906 0.02453717 0.02099898 -0.010273121 -0.03328483 -0.48619336 0.010644757 -0.011097199
0.034703735 0.086385064 0.04279294 0.0018334754 0.080362774 -0.062175933 -0.20662051 0.028639473
0.031016096 0.010088164 0.03238211 -0.049703 0.093764246 0.4123645 0.049699873 0.046719484
0.0031234082 0.083158866 0.008042362 -0.99515903 0.041857455 -0.09072651 0.021878054 0.08944535
0.074003555 -0.062267285 -0.088423625 0.06952922 0.066084765 0.092323914 0.020539977 -0.003041488
-0.006715362 -0.42829072 -0.22327337 0.091150284 -0.07045505 0.07659488 -0.7331967 -0.088864364
-1.1723976 -0.16526932 0.020904556 0.05272129 0.0013430614 -0.062451385 0.0043019988 -0.33905733
0.009772133 -1.2661341 0.022893965 -0.020377014 -0.095255904 -0.54028064 -0.08638763 0.07801237
-0.3089038 0.00310837 -0.02060253 -0.8063255 -0.13191278 -0.018865356 0.02224757 -0.031526513
0.02059596 0.112569906 -0.05547754 -0.15301311 0.0066112126 0.111079335 0.054558452 -0.15834147
-0.2940519 0.27953252 -0.0756517 0.08440539 -0.049655568 -0.08602487 0.015480633 -0.26454276
-0.23268974 -1.6605031 0.14083873 -0.0015154163 0.032470107 -1.1818765 -0.31123737 -0.15083946
-0.20169511 0.050833624 -0.15588732 -1.2257501 -0.0046805656 0.014219877 0.06923203 0.08993457
-0.09126201 0.00027844167 -0.043956075 -0.018532665 -0.12927169 -0.042067632 0.05686115 -0.05234182
-0.22309677 -0.10668649 0.010010138 0.01277444 0.03129067 0.059144463 -0.026916966 -0.094227165

l2.bias f4 [256]
00000000: 0d62 c23d 369b 013d 7f58 c1bb 23c0 8a3c
00000010: 8242 65bc 1516 ac3d d413 a33b 474b 4ebd
00000020: 0f16 a43d d31b abbc c8b2 c9bc 740c 443d
00000030: ecb9 2ebb 44fe f0bc f906 0b3d 424c a6bc
00000040: 538a a93c 1369 693d 70b8 f63c 8b91 1c3e
00000050: 4c79 0b3d 9162 73bd 9419 083e 6872 07bd
00000060: 9eef 173e 77db 003e df70 d23d 3f08 6bbd
00000070: 201c 2a39 28d3 883d d10d 0c3d 3af3 053c
00000080: 56b5 b2bc 57cb d73c 82c9 a7bc 7b80 61bd
00000090: e639 b9bc fcd4 fcbc d125 a0bc 405b 81bd
000000a0: 95c4 26bd e8be 71bc d494 143e 7c6d 153e
000000b0: 5a06 44bd e30f e13c 351e 143d fb3b afbd
000000c0: 7f06 04bd 353d e13d 9a27 2ebb 45e6 f93c
000000d0: 76ad e53d 9c0e b43d abf5 9fbc 2d7c 48bd
000000e0: bedd 583c 94e8 733c 920a 93bd 443b cd3d
000000f0: 5f9c f93d 3d00 043d cea1 053e 03aa 21be
00000100: 0345 e43a 5277 df3d b735 32bd 0d69 cd3d
00000110: cbed 093e 2efa a53c ebed f83c f651 bd3d
00000120: 436d 8d3c 3c77 7cba 7400 18bd 64d9 763d
00000130: db6f fe3d 5582 af3c d2b6 26bb 9ea7 d7bc
00000140: a0f3 39bc 6598 d13d f9f6 8a3d 51f6 84bd
00000150: 69a3 6d3d 2e39 db3c ea72 37bd 4029 9a3d
00000160: 9e65 8ebd 75c4 46bd 7bb7 aa3d 3caa 933d
00000170: bb1a caba 3c55 a73d 3c12 a3bc 9471 6c38
00000180: 9edd 61bb 677d 7e3d e801 613c 9caa 82bd
00000190: 45a9 e3bb 1d2e 6ebd 0cf6 ca3d de81 963d
000001a0: 386f 1d3e a52b 153e 0ff2 e23d 7e60 7a3d
000001b0: d567 24bc 96d6 3c3d f78d 51bd 3232 27bd
000001c0: 7f8e 09bd 0ea1 483d b4b1 27bd 61c2 a6bc
000001d0: 55ad 043e 7192 7e3d aa68 b23d cea4 00bd
000001e0: a859 1d3d 2d6b 853d 00fe 95ba 7e2b 1f3e
000001f0: c776 f63c b9fc 9f3d a6d7 86bd 299b f4bc
00000200: f3b1 123e a3a7 583d f041 1f3d c2b5 253b
00000210: 86c7 01bd 7329 98bc cea1 6e3d 3edc 3b3d
00000220: b14f 103e e156 64bd 4c91 71bd 8854 9dbd
00000230: 2765 3b3d d88b 583c 27d2 d43d ffda 113e
00000240: 815e 533c 2851 1b3e 01d5 843d 772a 17bc
00000250: 4830 3f3c 6a8f 8f3b c20b 2fbc fa3b c53d
00000260: b867 873d e70b 81bd f223 8ebd 6be5 ad3d
00000270: ec35 153e a4dd b53d ff0e 7b3b c15e 0f3d
00000280: aaae af3b 9713 52bd 4aaa 4dbc be81 57bd
00000290: 4d59 2ebd 6625 133e 02a7 4f3d c758 053e
000002a0: 1e64 193d f9bb f43d 38ba ef3b 2f51 c9bc
000002b0: 762e 063d 05aa e43d 9483 913c 882a 1e3d
000002c0: 22ed 77bd 5d8c 51ba 0a44 38bd f4f8 0f3e
000002d0: d6b1 c5bb 123e 493d 3344 46bd 617a ddbc
000002e0: 5c37 d93d 3d21 143e 7ed0 a43c c2d8 03bd
000002f0: d48d 6a3d cf73 593d 7cd1 a53c 1c91 1ebd
00000300: 3253 b83b 289d 453d 7a9b 783c 506d 503d
00000310: 1388 cd3c a437 733d 903b ed3d 505c 653d
00000320: 2880 f73c 8f1e aa3d 59ec d93d 0dba e73c
00000330: d49b 3c3d 1f05 2f3d e1a3 c93d 8ca7 76bd
00000340: 1fa6 2c3d 6d91 b43d 1eba cd3d d66a ac3c
00000350: a193 75bd 2cd2 42bd f845 c33d 7a3e 8d3d
00000360: 8a24 ba3c fc33 143d 2a81 4f3d 7146 16be
00000370: d5f4 d13d 3db8 373d 911f e13c 5864 a53d
00000380: c0ec 2cbb 1780 b13d d79a 97bd 3deb 5c3c
00000390: 24bf d7bc 0ed0 ec3d cacf 8fbd b3cb c53c
000003a0: 4614 ca3d 8023 0a3e 66ef dc3c c5e3 173d
000003b0: d8b7 adbd 23be 92bd 8ded 4cbb e6da d03d
000003c0: 05aa 0e3d e2c0 073e 9fee 7b3d bba1 3dbd
000003d0: 0d48 35be f9b7 8f3d 40ae ab3c 1dea 2c3c
000003e0: d15a cc3d 71bf b0bd 1ffa 48bd c7c7 9a3d
000003f0: 4db9 da3c 8363 d3bc a902 673d e5d8 a2bc
0.09491358 0.03164216 -0.005900442 0.016937321 -0.0139929075 0.08402649 0.004976729 -0.05036476
0.0801202 -0.020887291 -0.024621382 0.04786344 -0.002666111 -0.029418118 0.033942197 -0.020300034
0.020695841 0.056984972 0.030117244 0.15289895 0.034051225 -0.059420172 0.13291007 -0.03306809
0.148375 0.12583719 0.10275435 -0.05738091 0.00016222941 0.066809 0.034192864 0.0081756655
-0.021814983 0.026342077 -0.020481829 -0.05505417 -0.022610616 -0.030863278 -0.019549282 -0.06316233
-0.04071482 -0.014754988 0.14509898 0.14592546 -0.04785762 0.027473396 0.03616162 -0.08556362
-0.032232758 0.109980024 -0.0026573897 0.030505309 0.11214726 0.08791849 -0.019526323 -0.04894655
0.013236461 0.014886994 -0.071797505 0.1002107 0.121880285 0.03222679 0.13050005 -0.1578751
0.0017415587 0.109114304 -0.043508258 0.100298025 0.13469617 0.020260897 0.030386886 0.092441484
0.017264014 -0.00096308044 -0.037109807 0.060265914 0.124236785 0.021424452 -0.002543856 -0.026325043
-0.011349589 0.10234145 0.067853875 -0.064922936 0.05801717 0.026760664 -0.044787325 0.07527399
-0.06952976 -0.0485272 0.08335777 0.07210204 -0.0015419343 0.08170554 -0.019906156 5.6372563e-05
-0.003446437 0.06213131 0.013733365 -0.063801974 -0.0069476687 -0.058149446 0.09910211 0.07348989
0.15374458 0.1456743 0.11081325 0.06112718 -0.010034521 0.046103083 -0.05116078 -0.040819354
-0.03358316 0.04898172 -0.040940955 -0.020356359 0.12956746 0.062151376 0.08711369 -0.03140717
0.03841558 0.06514583 -0.0011443496 0.15543935 0.030085934 0.07811875 -0.065841004 -0.029859142
0.14325695 0.052894246 0.038881242 0.0025285338 -0.03168442 -0.018574452 0.058259778 0.045864336
0.140929 -0.055746917 -0.058976457 -0.07682139 0.045750763 0.013216935 0.10391646 0.14243697
0.012900949 0.15167677 0.0648594 -0.009226433 0.011669226 0.00438111 -0.010683956 0.0963058
0.0661158 -0.06301098 -0.0694045 0.08491024 0.14571351 0.08880165 0.00383085 0.035002474
0.0053613978 -0.051288214 -0.012552807 -0.052613966 -0.042565633 0.14369735 0.05069638 0.13022147
0.037448995 0.119499154 0.0073159 -0.024574844 0.032759152 0.11165241 0.017762937 0.03861478
-0.06052888 -0.0007993633 -0.044986762 0.14059812 -0.0060331626 0.04913146 -0.048404884 -0.027035894
0.10606262 0.14465804 0.020118948 -0.03218914 0.057264164 0.05308896 0.020241491 -0.038712606
0.005625152 0.04824558 0.015173787 0.0508855 0.0250893 0.059379235 0.11583626 0.05599624
0.030212477 0.0830661 0.10640783 0.028286958 0.046047047 0.042729493 0.098457105 -0.06021838
0.042150613 0.088168 0.10045265 0.021047037 -0.059955243 -0.047563717 0.0953483 0.06896682
0.022722501 0.03618239 0.05066029 -0.14675309 0.10251776 0.044853438 0.027480872 0.0807578
-0.0026386231 0.08667009 -0.0740258 0.01348382 -0.02633626 0.11563121 -0.070220545 0.024144983
0.09867148 0.13490105 0.026969623 0.037082452 -0.08482331 -0.07165172 -0.003126952 0.101980016
0.034830112 0.13257173 0.061506864 -0.046296816 -0.17703266 0.07017512 0.020957112 0.010553864
0.09978259 -0.086302646 -0.04906666 0.07557636 0.026699686 -0.025804287 0.05639902 -0.019878814

l3.weight f4 [1, 256]
00000000: d15c 9d3e c350 693d 2067 1cbf 504d 673f
00000010: 52c4 9cbc 7b6e fc3d 2c1a 9bbc 774f 52bf
00000020: 8f1f a83e eb9d d53d 6906 5d3c 0ff4 503f
00000030: 0e04 73bf daf7 73bf d236 a7bc a9c8 d0bb
00000040: 75f9 923e 6d26 da3e 5abd 57bc bacc f73e
00000050: 6f0e b13e 8fda 3abf 882c e03e 481d 81bc
00000060: 5a35 fd3e b1c6 7dbf f6dd f93d a33d 4bbc
00000070: 2535 b8bf 320f 573f 98e9 1abf 6f63 223c
00000080: 5277 44bd 9233 f83d 7365 4a3d f9b0 44bd
00000090: e349 4cbd e04b ffbe c3ec 69bd 887c f8be
000000a0: 871e 34bd acd7 80bc 61dc f03e 51da 003f
000000b0: 8e3c 1fbc b717 93bf 697d 0f39 49b8 abbf
000000c0: 03b4 85bf 3c65 e43e 1601 c33e 8262 dabb
000000d0: 24b7 ac3e 22de ee3e 9815 c4bc 1a1b 02c0
000000e0: dddb 77bd 1312 be3d aaba 42bd 2d14 103f
000000f0: 2a95 6b3f e03d 57be 3e86 a63e cde5 48bf
00000100: dfe0 123d 49c7 523e 59ee d6bb 8664 513f
00000110: 244f ef3e 7ca5 56bb da85 46bc e069 56bf
00000120: d50f 83bf d7d9 80bf 5638 10bd e860 b93e
00000130: d1d3 fb3e c14e 69bf 2878 1dbf 73de dcbc
00000140: d380 ce3d 43cb ee3e 8593 a93e ee47 febc
00000150: f030 8fbf 7d08 aa3e ea1f 63bf bf67 ed3e
00000160: 74fd e1bf e86f 53bd 0da9 ad3d fd1f 9b3e
00000170: 9dce 73bf 5fbf af3e e6db 97bf e301 78bf
00000180: 78f2 58bf 8df4 f53e 1221 653f 2e1b 99bc
00000190: 69e3 21bd b9e9 adbc 7abf eb3e 6582 fc3e
000001a0: e7d7 e63e f363 693f ad8a 0d3f 6fd6 a83d
000001b0: 119d 7cb9 5356 a63e 91b2 1cbf 524f 723d
000001c0: 39f7 7c3a 9cb0 b73e a39e 69bc 2594 0a3e
000001d0: 8b5b ad3e 3069 2e3e d036 b33e 1e36 193d
000001e0: c386 fb3e 3546 833e 00c5 ff39 939b 643f
000001f0: 2c65 95bf c61b df3e 007a 703c 2c40 be3b
00000200: 6199 083f aa35 983e 280e 40bc 9986 15bd
00000210: 1891 d4bb e715 89bb 4f2d 023f 0937 9b3e
00000220: 4031 063f 9f12 abbc ec16 9dbc 2c3f 2ebf
00000230: dbaf 113b 68f0 683f a408 6f3f c9f5 f63e
00000240: 4c41 7ebf 6227 ee3e e272 8dbf a14f 993e
00000250: 5ac2 57bf 63c1 4bbd bd13 40bc db21 b03d
00000260: e466 b7bf c142 29bd 3079 35ba 13d5 a63e
00000270: 52b8 fb3e 625c a73e 87d2 9c3c dab2 7bbf
00000280: 561f f53d babc 5d3d 15d5 4abf 8e43 7fbd
00000290: 675e 0cbf 5169 063f 8880 bd3e 7a36 de3e
000002a0: 3597 ae3e 0d59 f43e a288 3dbc da83 063c
000002b0: ad57 7cbf a212 fd3e 4677 8237 e084 053f
000002c0: 7ad2 68bd 6faa 75bf e96e 63bd 90c7 f73e
000002d0: 658e 3a3c 4cfc b13f d41b 9a3b 7bc0 07bc
000002e0: 0297 4d3e c130 723f 1b85 3f3d 8c56 1ebd
000002f0: a1fa e23e 46be f93e 4e7c e83b 4675 e23a
00000300: b85f 26bf 384a 64bf 5572 d53d da73 bbbf
00000310: e1f0 30bd c424 c53e 6ac3 a63e 9d0c 0e3d
00000320: cf5c 23bc ced7 9e3e 3bf0 d53e 7606 0ebd
00000330: 6877 5abf 1fa5 9d3d 8840 b23e f0ec 08bd
00000340: a9cc e03e d4b2 d53e 50ee 903e 9de8 8bbf
00000350: ba1d 36bf d0dd 8439 dc14 b93e 3bde 9d3d
00000360: 2e20 d7be 8bfb bc3e b6da 803e 73bb cbbe
00000370: da91 a13e bb33 023f 2f2e 7ebc 20f9 263e
00000380: ccae d2bc 7d66 45bf 21a9 dbbc 93c7 7bbe
00000390: 239c 0d3b 72e3 2a3f 5ace 13bd e6b2 cd3e
000003a0: 4570 5c3f 9ab2 013f 39c8 d5b9 eb23 9d3e
000003b0: 4fe0 0c40 1214 ffbd 65f0 29bd bcc8 513f
000003c0: 2e2c 2ebf d49a 5b3f 5d1a f33e 81da 69bf
000003d0: e6f3 8640 9603 f33e e50c 89bc f87d debf
000003e0: ed3a a73e 3362 16bf 63f6 b0bc cfdf 0a3f
000003f0: d53f 103b 0c2a 8bbf e276 f53e 49e0 56bc
0.30734876 0.056961786 -0.61094856 0.90352345 -0.019136582 0.1232576 -0.018933378 -0.82152504
0.32836577 0.10430511 0.013490298 0.81622404 -0.9492806 -0.95300066 -0.020411883 -0.006371577
0.28705946 0.42607442 -0.0131677035 0.4839838 0.34581324 -0.72989744 0.43783975 -0.015761033
0.49454767 -0.99131304 0.12200539 -0.012404832 -1.4391218 0.8400756 -0.60512686 0.009911402
-0.047965355 0.12119211 0.049413156 -0.048020337 -0.04987515 -0.49862576 -0.05711056 -0.4853251
-0.043974426 -0.01572784 0.47043136 0.50333124 -0.009719027 -1.1491612 0.00013684262 -1.3415614
-1.044556 0.44608486 0.38086766 -0.006664575 0.33733475 0.4665385 -0.023936078 -2.0329041
-0.060512412 0.09280791 -0.047541298 0.56280786 0.9202448 -0.21019697 0.32524294 -0.7847565
0.035858985 0.20583834 -0.006559175 0.8179401 0.46740067 -0.0032752445 -0.012116874 -0.837553
-1.0239207 -1.006648 -0.035209976 0.36206746 0.4918504 -0.91135794 -0.6151147 -0.02696154
0.10083165 0.4663945 0.3312036 -0.031040158 -1.118681 0.332096 -0.8872057 0.46368214
-1.7655473 -0.051620394 0.084795095 0.30297843 -0.9523714 0.34325692 -1.1863983 -0.9687788
-0.8474498 0.4803814 0.89503586 -0.018689718 -0.039523516 -0.021229612 0.46044523 0.49318233
0.45086595 0.91168135 0.5528973 0.08244025 -0.00024091105 0.32487735 -0.6120997 0.059157677
0.0009649876 0.3587693 -0.014259013 0.13533075 0.33858904 0.17032313 0.35002756 0.037405126
0.49126253 0.256395 0.00048784167 0.8929989 -1.16715 0.43575877 0.014677525 0.0058059897
0.5335904 0.29728442 -0.011722125 -0.036505315 -0.006487023 -0.004183519 0.50850385 0.30315426
0.524189 -0.020882903 -0.019175969 -0.6806514 0.0022230062 0.9099183 0.9337256 0.48234394
-0.99318385 0.46514422 -1.1050684 0.29943565 -0.8428093 -0.049744975 -0.011723456 0.086002074
-1.4328275 -0.041323427 -0.00069226604 0.32584438 0.49164063 0.3268767 0.019143356 -0.9831978
0.119688675 0.05413506 -0.7923139 -0.062320285 -0.54831547 0.5250445 0.37012124 0.43400937
0.34099737 0.4772419 -0.01156822 0.008210147 -0.9857128 0.49428278 1.5552749e-05 0.52155876
-0.05684135 -0.95963186 -0.055525694 0.48394442 0.011386489 1.390512 0.0047030244 -0.008285637
0.20077136 0.9460564 0.0467578 -0.038656756 0.4433184 0.4877798 0.0070948964 0.0017277382
-0.64989805 -0.8917575 0.10422198 -1.464473 -0.04319847 0.38504612 0.32570964 0.034679998
-0.009970858 0.3102402 0.41784844 -0.03467413 -0.8533845 0.0769751 0.34814858 -0.033429086
0.43906143 0.41737998 0.28306818 -1.0930363 -0.7113911 0.00025342265 0.36148727 0.07708403
-0.4201674 0.36910662 0.25166863 -0.3979145 0.31556588 0.50860184 -0.015513941 0.16305971
-0.025718115 -0.7710951 -0.026814045 -0.2458785 0.0021607957 0.66753304 -0.036085464 0.4017555
0.8610881 0.5066315 -0.00040775703 0.30691466 2.2011907 -0.12455 -0.041489024 0.8194692
-0.6803616 0.85783124 0.4748105 -0.91349036 4.2172728 0.47463673 -0.016729781 -1.7382193
0.32662144 -0.5874359 -0.021601861 0.54247755 0.0022010703 -1.0872207 0.47942263 -0.013114997

l4.weight f4 [256, 6]
00000000: 6980 c53d 04ee 86be 33bb 843e c331 353d
00000010: 73b6 fdbd df60 aebd 2ecf b03e f70b 8b3e
00000020: 1de1 e43d 2182 af3e 726d 1e3e d59d bebb
00000030: e6be 3ebe 72ef 613e f901 7cbe 2921 ab3f
00000040: dcb7 373e b367 92bc 9d1e 6bbe 8e09 213d
00000050: 1f37 cc3e 7c7c fdbe 54f9 dd3d f8db 8fbd
00000060: 758c 89bf 20b4 c2b9 1ffc 893e 88c3 743f
00000070: 9cb0 c63d e93e b6bb f071 b4be d099 603d
00000080: 8d9d 07be 3f06 7dbf f955 8fbe c580 cb3d
00000090: 46bb e6be 5a74 e53d f04b 79bd b735 593f
000000a0: d375 e0bc 4209 8c3e a0f2 923e 2ba6 bebe
000000b0: c986 193e 9d86 67bf fb6b 9c3b 7e7a 34be
000000c0: cce8 d63e 5c5d 843e d224 9e3e d316 87bf
000000d0: ea79 073d c35b 7abc 97f9 a13e 2563 04be
000000e0: b2da e5bd 9eee 8bbf 7ab0 41be da57 223d
000000f0: 467a 70be 57a2 553e 89cc efbe 3237 9d3f
00000100: 4fd2 9f3e 331a 64bd 1382 21bf f3d6 1bbf
00000110: 25b8 1cbe ae67 e73e 358a e3be 3807 043d
00000120: 863a edbe 2475 46be efbe 8e3d da0b 8d3f
00000130: 16e0 833e 6235 33ba d97c 663d 2262 8a3e
00000140: 58a3 ce3e 00da afbe f249 53bd 4ed2 81be
00000150: 311d 30bf 3417 68be 5b66 64be 154c e1be
00000160: 5727 e5bd 02f6 87bb c095 f83d e003 863e
00000170: b0f5 543e 9f46 22bf a09e 48be 4cb2 19be
00000180: 2c49 05bf 8fff a13d ae9c 7bbe b14e 813f
00000190: 555e 0f3e 4552 b2be 3eec fa3e 1c60 b43e
000001a0: 63ed bd3e 1c3b 46bf 0a07 fc3d 83e0 7d3e
000001b0: d38c 38bf 7212 aebd e75e a3be 369a 723e
000001c0: 3911 21be 717d eaba 30b3 583f 8b62 cd3e
000001d0: 98fd c9bd 5e8b 283f 94ae 113e 305e 033c
000001e0: e568 28bf 456d fcbd c271 5ebe dc05 0fbf
000001f0: 9db6 da3d 1543 ae3e ccda 463f 2935 2c3f
00000200: 7278 54be 4dd6 083e cff4 8f3e cc91 553a
00000210: 2580 b1be e3d3 823e 42a7 7dbc 722d d03e
00000220: a4d4 fabd d2bc 85be 1af2 abbe afbf eb3d
00000230: 5d32 223d ea5d 9cbe d7d3 953b 2675 26be
00000240: c245 883f e16f f83e 9c2c 90be c032 923f
00000250: 23bc 8b3e a502 80bc 4c28 ac3e ce13 ce3a
00000260: ce7f 15bd df26 1fbf fbd4 e53e 8515 1dbd
00000270: 954d ea3e 7e8c 4b3e 050d 92be ab47 6abf
00000280: c521 c3bd 7af3 83be 1faf 2fbf 2f6d 1d3e
00000290: 8bd3 c5be decc 2d3c b42a cd3e 898e 0c3e
000002a0: 7c28 c8bd ed1a 153d a040 85be 353d babf
000002b0: b2be 67be 5c07 c23d d706 81be 25b0 d3bc
000002c0: 5c4c f2bd 8349 64bf 90fc bcbd 78bb c93c
000002d0: ddcd 20be fd27 183e a05b b3be d082 993f
000002e0: 937d 6b3e 1b0f 18bd 5d94 b5be 917f 52be
000002f0: f879 6d3e b1f0 72bf 3e80 383d c71c af3d
00000300: 8d60 503e 3b7f 82be 78ad c23e 78e4 663e
00000310: 9b0f afbd 07bc 423d 4d56 a1bd 1958 943e
00000320: ed98 9abd 6459 c43e 854f ca3d c984 2d3d
00000330: 072c f93a 3bac af3d 4c33 cf3e a3a2 d83e
00000340: 9964 aabc ce2f 3bbe a126 363f 1b14 0f3f
00000350: 6f73 a4bd df78 7c3f 2bdb bd3e be42 c6bc
00000360: 780a 213e 1d30 83bb 982d c3be eb61 acbf
00000370: 453a fabd 8158 193d 3f79 3dbe 2581 c13a
00000380: 3a27 af3e d1fb ea3e 1516 63bd 414d 393e
00000390: c4af 6c3e 0eee 91be cc3b d7bc 4ec9 99be
000003a0: dc0b 19be edff 153c 57f6 88be 21c9 2bbd
000003b0: d25c d8be 2fc1 8b3e dfc1 f93e 81ff 03bc
000003c0: dace 13bd 3160 933d 4bc2 cbbe c4e0 b63d
000003d0: 5346 a33d 7b42 c43d 0599 42bd d65c 993e
000003e0: b794 ab3e f62e 8f3f da82 893e 0b51 05bd
000003f0: a970 25bf 055e e33d f648 f83d 72e0 193f
0.09643633 -0.26353467 0.25924072 0.04423691 -0.12388315 -0.085145704 0.34533066 0.27157566
0.111757495 0.34278968 0.15471438 -0.005817155 -0.1862751 0.22063997 -0.24610128 1.3369495
0.1794123 -0.017871713 -0.22960897 0.039315753 0.39885804 -0.49509037 0.10838571 -0.070243776
-1.0745989 -0.00037136767 0.26950166 0.95610857 0.09701654 -0.0055616987 -0.35243177 0.054834187
-0.13243695 -0.98837656 -0.2799528 0.0993667 -0.45064753 0.11203833 -0.060863435 0.8484759
-0.027399933 0.27350813 0.28700733 -0.3723615 0.14992823 -0.9043978 0.0047736145 -0.17624852
0.41974485 0.25852478 0.30887467 -1.055384 0.03307525 -0.015280667 0.31635734 -0.12928446
-0.112233534 -1.0932195 -0.18914977 0.039634563 -0.23484144 0.20862709 -0.46835735 1.2282469
0.3121514 -0.055689048 -0.630891 -0.6087486 -0.1530462 0.4519629 -0.4444138 0.032233447
-0.46333712 -0.19380623 0.069700114 1.1019242 0.25756902 -0.0006836263 0.056271408 0.27027994
0.40358996 -0.34346008 -0.05158419 -0.25355762 -0.6879454 -0.22665101 -0.2230467 -0.44003358
-0.11189144 -0.0041491995 0.121379375 0.2617483 0.20796847 -0.6338901 -0.1959176 -0.15009421
-0.52064776 0.07910072 -0.24571487 1.010214 0.14000829 -0.34828392 0.49008363 0.35229576
0.37095174 -0.77433944 0.1230603 0.24792676 -0.7208988 -0.08499612 -0.31908342 0.2369164
-0.15729226 -0.0017890168 0.8464842 0.40114245 -0.09862822 0.6583766 0.14226753 0.0080180615
-0.65785056 -0.12325529 -0.21723083 -0.55868316 0.10679362 0.34035555 0.7767761 0.67268616
-0.20749071 0.13363 0.28116462 0.00081470306 -0.3466808 0.25552282 -0.015481772 0.40659672
-0.12247589 -0.2612062 -0.33583146 0.1151117 0.03959881 -0.305404 0.0045723724 -0.16255626
1.0646288 0.48522857 -0.28159034 1.1421738 0.27291974 -0.015626261 0.33624494 0.0015722455
-0.036498837 -0.6216869 0.44889054 -0.0383506 0.45762315 0.19877812 -0.28525558 -0.91515607
-0.095279254 -0.25771695 -0.6862659 0.15373681 -0.38637957 0.010607926 0.40071642 0.13726248
-0.09773347 0.03640263 -0.26025867 -1.4549929 -0.22631338 0.0947406 -0.2520053 -0.025840828
-0.11830971 -0.8917467 -0.0922786 0.024625525 -0.1570353 0.14859004 -0.35030842 1.1993046
0.22997122 -0.03712378 -0.35464755 -0.20556475 0.23191059 -0.94898516 0.045044176 0.08550411
0.20349331 -0.25487694 0.3802297 0.22548091 -0.085478984 0.047542598 -0.07877789 0.28973463
-0.075486995 0.3834945 0.098784484 0.042362962 0.0019010314 0.08577772 0.40468824 0.42311582
-0.020799922 -0.18279955 0.71152693 0.55890054 -0.0802983 0.98621935 0.37081274 -0.024201747
0.1572665 -0.0040035383 -0.38120723 -1.3467382 -0.12218145 0.03743792 -0.18503283 0.001476322
0.34209615 0.45895246 -0.05544098 0.18095876 0.23113924 -0.28501934 -0.02627363 -0.30036396
-0.1494593 0.009155256 -0.26750442 -0.04193986 -0.42258316 0.27295825 0.48780724 -0.008056522
-0.03608594 0.071960814 -0.3979667 0.089295894 0.07972398 0.09582993 -0.047509212 0.2995364
0.33511898 1.1186206 0.26857644 -0.03254799 -0.6462503 0.11101917 0.12123291 0.601081

l4.bias f4 [256]
00000000: 15c5 593c 7760 08be b9b9 68bd 6551 aebe
00000010: 1d9d aabe 4759 93be 5c0f 6ebe b051 c43e
00000020: e4c2 edbd 790a 12be 4170 bc3d d1d0 e23d
00000030: 86ab 9dbe 7cfe 89bd a096 67be 3cb7 c23e
00000040: 2409 993e e03b ccbe 8a1b 49be 88f6 863c
00000050: 765c e63d b21a 53bd cab4 e5be 03f7 a03e
00000060: 1f72 433e 3705 aabd a347 ae3e 0bbe 39be
00000070: cfeb cbbd 045d aa3e c4e7 35bc ad54 1abe
00000080: 4625 bbbe 4e21 933e 0973 f0bd 9efa 70bd
00000090: b58b 213e 5c32 9a3e 33a5 06bc 573b 4bbe
000000a0: 53ed 97be 3345 02bc deb9 b1be 30c0 30be
000000b0: 118a 22be ae44 f8bd 04d4 ea3d b216 b9be
000000c0: 3077 c23e e4e2 6ebe 107d 6f3e d321 633e
000000d0: 0549 dcbc b26f babd 3b8a b7bd 69dc 453d
000000e0: bfeb 8dbd f366 653e 7227 4ebe 851f 88be
000000f0: 2dcd 1e3d 3e74 edbe 1448 993e d1b3 373d
00000100: 9176 32be c8c2 0abd 5629 bb3e c16d abbe
00000110: bd69 d0bd 2718 d0be 4ddd 7a3e d289 363e
00000120: 8aee a8be 5989 88be f922 d73e 22cd 9b3e
00000130: 1d41 05be 9b6c bd3e 0a29 4a3e 3e28 6f3e
00000140: 2a09 3f3d 93c2 8cbe 394c 873e a72a 613e
00000150: 4367 d1be ba62 a1be 9aca 963e 5b34 fdbe
00000160: 6a59 fa3d e230 323c c2d9 553e 2014 d43e
00000170: 340b 863e 8cc1 1cbd e00a 703e c444 913e
00000180: 9496 8e3e 2ef4 c9be cce8 5a3c d05c 1dbd
00000190: 7f91 37be d359 e9be 9cd6 97be b8ec 4a3e
000001a0: ab99 853e 9dd7 babe c925 aebe b35c 903e
000001b0: db0a 26be cf0e 2dbe 74d3 9ebe cdbb c3bd
000001c0: bcce 843e c8ae 993e b545 3cbe e159 a0be
000001d0: 059f 8ebe 925b a33d a8fe 0bbd 0d0d c73e
000001e0: 8075 163e a319 813e a092 e1be 31f6 4d3e
000001f0: 3861 943e b632 3d3d 11d1 8bbc 3a9e a3be
00000200: b43f ab3e f630 e0bd d13d 373e 7a4a c0be
00000210: d838 9cbe 3e3b 3abd e4cd c0be fb9f 233d
00000220: 4045 553e 8796 2fbd 04e9 8b3d e399 7cbe
00000230: 5176 673e b6ef 963d 2c29 0d3d 4fdb 76be
00000240: 2230 803e 7958 4dbe e431 80be 17bb b33e
00000250: 7536 d13d cb8d 9cbd 09ba 44be 4390 9cbe
00000260: 7029 96be aa77 cbbe 9fd5 693e c254 f83d
00000270: 8d2e 18be 2ef2 5f3e 28c1 edbc 5f16 23be
00000280: b7cb 023e b644 9cbe e2bf 83be 45e2 cabc
00000290: 1bb7 9e3e 169c 3d3e 33e7 c13e 6964 9a3e
000002a0: 4870 35be 7e93 40be eed6 30be 6fbe ed3d
000002b0: f1f3 5dbe 7c6d 2bbe 4e1d 87be 0689 07be
000002c0: 6337 c9bb 4508 eabe 65cf 8f3d 2cfe 183d
000002d0: 28c3 30be a3e2 553e 819f 96bc 648e b2be
000002e0: 8830 863c 0e36 433e 9e2f 323e c7be 2b3e
000002f0: 4785 c53d 9ef5 ba3e d53c 6fbe e8c4 84be
00000300: fa01 7f3e 91b0 cdbe 433d ab3e 9901 3b3e
00000310: 97b7 d9be ac2c ca3c 0e58 6a3e e4fe 95be
00000320: fb29 4c3e c826 543e b8f8 91bd 935f 6f3d
00000330: e5b2 193e 2892 e73e 812d 56bb 28b9 703d
00000340: 6e7c 3ebe d231 833e f69c 48be d365 453e
00000350: b75b 8e3e 6cac c7be 0690 733e a3e0 a53e
00000360: d46c 9bbc 3871 b3be 9d6d 953e 0a76 9abe
00000370: e2df b0bd 93d9 af3e 2a7a 9f3e 1a6c 323e
00000380: 7a1b fb3d 3dfc b7be 601b 6fbe 148a f3bd
00000390: ac94 b3be 76eb 9a3e 096a 8cbd 337d 603e
000003a0: c95d a73e 8a0c 69be 0f60 30be f4e1 b2bd
000003b0: aeb6 c23e b5c0 ca3d 5458 64be f1cf 83be
000003c0: 8abc dcbe ec71 c1be 4f5d 843e 3cd6 a8bd
000003d0: dfff 683e 3d7d b0bd f8c9 8cbe da35 ee3d
000003e0: f4bf 323e 1f3c 54be 0309 433e 309f 503e
000003f0: 857f b73e 1d20 85be a783 8b3d de13 843d
0.013291617 -0.13318048 -0.056817744 -0.34046474 -0.33322993 -0.2877905 -0.23248047 0.38343573
-0.11609438 -0.14261808 0.09201098 0.11074985 -0.30794924 -0.06737992 -0.22616053 0.38030422
0.29889786 -0.3988943 -0.19639412 0.016474977 0.11248104 -0.05153913 -0.44864494 0.31438455
0.19086502 -0.08301776 0.3403903 -0.18138902 -0.09957086 0.3327409 -0.0111026205 -0.15071364
-0.36551875 0.28736347 -0.11740691 -0.058832757 0.1577595 0.30116546 -0.0082180975 -0.19846855
-0.29673252 -0.007951069 -0.34712118 -0.17260814 -0.1587298 -0.121224746 0.1146622 -0.36150128
0.37981558 -0.2332874 0.23387551 0.22180872 -0.026890287 -0.091033354 -0.08961912 0.048305903
-0.069297306 0.22402553 -0.20132235 -0.26586547 0.03876989 -0.46377748 0.29937804 0.04484922
-0.17428042 -0.033877164 0.36554974 -0.33482173 -0.10176418 -0.40643427 0.24498482 0.17826012
-0.3299449 -0.26667288 0.4201887 0.3042994 -0.1301312 0.36996922 0.19742218 0.23355195
0.0466396 -0.27492198 0.2642534 0.21988927 -0.40899095 -0.31520635 0.29451448 -0.49454007
0.12224086 0.010875912 0.2088385 0.41421604 0.26180422 -0.03827052 0.23441648 0.28372777
0.27849257 -0.39444107 0.013361167 -0.03841859 -0.17926596 -0.45576343 -0.2965592 0.19816864
0.26093802 -0.36492625 -0.34013203 0.28195724 -0.16215079 -0.1690018 -0.310207 -0.095573045
0.25938976 0.3001616 -0.18385966 -0.31318572 -0.27855697 0.0797645 -0.034178406 0.38877144
0.1469326 0.25214872 -0.44057178 0.20113446 0.28980422 0.04619094 -0.017067464 -0.31956655
0.3344704 -0.109468386 0.17894675 -0.3755682 -0.30512118 -0.045466654 -0.37657082 0.03994749
0.20827198 -0.042868163 0.068315536 -0.24668078 0.22603728 0.0736994 0.034463093 -0.24107097
0.25036722 -0.20053281 -0.25038064 0.35103676 0.10215465 -0.07644232 -0.19211592 -0.30578813
-0.2932849 -0.39739734 0.22835396 0.12125541 -0.14861508 0.21869728 -0.029022768 -0.15926503
0.12773024 -0.30521172 -0.25732332 -0.024766097 0.30999073 0.18516573 0.37871704 0.30154732
-0.17718613 -0.18806264 -0.17269489 0.11608588 -0.21675088 -0.16740984 -0.26389545 -0.13235864
-0.006140636 -0.45709434 0.07021979 0.037351772 -0.17261946 0.20887236 -0.018386604 -0.3487426
0.016380563 0.19063589 0.17400977 0.16771995 0.09644561 0.36515516 -0.2336305 -0.25931478
0.24903098 -0.40173772 0.33445176 0.18262328 -0.4252288 0.024679504 0.22885153 -0.2929603
0.1993789 0.20717919 -0.071275175 0.058440756 0.15009649 0.45228696 -0.003268093 0.05877033
-0.18602154 0.25623947 -0.19591126 0.19277124 0.27804348 -0.38998735 0.2378541 0.32397947
-0.018972792 -0.35047317 0.2918519 -0.30168182 -0.08636452 0.34345683 0.3114789 0.1742405
0.122611 -0.3593463 -0.23350286 -0.11891571 -0.35074365 0.30257767 -0.06856162 0.2192276
0.3268874 -0.2275869 -0.17224143 -0.087345034 0.3803 0.09900037 -0.2229932 -0.25744584
-0.43112594 -0.37782228 0.2585244 -0.08243987 0.22753857 -0.08617637 -0.2749784 0.11631365
0.17456037 -0.2072606 0.19046406 0.20373225 0.35839477 -0.26001063 0.0681222 0.06449102

l5.weight f4 [256, 256]
00000000: de54 123d a4fb ad3d ab01 033c a665 7fbd
00000010: 3f8f a0bc a4c8 6fbf 439b 673d 2b8c cabc
00000020: ad0d db3d c989 18c0 e23f a4be e18e c3bd
00000030: d3cb 663b 9bbc 703d eba9 a3bf 011c 063e
00000040: 8635 223c 6500 843d 3e61 12bf 6ddb 983c
00000050: 08b2 653d 4a55 10be cddc cdbe ee93 573d
00000060: ef64 283b b4b7 19be 4443 24bd 2d8a 81bd
00000070: c174 39bf 6faa 233d be3a 1cbf 5de3 6ebc
00000080: 0ed0 0c3d 79ac 933d 553c ab3d c40a 20be
00000090: 1c5f 9dbf 2a06 633d 2eac b0be 84e9 883b
000000a0: 6eb3 613d 1bcc 673d 8f9b 6bbd d822 cebd
000000b0: e647 efbe f6e1 1cbf 3ffd 633d 365a 14bf
000000c0: 80ef e13d 0791 413e d0d4 ecbf 7471 0a3e
000000d0: f5bd bf3d c4ab afbf b5c9 9fbc 0cd7 643d
000000e0: 81da 3bbd 0cd9 093b 114d a7be 6a4d 873d
000000f0: ac30 e2bd 58b5 4d3d 74b3 073e ac17 00c0
00000100: ebf4 3a3e 3113 18c0 55b2 b03d 6498 60bd
00000110: 2a5f 503d d7de 23bd 38d8 8b3d 4cba a93d
00000120: 5b48 343d c9b7 e9bd c552 8dbd 2063 803d
00000130: bab5 493d c38b 8c3d 5a95 873d 44cb a83d
00000140: 316e 533e 4181 5ebf 7a06 6d3d 62a3 f33d
00000150: defd bf3e 00cd c43d 850e 463c 806d f7bd
00000160: 352d ee3d ab1b 7ebd 0bc3 df3c 8580 583d
00000170: e619 d93d 82c2 0cc0 5e5e 843d 3eb0 1e3e
00000180: b635 003e 848a 04bf c688 88be 971a 22be
00000190: be12 db3c f549 2b3f b683 05bd 49d0 fbbc
000001a0: 3f72 9e3d fd40 89bf a5fd 60bd c572 343e
000001b0: efe0 e33d aac1 123e 4d67 c1be c432 dabc
000001c0: 464d d83d c468 9f3c 05b1 433c 2402 08be
000001d0: 071a 3dbf edb6 2fbd fbac bf3e 3f19 9a3d
000001e0: b1f2 013e a596 ac3d 9d2b e6bd dee9 dcbe
000001f0: 754f 033e b297 b53d 7a6e 12bf 439a 5bbf
00000200: 0c14 883c b8f7 20bf 5114 c73d e573 603e
00000210: c78f 22bf 6800 423d 0505 f03d 1b1b 113e
00000220: d252 743d 335d 1cbd 2594 a9bc 2e32 48bc
00000230: feb8 c73d ebeb 983c 1e21 8dbb b8b2 de3d
00000240: 0b79 3d3c c70f 93bd c87d 78be 544a 45bb
00000250: 0723 013d ebc0 953d c151 84bd cff9 60be
00000260: da4c 273d af89 c1be 6a2a acbe 1fea 8c3d
00000270: 9acd 09bc 5c0c 5b3d 9262 5fbe b115 fabd
00000280: 9683 0c3d bffd 91bf e6ff 393f 86bb 043d
00000290: 1abd 903d 5a6a 2d3e ffcb f83d 4d30 e0bd
000002a0: 51e0 14be ef2a 163e 9374 08bc cb11 6dbd
000002b0: 8579 b33d 0201 803d 4646 893d 3728 32bc
000002c0: f4a6 763d 4b56 2ebe cf0f 23bd 5833 9dbe
000002d0: bfbd 9bbc 89fb fcbd f1d4 62bf 5e90 98bd
000002e0: 4c14 aa3b f2d4 e93c 66c8 903d 2259 bbbc
000002f0: 387e 48be c0d2 9f3d 978d 0abe d9d8 003e
00000300: 4e4c e5bc c21b 4c3e 34c7 89bd 0580 42bf
00000310: 4675 abbe 7d4c ffbd 5dd8 efbb 502a 0fbe
00000320: fd8a eb3d b012 683c 86bd 153e 8f82 13bf
00000330: 756f f53d 5b11 843c b347 ac3d 101a d83d
00000340: feaf 1c3d 30bb 183e b069 07be cbee bc3d
00000350: 3e2f 073e f1aa dcbd df25 aa3d eaec cfbc
00000360: 5357 0c3d fe01 b9be 6ae1 bbbb adbd 23be
00000370: 309f 493d 01f3 e03d 1b41 883d c924 ecbd
00000380: 461a e43d 9432 5bba 848c d8bb 7ea3 01bf
00000390: 796f 473d c9d6 bb3d ad82 0f3e 0a9b 14be
000003a0: 5e42 133e fc91 e9bd b45f fd3d 184c df3d
000003b0: 784b 143e fa43 3b3d 1150 0ac0 b9e8 47bf
000003c0: ad99 44bf af47 013e 4fcc e03c 04ea 8f3d
000003d0: 7c91 893d c44b 5b3d a10d ba3c 8461 0e3e
000003e0: 988b e43d d4ba 20be 12bb 533d f744 043e
000003f0: 44cc 513d f038 8abd 7f8b 1dbd b2a0 313d
0.035725467 0.08495262 0.007996003 -0.0623528 -0.019599555 -0.9366553 0.056544553 -0.02472504
0.10695968 -2.3834097 -0.3207999 -0.09548736 0.0035216704 0.05877362 -1.278623 0.1309662
0.009900456 0.06445388 -0.5717963 0.018659318 0.056077987 -0.14095035 -0.4020752 0.05263131
0.0025694927 -0.15011483 -0.040103212 -0.06325183 -0.7244378 0.03995746 -0.61027133 -0.014580575
0.034378104 0.07210631 0.08361117 -0.15629107 -1.229465 0.0554258 -0.34506363 0.004178228
0.055102758 0.056591135 -0.0575214 -0.1006524 -0.46734542 -0.6128229 0.055661436 -0.5795015
0.11032009 0.1890298 -1.8502445 0.13519841 0.09362403 -1.3724294 -0.019505361 0.055869147
-0.04586268 0.002103391 -0.32675985 0.066065624 -0.1104444 0.05022177 0.1325205 -2.0014448
0.18257491 -2.3761714 0.08627764 -0.05483283 0.050872006 -0.04000744 0.0682835 0.082874864
0.044014316 -0.11412007 -0.06900553 0.062689066 0.049245574 0.06862595 0.066202834 0.08241895
0.20647503 -0.86915976 0.057867505 0.11896397 0.37498373 0.09609413 0.012088423 -0.12081432
0.11629716 -0.062038105 0.027314683 0.05285694 0.10600643 -2.1993718 0.064633116 0.15496919
0.12520489 -0.5177386 -0.2666685 -0.15830456 0.026742335 0.66909724 -0.032596312 -0.030738967
0.077366345 -1.0722958 -0.054929394 0.17621906 0.11126887 0.1433169 -0.37774125 -0.026635535
0.10561614 0.019459136 0.01194406 -0.13282067 -0.7386784 -0.04289906 0.3743666 0.075243466
0.12690236 0.08427171 -0.11238787 -0.43147177 0.12823279 0.08866824 -0.57199824 -0.8578226
0.016611122 -0.6287799 0.09720672 0.2191921 -0.63500637 0.04736367 0.117197074 0.14170496
0.059649296 -0.03817482 -0.020700524 -0.012218995 0.09752081 0.018667182 -0.0043069264 0.10873932
0.011564503 -0.07180744 -0.24266732 -0.0030104117 0.031527545 0.07312187 -0.06460906 -0.21970294
0.040844776 -0.37800357 -0.3362611 0.068805926 -0.008410836 0.053478584 -0.21814945 -0.122111686
0.034305178 -1.1405562 0.72656095 0.0324054 0.07067318 0.16935101 0.12148284 -0.10946713
-0.14538695 0.14664815 -0.008328575 -0.057878297 0.087634124 0.06250192 0.06702857 -0.010873846
0.060217813 -0.17025106 -0.039809998 -0.30703235 -0.019011376 -0.12352664 -0.8860617 -0.07449411
0.005190408 0.028543923 0.07069473 -0.02286965 -0.19579399 0.07803869 -0.13530575 0.12582721
-0.027990486 0.19932464 -0.06727448 -0.7597659 -0.3348791 -0.12465761 -0.0073194937 -0.13980985
0.11501119 0.014164612 0.14623079 -0.5762109 0.11984149 0.016121557 0.08412113 0.10551846
0.038253777 0.14915156 -0.1322391 0.09225234 0.13201615 -0.10774792 0.083080046 -0.025381524
0.034262966 -0.36134332 -0.0057336586 -0.15990324 0.04922408 0.10983849 0.06653043 -0.11530454
0.11137824 -0.0008361724 -0.0066085476 -0.50640094 0.048690293 0.091718264 0.14014693 -0.14512268
0.14380786 -0.114047974 0.123717695 0.109031856 0.14481914 0.045719124 -2.1611369 -0.7808948
-0.7679699 0.12625001 0.027441172 0.07027057 0.06717202 0.053539053 0.022711577 0.13904387
0.11159438 -0.1569627 0.051692076 0.12916933 0.051220194 -0.06749141 -0.038463112 0.04336614
