Project/upload/part2_q3/HalfCheetahBulletEnv-v0_TD3_BC_Single_Cirtic_300_1638451888_td3_bc.pth (torch, 598401 bytes, 11 tensors)

l1.weight f4 [256, 32]
000000 1b c3 45 be c8 5c 53 3c 96 0a 80 3d d0 ef 06 be
       -0.19312708 0.012900539 0.06252019 -0.13177419
000010 8f 30 61 bd 81 df f1 bd 6b a8 71 be 8a 36 93 3e
       -0.05497795 -0.11810208 -0.23599403 0.28752548
000020 33 28 3c 3e 0c d5 ea 3e cb 1e 5a 3e 67 72 e7 3d
       0.1837471 0.45865667 0.21300809 0.113011174
000030 93 23 3e be 95 54 19 bf 84 db 01 be 0b 8e df be
       -0.18568258 -0.59894687 -0.12681395 -0.43663058
000040 75 9b 4e be ba ca e0 be 35 71 cf 3e bc a9 33 be
       -0.2017649 -0.43904668 0.40516058 -0.17545217
000050 af 5d c3 3e f1 77 1d 3d 45 cc b0 bc 49 d6 35 3b
       0.38157412 0.038444463 -0.021581778 0.0027746132
000060 44 83 4f 3d 79 47 9a 3c c7 d8 0b 3f 51 10 21 bc
       0.050662294 0.018832909 0.5462765 -0.00983055
000070 7d cf 16 bf d3 db a4 bb 3c b1 86 3d 8b 9a 08 bb
       -0.5891035 -0.005031088 0.065767735 -0.0020844068
000080 32 5a 97 3e 9a 9c 0e 3e ac 39 8e 3e b9 7c 54 3d
       0.29561 0.13926926 0.27778375 0.051876757
000090 8b 9e 2c be 6a 3a 8e bb 36 a3 c0 be 82 5d 9c 3e
       -0.16857354 -0.0043404596 -0.3762452 0.3054009
0000a0 a4 06 34 3d f0 8b 30 3c 12 6f 9b bd ee a4 81 bd
       0.043951645 0.010775551 -0.07589544 -0.06330286
0000b0 8a 28 f3 3d 3e 57 6c bd 3d b3 06 3e dc b2 3e bd
       0.118729666 -0.057700388 0.13154311 -0.046557292
0000c0 51 a9 a9 3b 66 db 19 be b1 3c 74 be ab 33 21 be
       0.005177655 -0.150251 -0.23851277 -0.15742366
0000d0 e8 4e 5a 3f 96 e1 2f bc 19 a6 4a 3e c1 a4 8a be
       0.8527665 -0.010734936 0.19789924 -0.27078822
0000e0 7e cc e7 3d a7 56 df be eb a7 c6 3d 96 64 4e 3c
       0.11318301 -0.43620798 0.096999966 0.012597224
0000f0 d3 df a5 ba bd 3a 87 3d 21 91 19 3c d8 d3 4b bd
       -0.0012655206 0.06603 0.00937298 -0.049762577
000100 37 f6 98 3e f2 e6 2b be eb 2b 36 3d 6e b2 bf 3d
       0.29875347 -0.16787317 0.044475477 0.09360205
000110 ef 6b e1 3d de ef 1c bd e3 75 2f bb 1b 00 05 3f
       0.11006915 -0.038314693 -0.0026773147 0.51953286
000120 5e 1e 67 bd 36 05 79 be 76 88 a0 3e f1 5f 04 3d
       -0.056425445 -0.24318394 0.3135411 0.03231806
000130 4a 29 1c bf 45 c7 cd bd c2 93 a4 3e f3 17 b1 bd
       -0.610005 -0.10047773 0.3214398 -0.08647146
000140 75 00 37 3e d6 79 2f be 63 9f 24 3e c9 a8 9b be
       0.17871268 -0.1713632 0.16076426 -0.3040221
000150 3e e0 0e 3e 76 d3 87 3d f9 4f 6c be ab 15 25 bd
       0.13952729 0.0663213 -0.23077382 -0.040303867
000160 ee fc fb bd 9f 24 fa bd a0 67 9f bd a1 0c d7 3a
       -0.12304102 -0.12214016 -0.07783437 0.0016406962
000170 00 a3 74 3e cc 4a b6 3d 73 f1 26 3e 7e bf 77 be
       0.23890305 0.08900985 0.16303043 -0.24194142
000180 4e 95 9d bd 82 84 e5 bd 09 da b6 3e f6 38 8a be
       -0.07694493 -0.112069145 0.35713223 -0.26996583
000190 1f 7d cd 3c 15 b6 b2 bd 7d 06 9a bd 74 f1 31 bd
       0.025084076 -0.08726136 -0.07520769 -0.04344316
0001a0 5a 11 34 3e a6 ff da 3e cc 3c ce 3c f7 e3 e8 3d
       0.17584744 0.4277317 0.025175475 0.11371606
0001b0 78 82 86 bd 97 e1 63 bc 6c 3c c4 be dd 75 c6 be
       -0.06567854 -0.013908765 -0.38327348 -0.38761798
0001c0 71 cc 07 be 44 7b 00 bf c4 c9 2f 3e c4 54 b9 be
       -0.13261582 -0.5018809 0.17166811 -0.36197484
0001d0 c6 65 93 be 5b 65 61 be 80 d6 96 bd 2a e3 b5 3e
       -0.28788584 -0.2201132 -0.073651314 0.35524875
0001e0 79 c6 36 be b5 84 71 bc 6c bb f0 3d c3 ec b8 3c
       -0.17849149 -0.0147411125 0.11754498 0.022573834
0001f0 1e 5d 64 be d9 35 14 bd 19 a7 33 bd 2f 34 09 bd
       -0.22301146 -0.036184166 -0.04386053 -0.03349703
000200 9f 07 1b 3f c9 e0 80 bd ee ae 50 3d 6c 24 9e 3b
       0.60558504 -0.06292874 0.050948076 0.004826119
000210 94 06 54 3d 93 7b e9 3e 0b 75 ec 3d 16 4b 75 3e
       0.051764086 0.45602092 0.11545762 0.23954424
000220 f6 02 2f 3e 4d 6b 94 bd bf f0 1f be 25 8c bb 3d
       0.17090973 -0.072470285 -0.15619181 0.0915759
000230 af 03 25 be 91 bb 54 be c6 6b c8 3e 72 9e c6 bd
       -0.16114686 -0.20774676 0.39144725 -0.0969819
000240 ae bc b9 3e e8 89 28 be fd 22 8f be 4e 32 57 be
       0.36276764 -0.16458857 -0.2795638 -0.21015283
000250 ac f4 f5 3e 70 64 9d bb 90 88 ca bc 25 db 06 bd
       0.48038232 -0.004803233 -0.024723321 -0.032923836
000260 c2 12 68 3d 47 c1 1e 3e 95 cc ba be 50 ff c9 3e
       0.056658514 0.15503417 -0.3648421 0.394526
000270 b2 7c 62 3c bf 05 16 bd 06 03 b6 bd 7e 52 f6 3d
       0.013823675 -0.036626574 -0.088872954 0.12027453
000280 0a 80 86 be 56 58 1c 3e ca 3c 86 be 00 1e 15 bd
       -0.2626956 0.15268072 -0.26218253 -0.036405563
000290 cb 47 b9 3c fa 87 80 bd 30 70 0c 3d 3f 1d c4 3d
       0.022617241 -0.062759355 0.034286678 0.09575891
0002a0 1a 4d 6d 3e 96 d1 83 3e 77 2d 79 3e e4 36 7f 3e
       0.23173943 0.2574584 0.2433375 0.24923283
0002b0 8c e1 73 3d c2 ae 3f 3e 87 52 08 be ee 8a 8d be
       0.05954127 0.18719009 -0.13312732 -0.27645057
0002c0 11 04 11 be 23 41 9f be 7c 52 0a 3d 3c c4 ca bd
       -0.14161707 -0.31104383 0.03377007 -0.0990071
0002d0 62 f1 99 3d de 79 5a bd 1c 11 0a bd c2 54 3b bc
       0.07516743 -0.053338878 -0.033707723 -0.011433782
0002e0 71 78 ce bd 22 97 09 be da 78 45 bf 58 13 ca 3f
       -0.10081566 -0.13436559 -0.7713753 1.5787153
0002f0 4d e3 1c be 5a 4d 6d bd d3 da bd 3d e0 74 2b bd
       -0.15321083 -0.057935096 0.09270253 -0.041859508
000300 10 c3 c6 be 9a cd ff bc 6a 5f 07 3d 98 89 06 3e
       -0.38820696 -0.031225968 0.03304998 0.13138425
000310 c3 45 a8 bd 9d fe 31 be 34 f4 04 be 1f cd 8e 3d
       -0.08216431 -0.17382284 -0.12983781 0.069727175
000320 da c6 b9 3e 26 05 e7 bd 13 3d 5a 3e cb 79 ae bd
       0.36284524 -0.11280279 0.2131236 -0.08519324
000330 b7 7d 19 be 28 9f 63 bc fc 78 15 be 17 34 9a be
       -0.14989363 -0.013892926 -0.14596933 -0.30117866
000340 3b 62 aa be 17 26 e9 be 3c eb 58 be 85 0f 18 bf
       -0.3327807 -0.45536873 -0.21183485 -0.5939868
000350 4c cc 6e 3e d2 95 ba bd ec 2e e6 ba 19 ef a3 3c
       0.2332012 -0.09110607 -0.0017561591 0.020011472
000360 d0 b5 ae 3d 37 11 57 bd 37 4d 3e be 50 de b2 3d
       0.08530772 -0.05250665 -0.18584143 0.08733809
000370 b0 ca da bd 68 64 2c be 8a 66 82 3e 2a f3 6d bd
       -0.10683191 -0.16835177 0.25468856 -0.058093227
000380 5b 40 d4 3e 38 e4 89 3d 4c 5c dd 3d b3 0e 01 3f
       0.4145535 0.067329824 0.1080862 0.50413054
000390 a5 94 c2 3d 3d b1 17 3e 3c 0a 51 bd 25 f1 a5 3d
       0.09501008 0.14813705 -0.05103515 0.08102635
0003a0 85 e2 73 bf 35 fa b3 be a9 90 38 be 4f de d4 bd
       -0.95267516 -0.3515183 -0.18023933 -0.103939645
0003b0 4f ef f5 3d 06 98 2a bc e2 9b 36 be 68 f3 aa bd
       0.12008535 -0.010412222 -0.17832902 -0.08347207
0003c0 72 eb 13 be 3a 0d 0b be 68 97 e9 be 02 e1 95 be
       -0.14445284 -0.13579264 -0.45623326 -0.2927323
0003d0 85 b7 97 3d 83 43 12 3e ee 34 0e 3d 12 31 0c bd
       0.074080504 0.14283566 0.034718446 -0.034226485
0003e0 17 d2 53 bd e2 de 62 3e 3f 59 8b 3c d8 74 76 be
       -0.05171403 0.22155336 0.01701033 -0.2406801
0003f0 d0 67 29 3e 51 64 dd be 02 62 ae 3e fd d1 47 be
       0.16543508 -0.43240598 0.3405915 -0.19513698

l1.bias f4 [256]
000000 08 7d ae be db fe d4 3e d1 87 26 be 73 58 84 3d
       -0.34079766 0.4160069 -0.16262747 0.06462183
000010 f3 56 6f 3e 8d c4 3f bd aa ad 97 bf a4 fb 37 bf
       0.23373012 -0.046818305 -1.1849873 -0.7186835
000020 e7 3c ef 3d 8b b4 0e 3f 07 10 08 3f a2 74 4e 3d
       0.11681538 0.55744237 0.53149456 0.0504042
000030 8d d9 26 be 61 01 17 3f 7c ad ae bd 4f 4b da 3e
       -0.16293927 0.5898648 -0.08529183 0.4263558
000040 af 1d 28 3e 5c 2b b8 3e 1d 7e bb 3c a8 d2 d9 3e
       0.16417573 0.3597058 0.022887284 0.4254353
000050 8e 57 6b 3e d4 0e 1a 3f 31 b6 1b 3e 2a 4a f5 3d
       0.22982618 0.60178876 0.1520622 0.11977036
000060 d5 9d b3 3e c5 f4 01 bd e4 86 8a be 00 92 2f 3f
       0.35081354 -0.03172757 -0.27056038 0.68582153
000070 97 96 dc be c0 11 16 3f ca e9 cc be 4c 62 f5 3e
       -0.4308364 0.58620834 -0.40022117 0.47926557
000080 4e 6b 2c 3f e2 28 14 3e 74 55 dd be 43 87 e3 3d
       0.67351234 0.1446872 -0.43229258 0.111097835
000090 a6 78 13 3e 89 12 31 3e 11 c4 0f 3e 0d b7 5e 3e
       0.14401492 0.17292227 0.14039637 0.21749516
0000a0 9b cc 63 bf f1 f0 a7 be 4a d6 8c bd 1c e1 10 3f
       -0.8898408 -0.3280101 -0.0687681 0.5659349
0000b0 87 32 86 3d 90 0a ea 3e 15 09 13 bf 41 94 89 3e
       0.06552606 0.45711184 -0.57435733 0.2687092
0000c0 00 86 db be 6f 2b 8d bf 5c 79 e0 3e e0 03 f6 be
       -0.4287567 -1.102888 0.4384259 -0.4804983
0000d0 cd db 53 3e 04 67 d7 3d 90 c3 a1 be e1 8d 9d 3e
       0.20689316 0.105176955 -0.31594515 0.30772308
0000e0 38 27 59 be 70 60 00 bf 56 0a 3d bf 58 03 99 bc
       -0.21206367 -0.5014715 -0.73843896 -0.018678352
0000f0 de 60 47 bf 15 88 05 bf 4e 95 66 be 5e 27 1d 3f
       -0.7788218 -0.5216077 -0.22517893 0.61388195
000100 dd 48 06 3f b2 ba a2 bd 7e f8 01 bf 9e 40 bd 3e
       0.5245493 -0.079457656 -0.50769794 0.36963362
000110 24 cf d1 3e 1c 34 a0 bd c4 6c 82 bf fc 94 bd bd
       0.40978348 -0.07822439 -1.0189443 -0.09256932
000120 92 16 2f 3d 27 7a 81 3c cd f4 66 bf a7 0e 6f be
       0.042746134 0.015805317 -0.90217286 -0.23345433
000130 71 51 3d 3f ff 46 8b bf a0 3c a7 be 13 97 17 bf
       0.73952395 -1.0881041 -0.3266344 -0.59214896
000140 b2 45 6e be f7 58 da 3e 96 b5 c7 3e 3d 8b e9 be
       -0.23268774 0.42646 0.39005727 -0.45614043
000150 3f b7 92 3e 01 57 d1 3e b5 dd 43 be 72 46 52 bd
       0.2865543 0.4088669 -0.19127543 -0.051336713
000160 f7 22 0b bd c4 71 e9 be 7f e9 51 bf f0 17 12 3f
       -0.033968892 -0.4559461 -0.8199691 0.57067776
000170 b4 55 14 bf 66 a9 b3 be d6 8b 46 bf 46 c0 ea bd
       -0.5794327 -0.35090178 -0.7755712 -0.114624545
000180 c1 cb e0 bd f1 61 f1 3e c1 b2 01 be e0 7d 95 be
       -0.10976363 0.47145036 -0.12665845 -0.29197598
000190 64 bb e8 be 9b 98 9d 3e a0 61 dc 3e 69 3c 9c be
       -0.45455468 0.3078049 0.43043232 -0.3051484
0001a0 e0 f0 31 3f 49 29 10 bf 57 97 08 3f f9 1d a1 be
       0.6950817 -0.56312996 0.53355926 -0.3146818
0001b0 0c 7e e5 bc d6 8b 1d bf 5f 59 c2 3e f0 77 22 bf
       -0.028014205 -0.615415 0.3795881 -0.6346426
0001c0 b2 43 b4 3e a3 ad 08 3f c0 5b 34 bf ad b7 09 bf
       0.35207897 0.5338995 -0.704525 -0.5379589
0001d0 63 d7 15 3f 3e c0 dd 3e 30 92 2c bf 96 23 1c bf
       0.5853178 0.43310732 -0.67410564 -0.609918
0001e0 7c 51 19 3f ee a4 50 be 91 f9 eb be 12 79 00 3f
       0.5988996 -0.20375416 -0.46088842 0.5018474
0001f0 33 6c 11 bb 72 0e 76 be a9 56 62 3e 5c 6a c4 bc
       -0.0022189736 -0.24028948 0.2210337 -0.023976497
000200 3e c9 f0 bc 71 13 17 3f c5 88 90 be ad 53 c7 be
       -0.029392835 0.5901404 -0.28229347 -0.38931027
000210 02 ab 0e bf 5c be bc 3e a1 63 f1 3e 65 ea 30 bf
       -0.5572969 0.36863983 0.47146323 -0.6910766
000220 2b 92 19 bf f8 e1 4f bf 5e 9d c1 3e 40 32 40 be
       -0.5998866 -0.81204176 0.37815374 -0.18769169
000230 b5 a3 b3 3b 80 61 f7 3e b5 00 a1 be 6d c4 1b 3f
       0.005482162 0.48316574 -0.31445852 0.60846597
000240 8a 03 e9 3e 24 09 1e 3f 77 29 69 be f7 bb b6 be
       0.45510513 0.617327 -0.22769724 -0.3569028
000250 62 f1 c2 be 96 6b 0e 3f 16 45 7d be 7c 3a a0 be
       -0.38074785 0.55632913 -0.24733385 -0.3129462
000260 f6 1e cc be 80 db c0 be 02 9c 0d bf 9f e2 d7 be
       -0.3986737 -0.37667465 -0.55316174 -0.42165086
000270 c4 f3 c2 3e 91 5b ea 3e 9e e9 c3 be 92 46 32 bf
       0.38076603 0.45772985 -0.38264173 -0.6963893
000280 78 d6 c1 3e 0b 63 c3 3d d8 e5 c1 3e 39 da 1b bf
       0.3785894 0.09540375 0.3787067 -0.60879856
000290 46 3b 39 bf c6 04 ed 3e d9 13 2a 3f 29 3f c5 3c
       -0.7235607 0.46292704 0.66436535 0.024077969
0002a0 03 98 71 bf ba 65 b2 be ce b9 92 be 90 41 8f 3d
       -0.94372576 -0.34843236 -0.28657383 0.06994927
0002b0 de 71 f0 3e 88 b7 da 3e 5b 7c 96 3e 2f bc 05 3f
       0.46961874 0.42718148 0.2939175 0.5224027
0002c0 9b 4b 3c 3f 44 72 2c bf ba 20 00 bc 89 4e a1 3e
       0.73552865 -0.67361856 -0.007820303 0.3150523
0002d0 e5 74 d7 3e 4c 03 de 3e 4d d8 30 3e 92 32 96 3e
       0.4208137 0.4336189 0.17270012 0.29335457
0002e0 24 1f b8 be 4f 1d e5 3e 1d 50 24 3f 16 c7 41 3e
       -0.35961258 0.44748923 0.64184743 0.18923602
0002f0 82 f1 a2 be e0 22 26 bf 3d 4b dd 3e 39 69 67 bf
       -0.3182488 -0.64896965 0.43221465 -0.9039493
000300 c0 1f 3e 3e f5 57 71 bf 37 25 c4 be 10 02 70 3e
       0.18566799 -0.94274837 -0.38309643 0.23438287
000310 ee a5 99 3d ca f7 fb be 02 55 4e 3e 14 5a f7 3e
       0.07502352 -0.49212486 0.20149615 0.48310912
000320 c1 8d f5 3e b6 97 34 3e f2 f3 3d bf 64 7b 57 bf
       0.47959712 0.17635998 -0.74200356 -0.84172654
000330 0d 38 05 bf f8 29 c8 be d5 d5 f9 be c7 17 87 3e
       -0.5203865 -0.3909452 -0.48795953 0.26385328
000340 96 21 9b 3e d9 13 b9 be 9f 8a d2 3e ed c6 21 be
       0.30299062 -0.36147955 0.41121385 -0.1579854
000350 82 07 20 3f bd 7c 3f bf 0e c4 a5 be 6c 65 ea 3e
       0.62511456 -0.7479971 -0.3237614 0.45780504
000360 de 89 9d 3e 62 5e 90 be d8 32 d2 be 2f e0 9d 3e
       0.30769247 -0.28197008 -0.41054416 0.308351
000370 c2 61 18 3f 58 e2 a6 bd ac 86 98 be 64 ce 22 be
       0.59524167 -0.081486404 -0.29790246 -0.15899044
000380 00 3b 4b bf 10 10 6a bf cb f0 91 3d 11 29 e2 be
       -0.793869 -0.9143076 0.07126006 -0.44171956
000390 72 ba eb be d0 57 a8 be f8 7b a5 3e 3c 1c fb be
       -0.46040684 -0.32879496 0.32321143 -0.4904498
0003a0 62 0f 59 bf b9 c1 93 bf fd b9 8d bf f9 e8 89 be
       -0.847891 -1.1543494 -1.1072384 -0.26935557
0003b0 2c 4b 36 3f 22 72 af 3d cb 9c 4a be e1 69 c5 3e
       0.71208453 0.08566691 -0.19786374 0.38557342
0003c0 04 f0 60 3e 41 1e f2 3e ae 62 13 3f ef d2 0d 3f
       0.21966559 0.47288707 0.5757245 0.55399984
0003d0 2c 7e 45 bf 69 e7 16 3f 60 44 ec bd 39 57 32 3d
       -0.7714565 0.58946854 -0.11536479 0.043540213
0003e0 e0 11 5f bf 29 ca eb be d6 17 dd be b5 16 1a 3f
       -0.8713665 -0.46052673 -0.43182248 0.601909
0003f0 f7 36 4e bf b9 74 ba 3e 19 a5 12 3f 91 d0 0e bf
       -0.8055262 0.36417177 0.5728317 -0.55787

l2.weight f4 [256, 256]
000000 3a cf 89 3d db 43 c1 3e 98 34 94 be cb 7d da be
       0.067289785 0.37747082 -0.28946376 -0.42674097
000010 09 46 c0 3c 7a 70 85 be ca 2a bb bd 6c 52 ab 3c
       0.023470895 -0.26062375 -0.09139021 0.020913325
000020 ff 3c 01 bf 1b 00 17 3d 3b 34 67 bd 84 98 68 be
       -0.504837 0.036865335 -0.056446295 -0.2271443
000030 4d 36 93 3f 61 43 c1 bc 72 9b 0e 3f a9 f3 9a be
       1.1500946 -0.0235917 0.5570594 -0.30264023
000040 68 de d4 3d 2b c3 56 bd 25 61 b7 bd 90 85 1a 3e
       0.10393983 -0.05243222 -0.08954076 0.15090013
000050 0d 18 3b bf e4 60 b4 bd ca 7f 80 3d 98 1d 6d 3d
       -0.73083574 -0.08807543 0.06274374 0.05788955
000060 d4 7a a6 3d 98 64 2c bf 63 5b db 3c 02 f9 a4 3d
       0.08128896 -0.67340994 0.026776975 0.08055307
000070 ec 40 0f 3a 1d 90 80 be 1c 66 ca 3d af 9d 53 ba
       0.0005464691 -0.2510995 0.09882757 -0.0008072508
000080 2e a7 ce 3d b0 5d 97 bd fe 90 12 be 09 e2 8f be
       0.10090481 -0.07390916 -0.14313123 -0.2810214
000090 29 8a a5 bd 22 fb 1d 3d 10 f7 16 3f 5b 98 42 be
       -0.080829926 0.038569577 0.5897074 -0.19003431
0000a0 eb 57 28 bf e1 55 02 3e cd c8 cf bd db 45 8d 3e
       -0.6575915 0.12728073 -0.101457216 0.27592358
0000b0 56 9d 7a 3e 3a 6e 17 3f d1 cb e1 be 95 71 11 3e
       0.24474081 0.5915257 -0.44100812 0.14203484
0000c0 e5 92 16 3e ee 30 9a be e1 b2 0b be 54 83 80 3e
       0.14704473 -0.30115455 -0.13642456 0.25100195
0000d0 d7 2f 5b bf 47 8d a6 3d 49 3a fc 3e 38 59 ba 3b
       -0.8561987 0.08132415 0.49263218 0.0056869052
0000e0 c4 3f da 3d 37 76 43 3d f5 1d 00 3f 42 e3 b9 be
       0.106566936 0.04772016 0.5004571 -0.36306196
0000f0 3f 37 35 bf 67 fe 54 3d 78 53 ac bd 32 7f c6 be
       -0.70787424 0.05200043 -0.08414358 -0.38768917
000100 65 5a 9a 3e 99 6e 45 3e a7 c2 2f bf 7c 08 81 be
       0.3014709 0.19280471 -0.6865639 -0.25201786
000110 14 70 8c 3d d5 be 0b be 09 90 46 3f 70 d3 2e 3f
       0.06857315 -0.13647015 0.7756353 0.6829138
000120 83 10 7a 3e ee e1 82 be ba 13 59 3e be 7f 36 bc
       0.24420361 -0.25562996 0.21198931 -0.011138855
000130 80 08 5b 3c b0 7b a0 3e 43 78 a8 3e e3 bc 09 be
       0.013368726 0.31344366 0.32904252 -0.13450961
000140 13 13 9f 3e 6a 9d 0d bc 63 55 1f be 5d b4 ae be
       0.3106924 -0.0086434875 -0.15559916 -0.3412198
000150 2d 42 8a 3d 5f d3 08 bf 40 48 39 bf 75 9f 46 3e
       0.06750903 -0.53447527 -0.7237587 0.19396766
000160 d7 e9 4f 3e ff 6e 3f 3d 62 7d 45 bd 53 52 2f bd
       0.20304047 0.046736713 -0.048215277 -0.04280312
000170 08 50 43 3e 77 53 2e 3d 73 66 fc be 6c f0 b9 3e
       0.19073498 0.042560067 -0.49296913 0.3631624
000180 bb fd 51 3e e3 34 b1 be f0 c6 b3 bd 56 5b 85 3e
       0.20506947 -0.34610662 -0.08778179 0.26046246
000190 37 4a fa 3e dd 58 b3 3e c8 c0 fe be ed aa 34 bc
       0.48884746 0.35028735 -0.49756455 -0.01102708
0001a0 8b 34 97 3e f0 1a 19 3e 2e 56 09 3e d0 23 d9 3e
       0.29532275 0.14951682 0.13411781 0.42410135
0001b0 6f 61 20 be 70 98 00 bc ab 43 60 be f7 ce bd be
       -0.15662168 -0.007848844 -0.21900813 -0.37071964
0001c0 9d 2c 1f 3c e6 06 67 3e 9f 70 83 bb 94 04 20 be
       0.0097152265 0.22561225 -0.004011228 -0.15626746
0001d0 ed 33 8f be d6 cd d8 be 51 31 d9 3d 71 4f 6f be
       -0.27969304 -0.4234454 0.106051095 -0.23370148
0001e0 29 97 48 3e c1 9a 88 3e 1b 92 f9 be 8e 2c 51 3c
       0.19588913 0.26680568 -0.48744282 0.01276697
0001f0 b6 75 70 be 0c 3b 27 3c 9a a8 9c 3e 21 09 33 3d
       -0.23482403 0.010206949 0.30597383 0.043709878
000200 7e f6 b0 be 41 5f 4e 3e b2 7c 2c bd a8 bf 9c bd
       -0.3456306 0.20153524 -0.042111106 -0.07653743
000210 2e bc 90 be 47 fb b3 3d 98 27 95 bd 7f 0f b7 be
       -0.2826857 0.08788162 -0.072829425 -0.3575401
000220 af 79 40 be 5d d7 2b bd 36 cf 26 3e 98 3a e1 bd
       -0.18796419 -0.041953433 0.16289982 -0.10997504
000230 e4 d9 8f be b2 f0 55 bc c1 43 82 be ba 90 8d 3d
       -0.28095925 -0.0130578745 -0.25442317 0.0691237
000240 17 47 30 3e ff 94 53 bf 56 0a 4b be 1d d2 42 bd
       0.17214619 -0.82649225 -0.19828162 -0.04756366
000250 95 78 b6 bd 59 83 92 be e3 1b 0f bf dd 1e a5 bd
       -0.08909718 -0.28615835 -0.55901927 -0.08062527
000260 9d 0f 2f 3f ed cd 76 bc 61 4d 3a 3e b4 13 4e be
       0.683832 -0.015063745 0.1819358 -0.20124704
000270 eb 28 8e 3e 17 01 34 be 69 64 2a 3e 39 a9 0c 3e
       0.27765593 -0.1757854 0.16639866 0.13736428
000280 f3 e1 2f be 77 82 b1 3d 02 ed 58 3e 17 e9 0b 3f
       -0.17176037 0.08667462 0.21184161 0.5465254
000290 f7 e0 8f bd 30 d8 96 be a0 da 89 3e d8 a4 82 bb
       -0.070253305 -0.29461813 0.2692461 -0.003986936
0002a0 67 25 25 bd 45 87 ad bc ac 1a b7 3d 1e a4 5d be
       -0.040318873 -0.021182666 0.08940634 -0.21644637
0002b0 11 56 59 bf 40 19 3d 3e 54 59 cd bd 89 98 b8 be
       -0.8489695 0.18466663 -0.100268036 -0.36053875
0002c0 57 2a ed 3d e3 42 8e 3e 93 db dc bd e2 49 a3 3d
       0.11580341 0.27785406 -0.10784068 0.079730764
0002d0 19 7f 02 c0 87 21 9a 3d 8a 69 84 3e a6 c5 88 be
       -2.0390074 0.07525926 0.2586177 -0.26713294
0002e0 e2 a7 85 bf a6 e1 7a 3e ea 45 5a be dd 82 d9 3e
       -1.0441859 0.2450014 -0.21315733 0.42482653
0002f0 1a e8 14 bf 24 fe 84 be 19 b4 b8 bd 40 48 d3 be
       -0.5816666 -0.25975144 -0.09018726 -0.4126606
000300 81 a6 ac bd b1 0b d5 3c 27 d9 eb be 4d 6b 1e be
       -0.084301956 0.026006551 -0.46064112 -0.1547062
000310 66 8b 6e be 5b c1 e0 be 04 7d 9a 3c 3d f7 9a 3d
       -0.23295364 -0.4389752 0.01885844 0.07566688
000320 8e f9 55 be eb f5 b6 3d 79 06 94 3e 90 c5 cb 3e
       -0.20895979 0.08933624 0.28911188 0.39799166
000330 4d 20 a0 3d cd ca b4 bd fc 60 c7 bd cb 8a 88 3e
       0.07818661 -0.08827744 -0.09735295 0.2666839
000340 74 a6 b1 be e3 0a fc be 4d f7 ce bd aa ab fe be
       -0.34697306 -0.49227056 -0.10105763 -0.49740344
000350 f6 55 22 bf c1 06 6e bd d9 4b ac 3e c8 0f 14 3e
       -0.63412416 -0.05811191 0.33651617 0.14459145
000360 b2 9e d2 be e5 5f b8 3e 73 2f 73 3d 43 ca bb 3c
       -0.411367 0.36010662 0.059371423 0.022923594
000370 f7 5d 85 bc d9 8e e4 3d 4a af 1e 3e 98 03 dc 3e
       -0.016280157 0.111600585 0.15496555 0.42971492
000380 9b fc c9 3d ff d7 43 be a0 1b 83 be 9e fc e7 bd
       0.09862634 -0.19125365 -0.25607014 -0.1132748
000390 27 12 e5 bd bf 3c e9 be 99 ef 96 3e 40 18 4b bf
       -0.11185103 -0.45554158 0.29479674 -0.7933388
0003a0 f9 9b 28 3d d7 91 21 bd ef 98 c7 3d a5 c8 21 3e
       0.041164372 -0.039445724 0.09745967 0.15799196
0003b0 f8 da ee 3d 11 27 b0 bd ce 16 7b 3e 31 42 7a 3e
       0.11662859 -0.08601201 0.24520418 0.24439313
0003c0 d3 3c 94 be f2 2d 5e bd ac 97 47 3d ff f6 1c 3f
       -0.28952655 -0.054243036 0.04872863 0.61314386
0003d0 35 49 12 bf 07 81 fd bf dd a7 0b bd 91 68 2f 3e
       -0.57142955 -1.9805001 -0.034095634 0.17129733
0003e0 a3 8c a7 3e 05 90 42 3e 17 a5 b0 3c 32 23 92 bd
       0.32724485 0.19000252 0.021563096 -0.07135619
0003f0 e1 a4 a9 bc f3 ff df 3e 8f aa e9 3e e4 98 97 be
       -0.020708503 0.4374996 0.45637938 -0.29608834

l2.bias f4 [256]
000000 df ed 0f be 74 74 b0 be 04 6a 15 3f 2f 85 0c 3f
       -0.14055584 -0.34463847 0.5836489 0.5489072
000010 f9 a9 25 3f 11 04 2e 3f 5d 75 df be 08 a4 33 3f
       0.6471248 0.67974955 -0.4364423 0.70172167
000020 08 f2 25 3f c4 53 70 be cd 9e 21 3f 82 6b ba 3e
       0.64822435 -0.23469454 0.63132936 0.36410147
000030 4d a1 c6 be 3a 7b 21 3f d2 3c 44 3f 9c 4f 07 3f
       -0.38794938 0.63078654 0.76655304 0.5285585
000040 be 90 1b 3f d5 dc 2a 3f a3 37 f3 3e 65 2a 0e 3f
       0.60767734 0.6674321 0.47503385 0.5553344
000050 7f 13 00 bf 30 03 f9 be 32 c3 6a be 43 63 e3 bd
       -0.5002975 -0.48635244 -0.22926024 -0.11102917
000060 46 ec 3b 3f 9c bd f7 be d7 98 fe be d8 9b 4a 3f
       0.734074 -0.48386848 -0.49725983 0.7914405
000070 c9 d1 3d 3f c5 d2 2f 3f 59 42 46 3f 13 b8 3a 3f
       0.7414823 0.68680984 0.7744499 0.72937125
000080 12 b3 96 bd 40 4d 25 3f 6d dc 23 3f af ed 1f 3f
       -0.07358374 0.64571 0.6400822 0.6247205
000090 03 9c 3d 3f bc 07 23 3f 92 14 a0 be 80 1f 39 3f
       0.7406618 0.63683677 -0.31265694 0.7231369
0000a0 33 e3 46 3f da 8d 0b bf ac 8e 4e 3f f0 57 37 3f
       0.7769043 -0.54513323 0.8068645 0.71618557
0000b0 34 f2 2d 3f d1 65 96 be 73 ab 3b 3f 01 82 29 3f
       0.679477 -0.29374555 0.73308486 0.66213995
0000c0 ab 0c 0b bf ab f9 ac be d4 df 9f bd 62 0a 01 3f
       -0.54316205 -0.33784232 -0.07806364 0.5040647
0000d0 50 52 eb be 64 53 1f 3f ad 4c 25 3f 3e 7f 26 be
       -0.45961237 0.6223662 0.6457012 -0.16259477
0000e0 66 d4 3c bf c2 a1 30 3f 39 b1 28 3f 98 24 0f 3d
       -0.73761594 0.6899682 0.6589542 0.034947008
0000f0 76 ec ec be 4f 76 19 3f da d8 0f bf 53 cc f2 be
       -0.46274155 0.5994615 -0.56190264 -0.47421512
000100 2b ec a2 be 5d b9 0b bf 91 0f 10 3f 33 17 21 bf
       -0.31820807 -0.54579717 0.5627375 -0.62926024
000110 bd 5e 2e 3f 01 da 29 3f 70 72 26 3f 02 87 36 3f
       0.6811331 0.6634827 0.6501837 0.71299756
000120 7c 0c ea be d0 71 04 bf 30 23 25 bf ec b6 0e 3f
       -0.4571265 -0.51736164 -0.64506817 0.55747867
000130 2c 7f b8 be 52 67 f6 be 2d 19 14 bf 87 5f 2a 3f
       -0.36034524 -0.48125702 -0.57850915 0.66552013
000140 1a c8 ad be b8 23 f4 be 8f b9 2e 3f 29 5a 09 3f
       -0.33941728 -0.476835 0.6825189 0.536532
000150 12 48 27 bf 87 3c c3 be e9 5d 4d 3f 1f 33 65 be
       -0.65344346 -0.38132116 0.8022142 -0.22382782
000160 1f 7f 05 3f 6d cb 16 bf a2 83 2e bf b8 1e 20 bf
       0.52147096 -0.58904153 -0.68169606 -0.62546873
000170 f7 0a 25 3c 9b e2 10 3f b1 54 33 3f ab 45 35 3f
       0.010073415 0.5659577 0.70051104 0.7080943
000180 7b 79 29 3f a6 c0 1b bf d8 f9 32 3f 65 00 a9 bb
       0.6620099 -0.60840833 0.6991248 -0.0051575177
000190 25 d6 49 3f 7e a6 29 3f 2b eb dc be bf ac 14 3f
       0.78842384 0.6626967 -0.4314817 0.5807609
0001a0 ac db 2e 3f 99 ec 03 bf 9c b3 ce be 1c ee 04 bc
       0.6830394 -0.51532894 -0.40371406 -0.00811341
0001b0 49 da c9 be 97 18 36 3f 8d ff 11 3f 25 db e5 be
       -0.3942435 0.7113127 0.57030565 -0.44893757
0001c0 ff 6e db bd 61 f5 a5 be c6 38 12 3f dc 1f 8f be
       -0.1071453 -0.32413772 0.5711788 -0.27953994
0001d0 a4 f4 11 3f f7 aa 18 bf fa 72 3b 3f b4 78 50 3f
       0.57013917 -0.5963587 0.73222315 0.8143418
0001e0 78 06 15 3f 8b f0 ad be 3e 9a dc be 74 cb 13 3f
       0.58212996 -0.33972582 -0.43086427 0.5773232
0001f0 d7 b4 4c 3f 88 9e f5 3e 9e 16 8e be 3f 31 48 be
       0.7996344 0.47972512 -0.2775163 -0.19550036
000200 5e 20 03 bf 08 8e c2 be 90 79 32 3f 98 b8 0c bf
       -0.51221263 -0.37998986 0.6971674 -0.5496917
000210 68 52 b3 be ed ce 0c bf 05 3c 15 3f 59 ca cb be
       -0.35023808 -0.55003244 0.5829471 -0.39802817
000220 d5 d6 f8 3e 6e b5 03 3f d7 2c 8e be 5e 8f 2a 3f
       0.48601404 0.51448715 -0.27768585 0.6662501
000230 bc f0 20 3f fb fc 39 3f 74 5a 24 bf a0 18 10 3f
       0.6286733 0.7265164 -0.6420052 0.56287575
000240 6d 89 20 3f 78 cf 21 3f 51 89 f0 be c7 8a 0e 3f
       0.62709695 0.632072 -0.46979764 0.5568051
000250 73 4f 59 be 51 60 13 bf 5f 46 f2 3e 81 db 1a 3f
       -0.21221714 -0.5756884 0.47319314 0.60491186
000260 e6 73 0c bf d0 c9 42 3f b6 2c fe be a4 bf d9 be
       -0.54864347 0.7608919 -0.49643487 -0.42529023
000270 f7 3f dd be 1d d6 10 bf 6c 90 13 3f 6e e3 b6 bd
       -0.43212864 -0.5657671 0.57642245 -0.089300975
000280 63 8e 4b 3f a6 b0 c8 be 12 dd 2f 3f fa 6f 29 3f
       0.7951414 -0.39197272 0.686967 0.6618649
000290 62 0d 51 3f ec 82 1c 3f 15 d2 a7 be 20 40 29 3f
       0.81661046 0.6113727 -0.32777467 0.6611347
0002a0 b9 82 0f bf 7a 88 4d 3f 4f 33 25 be 88 e7 1e 3f
       -0.5605884 0.8028637 -0.16132854 0.6207204
0002b0 ca 72 a5 be 33 01 02 bf 58 b9 25 bf c3 01 2d 3f
       -0.3231414 -0.5078308 -0.6473594 0.67580813
0002c0 1d ca 36 3f 8e 3c 0b bf ef 7b 48 3f 5d 4a 2e 3f
       0.7140215 -0.54389274 0.7831411 0.6808222
0002d0 fe 84 13 bf 1d 90 2c 3f 65 6d 41 3f ac 9a 47 3f
       -0.57624805 0.674074 0.7555755 0.77970386
0002e0 04 4b 2b 3f 3a 5e 10 3f 70 e7 44 3f 28 2c e3 be
       0.6691134 0.5639378 0.76915646 -0.44369626
0002f0 c4 69 22 bf ee fb 24 3f 00 be fd be f8 a8 ba be
       -0.63442636 0.64446914 -0.4955902 -0.36457038
000300 63 77 20 3f f9 e5 01 bf 25 4b 4d 3f 4e 24 0a bf
       0.6268217 -0.50741535 0.80192786 -0.53961647
000310 52 5d 03 3f 3e aa 76 bc 13 e8 a4 be 26 50 0a 3f
       0.5131427 -0.015055237 -0.3220831 0.54028547
000320 6e 80 f6 be a0 84 31 3f c3 d6 37 3f c8 20 2b 3f
       -0.4814486 0.69342995 0.71812075 0.66846895
000330 d3 d5 14 bf c3 41 17 bf c9 ec f2 3e a3 f0 04 bf
       -0.5813877 -0.5908472 0.47446278 -0.5192968
000340 04 57 25 3f e8 bd 00 bf 86 50 09 3f 69 b2 0e bf
       0.645859 -0.50289774 0.53638494 -0.5574098
000350 c3 63 2b 3f 87 c1 29 3f c7 98 34 3f a4 77 12 bf
       0.669491 0.66310924 0.7054562 -0.5721381
000360 3e ae dc bd 7a 0b 24 3f c1 73 34 3f 7f db 28 bf
       -0.107754216 0.6408001 0.70489126 -0.65959924
000370 90 c5 67 be f6 63 e3 be b2 6b a8 be 90 97 43 3f
       -0.22633958 -0.44412202 -0.32894665 0.7640314
000380 e6 5d 9a be d5 c5 22 3f c3 3c 36 3f a5 57 1f bf
       -0.30149764 0.6358312 0.71186465 -0.6224311
000390 f2 64 2b 3f b5 6d 05 bf 18 56 1e 3f e8 c9 29 3f
       0.66950905 -0.52120525 0.6185012 0.6632371
0003a0 63 07 0f 3f 42 d5 e8 be 83 c8 be be 60 d1 1c bf
       0.55870646 -0.45475203 -0.37262353 -0.6125698
0003b0 36 8d 00 3f cd a7 99 be c2 5e d6 be 58 4f 8a be
       0.5021547 -0.30010834 -0.4186917 -0.2701366
0003c0 12 3a 91 be 3d 48 67 be 93 4c e3 be af 27 1c 3f
       -0.28364617 -0.2258615 -0.4439436 0.6099805
0003d0 ce e3 8f bd 27 36 10 3f c6 03 c2 be 2a e0 31 3f
       -0.07025872 0.5633263 -0.37893504 0.6948267
0003e0 88 a5 54 be 94 5a f6 3e bb 8b 39 3f a5 50 35 3f
       -0.2076627 0.4811598 0.72478837 0.7082618
0003f0 d7 d5 1b bf 99 95 96 be 5f bc 00 bf c2 74 00 bf
       -0.6087317 -0.2941101 -0.5028743 -0.5017816

l3.weight f4 [1, 256]
000000 87 2b c5 bf fa 3c 3d c0 e4 21 85 3e f8 56 91 3e
       -1.5403908 -2.9568467 0.2600242 0.28386664
000010 93 21 74 3e 77 b9 7a 3e 71 1d 2d bf e3 13 20 3e
       0.23840933 0.24484812 -0.6762305 0.15632586
000020 39 80 68 3e b5 a6 8c bf 33 65 08 3e a8 12 a6 3f
       0.22705163 -1.0988375 0.13319854 1.2974443
000030 18 d9 3b bf e8 80 14 3e 80 3c 26 3e c7 54 b1 3e
       -0.73378134 0.14502299 0.16234016 0.34634992
000040 ad 35 31 3e 41 e8 a3 3d 69 70 22 3f 4d eb c2 3e
       0.17305632 0.08003283 0.63452774 0.38070145
000050 d0 37 f9 be 81 b1 94 bf 9b c6 85 bf df c8 b0 bf
       -0.48675394 -1.161667 -1.0451235 -1.3811301
000060 32 ea 93 3d b2 82 62 bf 93 2f 4e bf dc 8b 58 3e
       0.072224036 -0.88480675 -0.8054134 0.21147102
000070 17 2c 20 3e df 1f ae 3e 9f 54 1f 3e 04 fe 05 3e
       0.15641819 0.3400869 0.15559624 0.1308518
000080 a0 c9 07 3d 1f 3f 1e 3f 72 cc a7 3e 54 77 07 3f
       0.03315127 0.61815065 0.32773167 0.52916455
000090 49 8f 19 3e 6c 35 1f 3e 0d 1b 7e bf d3 82 2d 3e
       0.14996065 0.15547723 -0.99260026 0.16944437
0000a0 6b 1c 3e 3e a2 bc 16 bf d3 fc 3d 3e 33 7e 22 3e
       0.18565528 -0.5888158 0.18553476 0.15868454
0000b0 24 dd 45 3e 1d 36 cb bf db 0b 3f 3e 23 bc 86 3e
       0.1932264 -1.5875889 0.18656866 0.26315412
0000c0 62 6d 61 bf d4 14 ff bf 12 83 3b 3a 46 9d 8b 3e
       -0.8805753 -1.9928231 0.0007153015 0.27268428
0000d0 7b 39 63 bf 7d 5a 86 3e de f0 79 3e 7e d3 02 c0
       -0.88759583 0.26240912 0.2440829 -2.0441585
0000e0 3c a8 ca be 50 37 31 3e 18 c4 1e 3e a9 d5 6b 3c
       -0.39581478 0.17306256 0.15504491 0.014394202
0000f0 a9 df 8c bf 59 a3 4b 3e 32 bb 1a bf 57 de 9c bf
       -1.1005756 0.19886531 -0.6044189 -1.2255353
000100 6b 0e 74 bf dd dd 1e bf 1d ca 9a 3e 2a d2 e8 be
       -0.953345 -0.62057287 0.30232325 -0.45472842
000110 5d 14 55 3e 9c 8a 2a 3e 4b 13 3e 3e c8 66 13 3e
       0.20808549 0.16654438 0.18562047 0.14394677
000120 d7 f7 06 bf 68 6f b0 be 26 9e 2d bf ab 03 9f 3e
       -0.52721924 -0.34459996 -0.6781944 0.31057486
000130 68 7f 75 bf 53 31 7d bf 06 90 04 bf e5 d0 01 3e
       -0.9589753 -0.9890339 -0.5178226 0.12677343
000140 b2 bc a0 bf 5d c5 0c bf 1a 73 85 3e 10 3d ab 3e
       -1.2557585 -0.5498865 0.26064378 0.33445024
000150 b1 ca ff be b9 60 91 bf 55 0d 3d 3e 39 8e 3e c0
       -0.4995933 -1.1357642 0.18462117 -2.9774306
000160 e5 c4 b7 3e e1 0f 01 bf c2 17 53 bf bc a5 b2 be
       0.35892406 -0.50414854 -0.82458127 -0.3489207
000170 84 3c ff bc 99 65 6f 3e 6d 81 61 3e e2 5d 4f 3e
       -0.031156786 0.233786 0.22022028 0.20250657
000180 58 32 51 3e a4 33 15 bf a7 be 1d 3e 86 f5 a8 bc
       0.20429361 -0.5828192 0.1540476 -0.020624887
000190 19 36 0c 3e 57 20 26 3e 01 42 9d bf b3 1d 84 3e
       0.13692512 0.16223274 -1.2285768 0.2580391
0001a0 d4 94 62 3e 7a 4e a5 bf 5b 36 47 bf 4a 32 0b 3b
       0.22127086 -1.2914574 -0.77817315 0.0021239691
0001b0 66 aa 60 bf e3 9d 07 3e b8 b9 6f 3e ce eb 9b bf
       -0.8776001 0.13243823 0.2341069 -1.2181337
0001c0 bd 15 03 c0 79 3b bf bf 6c 04 9d 3e 31 2c ce bf
       -2.0482018 -1.4940025 0.30667436 -1.6107236
0001d0 01 37 49 3e 27 47 30 bf 5e b3 c7 3d fc bd 45 3e
       0.19649889 -0.6885857 0.097510085 0.19310755
0001e0 1c e1 7b 3e 7a 1f 39 bf b9 4f 3f bf 07 7a 77 3e
       0.24597591 -0.72313654 -0.7473102 0.24167643
0001f0 87 59 21 3e c2 d4 87 3f 7a 37 30 bf b5 b4 ce bf
       0.15756808 1.0611804 -0.6883465 -1.6148897
000200 97 a6 f5 be 4f 98 ac bf 7f 2c 2b 3e bd 9f 46 bf
       -0.4797866 -1.3483981 0.16716193 -0.7758749
000210 42 c8 2e bf 2f bd 1a bf 65 65 92 3e f0 1c b0 bf
       -0.6827432 -0.6044492 0.28592983 -1.3758831
000220 a1 0d 64 3e c6 27 7c 3e 96 94 3f c0 db bb f7 3d
       0.22270824 0.24624547 -2.993444 0.120963775
000230 70 21 06 3e 1d 12 01 3f f3 4a 16 bf 59 a6 7e 3e
       0.13098693 0.50418264 -0.58708113 0.24868144
000240 b6 7f 44 3e 20 20 79 3e 10 5b 18 bf d8 bd 80 3e
       0.19189343 0.24328661 -0.5951395 0.2514484
000250 4e 1f 83 bf 88 c9 07 bf 6f 55 a8 3e f7 9e 97 3e
       -1.0243928 -0.5304189 0.3287768 0.29613468
000260 f1 df 08 bf e7 bb 04 3e 9a cf fe be 57 0c df be
       -0.5346671 0.12962304 -0.49767762 -0.43564102
000270 0c f5 a3 bf ce 8a 4b bf d0 69 ab 3e 4a 68 01 c0
       -1.2809157 -0.79508674 0.33479166 -2.0219903
000280 54 43 42 3e 25 06 ae bf 20 bf 3a 3f 91 c8 5a 3e
       0.18970996 -1.3595625 0.72947884 0.21365573
000290 a9 07 48 3e 4d 34 41 3f ef 44 cd bf f9 83 3d 3e
       0.19534172 0.7547043 -1.6036662 0.18507375
0002a0 c6 f3 8d bf 9b ac 17 3e 22 d3 15 c0 78 82 46 3e
       -1.1090019 0.14811938 -2.3410115 0.19385707
0002b0 41 43 6b bf 01 b3 17 bf 6b 98 cb be fe 96 3a 3e
       -0.91899496 -0.59257513 -0.39764723 0.18221661
0002c0 1e 3f 50 3e 88 ea 78 bf 22 fc e0 3d 73 87 d4 3d
       0.20336577 -0.97232866 0.109855905 0.103773974
0002d0 09 ec 29 bf 0d 74 53 3e 17 47 31 3e 51 97 e2 3d
       -0.66375786 0.20649739 0.17312275 0.110640176
0002e0 e5 01 21 3e 7f fe b1 3d 74 1d 31 3e 71 4a 1b bf
       0.15723379 0.086911194 0.17296392 -0.60660464
0002f0 71 83 b7 be 37 5c 43 3e c9 31 73 bf ed 21 8d bf
       -0.3584247 0.19078146 -0.9499784 -1.1025978
000300 c0 e7 4e 3e f3 5a 93 be 72 d0 31 3e 3d 3c 11 bf
       0.20205593 -0.28780326 0.17364672 -0.5673254
000310 f6 2c c1 3e af 25 3c ba 10 dd bb bf aa 32 90 3e
       0.37729615 -0.0007177246 -1.4676838 0.28163654
000320 97 ef 72 bf 47 f4 2c 3e e4 8f 5e 3e 95 b6 3a 3e
       -0.94896835 0.1689006 0.21734577 0.18233712
000330 6e cc 80 bf c1 29 9c be 39 ac 8b 3e 04 97 c0 be
       -1.0062387 -0.30500606 0.27279833 -0.37615216
000340 e4 d4 5a 3e cf d2 0f bf 71 5b 72 3e 76 a8 d3 be
       0.21370274 -0.56181043 0.23667695 -0.41339463
000350 8e 40 39 3e bd ad 09 3e cb 17 84 3d b0 d5 bc be
       0.18091032 0.13445182 0.06449851 -0.3688178
000360 8d 12 ce bf ba d6 8b 3e 95 75 51 3e b3 fb 01 bf
       -1.6099411 0.2731226 0.2045501 -0.5077469
000370 a9 08 48 bf 97 ca 19 bf 7e f4 2b bf 5e 84 23 3e
       -0.78138214 -0.6007475 -0.6716994 0.15968463
000380 75 4f 14 c0 64 5b 06 3e b6 81 64 3e 16 e8 88 be
       -2.3173497 0.131208 0.22315106 -0.26739568
000390 fe 86 27 3e 12 3c 80 bf 97 c9 77 3e 1e 1e 4d 3e
       0.16360089 -1.0018332 0.24197994 0.2003102
0003a0 43 b6 8e 3e cd 26 04 c0 11 a6 53 bf 3f 42 8b bf
       0.2787343 -2.0648682 -0.8267527 -1.0879592
0003b0 9b bd a6 3e b2 57 94 bf 0c 97 59 bf 3d 43 ba bf
       0.32566532 -1.1589262 -0.84996104 -1.455177
0003c0 ff 9a 11 bf ee 16 f4 bf 49 4d 8a bf b0 9d 81 3e
       -0.5687713 -1.9069498 -1.0804836 0.2531562
0003d0 9a 1d f8 bc 5e 7c 9f 3e 08 61 ec bf 2f 41 21 3e
       -0.030287553 0.31149572 -1.8467112 0.15747522
0003e0 15 22 66 bf ab 43 8f 3e 4b 5e 05 3e 4c 7b e3 3d
       -0.89895755 0.27981314 0.13024251 0.111075014
0003f0 b1 fa 40 bf 1e 8b 4d bf df 96 c1 be fa 84 c8 be
       -0.75382525 -0.802904 -0.37810418 -0.39163953

l1.weight f4 [256, 26]
000000 e0 0e 28 3e 04 1b d4 bc 08 dc ae bc de 70 2e 3e
       0.16411924 -0.025891788 -0.021345153 0.17035243
000010 39 59 c3 bb e6 92 02 bc 14 16 f0 3c 1c 95 12 3c
       -0.005961564 -0.007969594 0.029307403 0.008946683
000020 d0 aa fe 3d 27 e4 9e be 6e 53 8f be 45 df 03 be
       0.12434924 -0.3103344 -0.2799334 -0.1287814
000030 b2 41 e0 3d 94 68 ac 3c dc a2 89 3e 34 8d ac 3b
       0.109500304 0.02104596 0.26882064 0.005265856
000040 53 d3 57 3e 86 16 0b bc b9 a7 96 3e 06 b4 8d 3d
       0.21076708 -0.008489257 0.29424837 0.06919102
000050 4a 77 94 bd bd e1 0e bd 8b 48 10 3d 96 26 de 3d
       -0.07249315 -0.03488325 0.035225432 0.108472034
000060 12 9e e5 3d b1 ae 65 3b 9e 61 47 3c 92 57 cd 3d
       0.1121179 0.003504675 0.01216927 0.10026468
000070 60 dc df bd 12 06 b1 3e 02 65 2f bd d4 2e 84 3c
       -0.10930705 0.34574944 -0.042820938 0.01613561
000080 8e b7 c3 bd 1e aa 56 3e 43 2a c8 3d d2 e3 61 be
       -0.09556495 0.20963332 0.09773686 -0.22059563
000090 0b ee 48 3e 7e 98 47 3e 63 c2 30 bc 04 f0 d1 bc
       0.19622056 0.19491765 -0.010788533 -0.025627144
0000a0 7a a8 fa bd 9b 00 ba bd f3 8b 1a 3c 5f bc 32 3e
       -0.122391656 -0.09082147 0.009432781 0.1745467
0000b0 b5 67 7b be 22 95 9c bd 60 e7 19 be d7 47 db 3c
       -0.2455128 -0.07645632 -0.15029669 0.026767654
0000c0 d0 85 a4 3d 37 14 64 3d 58 12 ff bc ec ed 63 bb
       0.08033335 0.05568334 -0.031136677 -0.0034779264
0000d0 fe 68 ca bc 93 c4 4d 3d 10 bd 34 bd 60 99 2d 3f
       -0.024708267 0.050236296 -0.044125617 0.67812157
0000e0 5a 61 10 be bd 62 4e 3e c2 14 9a bd 45 5d a6 3c
       -0.14099637 0.20154853 -0.075234905 0.020308146
0000f0 e8 e7 f0 be 47 f8 5b be 2a 76 51 3e d1 f7 94 bd
       -0.4705193 -0.21481429 0.20455232 -0.0727383
000100 44 71 56 be 6b 86 91 3e 77 f3 c2 bd 7b 81 a7 3d
       -0.20941645 0.28422865 -0.095190935 0.08178993
000110 56 a3 25 be dc 5c ca bd c1 a0 6b bd 88 cd 56 bd
       -0.16175589 -0.09880993 -0.057526354 -0.052442104
000120 36 2a 13 3e 6c cd 11 bd 45 82 1a 3e 1b 0b 88 3b
       0.14371571 -0.035596296 0.15088756 0.0041517145
000130 6e c2 9e 3b 6e 4a 13 3e 5b 0b 65 3e 1d 31 39 be
       0.004844955 0.14383861 0.22367613 -0.18085141
000140 fc f2 49 be 81 0e 40 be e3 9c a2 3d 09 d1 2c be
       -0.19721597 -0.18755533 0.0794008 -0.16876616
000150 be b4 17 bd 7e 59 81 3d 78 1e a4 be bb df 8f 3e
       -0.037037604 0.063158974 -0.32054496 0.2810038
000160 42 74 1c be 97 a1 08 3e 0e 1c a4 be c9 cf 9a bc
       -0.15278724 0.13342892 -0.32052654 -0.018897908
000170 5e f3 51 3d c7 26 99 bd 25 cc 1f 3e 40 b2 8e be
       0.051257484 -0.07478099 0.15605219 -0.2787037
000180 f0 e1 e5 bc eb 85 51 be 9d 4b c5 bc 3d 50 09 3d
       -0.028061837 -0.20461242 -0.024083907 0.033523787
000190 ca 65 28 be 68 73 84 3d fa 99 8a 3c a4 9e 01 be
       -0.1644508 0.064673245 0.016919125 -0.12658173
0001a0 73 e2 82 be 01 1e fa 3c ba 85 f9 3d 04 d9 92 be
       -0.25563392 0.030531885 0.121837094 -0.28681195
0001b0 6a 8e 42 3d 55 cb d5 bd 73 57 45 bd fa 9f cb 3d
       0.047499098 -0.10439173 -0.0481791 0.099426225
0001c0 20 00 84 3d ca 21 0a 3e 9a e4 5c 3e e7 a8 b9 bd
       0.06445336 0.13489452 0.2157158 -0.09065419
0001d0 e1 0e 44 bb b1 ed 65 be 71 b1 02 bd 55 d5 a9 be
       -0.0029916095 -0.22453953 -0.031907503 -0.33170572
0001e0 5b b1 03 bd ae 36 3a be 20 47 60 3e 91 61 d1 3c
       -0.03215156 -0.18184921 0.21902132 0.025559219
0001f0 7f f7 ab 3d 06 c3 61 bd 64 ac 9a bd c6 bf 93 bd
       0.083968155 -0.05511763 -0.07552412 -0.07214312
000200 b4 9d 26 bd 5c d9 8a bb 7e 35 7e bc ad 99 0f 3d
       -0.04067774 -0.004237337 -0.015515683 0.035058666
000210 16 08 53 bd b0 51 39 3d 94 f2 08 3d b4 d3 f6 bc
       -0.051521383 0.04524392 0.033434466 -0.030130245
000220 4a be c0 bc 5f 91 74 3b 5e 04 55 be f7 8a aa be
       -0.023528237 0.0037318093 -0.20802447 -0.33309147
000230 a4 ee bd 3b 61 a5 81 bd c6 b7 c9 bc d2 af fc 3d
       0.0057962704 -0.06330372 -0.024623763 0.123382226
000240 45 f8 81 3d 2e 9d 59 3b c3 03 7e 3e b0 94 69 bd
       0.06346182 0.0033205259 0.24806122 -0.057026565
000250 48 32 de 3d 44 eb dc bd 30 7b fb 3d 86 b7 93 be
       0.10849434 -0.10787061 0.122793555 -0.28850955
000260 29 a1 d3 bb 72 2b 83 bd b1 88 25 3d 23 07 21 be
       -0.006458421 -0.06404771 0.040413562 -0.15725379
000270 bd 9c 0a 3e 21 12 f8 bb c8 a4 4f bd 88 6b 63 bd
       0.13536353 -0.0075705205 -0.050694257 -0.05552247
000280 af 06 fb bd a3 ec 31 3e a7 2d 96 3d 36 94 4c be
       -0.12257134 0.17375426 0.07332926 -0.19978413
000290 8b 88 c2 3d 26 58 93 3d 13 c6 aa 3e 1c 66 fc 3d
       0.094987 0.07194547 0.33354244 0.12324163
0002a0 24 ed cc 3e 77 42 a3 be 69 64 16 3e 92 93 1a 3e
       0.40024674 -0.31886646 0.14686741 0.15095356
0002b0 90 f2 76 3e 2b 28 0b 3e 46 aa 67 3e b1 3d 7f 3d
       0.24115968 0.13589542 0.22623548 0.062314693
0002c0 7f c7 29 bd b4 3a 5e 3c 0c 61 cc bc 5b 0e 4c be
       -0.04145002 0.013563801 -0.02494862 -0.19927351
0002d0 57 ef 0e 3d a0 b1 c0 bd 41 55 b7 bd b6 80 92 3c
       0.03489622 -0.09408879 -0.08951808 0.01788364
0002e0 75 6f ba 3d b8 c9 0e 3e b8 33 f4 bd d5 2c bc bd
       0.0910329 0.13944137 -0.11923927 -0.091882385
0002f0 6e d2 34 3e 86 3e 57 be 6b 82 96 be 33 2d a3 3d
       0.17658398 -0.21019945 -0.29396376 0.079676054
000300 2f d0 4b be a8 34 e8 3c 44 7b 27 3e 86 f7 7c bd
       -0.19903634 0.028345421 0.16355616 -0.061759494
000310 9e 71 23 be e2 10 79 ba 37 e7 8f 3e 88 0e dd bd
       -0.1596131 -0.0009501112 0.2810609 -0.10793787
000320 ea 91 93 3e 8b 13 64 3e 7b 1e 9e 3d eb 8a c9 3d
       0.2882226 0.2227308 0.077206574 0.098409496
000330 ff 61 19 be 5d ac 02 be 4e 8f 6d 3c aa be c5 3c
       -0.14978789 -0.12761064 0.0144994985 0.024138767
000340 87 83 c7 3d 71 38 3c 3e 1c fc 72 be 3b cc 53 3e
       0.09741884 0.18380906 -0.23728985 0.20683376
000350 f0 a6 31 bc b6 70 42 3e 49 85 30 bd a5 70 8d bd
       -0.010843024 0.18988308 -0.04309586 -0.06906251
000360 75 fe 0c bf ec 85 05 be fc b0 bc be ba 54 77 bd
       -0.5507577 -0.13039368 -0.36853778 -0.060383536
000370 51 e4 ae be a4 62 3e be 49 47 ea 3c 34 c7 39 3e
       -0.34158567 -0.18592316 0.028598445 0.18142396
000380 99 17 00 3e 76 89 70 3d a9 c6 28 3e 77 dc 04 be
       0.12509002 0.058724843 0.16482033 -0.12974726
000390 4e 45 2f be db 34 11 3e 04 ca 85 be ca 92 e8 3d
       -0.17116281 0.14180319 -0.26130688 0.11356123
0003a0 0f 05 5c 3d 45 fc 93 3e c0 4d 8e bd 06 66 d5 3d
       0.05371576 0.28903404 -0.069484234 0.1041985
0003b0 a2 24 a6 3c 7d b0 39 be 2c 23 ea 3d 73 b1 0f 3d
       0.02028114 -0.18133731 0.1143249 0.03508134
0003c0 97 95 91 3d d2 13 cf bd 22 4b 14 3e 3e 0a b5 bd
       0.0710861 -0.10111202 0.14481786 -0.08839844
0003d0 e6 aa e1 bd 1e 80 57 be be 77 e4 3b 59 b2 80 be
       -0.110189244 -0.21044967 0.006972282 -0.25136068
0003e0 0d 99 82 bd 2f 24 1c 3d 4e 91 20 be 5d 4a ec bd
       -0.06376848 0.038120445 -0.1568043 -0.11537621
0003f0 68 97 57 3d 86 6f 33 bd ca 34 52 3d 2d 07 91 be
       0.052634627 -0.04380753 0.051319875 -0.28325787

l1.bias f4 [256]
000000 73 b9 96 be 2d e0 2e bf a7 a0 d5 be a4 4f 3d be
       -0.29438362 -0.68310815 -0.4172413 -0.18487412
000010 c4 51 ac be 1f ad 02 3d ae 64 57 be da ee 8c be
       -0.33656132 0.031903382 -0.210345 -0.2752598
000020 5c d5 52 3d 41 2f b6 be 3e b0 a7 be 81 14 cf be
       0.051473007 -0.35582927 -0.3275165 -0.4044533
000030 f4 7a ec be 2d 0a 42 be b1 bc 72 be f7 5f 6f bd
       -0.46187556 -0.18949194 -0.23704793 -0.05844113
000040 91 c2 ad be 53 90 4e be ba 59 47 be dd dd 8d be
       -0.33937505 -0.20172243 -0.19467822 -0.2770833
000050 1c 87 65 3d 0a 03 b9 be 10 a8 e3 bd 45 21 ab bc
       0.056037053 -0.3613513 -0.1111604 -0.020889888
000060 99 26 c1 bd 5f 20 00 3e c6 f6 b3 be 24 d1 d8 be
       -0.0943119 0.12512349 -0.3514921 -0.42347062
000070 a6 67 ac be b6 bb 67 be f6 0e 2c 3e 4b a0 fb be
       -0.33672827 -0.226302 0.16802582 -0.4914573
000080 f7 8d c4 3c f1 fd 8c be 99 9c 9a be 47 0a 0e be
       0.023993475 -0.27537492 -0.301976 -0.13871108
000090 ff 79 cc be c3 b7 c4 ba e6 64 d9 be af 02 0c bf
       -0.39936826 -0.0015008379 -0.42459792 -0.54691595
0000a0 89 f1 f0 be 70 6d eb be 23 11 f7 be 7e e8 ea be
       -0.47059277 -0.45981932 -0.48255262 -0.45880502
0000b0 29 00 de be 2d 13 dd be cf 4b b5 be 3d a2 d7 3c
       -0.43359497 -0.43178692 -0.354094 0.026322478
0000c0 0e fa d5 bd 46 82 7e be 60 16 a5 bd a1 d9 3f be
       -0.10448085 -0.24854383 -0.08060908 -0.18735363
0000d0 6d c5 d6 be bd 2a 67 bd 90 98 5c 3d 84 e8 bd 3c
       -0.419475 -0.056437243 0.053856432 0.023182161
0000e0 0a 57 50 be 1a f2 55 be 91 c1 98 be 64 5a e9 be
       -0.20345703 -0.20893136 -0.2983518 -0.45576775
0000f0 97 d0 47 3e 30 44 b2 be 35 75 8e bd c4 b2 b4 3e
       0.19513164 -0.34817648 -0.06955949 0.35292637
000100 2d e3 2e be e8 4d cc be c7 6c b7 be 03 0a b3 bd
       -0.17078848 -0.39903188 -0.35825178 -0.08742144
000110 76 df 9c 3c 57 38 91 be 3d 86 18 be b6 49 d5 be
       0.019149523 -0.28363296 -0.14894958 -0.416578
000120 7d 58 96 be e7 a8 b6 3d 89 b1 d4 3d bc f1 ca be
       -0.29364386 0.08918934 0.10385425 -0.39637554
000130 c8 d6 8d bd 35 2e c9 be 16 3d 41 be 2e d5 c2 be
       -0.06925732 -0.39293066 -0.18870959 -0.38053268
000140 b2 9a 61 be 4b 6d e2 be ba d6 ce 3d e1 01 1b be
       -0.22031668 -0.4422401 0.100995496 -0.15137435
000150 38 ba ae be bf b4 f6 be 95 bd 8d be 60 ba 7e be
       -0.3412645 -0.48184773 -0.27683702 -0.24875784
000160 04 9f 3f be b8 b1 ba be 17 35 97 be 9b cb 7a be
       -0.18713003 -0.36463714 -0.29532692 -0.24491732
000170 0c 7b 9e be 35 02 a3 be 71 ae eb be 93 df ea be
       -0.30953252 -0.3183762 -0.46031526 -0.458737
000180 50 19 e2 be ca b0 c2 be 8d 7c 21 bf 5d 7a 26 3e
       -0.44159937 -0.38025504 -0.63080674 0.16257615
000190 02 90 e6 be a5 a2 d2 be e2 7b b4 be 6c 88 e2 be
       -0.45031744 -0.41139713 -0.35250765 -0.44244707
0001a0 b8 ea 4d be 27 01 6f 3e c6 01 c9 be 9d c0 0c be
       -0.2010907 0.23340283 -0.39259166 -0.13745351
0001b0 90 bc f5 bd 59 e3 b2 bd 43 ae de be 33 94 38 be
       -0.11998856 -0.087347694 -0.43492326 -0.18025284
0001c0 45 d1 1b bf 94 69 31 be 6e 63 9c be 1e cb 7f be
       -0.60866195 -0.17325431 -0.3054461 -0.24979827
0001d0 8e 8c c4 be e3 7f 84 be 40 0f 95 be e1 3f 8f be
       -0.38388485 -0.2587882 -0.29113197 -0.27978423
0001e0 85 ac f2 be 07 0b 00 bf 14 3a 79 be df 52 8b be
       -0.47397247 -0.50016826 -0.24338561 -0.27211663
0001f0 7d 27 6b be 52 d8 60 be 8e 1c 06 bf 97 0b 86 be
       -0.22964282 -0.2195752 -0.5238732 -0.26180717
000200 b7 a9 5e be 31 3c 80 3e 1c 8a 98 be be 71 4e be
       -0.21744429 0.25045922 -0.2979287 -0.20160577
000210 c4 b5 ac be ea 16 4c bd 0b 72 9d 3d 72 88 d3 bd
       -0.33732426 -0.04982654 0.076877676 -0.10328759
000220 a9 41 88 bd 6b d3 53 be 29 81 02 be 31 f0 62 be
       -0.06653149 -0.20686118 -0.12744583 -0.22161938
000230 5c 3c 0f 3d 64 e8 74 be 9f 4f 87 be b6 ff c2 be
       0.034969673 -0.23916775 -0.26427934 -0.38085717
000240 d2 11 85 be 8f bf 9a be 54 1d 09 bf 49 7d da be
       -0.25990158 -0.30224273 -0.53560376 -0.4267371
000250 ca 0f 82 be a5 af a9 be cb 38 48 be 8b 6e b0 be
       -0.2540267 -0.3314182 -0.19552915 -0.34459338
000260 d2 81 e0 3d 37 90 b2 be d1 fc 24 be 5a 91 46 be
       0.10962261 -0.34875652 -0.16112067 -0.19391385
000270 ae d3 63 be de e3 76 be 94 9a ac be 7a db 9e be
       -0.22248718 -0.24110362 -0.33711684 -0.31026822
000280 4f 07 bd be 28 4d 96 3e 60 8b 94 bd e4 40 89 bd
       -0.3691964 0.2935574 -0.07253146 -0.0670183
000290 7b 9f ce be 5a f0 53 be 3e ce 49 be db 5f 83 be
       -0.4035605 -0.20697156 -0.19707581 -0.2565907
0002a0 ce 12 d8 bc 37 e5 89 bd 98 61 af be 42 2d 53 be
       -0.026376154 -0.067331724 -0.34254146 -0.20622733
0002b0 e2 3c 12 be 4b 93 a4 3e 2c 74 f0 be b4 46 ed be
       -0.14281037 0.32143626 -0.46963632 -0.46343005
0002c0 ea 3f e3 be c9 92 b4 be 0d 27 c0 be d6 2d 91 be
       -0.443847 -0.35268238 -0.37529793 -0.28355283
0002d0 38 7c 6f be 02 64 d1 be 75 98 c4 3d 19 ae a5 bd
       -0.2338723 -0.40896612 0.09599391 -0.08089847
0002e0 a8 1e 73 be 3d 23 6c be e6 fa bc bd 97 34 9b be
       -0.23742163 -0.23060317 -0.092275426 -0.3031356
0002f0 eb 92 7e 3c 13 72 a0 3c d1 56 db 3a 2f b7 1d 3d
       0.015537958 0.019585645 0.0016734247 0.038504776
000300 65 47 b4 be 53 e1 b7 be 44 c2 5e be dc 66 7f bd
       -0.3521072 -0.35914096 -0.21753794 -0.062353954
000310 7c 03 97 bd cf 00 8f 3d 99 14 34 be 4d 28 0a 3e
       -0.073737115 0.06982576 -0.17585982 0.13491936
000320 51 73 4e 3e 9d 3f f6 be aa f5 b4 be 4e 27 89 be
       0.20161177 -0.48095408 -0.35343677 -0.267878
000330 cb 3e 25 3d b4 6c 80 be 0f b8 35 bd 01 75 97 3c
       0.040343087 -0.25082934 -0.044364985 0.018488409
000340 2c 82 d3 be d0 10 98 be 51 82 c2 be d1 87 54 be
       -0.4131025 -0.29700327 -0.3799005 -0.20754935
000350 99 82 b6 be b6 f8 28 bd 1a 5d 09 bd 45 c2 95 3d
       -0.35646513 -0.041252814 -0.033536054 0.073124446
000360 52 b8 53 3e fa d5 ec be 5f 82 fb be a7 e7 34 bd
       0.20675781 -0.46257 -0.49122903 -0.044166233
000370 07 5c f4 3b af e0 a7 be de d4 57 be fd 91 f2 be
       0.0074572596 -0.32788607 -0.21077296 -0.47377005
000380 a9 07 42 be 9e 63 d1 bd b1 d7 e3 be f9 65 43 be
       -0.18948235 -0.102240786 -0.44500497 -0.19081868
000390 e2 0a 52 be e4 1c af bc 41 d0 39 be f7 08 bb be
       -0.20511964 -0.02137608 -0.18145849 -0.36530277
0003a0 71 e0 f3 be 39 85 c6 be b6 69 18 3e bd 8f 73 be
       -0.47632173 -0.38773516 0.14884076 -0.237853
0003b0 67 7a 6e be ed 66 5c be f9 ed 12 bf d1 a4 c8 bd
       -0.2328888 -0.21523638 -0.5739437 -0.09797061
0003c0 11 97 1c be a3 4c a4 be 28 e4 87 be d2 12 b5 be
       -0.15292002 -0.3208972 -0.26541257 -0.3536592
0003d0 90 45 e0 bd 34 d9 1c be b3 3f 91 3e 6b 19 48 be
       -0.10950768 -0.15317231 0.2836891 -0.19540946
0003e0 01 50 93 be 2e 23 7c be 8c cd 0f bf bd f8 45 bd
       -0.28771976 -0.24622795 -0.56173015 -0.04833292
0003f0 0e 18 3f be b2 6c 17 bf 41 ee b4 be 4c d9 be be
       -0.1866152 -0.5915023 -0.35338023 -0.3727516
