Project/upload/part2_q3/HalfCheetahBulletEnv-v0_TD3_BC_Single_Cirtic_500_1638452021_td3_bc.pth (torch, 598401 bytes, 11 tensors)

l1.weight f4 [256, 32]
0	0x3db7752f	0.08957898
1	0x3e32b8cb	0.17453305
2	0x3d6cb16f	0.0577864
3	0xbd60ec55	-0.054912884
4	0x3e16bf46	0.14721403
5	0xbe9667b5	-0.29375997
6	0xbe4694ec	-0.19392747
7	0xbe55ce08	-0.20879376
8	0xbf4e0fd3	-0.80492896
9	0x3ded39da	0.115833
10	0xbf7e3c87	-0.9931111
11	0xbcc5b895	-0.024135867
12	0xbea773f8	-0.32705665
13	0x3c997a62	0.018735114
14	0xbe3b31be	-0.18280694
15	0xbea41ec1	-0.32054713
16	0xbd12f682	-0.03587962
17	0xbeaed4db	-0.3414677
18	0xbe812820	-0.25225925
19	0xbe788548	-0.24269593
20	0x3d7b1865	0.06130256
21	0xbcb566da	-0.02214377
22	0xbe6c97bd	-0.23104759
23	0xbdb067d3	-0.08613553
24	0xbdb10233	-0.086429976
25	0x3e273f92	0.16332844
26	0x3d8454da	0.06461497
27	0x3e17565d	0.14779039
28	0x3e28a214	0.16468078
29	0x3dfad818	0.12248248
30	0xbc8ee09c	-0.017441086
31	0xbd96eb83	-0.07369139
32	0xbd802235	-0.062565245
33	0x3dfa4d11	0.122217305
34	0x3d94a509	0.072580405
35	0xbdf2a331	-0.118475325
36	0xbd9acb56	-0.075583145
37	0x3c3de512	0.011590259
38	0xbe3c4ef2	-0.1838949
39	0xbea62e60	-0.32457256
40	0x3d7d3b26	0.061823986
41	0x3e1b8be9	0.1519009
42	0x3e8a2f05	0.26988998
43	0x3dc1a163	0.0945461
44	0x3f616f98	0.88060904
45	0x3f1eeb3d	0.62077695
46	0xbd4e2e37	-0.050337043
47	0x3cbd2e24	0.02309329
48	0x3bf4cfbe	0.007471054
49	0xbcceb9b4	-0.025235035
50	0x3e130a2c	0.14359349
51	0xbd863a84	-0.0655413
52	0xbd990d98	-0.07473296
53	0x3d05d968	0.032678038
54	0x3d79ae7a	0.06095741
55	0xbbfcf08b	-0.0077191046
56	0xbb9f82fc	-0.0048679095
57	0xbd01b718	-0.031668752
58	0x3dd42c73	0.103600405
59	0xbe238104	-0.15967184
60	0x3f2fd7a9	0.68688446
61	0x3d7e06b7	0.062018123
62	0xbdcd4b0e	-0.10024081
63	0x3ca3ab6d	0.019979203
64	0x3e0f0981	0.13968469
65	0x3e295bc1	0.16538908
66	0x3e54c56f	0.2077844
67	0xbe684388	-0.22682011
68	0xbc669f70	-0.014076099
69	0x3eb7167e	0.35759348
70	0x3d74f948	0.059808046
71	0xbd2fdfbf	-0.04293799
72	0x3df3f1c6	0.11911349
73	0x3ce9dc23	0.028547352
74	0x3e25ff3e	0.16210648
75	0xbcda3fc0	-0.026641726
76	0x3d9f8613	0.077892445
77	0x3e6b0bec	0.22953767
78	0x3eb93c8f	0.36179015
79	0x3e402d93	0.18767385
80	0xbeae6edd	-0.34068957
81	0xbc8e0599	-0.017336654
82	0xbdae6693	-0.08515658
83	0x3d7f63e3	0.06235112
84	0xbe7237a8	-0.23654044
85	0x3d4ff010	0.05076605
86	0x3cf6d407	0.0301304
87	0x3e8ebb1b	0.27877125
88	0xbddbafda	-0.107269004
89	0xbc9b6684	-0.018969782
90	0xbddba1dd	-0.10724232
91	0xbdca54e7	-0.09879475
92	0x3d6b7260	0.057482123
93	0x3e0378dc	0.12839073
94	0xbde3b668	-0.111187756
95	0x3d7467c5	0.059669275
96	0x3dbbf379	0.09177298
97	0xbdf2934a	-0.118444994
98	0x3d02d118	0.03193769
99	0xbd7d939d	-0.061908353
100	0xbd1eabfe	-0.038738243
101	0xbdc30e67	-0.095242314
102	0xbd17c809	-0.037056003
103	0x3f2cfe10	0.6757517
104	0xbebedaca	-0.37276298
105	0xbd989fc0	-0.07452345
106	0x3e9dc81a	0.30816728
107	0xbdbc43ef	-0.09192645
108	0xbec1e4ad	-0.37869778
109	0x3d86a00a	0.06573494
110	0xbeb219d2	-0.34785324
111	0xbe279545	-0.16365536
112	0xbed6d7f3	-0.4196163
113	0xbce7d679	-0.02830051
114	0x3e31049b	0.17286913
115	0x3e05f3d4	0.13081294
116	0xbd53404a	-0.051574983
117	0x3e2ee6d6	0.17080244
118	0x3e4c3851	0.19943358
119	0x3eafc9b2	0.3433357
120	0xbdd4fca7	-0.10399752
121	0x3db3b881	0.08775426
122	0x3b8e2b05	0.0043386244
123	0xbd4222c1	-0.047396425
124	0x3e656149	0.22400393
125	0xbe77c233	-0.24195175
126	0x3e166b33	0.14689331
127	0x3d3b2c9c	0.04569684
128	0x3eebcdbf	0.4605541
129	0x3d9e19c1	0.07719756
130	0xbe1767b2	-0.1478565
131	0x3ea05982	0.3131829
132	0xbe0c84e6	-0.13722572
133	0xbe16ab02	-0.14713672
134	0x3ddcb90e	0.10777484
135	0x3e490f60	0.19634771
136	0xbeb138b5	-0.34613577
137	0x3de21194	0.11038509
138	0xbe723897	-0.236544
139	0xbcddcba8	-0.02707465
140	0xbea359ef	-0.3190455
141	0x3e32892a	0.17435136
142	0x3c341d7a	0.010993356
143	0x3e9ab3e0	0.3021536
144	0xbeaa9544	-0.33317006
145	0x3e85b4b4	0.26114428
146	0xbef2fb0d	-0.47457162
147	0xbe348c0a	-0.17631546
148	0x3ddbcee0	0.10732818
149	0x3bbd8103	0.0057832017
150	0x3cc423b4	0.023942806
151	0xbdd588d6	-0.1042649
152	0xbcc5c1f0	-0.024140328
153	0xbc865d9f	-0.016402064
154	0x3e37aa06	0.17935953
155	0xbd1cc5c1	-0.03827453
156	0xbb969e73	-0.0045965253
157	0x3dfec232	0.124393836
158	0x3e1793d7	0.1480249
159	0x3c0dad76	0.008647313
160	0xbdf15a69	-0.117848225
161	0xbd311fd7	-0.043243255
162	0x3e50c2dd	0.20386834
163	0xbd7e301d	-0.062057603
164	0xbdb4e1a3	-0.08832099
165	0x3c51dc19	0.012808823
166	0xbd1aa3cd	-0.03775387
167	0xbe084743	-0.13308434
168	0xbccaee02	-0.024771694
169	0x3e3f32f2	0.18671778
170	0xbd387090	-0.045029223
171	0x3dc63b33	0.0967926
172	0xbd43756c	-0.047719404
173	0x3da779f8	0.081775606
174	0x3dcc5ed8	0.099790275
175	0x3e17bc17	0.14817844
176	0x3d9f348c	0.077736944
177	0x3e195e46	0.14977369
178	0xbe80dd8c	-0.25169027
179	0xbdc4ecff	-0.09615516
180	0xbd153fea	-0.036437906
181	0xbd940624	-0.07227734
182	0xbe9817af	-0.2970557
183	0xbf024bf8	-0.5089717
184	0xbeb49131	-0.35267022
185	0xbe0ed005	-0.1394654
186	0x3d9cd30f	0.07657444
187	0x3d58d88d	0.052940894
188	0xbd4f1cee	-0.0505647
189	0xbbda9e45	-0.006671699
190	0x3dca7455	0.0988547
191	0xbdcc4d16	-0.099756405
192	0x3d704cf6	0.058667146
193	0xbd4afe23	-0.04955877
194	0x3c202c20	0.009776145
195	0xbd933095	-0.07187001
196	0xbe107693	-0.14107732
197	0x3c0264e3	0.007958624
198	0xbdac5624	-0.084148675
199	0x3eb89f42	0.36059004
200	0x3e4c919d	0.19977422
201	0xbb2031cc	-0.0024443744
202	0x3d671098	0.05641231
203	0xbdc961a9	-0.0983308
204	0x3ee20adf	0.4414892
205	0xbe081fcb	-0.13293378
206	0xbd946cc7	-0.0724731
207	0xbe61db6c	-0.22056359
208	0x3b2045f0	0.0024455748
209	0xbe7dca0d	-0.24784108
210	0xbbe872e8	-0.007093776
211	0xbe29eeb7	-0.16594969
212	0xbd78421c	-0.06060992
213	0x3e5b7e89	0.21434988
214	0xbe6c904c	-0.2310192
215	0x3e8c89f8	0.27449012
216	0x3de3057d	0.11085031
217	0x3d450096	0.048096262
218	0x3c3fbf2c	0.011703294
219	0xbde44d12	-0.111475125
220	0x3d1cc6eb	0.03827564
221	0xbdebf458	-0.11521214
222	0xbe30c09e	-0.17260978
223	0xbceaf225	-0.028679917
224	0xbf055a0b	-0.5209052
225	0xbc04e890	-0.008112088
226	0xbd45dd70	-0.048306882
227	0x3e990e12	0.29893547
228	0xbe21fa82	-0.15818217
229	0x3ded09cf	0.115741365
230	0x3d530c29	0.05152527
231	0xbdd908ee	-0.10597406
232	0x3dc905bb	0.09815546
233	0xbd02bb0d	-0.031916667
234	0xbf2f67b7	-0.6851763
235	0x3d89af0d	0.067228414
236	0x3e405b66	0.18784866
237	0x3e17fca4	0.14842469
238	0xbeace274	-0.3376652
239	0xbe2d7e66	-0.16942748
240	0xbebe0b94	-0.37118208
241	0xbe9ad822	-0.3024302
242	0x3d6cdd0b	0.05782799
243	0x3d439e82	0.047758587
244	0xbee7b6f7	-0.4525678
245	0xbea2900f	-0.31750533
246	0x3d3ac0c3	0.04559399
247	0xbe759b38	-0.23984993
248	0xbdf2aed7	-0.11849754
249	0xbe4166d0	-0.18886876
250	0x3c482db6	0.01221793
251	0xbd94e6dd	-0.07270596
252	0x3c156d86	0.009120351
253	0xbe02c732	-0.127713
254	0xbe05b72e	-0.13058159
255	0x3cb65169	0.022255616

l1.bias f4 [256]
0	0xbe1ed37f	-0.15510367
1	0xbf3a0be0	-0.7267437
2	0x3dfee5f3	0.12446203
3	0xbee04cc3	-0.43808565
4	0xbf338839	-0.70129734
5	0x3ef6fa54	0.4823786
6	0x3e8e21ec	0.27760255
7	0x3d0ec749	0.034858022
8	0x3f02cb39	0.51091343
9	0x3f1ad532	0.6048156
10	0xbe91ce47	-0.2847769
11	0xbf43c153	-0.76466864
12	0xbf2106b4	-0.62900853
13	0x3efef03d	0.49792662
14	0x3e5ed1bf	0.217597
15	0x3ead7e78	0.3388555
16	0x3ea28c3c	0.31747615
17	0xbe1f9e6a	-0.15587774
18	0xbee6715e	-0.45008367
19	0xbe869830	-0.26287985
20	0xbee2bdf4	-0.44285548
21	0x3e4d6037	0.20056234
22	0x3de4a814	0.11164871
23	0x3df5253b	0.11969992
24	0x3ee9e7c9	0.4568465
25	0x3efd33ef	0.49453685
26	0x3ec7736d	0.3895525
27	0xbf0c9ee7	-0.54929966
28	0x3ea1d9be	0.31611437
29	0xbe8fcfcf	-0.28088233
30	0xbf3b2b53	-0.7311298
31	0xbeee152d	-0.4650053
32	0xbecc0b78	-0.398525
33	0x3e1a5a92	0.15073612
34	0xbeb1b8fb	-0.3471144
35	0x3f11b65c	0.56918883
36	0xbf54d4d8	-0.83137274
37	0x3e7419e7	0.23838006
38	0xbef4e8fd	-0.47834006
39	0x3eb0506f	0.34436366
40	0xbeff9b8f	-0.4992337
41	0xbe0dbf8f	-0.13842605
42	0xbe85adee	-0.2610926
43	0xbf7365c3	-0.9507715
44	0x3e1a7108	0.1508218
45	0x3edac946	0.42731684
46	0xbec8e3d5	-0.39236322
47	0x3f1c5131	0.6106139
48	0x3d679685	0.05654003
49	0xbe8bf46d	-0.2733492
50	0x3ee8882c	0.4541639
51	0xbf390edd	-0.72288305
52	0x3f1f9ef0	0.62351894
53	0xbe9d1924	-0.30683243
54	0x3f24f9c1	0.64443594
55	0xbf5f6014	-0.8725598
56	0xbc1a15bc	-0.009404596
57	0xbe1702a7	-0.14747106
58	0x3e64aace	0.22330782
59	0xbebd1ebb	-0.36937508
60	0xbe207f73	-0.15673618
61	0x3e17acd0	0.14812016
62	0xbe81aa39	-0.25325182
63	0xbf3d1fc0	-0.7387657
64	0xbeef2f22	-0.46715647
65	0x3e57c9cc	0.21073073
66	0x3f02e81d	0.51135427
67	0xbf15a44f	-0.5845384
68	0xbf03dd0e	-0.5150918
69	0x3df65c52	0.120293275
70	0xbed301d1	-0.41212323
71	0x3f24a08f	0.6430749
72	0x3e090cdb	0.1338381
73	0xbcc869af	-0.024464456
74	0xbf15f77d	-0.5858076
75	0x3ec23940	0.37934303
76	0x3f2ca137	0.67433494
77	0x3eac4507	0.33646414
78	0xbedb11ee	-0.42787117
79	0xbef794ac	-0.48355615
80	0xbf02372f	-0.50865453
81	0x3df4db7b	0.11955925
82	0xbf01f985	-0.5077136
83	0x3ec7ade6	0.3899986
84	0xbf8242ee	-1.0176675
85	0x3e1e9acd	0.1548874
86	0xbe3a4c58	-0.18193185
87	0x3ed74de0	0.420516
88	0x3f294f9d	0.66137105
89	0xbdb7f68e	-0.089825734
90	0xbf31f31e	-0.6951159
91	0xbf419c35	-0.7562898
92	0x3e9b0e15	0.3028418
93	0xbe380e3b	-0.17974178
94	0xbcd3ec48	-0.025869504
95	0x3ed6aece	0.4193024
96	0x3f356622	0.7085897
97	0xbe8236ad	-0.2543234
98	0xbe9278be	-0.28607744
99	0x3d69f1bc	0.0571153
100	0xbef981f5	-0.48731962
101	0xbeee98c6	-0.46600932
102	0xbf1c9469	-0.61163956
103	0xbe800aed	-0.25008336
104	0x3f018b96	0.50603616
105	0xbf0e0d8d	-0.55489427
106	0xbf4bb129	-0.795672
107	0xbf39df61	-0.72606474
108	0x3f0a7bfe	0.5409545
109	0xbf1610c3	-0.58619326
110	0xbf440c3e	-0.7658118
111	0x3deab461	0.11460186
112	0xbf9be5e3	-1.2179531
113	0xbf12fd69	-0.57417923
114	0xbeb5dd04	-0.35520184
115	0x3efc6402	0.4929505
116	0xbf65b87f	-0.89734644
117	0xbe9f6f04	-0.31139386
118	0x3eb68086	0.3564493
119	0x3ea54036	0.32275552
120	0x3e9de382	0.30837637
121	0x3ee7ac27	0.4524853
122	0x3e5104b0	0.20411944
123	0xbf73c8c8	-0.9522824
124	0xbf154027	-0.58301014
125	0xbf2928ef	-0.66078085
126	0xbebf20e4	-0.3732978
127	0xbf5157fa	-0.81774867
128	0x3f158a42	0.5841409
129	0xbf83a365	-1.0284239
130	0xbfa420f5	-1.2822558
131	0x3ea4f85e	0.3222074
132	0x3f1e930a	0.61943114
133	0x3e62ad0d	0.22136326
134	0xbf299e96	-0.6625761
135	0xbf003053	-0.50073737
136	0xbeb762f5	-0.35817686
137	0x3e326c7e	0.17424199
138	0x3ede59f7	0.43428013
139	0x3e32d4bc	0.17463964
140	0xbf155ca1	-0.58344465
141	0xbf542609	-0.8287054
142	0xbe87de36	-0.2653672
143	0x3ed892b7	0.42299435
144	0x3f1e2b7c	0.617851
145	0x3ee6e5e0	0.45097256
146	0x3ef9f688	0.488209
147	0x3ee035ea	0.43791133
148	0xbf9eeb27	-1.2415513
149	0xbf0143a3	-0.5049383
150	0xbe726f6c	-0.23675317
151	0x3e26b043	0.16278176
152	0xbf2c4a23	-0.67300624
153	0x3f18f2ea	0.5974566
154	0x3ec69f44	0.38793385
155	0x3eb7bf2c	0.3588804
156	0xbcf9f71a	-0.030513335
157	0xbf951949	-1.1648341
158	0x3eeb2558	0.4592693
159	0x3eaa5f91	0.33276036
160	0x3f2a6f3b	0.66575974
161	0xbf31f1e5	-0.69509727
162	0xbf01578b	-0.50524205
163	0x3e3c8a54	0.18412143
164	0x3e5bcd23	0.21464972
165	0xbf0420b3	-0.51612395
166	0xbd3cfe38	-0.04614088
167	0x3ec1b635	0.37834325
168	0x3e841dce	0.2580399
169	0x3e5429e9	0.20719112
170	0x3e00b085	0.12567337
171	0x3f0dac9a	0.55341494
172	0xbf0d1aee	-0.55119216
173	0x3ea6fbab	0.32613882
174	0x3da8ef0d	0.0824872
175	0x3e4ae5b3	0.19814186
176	0xbe2dae53	-0.1696103
177	0x3e289e6c	0.16466683
178	0xbe8993be	-0.2687053
179	0xbf90e85d	-1.1320912
180	0xbe6f408f	-0.23364471
181	0x3f03782b	0.51355237
182	0xbe8aa40b	-0.2707828
183	0xbf2f23ea	-0.68414176
184	0xbde261f3	-0.110538386
185	0xbe9dd434	-0.3082596
186	0x3ec2d2e6	0.38051528
187	0x3ed22d0a	0.41049987
188	0xbee98b82	-0.4561425
189	0xbed3c953	-0.41364536
190	0x3f4b1bd4	0.7933934
191	0x3ea89b71	0.32931092
192	0xbed1bfaf	-0.40966555
193	0xbe1670d3	-0.14691477
194	0x3dbffb0d	0.09374056
195	0xbf1c7741	-0.6111947
196	0x3f18fa6d	0.5975712
197	0x3d38392d	0.044976402
198	0xbed25748	-0.41082215
199	0x3f07e76e	0.5308751
200	0xbec60894	-0.3867842
201	0x3d6107ea	0.054939188
202	0x3f44e1fb	0.7690732
203	0xbe4f90b9	-0.20270051
204	0xbee8423d	-0.45363036
205	0xbf2b04f9	-0.6680446
206	0xbf43682c	-0.7633083
207	0x3d85234f	0.06500875
208	0x3f0124a4	0.50446534
209	0xbe9e235e	-0.30886358
210	0xbf21fa99	-0.63273007
211	0x3f287d97	0.65816635
212	0x3f01fe35	0.50778514
213	0xbe91838c	-0.28420675
214	0xbe3a44c7	-0.18190299
215	0x3ef929d2	0.4866472
216	0x3e082e31	0.1329887
217	0x3eec25a1	0.4612246
218	0x3d12e590	0.03586346
219	0xbf593d84	-0.8485949
220	0x3f19f5c2	0.6014062
221	0x3f211b24	0.6293204
222	0x3c8c1b58	0.017102882
223	0x3ee0d637	0.43913433
224	0x3f0c9a8c	0.5492332
225	0x3e918f3a	0.28429586
226	0xbeffed7b	-0.4998587
227	0xbeaee202	-0.34156805
228	0x3d6b4b0c	0.057444617
229	0x3f02255c	0.50838256
230	0xbeac1638	-0.33610702
231	0x3d00be12	0.031431265
232	0x3f0710ae	0.52759826
233	0x3e5003bb	0.20313923
234	0xbe1af71b	-0.15133326
235	0x3d677583	0.056508552
236	0xbe9c22f4	-0.30495417
237	0x3f119169	0.56862503
238	0xbf330f2b	-0.6994502
239	0x3e53651b	0.20644037
240	0xbec21b78	-0.37911582
241	0xbe83c87d	-0.25738898
242	0x3f1054b9	0.56379277
243	0x3f3a28ed	0.727187
244	0xbec37615	-0.38176027
245	0xbe83685c	-0.25665557
246	0x3c3ae366	0.011406755
247	0xbec731de	-0.38905233
248	0xbe4f09d1	-0.20218588
249	0xbea79c1b	-0.32736287
250	0xbe58d86e	-0.21176311
251	0x3eb14a24	0.34626877
252	0x3ebed176	0.3726918
253	0x3e09519c	0.13410038
254	0x3f27d972	0.6556617
255	0x3f06476d	0.5245274

l2.weight f4 [256, 256]
0	0x3cfc9c21	0.030836167
1	0xbc6442b5	-0.01393192
2	0x3cf848bd	0.030308122
3	0xbcfa070e	-0.030520942
4	0xbd3ce250	-0.046114266
5	0xbd7749aa	-0.060372986
6	0xbd62c680	-0.055365086
7	0x3ad1a067	0.0015993238
8	0x3ca79f1d	0.020461613
9	0x3caef4a1	0.021356883
10	0xbb2d1357	-0.0026409233
11	0xbd5773c4	-0.052600637
12	0xbb4805a5	-0.0030520943
13	0xbd245b51	-0.04012615
14	0x3ce5feea	0.028075654
15	0x3ae2b774	0.0017297105
16	0xb95d01e2	-0.00021076904
17	0x3ced7751	0.028987559
18	0xbd7233de	-0.059131496
19	0xbd0e6455	-0.034763653
20	0x3c9a2302	0.018815521
21	0xb949d210	-0.00019247108
22	0x3cc7162e	0.024302568
23	0xbd202fb0	-0.03910798
24	0xbd766cce	-0.060162358
25	0xbca0d3c4	-0.019632228
26	0xbd9ac8c7	-0.075578265
27	0xbcb57f77	-0.022155507
28	0x3d34da6c	0.044153616
29	0x3b168822	0.0022969325
30	0xbd3db2e6	-0.04631319
31	0xbd88dea7	-0.066830926
32	0xbda786ba	-0.08179994
33	0xbcfd96f2	-0.030955765
34	0x3cc479e1	0.023983898
35	0xbd4034fd	-0.046925534
36	0x3b76d88b	0.003766569
37	0xbd431605	-0.04762842
38	0x3d5182a2	0.05114997
39	0x3d38dfd9	0.045135353
40	0x3bbbf87e	0.0057364097
41	0xbceead0a	-0.029135246
42	0x3cd82da5	0.026388953
43	0x3d076aae	0.033060722
44	0xbd3229e4	-0.04349698
45	0x3caabdc2	0.020842437
46	0xbd4c83a1	-0.04993022
47	0xbd35de41	-0.04440141
48	0x3cbbbce3	0.022917217
49	0xbd44502e	-0.047928028
50	0xbd429f32	-0.0475151
51	0xbd5721bd	-0.05252241
52	0xbd3eae42	-0.046552904
53	0xbcbcc130	-0.023041338
54	0xbce8e448	-0.028429165
55	0x3c90afec	0.017662011
56	0xbc97b619	-0.018519448
57	0xbc68e8ad	-0.0142156305
58	0x3d28fe65	0.041258235
59	0xbc5c8ed7	-0.01346179
60	0x3cf1faa1	0.029538454
61	0xbd631658	-0.05544123
62	0xbc429e52	-0.011878567
63	0xbbe9a70f	-0.0071305106
64	0xbd578b02	-0.052622803
65	0xbd30b5f7	-0.043142285
66	0xbd85e2f9	-0.06537432
67	0xbbd63715	-0.006537328
68	0xbd2be2f0	-0.04196447
69	0xbd700a68	-0.058603674
70	0xbd8f8369	-0.070074864
71	0xbcd32fdc	-0.025779657
72	0xbd8046ed	-0.06263528
73	0xbd265125	-0.04060473
74	0x3c96fbf9	0.018430697
75	0x3c0ba039	0.008522087
76	0x3d18d4ff	0.037312504
77	0xbd842eec	-0.06454262
78	0x3d3c9f57	0.046050396
79	0x3c0ecb75	0.0087155
80	0x3ccdd9dc	0.025128298
81	0xbd2d77af	-0.042350467
82	0xbbed2155	-0.0072366395
83	0x3d16caf5	0.03681465
84	0xbcc85a76	-0.024457198
85	0x3cd97eb2	0.02654967
86	0x3bfdfe8b	0.007751291
87	0xbd503630	-0.050832927
88	0x3d5b74d2	0.053578205
89	0xbd1d925c	-0.038469657
90	0xbd496779	-0.049170945
91	0x3d5bf27d	0.05369805
92	0x3cb844c1	0.022493722
93	0xbc91c81c	-0.017795615
94	0xbd825906	-0.06364636
95	0x3d0c246f	0.034214433
96	0xbd405aeb	-0.046961706
97	0x3b79196a	0.0038009533
98	0xba8a3210	-0.0010543484
99	0x3bdee3f3	0.006802076
100	0xbc344157	-0.011001906
101	0xbd7d25fe	-0.06180381
102	0x3cad79a0	0.02117616
103	0xbcf5eb4b	-0.030019423
104	0x3c3f12a6	0.011662161
105	0x3c39782d	0.011320156
106	0xba7726e0	-0.0009428095
107	0x39e2fb67	0.00043293388
108	0x3ca80cee	0.020513978
109	0xbd8603a2	-0.06543662
110	0x3cf92efe	0.030417915
111	0xbd156db6	-0.03648158
112	0xbd21c8a2	-0.03949798
113	0xbc5d9f8c	-0.0135268085
114	0xbd78b2e4	-0.06071748
115	0x3d08e0a7	0.03341737
116	0x3bf24357	0.0073932814
117	0x3cd5cbc8	0.026098147
118	0xbd92cce3	-0.07167985
119	0x3cf2940c	0.02961161
120	0xbc5c8525	-0.0134594785
121	0xbcc8a95d	-0.024494821
122	0xbcf61e05	-0.030043611
123	0x3d0d8d7c	0.03455876
124	0x3d0bb2c4	0.03410603
125	0xbaa8b972	-0.001287265
126	0x3d2eb4ae	0.04265278
127	0x3cafa7de	0.02144235
128	0x3a9483bf	0.0011330767
129	0x3b2ff03f	0.0026846079
130	0x3ba40012	0.005004891
131	0x3c253c94	0.010085244
132	0xbd651361	-0.055926684
133	0xbd9a2f7f	-0.075285904
134	0xbc25c7d7	-0.010118446
135	0xbb884a32	-0.0041592354
136	0xbd2cd761	-0.04219759
137	0x3b855c70	0.0040698573
138	0xbcf9063a	-0.030398477
139	0x3cf9a3fe	0.030473705
140	0x3d276644	0.040869012
141	0xbc76b947	-0.015058822
142	0x3c7518a6	0.01495949
143	0x3d1d345d	0.038380016
144	0xbd851075	-0.064972796
145	0x3c9d6449	0.019212859
146	0x3cd2995b	0.025707891
147	0xbcb91d30	-0.022596925
148	0xbd1a1d96	-0.03762587
149	0x3d36f543	0.044667494
150	0xbb3ad662	-0.002850913
151	0xbd72f6cf	-0.059317406
152	0x3cec4f2a	0.028846342
153	0xbc9c0721	-0.019046368
154	0x3cc17530	0.02361545
155	0xbc86d03a	-0.016456712
156	0xbc9aa9f0	-0.01887986
157	0xbc0f5ce3	-0.008750173
158	0x3d1e8502	0.038701065
159	0x3d26f8c6	0.040764593
160	0xbc336b60	-0.010950893
161	0xbd45bae1	-0.048273925
162	0x39ea27ab	0.00044661513
163	0x3cf076ed	0.029353583
164	0x3bd30da7	0.0064408365
165	0xbd034c48	-0.03205517
166	0xbd3a72ed	-0.045519758
167	0xbd008413	-0.031375956
168	0x3a135a40	0.0005621053
169	0xbc8014d7	-0.015634937
170	0xbc9da70b	-0.019244691
171	0x3c5e428f	0.0135656735
172	0xbc9034c6	-0.01760329
173	0xbb415924	-0.0029502595
174	0xbccb2f02	-0.024802689
175	0xbd4df268	-0.050280005
176	0xbcd7f359	-0.026361154
177	0xbd690fb1	-0.05689973
178	0xbca767b3	-0.02043519
179	0x3d36979c	0.04457818
180	0x3cf5c7c8	0.03000249
181	0xbd76d1ce	-0.06025868
182	0x3d31c312	0.043398924
183	0x3d2e9b2e	0.04262846
184	0xbb9a727c	-0.0047133546
185	0xbd0860a6	-0.033295296
186	0x3a966f35	0.0011477234
187	0x3d33b9be	0.04387831
188	0xbda2448d	-0.07923231
189	0xbd97b4e2	-0.074075475
190	0xbcd352ca	-0.025796313
191	0x3c84eaaf	0.016225187
192	0x3cf4b4f8	0.029871449
193	0xbc9e067e	-0.019290205
194	0x3a2a49f7	0.0006496007
195	0x3c607bc3	0.013701382
196	0x3d27f8e1	0.041008834
197	0xbc4ede43	-0.0126262335
198	0xbd4d59d8	-0.05013451
199	0xbd614f61	-0.055007342
200	0x3c9cc295	0.019135753
201	0xbd64e604	-0.055883422
202	0xbd305cae	-0.043057136
203	0xbb39ebbe	-0.0028369273
204	0xbc861af1	-0.016370269
205	0x3c41e923	0.011835369
206	0xbd53461e	-0.05158054
207	0x3d23962d	0.03993814
208	0xbd858a15	-0.06520478
209	0x3c525188	0.012836821
210	0x3bcfcd57	0.006341617
211	0xbd8823ae	-0.0664743
212	0x3982fdaf	0.0002498454
213	0xbbea63fb	-0.007153032
214	0xbd4cea7d	-0.050028313
215	0xbd782f2a	-0.060591854
216	0xbd312ccb	-0.04325561
217	0xb9a857a3	-0.00032108751
218	0xbd49ff5d	-0.0493158
219	0xbd117aab	-0.035517376
220	0xbd812cac	-0.063073486
221	0xbb8580eb	-0.004074206
222	0xbc76a8d6	-0.015054902
223	0x3cf9f1d9	0.03051083
224	0xbcb733b0	-0.022363514
225	0x3d65e028	0.056121975
226	0x3d415d23	0.047207963
227	0xbd8bc3bc	-0.06824443
228	0xbcd603f5	-0.026124934
229	0xbd1e8f97	-0.038711157
230	0xbd7eb95c	-0.06218849
231	0xbd41c404	-0.047306076
232	0xbcff7a18	-0.031186149
233	0x3b4ee6d7	0.0031570697
234	0x3cce79c5	0.025204549
235	0x3d13fd3b	0.03613017
236	0xbcb3f7d3	-0.021968758
237	0xbd278e45	-0.040907163
238	0x3c6e9e02	0.014564039
239	0x3bc34251	0.0059588333
240	0x3d444e8a	0.047926463
241	0x3c848162	0.016174976
242	0xbd58d9da	-0.052942134
243	0xbd6b6bad	-0.057475735
244	0x3cbb0cf7	0.02283333
245	0xbd0a31f5	-0.03373905
246	0x3d10a2fb	0.03531168
247	0xbd2c08ca	-0.04200057
248	0x3d5684f1	0.052372877
249	0x3d26b6d8	0.040701717
250	0xbc0731eb	-0.008251647
251	0x3d552b06	0.052042983
252	0x3b72eac5	0.0037066203
253	0xbd694e66	-0.056959532
254	0xbd5c0753	-0.053717922
255	0xbd3cc2c6	-0.046084188

l2.bias f4 [256]
0	0xbcdc6dea	-0.02690788
1	0x3f2ff0c8	0.6872678
2	0x3f336f39	0.7009159
3	0x3f10e02e	0.5659207
4	0x3f171d3e	0.59028995
5	0xbedab6c5	-0.42717567
6	0x3f299578	0.66243696
7	0x3f23d2e7	0.63993686
8	0xbeb623f3	-0.35574302
9	0x3f3740ac	0.71583056
10	0xbf093dbc	-0.53609824
11	0x3f19222b	0.5981776
12	0x3f23bb51	0.639577
13	0x3f2380bb	0.638683
14	0x3f204cc5	0.6261714
15	0xbf25c531	-0.64754015
16	0x3f1bd2ad	0.6086834
17	0xbebe8045	-0.37207237
18	0x3f07fcc9	0.53120095
19	0xbefe3128	-0.49646878
20	0x3f24da6f	0.64395803
21	0x3f457a2b	0.7713954
22	0xbea387c9	-0.31939533
23	0xbeb78945	-0.35846916
24	0xbee1d109	-0.44104794
25	0x3f39580c	0.72399974
26	0x3f3dd986	0.7416004
27	0xbf15d7c9	-0.58532387
28	0xbf175b0c	-0.591233
29	0x3f164bbe	0.58709323
30	0x3f2372ac	0.6384685
31	0x3f413d62	0.7548429
32	0x3f31b26c	0.69412875
33	0x3ea9eacf	0.33186957
34	0xbf052104	-0.520035
35	0x3f15d468	0.5852723
36	0x3f0da987	0.55336803
37	0x3f40dd07	0.7533726
38	0xbe5d55ea	-0.21614805
39	0xbe9589ac	-0.29206598
40	0xbe34a64f	-0.17641567
41	0x3f1122f5	0.56693965
42	0xbe9f08f8	-0.3106153
43	0xbe8dc8a9	-0.27692154
44	0x3f3831d9	0.7195106
45	0xbf171819	-0.59021145
46	0x3f021fde	0.50829875
47	0xbec0b1c2	-0.37635618
48	0x3f2dded1	0.67918116
49	0x3f1a0050	0.60156727
50	0x3f136d18	0.5758834
51	0x3efec9c5	0.49763313
52	0x3f37cc73	0.7179634
53	0x3f13230d	0.5747536
54	0xbef05958	-0.46943164
55	0xbe9af0e6	-0.30261916
56	0xbeebf910	-0.46088457
57	0x3f410abd	0.7540701
58	0x3f33f34d	0.7029312
59	0xbec5db8d	-0.38644066
60	0xbefa5687	-0.4889414
61	0x3f370efd	0.71507245
62	0xbf0646e0	-0.52451897
63	0xbea73087	-0.3265421
64	0x3f19343e	0.5984534
65	0x3f26dc53	0.6517994
66	0x3f189171	0.59596926
67	0xbe8a0bda	-0.26962167
68	0xbeedb010	-0.46423388
69	0x3f4e51be	0.8059348
70	0x3f3f53b2	0.74737084
71	0x3f27ed2f	0.6559629
72	0x3f26f4b6	0.6521715
73	0x3f26e582	0.6519395
74	0xbef02456	-0.46902722
75	0xbeef4079	-0.46728876
76	0x3f3f389d	0.7469576
77	0x3f28555d	0.65755254
78	0xbf1da832	-0.6158477
79	0xbefdef6c	-0.49596727
80	0xbeca4292	-0.39503914
81	0x3f1e9223	0.61941737
82	0xbe1d0d94	-0.15337211
83	0xbe81123c	-0.25209224
84	0xbee5fb51	-0.44918302
85	0x3f17e1b0	0.59328747
86	0x3f239346	0.63896596
87	0x3f0c7d1a	0.5487839
88	0x3f1f9ec6	0.62351644
89	0xbee2c407	-0.44290182
90	0x3f105229	0.56375366
91	0xbeba1185	-0.3634149
92	0x3f24e6be	0.64414585
93	0xbe661e45	-0.22472484
94	0x3f3aa5f0	0.7290945
95	0xbd85b750	-0.06529105
96	0xbf3b5b21	-0.73185927
97	0x3effe13d	0.4997653
98	0xbe7270b6	-0.23675808
99	0x3f175454	0.5911305
100	0xbe8db2c2	-0.27675444
101	0x3f23e169	0.64015824
102	0x3f001877	0.5003733
103	0xbf258192	-0.64650834
104	0xbee63984	-0.44965756
105	0xbcb3a9fe	-0.021931645
106	0xbe8ae662	-0.27128893
107	0xbec950df	-0.39319512
108	0x3f292ce4	0.6608412
109	0x3f195f56	0.59911096
110	0xbee59b40	-0.4484501
111	0xbf00729b	-0.50174874
112	0x3f1f5062	0.6223203
113	0xbf42e9f3	-0.7613823
114	0x3f19af24	0.6003287
115	0x3f47e343	0.7808115
116	0xbf0a9379	-0.54131275
117	0x3f2bbbd1	0.6708346
118	0xbe9ef6f5	-0.31047788
119	0x3f4bc304	0.79594445
120	0x3f268269	0.6504274
121	0x3f2228b6	0.6334337
122	0x3f06f861	0.52722746
123	0x3f2780a3	0.6543066
124	0xbe939a77	-0.28828785
125	0xbedcde67	-0.4313843
126	0xbd39544a	-0.0452464
127	0x3f245299	0.64188534
128	0x3f2699af	0.6507825
129	0x3f2cd9c9	0.67519814
130	0x3f3485a8	0.70516443
131	0x3f28e96c	0.65981174
132	0x3f0aeca0	0.5426731
133	0xbf059e90	-0.5219507
134	0x3f174351	0.5908709
135	0xbeacdc29	-0.3376172
136	0xbeb4b5f7	-0.35295078
137	0x3f3d5974	0.7396462
138	0x3f17fb72	0.5936805
139	0x3f32323e	0.69607913
140	0x3f2bbc7e	0.6708449
141	0x3f1ef9cb	0.62099904
142	0x3f1b6d2f	0.60713476
143	0xbea02df0	-0.31285048
144	0x3f25cc31	0.64764696
145	0xbf0bd4b2	-0.5462142
146	0xbf13f82e	-0.5780057
147	0x3f2d0f5d	0.6760157
148	0xbed9ddd0	-0.42552042
149	0xbeb141fe	-0.3462066
150	0x3f1ddd31	0.61665636
151	0xbf044a46	-0.5167583
152	0x3f1c1ea0	0.6098423
153	0x3f0aa61d	0.5415972
154	0x3f304a59	0.68863446
155	0x3f445088	0.7668538
156	0x3f282a6c	0.6568973
157	0xbf11dbdf	-0.5697612
158	0xbe2e195f	-0.17001866
159	0xbf14b620	-0.580904
160	0x3f398062	0.7246152
161	0x3f356760	0.7086086
162	0xbec21d83	-0.3791314
163	0x3f2edb4a	0.6830336
164	0x3f23ba82	0.63956463
165	0x3f3d4eba	0.7394825
166	0xbec052ef	-0.37563273
167	0xbef8ca7e	-0.4859199
168	0x3f2b76fa	0.6697842
169	0x3ec25f99	0.3796356
170	0x3f4289ba	0.75991404
171	0x3f2c3968	0.67275095
172	0x3f1cda43	0.6127054
173	0xbec8d6fb	-0.39226517
174	0x3f41d062	0.7570859
175	0xbf1af0eb	-0.6052386
176	0x3f013daa	0.50484717
177	0xbf40ea36	-0.7535738
178	0xbf0cce27	-0.55002064
179	0xbefbfb2b	-0.49215063
180	0xbe8a9dfb	-0.27073655
181	0x3f40f8bd	0.75379544
182	0x3f2440cd	0.6416138
183	0x3f26e89d	0.6519869
184	0x3f060af1	0.52360445
185	0x3f02d3c7	0.51104397
186	0x3f2e6ac7	0.6813168
187	0x3f38f99e	0.72255886
188	0xbedf9d87	-0.4367487
189	0x3f22f06e	0.63648117
190	0x3f1455be	0.5794333
191	0x3f13a56b	0.5767428
192	0x3f38e0ae	0.72217834
193	0x3f3c6cc5	0.7360347
194	0xbf08b764	-0.5340483
195	0xbf3e9359	-0.74443585
196	0x3f279255	0.6545766
197	0xbe9f4395	-0.31106248
198	0x3f1990d1	0.599866
199	0xbf27558d	-0.65364915
200	0x3f1ddd84	0.6166613
201	0xbedc0302	-0.42971045
202	0x3f14745e	0.5799006
203	0x3f16f9af	0.58974737
204	0xbee281e8	-0.44239736
205	0x3f0791f2	0.5295707
206	0xbf08d399	-0.5344787
207	0xbf22745f	-0.6345882
208	0xbe900160	-0.2812605
209	0xbf1d4a6f	-0.614417
210	0x3f24321f	0.6413898
211	0x3f12ab8a	0.57293
212	0xbe6c326d	-0.23066111
213	0x3f22ae10	0.6354685
214	0xbedc62be	-0.43044084
215	0x3f3635d8	0.7117591
216	0x3f27cd7a	0.6554791
217	0xbf2fc73f	-0.686634
218	0xbe9fc8ce	-0.3120789
219	0x3f12e1d7	0.57375854
220	0xbe96f9b3	-0.2948738
221	0xbf056723	-0.521105
222	0xbee69992	-0.4503904
223	0xbee1b10a	-0.44080383
224	0xbede12d1	-0.4337373
225	0xbf212cbd	-0.6295889
226	0xbf10e6be	-0.56602085
227	0xbe650fec	-0.22369355
228	0x3f07b03e	0.530033
229	0x3f3389ee	0.7013234
230	0x3f2c0cea	0.67207205
231	0xbf07f7d5	-0.53112537
232	0x3f27f384	0.6560595
233	0x3f0e30b2	0.55543053
234	0x3f1b475f	0.6065578
235	0xbf1d540e	-0.6145638
236	0x3f3a53ed	0.7278431
237	0x3d331124	0.04371752
238	0xbf2f2bb9	-0.6842609
239	0xbf2e7639	-0.68149143
240	0xbed73b03	-0.4203721
241	0xbf0e50ab	-0.5559184
242	0x3f28be05	0.65914947
243	0x3f2f4f1c	0.68480086
244	0x3f3eb163	0.7448942
245	0xbed4493f	-0.41462132
246	0xbed56cd6	-0.41684598
247	0xbf0d91d9	-0.5530067
248	0x3f28d88a	0.6595541
249	0xbf127f6f	-0.572257
250	0x3f32d008	0.6984868
251	0x3f16ef18	0.5895858
252	0x3f35d82a	0.71032965
253	0x3f29a098	0.6626067
254	0x3f1652af	0.58719915
255	0x3f19d88c	0.6009605

l3.weight f4 [1, 256]
0	0x3b520c7f	0.0032050905
1	0x3e2ede3f	0.17076968
2	0x3e04b12c	0.1295821
3	0x3e554af3	0.20829372
4	0x3dd03d7c	0.10167977
5	0xbf578ba1	-0.8419743
6	0x3e1ea212	0.15491512
7	0x3e7e3921	0.2482648
8	0xbf4fb199	-0.8113037
9	0x3e20baf8	0.15696323
10	0xbf6536cb	-0.8953673
11	0x3e254ecb	0.16143338
12	0x3e0884d9	0.13331927
13	0x3f058fd8	0.52172613
14	0x3dabc859	0.08387823
15	0xbf41d42a	-0.7571436
16	0x3e09b25e	0.13446948
17	0xbf138510	-0.5762491
18	0x3e2c67aa	0.1683642
19	0xbf2fe505	-0.6870883
20	0x3e174df4	0.1477583
21	0x3e070903	0.13187031
22	0xbf201e20	-0.6254597
23	0xbfa570a7	-1.2925004
24	0xbf67c14e	-0.90529335
25	0x3e0ade1c	0.1356129
26	0x3e04e122	0.12976506
27	0xbf43354d	-0.76253206
28	0xbf5e0902	-0.86732495
29	0x3ea14934	0.31501162
30	0x3e00b6c3	0.12569718
31	0x3e268805	0.16262825
32	0x3e3dde56	0.18541846
33	0x3fb0d636	1.3815372
34	0xbfc1afc6	-1.5131767
35	0x3f07edaf	0.5309705
36	0x3e8989cc	0.26862943
37	0x3e04e475	0.12977774
38	0xbf5dc660	-0.8663082
39	0xc015ec1a	-2.3425355
40	0xbfde3f7a	-1.7363122
41	0x3e9a3007	0.30114767
42	0xbf866a9f	-1.0501288
43	0xbfd61701	-1.672577
44	0x3e78ebcb	0.24308698
45	0xbf08c5f0	-0.5342703
46	0x3eb1f8fa	0.34760267
47	0xbfb24d22	-1.3929789
48	0x3dde1c49	0.10845239
49	0x3ea773e8	0.32705617
50	0x3e835363	0.25649557
51	0x3ecbab73	0.39779243
52	0x3e2f29b4	0.17105752
53	0x3e06d839	0.1316842
54	0xbf31b9dc	-0.69424224
55	0xbf531f35	-0.82469493
56	0xbf48d8f8	-0.7845607
57	0x3e17fd1f	0.14842652
58	0x3e3a58e3	0.1819797
59	0xbfe1d0cd	-1.7641846
60	0xbf3c7634	-0.73617864
61	0x3e4b4350	0.19849896
62	0xbef89ed5	-0.4855868
63	0xbf16da17	-0.5892653
64	0x3e4914c0	0.19636822
65	0x3efbee5d	0.49205294
66	0x3f05bb67	0.5223908
67	0xbfdc287f	-1.7199858
68	0xbf0d2fb6	-0.55150926
69	0x3e189d44	0.14903742
70	0x3e147b59	0.14500178
71	0x3e25f346	0.16206083
72	0x3e585558	0.21126306
73	0x3eab47e4	0.33453286
74	0xbf1d4a5a	-0.61441576
75	0xbee8f758	-0.45501208
76	0x3e2537bc	0.16134542
77	0x3de87432	0.113502875
78	0xbf5a1d34	-0.8520081
79	0xbfaad50e	-1.3346269
80	0xbf85f61e	-1.0465734
81	0x3e92545f	0.28579995
82	0xbfecd53c	-1.8502574
83	0xbf57c8b5	-0.8429063
84	0xbfa63ad8	-1.2986708
85	0x3e1c25ed	0.15248843
86	0x3e089dfc	0.13341516
87	0x3e03a8f2	0.12857416
88	0x3e547d0e	0.2075083
89	0xbf2522d6	-0.6450628
90	0x3e49d361	0.19709541
91	0xbf79cf46	-0.975819
92	0x3e9c02ee	0.30470985
93	0xbfc1fab1	-1.515463
94	0x3e084efc	0.1331138
95	0x3c49b5a2	0.012311371
96	0xbeb7484f	-0.35797355
97	0x3e8fcf64	0.28087914
98	0xbf67dc59	-0.905706
99	0x3e919706	0.28435534
100	0xbeca6757	-0.39531967
101	0x3e532738	0.2062043
102	0x3f88db3f	1.0691909
103	0xbf247ace	-0.64249885
104	0xbf1b54d8	-0.60676336
105	0xbc80bbcf	-0.015714554
106	0xbf112ad2	-0.56705964
107	0xbf98552f	-1.1900996
108	0x3e34eee3	0.17669253
109	0x3e97328b	0.2953075
110	0xbf72a9ae	-0.9479016
111	0xbf0acb83	-0.54216784
112	0x3fa434f1	1.2828656
113	0xbea792f8	-0.32729316
114	0x3e541700	0.20711899
115	0x3e2b4bad	0.16728087
116	0xbf1ae99b	-0.60512704
117	0x3df3a32d	0.11896358
118	0xbfb1362a	-1.3844655
119	0x3e4f7065	0.20257719
120	0x3e0ac53c	0.13551801
121	0x3ea260e3	0.31714544
122	0x3e916ed1	0.2840486
123	0x3e433743	0.1906405
124	0xbf935934	-1.1511598
125	0xbf12aae9	-0.5729204
126	0xc00ac9c3	-2.1685646
127	0x3e8385d8	0.25688052
128	0x3e0afed1	0.13573767
129	0x3e292585	0.16518219
130	0x3dab6e0b	0.083705984
131	0x3e8d4a75	0.2759587
132	0x3ea3d559	0.3199871
133	0xbf457cdb	-0.7714364
134	0x3e8202bd	0.25392714
135	0xbf835a56	-1.0261943
136	0xbf3f2845	-0.7467082
137	0x3de52880	0.111893654
138	0x3eaf44cb	0.34232172
139	0x3e26c2c4	0.16285235
140	0x3e0b81a6	0.13623676
141	0x3dd73d9e	0.105097994
142	0x3e1e4457	0.15455757
143	0xc0157e04	-2.3358164
144	0x3e14844b	0.14503591
145	0xbf5526c5	-0.8326228
146	0xbf3f6cd7	-0.7477545
147	0x3e0b0437	0.13575827
148	0xbf28c5bd	-0.65926725
149	0xbf519682	-0.8187028
150	0x3e5de717	0.21670185
151	0xbf284a6c	-0.6573856
152	0x3e1d51fb	0.15363304
153	0x3e05b1d9	0.13056125
154	0x3dff392b	0.12462076
155	0x3e657173	0.22406559
156	0x3e826eb4	0.25475085
157	0xbf53f3ab	-0.8279368
158	0xbf97ff74	-1.1874833
159	0xbf894349	-1.0723659
160	0x3df3d85d	0.119065024
161	0x3dceaaa2	0.100911394
162	0xbf495d99	-0.78658444
163	0x3e177978	0.1479243
164	0x3e20e0a3	0.15710692
165	0x3e2bd74c	0.16781348
166	0xbf19e41b	-0.60113686
167	0xbf155d4c	-0.58345485
168	0x3e240cc5	0.16020496
169	0x3f753d00	0.95796204
170	0x3e392306	0.18079767
171	0x3e2981e8	0.16553462
172	0x3e84bd72	0.25925785
173	0xbf98e3bc	-1.1944499
174	0x3e125545	0.1429034
175	0xbf1e29bd	-0.6178244
176	0x3e83c634	0.25737154
177	0xbee5bab6	-0.44869012
178	0xbf33d12f	-0.70241064
179	0xbf0b1b8e	-0.5433892
180	0xbf21827e	-0.6308974
181	0x3e33b023	0.1754766
182	0x3e656c24	0.22404534
183	0x3e355371	0.17707612
184	0x3ec1ff16	0.37889928
185	0x3e7f3a0f	0.24924491
186	0x3e40dcf7	0.18834291
187	0x3db7d1d0	0.089755654
188	0xbf26600d	-0.6499031
189	0x3e238d4b	0.15971868
190	0x3f084bc6	0.5324062
191	0x3e3ca9e3	0.18424182
192	0x3e417372	0.18891695
193	0x3e0c430f	0.13697456
194	0xbf976552	-1.1827796
195	0xbf106a6d	-0.5641239
196	0x3e03ae61	0.12859489
197	0xbf103f0b	-0.56346196
198	0x3e9fe757	0.31231186
199	0xbf1b9a30	-0.60782146
200	0x3e02d532	0.1277664
201	0xbf936958	-1.1516523
202	0x3e8d899f	0.2764406
203	0x3e3a9a8f	0.18223022
204	0xbfdaaee0	-1.7084618
205	0x3e3844ac	0.17994946
206	0xbf57e862	-0.84338963
207	0xbf0fc41a	-0.561586
208	0xc0051793	-2.0795639
209	0xbf427382	-0.759575
210	0x3e76c3da	0.24098149
211	0x3ea6bbd6	0.32565182
212	0xbf9d189e	-1.2273138
213	0x3eed8ecb	0.46398005
214	0xbee6a2ef	-0.45046183
215	0x3e657fd4	0.22412044
216	0x3e55d223	0.20880942
217	0xbf0219aa	-0.5082041
218	0xbf48db15	-0.7845929
219	0x3e498dad	0.19682951
220	0xbfa96b1f	-1.3235816
221	0xbf8cb6ca	-1.0993283
222	0xbf1c224e	-0.60989845
223	0xbf85ce72	-1.0453627
224	0xbeb0556c	-0.34440172
225	0xbf14c3bc	-0.58111167
226	0xbf11e1cd	-0.5698517
227	0xbf59b6d3	-0.8504459
228	0x3ed835fc	0.42228687
229	0x3e13648b	0.14393823
230	0x3ea19010	0.31555223
231	0xbf836dc8	-1.0267878
232	0x3ee39720	0.44451237
233	0x3e970960	0.2949934
234	0x3ecee3b7	0.40408108
235	0xbf334bdd	-0.70037633
236	0x3e430850	0.1904614
237	0xc025a5f1	-2.5882533
238	0xbed7f478	-0.42178702
239	0xbf0b811e	-0.5449389
240	0xbf4e3c88	-0.80561113
241	0xbf8d4ef1	-1.1039716
242	0x3e2fd476	0.17170891
243	0x3e21888c	0.15774745
244	0x3e5b27df	0.21401928
245	0xbf718157	-0.9433798
246	0xbf749138	-0.95534086
247	0xbebf92b8	-0.37416625
248	0x3dfaee82	0.12252523
249	0xbf449e58	-0.76804113
250	0x3e006c6c	0.1254136
251	0x3e16aa44	0.14713389
252	0x3dcedd9b	0.10100862
253	0x3e3b2fb2	0.18279913
254	0x3ec0e8e0	0.3767767
255	0x3e605eef	0.21911214

l1.weight f4 [256, 26]
0	0x3d9a8f5c	0.07546875
1	0xbe131078	-0.14361751
2	0xbd8eb4ff	-0.06968116
3	0x3ddb0675	0.10694591
4	0x3d751da9	0.05984274
5	0xbcf3e827	-0.029773785
6	0x3d586320	0.052828908
7	0x3e1dd0b1	0.1541164
8	0x3e6532fb	0.22382729
9	0x3e588b24	0.21146828
10	0x3db01a25	0.08598737
11	0x3e18e928	0.14932692
12	0xbe54f61f	-0.20797013
13	0x3d63e0b9	0.055634234
14	0xbe63da2e	-0.22251198
15	0xbd0db0e4	-0.034592524
16	0x3e255fbf	0.16149805
17	0xbaf87d19	-0.001895818
18	0x3cdead55	0.02718226
19	0x3e4b706e	0.19867107
20	0x3c755883	0.014974716
21	0x3d9785a2	0.07398535
22	0x3c91eb70	0.01781246
23	0xbe4a6f8c	-0.19769114
24	0x3ba334df	0.004980668
25	0xbd7cde9c	-0.061735734
26	0xbde1f46c	-0.11032948
27	0xbdffa8e2	-0.12483384
28	0xbd01e776	-0.03171488
29	0xbc4724d9	-0.012154781
30	0xbd99bafe	-0.07506369
31	0x3d07e34e	0.03317576
32	0x3dacdd9c	0.08440706
33	0x3e12d87a	0.14340392
34	0xbd091fba	-0.033477522
35	0x3e1c5e8c	0.15270442
36	0x3e8887ab	0.26666006
37	0x3d553aa7	0.05205789
38	0xbdd0aea8	-0.10189563
39	0xbc3e94f9	-0.011632198
40	0xbc0f0725	-0.008729731
41	0xbdd95599	-0.106120296
42	0x3d892ead	0.06698356
43	0xbe2f253c	-0.17104048
44	0x3e76c458	0.24098337
45	0x3e597eda	0.21239796
46	0x3dd43455	0.10361544
47	0x3c9f0506	0.019411575
48	0xbd73dfa6	-0.05953946
49	0x3e5e6c03	0.2172089
50	0x3d59e147	0.053193357
51	0xbcdd2ba4	-0.026998349
52	0x3ea43f21	0.32079414
53	0x3d70d331	0.058795158
54	0x3e5325fd	0.2061996
55	0x3ed10e40	0.40831184
56	0xbd851450	-0.06498015
57	0x3bf70f6e	0.007539681
58	0xbd5d2e9b	-0.053999525
59	0x3ef77570	0.48331785
60	0x3ce14f70	0.027503699
61	0x3bcea5e3	0.0063063963
62	0xbe7aa8bf	-0.24478434
63	0x3d9c0369	0.07617838
64	0x3cc1193c	0.023571603
65	0x3d7707f6	0.060310327
66	0x3e878808	0.2647097
67	0xbe0a9038	-0.13531578
68	0x3d9d2968	0.07673913
69	0xbe83e1f0	-0.25758314
70	0x3d35073f	0.044196364
71	0xbea02c19	-0.31283644
72	0x3df7b139	0.120943494
73	0xbe396fdb	-0.18109076
74	0xbe773290	-0.24140382
75	0xbe710878	-0.23538387
76	0xbeaa26ad	-0.33232632
77	0xbe0a54e5	-0.13508947
78	0x3e9b7212	0.30360466
79	0xbdd8e09d	-0.105897166
80	0xbcc9c7e9	-0.024631457
81	0x3e959668	0.29216313
82	0x3d7e1dd4	0.062040165
83	0x3e95e839	0.29278734
84	0xbd2bb12e	-0.04191702
85	0xbde20690	-0.11036408
86	0x3def6085	0.116883315
87	0x3e7332a3	0.23749785
88	0xbdb50627	-0.08839064
89	0x3e3152ba	0.17316714
90	0xbeb01a36	-0.34394997
91	0xbe55a4b4	-0.2086361
92	0x3e97f896	0.29681844
93	0x3e703142	0.2345629
94	0x3eb319e6	0.34980696
95	0xbe21e026	-0.15808162
96	0x3994efea	0.0002840751
97	0xbe7909ed	-0.24320193
98	0x3dfe2165	0.12408713
99	0xbde2be68	-0.11071473
100	0xbc286696	-0.010278365
101	0x3e54507e	0.2073383
102	0xbd2325e0	-0.039831042
103	0x3bc7cdb3	0.0060975193
104	0xbdc09782	-0.09403898
105	0x3df47d92	0.11938013
106	0xbd31c890	-0.043404162
107	0x3ebd6bc9	0.36996296
108	0x3dbfa203	0.09357073
109	0xbcd2426b	-0.025666436
110	0x3d810a04	0.063007385
111	0x3ded3248	0.11581856
112	0xbe1ada6b	-0.15122382
113	0xbe5d0ec2	-0.21587661
114	0xbdd4694f	-0.103716485
115	0x3e94ce26	0.2906353
116	0x3e1e471c	0.15456814
117	0x3e5ef649	0.21773638
118	0x3bc44140	0.0059892237
119	0xbb976d9c	-0.0046212208
120	0xbd01556c	-0.031575605
121	0xbd339672	-0.043844648
122	0x3ccd637e	0.025071856
123	0xbc998952	-0.018742237
124	0x3e1d3927	0.15353833
125	0x3ddba05b	0.10723945
126	0x3d60aa56	0.054849945
127	0x3e0a47c0	0.13503933
128	0x3d86be57	0.06579273
129	0x3d81626c	0.063176006
130	0x3e16a1e5	0.14710195
131	0x3dda1f4d	0.106505014
132	0xbbd01cdc	-0.0063510966
133	0x3ec335cf	0.3812699
134	0xbdd3f69d	-0.10349772
135	0x3e3af04c	0.18255728
136	0x3db0786f	0.08616721
137	0xbcac8b1f	-0.021062432
138	0xbe00b7b0	-0.12570071
139	0xbe06771c	-0.13131374
140	0x3d4c92d2	0.049944706
141	0x3c98b434	0.018640615
142	0x3ebb4cd8	0.36582065
143	0x3e6ac712	0.22927502
144	0x3bfe4e70	0.0077608153
145	0xbddd2aa3	-0.10799148
146	0x3d95c248	0.07312447
147	0xbe43dee9	-0.19128002
148	0x3d2d5a49	0.04232243
149	0xbcb70108	-0.022339359
150	0x3e30f4a1	0.17280819
151	0x3d52abeb	0.051433485
152	0x3ccaaf23	0.024741715
153	0x3d6b4939	0.057442877
154	0x3c1f6a0c	0.009729873
155	0x3cd8cda1	0.026465239
156	0x3e24555a	0.16048184
157	0x3e3da5ec	0.18520325
158	0x3c6ba2c3	0.014382067
159	0x3d9f36cb	0.07774123
160	0x3e3e7441	0.18599035
161	0x3df7ae83	0.12093832
162	0x3c79f9d9	0.015257322
163	0x3e21cdff	0.15801238
164	0x3daf71ea	0.08566649
165	0xbbd7c0b1	-0.00658425
166	0x3d4686ca	0.04846839
167	0x3c3630cf	0.011120035
168	0x3e343bbe	0.17600915
169	0x3e469d06	0.19395837
170	0x3d0f2a0b	0.034952205
171	0xbd2db947	-0.042413022
172	0x3dda0e3c	0.10647246
173	0x3d616a94	0.05503328
174	0x3d1e58cf	0.038658913
175	0xbd4f5f5a	-0.050628044
176	0x3e498f0d	0.19683476
177	0xbe8b2dc3	-0.2718335
178	0xbc11fa47	-0.008909768
179	0x3e11a6d5	0.14223798
180	0x3e39fc75	0.18162711
181	0xbdc21da9	-0.094783135
182	0xbe0329e7	-0.12808953
183	0x3e3bb1e2	0.18329576
184	0xbd7992d3	-0.060931038
185	0x3e5ab03c	0.2135629
186	0x3e34b13d	0.17645736
187	0xbd7e9af5	-0.062159497
188	0x3d9e6c7c	0.077355355
189	0x3dae33ef	0.08505999
190	0xbe8062da	-0.25075418
191	0xba1ab609	-0.0005901759
192	0xbe5636cf	-0.20919345
193	0x3df2ac4a	0.11849268
194	0x3e157d67	0.14598618
195	0x3cb03a40	0.02151215
196	0xbd1bacc5	-0.038006563
197	0x3b502b3f	0.0031764058
198	0x3db8c533	0.09021988
199	0x3db0c036	0.08630411
200	0x3e6af261	0.22944023
201	0x3de22aff	0.11043357
202	0xbd9b3e86	-0.07580285
203	0x3e2c4cdf	0.16826199
204	0xbd298501	-0.041386608
205	0xbc901c71	-0.017591687
206	0x3d2e7ffc	0.042602524
207	0xbd58dfca	-0.052947797
208	0x3ea6affc	0.3255614
209	0xbda6dfb5	-0.081481375
210	0xbcb81142	-0.022469167
211	0xbe83fd69	-0.25779274
212	0x3d10317e	0.03520345
213	0x3ea12097	0.31470177
214	0x3b3cbdb6	0.00287996
215	0xbda31052	-0.07962097
216	0xbe4a7228	-0.1977011
217	0xbe0fc129	-0.14038529
218	0xbe5501ab	-0.20801418
219	0xbdb2a9a0	-0.0872376
220	0xbe0e7aee	-0.13914081
221	0xbe0d3ee5	-0.13793524
222	0xbd813e3d	-0.06310699
223	0xbd05bb72	-0.032649465
224	0xbd1c8d9a	-0.03822098
225	0xbd7fdde9	-0.06246749
226	0xbdaf04d3	-0.08545842
227	0x3e025eaa	0.12731424
228	0x3ae50c70	0.001747502
229	0x3d7a0b3e	0.061045878
230	0x3b75d4a0	0.0037510768
231	0x3dfe29a8	0.12410289
232	0x3d081341	0.033221487
233	0x3d87bd3e	0.06627892
234	0x3e1b2769	0.15151753
235	0x3e37a5b7	0.17934309
236	0xbe131936	-0.14365086
237	0xbdbdc4e9	-0.09266073
238	0x3d59b0da	0.053147174
239	0xbde56352	-0.112005845
240	0x3dbc9753	0.0920855
241	0xbdb939fe	-0.09044264
242	0x3d555bf3	0.052089643
243	0xbed488c1	-0.41510585
244	0x3e3d7d8a	0.1850492
245	0xbbc6d5a6	-0.0060679493
246	0x3f26449c	0.6494844
247	0x3e82bc44	0.2553426
248	0x3d1302c6	0.035891317
249	0xbe6d7854	-0.23190433
250	0xbd509f6a	-0.05093328
251	0xbd99cbea	-0.07509597
252	0xbece6c57	-0.40317032
253	0x3d79db91	0.06100041
254	0xbc999a61	-0.018750371
255	0x3ca6091c	0.020268016

l1.bias f4 [256]
0	0xbebca5ce	-0.3684525
1	0xbe04f671	-0.12984635
2	0x3e73a05c	0.23791641
3	0xbd94a54e	-0.07258092
4	0xbe2ac297	-0.16675793
5	0xbe9e2759	-0.30889395
6	0xbed8040f	-0.42190596
7	0xbe773048	-0.24139512
8	0xbeb2f309	-0.34951046
9	0xbe4dad7c	-0.2008571
10	0x3d8f847f	0.070076935
11	0xbe25c70d	-0.16189213
12	0xbec172fd	-0.37783042
13	0xbc154017	-0.0091095185
14	0xbe5b2e61	-0.21404411
15	0xbe21df19	-0.15807761
16	0xbe938c0f	-0.28817794
17	0x3e73c5b9	0.23805894
18	0xbd941d7f	-0.072321884
19	0x3deab090	0.11459458
20	0x3cb2f681	0.021846058
21	0xbe177c31	-0.14793469
22	0xbe3d024c	-0.18457907
23	0x3e040ae5	0.12894781
24	0xbec41f3a	-0.38305074
25	0xbec86a3c	-0.3914355
26	0xbf165a82	-0.58731854
27	0xbeb71e69	-0.3576539
28	0xbd1c2394	-0.038119867
29	0xbea31a1d	-0.3185586
30	0x3d1e94f8	0.038716286
31	0xbf06f665	-0.5271972
32	0xbc834217	-0.016022725
33	0xbeab15b1	-0.33414987
34	0xbea293c2	-0.31753355
35	0x3e51c6d5	0.20486005
36	0x3c9c4f3e	0.019080754
37	0xbe5de4f1	-0.21669365
38	0x3ead85e4	0.33891213
39	0xbe88bb91	-0.26705602
40	0xbe0c18e2	-0.13681367
41	0x3d4d77fe	0.05016326
42	0xbedb1ee1	-0.42796996
43	0xbe8366ac	-0.2566427
44	0xbe698c5d	-0.2280745
45	0xbedae122	-0.42749888
46	0xbe0c8480	-0.1372242
47	0xbeac86b9	-0.33696535
48	0xbe56c490	-0.2097342
49	0xbbab4f16	-0.0052279336
50	0xbdb95725	-0.090498246
51	0xbefcabe6	-0.49349898
52	0x3decc4e7	0.11560994
53	0xbea3dab6	-0.320028
54	0xbe0621f6	-0.13098893
55	0xbebd2d9e	-0.36948866
56	0xbea20418	-0.31643748
57	0x3ba34a9f	0.0049832608
58	0xbd5bca88	-0.053659946
59	0x3e50ecfd	0.20402904
60	0x3e356ba4	0.17716843
61	0xbf082af9	-0.5319057
62	0xbf0bdf4c	-0.546376
63	0xbeaeb480	-0.34122086
64	0xbe730e55	-0.23735936
65	0xbd9e96e8	-0.07743627
66	0xbeff4962	-0.49860674
67	0xbdb4b0ee	-0.08822809
68	0xbe8704dd	-0.26370898
69	0xbe989714	-0.29802763
70	0xbe2c85d5	-0.16847928
71	0xbe04ad57	-0.12956749
72	0xbe860357	-0.26174423
73	0xbea3180e	-0.3185429
74	0xbec25597	-0.37955925
75	0xbdd0e9a9	-0.10200817
76	0xbea99b26	-0.3312618
77	0xbeb3a8cf	-0.35089728
78	0xbe4ce83d	-0.20010467
79	0xbebc92a5	-0.3683063
80	0x3d37d7de	0.0448836
81	0xbd901740	-0.070356846
82	0xbe633477	-0.22187982
83	0xbe7c0022	-0.24609426
84	0xbea99988	-0.33124948
85	0xbd675c5f	-0.056484576
86	0xbeb207ec	-0.3477167
87	0xbe89bb47	-0.26900694
88	0xbebd0318	-0.36916423
89	0x3d806f5b	0.06271239
90	0xbd62ecf3	-0.055401754
91	0xbe817efe	-0.252922
92	0xbca6c4b7	-0.020357473
93	0xbd911894	-0.07084766
94	0xbeafbf60	-0.34325695
95	0xbdc718e9	-0.09721548
96	0xbe9e1182	-0.30872732
97	0x3da39498	0.079873264
98	0xbe296003	-0.16540532
99	0xbec4c60e	-0.38432354
100	0xbf016448	-0.5054364
101	0xbee70b7e	-0.45125955
102	0xbedb7f21	-0.4287043
103	0xbde1f50a	-0.110330656
104	0xbeb5beec	-0.35497224
105	0xbec98611	-0.39360097
106	0xbe767df2	-0.24071482
107	0xbec78f91	-0.3897672
108	0xbe9f9138	-0.3116548
109	0xbd652e9b	-0.05595265
110	0xbe977af0	-0.2958598
111	0xbebe7568	-0.3719895
112	0xbe19a136	-0.15002903
113	0xbd1406d3	-0.03613932
114	0xbe0361cd	-0.12830277
115	0xbdb9c8a8	-0.09071475
116	0xbee225d3	-0.44169483
117	0xbe4c20eb	-0.19934432
118	0xbedc34ba	-0.43008977
119	0xbf1442a1	-0.5791417
120	0xbc3cdf59	-0.01152786
121	0xbe8698ee	-0.2628855
122	0xbeb46701	-0.35234836
123	0xbec85d22	-0.39133555
124	0xbef185ee	-0.47172493
125	0xbee16539	-0.4402254
126	0xbe564a58	-0.20926797
127	0xbe160e40	-0.14653873
128	0xbeca8b1b	-0.39559254
129	0x3e3eeae9	0.18644299
130	0xbeac358d	-0.33634606
131	0xbec53e91	-0.38524297
132	0xbf018472	-0.5059272
133	0x3e8fa9d0	0.28059244
134	0xbe924cb9	-0.2857416
135	0xbea14af5	-0.315025
136	0xbee48d6f	-0.44639155
137	0xbe416a94	-0.18888313
138	0xbee52b25	-0.4475948
139	0xbea22f1a	-0.3167656
140	0xbe658871	-0.2241533
141	0xbea1d488	-0.3160746
142	0xbf153335	-0.5828126
143	0xbed04fd0	-0.40685892
144	0xbe1e0907	-0.15433131
145	0xbec5fb1f	-0.38668153
146	0xbe81bfbe	-0.253416
147	0xbf0c9f3b	-0.54930466
148	0xbe77172e	-0.24129936
149	0xbe7b2d26	-0.24528942
150	0xbf069642	-0.52573025
151	0x3ecd16cd	0.40056458
152	0xbe86f039	-0.2635515
153	0xbf0257ad	-0.5091503
154	0xbe8038cb	-0.2504333
155	0x3e41f90a	0.18942657
156	0xbe202071	-0.15637375
157	0xbeaa2e08	-0.33238244
158	0xbe69f2f1	-0.22846581
159	0xbe7d3f43	-0.24731164
160	0xbd9f2128	-0.07769996
161	0xbe0664d9	-0.13124408
162	0x3e03a196	0.12854609
163	0xbee1f757	-0.44134018
164	0x3dec74dc	0.11545727
165	0xbe21c70f	-0.15798591
166	0xbed0e6aa	-0.40800983
167	0xbc7ec577	-0.015550009
168	0xbed1b4d7	-0.40958282
169	0xbec66542	-0.3874913
170	0x3e67c674	0.22634298
171	0xbdda8f32	-0.106718436
172	0xbeac2108	-0.3361895
173	0xbe61f0ff	-0.22064589
174	0xbebc5c29	-0.36789063
175	0xbdd47880	-0.10374546
176	0x3d5801a8	0.052735955
177	0xbe9123a3	-0.283475
178	0xbe95f3e1	-0.29287627
179	0xbf039fc7	-0.51415676
180	0xbea3d642	-0.31999403
181	0xbd2c795a	-0.042107917
182	0xbd3d7743	-0.046256315
183	0xbebd98f7	-0.37030765
184	0xbea1b3c6	-0.3158247
185	0xbe276a10	-0.16349053
186	0xbdc211d7	-0.09476059
187	0xbf029326	-0.5100578
188	0xbe3bd3d7	-0.18342529
189	0xbef7bf63	-0.48388204
190	0xbece4216	-0.40284795
191	0xbea5dfa9	-0.32397202
192	0xbe0618db	-0.13095419
193	0xbef25276	-0.47328538
194	0x3d2e0bde	0.042491786
195	0x3e5b9a57	0.21445595
196	0xbe7321cd	-0.23743363
197	0xbeabdfbb	-0.3356913
198	0xbf0b4fe6	-0.5441879
199	0x3dac1740	0.08402872
200	0xbebac567	-0.3647873
201	0xbc968e22	-0.018378321
202	0xbe1282c1	-0.14307691
203	0xbd911c93	-0.07085528
204	0x3e660ac8	0.2246505
205	0x3d4673d8	0.04845032
206	0xbdd7693d	-0.105181195
207	0xbe9c7f50	-0.30565882
208	0x3d6d1082	0.05787707
209	0xbe623ae2	-0.22092775
210	0x3e3907d3	0.18069391
211	0xbe0771e9	-0.13227047
212	0xbe993d97	-0.29929802
213	0xbe14d04d	-0.14532585
214	0xbe83f5ef	-0.2577357
215	0xbf18c77d	-0.59679395
216	0xbe7eade1	-0.24871017
217	0xbe53b371	-0.2067392
218	0xb92dc821	-0.0001657312
219	0xbf2bb1e7	-0.6706833
220	0xbd7106c3	-0.05884434
221	0xbdf16c0b	-0.11788186
222	0xbe24f04f	-0.16107295
223	0xbd5070c9	-0.05088881
224	0xbec47c83	-0.38376245
225	0xbe2fcba7	-0.17167531
226	0x3e10f645	0.14156444
227	0xbe64e0d2	-0.22351387
228	0xbe030182	-0.12793544
229	0xbf1e051c	-0.61726546
230	0xbe8d4690	-0.27592897
231	0x3dda3218	0.10654086
232	0xbecdee3d	-0.40220824
233	0xbe7c9f40	-0.24670124
234	0xbe231770	-0.1592691
235	0xbca61a2d	-0.020276153
236	0xbe3101a0	-0.17285776
237	0xbc0e2213	-0.008675116
238	0xbe4392a9	-0.19098915
239	0xbeb888bf	-0.3604183
240	0xbd7abc77	-0.06121489
241	0xbecd3369	-0.40078285
242	0xbea6d69e	-0.32585615
243	0xbe4b4425	-0.19850214
244	0xbee2df08	-0.44310784
245	0x3e13f565	0.1444908
246	0x3d3ddd20	0.04635346
247	0xbc40b030	-0.011760756
248	0xbe739a8b	-0.23789422
249	0xbe47617d	-0.19470783
250	0xbe2c4aa2	-0.16825345
251	0xbec847fb	-0.39117417
252	0xbe958216	-0.2920081
253	0xbdd24281	-0.10266591
254	0xbea75b17	-0.32686684
255	0xba61ff3f	-0.00086211035
