Project/Ming_Jiang_1016239_Gengcong_Yan_1009903_Project/Part2/trained agents/tdc_bc_ablationStudy/HalfCheetahBulletEnv-v0_TD3_BC_Single_Cirtic_400_1638451988_td3_bc_sc.pth (torch, 598401 bytes, 11 tensors)

l1.weight f4 [256, 32]
0.027615124 -0.17457707 -0.07378544 -0.2084676 -0.007817228 0.16224483 -0.19304612 0.36036217
-0.16350721 0.24090825 -0.24631195 0.14515726 0.15958373 -0.38846022 -0.10355264 -0.3683567
-0.18720396 -0.34249103 0.42018318 -0.34168482 0.04260348 0.06045192 0.08571128 -0.12001441
-0.068727724 0.03543145 0.228145 -0.21486688 -0.23516954 -0.21805303 -0.13974851 -0.1413153
-0.1587602 0.17157795 0.23803368 0.17694946 0.0622098 -0.13616833 -0.115876384 0.06520302
0.10546255 0.020760661 0.05460002 0.022734625 -0.023810973 -0.06763394 0.1799051 0.028844798
0.03387741 0.061039064 0.40455914 0.12010825 -0.16944773 -0.3213544 -0.648234 -0.06305037
0.23852818 -0.08616956 0.15159428 0.034421038 -0.072456665 0.17255516 -0.07230479 0.0811919
0.038300533 0.15046896 0.01856693 0.41653183 0.05437683 0.084739834 0.07692992 0.6548771
-1.2869159 -0.24534614 -0.951216 -0.101568855 -0.40341792 -0.12683983 0.21665241 0.20547578
0.47396606 0.15890288 -0.39761567 -0.060253568 -0.033216454 0.082324706 0.10523077 0.16940613
-0.012982296 -0.073746555 -0.1228333 -0.0016242021 -0.18687262 -0.09443261 0.24291724 -0.09472289
-0.2796113 0.0610876 0.121079296 -0.048656743 -0.027289242 0.16996439 -0.20634432 0.011142215
-0.15422595 0.45723057 -0.61685 -0.06582027 -0.5470355 -0.23227032 -0.14293751 0.15262505
-0.18100931 0.08020288 -0.25388986 -0.22559679 0.004192489 -0.038495876 0.13162443 0.088431194
-0.23470144 0.076368496 0.3891649 -0.27747658 -0.3150684 -0.06299413 0.14854948 -0.13298789
0.4073626 0.021976167 0.12490091 0.1933323 -0.13991024 0.27376935 -0.016853092 0.4371524
0.6677432 -0.3043933 -0.46001866 -0.1309351 -0.27932134 -0.08976198 0.27388147 0.07798751
-0.7001695 -0.09558047 -0.1517014 -0.2661522 0.09203692 0.012726237 -0.0015491372 -0.10088302
0.029092206 -0.0102697285 -0.35552612 0.017759608 -0.42393464 -0.20058301 -0.20057563 -0.11817786
0.12213647 -0.057387274 0.20099868 0.032064274 -0.100799896 -0.023145309 -0.45833248 0.21351758
0.18589605 -0.14410171 0.048808288 0.05896422 -0.0054204646 0.059341826 0.28983963 -0.13580987
0.094599284 -0.17904413 -0.23405193 -0.052346155 -0.051333115 -0.07191153 0.0007721774 0.50082994
-0.025739836 0.08408237 -0.18966077 0.14997406 0.16079845 -0.2674546 -0.16514668 0.009928088
-0.13448583 0.09777057 -0.058288798 -0.27874276 -0.07337922 -0.0011419301 -0.1533839 0.17925806
-0.086262 0.43783423 -0.39863992 0.25701728 -0.628657 -0.44153 -0.12559515 -0.04854064
0.10661395 -0.048060328 0.20906122 0.041467264 -0.040440463 0.05785861 -0.1239051 0.59311646
-0.016551824 -0.00629835 0.06443387 0.044078697 -0.020250674 0.03128099 0.059554204 -0.008449053
0.3276167 -0.16288248 0.042904466 -0.26781175 0.12560214 -0.050410233 -0.018775115 0.12403759
0.21464285 0.086922534 0.14573072 -0.18484522 0.09398667 0.21314421 0.14214376 0.2265261
0.059738316 0.4138108 -0.068406 0.13080773 0.13993403 -0.11498673 0.100530624 -0.02171341
0.11266694 -0.19012392 0.43819752 -0.4696372 0.0048160776 -0.1633881 -0.31110358 -0.27535754
00000000: 1d39 e23c 55c4 32be d21c 97bd 8878 55be
00000010: d513 00bc 8223 263e e2ad 45be 6481 b83e
00000020: 6f6e 27be a7b0 763e 3339 7cbe 1ba4 143e
00000030: eb69 233e 42e4 c6be 6813 d4bd 4099 bcbe
00000040: 65b2 3fbe fc5a afbe 4022 d73e 50f1 aebe
00000050: fd80 2e3d 6f9c 773d 6589 af3d 1dca f5bd
00000060: 1fc1 8cbd 9120 113d d89e 693e 1006 5cbe
00000070: 49d0 70be 4b49 5fbe 3c1a 0fbe f5b4 10be
00000080: 0992 22be 21b2 2f3e 1abf 733e 3d32 353e
00000090: b4cf 7e3d b66f 0bbe 9950 edbd 2989 853d
000000a0: c0fc d73d 4312 aa3c 45a4 5f3d f73d ba3c
000000b0: 3b0f c3bc aa83 8abd 0b39 383e ed4b ec3c
000000c0: 0ac3 0a3d 1904 7a3d 6022 cf3e 50fb f53d
000000d0: b583 2dbe 9088 a4be aaf2 25bf 8d20 81bd
000000e0: bb40 743e ab79 b0bd 883b 1b3e 13fd 0c3d
000000f0: 2964 94bd 4db2 303e 8914 94bd f047 a63d
00000100: 05e1 1c3d 8914 1a3e ad19 983c a943 d53e
00000110: 3dba 5e3d 148c ad3d 6f8d 9d3d 07a6 273f
00000120: a9b9 a4bf 053c 7bbe e482 73bf 5503 d0bd
00000130: cb8c cebe 4de2 01be 21da 5d3e 3e68 523e
00000140: aeab f23e 70b7 223e 4894 cbbe 72cc 76bd
00000150: fa0d 08bd db99 a83d 3b83 d73d cd78 2d3e
00000160: b2b3 54bc 6f08 97bd 0690 fbbd 2ee3 d4ba
00000170: 895b 3fbe e265 c1bd 4cbf 783e 13fe c1bd
00000180: 3629 8fbe fe36 7a3d 6cf8 f73d 4b4c 47bd
00000190: b08d dfbc 250b 2e3e ed4b 53be d68d 363c
000001a0: 68ed 1dbe 201a ea3e e2e9 1dbf c7cc 86bd
000001b0: 850a 0cbf 45d8 6dbe 365e 12be be49 1c3e
000001c0: 815a 39be 6841 a43d dafd 81be d802 67be
000001d0: 2661 893b daad 1dbd 8ec8 063e 6a1b b53d
000001e0: 9355 70be 1667 9c3d 9f40 c73e 6911 8ebe
000001f0: a550 a1be 1103 81bd 5b1d 183e fa2d 08be
00000200: d591 d03e 5d07 b43c 0ccc ff3d e7f8 453e
00000210: a144 0fbe 7f2b 8c3e 7f0f 8abc 70d2 df3e
00000220: 38f1 2a3f 70d9 9bbe 9187 ebbe da13 06be
00000230: 3503 8fbe 21d5 b7bd 313a 8c3e eab7 9f3d
00000240: 4f3e 33bf b2bf c3bd 9d57 1bbe 1a45 88be
00000250: da7d bc3d b581 503c 6b0c cbba c29b cebd
00000260: c752 ee3c 5d42 28bc 8507 b6be 997c 913c
00000270: f60d d9be a265 4dbe b363 4dbe 3c07 f2bd
00000280: b022 fa3d eb0e 6bbd 99d2 4d3e d455 033d
00000290: 2d70 cebd 3b9b bdbc 8eaa eabe 5aa4 5a3e
000002a0: 895b 3e3e 668f 13be 33eb 473d 7784 713d
000002b0: 279e b1bb 6a10 733d dc65 943e be11 0bbe
000002c0: 45bd c13d 5857 37be 4fab 6fbe ec68 56bd
000002d0: ac42 52bd 5a46 93bd f36b 4a3a 6436 003f
000002e0: 59dc d2bc 6133 ac3d 6f36 42be cd92 193e
000002f0: 59a8 243e cfef 88be 361c 29be 6ba9 223c
00000300: a7b6 09be f03b c83d 3cc0 6ebd 5fb7 8ebe
00000310: d847 96bd d1ac 95ba ab10 1dbe 6d8f 373e
00000320: 22aa b0bd cf2b e03e 881a ccbe c597 833e
00000330: aaef 20bf 3810 e2be 049c 00be 8dd2 46bd
00000340: 6a58 da3d e8da 44bd 2514 563e 94d9 293d
00000350: e6a4 25bd 26fd 6c3d f5c1 fdbd 7bd6 173f
00000360: b197 87bc 6462 cebb e8f5 833d dd8b 343d
00000370: bee4 a5bc 7f20 003d 1cef 733d e66d 0abc
00000380: 60bd a73e aaca 26be 98bc 2f3d 9f1e 89be
00000390: d99d 003e f67a 4ebd 45ce 99bc 6c07 fe3d
000003a0: 56cb 5b3e 7104 b23d 6f3a 153e 1148 3dbe
000003b0: 157c c03d 7a42 5a3e 228e 113e 75f6 673e
000003c0: 2ab0 743d 02df d33e 7218 8cbd 76f2 053e
000003d0: de4a 0f3e 2a7e ebbd 00e3 cd3d 52e0 b1bc
000003e0: edbd e63d d8af 42be 6d5b e03e 4974 f0be
000003f0: 30d0 9d3b 364f 27be f848 9fbe aafb 8cbe

l1.bias f4 [256]
-0.37441427 0.57325524 -0.10007825 -0.20110925 -0.68851185 0.5329941 0.0041848975 -0.7160798
0.5223039 -0.57178855 0.7551868 -0.40506658 0.28322023 0.16500297 0.23080203 -0.56020975
0.13189107 -0.32989016 -0.0373355 -0.023115732 -0.09972986 0.20927586 0.7532737 -0.7739845
0.5717977 0.27835485 -0.28660712 0.34358227 0.03330409 0.23253267 -0.6966857 -0.5799565
0.32720864 -0.5510016 -0.25277293 -0.2013531 -0.47833174 0.20071106 -0.08554567 0.33823758
0.47518882 -0.43401682 -0.68611276 0.44140005 -0.31346703 -0.089421004 0.38703737 0.46372122
-0.00896879 -0.3230564 -0.76570606 0.19317806 0.13475275 0.47693628 0.48889974 0.34238067
0.24365059 -0.02967771 -0.2710263 0.3736529 0.58085907 -1.090488 -0.46348065 -0.53019184
-0.20429134 0.5304956 0.38692188 -0.60788053 -0.3148929 0.663202 0.35492295 -0.46008864
0.5999035 0.08439098 0.44586277 0.38314995 -1.0560149 -0.20131974 -0.4132706 0.5019367
-0.3856571 0.3045281 0.54725647 -0.39417264 0.6089001 -1.2388417 0.28309062 -0.4698883
0.116037644 0.15112329 -0.6302982 -0.73068666 0.22489148 -0.5478826 -0.05766668 0.20730269
0.2839532 -0.30959257 0.020115402 -0.2623225 0.21814391 0.08182386 0.16852543 -0.55269873
-0.73501813 0.5446981 -0.6579005 0.54275095 -0.52962506 0.7302361 -0.5836004 -0.6349225
-0.06824289 -0.07639417 -0.37931484 -0.47007677 -0.29604515 -0.53803843 0.07806992 0.7402558
0.18969928 0.38851553 0.36863264 -0.3805572 0.37214434 -0.5774511 0.21478486 -0.64119756
-0.75532585 0.27296945 -0.71504134 -0.89963686 0.13507572 -0.48069018 0.19853127 -0.2711714
-0.36143175 -0.59155554 -0.33616266 0.5733987 -0.101497486 -0.07160764 -0.43516046 -0.70184565
0.06384101 0.20923615 0.35435042 0.13186766 -0.025712237 -0.07248835 0.64136183 0.7646286
0.37341362 -0.028597884 -0.40372765 -0.59826756 0.16658202 -0.54443234 -0.0012502098 -0.03543045
-0.91484094 0.4726029 0.54101855 -0.524242 0.7614414 0.73477924 0.36520827 -0.45550412
-0.1347666 -0.13464352 0.24340226 0.71557176 -0.83986247 0.7205026 -1.2672656 0.38524678
-0.43760583 0.28965262 0.5000463 -0.8455713 0.3250628 -0.30975598 -0.6422826 0.5073852
-0.8466383 0.6438301 -0.63582325 0.061522856 -0.5567888 -0.7749012 -1.159326 0.2110767
-1.1777657 0.19633579 -0.072281994 -0.16956955 0.44681534 -0.014731392 -0.702655 0.5594071
-0.5597102 0.1403547 0.5082138 0.50887203 -0.5227 0.24054979 -0.37077025 -0.4690905
0.40278217 -0.61711174 0.24980071 -0.56045645 -0.3662639 0.2541262 -0.7303924 -0.6269911
0.5763007 -0.8531665 0.7087679 -0.10006754 0.7519049 0.24783151 -0.2809826 -0.058491834
0.11860147 0.30088335 -0.44442287 -0.7030584 -0.051045176 -1.0109135 -0.25086352 -0.45544037
-0.310354 -0.17117733 0.6994379 0.39944282 -0.8821938 -0.3614085 0.5224916 0.5137638
0.2981711 0.5924208 0.17732134 -0.38927165 0.43182 0.387048 0.27742863 0.20387548
0.63203174 0.5513294 -0.14515696 -0.36683956 -0.1727879 -0.3290282 -0.60362065 0.10980221
00000000: 3ab3 bfbe dbc0 123f d3f5 ccbd 95ef 4dbe
00000010: 5042 30bf 4d72 083f 7721 893b 0151 37bf
00000020: b5b5 053f bc60 12bf ec53 413f e364 cfbe
00000030: 3e02 913e 8af6 283e 5e57 6c3e e869 0fbf
00000040: 740e 073e 5de7 a8be 1ced 18bd 345d bdbc
00000050: 2b3f ccbd 694c 563e 8cd6 403f d923 46bf
00000060: 5661 123f 8784 8e3e 2bbe 92be 04ea af3e
00000070: df69 083d 0b1d 6e3e fe59 32bf 0778 14bf
00000080: e487 a73e 710e 0dbf 746b 81be 822f 4ebe
00000090: e6e7 f4be 3387 4d3e 9132 afbd 7a2d ad3e
000000a0: f34b f33e 7437 debe 16a5 2fbf 30ff e13e
000000b0: c07e a0be 5c22 b7bd c329 c63e de6c ed3e
000000c0: d5f1 12bc a667 a5be 5005 44bf 78d0 453e
000000d0: a0fc 093e fe30 f43e 1151 fa3e 854c af3e
000000e0: 8a7f 793e ab1e f3bc f6c3 8abe 6f4f bf3e
000000f0: 2eb3 143f 1c95 8bbf 564d edbe a7ba 07bf
00000100: c031 51be 8fce 073f a01a c63e 0f9e 1bbf
00000110: a439 a1be 9bc7 293f 76b8 b53e bd90 ebbe
00000120: 4793 193f 2ed5 ac3d 2048 e43e 3b2c c43e
00000130: 7f2b 87bf c326 4ebe 3498 d3be ec7e 003f
00000140: d974 c5be 1beb 9b3e 0019 0c3f ffd0 c9be
00000150: e1e0 1b3f 5d92 9ebf 41f1 903e 3395 f0be
00000160: 25a5 ed3d 10c0 1a3e 395b 21bf 480e 3bbf
00000170: f449 663e 0942 0cbf e633 6cbd 2847 543e
00000180: 5062 913e eb82 9ebe 0ec9 a43c 224f 86be
00000190: 1e61 5f3e 4593 a73d ee91 2c3e aa7d 0dbf
000001a0: 262a 3cbf 5671 0b3f 2b6c 28bf baf1 0a3f
000001b0: 8295 07bf c1f0 3a3f d666 15bf 488a 22bf
000001c0: eec2 8bbd 8c74 9cbd 8e35 c2be e7ad f0be
000001d0: 3b93 97be e3bc 09bf 1fe3 9f3d 6781 3d3f
000001e0: 8740 423e 82eb c63e 6bbd bc3e 65d8 c2be
000001f0: b489 be3e d6d3 13bf 90f0 5b3e 8625 24bf
00000200: 095d 41bf a7c2 8b3e f30c 37bf 9a4e 66bf
00000210: 4a51 0a3e 061d f6be c84b 4b3e fad6 8abe
00000220: 950d b9be 2f70 17bf 831d acbe 42ca 123f
00000230: eadd cfbd 07a7 92bd 5acd debe 28ac 33bf
00000240: 13bf 823d 0042 563e 6b6d b53e 5108 073e
00000250: 78a2 d2bc c674 94bd 4a30 243f b3be 433f
00000260: 1230 bf3e 1c46 eabc 64b5 cebe 1028 19bf
00000270: 7a94 2a3e eb5f 0bbf 14de a3ba 851f 11bd
00000280: 0433 6abf 02f9 f13e 3180 0a3f b934 06bf
00000290: d3ed 423f 7e1a 3c3f 94fc ba3e d637 e9be
000002a0: 4100 0abe fedf 09be 713e 793e b62f 373f
000002b0: 3a01 57bf dc72 383f c235 a2bf 113f c53e
000002c0: df0d e0be 594d 943e 0903 003f 5c77 58bf
000002d0: a26e a63e 5698 9ebe a26c 24bf ffe3 013f
000002e0: 4abd 58bf 0dd2 243f 50c5 22bf 64ff 7b3d
000002f0: b689 0ebf ed5f 46bf cb64 94bf 7e24 583e
00000300: 07c1 96bf 400c 493e 9508 94bd a4a3 2dbe
00000310: fbc4 e43e f05b 71bc 33e1 33bf 4e35 0f3f
00000320: 2b49 0fbf 24b9 0f3e 4d1a 023f 7045 023f
00000330: abcf 05bf af52 763e 99d5 bdbe a12c f0be
00000340: 7739 ce3e 09fb 1dbf c2cb 7f3e 137a 0fbf
00000350: f186 bbbe d41c 823e fffa 3abf 7d82 20bf
00000360: 7188 133f 1f69 5abf d071 353f 36f0 ccbd
00000370: d77c 403f 8bc7 7d3e f4dc 8fbe 2295 6fbd
00000380: 54e5 f23d 620d 9a3e 658b e3be a3fb 33bf
00000390: bf14 51bd 9d65 81bf 2f71 80be 7b2f e9be
000003a0: b8e6 9ebe 1c49 2fbe 5d0e 333f c583 cc3e
000003b0: 74d7 61bf 890a b9be 02c2 053f 0686 033f
000003c0: e2a9 983e e4a8 173f ba93 353e 9d4e c7be
000003d0: 8317 dd3e 282b c63e 200b 8e3e bcc4 503e
000003e0: d5cc 213f ec23 0d3f 07a4 14be 65d2 bbbe
000003f0: 50ef 30be 6276 a8be e286 1abf fbdf e03d

l2.weight f4 [256, 256]
-0.08545055 -0.4899152 0.6353695 0.62554765 0.11523586 0.32245216 0.11952873 0.034963097
0.258171 0.1553004 -0.16894336 0.31627113 0.10283404 0.44634587 0.6820831 -0.05477369
-0.08062114 0.38096303 0.08615724 0.1813324 -0.28564242 -0.049895685 -0.17415425 0.121920235
0.35584116 0.024709318 0.19485241 0.40783322 -0.33605453 -0.31399223 -0.1502376 -0.29393154
0.34536523 0.18359604 -0.52106285 0.08898117 -0.23455802 -0.23490874 0.35736117 -0.104971685
-0.16722631 0.072714195 0.10485708 -0.081729874 0.041907415 0.33693105 0.12238154 0.045929503
0.31828234 -0.27211973 0.38897464 -0.19972311 0.17222571 0.0033546807 0.34537 0.0042398507
-0.0976064 0.14514305 0.3835818 -0.08057134 -0.08923336 -0.039165117 -0.040185146 -0.22743796
-0.21315244 -0.047501452 -0.32220864 -0.049976867 -0.15558803 0.017258758 -0.23407921 -0.5828935
-0.22368719 -0.3246448 -0.044165384 -0.27899382 0.30901876 0.054483857 -0.025924176 0.04136761
-0.5527584 -0.16274208 -0.1955381 0.0065219305 -0.06337295 -0.22157298 -0.21779048 0.20566194
0.21393634 -0.0035097194 -0.018863456 -0.36032796 0.061431795 0.48585203 0.11385806 -0.043576453
-0.9163315 -0.054161277 -0.47062626 0.009489347 0.2491752 -0.095558874 0.45591533 -0.00094935735
-0.04947192 0.123759165 0.29538012 -0.4469387 0.05722425 -0.015641967 4.5087625e-05 -0.38144928
-0.2982322 -0.24021675 -0.40721112 -0.5449761 -0.17137231 0.10181537 0.3527599 -0.093179874
-1.4612947 -0.22952648 -0.18373536 0.09929046 -0.36376858 0.0957864 -0.8038945 -0.20761468
-0.019675842 0.51432216 0.2391792 0.1111336 0.5004744 0.3031729 0.3338784 0.15781511
0.053521466 -0.16569777 0.28497407 0.14004506 0.25850844 0.16536714 -0.16817121 -0.34408492
-0.7953975 -0.15531407 0.048782863 0.047450017 0.19757694 0.29670772 -0.07425822 0.097412705
-0.059379637 -0.10781578 -2.8868458 -0.6124591 -0.21542281 0.13517497 -0.054349408 -0.118694544
-0.19720194 -0.3651971 -0.2969124 0.41841513 -0.24063314 -1.790365 -0.9735659 -0.15908408
0.09282594 0.3118309 -0.04973197 -0.080503605 -0.57803595 -0.47943932 -1.3256401 -0.095065616
0.36526912 -0.037903495 0.4681274 0.17816 -0.088076666 -0.047787372 -0.79334694 0.021675456
-0.30084693 0.053213336 -0.55506104 0.49107322 0.2669567 -0.21883766 -0.4833351 -0.39931065
0.09677242 0.089719705 -0.8142823 -0.32447731 0.03733512 0.34798533 -0.4094577 -0.20557158
0.13928983 0.47698608 0.15984088 -0.21400039 0.11629868 0.27049178 -0.3220903 -0.020269874
0.15863147 -0.5661422 -0.60940903 -0.91820014 0.18006675 0.13059713 0.15042868 0.40571523
-0.008990641 0.2035453 -0.60832417 -0.24425887 -0.14774095 0.028353864 0.0162324 -0.035568226
0.014133894 0.025886407 -0.12557712 -0.93632436 -0.05379095 -0.10446064 -1.4322463 -0.06944659
-0.4005202 -0.48215106 0.12583005 0.5231167 0.13025299 0.1951163 0.03089298 -0.15959723
-0.27529633 -0.3259205 -0.4265131 -0.15672085 0.13459076 0.64659286 -0.10837553 -0.82949084
-0.5347445 -0.042572226 -0.13510619 -0.18373194 -0.20783189 0.11998475 -0.55068797 0.4158527
00000000: b300 afbd 2ad6 fabe 93a7 223f e423 203f
00000010: c700 ec3d 7318 a53e 7bcb f43d 7735 0f3d
00000020: fd2e 843e 1107 1f3e 7dff 2cbe 4aee a13e
00000030: a79a d23d 7287 e43e ff9c 2e3f 605a 60bd
00000040: b21c a5bd 960d c33e 3573 b03d 33af 393e
00000050: b93f 92be 6b5f 4cbd 7e55 32be 51b1 f93d
00000060: d030 b63e 326b ca3c 6487 473e 84cf d03e
00000070: 570f acbe 97c3 a0be e3d7 19be 327e 96be
00000080: b6d3 b03e 9a00 3c3e 6064 05bf c23b b63d
00000090: fa2f 70be eb8b 70be 0bf8 b63e 65fb d6bd
000000a0: 603d 2bbe 2eeb 943d 4fbf d63d fe61 a7bd
000000b0: 1ca7 2b3d 3a82 ac3e 2ca3 fa3d 9320 3c3d
000000c0: e7f5 a23e 4753 8bbe af27 c73e 3784 4cbe
000000d0: f05b 303e 34da 5b3b 56d4 b03e 72ee 8a3b
000000e0: dde5 c7bd 61a0 143e d564 c43e 9602 a5bd
000000f0: fbbf b6bd 9a6b 20bd 2e99 24bd 7fe5 68be
00000100: a244 5abe e290 42bd 88f8 a4be 8bb4 4cbd
00000110: 7852 1fbe 3d62 8d3c 76b2 6fbe 8238 15bf
00000120: 410e 65be d837 a6be c3e6 34bd 47d8 8ebe
00000130: b537 9e3e 772a 5f3d f05e d4bc 1571 293d
00000140: 9381 0dbf dca5 26be 243b 48be ebb5 d53b
00000150: adc9 81bd 07e4 62be 7804 5fbe 0b99 523e
00000160: 2112 5b3e 5203 66bb 8987 9abc e87c b8be
00000170: e89f 7b3d 99c1 f83e 6a2e e93d 397d 32bd
00000180: b494 6abf 37d8 5dbd edf5 f0be 3579 1b3c
00000190: c927 7f3e 5fb4 c3bd bc6d e93e 4bde 78ba
000001a0: 11a3 4abd 7275 fd3d 103c 973e 26d5 e4be
000001b0: fa63 6a3d 9523 80bc 781c 3d38 524d c3be
000001c0: e4b1 98be 61fb 75be fa7d d0be 8e83 0bbf
000001d0: 397c 2fbe 9484 d03d f29c b43e 17d5 bebd
000001e0: b40b bbbf fd08 6bbe 1f25 3cbe cc58 cb3d
000001f0: e03f babe a92b c43d 08cc 4dbf f198 54be
00000200: 3b2f a1bc 9eaa 033f 64eb 743e 039a e33d
00000210: 171f 003f 7a39 9b3e 1cf2 aa3e 499a 213e
00000220: 5339 5b3d adac 29be 1fe8 913e f967 0f3e
00000230: 385b 843e 0156 293e 1335 2cbe e62b b0be
00000240: 2c9f 4bbf a70a 1fbe 8ad0 473d f35a 423d
00000250: 9c51 4a3e 13ea 973e b214 98bd 5080 c73d
00000260: 1038 73bd 85ce dcbd 15c2 38c0 1fca 1cbf
00000270: cc97 5cbe 4f6b 0a3e 7c9d 5ebd 2016 f3bd
00000280: 4eef 49be 1dfb babe e704 98be 823a d63e
00000290: 8968 76be ae2a e5bf 9d3b 79bf f0e6 22be
000002a0: 871b be3d 4da8 9f3e c0b3 4bbd 13df a4bd
000002b0: 2afa 13bf 1279 f5be 93ae a9bf c3b1 c2bd
000002c0: 8e04 bb3e b240 1bbd 65ae ef3e 936f 363e
000002d0: 8a61 b4bd b1bc 43bd c918 4bbf ba90 b13c
000002e0: 9c08 9abe 3af6 593d 7b18 0ebf f36d fb3e
000002f0: 8cae 883e fb16 60be b377 f7be 7272 ccbe
00000300: 9e30 c63d f7be b73d ce74 50bf e421 a6be
00000310: b6ec 183d 222b b23e 71a4 d1be 5b81 52be
00000320: fea1 0e3e 8537 f43e 54ad 233e eb22 5bbe
00000330: 012e ee3d e67d 8a3e 05e9 a4be 020d a6bc
00000340: 4a70 223e b2ee 10bf 3b02 1cbf 2a0f 6bbf
00000350: 6b63 383e 41bb 053e fa09 1a3e e8b9 cf3e
00000360: 7b4d 13bc 2e6e 503e 22bb 1bbf ff1e 7abe
00000370: 6749 17be 5d46 e83c cff9 843c fdaf 11bd
00000380: d991 673c bb0f d43c 4a97 00be f4b2 6fbf
00000390: e653 5cbd 76ef d5bd d953 b7bf 043a 8ebd
000003a0: fc10 cdbe 81dc f6be 98d9 003e faea 053f
000003b0: 0a61 053e 91cc 473e 4613 fd3c 756d 23be
000003c0: a4f3 8cbe 0ddf a6be ed5f dabe 6e7b 20be
000003d0: 29d2 093e 1c87 253f fdf3 ddbd 8359 54bf
000003e0: 04e5 08bf 3760 2ebd 4759 0abe 3a24 3cbe
000003f0: e2d1 54be 91ba f53d e3f9 0cbf a5ea d43e

l2.bias f4 [256]
-0.5717057 -0.642605 -0.26524985 -0.17977564 -0.40647733 -0.116583265 0.53111386 -0.47569692
-0.31754446 -0.44177142 0.58364177 0.67031157 0.58648676 -0.6937011 0.7419023 -0.457892
0.6079649 0.57864094 -0.37060404 0.6647458 -0.43649852 -0.54543656 -0.32205552 0.6283713
-0.49185047 0.5709847 -0.26598442 -0.24102448 -0.62551737 -0.31645674 -0.25069073 -0.154177
0.67695975 0.77587444 0.7597306 -0.43016988 0.600244 0.6320468 0.76384187 -0.49905747
0.73147035 0.5865762 0.6593598 -0.29218626 -0.055992324 -0.5733619 0.690029 0.7948466
-0.41186872 0.7116368 0.7038207 -0.3574239 -0.6717158 0.01481128 0.70228887 -0.5408679
0.84651315 -0.6586749 0.042145252 0.62155765 -0.31842822 -0.3541861 -0.4145162 -0.1970464
0.73057777 0.037185248 -0.6705559 -0.38152894 0.59379315 0.68627876 0.0010041217 -0.5575165
0.73104006 -0.3524464 -0.6237782 -0.45306933 0.68087506 -0.22860697 0.54426 0.6266032
-0.6310456 0.7911878 -0.24246348 -0.39705852 0.71943307 -0.2201903 -0.46100667 -0.17868838
0.8269384 0.7628466 -0.263935 -0.45604947 0.6634542 -0.15325496 -0.5726174 -0.26614982
-0.5129809 -0.036046185 0.71565115 -0.36684898 0.68829465 0.57027245 0.75566363 0.6153234
0.8230342 0.8406255 0.6624192 0.6008904 0.7319544 0.72064775 0.62159073 0.70617837
-0.22067453 0.80005544 -0.31630823 0.67567337 0.80777365 -0.6046845 -0.45225525 0.6805374
0.6449536 -0.7272389 -0.51731175 0.4432644 -0.48513794 0.7427007 0.6346068 0.6827067
0.6061828 -0.64298177 0.6758343 0.74690616 0.767646 -0.46175793 0.65419066 0.68563235
0.5579787 0.6520545 -0.47270685 -0.4619239 0.6936413 0.7693593 0.64303476 0.66428924
-0.5350999 0.682019 0.7650717 -0.29648274 -0.67220396 -0.3895901 0.62644225 0.6143747
0.7379121 -0.05904255 -0.5427013 -0.45916414 -0.46187907 -0.36354712 -0.3257091 -0.60775137
-0.34921968 0.6321952 -0.35448256 -0.14790371 -0.44028908 -0.5607613 -0.27391648 0.7571969
-0.123608746 0.75208706 -0.5267997 0.7342258 -0.3349636 -0.5824147 0.66115445 -0.19681062
-0.45842886 -0.40963298 0.588922 -0.4347721 -0.5830857 0.45433164 -0.21031287 0.7830345
-0.349815 -0.55887735 0.72189194 -0.61734253 -0.51504517 0.7041575 0.64045227 -0.31089872
0.5959999 -0.1821532 -0.30047563 0.7177877 -0.628809 0.7110149 0.5819228 -0.24007908
0.6706755 0.7849002 -0.6540914 -0.20434985 -0.5135354 -0.7213118 -0.29987293 0.7069526
0.59291804 0.77189505 0.6392774 -0.006177897 0.71051997 -0.46940294 -0.33252734 -0.37767652
0.5014532 0.66594005 0.6903504 -0.23652896 0.73680764 0.608432 -0.5634488 -0.35898992
-0.2752482 0.73335874 0.5964681 -0.38682306 0.56897104 -0.58946216 -0.13744964 0.6544447
0.74155223 -0.46236688 -0.5929291 -0.33194113 0.7125396 0.7340322 0.68703234 -0.5212072
0.8065295 -0.25482938 -0.40524682 0.60525346 0.79653895 -0.5418406 0.7706239 0.4539329
-0.20271234 0.73135823 0.64739597 0.84675014 -0.5912123 0.62387383 0.69385886 0.8144038
00000000: 4e5b 12bf c381 24bf d4ce 87be 1b17 38be
00000010: cc1d d0be 35c3 eebd 14f7 073f 8c8e f3be
00000020: 3095 a2be dd2f e2be 8c69 153f 8a99 2b3f
00000030: ff23 163f 6596 31bf 4fed 3d3f d270 eabe
00000040: 96a3 1b3f d021 143f d0bf bdbe c82c 2a3f
00000050: bc7c dfbe bba1 0bbf 76e4 a4be f1dc 203f
00000060: d3d3 fbbe 0e2c 123f 1c2f 88be 1fcf 76be
00000070: e821 20bf 9e06 a2be 895a 80be 93e0 1dbe
00000080: 3c4d 2d3f b59f 463f b47d 423f 3a3f dcbe
00000090: 97a9 193f d2cd 213f 248b 433f 7684 ffbe
000000a0: a441 3b3f dc29 163f cecb 283f 7099 95be
000000b0: 3558 65bd d8c7 12bf bea5 303f 117b 4b3f
000000c0: 75e0 d2be d42d 363f 982d 343f 4400 b7be
000000d0: 91f5 2bbf 03ab 723c 34c9 333f 5276 0abf
000000e0: 16b5 583f eb9e 28bf 80a0 2c3d 671e 1f3f
000000f0: 0609 a3be e157 b5be 783b d4be 88c6 49be
00000100: 2507 3b3f 8f4f 183d 8da9 2bbf c357 c3be
00000110: d402 183f f7af 2f3f bc9c 833a 67b9 0ebf
00000120: 7125 3b3f db73 b4be eeaf 1fbf b4f8 e7be
00000130: d44d 2e3f f217 6abe a054 0b3f 1169 203f
00000140: 348c 21bf 498b 4a3f 5948 78be 414b cbbe
00000150: c42c 383f 9179 61be 1109 ecbe 16fa 36be
00000160: 3cb2 533f ea49 433f 7d22 87be 517f e9be
00000170: 22d8 293f deee 1cbe 0e97 12bf ca44 88be
00000180: b752 03bf 2aa5 13bd ea34 373f a1d3 bbbe
00000190: 1434 303f 60fd 113f 2c73 413f d685 1d3f
000001a0: 5fb2 523f 3c33 573f 4e94 293f f4d3 193f
000001b0: 5d61 3b3f 5f7c 383f 9220 1f3f 1bc8 343f
000001c0: 81f8 61be 6fd0 4c3f 27f3 a1be eef8 2c3f
000001d0: 41ca 4e3f 9acc 1abf 008e e7be b337 2e3f
000001e0: ae1b 253f 542c 3abf 8b6e 04bf 8df3 e23e
000001f0: 0064 f8be a221 3e3f 9775 223f dec5 2e3f
00000200: cc2e 1b3f 749a 24bf 7a03 2d3f 3e35 3f3f
00000210: 7384 443f 896b ecbe 0a79 273f 9a85 2f3f
00000220: b1d7 0e3f 0bed 263f a206 f2be 4a81 ecbe
00000230: 7a92 313f bbf4 443f ed9d 243f dc0e 2a3f
00000240: 4ffc 08bf cc98 2e3f bddb 433f 96cc 97be
00000250: 8f15 2cbf 5b78 c7be 855e 203f a947 1d3f
00000260: cfe7 3c3f 9ad6 71bd 79ee 0abf 9017 ebbe
00000270: 6a7b ecbe d922 babe 58c3 a6be 9895 1bbf
00000280: eccc b2be 8bd7 213f bd7e b5be 1274 17be
00000290: 926d e1be 0d8e 0fbf c83e 8cbe a8d7 413f
000002a0: 9526 fdbd c788 403f 58dc 06bf 39f6 3b3f
000002b0: 5980 abbe 2119 15bf 6b41 293f b988 49be
000002c0: 30b7 eabe 6abb d1be 98c3 163f 739a debe
000002d0: 1b45 15bf 289e e83e 425c 57be f374 483f
000002e0: f41a b3be 9612 0fbf e9cd 383f 290a 1ebf
000002f0: 00da 03bf aa43 343f aef4 233f 1e2e 9fbe
00000300: 7393 183f 5e86 3abe f1d7 99be efc0 373f
00000310: a0f9 20bf 1305 363f e5f8 143f 4ad7 75be
00000320: 64b1 2b3f 38ef 483f 8972 27bf 1641 51be
00000330: 0e77 03bf e4a7 38bf f288 99be d8fa 343f
00000340: 7ac9 173f ea9a 453f afa7 233f f56f cabb
00000350: a3e4 353f 9555 f0be 0641 aabe d15e c1be
00000360: 3d5f 003f 0c7b 2a3f ceba 303f a634 72be
00000370: 6d9f 3c3f 33c2 1b3f 2e3e 10bf 87cd b7be
00000380: 55ed 8cbe 66bd 3b3f 22b2 183f ac0d c6be
00000390: 16a8 113f fee6 16bf 99bf 0cbe b089 273f
000003a0: 5ed6 3d3f 5abb ecbe 34ca 17bf 30f4 a9be
000003b0: ff68 363f 89e9 3b3f 5ae1 2f3f d66d 05bf
000003c0: b878 4e3f ff78 82be 837c cfbe e4f1 1a3f
000003d0: fae9 4b3f 11b6 0abf 9c47 453f e569 e83e
000003e0: d393 4fbe 4b3a 3b3f bebb 253f 9ec4 583f
000003f0: b059 17bf 32b6 1f3f bca0 313f c47c 503f

l3.weight f4 [1, 256]
-1.9164573 -0.4058871 -0.63056886 -1.3737391 -0.69695795 -1.7740048 0.27576306 -0.96804315
-0.94031256 -0.96686316 0.7281444 0.24785253 0.23127614 -0.43733826 0.1379759 -1.0139539
0.20973144 0.40651536 -0.53244466 0.24125321 -1.0819672 -1.1077886 -0.688579 0.23600353
-1.150634 0.2906285 -1.764537 -1.3085971 -0.39318356 -1.2226198 -1.2860619 -1.0577705
0.16355899 0.17195116 0.17301701 -0.51764864 0.33268976 0.1622271 0.17874168 -0.6911262
0.20567374 0.160878 0.072010376 -1.3194401 -2.0267181 -0.6416608 0.10401041 0.15024805
-1.3107572 0.17746942 0.27969489 -0.5234637 -0.43483734 -0.018940236 0.15882692 -0.60990655
0.20224275 -0.98150885 -0.0052048555 0.20224106 -1.9905318 -0.92413205 -0.774374 -3.5698776
0.16886759 -0.035798993 -1.1474074 -0.9912581 0.36164933 0.13434248 -0.0054970253 -0.6214434
0.17013201 -0.5097828 -0.8144557 -0.39203978 0.33381972 -1.7207459 0.273704 0.24705948
-1.0052451 0.10182384 -1.0923797 -0.7578653 0.17073295 -1.5656885 -0.6054437 -1.6539735
0.1420016 0.16025959 -1.2673503 -0.7911559 0.14814383 -2.1257608 -0.37558845 -0.7541782
-0.80453146 -0.02441066 0.2599365 -0.92360675 0.21725264 0.33935532 0.08433056 0.21624407
0.19388765 0.18545069 0.26666543 0.1623996 0.16426267 0.38283414 0.1307702 0.113686725
-2.1718585 0.1919705 -0.5898235 0.2616298 0.13487062 -0.32672158 -0.93164897 0.21839975
0.30364746 -0.42531827 -0.69776326 1.0076418 -0.7152979 0.1358928 0.41228154 0.37577602
0.23826717 -0.6476288 0.16099395 0.14051971 0.18948816 -0.4204181 0.2657441 0.22416648
0.33438063 0.19256988 -0.7830405 -0.8672936 0.23283085 0.19476515 0.23054244 0.21745731
-1.4581007 0.23635624 0.18525523 -0.71459866 -0.5173334 -0.82956076 0.1912915 0.34779435
0.12602454 -0.0073171905 -0.4692285 -0.57418317 -0.8754329 -0.79628366 -1.9255347 -1.236299
-0.72655725 0.084330305 -1.0082157 -1.3592968 -0.9307527 -0.39929664 -1.1998233 0.2351256
-0.9676912 0.13428108 -0.6665442 0.17945024 -1.004126 -0.45550227 0.14804497 -1.2666969
-0.43973252 -1.3290949 0.34185916 -0.9000949 -0.33200982 0.44539914 -1.141161 0.16902766
-1.0412688 -0.22098002 0.1464986 -0.8374194 -0.84544545 0.09545617 0.21964051 -0.7456343
0.2659229 -0.92145646 -0.9647974 0.23027016 -0.81354237 0.27449992 0.20885986 -0.6097941
0.2032721 0.12967934 -0.40725362 -2.2805989 -0.5464929 -0.44858631 -1.1197137 0.22818658
0.17074652 0.14377625 0.2265674 -2.4109373 0.16159387 -0.55078626 -1.0732919 -0.5823257
0.557864 0.16084251 0.083024174 -1.3650568 0.21991146 0.31135806 -0.38606405 -0.29836512
-0.50294536 0.14402121 0.20415679 -0.6792891 0.2957195 -0.24499099 -1.8183174 0.13611777
0.12052891 -0.84455615 -0.2541072 -0.6684745 0.11818391 0.20703834 0.19027984 -0.46341014
0.15758893 -1.4164973 -0.7078292 0.24048011 0.19418941 -0.40446946 0.22441994 0.39509895
-1.0190976 0.17731357 0.14603786 0.16303816 -1.1517068 0.19409217 0.23306386 0.18401428
00000000: 794e f5bf 6fd0 cfbe f66c 21bf afd6 afbf
00000010: d66b 32bf 9712 e3bf d130 8d3e add1 77bf
00000020: 53b8 70bf 5884 77bf ac67 3a3f 0ecd 7d3e
00000030: a7d3 6c3e cdea dfbe 8e49 0d3e 3ec9 81bf
00000040: d7c3 563e c822 d03e 4b4e 08bf 150b 773e
00000050: e77d 8abf 04cc 8dbf b746 30bf e9aa 713e
00000060: fa47 93bf 42cd 943e 59dc e1bf 1c80 a7bf
00000070: 5b4f c9be ce7e 9cbf ad9d a4bf 0665 87bf
00000080: 027c 273e f713 303e 5f2b 313e 9f84 04bf
00000090: 5056 aa3e dc1e 263e 0f08 373e a6ed 30bf
000000a0: 239c 523e 34bd 243e 2d7a 933d 6ae3 a8bf
000000b0: c0b5 01c0 e243 24bf 6903 d53d a0da 193e
000000c0: e4c6 a7bf 8bba 353e 2b34 8f3e b801 06bf
000000d0: 00a3 debe 8e28 9bbc 86a3 223e d622 1cbf
000000e0: b918 4f3e 2a44 7bbf 7e8d aabb 4818 4f3e
000000f0: bfc9 febf eb93 6cbf 603d 46bf e078 64c0
00000100: a0eb 2c3e f7a1 12bd 3fde 92bf 17c3 7dbf
00000110: 1a2a b93e 1391 093e 6420 b4bb ea16 1fbf
00000120: 1637 2e3e 2081 02bf 2b80 50bf 70b9 c8be
00000130: 6bea aa3e 6741 dcbf ee22 8c3e 29fd 7c3e
00000140: dfab 80bf 0489 d03d 19d3 8bbf 7603 42bf
00000150: 9ed4 2e3e 7b68 c8bf 5cfe 1abf 67b5 d3bf
00000160: de68 113e 171b 243e 8938 a2bf 3189 4abf
00000170: 04b3 173e 770c 08c0 214d c0be d311 41bf
00000180: c6f5 4dbf ddf8 c7bc 6616 853e 7e71 6cbf
00000190: 7a77 5e3e fbbf ad3e 80b5 ac3d 166f 5d3e
000001a0: 7c8a 463e c9e6 3d3e 5f88 883e 154c 263e
000001b0: 7934 283e d602 c43e a0e8 053e 96d4 e83d
000001c0: bbff 0ac0 ea93 443e acfe 16bf 57f4 853e
000001d0: 861b 0a3e 0d48 a7be 8c80 6ebf 2fa4 5f3e
000001e0: ae77 9b3e 51c3 d9be 9da0 32bf 68fa 803f
000001f0: c31d 37bf 7b27 0b3e 9116 d33e b765 c03e
00000200: 4ffc 733e 00cb 25bf 99db 243e 66e4 0f3e
00000210: 2f09 423e 0b41 d7be 9c0f 883e e68b 653e
00000220: f033 ab3e 0a31 453e 5875 48bf f406 5ebf
00000230: 366b 6e3e 8470 473e 5113 6c3e 21ad 5e3e
00000240: 0ba3 babf 5f07 723e 8cb3 3d3e f0ef 36bf
00000250: f66f 04bf 185e 54bf ebe1 433e 1a12 b23e
00000260: 940c 013e 0bc5 efbb b83e f0be abfd 12bf
00000270: 5f1c 60bf 3fd9 4bbf ec77 f6bf 0c3f 9ebf
00000280: a8ff 39bf 5eb5 ac3d 360d 81bf 70fd adbf
00000290: cf45 6ebf 9c70 ccbe cf93 99bf c4c4 703e
000002a0: 9cba 77bf fb80 093e a4a2 2abf cec1 373e
000002b0: 3387 80bf 9837 e9be 1a99 173e 2023 a2bf
000002c0: 9f24 e1be c81f aabf 2a08 af3e 9f6c 66bf
000002d0: 31fd a9be 5b0b e43e 9011 92bf 9615 2d3e
000002e0: 4c48 85bf 9648 62be bb03 163e 1e61 56bf
000002f0: 1d6f 58bf 867e c33d 71e9 603e e4e1 3ebf
00000300: 0c27 883e 92e4 6bbf f6fc 76bf f1cb 6b3e
00000310: 5044 50bf 418b 8c3e 5cdf 553e 771b 1cbf
00000320: 9026 503e a9ca 043e 8c83 d0be 55f5 11c0
00000330: f5e6 0bbf 1bad e5be c752 8fbf bea9 693e
00000340: 2dd8 2e3e 153a 133e 4901 683e cc4c 1ac0
00000350: dd78 253e 5400 0dbf a161 89bf 4c13 15bf
00000360: 2dd0 0e3f e6b3 243e 9408 aa3d 2eba aebf
00000370: 7830 613e 536a 9f3e 30aa c5be 50c3 98be
00000380: 07c1 00bf 4c7a 133e 7a0e 513e e4e5 2dbf
00000390: 8c68 973e ebde 7abe a0be e8bf 7562 0b3e
000003a0: dcd7 f63d d534 58bf 571a 82be 2521 2bbf
000003b0: 680a f23d dc01 543e b8d8 423e 1844 edbe
000003c0: fe5e 213e c94f b5bf 4b34 35bf 6b40 763e
000003d0: 97d9 463e 9f16 cfbe 57ce 653e 694a ca3e
000003e0: ca71 82bf b091 353e f38a 153e 7af3 263e
000003f0: 216b 93bf 19c0 463e 4ba8 6e3e 3d6e 3c3e

l1.weight f4 [256, 26]
-0.0857546 0.062901095 -0.012102368 -0.12933472 0.18845862 0.02124836 0.08915683 0.17981732
0.0630329 -0.13106652 -0.086964086 -0.011879582 0.08279138 -0.0072349133 0.05304299 -0.006981195
-0.13032955 0.03687711 0.20331705 -0.03508182 -0.07136886 -0.007957467 0.026739923 -0.025734205
-0.027015628 -0.059502453 -0.17426252 -0.055951353 0.010185504 0.5121231 -0.16918635 0.014630976
0.11760558 -0.08066049 -0.07142595 0.01280234 0.11250452 -0.15095827 -0.30798954 -0.0014443761
0.21626404 0.11215782 -0.033274464 -0.17670368 -0.046572432 -0.045154285 -0.15680073 -0.18177405
-0.06414374 -0.09860999 -0.01147878 0.10379625 -0.0008983074 -0.017511962 -0.08668993 0.37124977
-0.059519153 0.23373085 0.07175935 -0.022170095 0.23213989 0.12350835 -0.037394907 0.12460492
-0.1768713 -0.25897226 0.17217444 0.19518949 -0.26946262 0.005936689 -0.060743734 -0.2044023
0.1453822 -0.13640946 0.058379102 0.074507885 -0.047491588 -0.18334456 0.10400809 -0.1656214
-0.0021774375 -0.047117762 0.030803736 0.08842229 0.03188387 -0.20282027 -0.22341272 0.16927171
0.08937426 0.17211805 0.015342524 -0.2796494 -0.15168169 -0.21846835 -0.100427024 -0.1956964
-0.04431488 0.19588478 -0.121620476 0.11276606 -0.18722996 -0.3338436 0.10215673 0.13295005
-0.050036974 0.06453986 0.024334852 0.15841682 -0.15137367 0.023989873 0.31759602 0.035953622
0.26236165 0.04465307 0.099272706 0.037729137 -0.21606837 -0.10741197 -0.31485638 0.24247594
0.15290496 0.17928196 0.13188344 -0.21943268 0.1280547 0.0966321 -0.045257192 0.056192655
-0.018194156 0.021676805 0.17063959 0.023643771 -0.14949493 -0.032725886 0.057863276 0.012697465
-0.023235288 -0.08922838 -0.058176626 0.09618597 -0.25522843 0.037601423 -0.17974582 0.28669775
-0.052833572 -0.092456795 0.013315071 0.022519702 -0.14886469 -0.37612993 0.15651959 0.15052333
-0.14778845 -0.016235296 0.04938733 -0.013918138 0.18759133 0.03372567 0.14654599 0.11739586
-0.16541097 -0.050701413 0.056477387 0.08620491 -0.001973974 -0.12586257 0.019898077 0.07486259
0.027885806 -0.05848057 0.14847201 -0.098258175 0.34303185 0.1874843 -0.2909421 0.029317787
-0.08869088 -0.36060628 0.053539507 0.035205457 -0.009957412 0.027678246 -0.13553803 -0.16600932
-0.15737495 -0.22066307 -0.1799885 -0.06043835 0.08309913 -0.24129176 0.33503503 0.3862076
0.21869242 0.15368101 -0.19764066 -0.15707164 -0.2650299 0.19873948 -0.0820807 0.25299594
-0.07936095 0.068465896 -0.005529755 -0.023228746 0.053096008 -0.18000937 0.062180303 0.13072033
0.17191973 -0.10112451 0.023366213 0.17267598 0.17794791 0.20674422 0.1330665 -0.14535125
0.05619946 -0.28320855 0.29772326 0.09023147 0.20242563 -0.46755955 0.25355932 -0.021760523
0.037268158 0.040592626 0.03176063 -0.1991781 -0.027041811 0.047598254 0.007236528 -0.16049555
0.068671994 0.025406092 0.20481832 -0.10192493 -0.11286354 0.031517614 0.14173111 -0.026189234
0.11627053 -0.0025977786 0.008084682 -0.070010014 -0.23506668 0.024523051 -0.048339594 0.08604747
0.20188558 0.015144391 0.07105044 0.09223434 0.27235335 0.17896786 -0.13389304 0.1265192
00000000: 1ca0 afbd 4ad2 803d 0349 46bc 5270 04be
00000010: 4cfb 403e 0a11 ae3c db97 b63d 0822 383e
00000020: 6517 813d 4d36 06be 3a1a b2bd 94a2 42bc
00000030: 878e a93d da12 edbb 9b43 593d 82c2 e4bb
00000040: 1c75 05be 740c 173d 5832 503e f4b1 0fbd
00000050: d629 92bd 0960 02bc af0d db3c 8ad0 d2bc
00000060: e14f ddbc d8b8 73bd e071 32be 3f2d 65bd
00000070: 1ae1 263c 801a 033f 303f 2dbe c3b6 6f3c
00000080: 32db f03d 5431 a5bd c547 92bd e8c0 513c
00000090: c568 e63d ce94 1abe ceb0 9dbe 3851 bdba
000000a0: 5274 5d3e 00b3 e53d ce4a 08bd cff1 34be
000000b0: bcc2 3ebd b3f3 38bd 5f90 20be fa22 3abe
000000c0: cb5d 83bd 09f4 c9bd 7e11 3cbc 2193 d43d
000000d0: 647c 6bba 3f75 8fbc 7d8a b1bd 7314 be3e
000000e0: 5bca 73bd 2457 6f3e 91f6 923d 0f9e b5bc
000000f0: 14b6 6d3e f2f1 fc3d 672b 19bd dd30 ff3d
00000100: c01d 35be 0398 84be 7f4e 303e c1df 473e
00000110: 01f7 89be 8f88 c23b 6cce 78bd d64e 51be
00000120: 12df 143e ecae 0bbe ed1e 6f3d 9797 983d
00000130: 8a86 42bd adbe 3bbe 3202 d53d a898 29be
00000140: 57b3 0ebb 8efe 40bd 1e58 fc3c bf16 b53d
00000150: a998 023d 1eb0 4fbe 4ec6 64be 9055 2d3e
00000160: da09 b73d b73f 303e 365f 7b3c 352e 8fbe
00000170: 7252 1bbe 2bb6 5fbe afac cdbd a364 48be
00000180: 8583 35bd 0596 483e 2814 f9bd e4f1 e63d
00000190: 36b9 3fbe 8ced aabe 8c37 d13d 0f24 083e
000001a0: 92f3 4cbd 792d 843d e259 c73c 0538 223e
000001b0: b301 1bbe 6986 c43c f29b a23e 1b44 133d
000001c0: 4454 863e 23e6 363d 7d4f cb3d de89 1a3d
000001d0: 0741 5dbe cffa dbbd db34 a1be 9d4b 783e
000001e0: 1e93 1c3e b195 373e 740c 073e f6b2 60be
000001f0: c520 033e 0de7 c53d 9b5f 39bd 452a 663d
00000200: e90b 95bc 8e93 b13c 25bc 2e3e 95b0 c13c
00000210: 3315 19be 940b 06bd 0b02 6d3d 0709 503c
00000220: ee57 bebc 5ebd b6bd 9d4a 6ebd 26fd c43d
00000230: 4dad 82be f303 1a3d 4a0f 38be 0cca 923e
00000240: 0468 58bd fd59 bdbd 7527 5a3c 3d7b b83c
00000250: fc6f 18be 1a94 c0be ac46 203e ca22 1a3e
00000260: db55 17be e2ff 84bc 5e4a 4a3d e708 64bc
00000270: f117 403e ee23 0a3d 2710 163e 3e6d f03d
00000280: 7e61 29be 49ac 4fbd d554 673d 338c b03d
00000290: ca5d 01bb 1ee2 00be 4b01 a33c 8f51 993d
000002a0: c670 e43c 5289 6fbd 0c09 183e 953b c9bd
000002b0: dfa1 af3e e2fb 3f3e 5df6 94be db2b f03c
000002c0: 90a3 b5bd 63a1 b8be 3e4c 5b3d 9933 103d
000002d0: 6a24 23bc 7dbd e23c 7bca 0abe 59fe 29be
000002e0: e626 21be 80f5 61be e84e 38be 348e 77bd
000002f0: e02f aa3d 3015 77be b689 ab3e 01bd c53e
00000300: e8f0 5f3e 8e5e 1d3e 5062 4abe 63d7 20be
00000310: 00b2 87be 5d82 4b3e ed19 a8bd af88 813e
00000320: fe87 a2bd d937 8c3d f232 b5bb 364a bebc
00000330: 337b 593d 6054 38be c6b0 7e3d 8ddb 053e
00000340: ba0b 303e 5e1a cfbd 806a bf3c f9d1 303e
00000350: fa37 363e c2b4 533e 9642 083e f5d6 14be
00000360: 6831 663d b600 91be 2f6f 983e 47cb b83d
00000370: aa48 4f3e f763 efbe 87d2 813e 2043 b2bc
00000380: 7fa6 183d 7444 263d 6f17 023d 58f5 4bbe
00000390: ca86 ddbc 63f6 423d 6620 ed3b f258 24be
000003a0: e7a3 8c3d 7020 d03c e5bb 513e 05be d0bd
000003b0: 0025 e7bd 9d18 013d f621 113e ce8a d6bc
000003c0: 3e1f ee3d 7e3f 2abb 9d75 043c 6961 8fbd
000003d0: 52b5 70be 91e4 c83c bdff 45bd a839 b03d
000003e0: 18bb 4e3e 2e20 783c e582 913d 5ce5 bc3d
000003f0: e671 8b3e 5a43 373e 421b 09be 408e 013e

l1.bias f4 [256]
-0.45237023 -0.19067383 -0.18566585 -0.030096158 -0.3477254 0.013036417 -0.20230389 -0.3559715
-0.4855818 -0.2852007 -0.25430423 -0.24150832 -0.41257876 -0.24482408 -0.17109126 -0.31242353
-0.3234654 -0.47883683 -0.05561214 -0.44512376 0.11073297 -0.37226915 -0.42371842 -0.06530697
-0.39503536 -0.49515358 -0.16977994 -0.44442838 0.032423306 -0.12753016 -0.39046764 -0.42870155
-0.12319249 -0.3691224 -0.031095456 -0.13571635 0.041466974 -0.076541916 0.2486544 -0.45362765
0.13547651 -0.07024451 -0.28987703 -0.32070678 -0.25288838 -0.13898496 -0.27746817 -0.35588515
-0.11987087 -0.103598006 -0.4845898 -0.14927946 0.17020985 -0.39639142 -0.19298373 -0.22597444
-0.29317012 -0.12991188 -0.38599074 0.02315351 -0.15913203 -0.10283316 0.011784896 0.2550452
-0.25088832 -0.31840858 -0.30599865 -0.32737944 -0.24465849 -0.11450054 -0.49658498 -0.44684607
-0.36264718 -0.4519947 -0.010041154 -0.44998544 0.17839962 -0.390617 -0.18726031 -0.5055823
0.12645608 -0.04794245 -0.4127397 -0.28843415 -0.36970943 -0.003633928 -0.2992413 0.052915648
-0.46973372 -0.27641425 -0.33049643 -0.3384587 -0.26826563 -0.22694679 -0.15393063 -0.32340372
-0.39179018 -0.3123115 -0.15327194 -0.03372658 -0.47112533 -0.1220435 -0.314793 -0.27939683
-0.23416759 -0.03270443 -0.025272615 -0.057302523 -0.5715832 -0.41677827 -0.2584443 -0.25609225
-0.053171538 -0.29185483 0.1710674 -0.23842554 -0.29909778 -0.50903493 -0.17092656 -0.4952611
-0.005349966 -0.03639693 -0.38349283 -0.12851502 -0.20781627 -0.17712797 0.15267324 0.22694236
-0.41347623 0.34756395 -0.3644297 -0.30206296 -0.14887783 -0.17232655 -0.118457556 0.15631837
-0.41967022 -0.21871197 0.1393626 -0.35033274 -0.19372532 -0.2606074 -0.5287411 -0.27850914
-0.29370743 -0.27006403 0.065020755 -0.33672905 -0.13065681 0.13120227 -0.2743323 -0.055889506
-0.2964388 -0.41976717 0.016485494 -0.3781018 -0.23485549 -0.48084313 -0.1262929 -0.13115127
-0.2743096 -0.26192454 -0.23562056 -0.3981734 0.048995316 0.02071891 -0.4920225 -0.24245706
-0.5216148 -0.04989795 -0.5567121 -0.38950026 0.09533604 -0.20882922 -0.48557737 -0.06229545
-0.1121913 -0.39283898 -0.28165016 -0.24599344 -0.372663 0.013569274 0.012894172 -0.1502058
-0.15922667 -0.2359904 -0.25951734 -0.2542101 -0.43495575 -0.6301676 -0.16890635 -0.34805527
-0.12959547 -0.13365409 0.008124669 -0.44182375 -0.33658874 -0.16225019 -0.24248002 -0.19315165
-0.37987652 -0.47912332 -0.22411889 -0.44004396 -0.018175056 -0.5622988 -0.19638705 -0.38320196
-0.25025347 -0.42133406 -0.43671477 0.09045122 -0.52268934 -0.07133506 -0.47235158 -0.19565526
-0.2061149 -0.069799505 -0.037553098 -0.32071137 0.05946571 0.11311454 -0.24138753 -0.23122568
0.18252999 -0.3698638 -0.2505302 -0.26683056 -0.40040582 -0.056206133 -0.21215044 -0.16410077
-0.31967655 -0.32530555 -0.05619437 0.14147587 -0.20963271 0.22521497 -0.06627311 -0.18634754
-0.18211737 -0.15231442 -0.22632277 0.10822442 -0.09761207 -0.50554293 -0.32711482 -0.24168329
-0.19388643 0.13510272 -0.11053573 -0.027921926 -0.34484628 -0.53481615 -0.18140125 -0.16030811
00000000: 129d e7be 0040 43be 301f 3ebe 388c f6bc
00000010: 1009 b2be b296 553c c028 4fbe e541 b6be
00000020: 2d9e f8be d305 92be 2a34 82be f54d 77be
00000030: 863d d3be 2ab3 7abe 8c32 2fbe faf5 9fbe
00000040: 429d a5be 1a2a f5be 8ec9 63bd 43e7 e3be
00000050: f8c7 e23d 109a bebe 9ff1 d8be a9bf 85bd
00000060: 1342 cabe c584 fdbe cbda 2dbe 1e8c e3be
00000070: 4dce 043d 4497 02be 60eb c7be c57e dbbe
00000080: 584c fcbd 9cfd bcbe e6bb febc 3af9 0abe
00000090: 46d9 293d 02c2 9cbd 429f 7e3e e241 e8be
000000a0: 5bba 0a3e 5bdc 8fbd c36a 94be ae33 a4be
000000b0: 967a 81be 1352 0ebe 4f10 8ebe 9436 b6be
000000c0: dc7e f5bd 312b d4bd 271c f8be b7dc 18be
000000d0: 7e4b 2e3e d1f3 cabe 879d 45be d865 67be
000000e0: 651a 96be 9f07 05be 94a0 c5be 6eac bd3c
000000f0: 82f3 22be 319a d2bd 7015 413c 4995 823e
00000100: 6f74 80be 7306 a3be dbab 9cbe 479e a7be
00000110: c187 7abe 427f eabd 6340 febe 02c9 e4be
00000120: e4ac b9be d96b e7be a783 24bc 7e64 e6be
00000130: 64ae 363e f4fe c7be 2bc1 3fbe d76d 01bf
00000140: b47d 013e 4d5f 44bd 9e52 d3be a4ad 93be
00000150: 8e4a bdbe 3227 6ebb 2836 99be 14be 583d
00000160: f080 f0be 2b86 8dbe d436 a9be 754a adbe
00000170: 1d5a 89be bd64 68be fe9f 1dbe 2c95 a5be
00000180: b998 c8be 4be7 9fbe 52f3 1cbe e224 0abd
00000190: 5737 f1be f1f1 f9bd 8c2c a1be 1a0d 8fbe
000001a0: a1c9 6fbe 15f5 05bd 8408 cfbc 0db6 6abd
000001b0: 4753 12bf f663 d5be d052 84be 861e 83be
000001c0: 66ca 59bd ff6d 95be 4b2c 2f3e d325 74be
000001d0: 5823 99be 1d50 02bf 5f07 2fbe dd92 fdbe
000001e0: c54e afbb f314 15bd 2c59 c4be 7199 03be
000001f0: cacd 54be 0961 35be 6056 1c3e 9463 683e
00000200: 28b3 d3be e7f3 b13e 8896 babe ffa7 9abe
00000210: 6e73 18be 5f76 30be e099 f2bd ec11 203e
00000220: 04df d6be 08f6 5fbe 12b5 0e3e d05e b3be
00000230: ee5f 46be 556e 85be 945b 07bf c098 8ebe
00000240: d260 96be d545 8abe 9a29 853d c067 acbe
00000250: e6ca 05be e359 063e 4975 8cbe 65ec 64bd
00000260: d4c6 97be b9eb d6be 960c 873c 8f96 c1be
00000270: f57d 70be 1231 f6be ed52 01be 854c 06be
00000280: 4f72 8cbe f91a 86be 8446 71be 62dd cbbe
00000290: 50af 483d b4ba a93c 60ea fbbe aa46 78be
000002a0: 8c88 05bf cb61 4cbd af84 0ebf 946c c7be
000002b0: 8b3f c33d 54d7 55be 999d f8be 8429 7fbd
000002c0: 8dc4 e5bd 3122 c9be 7334 90be b4e5 7bbe
000002d0: afcd bebe a951 5e3c 1442 533c 8dcf 19be
000002e0: 510c 23be 78a7 71be 75df 84be d427 82be
000002f0: 85b2 debe aa52 21bf c9f5 2cbe 4d34 b2be
00000300: adb4 04be 9edc 08be 551d 053c b936 e2be
00000310: 5c55 acbe ea24 26be af4c 78be 8cc9 45be
00000320: 2d7f c2be a74f f5be 6c7f 65be 714d e1be
00000330: dbe3 94bc d0f2 0fbf b019 49be 0c33 c4be
00000340: 3921 80be 19b9 d7be 1499 dfbe 7d3e b93d
00000350: f8ce 05bf 1e18 92bd 11d8 f1be da59 48be
00000360: c90f 53be 0bf3 8ebd 47d1 19bd 4834 a4be
00000370: 5192 733d 99a8 e73d 4b2e 77be 6dc6 6cbe
00000380: 24e9 3a3e ca5e bdbe 7f45 80be 049e 88be
00000390: fe01 cdbe 6738 66bd f73d 59be 080a 28be
000003a0: a5ac a3be 738e a6be 112c 66bd 0ddf 103e
000003b0: f5a9 56be c19e 663e 32ba 87bd e4d1 3ebe
000003c0: fa7c 3abe 50f8 1bbe 28c1 67be c4a4 dd3d
000003d0: d6e8 c7bd 436b 01bf 987b a7be d37b 77be
000003e0: 2a8a 46be 5e58 0a3e 8f60 e2bd 86bc e4bc
000003f0: b18f b0be b6e9 08bf 40c1 39be cf27 24be

l2.weight f4 [256, 256]
-0.345768 0.06642985 0.086356215 -0.091239184 0.24286701 0.0958971 -0.19322701 0.1282162
-0.4208561 0.014100836 0.025992194 0.11148502 -0.0017755838 0.27809906 0.13963549 0.038823556
-0.024367113 -0.13926224 -0.28581023 -0.07796493 -0.0055410103 0.22263858 0.022218904 -0.07707727
-0.13645707 0.1159377 0.051741987 -0.19930844 -0.07769615 0.12099708 0.0029722098 -0.359653
-0.045294095 -0.064470425 0.059624806 -0.20036028 0.040710233 0.082369775 -0.04356114 0.13838601
-0.1724962 -0.05620398 -0.2393619 -0.07872346 -0.16920705 -0.08443526 -0.19261368 -0.00023703802
0.19816938 -0.047784198 -0.05250032 0.06434612 0.14509273 0.11931603 0.15581311 0.028931424
-0.06387202 -0.16691574 0.0123610245 -0.13709411 0.08710355 -0.020769337 0.0212377 -0.15576793
-0.16295388 0.0861534 -0.1760451 -0.16576706 0.05742839 0.12986663 0.15983376 -0.17878123
-0.3467911 -0.05198591 0.123140745 0.0016149166 0.04685702 -0.26447853 -0.07023698 0.16495502
0.083507806 -0.15018266 -0.029212898 0.11874511 0.10157456 -0.0030142607 -0.079975896 -0.014971262
-0.024249308 0.32928273 0.065082364 -0.050804235 -0.05063248 0.22713557 -0.37209356 -0.08088671
0.115824424 -0.12853292 -0.015567675 -0.0016279672 0.26637807 0.099431396 -0.13316116 0.08002769
-0.14155757 0.08774697 -0.052281115 0.121125914 -0.003573 0.016307859 -0.0912745 0.10248889
-0.22846209 0.052827932 -0.030475505 0.14735772 0.10642488 -0.15065807 -0.15581095 -0.14859499
0.095781244 -0.057507373 0.24009946 -0.05268271 0.09982843 0.18449205 -0.1434922 0.025531404
0.17245114 -0.31563893 0.011121399 -0.38236842 -0.0748786 0.06809452 -0.056930833 -0.15179507
0.04246957 -0.3010275 0.15127863 0.15041874 0.08940793 -0.1551974 -0.01062063 -0.17501226
0.09525054 -0.035698228 -0.11027272 0.05031744 0.03339731 -0.45877194 0.00242647 0.06322619
-0.29287115 -0.13790227 -0.08198388 0.100330174 -0.25726098 -0.37563106 0.03499746 0.14086564
-0.19514164 -0.21191184 -0.092261575 -0.009341868 0.0476108 0.12388601 -0.3098538 -0.013005486
-0.53404754 -0.060287647 -0.08880743 0.06444942 0.16790654 -0.20664336 -0.46507984 -0.079906225
-0.00355847 -0.060709517 0.04499647 -0.079919435 0.11728434 -0.053802766 -0.0040506027 -0.06555131
-0.020350264 -0.070510805 -0.12668306 -0.14974794 -0.2139663 -0.31516284 -0.41626084 0.098721884
-0.085554965 -0.21254073 0.0017577368 -0.10839981 -0.038543332 -0.118923284 -0.21966483 0.09640913
-0.040299118 -0.2016679 -0.4143598 0.18697582 0.08349251 0.09572241 -0.007056078 -0.045197353
0.07704719 -0.11246314 -0.005833212 -0.05933653 0.05680525 -0.041489623 -0.22936767 -0.036465682
0.0788574 -0.11041049 0.0082138665 0.100601576 -0.254985 -0.051528636 -0.09840657 0.19049339
-0.055774715 0.018906364 -0.14570346 0.076906495 0.16197063 -0.2728499 -0.016760398 0.09380819
-0.03520769 0.026024139 0.097848214 -0.24534506 0.047071014 0.04779221 -0.15270677 0.018370075
0.16056554 -0.16619863 -0.06095001 -0.10315239 0.028044743 0.15716818 -0.17641255 0.10134688
0.06262279 0.033985358 -0.076599844 0.11434504 -0.06615338 -0.06313977 0.15502447 -0.12025804
00000000: 8108 b1be 600c 883d 87db b03d 9cdb babd
00000010: 21b2 783e b365 c43d 4ddd 45be 1c4b 033e
00000020: 737a d7be 3107 673c 95ed d43c 4252 e43d
00000030: b5ba e8ba 0063 8e3e 9bfc 0e3e 7305 1f3d
00000040: 8a9d c7bc c39a 0ebe b855 92be 14ac 9fbd
00000050: 5d91 b5bb 5efb 633e 6b04 b63c b0da 9dbd
00000060: 67bb 0bbe bf70 ed3d 68ef 533d 8317 4cbe
00000070: 291f 9fbd 51cd f73d 68c9 423b 7024 b8be
00000080: 4d86 39bd 1209 84bd 2439 743d 3f2b 4dbe
00000090: c6bf 263d 7cb1 a83d 2a6d 32bd 10b5 0d3e
000000a0: d8a2 30be 2536 66bd 491b 75be c439 a1bd
000000b0: 9d44 2dbe 65ec acbd 853c 45be 698d 78b9
000000c0: eaec 4a3e 5db9 43bd 930a 57bd e6c7 833d
000000d0: 3093 143e f65b f43d 798d 1f3e 9801 ed3c
000000e0: 55cf 82bd f6eb 2abe e585 4a3c 6662 0cbe
000000f0: 5963 b23d 7524 aabc affa ad3c a181 1fbe
00000100: 62dd 26be 3271 b03d 2b45 34be d7be 29be
00000110: 083a 6b3d c2fb 043e 76ab 233e 6d12 37be
00000120: 9a8e b1be 2def 54bd 3731 fc3d 9cab d33a
00000130: 26ed 3f3d bb69 87be 68d8 8fbd f8e9 283e
00000140: 2406 ab3d 7cc9 19be e34f efbc a330 f33d
00000150: 5306 d03d e78a 45bb 67ca a3bd 064a 75bc
00000160: 7ca6 c6bc bf97 a83e e749 853d 1a18 50bd
00000170: 0164 4fbd 3a96 683e 0c83 bebe eea7 a5bd
00000180: 5b35 ed3d 229e 03be 900f 7fbc 8461 d5ba
00000190: b562 883e b0a2 cb3d 665b 08be 8fe5 a33d
000001a0: 78f4 10be afb4 b33d b924 56bd dd10 f83d
000001b0: fe28 6abb 0f98 853c 20ee babd b2e5 d13d
000001c0: f7f1 69be 1a62 583d c4a7 f9bc f1e4 163e
000001d0: 4af5 d93d 1c46 1abe e88c 1fbe 4929 18be
000001e0: f528 c43d da8c 6bbd a2dc 753e d3c9 57bd
000001f0: d972 cc3d 7ceb 3c3e 9fef 12be 3c27 d13c
00000200: 0897 303e 6d9b a1be 8736 363c cbc5 c3be
00000210: f459 99bd 2475 8b3d 4e30 69bd 2b70 1bbe
00000220: 92f4 2d3d 4720 9abe c9e8 1a3e 5f07 1a3e
00000230: 811b b73d 11ec 1ebe 2702 2ebc 6a36 33be
00000240: b712 c33d 4e38 12bd aad6 e1bd a919 4e3d
00000250: 9ecb 083d 28e4 eabe 6905 1f3b bc7c 813d
00000260: 35f3 95be 4136 0dbe 2ae7 a7bd e879 cd3d
00000270: b6b7 83be b752 c0be 7f59 0f3d 153f 103e
00000280: 36d3 47be 6bff 58be a3f3 bcbd a20e 19bc
00000290: 8b03 433d f3b7 fd3d 28a5 9ebe f614 55bc
000002a0: 57b7 08bf 2ef0 76bd abe0 b5bd 0ffe 833d
000002b0: b1ef 2b3e 519a 53be f21e eebe e0a5 a3bd
000002c0: 3835 69bb 8baa 78bd 384e 383d cdac a3bd
000002d0: c632 f03d 4a60 5cbd ebba 84bb c43f 86bd
000002e0: 99b5 a6bc f867 90bd 34b9 01be 8657 19be
000002f0: fb19 5bbe 065d a1be 2420 d5be b32e ca3d
00000300: 7137 afbd 47a4 59be dc63 e63a b800 debd
00000310: 9ddf 1dbd 0d8e f3bd d1ef 60be 2672 c53d
00000320: b010 25bd 0882 4ebe f826 d4be 9776 3f3e
00000330: 1ffe aa3d 1c0a c43d ac36 e7bb dc20 39bd
00000340: ebca 9d3d 1353 e6bd 8724 bfbb dc0a 73bd
00000350: 9fac 683d 06f1 29bd 5cdf 6abe 0a5d 15bd
00000360: fd7f a13d e51e e2bd 7493 063c 3308 ce3d
00000370: 658d 82be b10f 53bd 6289 c9bd b310 433e
00000380: 0774 64bd 85e1 9a3c 4a33 15be 2781 9d3d
00000390: a1db 253e fbb2 8bbe 1a4d 89bc 821e c03d
000003a0: f035 10bd 9330 d53c a564 c83d bc3b 7bbe
000003b0: 89cd 403d c4c1 433d 2a5f 1cbe d77c 963c
000003c0: 4b6b 243e f92f 2abe b8a6 79bd 8f41 d3bd
000003d0: 17be e53c b2f0 203e 7ea5 34be f48e cf3d
000003e0: 6140 803d 3b34 0b3d 61e0 9cbd bb2d ea3d
000003f0: 6c7b 87bd 6c4f 81bd bcbe 1e3e d949 f6bd
