Project/Ming_Jiang_1016239_Gengcong_Yan_1009903_Project/Part1/trained agents/td3/HalfCheetahBulletEnv-v0_TD3_1_1637010627_td3.pth (torch, 898095 bytes, 16 tensors)

l1.weight f4 [256, 32]
000000 2b 74 ba bd 5f a8 50 3d 6e 86 a9 be 73 1e 08 bf
       -0.091041885 0.05094182 -0.33110374 -0.5317146
000010 f6 2d 1d 3e 2e ff 65 be 48 21 fe be 20 3e 88 3f
       0.15349564 -0.22460625 -0.49634767 1.0643959
000020 aa fa 88 3e 5b 7d 3f bf 30 38 32 3f a3 7d 18 3e
       0.26753742 -0.7480065 0.69616985 0.14891677
000030 20 6a 59 3d b5 b9 b8 bd dc ce 1f bd 61 ad 95 3e
       0.053079724 -0.09019796 -0.039015636 0.2923384
000040 b4 ca 8c be 6f 81 97 be 9b a4 59 3e 2e 5c 4a be
       -0.274984 -0.29590937 0.21254198 -0.19761726
000050 d3 48 87 3d 8c 4d 35 bd 2b f2 8c be c7 50 74 3e
       0.06605687 -0.044263408 -0.2752851 0.23858939
000060 66 99 41 3e 97 db eb be f3 41 6e be ee e9 f1 3c
       0.18906173 -0.4606597 -0.23267345 0.029530492
000070 44 60 bd 3b 87 bc dc 3b 64 ff 12 be f8 7f ed bd
       0.005779298 0.0067363414 -0.14355236 -0.11596674
000080 76 02 3b 3f 8d 5c 85 3d 3a 1a 82 3e cd c1 39 bd
       0.7305063 0.06511793 0.25410634 -0.04535084
000090 22 4d 93 bd 12 fe 04 bf 4c ba d9 bd 74 54 91 bf
       -0.07192446 -0.5195018 -0.106312364 -1.1353898
0000a0 e7 4c 42 3f 28 f9 33 bd 98 ef 12 3e 5b b5 b5 bd
       0.75898594 -0.043938786 0.1434921 -0.088724814
0000b0 e3 e3 96 3e f1 4b ac 3d 0c e6 f9 be 8f 81 9c bd
       0.2947074 0.08412922 -0.48808324 -0.07641899
0000c0 06 ab e7 be f3 a3 06 3e 04 fe 47 3e 6b 12 5a 3e
       -0.45247668 0.13148479 0.19530493 0.21296088
0000d0 d8 e3 05 3e 18 81 eb 3d b3 57 9f bf f7 11 23 3e
       0.13075197 0.11499232 -1.2448639 0.15924822
0000e0 fb 8e c4 be c7 bd 93 be 29 47 2b 3d 7a 54 c9 bd
       -0.38390335 -0.28855726 0.04181591 -0.09830566
0000f0 25 b4 46 3e 96 23 9c bd 61 98 02 bd 41 48 69 3d
       0.19404657 -0.07623975 -0.0318836 0.056953672
000100 f5 5b 38 be 2a ca 20 be 45 ef 8c be d5 6b 1f bf
       -0.18003829 -0.1570212 -0.27526298 -0.62273914
000110 9b a6 ac bd df 11 c2 3f f2 e5 c5 3d 15 07 71 3c
       -0.08430215 1.5161704 0.09662999 0.014711161
000120 d2 de 07 3d d3 6c 08 3f 38 02 74 bd 29 43 00 3f
       0.033171482 0.5329105 -0.05957243 0.5010248
000130 f7 e7 a5 3e cd d1 9c 3e 99 25 b8 3d b9 82 65 3e
       0.32403538 0.30628815 0.08991546 0.22413148
000140 20 d0 31 3f bc 48 99 3e 5f 66 4e 3e f2 29 a5 3e
       0.694582 0.29938304 0.20156239 0.32258564
000150 aa 65 0c 3e 62 0a 6c be 1c 14 fe be b3 b4 b7 3d
       0.13710657 -0.23050836 -0.49624717 0.089700125
000160 68 a8 e1 3d 23 e4 90 be 17 ef 66 bd 45 f0 3e 3d
       0.11018449 -0.28299055 -0.056380358 0.046615858
000170 58 49 1a 3e d0 bd 8c 3a 9f 34 e4 bc be 46 76 3d
       0.15067041 0.0010737721 -0.027857123 0.06012606
000180 12 19 86 bc d4 99 9a bd 68 4e 03 be bd 57 d4 bd
       -0.016369376 -0.07548872 -0.12822878 -0.10368297
000190 f5 bd 32 be d4 a8 9f 3e 3f 9b 98 be 7b 7d 43 bf
       -0.17455275 0.31183493 -0.29805943 -0.76363343
0001a0 13 a1 e8 3d 59 6b 96 bd 53 a7 9e 3e 24 b5 b1 be
       0.113588475 -0.07344694 0.30987033 -0.34708512
0001b0 ee a4 bf 3e 1e d1 55 bd 9c 0a ec 3d c8 1a 94 3e
       0.3743052 -0.052201383 0.11525461 0.28926682
0001c0 ca d9 9b bd 7b 84 a7 bd e6 c5 b4 3e f3 b8 23 3e
       -0.07609899 -0.081795655 0.35307235 0.15988521
0001d0 4c b0 aa 3d 5f 18 61 3e 67 42 30 bf 4a 00 2d 3e
       0.08334407 0.21981953 -0.6885132 0.16894642
0001e0 ce 5e 85 be 55 25 6d 3d c8 1e d5 3d a9 76 92 3b
       -0.26048893 0.05789693 0.10406262 0.004469712
0001f0 a5 96 5f bd 71 60 2c 3e dc 55 05 be 84 20 0a be
       -0.054587025 0.16833664 -0.13021034 -0.13488966
000200 36 23 f5 be 20 a7 20 be b0 d7 a0 3c 06 84 a1 be
       -0.47878426 -0.15688753 0.019634098 -0.31546038
000210 81 0e a9 3d fb 79 05 be ae ef 68 be 14 36 61 bf
       0.082547195 -0.13034813 -0.2274768 -0.8797314
000220 ab 97 dd 3e 04 1c d9 3e 3d 57 1d 3e 27 f9 47 3e
       0.43279776 0.42404187 0.1536531 0.19528638
000230 05 7f 82 3d 6d 37 f8 bc 8c 3e 88 3d 04 01 07 3e
       0.06371883 -0.030299867 0.06652555 0.13183981
000240 56 4a c7 bf 84 1b 1b be ac cc 9c 3d 07 1f fe 3b
       -1.556956 -0.15147215 0.076562256 0.0077551636
000250 5a 0d c0 bb d6 d4 d4 bc ce 0f fd ba 89 36 ec 3d
       -0.0058609666 -0.025980394 -0.0019307078 0.11533839
000260 ec af 0f 3e 8a c7 52 be 0b 62 84 bd 6d 31 20 3d
       0.14031953 -0.2058393 -0.06464013 0.039109636
000270 af f7 ef bd 3b 65 91 bd 1b d3 9f bd 50 fc 73 3d
       -0.11717164 -0.07099386 -0.07803937 0.059566796
000280 36 ef 5b be 32 f3 16 3e fb 0d 71 be e6 bc 85 be
       -0.2147797 0.14741209 -0.2354049 -0.2612068
000290 05 bb fe bc 8b a3 53 3f ca 33 de 3e a4 07 1f bf
       -0.031095037 0.8267142 0.43398887 -0.62121034
0002a0 50 3b a6 3d 78 63 3d bf 19 74 04 bf 6c d5 de bd
       0.08116782 -0.739799 -0.5173965 -0.10880551
0002b0 61 81 04 3f f5 97 2f 3d c4 4a 11 3f e5 6e 28 bf
       0.51759917 0.042869527 0.5675471 -0.6579421
0002c0 aa c3 08 bd c6 b9 c4 be 4c f0 e3 be 3d 5c e9 bd
       -0.033389725 -0.38422984 -0.4451927 -0.11394546
0002d0 ca 73 75 be 6f a3 3e be 6f a8 86 bd a4 57 ae bd
       -0.23969951 -0.18617032 -0.06575095 -0.0851281
0002e0 49 e3 dc 3e 0d d2 08 be 96 71 f9 bd 29 ce 1d bc
       0.43142155 -0.13361378 -0.12179868 -0.009631672
0002f0 94 7b dd 3d d9 56 c1 bb 99 b2 0a be d0 80 91 bc
       0.10814586 -0.0059002456 -0.13544692 -0.017761618
000300 2b c4 1b 3f d4 2a a3 3d a3 47 5e be 1e 09 7f bf
       0.60846204 0.07967153 -0.21707015 -0.99623287
000310 b0 1d 89 3d 27 c8 45 3f 92 7c 83 3e 61 51 24 bf
       0.066951156 0.77258533 0.25680977 -0.64186674
000320 1c 8d 73 bc 80 28 12 3f 68 e9 43 bf 0e 03 bc 3e
       -0.014865186 0.5709305 -0.76528025 0.3672108
000330 ac c7 8a bc 49 12 a5 3c e2 53 98 3e 38 f0 07 bf
       -0.016940914 0.02015032 0.29751498 -0.5310092
000340 37 de 36 bf 42 8c 33 be d3 4e 7b bd b5 f2 3c bc
       -0.7143282 -0.17533973 -0.06135447 -0.011532475
000350 b2 88 f1 3e cc cf 89 3e 35 a9 36 bf 7b 12 9a be
       0.47174603 0.2691635 -0.7135194 -0.30092224
000360 9b f7 86 3e e3 ca 5e be 87 80 5f 3b 66 a3 04 3d
       0.26360783 -0.21757083 0.0034103708 0.03238239
000370 c6 e0 6b bc d2 c7 84 bc 3b 27 a3 3d 11 25 83 3d
       -0.014396852 -0.016208563 0.07966467 0.06403554
000380 a2 91 a5 3e de ef 67 bd 62 05 90 3e d7 e4 10 3e
       0.32337672 -0.05662524 0.28129107 0.14149795
000390 a6 97 2f be 1f 26 e8 3d 15 94 9a be 0a 3d 05 3e
       -0.17147693 0.11335396 -0.30191103 0.13011566
0003a0 4f 96 3f be cc eb 98 be 49 d6 b1 3e ad b9 26 3e
       -0.18709682 -0.298674 0.347338 0.16281767
0003b0 6a 93 00 3e eb 62 a3 3d 47 cd 82 bd 5c 6f 0f be
       0.12556234 0.079778515 -0.0638681 -0.14007324
0003c0 67 bc 34 3d 29 ea e1 3d bb 60 c1 3d 42 01 70 3e
       0.044124987 0.11030991 0.09442278 0.2343798
0003d0 b8 30 02 3e bc 32 09 3e 55 d5 84 be 38 6c c2 be
       0.12713897 0.1339826 -0.2594401 -0.3797319
0003e0 3e 8a ae bd 8a 2e 40 be 0f 8f e5 bc 48 36 c7 3d
       -0.08522461 -0.18767753 -0.028022317 0.0972715
0003f0 82 f4 92 3d a8 68 54 bd 3a c3 3a 3d 56 af 5b 3d
       0.071755424 -0.05185762 0.04559634 0.05363401

l1.bias f4 [256]
000000 41 cf 05 be dd e7 96 3e 68 26 4d be 1d 38 64 3a
       -0.13067342 0.29473773 -0.20034182 0.00087058713
000010 a2 6e 9e be a4 cd ab be fc fa 83 be 66 e7 4a 3e
       -0.3094378 -0.3355533 -0.25777423 0.19814834
000020 c1 ce 1f be 2c 40 cf bb a8 25 70 be 7e 6d 9f be
       -0.15606214 -0.0063247886 -0.23451865 -0.31138223
000030 90 ad 4c be 7f 91 79 bd cc 6b 82 3d 6a cf 2a be
       -0.19988084 -0.06092977 0.06368217 -0.16680685
000040 65 36 32 be f8 d9 cd be 57 1a 5a 3e e4 65 bb 3e
       -0.17403562 -0.4020536 0.2129911 0.36601174
000050 b4 ea 12 3e c5 ec f4 3d eb 85 1e be a2 8d 70 bd
       0.14347345 0.11959223 -0.15480773 -0.05872882
000060 d1 90 b1 be b3 01 98 be 75 b7 34 be 18 8c ed 3e
       -0.346808 -0.29688796 -0.17648108 0.46395946
000070 79 b2 ee 3e 85 ad e2 be 25 95 d9 3c 15 4c 29 be
       0.4662054 -0.4427301 0.026560375 -0.16532929
000080 22 db cb 3d a8 34 90 be 6e aa e0 be 20 d5 97 be
       0.09953906 -0.28165174 -0.43880028 -0.2965479
000090 45 60 b8 3e f6 c6 25 3f 7d aa b9 be fd 80 73 3e
       0.36010948 0.64756715 -0.36262885 0.23779674
0000a0 95 5c f6 3e 71 8d 23 be 66 58 0f 3e a4 8a a8 3e
       0.4811751 -0.15971924 0.13998565 0.32918274
0000b0 52 dc 16 3e 4f f9 38 3e 5c 27 a4 be 1e 93 36 be
       0.14732483 0.18063854 -0.3206128 -0.17829558
0000c0 e5 aa ac bd da b1 84 be 94 f1 a2 be b9 7d d2 bc
       -0.08431033 -0.2591694 -0.31824934 -0.025694715
0000d0 da 1b f9 3d f1 b0 ae be 45 73 3c 3e 78 28 03 3f
       0.121635154 -0.3411937 0.18403347 0.51233625
0000e0 76 1a e1 3d 45 28 a9 bd 7d cf b9 be 3f 26 d6 3d
       0.10991375 -0.08259634 -0.36291113 0.104565136
0000f0 49 d5 bd 3e e5 91 92 be 5e 80 bc 3d 84 80 09 3f
       0.37076786 -0.28626934 0.092041716 0.53711724
000100 b2 b2 01 be d3 a1 95 be b6 4a 0a 3c 7f fd e0 be
       -0.12665823 -0.29225025 0.008440664 -0.43943402
000110 9c d8 07 be 05 b7 8d bd b6 c4 92 be f0 0f 6e be
       -0.13266224 -0.06919674 -0.28665704 -0.23248267
000120 8a 9a 8b 3e 55 66 63 3e 31 89 2e be 25 e5 8f 3d
       0.2726634 0.22207005 -0.17044522 0.07026128
000130 0c 63 85 be 34 4c aa 3d 40 be bb be d6 b0 a0 3e
       -0.2605213 0.08315316 -0.36668587 0.31384915
000140 d4 3f 02 3e 84 67 62 be f3 c7 8b be 7a 22 b5 3c
       0.12719661 -0.221098 -0.27300987 0.022111166
000150 b0 7e 58 3e cd 7d 76 be e3 23 a5 bc d8 8e 82 be
       0.21142077 -0.24071427 -0.020158714 -0.25499606
000160 e3 4c 25 3d 05 63 e2 be c4 bc a3 bd 9a ea 78 be
       0.040356528 -0.4421617 -0.079949886 -0.24308243
000170 d9 92 84 be 1c 00 c5 3d c2 86 c8 bd cf 24 88 be
       -0.25893286 0.096191615 -0.09791328 -0.26590583
000180 4b 6f 8b bd 2b 07 e7 3c 60 77 d1 3d 8c e5 fe 3e
       -0.06808337 0.02820166 0.10227847 0.49784505
000190 91 38 6a 3e 1e 5c ce bd 18 63 29 be c7 ab bb bc
       0.22873141 -0.10076164 -0.16541708 -0.022909058
0001a0 07 2d 01 bf 5c fa 34 3d bb 64 b8 be 32 cd 95 3d
       -0.5045933 0.044184074 -0.3601435 0.073145285
0001b0 40 fb c9 3d 35 58 0e bf c9 0d f1 bd bb 96 74 3e
       0.09862375 -0.55603343 -0.117702074 0.23885624
0001c0 e4 93 43 3c 2b d7 d1 bd cd 7d 1a be 5b 32 1a bd
       0.011937115 -0.10246118 -0.15087052 -0.03764568
0001d0 75 b1 96 3e ff ec 0c bf cf 9d 12 bf 2d 2d e0 be
       0.29432264 -0.5504913 -0.57272047 -0.43784466
0001e0 0f e3 d9 bd 47 e6 06 bd 93 66 3d bd e6 4c 87 be
       -0.10639011 -0.032934453 -0.0462404 -0.26425856
0001f0 eb af 6d be 45 17 5c 3d 70 f9 1c 3d 59 a5 8f be
       -0.23211639 0.05373313 0.03832382 -0.28055838
000200 f1 9d ee be 51 55 09 3e d9 c8 bd be 5e 5c ab 3e
       -0.46604875 0.13411452 -0.37067297 0.33468908
000210 20 78 ab be 53 71 b7 be 9c 8a ee be cf 15 11 bd
       -0.33490086 -0.35828647 -0.46590126 -0.03542119
000220 ce 0c 5b 3e 6d d7 af 3e 03 f4 8a be a8 07 8c be
       0.21391603 0.34344044 -0.2713929 -0.2734959
000230 1d 5b ba be cf bf f1 bd 6d b2 34 bd da ec c4 bc
       -0.3639764 -0.11804163 -0.044115473 -0.02403872
000240 cd 7f ec bd 02 8d 61 be e4 04 c2 bd 65 6d 7e 3e
       -0.115478136 -0.22026446 -0.09473589 0.24846418
000250 fa 43 b3 3d af 7b d1 3d 83 70 e7 3d a6 5c 6d 3e
       0.087532 0.10228669 0.11300757 0.23179874
000260 8d bb f6 be 6b 00 cd be df b9 be bc 18 e0 bd 3d
       -0.48189965 -0.4003938 -0.02328199 0.09271258
000270 d4 f5 a1 bd e6 85 d9 be 56 1b 91 3e a8 a0 c4 be
       -0.07908216 -0.4248497 0.28341168 -0.3840382
000280 b8 3d cf bd dd d6 95 be 50 24 ea be 93 23 03 be
       -0.10119194 -0.2926549 -0.4573083 -0.12806539
000290 0d 5f 40 3e 14 3a 87 be f6 68 17 3e 27 eb 29 be
       0.18786259 -0.26411498 0.14786133 -0.1659361
0002a0 3f c2 cd bc ea db d4 3c c7 e5 eb be 47 3c 38 3d
       -0.025117038 0.02598377 -0.46073744 0.04497936
0002b0 ea 6f 91 3e 31 15 ea bc a1 97 fb be fc 38 2c 3e
       0.28405696 -0.028574558 -0.4913912 0.16818613
0002c0 d3 53 b9 be 0c c2 2c be fb 65 ac be 75 6a 0f be
       -0.36196765 -0.16870898 -0.33671555 -0.14005454
0002d0 c4 cd c3 3d 55 0b 31 be 2d 25 2d bf 03 46 90 be
       0.09560731 -0.17289479 -0.6763485 -0.28178415
0002e0 a2 4f ad 3e fa c1 0d 3e 3f 6f 19 bc 2d e8 80 be
       0.33849818 0.13843527 -0.009364902 -0.25177136
0002f0 07 6b 07 bf 23 d8 08 bf c5 39 14 3e 12 5e cb bd
       -0.52897686 -0.534548 0.14475162 -0.09930052
000300 90 e1 c6 bd ff 65 8a be 72 7a 02 be 4c 60 95 3e
       -0.097109914 -0.27030942 -0.12742022 0.2917503
000310 09 85 a5 3d 66 2f 30 be dd 78 92 be e3 0a b8 3e
       0.08082015 -0.17205581 -0.28607836 0.35945806
000320 d2 4f 41 be 38 1b 92 be 2a d4 04 3f 26 04 9f be
       -0.18878105 -0.2853639 0.51886237 -0.31057853
000330 88 a4 9b 3c 01 86 c5 bd db fe ac be a6 21 23 3f
       0.018999353 -0.096447 -0.3378819 0.6372322
000340 88 d6 9b 3e ce 2f 6c 3c b1 15 e4 3e 1e 7b 8f be
       0.30437112 0.014415694 0.445478 -0.28023618
000350 9e 6e ca 3e 19 fe c1 3d 77 04 d9 3e 16 f7 b0 be
       0.3953752 0.094722934 0.4238622 -0.34563512
000360 8c 45 9b 3e c8 16 36 bd af bb ac be e4 a4 1c 3e
       0.30326498 -0.04445532 -0.3373694 0.15297276
000370 b9 48 9a 3e b3 0a fe 3c 57 f1 28 be b3 87 dc 3d
       0.30133608 0.031010961 -0.16498314 0.1076807
000380 00 44 a4 3b 0c ed 05 be 70 7a aa 3e 89 9a 40 be
       0.005012989 -0.13078707 0.33296537 -0.1880895
000390 03 42 40 3e 1e 60 71 3d b7 b7 93 be ff 40 0e bd
       0.18775181 0.058929555 -0.288511 -0.034729954
0003a0 a0 2b a3 be eb fa 04 3f 9f 2a 0e 3d 24 14 d9 bc
       -0.3186922 0.5194537 0.034708615 -0.026498862
0003b0 5c 33 a7 bd f1 aa 08 be 52 45 ab be d6 4b 09 bf
       -0.08164093 -0.13346459 -0.33451325 -0.5363134
0003c0 a7 1e e9 bd 98 2d c7 3e 75 90 85 be ab 0c d7 bd
       -0.113827996 0.38901973 -0.26086774 -0.10500463
0003d0 df a2 88 be f0 dd 95 be 25 c7 71 3e d5 63 8a be
       -0.2668676 -0.29270887 0.23611124 -0.2702929
0003e0 df 92 d4 be 81 c8 d8 be c8 97 82 3d 5d 5f df 3e
       -0.41518304 -0.42340472 0.06376606 0.43627444
0003f0 48 63 dd be 56 38 93 be 8b b3 d2 be 9b a9 55 be
       -0.43239808 -0.28753918 -0.41152605 -0.2086548

l2.weight f4 [256, 256]
000000 02 a5 8c 3e 26 6b 87 3e 24 ad bc bd 95 ee fd 3d
       0.2746964 0.26448935 -0.092127115 0.123990215
000010 fa 84 45 3e b8 43 cf 3e 23 f7 54 3d ef aa e5 bb
       0.19289008 0.40481353 0.0519935 -0.0070089023
000020 fd 1e 98 3d 6b 83 a8 3d 19 fe 9d bf d2 92 83 be
       0.074277855 0.08228191 -1.234317 -0.25697953
000030 f8 b0 f1 3e 66 ad cc 3e 29 2f 01 be 7f 37 30 3f
       0.4720533 0.39976043 -0.12615646 0.6883468
000040 54 1a 43 bf 3e ec 69 3e 16 11 38 be 06 c5 74 3e
       -0.7621205 0.22844025 -0.17975268 0.23903283
000050 a7 b9 a1 be 27 8e 6c be 0f b2 ae 3e b3 9c 00 3d
       -0.31586954 -0.23101102 0.34120223 0.03139944
000060 1d 19 ae bf 41 fe 86 3d 50 7b 6d be 49 ec 8a 3e
       -1.3601414 0.06591464 -0.23191571 0.27133396
000070 8d 52 fd be 3f c2 83 3e 23 7b a0 3c 25 27 20 be
       -0.49477044 0.25734136 0.019589966 -0.15639932
000080 1b e3 da 3c 49 a1 36 be 4d 1f 92 be 8d 9e b0 3e
       0.02671962 -0.17834963 -0.28539506 0.34495965
000090 d9 c9 a4 bd f7 d2 97 be 16 37 21 3f c2 3b 73 be
       -0.08046312 -0.2965314 0.6297468 -0.23753265
0000a0 b9 c4 af be 36 8b 45 be 5b 79 f8 bc cf ad aa 3d
       -0.34329775 -0.19291386 -0.030331304 0.083339326
0000b0 d4 67 39 3c f5 a8 66 be 69 cb 89 3f ae 7e 31 3d
       0.011316258 -0.2252539 1.0765201 0.0433337
0000c0 a7 4f 16 3e 21 aa 2a bf 27 6d 93 3d 1e c0 a2 3e
       0.14678822 -0.66665846 0.071985535 0.317872
0000d0 ab 16 13 bf 25 30 67 bf 54 23 cb bc d8 f8 24 3c
       -0.57456464 -0.9030784 -0.02479712 0.010069095
0000e0 31 89 9f 3e 1b 5f 80 3e 4c f3 f4 be 4f 21 ff be
       0.31159356 0.2507256 -0.4784187 -0.498301
0000f0 07 3c c4 3d b9 45 ad be 3d 8f fd 3d 35 b8 b2 be
       0.09581762 -0.33842257 0.12380836 -0.34906164
000100 4a fc 5e 3e ac f5 5e 3e dd e7 fa bd e8 93 f0 3e
       0.21775928 0.21773404 -0.12251256 0.46987844
000110 2a 2d 80 bd fc 72 03 be 6d f6 1d 3d 87 64 44 3d
       -0.06258614 -0.12836832 0.038565088 0.047947433
000120 f9 87 c5 3c d5 eb ed bc d3 ad 67 3f ca f4 0c 3f
       0.024112688 -0.029043118 0.9049961 0.5506102
000130 02 6d 21 be a7 91 9f 3d af 17 15 c0 52 5d 60 3d
       -0.1576424 0.07791453 -2.3295705 0.054776497
000140 9d 3c 01 3e 10 50 92 3d f7 0f 97 be e0 89 d3 3d
       0.12620778 0.07144177 -0.29504368 0.10329032
000150 b0 3f 1e 3c cf d4 6a be a7 76 0a bf d5 63 07 3f
       0.009658739 -0.22932743 -0.540873 0.52886707
000160 5f 1d cf 3d 63 e4 31 3e c2 ee 3d 3e d0 5b c8 3e
       0.10113024 0.17372279 0.1854811 0.39132547
000170 e3 0c 1b be ad 13 eb 3d 71 a1 7e 3e 57 70 31 bd
       -0.15141635 0.11478362 0.24866273 -0.043320026
000180 e7 20 07 bf 71 26 6e 3e 08 41 67 3e 05 1f c1 bd
       -0.5278458 0.23256852 0.22583401 -0.09429745
000190 af 25 52 3d 7f 53 06 3f 7b 97 8f bf d8 45 4c be
       0.05130547 0.52471155 -1.1218103 -0.19948518
0001a0 28 c4 a9 3e d8 62 b2 3b bf ff 90 be b9 ea 94 be
       0.33157468 0.005443912 -0.2832012 -0.2908533
0001b0 e9 1e 0a be 70 21 59 3e d1 1e db be 1a 4c d7 bc
       -0.13488354 0.21204162 -0.4279695 -0.026281405
0001c0 a2 1b 08 3f b8 1c f9 be b9 39 6b 3e 35 a2 c7 bd
       0.53167164 -0.48654723 0.22971238 -0.097477354
0001d0 0a 9b 20 bf af a8 39 bf c8 33 89 bd 10 00 a5 3e
       -0.6273657 -0.72523016 -0.066993296 0.3222661
0001e0 6a 27 db 3d fe 65 38 be 02 14 ea 3e df d8 3c 3e
       0.10700877 -0.18007657 0.4571839 0.18442105
0001f0 c2 c6 00 3e 91 fb be 3d 94 d8 03 bf 7c da d2 be
       0.1257582 0.09325326 -0.51502347 -0.41182315
000200 04 b2 ab bc dd 69 f7 be 5a 43 8b 3e fc 22 96 be
       -0.020958908 -0.48322955 0.27199823 -0.29323566
000210 67 64 46 bf 42 c7 20 3e d0 b8 b7 be 32 38 9c bf
       -0.7749695 0.15701011 -0.35883188 -1.220465
000220 a3 a9 e7 3d db d7 f0 bd ef af bd 3e 6e 79 f8 3c
       0.113116525 -0.11759921 0.3704829 0.03033134
000230 54 b1 09 3d 2a 1c 91 3e 2e de a4 3e a8 e4 49 be
       0.03361638 0.283418 0.3220076 -0.19716132
000240 b6 35 8c be 5e 1c ff be ff 74 ce 3b 8b df a7 bd
       -0.27384728 -0.4982633 0.006300568 -0.08196934
000250 87 f6 e6 bd d5 bf b6 3e 92 b1 19 be 7c 67 2a be
       -0.1127749 0.3569323 -0.15009144 -0.16641039
000260 5a a5 76 3e 31 b8 b5 3e 09 47 6a 3e 4b cb e6 bd
       0.24086514 0.3549209 0.2287866 -0.11269244
000270 b8 e1 11 ba d6 1e 9a 3e a0 a8 73 be b7 31 3a 3e
       -0.0005564946 0.3010165 -0.23794794 0.18183027
000280 61 06 d4 3d 3a 79 b9 be 52 26 80 bd dc 47 23 bf
       0.10352779 -0.362253 -0.06257309 -0.63781524
000290 01 9c be bd fb 51 73 3d 3c 11 c2 be 87 58 20 3e
       -0.09307099 0.059404355 -0.37903774 0.1565877
0002a0 6a 5f 05 3f 9c 9f c8 3e 63 bb 97 3f ca c7 d1 3d
       0.52098715 0.39184272 1.1854061 0.10243185
0002b0 88 1d 8d bd d9 15 f8 3e 76 bc a8 bf 5a ec 75 3e
       -0.06890398 0.48454168 -1.3182514 0.24015942
0002c0 b4 0c 83 bf 25 7a ee 3e ba 15 f3 3e 00 a2 b0 bd
       -1.0238252 0.46577564 0.47477514 -0.08624649
0002d0 12 a3 7e be 1b e9 07 3d 3d 9d a1 be fd a6 c8 3e
       -0.24866894 0.03318129 -0.31565276 0.39189902
0002e0 20 2b 64 3d 10 ac 8b be f7 d7 84 be 5a 54 3e bf
       0.05570519 -0.2727971 -0.25946018 -0.7434746
0002f0 53 75 0b bf c5 81 e7 3e 3c 0f 1d bf 70 24 92 3e
       -0.544759 0.45216194 -0.6135137 0.28543425
000300 3b 34 1a bf e8 47 49 3e 3b a9 ad bd 41 4a e1 3d
       -0.6023595 0.19656336 -0.08479544 0.11000491
000310 e0 3e a0 3e 80 a3 54 3e 57 d5 84 3e 48 65 d4 be
       0.3129797 0.20765495 0.25944015 -0.4148352
000320 8e a6 8a bf ea e5 de 3d 9e 27 61 3e 66 6f 53 3f
       -1.0832078 0.108836964 0.21987769 0.82591856
000330 f6 0e 1d be 40 7b 2f 3f 7b 51 d6 3d 0e 0a 71 3d
       -0.15337738 0.6854744 0.1046476 0.05884748
000340 a8 cd a8 3e a7 6b a5 3e 37 55 0c 3e 95 8d c6 3c
       0.32969403 0.32308695 0.13704382 0.024237433
000350 67 7c 8c be aa 0c cf be 5e c9 16 bf 87 2a d1 3e
       -0.2743866 -0.4043935 -0.5890101 0.40852758
000360 42 af c7 be 0e 8e 6d bd c1 d8 8a 3d a0 67 39 be
       -0.390009 -0.057996802 0.06779624 -0.18105936
000370 94 e5 93 bb 83 66 c5 3d cc 3b be 3e 5d 09 34 be
       -0.004513452 0.09638693 0.37154996 -0.17581697
000380 f9 c0 f3 3e a9 3d 25 bf 37 78 57 bc 02 ea 8e bf
       0.47608164 -0.6454721 -0.01315122 -1.1165164
000390 54 29 0c 3d 89 7e a7 bd bb 84 14 bd da 15 b4 be
       0.0342191 -0.081784315 -0.036259394 -0.3517292
0003a0 ac a7 27 bf e9 9c 68 be 61 39 04 3f 04 f5 12 3e
       -0.6549022 -0.22716106 0.51650053 0.14351279
0003b0 1d 75 9c 3e 07 7a af 3e 15 45 31 be e5 b4 f1 3e
       0.305581 0.34272787 -0.17311509 0.47208324
0003c0 e5 46 1d 3e b9 5e 89 3c ca 65 0d 3e 7e e0 a5 be
       0.15359075 0.0167688 0.1380836 -0.32397836
0003d0 79 24 8a bd 3a b8 c5 3e 6e 69 06 bd 22 00 6c 3e
       -0.06745238 0.38617116 -0.03281539 0.23046926
0003e0 55 67 8a 3e 79 7c 64 3e 13 cb fb 3d 7e 3d a7 bd
       0.2703196 0.22313108 0.12294593 -0.081660256
0003f0 14 8f 68 3e 0b ae a5 3f 96 ea 31 be b3 a6 24 bf
       0.2271083 1.2943739 -0.17374644 -0.6431686

l2.bias f4 [256]
000000 6e 54 25 bf fe ec bb be e5 7f 83 3f c3 ad 2d bf
       -0.64581954 -0.36704248 1.0273405 -0.67843264
000010 34 0b f5 be 59 15 14 bf 29 bd 08 bf 63 25 7e be
       -0.4786011 -0.57845074 -0.53413635 -0.2481895
000020 16 3e a4 3d 92 c9 0f bf 2e 8d 08 bf bf 9e ec be
       0.080196545 -0.56166947 -0.53340423 -0.46214864
000030 7c d6 04 3f 3b 2a 2d 3f 6a 4b f4 3e 84 a8 f7 be
       0.5188978 0.67642564 0.47713786 -0.48370755
000040 0b 7a 0c 3f 6b ba 57 3f 8d 5d b1 be 7d 6a dc be
       0.5487372 0.84268826 -0.34641686 -0.43049994
000050 6e 09 d8 be b7 ca b2 3e 2c 45 33 3e ee af 2f 3e
       -0.42194694 0.34920284 0.17506856 0.17156956
000060 73 66 87 be 0e 1c ae be a7 16 02 bf e9 52 63 3f
       -0.2644535 -0.3400578 -0.50815815 0.88798386
000070 35 f6 a7 3e e4 85 37 3f 30 30 f5 3e f6 fe ec be
       0.3280503 0.71688676 0.47888327 -0.4628827
000080 ac a1 eb be 37 53 c7 3e 17 35 a6 be 2c b5 42 3f
       -0.46021783 0.38930675 -0.3246238 0.76057696
000090 ee 75 8f 3e 4c 98 e5 be 6c c8 2e bf be f5 cb be
       0.2801966 -0.44842756 -0.6827457 -0.39835924
0000a0 68 53 ad 3e db 07 91 3e bf 70 02 3f c5 c3 bd be
       0.33852696 0.28326306 0.50953287 -0.37063423
0000b0 75 d1 8f be 4c 36 94 3e 04 32 2c 3f b2 10 6f 3f
       -0.2808949 0.28947675 0.6726382 0.9338485
0000c0 bf 1e d7 be e6 04 cd bd 71 c4 06 bf 13 44 dd 3e
       -0.42015645 -0.100107 -0.52643496 0.43216
0000d0 6d 53 c4 3e 13 f5 ef 3e a7 4f de 3e 2f 82 fa be
       0.383449 0.46866664 0.43420145 -0.48927447
0000e0 91 a9 fe be 71 ae 13 3f 22 fa b3 3e d1 65 0b bf
       -0.49738744 0.5768805 0.35151774 -0.54452235
0000f0 91 fc 00 bf 1a 5d bc 3e 8e 62 da be 6f e6 d2 be
       -0.50385386 0.3678978 -0.42653316 -0.41191432
000100 2e 45 d6 3e ee 30 9d be ba d0 fa 3e dc 1e 93 3e
       0.41849655 -0.30701393 0.4898737 0.2873448
000110 8b 3f f9 be 46 37 3f bf 90 56 00 3f 4c 0b ec 3e
       -0.48681292 -0.74693716 0.50132084 0.4610237
000120 f8 df 3c 3f f5 f0 ab 3e 68 c9 58 be c9 65 09 3f
       0.7377925 0.33582273 -0.2117058 0.53670937
000130 76 21 b5 3e 00 c7 ee be 18 06 9d 3e b5 69 11 bf
       0.3537709 -0.466362 0.30668712 -0.5680192
000140 9b 14 cc 3e 7f 3f 93 3e b8 fa 79 be 80 36 fe be
       0.3985947 0.2875938 -0.24412048 -0.49650955
000150 4c 01 c2 be 91 33 48 3f e9 88 c1 be b9 b3 ac be
       -0.37891614 0.78203684 -0.37799767 -0.33730868
000160 2e f5 f9 be 56 20 fd be 2a 33 b8 be 4b 93 cd be
       -0.4881987 -0.49438733 -0.35976535 -0.40151438
000170 6d 2e e7 3e b2 cc 8e be dd 28 cc 3e f3 4f 03 3f
       0.45152608 -0.27890545 0.39874926 0.5129387
000180 95 98 a9 be 4a 64 8e 3e 13 0c c8 be 5e 8e fb be
       -0.33124223 0.2781089 -0.39071712 -0.49132055
000190 b3 88 20 bf e0 74 10 bf 3e 29 12 3f c2 7a 3f 3f
       -0.62708586 -0.5642834 0.5709418 0.7479669
0001a0 6f b3 dc be b2 61 aa be 9b 98 ee be 32 fa d9 be
       -0.43105647 -0.3327766 -0.46600804 -0.42573696
0001b0 a3 5b ae be 8a d0 16 3f fa fc 84 be d6 39 24 3d
       -0.34054288 0.58911955 -0.25974256 0.04009422
0001c0 bf d6 08 3f 5a 2e f8 be cc ab d2 be d5 e5 6e be
       0.53452677 -0.48472863 -0.41146696 -0.23329861
0001d0 ab ef 11 bf 07 9f 64 bd 9e fc dc 3e ee f5 17 bf
       -0.5700633 -0.055815723 0.43161482 -0.59359634
0001e0 a3 cc 46 bc d9 01 a3 be 81 d4 90 be 3a 52 b7 be
       -0.01213375 -0.31837347 -0.28287128 -0.3580492
0001f0 5b b4 0b bf 33 d8 e3 be af 81 f6 3e 37 2e c7 be
       -0.54572076 -0.44500884 0.48145816 -0.38902447
000200 99 59 12 bf ee db d5 be 4d be ee be ac c3 83 be
       -0.57167965 -0.41769356 -0.46629563 -0.25735223
000210 91 c0 e7 3e 4f 99 c4 be 6a f7 05 bf 25 7e be be
       0.45264104 -0.38398215 -0.5233065 -0.37205616
000220 b6 5f e5 3e 85 70 db be 4b ad 06 bf 3d 04 29 be
       0.44799584 -0.42859283 -0.52608174 -0.16505523
000230 7c 0c 8c 3e 32 77 5b be aa 34 c4 be 18 58 fb 3e
       0.27353275 -0.21432188 -0.3832143 0.49090648
000240 0d 78 fa be cb 8f a1 be 08 61 e3 be ac cb c2 be
       -0.48919716 -0.31555018 -0.44409966 -0.38046014
000250 1c 34 b2 be b3 32 0b bf 89 47 f6 be 3a 4c e6 be
       -0.3480538 -0.54374236 -0.48101452 -0.4498003
000260 ba 73 eb 3e c4 0d 81 be 09 04 a5 be a8 0a 41 be
       0.4598673 -0.25205815 -0.3222964 -0.18851721
000270 5e 9e e4 3e 01 a0 ad 3e 65 ef f0 be 10 fd 98 be
       0.44652075 0.33911136 -0.47057644 -0.2988057
000280 d7 37 c2 be cb d8 c7 be 40 06 6b 3f 01 9c 1e bf
       -0.37933227 -0.39032587 0.9180641 -0.61956793
000290 00 56 9a be b8 b6 8d 3e 04 88 f9 be d7 93 8c bd
       -0.30143738 0.27678466 -0.48736584 -0.06864136
0002a0 21 4e fc be 76 d0 99 be 63 8e 37 3f 35 ce b9 3e
       -0.49278358 -0.30041856 0.7170164 0.36290136
0002b0 97 31 04 3f e7 b8 75 3f 71 1d d2 be ce 1d e1 be
       0.5163817 0.95985264 -0.41038087 -0.43968052
0002c0 e6 85 e0 3e 81 dd 1c bf 0f a7 86 3e 57 71 bf be
       0.43852156 -0.6127549 0.2629933 -0.3739116
0002d0 ee 2b 17 3f ab a1 2d 3f 3d 01 1c 3f 5c 7e eb be
       0.59051406 0.6782481 0.6093939 -0.45994842
0002e0 d2 e9 ca 3e 90 85 cb be 48 16 61 be 70 22 f8 3e
       0.39631516 -0.39750338 -0.21981156 0.48463774
0002f0 e8 4e 98 be a2 9a 0b bf f3 ed 39 3f 3b 83 38 be
       -0.297477 -0.54532826 0.72628707 -0.1801881
000300 ca a7 78 3e c2 a0 d4 3e 77 57 f0 be 2d 2b b6 3e
       0.24282756 0.41528898 -0.4694173 0.35579816
000310 ae 6c cf be 18 fb 87 be 81 48 e2 3e ff 29 29 3f
       -0.40512604 -0.26558757 0.4419594 0.66079706
000320 ee 1d c6 be 59 b0 58 3f c6 8f f6 3e a2 c2 28 3f
       -0.3869471 0.84644085 0.48156565 0.65921986
000330 7d 05 95 3e 19 d4 ce be 77 1f bf be 3e c6 b7 be
       0.2910575 -0.40396193 -0.37328693 -0.35893434
000340 5a 1c 0b bf 5b f3 9e be e4 a0 d4 3e 6b 75 0c 3f
       -0.54340136 -0.3104504 0.41529 0.54866666
000350 08 0f f8 bd 75 5b 9a be f5 41 07 3f 46 d5 ca be
       -0.12112242 -0.301479 0.5283502 -0.3961584
000360 c2 1f fe be b8 e8 67 3f 1e 19 97 bd 43 bc 34 bf
       -0.49633604 0.90589476 -0.073778376 -0.70599765
000370 cb 13 0e bf 83 c4 df be 66 d5 d0 be 85 f9 33 bd
       -0.5549895 -0.43704614 -0.4078781 -0.043939132
000380 7a 27 4e 3f 31 26 04 bf 3b 39 ca be 1c d7 74 be
       0.80528986 -0.51620775 -0.39496788 -0.23910183
000390 6a 11 19 3f 1b 01 da be c8 5b d9 be d8 8f c6 be
       0.59792197 -0.42578968 -0.42452836 -0.3878162
0003a0 cb 86 18 bf d2 cf e1 3e 2a 5b fa 3e ca 27 8a 3e
       -0.5958068 0.44103867 0.48897678 0.26983482
0003b0 85 28 98 3e a3 20 f3 be 50 e4 e6 3e 35 b5 86 be
       0.29718414 -0.47485837 0.45096064 -0.26310125
0003c0 65 71 bf be e4 ac 19 3f 09 62 42 bd 04 1c 1f bf
       -0.373912 0.60029435 -0.047456775 -0.62152123
0003d0 05 ad 07 3f 3b 0c 05 3f 7f c2 b0 3e 7e ad f7 be
       0.5299838 0.5197179 0.3452339 -0.48374552
0003e0 28 f9 05 bf 99 b1 1c 3f 73 af ab be 17 9f 9f 3e
       -0.5233331 0.6120849 -0.33532295 0.31176063
0003f0 c4 25 d5 3e 8c dd 0a bf 62 ce 9a be 8b d1 b9 be
       0.41630375 -0.54244304 -0.30235583 -0.3629268

l3.weight f4 [1, 256]
000000 9d 00 29 bf 0c 41 7c bf b9 8c 7f 3f 08 45 ae be
       -0.6601656 -0.98536754 0.998241 -0.34037042
000010 09 6d 7e bf 99 6d 20 bf 1b 1a 30 bf a2 10 9c bf
       -0.99385124 -0.6266723 -0.68789834 -1.2192576
000020 13 c9 e5 3f d3 f0 25 bf 3e 88 33 bf 64 89 59 bf
       1.7951988 -0.64820594 -0.70129764 -0.84975266
000030 71 cc 1f 3f f3 50 7d 3f 3b f7 97 3f 27 13 47 bf
       0.6242133 0.98951644 1.1872324 -0.777636
000040 21 cc 6d 3f 3b 97 60 3f c7 dc 7c bf 4a 20 69 bf
       0.928896 0.8773076 -0.9877438 -0.91064894
000050 fd df 35 bf a4 99 8c 3f dd 6a bf 3f 91 08 88 3f
       -0.71044904 1.0984387 1.4954487 1.0627614
000060 8c dc 68 bf 3a b0 3f bf 5b b5 22 bf e6 73 5a 3f
       -0.9096153 -0.74878275 -0.63557976 0.85333097
000070 7f e9 6b 3f 7c e8 63 3f 35 b2 68 3f 5e 8f 29 bf
       0.9215316 0.8902662 0.9089692 -0.66234386
000080 d6 34 2a bf 7e df 5b 3f 8d c2 4b bf 38 9f 42 3f
       -0.6648687 0.85887897 -0.79593736 0.760242
000090 87 71 8f 3f 19 66 07 bf df 56 05 bf 77 a5 28 bf
       1.1206521 -0.52890164 -0.5208568 -0.6587748
0000a0 77 1c 82 3f 82 e8 a4 3f 54 f9 58 3f 39 ca 1c bf
       1.0164937 1.2883456 0.84755445 -0.6124607
0000b0 de a5 e4 bf 12 0d 9b 3f 9e 8d 60 3f ac 3a 86 3f
       -1.7863119 1.2113364 0.8771609 1.0486655
0000c0 5f 18 48 bf bc 7b 9a bf 7a 6a ed be e6 3a 5a 3f
       -0.7816219 -1.2069011 -0.46370298 0.8524612
0000d0 82 e7 53 3f 82 b7 89 3f 51 4a 6c 3f d4 ca 1e bf
       0.8277513 1.0759127 0.923009 -0.6202824
0000e0 fa cc fb be ad a7 6b 3f da 27 7d 3f 75 8a f5 be
       -0.49179822 0.9205273 0.98888934 -0.47957197
0000f0 71 b9 06 bf 1d 33 51 3f d7 fe 5b bf e5 08 54 bf
       -0.5262671 0.8171862 -0.8593573 -0.8282607
000100 00 57 98 3f ed cc 67 bf e4 b5 62 3f 56 66 a1 3f
       1.190155 -0.90547067 0.88558793 1.2609355
000110 65 2e 5f bf 6b ea 15 bf 3c 56 74 3f de 55 1c 3f
       -0.8718017 -0.5856082 0.95444083 0.6106852
000120 67 07 f0 3e 5e 5c 81 3f 5c f3 98 bf 48 f1 5c 3f
       0.46880648 1.0106313 -1.1949267 0.86305666
000130 fc 94 a2 3f 56 de 3d bf 92 fe 7f 3f 50 2e 29 bf
       1.2701716 -0.7416738 0.9999782 -0.6608629
000140 d6 88 78 3f cb 62 d9 3f 90 c7 23 bf b2 a0 38 bf
       0.97083795 1.6983274 -0.63976383 -0.721202
000150 47 33 3a c0 c6 62 88 3f be 39 6e bf 48 cb f5 bf
       -2.9093797 1.0655143 -0.9305686 -1.9202662
000160 10 e8 5b bf f5 c9 98 bf 22 fb 4d bf e0 45 3c bf
       -0.85900974 -1.1936632 -0.80461323 -0.7354412
000170 77 08 96 3f 6d bc 66 bf 91 4c bb 3f b4 21 6c 3f
       1.1721333 -0.90131265 1.4632741 0.92238927
000180 0b c3 8b bf 4d 25 c3 3f 80 a0 34 bf 2c 78 2c bf
       -1.0918897 1.5245758 -0.70557404 -0.6737087
000190 95 75 42 bf 40 cd e8 bf 8c e9 8b 3f ec 3a 8d 3f
       -0.75960666 -1.8187637 1.0930648 1.1033607
0001a0 3d de 0b bf 92 d1 95 bf 96 e1 16 bf b0 02 8d bf
       -0.54635984 -1.1704581 -0.58937967 -1.1016445
0001b0 c3 1a 82 bf c3 b9 66 3f 3f e0 2f bf 01 05 1c 3d
       -1.0164417 0.901272 -0.6870155 0.03809071
0001c0 68 3a 68 3f 59 41 7e bf 06 23 ab bf c9 c8 80 bf
       0.9071412 -0.9931846 -1.3370063 -1.0061275
0001d0 ad 8b 1a bf 22 d8 b1 bf 6c bc 96 3f 88 46 1c bf
       -0.6036938 -1.3894083 1.1776252 -0.6104512
0001e0 c6 1d 94 3c 5b ad a3 bf 43 e0 44 bf f0 ce d7 bf
       0.018080603 -1.2787279 -0.76904696 -1.6860027
0001f0 d9 1c db be 12 27 87 bf fa ad 8f 3f 8e c3 39 bf
       -0.42795447 -1.0558798 1.1224968 -0.7256402
000200 38 02 bc be 23 1a 72 bf 92 c1 80 bf f0 88 b1 bf
       -0.36720443 -0.9457113 -1.0059073 -1.3869915
000210 d3 65 4d 3f 7c 43 13 bf 01 cb 49 bf 12 aa 7d bf
       0.80233496 -0.5752485 -0.78825384 -0.9908763
000220 0c a0 67 3f 69 2f a5 bf 8f 04 9d bf 7b 8b cf bf
       0.9047859 -1.2905093 -1.2267016 -1.6214441
000230 aa ac ac 3f 67 fd af bf 22 73 86 bf a2 24 88 3f
       1.3490193 -1.3749207 -1.0503886 1.063618
000240 78 c3 56 bf 94 65 33 bf 68 28 1c bf 32 bf 08 bf
       -0.8389201 -0.7007687 -0.60999155 -0.5341674
000250 6a 4a 4e bf 40 be 75 bf a2 ce 48 bf 86 7b 43 bf
       -0.80582297 -0.95993423 -0.78440297 -0.76360357
000260 10 21 5e 3f 49 15 95 bf 58 c3 4b bf 61 c6 54 bf
       0.867692 -1.1647121 -0.79594946 -0.831152
000270 08 b9 8c 3f f9 5c 9c 3f a2 2d 95 bf 69 a5 97 bf
       1.0993967 1.2215873 -1.1654551 -1.1847354
000280 b8 37 3f bf 41 49 50 bf c1 e7 86 3f dc ef 1b bf
       -0.74694395 -0.81361777 1.0539476 -0.6091287
000290 c7 b2 f5 bf b2 f0 80 3f 2a a9 74 bf 5c 57 86 3f
       -1.9195184 1.0073454 -0.95570624 1.049541
0002a0 47 a3 92 bf c1 01 d8 bf 2c fc 82 3f 32 6a 84 3f
       -1.1456078 -1.6875535 1.0233207 1.0344908
0002b0 88 94 94 3f 17 15 7a 3f c2 3d 0a bf 89 05 32 bf
       1.1607828 0.9768843 -0.54000485 -0.69539696
0002c0 a9 aa 70 3f f4 53 88 bf 1d 99 7b 3f 56 63 18 bf
       0.94010407 -1.065062 0.9828051 -0.59526575
0002d0 5f 5b 4d 3f 42 7c 37 3f 28 1d 80 3f 38 79 89 bf
       0.80217546 0.7167398 1.0008898 -1.0740118
0002e0 ab 51 92 3f b3 c4 5d bf 09 12 a7 bf 5b 17 1e 3f
       1.1431173 -0.86628264 -1.3052379 0.6175439
0002f0 61 8c 80 bf 78 c7 72 bf ea 7c 6f 3f 36 4c a5 bf
       -1.004284 -0.94835615 0.9354998 -1.2913883
000300 25 62 51 3f 7b 9a 2f 3f 88 0d 37 bf ed b9 3f 3f
       0.8179038 0.68595093 -0.7150502 0.74893075
000310 bf 0d 2f bf eb 6b 54 c0 0a d9 5b 3f 46 5a 4d 3f
       -0.6838035 -3.3190868 0.8587805 0.8021587
000320 a0 ba 46 bf f8 1f 97 3f 51 35 55 3f a4 07 94 3f
       -0.7762852 1.1806631 0.8328448 1.1564832
000330 69 83 a5 3f a7 3e 0a bf c5 55 9d bf 6f 33 21 bf
       1.2930728 -0.5400185 -1.22918 -0.62969106
000340 21 34 fe be ef 78 86 bf 16 6a b4 3f 81 4c 5a 3f
       -0.49649146 -1.0505656 1.4094875 0.85272986
000350 5a 3b b4 bf 70 b0 40 bf b3 87 53 3f 9d ae 84 bf
       -1.4080613 -0.7526922 0.82628936 -1.0365788
000360 bb 43 79 bf 45 74 71 3f 15 f4 e0 3b 73 49 95 bf
       -0.97368973 0.9431804 0.0068650343 -1.166304
000370 4a 5f c5 bf 9d ab 49 bf 27 ad d6 be a7 44 b3 3c
       -1.5419705 -0.78777486 -0.4192898 0.021883322
000380 37 13 39 3f eb c1 2a bf a9 56 80 bf 73 c1 b4 bf
       0.72294945 -0.66702145 -1.0026447 -1.4121536
000390 de dc 86 3f 84 a2 99 bf 60 52 42 bf a5 e5 0b bf
       1.0536153 -1.2002721 -0.75906944 -0.54647285
0003a0 7e b4 5b bf 5b 13 84 3f aa 60 64 3f 24 c5 82 3f
       -0.85822284 1.0318407 0.8921 1.0216413
0003b0 c3 e5 9d 3f 85 ad 7a bf f8 7c a6 3f bf 78 21 bf
       1.2335743 -0.9792102 1.3006887 -0.6307487
0003c0 6e e5 6e bf e2 36 62 3f a1 4a 23 bc dc f0 39 bf
       -0.9331883 0.88364995 -0.009966523 -0.7263315
0003d0 c8 9c 64 3f e3 51 45 3f f9 55 79 3f 7c 3e f5 be
       0.8930173 0.77078074 0.9739681 -0.47899234
0003e0 cf c3 79 bf 69 b5 37 3f f2 40 48 bf 9e 28 be 3f
       -0.97564405 0.71761185 -0.782241 1.4856145
0003f0 99 85 80 3f 8d 76 86 bf 73 dd 07 c0 d9 9c 50 bf
       1.0040771 -1.0504929 -2.1228912 -0.8148933

l4.weight f4 [256, 32]
000000 d6 ae 39 bd 61 f5 18 be 23 c9 34 be 17 e2 c3 3e
       -0.045332752 -0.14937355 -0.17654853 0.3825843
000010 73 cf 52 3b 42 73 07 3f ee 81 7d be fb cf e5 3f
       0.0032167106 0.52910244 -0.24756595 1.7954096
000020 4b 28 03 3f 74 47 dd be 1b fb fa 3e 62 83 a9 be
       0.5123336 -0.43218577 0.49019703 -0.3310805
000030 5d 15 8f be f1 10 36 be d6 16 8f 3c d3 02 18 be
       -0.27945986 -0.177799 0.017466944 -0.14844827
000040 93 0c fb 3d 7e c8 b1 3b 44 c6 15 be cd a7 e9 bd
       0.12258258 0.005425512 -0.14626414 -0.114089586
000050 b1 d0 7c bb 92 fc d7 3d 6f 42 ad be 77 5f 19 be
       -0.0038576538 0.10546221 -0.33839747 -0.14977823
000060 d8 ad 6b bf c2 64 3c bf 04 b6 9a 3c 03 8c 8d 3c
       -0.9206214 -0.73591244 0.01888562 0.017278677
000070 5b 00 32 be b8 61 10 be b5 17 cb 3d ab 72 8d bd
       -0.17382948 -0.14099777 0.09916631 -0.06906637
000080 d8 b0 6e 3e ce 7b 13 3e 53 93 7f be 13 62 a1 bf
       0.23309648 0.14402696 -0.24958543 -1.2608055
000090 69 14 c9 3d 4f 5b b6 3e 1d 75 49 be 31 c9 82 bf
       0.09818346 0.35616538 -0.19673581 -1.0217649
0000a0 8a 74 41 bf 3f 88 07 be 15 6f c2 be b9 07 75 be
       -0.7556845 -0.13235568 -0.37975374 -0.23928727
0000b0 39 88 88 be bf fc b9 bd 1c 4e 9d 3e 23 74 54 3f
       -0.2666643 -0.090814106 0.30723655 0.8298971
0000c0 45 10 e0 bd 96 71 4f 3f 6a 57 3d bd fb 94 99 3e
       -0.10940603 0.81032693 -0.046225943 0.29996476
0000d0 c8 84 84 3e 88 10 80 3d a3 37 da ba 87 0f 94 be
       0.25882554 0.06253153 -0.0016648661 -0.28918096
0000e0 42 7c ae be e3 56 26 bf 3d 7b 9f bc 44 a1 d3 3c
       -0.34079176 -0.6497633 -0.019467944 0.025833733
0000f0 27 a6 f2 3b 26 68 12 be 4e 67 44 3e d6 6c a3 3c
       0.007405061 -0.14297542 0.19180033 0.019949358
000100 9b cc af 3e c2 c3 9c 3c 9e 5e d0 bd 3c 48 16 be
       0.3433579 0.019136313 -0.10174297 -0.14675993
000110 4f 72 15 be 5a 32 4c bf 9b a3 d6 3e 60 a7 45 3f
       -0.14594387 -0.7976433 0.41921696 0.7720852
000120 5f 10 2a 3e 79 94 2b 3e 86 34 79 be 25 1b 9b 3e
       0.16607808 0.16755857 -0.24336442 0.30294147
000130 85 49 3b 3d 47 9f 79 bd f3 48 d0 3e 86 11 30 3c
       0.04572441 -0.060942914 0.40680656 0.010746365
000140 29 2f 36 be d4 f4 9f bd 0e a6 52 3d 14 df b0 3c
       -0.17791428 -0.07810369 0.051427893 0.021590747
000150 89 71 23 bf b8 80 95 be 00 d3 10 3f 0b cb 9b bd
       -0.63845116 -0.29199767 0.5657196 -0.07607087
000160 7b f8 58 3e c0 49 17 bf 4e 69 35 3d 20 c1 e6 3d
       0.21188538 -0.5909691 0.04428988 0.112673044
000170 b7 13 3c 3c 1c 3a 08 be f8 cd 2b be 09 74 41 bd
       0.01147931 -0.13303417 -0.1677779 -0.0472298
000180 10 5d 30 bd 41 b0 62 bb db f8 f9 3d 78 a4 d7 3e
       -0.0430575 -0.0034589919 0.122056685 0.42117667
000190 1c aa 2b 3d b0 33 38 3e 53 97 8c be 67 0a 60 3e
       0.041910276 0.17988467 -0.274592 0.21878968
0001a0 44 f2 bd be f8 7f da be 9d 01 af be 71 58 43 bd
       -0.37098897 -0.42675757 -0.34180918 -0.047691766
0001b0 d8 6e 7c 3e f5 7a 24 3e 39 0d e0 be 5e 18 07 3e
       0.24651659 0.1606253 -0.43760088 0.13192889
0001c0 07 d6 71 be 54 b7 90 3e ae 82 ea be 42 56 54 3e
       -0.23616801 0.28264868 -0.45802826 0.2073603
0001d0 26 8a 30 be 44 1d 2e be 55 3d 16 be ab ed f1 3c
       -0.172402 -0.17003351 -0.14671834 0.029532274
0001e0 f2 9f f3 3c cd 71 88 3e ab e0 14 3d 60 2b 54 3c
       0.029739354 0.26649323 0.036347073 0.0129497945
0001f0 81 7c 23 bc ee 51 c9 bd 0c 46 2c 3e 3f 0a e4 3c
       -0.0099784145 -0.0983008 0.16823596 0.027836917
000200 a6 5f 56 3e aa 6b 26 be 2b c3 b9 3d 82 5d 43 bf
       0.20934924 -0.16252008 0.090704285 -0.76314557
000210 d1 90 f1 bc a2 37 82 be e1 df c2 be f4 92 c9 bd
       -0.029488 -0.2543307 -0.3806143 -0.09842482
000220 73 f9 b2 bc 07 55 16 3f 45 f2 27 3e 90 0e 96 be
       -0.021847462 0.5872349 0.16401012 -0.29307985
000230 4e 99 1d 3c 51 1a b2 3d 28 75 66 bf 0e cb 05 bf
       0.00961907 0.08696426 -0.90022516 -0.5226296
000240 49 af 3d bf 09 27 73 be a0 7b 06 3c e8 c8 d8 bc
       -0.7409559 -0.2374536 0.008208185 -0.026462987
000250 07 ad 6b 3e f3 1d a5 bd c0 1e f0 be 63 e5 0c 3d
       0.23015223 -0.08062353 -0.4689846 0.034398448
000260 74 6c 2d be 9e 5d a1 3e 36 28 d9 bd 85 70 a4 3c
       -0.16935903 0.31516737 -0.10603373 0.020073185
000270 3f 8f a7 bd b1 3f 9f be d3 b0 87 3d 65 b1 22 bc
       -0.08181619 -0.3110328 0.066255234 -0.009929989
000280 c7 fd 94 3d b6 fd 00 bd 06 c5 44 be a9 ad ac bd
       0.07274967 -0.031491958 -0.19215783 -0.084315605
000290 d6 f9 4d 3c b7 6d 51 be 9b 3f a2 3e 00 04 4a 3f
       0.012571773 -0.20452009 0.31689152 0.78912354
0002a0 06 91 e3 be ed cd 3c bf 6d 63 f0 3e b6 19 da 3d
       -0.44446582 -0.7375172 0.46950856 0.10649435
0002b0 73 ff 37 be 4b ed e2 3c dc d9 87 be 5d 68 8b 3e
       -0.1796854 0.02770104 -0.265334 0.2722806
0002c0 ab 8d 11 bf 40 ea 44 3d 03 12 c5 be 35 2b 5d be
       -0.56856793 0.04807496 -0.38490304 -0.21598513
0002d0 a0 c6 23 3e f2 e7 60 3e 8e 49 8f be 83 1d 39 3b
       0.15993738 0.2196348 -0.27985805 0.002824635
0002e0 05 2d b0 be 1f c5 bb 3c 6a 8a 50 3b 1b 74 39 3e
       -0.34409347 0.022921143 0.0031820782 0.18110697
0002f0 bf 99 5c 3c 97 e7 4a bd 66 fc 29 3d 68 75 15 be
       0.01346439 -0.049537268 0.04150047 -0.14595568
000300 93 39 c6 be 66 58 0f 3e 39 89 8b 3c 08 2a 41 bf
       -0.387158 0.13998565 0.017033206 -0.7545476
000310 3d 89 ed 3c 5c 8d 8f 3c a4 4e 08 bf 9d 11 2e bf
       0.028996104 0.01752346 -0.53244996 -0.67995626
000320 fb 1f 42 be 08 1f a3 be 54 48 b3 bd 2f 31 bc be
       -0.18957512 -0.31859612 -0.0875403 -0.36756274
000330 29 83 85 3d 5d 5f 5f be 4e df 69 3b 70 7d 92 3e
       0.065191574 -0.21813722 0.0035686078 0.28611326
000340 e6 a1 37 bd 35 27 d2 3d 10 50 0f be fa f5 3f bd
       -0.044832133 0.102613844 -0.13995385 -0.04686544
000350 21 c2 e9 bd 13 ef 9f bd e1 8c 71 bd 56 9c 8c 3e
       -0.1141398 -0.07809272 -0.058972243 0.27463025
000360 0f 3d eb be c4 50 b1 be 41 33 3a 3e 66 dd 21 be
       -0.45945022 -0.34631932 0.18183614 -0.15807113
000370 1a 9d a6 3e c0 bf 5c 3e be d7 09 be 40 40 69 bc
       0.32541734 0.21557522 -0.13461205 -0.01423651
000380 a4 1a fa 3f 35 c4 d5 3d 32 94 1f 3e 62 be 0c bf
       1.953938 0.10437814 0.15583876 -0.54978
000390 c6 d2 24 be b3 36 54 bf 66 f5 64 3e be f6 bf 3e
       -0.16096029 -0.82895964 0.22359237 0.37492937
0003a0 54 08 c4 3c 3e 81 51 bf 78 9f be be 2f d8 54 be
       0.023929752 -0.8183783 -0.3723104 -0.20785592
0003b0 8d e1 92 3e 1b fd f6 3d ac 33 8f be 58 80 00 be
       0.28687707 0.12059995 -0.2796911 -0.1254896
0003c0 7c 67 25 be 7b 2d bb 3d ec e8 92 3e c2 22 44 3d
       -0.16152757 0.09139534 0.2869333 0.04788471
0003d0 50 64 48 be 33 2b 53 3d 82 69 37 be 9b 7d 0f bc
       -0.19569516 0.05155487 -0.17911342 -0.008757974
0003e0 dc 46 8c 3d c5 24 70 bf b5 43 da bc 64 a3 a2 bd
       0.06849453 -0.93806106 -0.026643613 -0.079413205
0003f0 03 0c ce 3d 36 c8 14 bd bd ba a5 3c d0 23 ed 3d
       0.10060885 -0.03632375 0.020230645 0.11579096

l4.bias f4 [256]
000000 e7 fc 2d be d4 9c a3 bd ca 9b 04 be 32 4c ff 3d
       -0.16991006 -0.07988897 -0.12950054 0.12465705
000010 40 0a af 3b e1 f9 3b be 2b e9 0f 3c 72 91 d8 3e
       0.005341798 -0.1835704 0.008783619 0.42298466
000020 d0 7b d5 bc fe da 41 3d d0 d6 5c bc c6 a5 88 3e
       -0.026060015 0.047327988 -0.01347895 0.26688975
000030 47 98 d2 be 0c de 8b b9 cd dc 0c bc 58 0e 34 bd
       -0.41131803 -0.00026677584 -0.008597565 -0.04395899
000040 3d e9 80 be ab e0 2e be 2c c2 31 be 5a 72 02 bf
       -0.25177947 -0.17077892 -0.17359227 -0.50955737
000050 9f c8 dc be 9f 2b 28 be eb 05 b2 bd 9f db 8d 3e
       -0.43121812 -0.1642289 -0.08692535 0.2770662
000060 18 22 00 be e5 b8 64 bd 05 98 73 3c c7 62 df 3e
       -0.12513006 -0.05584039 0.014867787 0.4363005
000070 03 c6 7c be 7d 23 38 be 39 83 a7 bc 25 d0 8d be
       -0.2468491 -0.17982288 -0.020448314 -0.27697864
000080 95 4f 13 bf ec 9e 9b 3e 92 ac 89 be 83 e3 88 be
       -0.5754331 0.30394685 -0.26889473 -0.26736078
000090 f5 e3 ea bc 28 5e 21 be 4a 4f 95 be 6b c3 99 be
       -0.028673152 -0.15758574 -0.29162055 -0.30031905
0000a0 b1 e9 8a bd 62 7a 62 be cc 33 a8 bd c5 7a d6 be
       -0.06782854 -0.22116998 -0.082130045 -0.4189054
0000b0 6e b3 c1 bd 01 54 a3 be 53 ac 1a 3e 3f a9 b7 3d
       -0.094580516 -0.31900027 0.15104799 0.08967828
0000c0 19 3a c1 be ab 96 55 be 24 d1 f0 be af 4e 59 3d
       -0.37739637 -0.20858257 -0.47034562 0.053053554
0000d0 bc 37 84 3e 72 df 1d 3e 0a ae 64 3e b2 ba 65 3e
       0.25823772 0.15417269 0.22332016 0.224345
0000e0 ba e7 a4 be a3 3c 87 be a5 95 02 3e af 0a 8a 3d
       -0.32208043 -0.2641345 0.12752397 0.06740319
0000f0 9b 85 19 3d 72 05 bd be 99 31 b2 bd 1c a7 ba be
       0.03748093 -0.36918217 -0.08700866 -0.3645562
000100 10 b6 83 be 1b fc 57 3e b1 c8 cf bd c3 e1 fd 3c
       -0.2572484 0.21092264 -0.10145701 0.03099144
000110 a4 14 b0 3e 60 54 5b be 51 41 4b 3e c0 d8 c5 3c
       0.34390748 -0.21418905 0.19849135 0.024151206
000120 01 d7 bd 3e a4 24 90 3d 42 c6 81 be 4c 9a b8 bc
       0.37078097 0.07038239 -0.2534657 -0.022534512
000130 bb fd 48 be 52 be e9 be 6b 7e 15 3e 6d 23 c7 3e
       -0.1962804 -0.45653015 0.14599006 0.38894215
000140 7f ad 75 be 31 e3 a0 3b 40 99 57 bd ff 8c 47 be
       -0.23991965 0.004909896 -0.052636385 -0.1948738
000150 11 29 ae be 87 c2 37 be c4 c1 56 3e ce 8c ef 3e
       -0.34015706 -0.179453 0.20972353 0.46787113
000160 b1 72 66 3e bb 13 e9 3e 5b 3d b3 3e 74 20 ef bd
       0.22504689 0.45522866 0.35007748 -0.11676112
000170 cf 2a 7d be 66 38 9e be 7d 11 bb bc 2e f4 7f bc
       -0.24723361 -0.30902404 -0.022835487 -0.015622182
000180 17 80 ff be bb b1 86 3e 5d a6 cf be 9a 50 ae be
       -0.49902412 0.26307473 -0.40556613 -0.3404587
000190 93 f2 9f be ea 3c d2 be 31 12 bc 3e bb cc 65 3e
       -0.31239757 -0.410621 0.3673263 0.2244138
0001a0 9f de 70 3b e6 cf 1f be 91 a3 0a be ee f6 6c be
       0.0036753786 -0.1560665 -0.13538958 -0.23141071
0001b0 c5 33 0f be 36 d6 83 3e 86 28 90 bb de 18 15 be
       -0.13984592 0.25749367 -0.004399362 -0.14560267
0001c0 46 d3 b2 bd 55 b0 bf 3d 9c a8 f4 be 9c 32 d4 3e
       -0.087317035 0.093598045 -0.4778489 0.41444862
0001d0 a7 4c d1 be 7a e6 91 be 03 f6 a1 be df 37 aa bc
       -0.40878794 -0.28496152 -0.31633005 -0.020778595
0001e0 5b b4 e1 3e b4 fe 2c 3e 17 2a c6 be 72 f7 12 be
       0.44082913 0.16894037 -0.38703987 -0.14352205
0001f0 97 f1 4b bd 23 7f b9 bd 66 1a 27 3e b5 4f ac be
       -0.049790945 -0.090574525 0.16318664 -0.33654562
000200 18 01 c3 be 9e 8a 85 be eb 69 68 3e ef 22 be be
       -0.38086772 -0.2608232 0.22696654 -0.37136027
000210 14 1e 14 3e e1 b8 15 be 82 86 42 be 90 93 53 be
       0.14464599 -0.14621307 -0.18996623 -0.2066176
000220 3b 4e ee bc f0 b6 03 3e f3 af 96 3e d2 4c c8 3e
       -0.029090038 0.12862754 0.29431114 0.3912111
000230 f3 0d 00 bf 74 8c 6b bd f0 d0 58 be ed 66 a6 be
       -0.50021285 -0.057506993 -0.21173453 -0.325004
000240 5b 0b db 3d d9 70 3e be bb 5e 32 3d 23 33 e6 be
       0.10695525 -0.18597735 0.043547373 -0.4496089
000250 6f 56 00 be 04 f0 24 be 7b 65 77 be 2e d4 de 3d
       -0.12532972 -0.16107184 -0.24159805 0.10880314
000260 0d 0e 40 3e 3e d9 ae 3e 7c 38 6d be 86 33 e6 be
       0.1875536 0.34150118 -0.23166078 -0.44961184
000270 12 9a d0 bd 16 8c 81 be 65 72 32 3e 1d f7 e0 3e
       -0.101856366 -0.2530219 0.1742645 0.43938532
000280 60 d7 a8 be ed 92 53 be a0 91 bd be 74 c5 1a bf
       -0.32976818 -0.20661516 -0.37025166 -0.6045754
000290 9f d0 16 be 33 19 b1 3e e4 74 bc be 73 16 4c 3d
       -0.1472802 0.34589538 -0.3680793 0.049826097
0002a0 a1 59 a9 bd f2 43 59 3e ad 0b 3a 3e 34 d5 d0 3d
       -0.082690485 0.21217325 0.18168516 0.10196915
0002b0 02 aa 0a 3d b0 e0 64 be 16 32 e2 3e 0d e3 58 be
       0.03385354 -0.22351336 0.44178838 -0.21180363
0002c0 d6 31 51 be cb 12 f8 3e 03 37 a8 be e6 60 82 3e
       -0.20429167 0.48451838 -0.3285447 0.25464553
0002d0 ef 4f 37 3e 47 02 21 3d 0b 06 9e be 5b 14 20 bc
       0.17901586 0.039308812 -0.30863985 -0.009770478
0002e0 22 2c 66 3e 1d 5e bd bd b9 03 a4 3e a6 f9 bc be
       0.22477773 -0.09246466 0.3203409 -0.36909217
0002f0 32 0b 26 be 6e e8 50 bd 1e 65 4c be 9b ed e0 3e
       -0.16215208 -0.051002912 -0.19960448 0.4393128
000300 c3 9f b3 3e 05 bc 80 be 76 3f 69 bc 2d 48 78 be
       0.35082826 -0.25143448 -0.014236322 -0.24246283
000310 33 d4 a8 be 12 ce 43 be 54 d9 ab be 0a 66 36 bd
       -0.32974395 -0.19121578 -0.33564246 -0.044530906
000320 1a 58 f3 3d 6d 93 2d be ca 64 a8 bc 97 4c 5d 3d
       0.118820384 -0.1695077 -0.020555872 0.05402812
000330 07 a1 64 be 74 c8 ad be 36 e1 c4 be d0 8b de bd
       -0.22327052 -0.33941996 -0.38453072 -0.10866511
000340 14 15 eb be 4c 34 a6 bd 8e 67 98 3e 72 02 bf 3d
       -0.4591452 -0.081154436 0.29766506 0.09326638
000350 1f 7b bb bd 04 b8 da be 82 09 15 be a6 b9 28 be
       -0.09154343 -0.42718518 -0.14554408 -0.1647707
000360 95 cf 38 3e 1b 5c 29 be 67 ce ac 3e 6b 9e e9 be
       0.18047936 -0.16539042 0.33751222 -0.45628676
000370 92 9f 80 3e 79 90 ce 3e 4a 23 e5 bd ec df d7 be
       0.25121742 0.403446 -0.111883715 -0.42163026
000380 f0 46 d3 3e 2c 70 83 be d6 8a 40 be 0a 31 5a bd
       0.4126506 -0.25671518 -0.18802962 -0.053269424
000390 fe 2d c5 be ab a2 38 be 82 12 d8 3c 4e 11 b2 be
       -0.38511652 -0.18030803 0.026376013 -0.34778827
0003a0 b4 49 a1 3d d0 93 a0 bc 9a 01 8e bd 05 b6 51 3e
       0.07875386 -0.019601732 -0.06933899 0.20479591
0003b0 ec 18 e4 3e c8 5d 74 3e 23 66 65 3e a8 fd c5 be
       0.44550264 0.238639 0.22402243 -0.38670087
0003c0 00 96 86 bc ab 61 2f bd 25 3c c6 bd 9c e5 a8 bd
       -0.016428947 -0.042817753 -0.096794404 -0.082469195
0003d0 43 23 24 be ba f8 80 bb 8a bd 0b 3f 51 33 a9 3e
       -0.16029076 -0.0039359005 0.5458609 0.33046964
0003e0 6f 01 4b 3e 79 20 23 3c ca 54 60 3e 2c 63 6b 3e
       0.19824766 0.009956473 0.21907344 0.2298705
0003f0 24 65 99 be 23 a0 b0 3d c5 40 c7 be e2 de c2 3c
       -0.29959977 0.08624294 -0.38916603 0.02378792
