Project/Ming_Jiang_1016239_Gengcong_Yan_1009903_Project/Part1/trained agents/td3/HalfCheetahBulletEnv-v0_TD3_2_1637050413_td3.pth (torch, 898095 bytes, 16 tensors)

l1.weight f4 [256, 32]
0	0x3e68aa82	0.22721294
1	0x3e279c1e	0.16368148
2	0x3e5555d0	0.20833516
3	0x3ec8b537	0.39200756
4	0x3d59597b	0.05306385
5	0xbe0c682f	-0.13711618
6	0x3cd0a3c1	0.025468709
7	0x3f1009e1	0.56265074
8	0xbec6101d	-0.38684168
9	0xbe875be7	-0.26437303
10	0xbe857d1c	-0.26072013
11	0x3d6de8ae	0.05808323
12	0xbd113fb0	-0.035461128
13	0x3d53d71a	0.05171881
14	0xbf3e8562	-0.74422276
15	0xbe6ad8a5	-0.22934206
16	0x3e4702df	0.19434689
17	0xbc49c78a	-0.01231564
18	0xbe2e4922	-0.17020085
19	0x3cbeeae0	0.023305357
20	0xbecf0ef7	-0.40441105
21	0x3e0a3067	0.13495027
22	0xbf89d765	-1.0768858
23	0xbc3e0fbc	-0.011600431
24	0xbd591a6f	-0.053003725
25	0x3e66c3e7	0.22535668
26	0xbdf1932f	-0.11795651
27	0x3c97d9b9	0.018536435
28	0xbd33ca66	-0.043894194
29	0x3c489d2a	0.012244502
30	0x3d24752c	0.040150806
31	0xbd190cbe	-0.037365668
32	0x3f8cd052	1.1001074
33	0xbe25fae7	-0.16208993
34	0xbe813292	-0.25233895
35	0x3e8cdb5c	0.27511108
36	0x3df52c52	0.11971344
37	0x3fb0d9b5	1.3816439
38	0xbe7a8fb7	-0.24468885
39	0x3f49bf38	0.788074
40	0x3e4bf82d	0.1991889
41	0xbed94ebc	-0.42442882
42	0xbd15600b	-0.036468547
43	0xbe942edf	-0.2894201
44	0x3dbf84fe	0.09351538
45	0xbc524c6f	-0.012835606
46	0x3e5bad99	0.21452941
47	0x3f3b1dde	0.7309245
48	0x3ee6d5e0	0.4508505
49	0x3eaa806f	0.33301112
50	0x3dd58e0f	0.10427486
51	0x3cda19cb	0.026623627
52	0xbe1dabb3	-0.1539753
53	0x3f0ef477	0.55841774
54	0xbcc84409	-0.024446504
55	0x3bd7ea9e	0.006589248
56	0x3ec11644	0.377123
57	0xbeb4a8d2	-0.3528505
58	0xbd7634c1	-0.060108904
59	0xbc304da4	-0.0107606985
60	0x3d284c31	0.041088287
61	0xbdc38994	-0.09547725
62	0x3dfe5483	0.12418463
63	0xbdc845bd	-0.097789265
64	0xbf616503	-0.88044757
65	0x3e235adc	0.15952629
66	0xbe227d5e	-0.15868136
67	0xbe52792f	-0.2055404
68	0x3e0daacb	0.13834684
69	0xbeae2f1d	-0.3402032
70	0xbc366338	-0.011132054
71	0x3f80d6ef	1.0065593
72	0xbe880ea7	-0.2657368
73	0x3eb2acbb	0.34897408
74	0xbe52b238	-0.20575798
75	0xbc3b3dfa	-0.011428351
76	0xbecce237	-0.40016338
77	0xbe339b31	-0.1753967
78	0xbd900f06	-0.070341155
79	0x3dd7a0ef	0.105287425
80	0xbe07082a	-0.13186708
81	0x3d83a4d4	0.06427923
82	0xbf154b3e	-0.58317935
83	0xbdd2784d	-0.10276852
84	0xbdaea9de	-0.08528493
85	0xbcefb8b4	-0.029262878
86	0x3d014efb	0.031569462
87	0xbc871a74	-0.016492106
88	0x3e65ee47	0.22454177
89	0xbdb05ef0	-0.08611858
90	0x3d234960	0.039864898
91	0xbd0c4d59	-0.034253452
92	0xbdedb87f	-0.116074555
93	0xbd09ea0c	-0.03367047
94	0x3d730d97	0.059339132
95	0xbcaf3ea7	-0.02139218
96	0xbfa67f04	-1.3007512
97	0x3d88fa14	0.066883236
98	0xbec801fa	-0.39064008
99	0xbe4c64c4	-0.19960314
100	0xbd56f986	-0.052484058
101	0xbf5e7dc3	-0.8691065
102	0xbcfd8d0b	-0.030951044
103	0x3f3af608	0.73031664
104	0x3e575e98	0.21032178
105	0xbdbf8d7e	-0.09353159
106	0x3f03f0cb	0.51539296
107	0xbe921a14	-0.2853552
108	0x3e028e17	0.12749515
109	0x3db2c46c	0.08728871
110	0xbea2300f	-0.3167729
111	0x3e0748e9	0.13211407
112	0x3ea1cc31	0.31601098
113	0x3d4590e2	0.048233874
114	0x3e08a164	0.13342816
115	0x3c1232af	0.008923217
116	0xbdc321d7	-0.09527939
117	0xbf29d84c	-0.6634567
118	0x3d545842	0.05184198
119	0x3e94992a	0.29023105
120	0x3f0f624f	0.5600938
121	0xbe173236	-0.14765248
122	0xbbda2698	-0.0066574328
123	0xbe38f384	-0.18061644
124	0xbc7991b9	-0.015232497
125	0x3df53562	0.119730726
126	0xbd1a8e43	-0.037733328
127	0x3b91d5ad	0.004450521
128	0x3faa8ad7	1.332362
129	0x3cd7abc8	0.026327029
130	0xbe82e741	-0.25567058
131	0xbe21287b	-0.15738098
132	0x3e2bc5e5	0.1677471
133	0x3e93b947	0.28852293
134	0xbe8e392b	-0.2777799
135	0xbf45145a	-0.7698418
136	0xbdef4fb6	-0.116851255
137	0xbc3829e4	-0.011240456
138	0xbe88afca	-0.26696616
139	0x3e551c14	0.20811492
140	0x3e86d741	0.263361
141	0x3d9644fd	0.07337377
142	0x3eb924f7	0.36161014
143	0x3e2d1972	0.16904238
144	0x3f25cb94	0.6476376
145	0x3db5b0cb	0.08871611
146	0x3d669879	0.056297753
147	0x3d152316	0.036410414
148	0x3d036533	0.032078933
149	0x3e5bc9ac	0.2146365
150	0x3e47ff6e	0.19531032
151	0x3d60a28f	0.054842528
152	0x3e388275	0.18018515
153	0x3eacd42b	0.3375562
154	0xbca3d6ef	-0.01999995
155	0xbd999e48	-0.07500893
156	0x3e0d73ea	0.13813749
157	0xbe1e0532	-0.1543167
158	0x3d0b6831	0.03403491
159	0x3d4be84e	0.04978209
160	0xbd350d46	-0.04420211
161	0x3e1d3f6b	0.15356223
162	0x3c1b93e6	0.009495711
163	0x3f21943a	0.631168
164	0xbda240e3	-0.079225324
165	0xbf6c7a2d	-0.92373925
166	0x3d6cb9f1	0.057794515
167	0x3e8bd052	0.27307373
168	0x3efeef7d	0.4979209
169	0x3f0bc208	0.54592943
170	0x3e4820f6	0.19543824
171	0x3ec787ea	0.38970882
172	0xbd36c6f6	-0.044623338
173	0x3e6476e0	0.22310972
174	0x3e6ffdca	0.23436657
175	0x3e432591	0.19057299
176	0xbf06f2e0	-0.5271435
177	0xbd0609cf	-0.032724198
178	0xbf018f65	-0.5060943
179	0xbdcb8e28	-0.099392235
180	0x3e0cbb2e	0.13743278
181	0xbf119ed4	-0.5688298
182	0x3edabde8	0.42723012
183	0x3d67932d	0.056536842
184	0x3b8555f8	0.004069086
185	0xbe8d4384	-0.27590573
186	0x3ba0f569	0.0049120677
187	0x3e043f6f	0.12914823
188	0x3caa5844	0.020794041
189	0x3c9094e3	0.01764912
190	0x3da342d3	0.0797173
191	0xbda07913	-0.07835593
192	0x3e416fc6	0.18890294
193	0xbde10db6	-0.10988943
194	0xbe8b35e5	-0.27189556
195	0x3f60ff1f	0.87889284
196	0x3e184d69	0.1487328
197	0xbf1bfbec	-0.6093128
198	0xbeaf88c1	-0.34284022
199	0x3ece454a	0.40287238
200	0xbf0d28f9	-0.55140644
201	0xbe44a5f3	-0.1920393
202	0xbf0c8779	-0.54894215
203	0xbe2f129f	-0.17096947
204	0x3e32da77	0.1746615
205	0xbcc49814	-0.023998298
206	0x3d026daa	0.031842865
207	0x3e58816f	0.21143125
208	0x3dc95ae3	0.098317884
209	0x3e6ce438	0.23133934
210	0xbe9879d3	-0.29780445
211	0x3dcdd1d4	0.10049787
212	0x3e3bbb9a	0.18333283
213	0xbf689b06	-0.90861547
214	0x3e08b0ba	0.13348666
215	0xbd65f56d	-0.05614226
216	0x3e90dc97	0.28293297
217	0xbe77585a	-0.24154797
218	0x3bd5a4e5	0.006519901
219	0x3d599350	0.053119004
220	0x3b922732	0.004460239
221	0xbdcad4b1	-0.09903849
222	0x3e55aa39	0.20865716
223	0x3c98bab2	0.01864371
224	0x3f1ade54	0.60495496
225	0x3e2dc412	0.16969326
226	0xbe6fb85e	-0.23410174
227	0xbe6f8d01	-0.23393632
228	0xbcfb6c0a	-0.030691165
229	0xbe7f5b4f	-0.24937175
230	0xbf18cf71	-0.5969153
231	0xbf930b8f	-1.1487902
232	0x3c106c3e	0.008814869
233	0x3ee44811	0.44586232
234	0xbdd282f1	-0.10278881
235	0x3ebb3901	0.36566928
236	0x3d8262bc	0.06366488
237	0x3d314936	0.04328271
238	0x3f727f00	0.94725037
239	0x3ebd90da	0.37024575
240	0x3e8d81d8	0.27638125
241	0x3e89c9cb	0.26911768
242	0xbe83949c	-0.25699317
243	0x3e772a72	0.24137285
244	0x3e0554d6	0.13020644
245	0x3dfb14d0	0.12259829
246	0xbe2ff23f	-0.17182253
247	0xbdc4b1ef	-0.09604251
248	0xbe328e94	-0.17437202
249	0x3d6514d6	0.055928074
250	0x3e1a5fa1	0.15075542
251	0x3df1262e	0.1177486
252	0xbd0fd576	-0.03511568
253	0x3e0df465	0.1386276
254	0xbdb745db	-0.08948871
255	0x3e1840eb	0.14868514

l1.bias f4 [256]
0	0x3e8cbe05	0.27488723
1	0xbe1fc528	-0.15602553
2	0xbe2f76ed	-0.1713521
3	0xbe64ff29	-0.22362961
4	0xbd113b66	-0.035457037
5	0x3df5b3c3	0.119971775
6	0xbeb06875	-0.34454694
7	0xbe6fbb12	-0.23411205
8	0xbd8f08e7	-0.0698412
9	0xbef396df	-0.47576043
10	0xba74d7e5	-0.0009340032
11	0xbe20322f	-0.15644144
12	0xbe85f313	-0.26162013
13	0xbf016534	-0.5054505
14	0xbd370e64	-0.04469146
15	0xbe04bbf9	-0.12962331
16	0xbcc2b770	-0.02376911
17	0xbf236ec5	-0.63840896
18	0xbeb13c28	-0.34616208
19	0xbdef5f6a	-0.11688121
20	0xbdd779d1	-0.105212815
21	0x3e318da8	0.17339194
22	0xbe7e7491	-0.24849154
23	0xbe663f06	-0.22484979
24	0xbdf69ffb	-0.120422326
25	0xbe320029	-0.17382874
26	0xbe2bf493	-0.16792516
27	0xbead7c01	-0.3388367
28	0x3dee0a2d	0.116230346
29	0xbe404688	-0.18776906
30	0xbe274173	-0.1633356
31	0xbd3f9360	-0.046771407
32	0x3d60f0f2	0.054917283
33	0xbe204c43	-0.15654092
34	0xbec46f82	-0.38366324
35	0xbe0b0e5d	-0.13579698
36	0xbd26c9fc	-0.04071997
37	0x3dec0bd3	0.11525693
38	0xbe5dad0f	-0.21648048
39	0xbdc06e5c	-0.093960494
40	0x3d7115bb	0.058858614
41	0x3e90f321	0.28310493
42	0xbe566d64	-0.20940167
43	0x3d9e94e9	0.07743246
44	0xbe522a0a	-0.20523849
45	0x3e822731	0.25420526
46	0x3e98b909	0.2982867
47	0x3ecbbeea	0.39794093
48	0xbc1ab591	-0.009442703
49	0xbea332e0	-0.31874752
50	0x3c9cd83b	0.019146075
51	0xbe7ee760	-0.2489295
52	0x3f185613	0.5950634
53	0xbe01ee80	-0.12688637
54	0x3e72c3db	0.23707525
55	0x3dba871d	0.09107802
56	0xbed99ed2	-0.42503983
57	0xbe62ebc7	-0.22160254
58	0xbead9f7a	-0.33910733
59	0x3bbcd458	0.005762618
60	0xbeb2a2aa	-0.34889728
61	0xbed8722d	-0.4227461
62	0xbead6980	-0.33869553
63	0xbe85b3e3	-0.26113805
64	0x3d888cb7	0.06667464
65	0xbe775d6b	-0.2415673
66	0xbe18591a	-0.1487774
67	0xbe30c0f5	-0.17261107
68	0xbf0876ab	-0.5330607
69	0xbd332a94	-0.043741778
70	0xbe0e09da	-0.13870946
71	0x3d9646f2	0.073377505
72	0xbce7fe02	-0.028319363
73	0xbdfdf8ef	-0.12400996
74	0x3e59d16e	0.21271297
75	0xbefebb3c	-0.49752223
76	0x3de446e6	0.11146335
77	0x3d086377	0.033297982
78	0xbef57f1b	-0.47948536
79	0xbe7f41f5	-0.24927504
80	0x3e1fa625	0.15590723
81	0x3df26dd9	0.11837358
82	0xbdb398fb	-0.08769413
83	0xbdf10ffa	-0.117706254
84	0xbec21959	-0.37909964
85	0xbe3bac8e	-0.18327543
86	0xbe7d5b70	-0.24741912
87	0x3e92a11f	0.2863855
88	0x3d8a1d68	0.0674389
89	0xbea285b7	-0.3174264
90	0x3ea1337f	0.314846
91	0xbd251884	-0.040306583
92	0xbe86f78e	-0.26360744
93	0xbe9e9911	-0.30976155
94	0xbeba3b3a	-0.3637331
95	0x3f2cddfb	0.67526215
96	0xbf129bcf	-0.57268995
97	0xbe69d9f7	-0.22837053
98	0xbec82b54	-0.39095557
99	0xbea33351	-0.3187509
100	0x3d3fd17a	0.04683063
101	0xbe2c2efe	-0.16814801
102	0xbd23aca8	-0.03995958
103	0x3decb789	0.11558444
104	0xbe005db0	-0.12535739
105	0x3ea50ab3	0.32234725
106	0xb9ce4fa1	-0.0003935071
107	0xbdeae111	-0.11468709
108	0xbef7c872	-0.48395115
109	0xbd05a303	-0.032626163
110	0xbe91a404	-0.28445446
111	0xbe59d040	-0.21270847
112	0xbd8fbf9b	-0.07018968
113	0xbe039624	-0.12850243
114	0xbe2454fd	-0.16048045
115	0xbe1bd0de	-0.15216395
116	0xbf1bcf54	-0.6086323
117	0xbdf45f6a	-0.11932261
118	0x3d8d9633	0.06913414
119	0xbe5fd32c	-0.218579
120	0xbeaea91e	-0.341134
121	0xbe933caa	-0.2875722
122	0xbe723885	-0.23654373
123	0xbe3da5a9	-0.18520226
124	0xbe8025f7	-0.25028965
125	0xbdb663f0	-0.0890578
126	0xbe632580	-0.22182274
127	0x3e620865	0.22073515
128	0xbe513b48	-0.2043277
129	0xbe3f8e21	-0.18706562
130	0x3e53b059	0.2067274
131	0x3e31cf6f	0.17364286
132	0x3ef066e2	0.46953493
133	0xbe497bbe	-0.1967611
134	0xbe635063	-0.22198634
135	0xbbf4ef02	-0.007474781
136	0x3e011f52	0.12609604
137	0x3c146955	0.009058316
138	0xbec4a796	-0.38409108
139	0x3e7ec8ae	0.2488124
140	0xbe1aaf21	-0.15105869
141	0xbe52a603	-0.20571141
142	0xbea47aa8	-0.3212483
143	0xbd923e7d	-0.07140825
144	0xbd29b8bb	-0.04143594
145	0xbddc3427	-0.10752135
146	0x3e504bea	0.20341459
147	0xbe8be15b	-0.2732037
148	0xbe2b7595	-0.16744073
149	0xbe99582b	-0.2995008
150	0xbe7babed	-0.24577303
151	0xbec09d6f	-0.37620112
152	0x3e9b9e30	0.30394125
153	0x3c8aba4c	0.016934536
154	0x3ec1759f	0.3778505
155	0x3e47ad92	0.19499806
156	0xbe225865	-0.15854032
157	0x3c8e92de	0.017404016
158	0xbdddd827	-0.108322434
159	0xbc88ef52	-0.01671568
160	0xbd7efabb	-0.062250834
161	0x3e26d465	0.1629196
162	0xbe07f0fb	-0.1327552
163	0x3e7bea40	0.24601078
164	0x3be4cfc8	0.0069827773
165	0x3ebef76f	0.37298152
166	0x3e3357e2	0.17513993
167	0xbd93766d	-0.07200322
168	0xbeaa43cd	-0.33254853
169	0xbf158976	-0.58412874
170	0xbd42a5d9	-0.047521446
171	0xbb385fe1	-0.002813332
172	0xbe272538	-0.16322792
173	0xbe1ea578	-0.15492809
174	0x3dad055e	0.08448289
175	0xbf1b25e6	-0.60604703
176	0xbdf5200e	-0.119690046
177	0x3d392042	0.04519678
178	0xbd10350c	-0.03520684
179	0xbe374ced	-0.17900439
180	0x3daf816e	0.08569609
181	0xbf0f499e	-0.55971706
182	0xbe61684f	-0.22012447
183	0xbec35c7e	-0.38156503
184	0x3db8f61d	0.090313174
185	0x3e1ab874	0.15109426
186	0xbe4f331a	-0.20234337
187	0xbe6cc1cf	-0.23120807
188	0x3d973dff	0.07384872
189	0xbeafa185	-0.34302917
190	0x3e1607ad	0.14651366
191	0xbded9d1a	-0.1160223
192	0xbe758f37	-0.23980413
193	0x3de61580	0.112345695
194	0xbe6a81b7	-0.22901045
195	0xbea4afba	-0.3216532
196	0x3e06c314	0.13160354
197	0xbf0c8272	-0.54886544
198	0x3ed10ddd	0.4083089
199	0xbe85fb61	-0.2616835
200	0xbcb9b4dc	-0.022669248
201	0x3e024960	0.12723303
202	0xbf02cf95	-0.51097995
203	0x3eb6473d	0.35601225
204	0xbddb0e6a	-0.10696109
205	0xbf269ba6	-0.6508125
206	0xbe5675e5	-0.2094341
207	0xbedd8413	-0.43264827
208	0xbdd9da8f	-0.1063739
209	0x3e4ab801	0.19796754
210	0x3da5b616	0.08091371
211	0xbe9deae7	-0.3084328
212	0x3d713dfc	0.058897004
213	0xbe7aeef8	-0.24505222
214	0xbea95334	-0.3307129
215	0xbecab080	-0.39587784
216	0x3ec1f8b4	0.37885058
217	0x3ea0d979	0.31415918
218	0x3e8a88ec	0.27057588
219	0xbda45a83	-0.08025076
220	0x3d4bd326	0.049761914
221	0x3e828e9c	0.25499427
222	0xbe7e40fa	-0.24829474
223	0xbe8fb591	-0.28068212
224	0x3f171e43	0.5903055
225	0xbe0e0ce8	-0.13872111
226	0x3e3332e3	0.1749988
227	0x3e14065f	0.14455555
228	0x3c60b496	0.01371493
229	0xbe836f32	-0.25670773
230	0xbe9a8c1c	-0.3018502
231	0xbe83dfa5	-0.25756565
232	0xbdcb994c	-0.099413484
233	0xbe88882e	-0.26666397
234	0x3dad0fa6	0.0845025
235	0x3ec7059f	0.38871476
236	0xbe16ca8b	-0.14725702
237	0x3eb63fc7	0.35595533
238	0xbd0690f9	-0.0328531
239	0xbedeafb6	-0.43493432
240	0xbebc19ec	-0.36738527
241	0xbe0f5b70	-0.13999724
242	0xbe9a05c9	-0.3008254
243	0xbec3a930	-0.38215017
244	0x3e8c8989	0.2744868
245	0x3e309686	0.1724492
246	0x3d28ac86	0.041180156
247	0x3c7e8ee4	0.0155369975
248	0xbed6b8f6	-0.4193799
249	0xbeb482a8	-0.35255933
250	0xbe1c9365	-0.15290602
251	0xbedc0c25	-0.42978016
252	0xbe569661	-0.20955803
253	0xbf0dcb3d	-0.5538824
254	0x3cade440	0.021227002
255	0xbeaf3e78	-0.34227347

l2.weight f4 [256, 256]
0	0xbe544b18	-0.20731771
1	0xbc9567f3	-0.018238043
2	0xbd9bf300	-0.07614708
3	0xbd6f6138	-0.058442324
4	0x3d532185	0.05154564
5	0xbe982c95	-0.29721513
6	0x3d90015e	0.07031511
7	0x3e6cbc04	0.23118597
8	0x3eacbf26	0.33739585
9	0x3e45a981	0.19302942
10	0x3e384762	0.1799598
11	0x3e99f108	0.30066705
12	0xbd82d93f	-0.06389093
13	0xbef4c5df	-0.47807214
14	0xbf14a60f	-0.58065885
15	0x3e026352	0.127332
16	0xbeaf87c2	-0.34283262
17	0x3aa8bada	0.0012873069
18	0x3e807a47	0.2509329
19	0x3df91ce4	0.121637136
20	0xbd61d3c6	-0.055133604
21	0xbe3b21a0	-0.18274546
22	0xbe574fd9	-0.21026553
23	0x3d5c2f49	0.053756032
24	0x3d4c430d	0.049868632
25	0xbe55e743	-0.20889
26	0xbf670aa2	-0.902506
27	0xbea54a42	-0.32283217
28	0x3e93938c	0.28823507
29	0x3eed3dc7	0.46336195
30	0x3f3007fe	0.68762195
31	0xbe80a596	-0.25126332
32	0x3d9f1b49	0.07768876
33	0x3f06ecef	0.5270528
34	0x3e50f913	0.20407514
35	0x3dd49708	0.103803694
36	0x3d5776fb	0.052603703
37	0xbe5820aa	-0.2110621
38	0x3eced54d	0.4039711
39	0x3e3db6dc	0.18526787
40	0xbea174ee	-0.31534523
41	0xbe64b505	-0.22334678
42	0xbf2f7ed6	-0.6855291
43	0x3e98552c	0.2975248
44	0x3e15a4eb	0.14613692
45	0x3eb89346	0.3604986
46	0xbea08846	-0.31353968
47	0xbd0953a8	-0.033527046
48	0x3e8726ee	0.26396888
49	0xbdc5ee89	-0.096646376
50	0x3e4e21a1	0.20130016
51	0xbe8cd0fd	-0.27503195
52	0xbea6c151	-0.32569364
53	0xbf17ec80	-0.59345245
54	0xbd3bc272	-0.045839734
55	0xbf698592	-0.9121944
56	0xbe3b54f8	-0.18294132
57	0x3dc0875b	0.09400817
58	0xbd23be18	-0.03997621
59	0xbe7006a9	-0.2344004
60	0x3ea4c6b7	0.32182857
61	0xbce489e9	-0.027897792
62	0xbdbd365f	-0.09238886
63	0xbe893b5d	-0.26803103
64	0xbd11ec27	-0.035625603
65	0xba97dae7	-0.0011585624
66	0x3ed6a019	0.4191902
67	0x3da6150b	0.081094824
68	0x3e1ecd67	0.15508042
69	0x3e7f20f2	0.24914911
70	0xbdbdb99d	-0.092639185
71	0x3e18730f	0.14887641
72	0xbf396668	-0.72421885
73	0xbde12d76	-0.10994999
74	0x3ec25eee	0.3796305
75	0xbd9b7c32	-0.07592048
76	0xbed59800	-0.4171753
77	0x3afbb09f	0.0019202417
78	0xbdf4a01a	-0.119445994
79	0xbe4ec7be	-0.20193383
80	0x3e21d7c3	0.15804963
81	0x3e005836	0.1253365
82	0x3e2237b8	0.15841568
83	0x3d86acd5	0.06575934
84	0xbdce0ae9	-0.10060675
85	0x3e2c4fb4	0.1682728
86	0x3ea369a9	0.3191655
87	0x3d3b161c	0.045675382
88	0x3e705f82	0.23473933
89	0xbf396626	-0.7242149
90	0xbe2e9222	-0.17047933
91	0x3ef0d1e6	0.4703514
92	0xbea5658b	-0.32304034
93	0x3eb565c4	0.35429204
94	0x3e6d7ee6	0.23192939
95	0xbd9b9c18	-0.07598132
96	0x3ea788e9	0.32721642
97	0xbe93f73d	-0.28899565
98	0xbf10c71a	-0.56553805
99	0x3f0cee48	0.5505109
100	0xbe408f9b	-0.18804781
101	0xbe126c11	-0.14299037
102	0xbea894a2	-0.32925898
103	0x3ebfde27	0.37474176
104	0x3d9579e5	0.0729864
105	0x3e9f9180	0.31165695
106	0xbed2eb99	-0.41195372
107	0x3f04f612	0.51937973
108	0x3db0242f	0.086006515
109	0x3ee4a804	0.44659436
110	0xbeb1cefc	-0.3472823
111	0xbec6e07f	-0.38843152
112	0x3db0c89b	0.086320125
113	0x3f1b72b6	0.6072191
114	0xbf035dc9	-0.5131498
115	0xbdb7d28c	-0.089757055
116	0x3d9df077	0.07711881
117	0xbc95a55d	-0.018267328
118	0xbeed3e63	-0.4633666
119	0x3dab9dca	0.08379705
120	0xbea1311a	-0.31482774
121	0x3e89cdb7	0.2691476
122	0xbf6a952b	-0.9163386
123	0x3f142b0d	0.5787819
124	0x3ebd0cce	0.36923832
125	0x3eaec46c	0.34134233
126	0xbd06fe51	-0.03295738
127	0xbda6dc07	-0.08147436
128	0x3daf78aa	0.08567937
129	0x3f0aa1aa	0.5415293
130	0xbe8daeb0	-0.27672338
131	0xbdd6368a	-0.10459621
132	0xbf1d9267	-0.6155152
133	0x3f30c952	0.6905719
134	0xbe8a6eb0	-0.27037573
135	0x3ea2343b	0.31680474
136	0xbf3db81c	-0.74109054
137	0xbed0697e	-0.40705484
138	0x3e157007	0.14593516
139	0xbebf73db	-0.37393078
140	0x3e47304d	0.19452019
141	0xbdd0f4b6	-0.10202925
142	0x3d2b8756	0.041877113
143	0xbe34e3bb	-0.17664997
144	0x3d6980ba	0.05700753
145	0x3f5a7ad7	0.8534369
146	0x3e2c125d	0.1680388
147	0x3e1a55d5	0.15071805
148	0xbf1f524d	-0.62234956
149	0x3edaab03	0.42708597
150	0xbe937a2b	-0.28804144
151	0x3e3ea955	0.18619283
152	0xbb612b77	-0.0034358182
153	0x3e96cf1f	0.29454896
154	0xbc4bbcbe	-0.012435136
155	0xbde55c78	-0.11199278
156	0x3e8beec1	0.27330592
157	0xbdf6f46f	-0.12058341
158	0x3ede1364	0.4337417
159	0x3edcfa2a	0.4315961
160	0xbe0bbace	-0.13645479
161	0xbed74051	-0.42041257
162	0x3dcb8e8c	0.09939298
163	0xbf5981d2	-0.84963715
164	0xbdc32def	-0.095302455
165	0xbce7b727	-0.028285576
166	0x3ee9a255	0.45631662
167	0xbee1856f	-0.44047114
168	0xbd15607a	-0.03646896
169	0x3d812b34	0.063070685
170	0x3ea85b3c	0.32882106
171	0x3e7256db	0.23665945
172	0xbf08ebf7	-0.53485054
173	0x3e87673e	0.26445955
174	0x3e877bd1	0.26461652
175	0x3f209258	0.627233
176	0x3ee67ce2	0.45017153
177	0x3dc25ca5	0.09490327
178	0x3e827472	0.25479466
179	0xbecb3db3	-0.3969551
180	0xbe041617	-0.12899052
181	0xbe3787c4	-0.17922884
182	0x3e35e374	0.17762548
183	0x3e06932d	0.1314208
184	0xbea60650	-0.3242669
185	0xbe126858	-0.14297616
186	0x3e48236a	0.1954476
187	0xbf3929f4	-0.7232964
188	0xbdaa307f	-0.08310031
189	0xbf10d578	-0.5657573
190	0x3ecd3874	0.40082133
191	0xbdfc2cc0	-0.12313223
192	0xbee987cb	-0.45611414
193	0xbeb16ac7	-0.34651777
194	0xbbee5eb5	-0.0072744736
195	0x3e19077e	0.14944264
196	0xbdc4de72	-0.096127406
197	0x3e9888df	0.29791924
198	0xbbedfc86	-0.007262769
199	0x3f1ad2db	0.6047799
200	0x3d23ccdb	0.039990287
201	0xbbe32751	-0.006932177
202	0xbaee6a52	-0.0018189645
203	0xbe77946e	-0.24177715
204	0xbe8ebf5f	-0.2788038
205	0x3e53ab95	0.20670922
206	0x3e4a1e56	0.19738135
207	0xbcb08fd5	-0.02155296
208	0xbf07222b	-0.5278651
209	0x3d8a9f22	0.067686334
210	0x3e112cc9	0.1417724
211	0xbf3200c0	-0.69532394
212	0x3eaacaf8	0.33357978
213	0xbf26daa2	-0.6517736
214	0x3e95e2c8	0.29274583
215	0x3c51078b	0.012758146
216	0x3e1a3954	0.15060931
217	0x3eb1b7a7	0.34710428
218	0xbd917bd5	-0.07103697
219	0xbe8d517a	-0.27601224
220	0xbf9e6e38	-1.2377386
221	0xbd82ee9b	-0.06393167
222	0xbe8e5809	-0.2780154
223	0xbed1b69f	-0.4095964
224	0xbe0f1838	-0.13974082
225	0xbf85298f	-1.0403308
226	0x3e22fe1b	0.15917246
227	0xbcfbe04b	-0.0307466
228	0xbc0a2613	-0.008431929
229	0x3db5385d	0.08848641
230	0xbdeb3774	-0.11485186
231	0x3dac70f6	0.08419983
232	0x3f10fe17	0.5663771
233	0xbde61dad	-0.11236129
234	0x3e5bfd22	0.21483281
235	0x3d796cc9	0.06089476
236	0x3ece1d2b	0.40256628
237	0xbe9bfda3	-0.30466947
238	0x3ddd8a73	0.10817423
239	0xbdbe5aad	-0.09294639
240	0xbf0d90c2	-0.5529901
241	0x3edbc745	0.42925468
242	0xbe3248f9	-0.1741065
243	0xbde572fe	-0.11203574
244	0xbe5e159d	-0.21687932
245	0x3dfbd7cd	0.1229702
246	0xbe60e76c	-0.2196328
247	0xbed7e736	-0.42168587
248	0xbeb84ff0	-0.35998487
249	0x3dbc796a	0.092028454
250	0x3e0d35be	0.13790032
251	0xbef2efdd	-0.47448626
252	0xbf15a841	-0.5845986
253	0x3e9895b0	0.29801702
254	0x3dbd0511	0.09229482
255	0x3e801eb2	0.2502342

l2.bias f4 [256]
0	0xbed80389	-0.42190197
1	0xbead1e69	-0.33812264
2	0xbea0c59d	-0.31400767
3	0xbf09631c	-0.53666854
4	0xbeb5990b	-0.35468325
5	0x3f0d7971	0.5526343
6	0x3efd5d22	0.49485117
7	0xbeac8ae6	-0.3369972
8	0x3e89f0d0	0.26941538
9	0xbf1a2796	-0.60216653
10	0x3ea2f734	0.31829226
11	0xbe6b65a3	-0.2298799
12	0xbef46c8e	-0.4773907
13	0x3eeeece4	0.46665108
14	0x3d2b46d4	0.041815594
15	0x3f10b2c9	0.56522804
16	0xbf0c70d6	-0.54859674
17	0xbf025575	-0.5091165
18	0xbec0c424	-0.37649643
19	0xbea7738e	-0.3270535
20	0x3f14b9f2	0.5809623
21	0x3f05266f	0.5201177
22	0x3f03598a	0.513085
23	0xbf042159	-0.51613384
24	0xbefa5c04	-0.48898327
25	0xbef96bfa	-0.48715192
26	0x3ed673f6	0.41885346
27	0x3f217586	0.6306995
28	0xbe8fb2b0	-0.28066015
29	0xbef4b02c	-0.47790658
30	0x3f0fdfcd	0.5620087
31	0xbe36d476	-0.17854485
32	0xbec5d2e8	-0.3863747
33	0xbed8c3d5	-0.42336908
34	0xbee49303	-0.4464341
35	0xbea48c0c	-0.32138097
36	0xbf0d31a5	-0.55153877
37	0xbef4c2dc	-0.47804916
38	0xbed08883	-0.4072915
39	0x3f1dad53	0.61592597
40	0xbeda9745	-0.42693534
41	0x3ebe3e07	0.37156698
42	0xbeb1ddd7	-0.34739563
43	0xbec465de	-0.38358968
44	0xbed69408	-0.41909814
45	0x3ef10b01	0.47078708
46	0x3e1c5ecb	0.15270536
47	0xbef54c2a	-0.4790967
48	0xbef0e1eb	-0.47047362
49	0xbedf948f	-0.4366803
50	0x3dfc9363	0.12332799
51	0x3eae31e2	0.34022433
52	0xbe941907	-0.28925344
53	0x3ef0f765	0.47063747
54	0x3f0b974a	0.54527724
55	0x3eef58c5	0.46747413
56	0x3f8aeb70	1.08531
57	0x3f2a71fc	0.66580176
58	0xbebdaa8b	-0.37044176
59	0x3eeead90	0.46616793
60	0xbea23ae7	-0.31685564
61	0x3f4fdf31	0.8119994
62	0xbecb7e71	-0.39744905
63	0xbf01899e	-0.5060061
64	0xbedab5e4	-0.42716897
65	0xbd7f05d7	-0.06226143
66	0xbf395531	-0.72395617
67	0xbc1d3f47	-0.009597606
68	0x3e6a9619	0.2290882
69	0xbe37e158	-0.17957056
70	0xbf0c2cca	-0.5475584
71	0xbe8d5f62	-0.27611834
72	0xbe9de5e3	-0.30839452
73	0x3e1b21fe	0.15149686
74	0x3f0c573e	0.5482062
75	0x3edbcecf	0.4293122
76	0x3f87fdd6	1.062434
77	0xbf08bcb2	-0.53412926
78	0xbf0b0799	-0.5430847
79	0xbeba8491	-0.36429265
80	0x3f1c61d8	0.610868
81	0xbec8ccb7	-0.39218685
82	0xbe4cc19e	-0.19995734
83	0xbf15966c	-0.5843265
84	0x3eb005f3	0.3437954
85	0xbed09907	-0.4074175
86	0xbed21cf6	-0.4103772
87	0x3efb9918	0.4914024
88	0xbf0ea293	-0.5571682
89	0x3eea0783	0.45708856
90	0x3eaa856d	0.3330492
91	0x3ef53419	0.4789131
92	0xbefa3c4c	-0.48874128
93	0xbd29afb4	-0.04142733
94	0x3f292e80	0.6608658
95	0xbd832aab	-0.06404623
96	0x3eb43c57	0.35202286
97	0x3ee103c1	0.43948177
98	0x3f07216f	0.5278539
99	0x3d3454ce	0.04402619
100	0x3e8fa3b6	0.2805459
101	0xbe72c495	-0.23707803
102	0x3edafcc4	0.4277097
103	0xbe5c383a	-0.21505824
104	0x3f393a5b	0.7235467
105	0xbe53a6e2	-0.2066913
106	0x3f189506	0.5960239
107	0xbef3936b	-0.47573408
108	0xbed631c2	-0.41834837
109	0xbe6ee6ff	-0.23330306
110	0xbec34300	-0.38137054
111	0xbf0c5156	-0.5481161
112	0x3ef33e8d	0.4750866
113	0x3edfe269	0.43727425
114	0x3f46092d	0.7735775
115	0x3ef5488a	0.47906905
116	0xbeb29777	-0.34881184
117	0xbeacd301	-0.33754733
118	0x3e4252a8	0.18976843
119	0x3e344b83	0.1760693
120	0xbed7a169	-0.42115334
121	0xbf0712d7	-0.5276312
122	0x3f01fac7	0.5077328
123	0x3f0535e5	0.5203536
124	0xbeaef4db	-0.34171185
125	0xbe75f8fc	-0.24020761
126	0xbec2f42e	-0.3807692
127	0xbf0fd6fc	-0.56187415
128	0x3eff79b1	0.4989753
129	0xbed35263	-0.41273794
130	0xbe7cb4ea	-0.24678388
131	0xbec39251	-0.38197568
132	0x3eadc6e0	0.33940792
133	0x3e2be745	0.16787441
134	0x3e643a52	0.22287872
135	0xbebaa0b6	-0.36450738
136	0x3e5edae0	0.21763182
137	0x3f14a1de	0.5805949
138	0x3edfb64c	0.4369377
139	0xbf1b2804	-0.60607934
140	0xbeb626f3	-0.3557659
141	0x3f46ce7c	0.7765882
142	0x3eeae706	0.45879382
143	0xbe948ca5	-0.29013553
144	0xbdc3849c	-0.095467776
145	0xbf07ae98	-0.53000784
146	0xbf0dcc77	-0.55390114
147	0xbf045427	-0.51690906
148	0xbeb4abba	-0.35287267
149	0x3ee12fa2	0.43981653
150	0xbee5160d	-0.44743386
151	0x3f08e0fa	0.53468287
152	0xbef5ede0	-0.48033047
153	0xbe8ec891	-0.27887395
154	0xbeef02e7	-0.46681902
155	0x3e8a4c8b	0.27011523
156	0x3e8aa0db	0.27075848
157	0xbed75a98	-0.42061305
158	0x3f389761	0.72105986
159	0x3ea24e9d	0.31700602
160	0x3ed2e0cb	0.41187128
161	0x3e356f74	0.17718297
162	0x3e7cdba6	0.24693164
163	0x3f0f13c9	0.55889565
164	0x3f07a111	0.5298014
165	0x3eb05915	0.34442964
166	0xbeefe457	-0.46853897
167	0xbeefe745	-0.46856132
168	0xbef424ec	-0.4768442
169	0x3ee5ccdc	0.44882858
170	0xbf11dbaa	-0.56975806
171	0x3eebf76f	0.46087214
172	0xbea67259	-0.32509115
173	0x3f1d1b38	0.6136966
174	0xbed0eea7	-0.40807077
175	0xbe8ca335	-0.27468267
176	0x3e8a0e3b	0.26963982
177	0xbf2130f6	-0.62965333
178	0xbf094844	-0.53625894
179	0xbe6ab3e3	-0.22920184
180	0x3e932616	0.28739995
181	0xbe92cafe	-0.28670496
182	0xbef211fe	-0.47279352
183	0xbf0fc072	-0.56153023
184	0x3e81383b	0.25238213
185	0x3ef43ea5	0.47704044
186	0x3ecf16d7	0.40447113
187	0xbf109a9e	-0.5648593
188	0x3e7315d6	0.23738798
189	0x3f202472	0.6255561
190	0xbe8f7801	-0.28021243
191	0x3ee6395a	0.4496563
192	0xbede6239	-0.43434313
193	0xbee888bb	-0.45416817
194	0xbeb5c8ed	-0.35504857
195	0xbefb9aa9	-0.49141434
196	0x3e2e495e	0.17020175
197	0x3ef4c915	0.47809663
198	0x3f1c86fb	0.61143464
199	0xbef72062	-0.48266894
200	0x3ede62f9	0.43434885
201	0xbec8a16a	-0.3918565
202	0xbebf412c	-0.3735441
203	0x3ee07ad9	0.43843725
204	0x3f1e8e44	0.6193583
205	0x3f56b63c	0.8387182
206	0xbebb1903	-0.3654252
207	0xbe99024b	-0.29884562
208	0x3f15932f	0.5842771
209	0x3eca4da9	0.39512375
210	0xbf172a70	-0.5904913
211	0x3e4a79e1	0.19773056
212	0x3ef21af6	0.47286195
213	0x3ed1fe5c	0.41014373
214	0xbf01673e	-0.5054816
215	0x3ea8e565	0.32987514
216	0x3ebd0039	0.36914232
217	0x3f104481	0.5635453
218	0xbedc40da	-0.43018228
219	0xbed3c9cf	-0.41364905
220	0xbeb6f5af	-0.35734317
221	0xbf00a26f	-0.50247854
222	0x3ea4721e	0.32118315
223	0x3ef01e0a	0.46897918
224	0x3ea320fd	0.31861106
225	0x3e833bf1	0.2563167
226	0xbf06ea46	-0.5270122
227	0xbedb08db	-0.42780194
228	0xbf05e0fc	-0.52296424
229	0xbe959d1e	-0.29221433
230	0xbdb86f5a	-0.090056136
231	0xbe95b728	-0.292413
232	0xbf047955	-0.5174764
233	0xbeb0818b	-0.34473833
234	0xbf0ab43d	-0.5418127
235	0x3ea7d127	0.32776758
236	0x3f238f52	0.63890564
237	0xbbe19234	-0.006883884
238	0xbef61425	-0.48062244
239	0xbeb5c617	-0.35502693
240	0xbebf0f56	-0.37316388
241	0x3ef88da7	0.48545572
242	0xbef9b685	-0.48772064
243	0xbef76513	-0.483193
244	0x3ea404e5	0.32034984
245	0xbf07d8e8	-0.5306535
246	0xbec774cc	-0.38956296
247	0x3f3db35d	0.7410181
248	0x3d399780	0.045310497
249	0xbeded4f6	-0.4352185
250	0x3f0bd8a9	0.5462747
251	0xbefd297c	-0.49445713
252	0xbec9beb5	-0.3940331
253	0xbe9a6a75	-0.30159345
254	0x3f139452	0.57648194
255	0x3f529307	0.82255596

l3.weight f4 [1, 256]
0	0xbf3e64ad	-0.7437237
1	0xbf29bb48	-0.66301394
2	0xbf7358b6	-0.9505724
3	0xbef97688	-0.48723245
4	0xbf696b22	-0.91179097
5	0x3f588dc4	0.8459132
6	0x3f59e543	0.8511545
7	0xbf285720	-0.6575794
8	0x3fa69ac1	1.3015977
9	0xbf1af717	-0.6053328
10	0x3f549d6d	0.8305271
11	0xbf27f636	-0.65610063
12	0xbf48ddee	-0.7846364
13	0x3f9130c7	1.1343011
14	0x3d148dd9	0.03626809
15	0x3f28ee1e	0.6598834
16	0xbfb83d04	-1.439362
17	0xbf61e339	-0.8823734
18	0xbf934f94	-1.150866
19	0xbf2e54c7	-0.6809811
20	0x3ef4d159	0.4781597
21	0x3f30a84c	0.690068
22	0x3f8704a7	1.0548295
23	0xbf006fc0	-0.50170517
24	0xbfe59788	-1.7936869
25	0xbee9a1ca	-0.45631248
26	0x3fa13de0	1.2597008
27	0x3f6535f0	0.8953543
28	0xbfcfe4db	-1.6241716
29	0xbeaded9a	-0.33970338
30	0x3f3cc855	0.7374318
31	0xbf6eef92	-0.93334305
32	0xbf71390d	-0.9422768
33	0xbf25c53e	-0.6475409
34	0xbf1bd410	-0.60870457
35	0xbf513a37	-0.81729454
36	0xbf0ed43e	-0.55792606
37	0xbf0dd7ef	-0.55407614
38	0xbf13d834	-0.57751775
39	0x3f2a206a	0.6645571
40	0xbf4d5155	-0.8020223
41	0x3f440228	0.7656579
42	0xbf17276e	-0.5904454
43	0xbf820c12	-1.0159934
44	0xbf476e07	-0.77902263
45	0x3f1e6187	0.61867565
46	0x3f8a1459	1.078746
47	0xbf06bf26	-0.5263542
48	0xbf33a2a8	-0.7017007
49	0xbf172c9e	-0.59052455
50	0x401234f4	2.284482
51	0x3f2084e1	0.6270276
52	0xbf8ce734	-1.1008058
53	0x3f5512fb	0.83232087
54	0x3f80ec6a	1.0072148
55	0x3f0e6ca9	0.5563455
56	0x3f6827b5	0.9068559
57	0x3f66dcc2	0.901806
58	0xbf423080	-0.75855255
59	0x3f4fd1fd	0.8117979
60	0xbf06b44e	-0.52618873
61	0x3f938753	1.1525673
62	0xbf4c19fd	-0.79727155
63	0xbf0aa42f	-0.54156774
64	0xbf82fcbc	-1.0233378
65	0x3d048274	0.032350972
66	0xbf967b24	-1.175633
67	0x3d5c1397	0.05372962
68	0x3f6e12ae	0.9299725
69	0xbfe9600d	-1.8232437
70	0xbf8ca8fa	-1.0989068
71	0xbf51c185	-0.8193591
72	0xbf3646ed	-0.71201974
73	0x3f345541	0.7044259
74	0x3f418d5f	0.7560634
75	0x3f462d65	0.77413017
76	0x3f2cf797	0.6756529
77	0xbe9e9359	-0.30971792
78	0xbf0a2878	-0.53968
79	0xbf0d30f9	-0.5515285
80	0x3f530885	0.82434875
81	0xbf479b3b	-0.7797124
82	0xbf30d675	-0.69077235
83	0xbf91cb95	-1.1390253
84	0x3f18fec3	0.59763736
85	0xbf14a764	-0.5806792
86	0xbef574c1	-0.4794064
87	0x3f274f67	0.65355533
88	0xbefda67b	-0.49541077
89	0x3f42a3cf	0.760312
90	0x3f803897	1.001727
91	0x3f45b783	0.7723314
92	0xbeccc695	-0.39995256
93	0x3a69ff48	0.00089262845
94	0x3f11cfc2	0.5695764
95	0x3d361746	0.04445579
96	0x3f9157e5	1.1354948
97	0x3f48cb6e	0.7843541
98	0x3f46f04d	0.7771042
99	0x3fbb6e1d	1.4642979
100	0x40213159	2.518637
101	0xbf57cc59	-0.84296185
102	0x3f7fe1ef	0.9995412
103	0xbf84a820	-1.0363808
104	0x3f8eb336	1.1148441
105	0xbf816ed2	-1.0111945
106	0x3f5266e2	0.82188237
107	0xbf3550d2	-0.70826447
108	0xbed0a7f9	-0.40753153
109	0xbf3d1b74	-0.73870015
110	0xbf0417fb	-0.5159909
111	0xbf2985eb	-0.6621997
112	0x3f808171	1.0039502
113	0x3eed659a	0.46366578
114	0x3f5aaf1e	0.8542346
115	0x3f3dd29b	0.74149483
116	0xbf1ae806	-0.6051029
117	0xbf9f0efc	-1.2426448
118	0x3f9fa6e3	1.2472805
119	0x3fd3b5a4	1.6539807
120	0xbf4e1d85	-0.80513793
121	0xbf07d502	-0.530594
122	0x3f116b7c	0.56804633
123	0x3f33b57a	0.70198786
124	0xbf179fcb	-0.592282
125	0xbf88a1fd	-1.0674435
126	0xbfc117e8	-1.5085421
127	0xbed0755c	-0.40714538
128	0x3f2fa4c6	0.686108
129	0xbe9d2188	-0.30689645
130	0xbf9743e7	-1.1817597
131	0xbf9f4637	-1.2443303
132	0x3f1c0622	0.6094686
133	0x3fb75b20	1.4324684
134	0x3f4749b2	0.77846825
135	0xbf998542	-1.1993792
136	0x3f86a671	1.0519544
137	0x3f3a6a7c	0.7281873
138	0x3f820e7f	1.0160674
139	0xbf5239b4	-0.821193
140	0xbf14290e	-0.57875144
141	0x3f413cd3	0.75483435
142	0x3f10bfb3	0.5654251
143	0xbf2ed5ca	-0.68294966
144	0xbfea8560	-1.8321953
145	0xbee03c00	-0.43795776
146	0xbf0e6321	-0.5562001
147	0xbfcd0b31	-1.601904
148	0xbfbb3a0b	-1.4627088
149	0x3f4533d5	0.77032214
150	0xbeefe8a7	-0.46857187
151	0x3f0f0d37	0.5587954
152	0xbf4abbe6	-0.7919296
153	0xbf870013	-1.0546898
154	0xbec850b5	-0.39124075
155	0x3fbcced8	1.4750624
156	0x3f85f7cb	1.0466245
157	0xbf32ff7a	-0.69921076
158	0x3f630c7f	0.8869094
159	0x3f5bcf12	0.8586284
160	0x3f3d7191	0.74001414
161	0x3faee14f	1.3662509
162	0x3fb5d221	1.4204751
163	0x3f965c2f	1.1746882
164	0x3f65b3e9	0.89727646
165	0x3f82db65	1.0223204
166	0xbecf0f22	-0.40441233
167	0xbf8d40d7	-1.1035413
168	0xbf83a841	-1.0285722
169	0x3f342c18	0.7037978
170	0xbf4674ab	-0.7752177
171	0x3f8db794	1.1071649
172	0xbf21d348	-0.63213015
173	0x3f5c60c5	0.8608516
174	0xbf11a039	-0.56885105
175	0xbf2a74be	-0.66584384
176	0x3f500ad1	0.81266505
177	0xbed56e42	-0.41685683
178	0xbf78f37a	-0.97246516
179	0xbf482276	-0.78177583
180	0x3f089669	0.5335451
181	0xbf92819f	-1.1445807
182	0xbf1e3932	-0.61806023
183	0xbfb11161	-1.3833429
184	0x3f5cbbc9	0.8622404
185	0x3f26b61f	0.65121645
186	0x3f48d8dc	0.784559
187	0xbf16e799	-0.5894714
188	0x3f49634f	0.7866716
189	0x3f42ffb4	0.7617142
190	0xbfb829d0	-1.438776
191	0x3f24c9f0	0.6437063
192	0xbf3cba79	-0.73722035
193	0xbf35f969	-0.71083695
194	0xbfa9557a	-1.322921
195	0xbf571d6b	-0.84029263
196	0x3f442c22	0.7662984
197	0x3f59d4c6	0.8509029
198	0x3f511eb1	0.81687456
199	0xbf0d1498	-0.5510955
200	0x3f41c2c4	0.75687814
201	0xbf45f02a	-0.77319586
202	0xbf38e6c0	-0.72227097
203	0x3f20d08a	0.62818205
204	0x3f90faa7	1.1326493
205	0x3f59de40	0.8510475
206	0xbf577181	-0.8415757
207	0xbfdbbfd7	-1.716792
208	0x3f46b009	0.7761236
209	0x3f610860	0.87903404
210	0xbf41c0ae	-0.7568463
211	0x3f6b8158	0.9199424
212	0x3f5e6621	0.86874586
213	0x3f58f42a	0.84747565
214	0xbf16d35f	-0.58916277
215	0x3f9d4a1d	1.2288243
216	0x3fde6731	1.7375242
217	0x3f36b6d0	0.713727
218	0xbf194ecc	-0.5988586
219	0xbf156839	-0.58362156
220	0xbf304e39	-0.6886936
221	0xbf107fd2	-0.5644504
222	0x3f674f29	0.90355164
223	0x3f36bee3	0.7138502
224	0x3f8ce994	1.1008782
225	0x3f6169d8	0.8805213
226	0xbf2c6e98	-0.6735625
227	0xbf23b2fc	-0.63944983
228	0xbf753a0e	-0.9579171
229	0xbf27c698	-0.65537405
230	0xbfc21d93	-1.5165275
231	0xbfb9d9f3	-1.4519638
232	0xbf7eb6cb	-0.9949767
233	0xbecf9759	-0.40545157
234	0xbf374b81	-0.71599585
235	0x3f8a80bc	1.0820537
236	0x3f71c868	0.9444642
237	0x3fd2fe68	1.6483889
238	0xbf040b83	-0.51580065
239	0xbf0a439e	-0.54009426
240	0xc032510a	-2.7861962
241	0x3f56d517	0.839189
242	0xbf3b7820	-0.7323017
243	0xbedc7db3	-0.4306465
244	0x3f81e976	1.0149372
245	0xbf84e69c	-1.0382876
246	0xbfd848e3	-1.6897243
247	0x3f7b4e49	0.9816633
248	0x3ce949c3	0.028477555
249	0xbf515b7c	-0.8178022
250	0x3f2dac4d	0.67841035
251	0xbf0055ad	-0.5013073
252	0xbf25734d	-0.6462906
253	0xc031700e	-2.7724643
254	0x3f2b9f1a	0.67039645
255	0x3f81f0c6	1.0151603

l4.weight f4 [256, 32]
0	0xbf264a52	-0.64957154
1	0xbe0532ca	-0.13007656
2	0x3ebc8d4e	0.36826557
3	0xbeba2efa	-0.36363965
4	0x3e19e6e4	0.15029484
5	0xbf6512ee	-0.8948201
6	0xbe0fa236	-0.14026722
7	0xbf931157	-1.1489667
8	0x3f113501	0.567215
9	0x3f070a70	0.527503
10	0x3ebf5335	0.3736817
11	0x3cbdbdc9	0.023161786
12	0x3e1d3c62	0.15355065
13	0x3d85c2b1	0.06531275
14	0xbebd1d85	-0.36936584
15	0xbe8647e5	-0.26226726
16	0xbf577f63	-0.8417875
17	0xbe60c848	-0.21951401
18	0xbef1324b	-0.47108683
19	0xbb78ba97	-0.0037953013
20	0x3d911284	0.0708361
21	0x3e21bbe7	0.15794335
22	0xbf289e4a	-0.6586653
23	0xbd6a0e58	-0.057142586
24	0x3e946dc7	0.28990003
25	0xbee70e45	-0.45128074
26	0x3d9aa3d1	0.07550777
27	0xbd710ebd	-0.058851946
28	0x3daceb8c	0.084433645
29	0x3d3129e1	0.04325283
30	0xbe1f5a47	-0.15561782
31	0x38ba1b48	8.874253e-05
32	0xbf412dfc	-0.7546079
33	0xbe2522fe	-0.1612663
34	0xbea93c90	-0.33054018
35	0x3e64fefe	0.22362897
36	0x3c058010	0.008148208
37	0xbedfcd28	-0.4371121
38	0xbe8d50d2	-0.27600724
39	0x3fa0c379	1.2559654
40	0x3ea1cdb6	0.31602257
41	0x3dd0080d	0.101577856
42	0x3e8c6905	0.27423874
43	0xbea6efce	-0.3260483
44	0x3e0da233	0.13831405
45	0xbe1c6c08	-0.15275586
46	0xbeae0d74	-0.3399464
47	0xbf124260	-0.5713253
48	0x3ea92099	0.33032683
49	0xbe8c2c74	-0.27377665
50	0xbe8cf713	-0.27532253
51	0xbd60b609	-0.054861102
52	0x3d879bae	0.066214904
53	0xbee30487	-0.44339392
54	0xbe4de0c3	-0.20105271
55	0x3e8532c0	0.26015282
56	0xbe2f02d6	-0.17090926
57	0x3e531272	0.20612505
58	0x3e03bdd9	0.1286539
59	0xbd8dc29f	-0.06921887
60	0xbd1ed6de	-0.038779132
61	0x3e093b65	0.13401563
62	0xbdc3c956	-0.09559886
63	0xbcb15344	-0.02164615
64	0xbea7c770	-0.32769346
65	0x3da50fe5	0.08059672
66	0x3e9912c9	0.29897144
67	0xbedf96ec	-0.43669832
68	0x3df908f2	0.12159909
69	0xbeffd937	-0.4997041
70	0xbeab4b34	-0.33455813
71	0xbf92898c	-1.1448226
72	0xbf11e60e	-0.5699166
73	0xbd9632e0	-0.073339224
74	0xbec9423b	-0.39308342
75	0x3dba1b35	0.090872206
76	0xbea6b953	-0.32563266
77	0x3d0d5261	0.03450239
78	0xbe84a12c	-0.25904214
79	0x3d24fa87	0.040277984
80	0xbf3dd6f5	-0.74156123
81	0xbc9715b1	-0.01844296
82	0xbeb67b7e	-0.35641092
83	0x3d94982b	0.07255586
84	0xbe344ddf	-0.1760783
85	0xbf1b155c	-0.60579467
86	0xbd3a24eb	-0.045445364
87	0xbebee240	-0.3728199
88	0x3ed10400	0.40823364
89	0x3ea1ac9d	0.31577006
90	0xbd612adf	-0.054972526
91	0x3d342d97	0.04398879
92	0xbd2503d1	-0.040286843
93	0xbd8f573a	-0.06999059
94	0x3d940be6	0.07228832
95	0xbcf733bf	-0.030176042
96	0x3f3e17e5	0.7425521
97	0x3dedb11f	0.11606049
98	0x3dd6a1b8	0.10480064
99	0x3dcf3844	0.10118154
100	0x3de85d6a	0.11345942
101	0x3f8bb50b	1.0914625
102	0xbd6cd1fa	-0.057817437
103	0x3eefb50d	0.46817818
104	0x3ea36d9d	0.31919566
105	0xbe608c78	-0.21928585
106	0xbd0135e5	-0.03154554
107	0x3d9b87dc	0.075942725
108	0xbce0ca98	-0.027440354
109	0x3c13e03f	0.009025632
110	0x3d35e7fa	0.044410683
111	0x3ea9bff6	0.33154267
112	0xbd93d832	-0.0721897
113	0x3e11cb8c	0.14237803
114	0xbd881b40	-0.066458225
115	0x3e313f46	0.17309293
116	0x3cbad20b	0.022805234
117	0x3e7b500a	0.24542251
118	0x3dfc55ef	0.12321078
119	0x3ba07eff	0.0048979516
120	0x3e965dd5	0.29368463
121	0xbf1b388d	-0.60633165
122	0x3c8e2ef4	0.017356373
123	0x3d2d0610	0.04224211
124	0xbdc11893	-0.09428515
125	0x3e04e6fe	0.12978742
126	0xbdb10968	-0.08644372
127	0xbdfef3a0	-0.124488115
128	0xbedef6ed	-0.43547764
129	0xbb299f13	-0.002588217
130	0xbdf1e661	-0.118115194
131	0xbf1708a6	-0.5899757
132	0x3a1a09ee	0.00058761134
133	0xbf169802	-0.58825696
134	0xbeaeda1d	-0.34150782
135	0xbeaf16cb	-0.34197077
136	0x3dfff935	0.12498704
137	0x3e52e619	0.20595588
138	0xbe7924db	-0.24330465
139	0xbae689db	-0.0017588692
140	0x3edb828b	0.42873034
141	0xbdb5ad35	-0.08870927
142	0x3cc24226	0.023713183
143	0xbc025e7b	-0.007957096
144	0xbf02b056	-0.5105032
145	0x3ddca9b5	0.107745565
146	0xbab05477	-0.0013452907
147	0xbf064088	-0.52442217
148	0xbbde1471	-0.006777339
149	0xbecbb842	-0.39789015
150	0xbeb2a6bc	-0.34892833
151	0xbe5139a9	-0.20432152
152	0x3ef16df1	0.4715419
153	0x3c3ae436	0.011406949
154	0xbdf97abe	-0.12181614
155	0xbe5271fe	-0.20551297
156	0x3da8312f	0.08212506
157	0xbe337e3c	-0.17528623
158	0x3d61fa6a	0.055170454
159	0x3d9894f9	0.07450289
160	0xbef7ae31	-0.48375085
161	0x3e1864ad	0.14882155
162	0xbf183c09	-0.59466606
163	0x3f20ff6e	0.62889755
164	0xbd9eb1d3	-0.07748761
165	0x3efdb486	0.4955179
166	0xbf0398ff	-0.5140533
167	0xbee63027	-0.44958612
168	0xbf3250a1	-0.6965428
169	0xbe8ae81a	-0.27130204
170	0xbf1d354c	-0.6140945
171	0xbd20a528	-0.039220005
172	0xbeffaf40	-0.49938393
173	0xbe0291b4	-0.12750894
174	0x3ea5a64c	0.32353437
175	0x3cbb51fe	0.022866245
176	0x3ec228bd	0.37921706
177	0xbcf7ebfd	-0.030263895
178	0xbd9d8d74	-0.07692996
179	0xbdd553cc	-0.104163736
180	0x3b73c7ff	0.0037198064
181	0xbe18d362	-0.14924386
182	0x3e5a7d7c	0.21336931
183	0x3e1e1377	0.15437113
184	0x3e06fa5a	0.13181439
185	0xbd757701	-0.059927944
186	0x3cc703ac	0.024293743
187	0xbd17dd11	-0.03707606
188	0xbdd9c157	-0.1063258
189	0xbc06b1bf	-0.008221089
190	0x3cc6fd63	0.024290746
191	0xbd849fb5	-0.06475774
192	0x3f19a41e	0.6001605
193	0xbe05ca6c	-0.13065499
194	0x3d0311a4	0.031999245
195	0xbf4324f7	-0.7622828
196	0xbdfd5bef	-0.123710506
197	0xbc84c74d	-0.016208315
198	0x3ed1c6e8	0.40972066
199	0xbfb88a5a	-1.4417222
200	0x3ebdf87f	0.3710365
201	0x3f1517bb	0.58239335
202	0xbe5472e9	-0.2074696
203	0xbdd80bd8	-0.10549134
204	0xbecbc3a0	-0.39797688
205	0xbe182334	-0.14857179
206	0x3de59b63	0.11211278
207	0xbde45b7e	-0.11150263
208	0xbe504337	-0.2033814
209	0x3dd766a3	0.10517623
210	0xbf0ba315	-0.5454572
211	0x3db9aa1d	0.0906565
212	0xbd511874	-0.05104871
213	0x3dcb9d20	0.099420786
214	0xbeb79778	-0.3585775
215	0xbea28887	-0.31744787
216	0xbe673656	-0.22579321
217	0x3d24fdcd	0.040281106
218	0x3e22bc6d	0.15892191
219	0x3cd18daa	0.025580246
220	0xbe002d7d	-0.12517352
221	0xbdffe4f5	-0.12494842
222	0xbdfc309f	-0.12313961
223	0x3e265f5a	0.16247311
224	0x3f1bf540	0.60921097
225	0xbd3c98be	-0.046044104
226	0x3d5171fe	0.051134102
227	0xbfb11c3c	-1.3836741
228	0x3e16c348	0.14722931
229	0x3f80a496	1.0050228
230	0xbe444925	-0.19168527
231	0xbfb5b435	-1.419562
232	0x3c825db3	0.01591382
233	0xbe9c3f2c	-0.30516946
234	0x3dc10da7	0.09426432
235	0x3e5be093	0.21472387
236	0xbea70cae	-0.3262686
237	0xbe5f10d7	-0.21783768
238	0x3f0bb9e4	0.5458052
239	0xbe1a4688	-0.15065968
240	0xbce53d75	-0.027983407
241	0xbe2aa8e9	-0.16665997
242	0x3e0b7d5f	0.13622044
243	0xbe0523b2	-0.13001898
244	0xbe639d04	-0.22227865
245	0xbe8f46b2	-0.27983624
246	0xbdd6948a	-0.1047755
247	0x3da37459	0.07981176
248	0xbe953e3f	-0.29149053
249	0xbda782a9	-0.08179218
250	0xbe410357	-0.1884893
251	0x3dd9591f	0.106127016
252	0xbcb6c056	-0.02230851
253	0xbd2248bf	-0.039620157
254	0xbdd886a2	-0.10572554
255	0x3c89583d	0.016765708

l4.bias f4 [256]
0	0x3d411c30	0.047146022
1	0xbeb5c0a4	-0.35498536
2	0x3ecb8760	0.3975172
3	0x3dca8d69	0.09890253
4	0xbda1b9b6	-0.0789675
5	0xbf04351d	-0.51643544
6	0x3e5e0362	0.21680978
7	0x3d1ee181	0.038789276
8	0xbe0c5771	-0.13705231
9	0xbeb3f49e	-0.35147566
10	0xbe31c228	-0.17359221
11	0xbe377602	-0.1791611
12	0xbd8b2425	-0.067940034
13	0xbf2601fc	-0.6484678
14	0x3bbd4fc0	0.005777329
15	0xbf0c9dc4	-0.5492823
16	0x3daaadcc	0.083339304
17	0x3e35d8e5	0.1775852
18	0xba9d65e6	-0.0012008518
19	0xbe55163d	-0.20809264
20	0x3d6a27fe	0.057167046
21	0xbe1a346f	-0.15059064
22	0xbe80b552	-0.25138336
23	0xbe9a8213	-0.30177364
24	0x3ddba603	0.107250236
25	0xbe8d03f7	-0.27542087
26	0xbdfd5e91	-0.12371553
27	0xbdb57a9e	-0.08861278
28	0x3dc9ca62	0.098530546
29	0xbd282302	-0.04104901
30	0xbeb823e6	-0.35964888
31	0x3eac3973	0.3363758
32	0xbe34c2d6	-0.17652449
33	0xbe0bb369	-0.13642658
34	0xbeb806e9	-0.35942772
35	0xbeaefd1f	-0.3417749
36	0x3e2171c4	0.15766054
37	0xbe9e126b	-0.30873427
38	0xbefb7b96	-0.49117726
39	0xbe94e280	-0.29079056
40	0xbda31509	-0.079629965
41	0xbf0352ff	-0.51298517
42	0xbd4d124a	-0.05006627
43	0xbef9e602	-0.48808295
44	0xbe8cb51f	-0.27481934
45	0x3e0686a6	0.13137302
46	0xbe7cbf4d	-0.2468235
47	0xbdbee5e8	-0.09321195
48	0xbed5f79f	-0.41790482
49	0xbd9ac816	-0.075576946
50	0xbb84743f	-0.004042178
51	0x3ed1b377	0.40957233
52	0xbe33258f	-0.17494796
53	0xbf0457ac	-0.51696277
54	0xbeb7d6ee	-0.35906166
55	0x3cf5f750	0.030025154
56	0xbd57029a	-0.052492715
57	0xbe188a93	-0.14896612
58	0xbedbbbd6	-0.42916745
59	0xbe858aa9	-0.26082352
60	0xbcbe2f0a	-0.02321579
61	0xbf1ac485	-0.60456115
62	0x3cadb09e	0.021202382
63	0x3f0aa6d3	0.54160804
64	0xbea02044	-0.31274617
65	0xbe3950b2	-0.18097189
66	0xbd3c23ed	-0.0459327
67	0xbc9e2a1b	-0.019307187
68	0xbd9d1803	-0.076705955
69	0x3e1c22e0	0.15247679
70	0xbeafcb11	-0.34334615
71	0x3e07e12e	0.13269493
72	0x3e2c2dce	0.16814348
73	0x3c41e91b	0.011835362
74	0xbe294632	-0.16530684
75	0x3d9910c2	0.074738994
76	0xbdc435c4	-0.095805675
77	0x3e3015fa	0.17195883
78	0x3ee0495e	0.43805975
79	0x3de5df5e	0.112242445
80	0x3dbf4fdc	0.09341404
81	0xbe3b8571	-0.18312623
82	0x3eeaebb8	0.45882964
83	0x3d2c48d4	0.04206164
84	0xbe98bed7	-0.298331
85	0xbe2cc1b3	-0.16870765
86	0x3e5c6903	0.21524434
87	0x3e3f01d8	0.18653047
88	0xbf024eff	-0.5090179
89	0xbea605c4	-0.32426274
90	0xbe9f60f6	-0.31128663
91	0xbed8b899	-0.42328337
92	0x3ed2ebd8	0.4119556
93	0xbdc87293	-0.09787478
94	0xbe84bcc0	-0.25925255
95	0x3ec8cfb3	0.39220962
96	0xbed6c127	-0.4194424
97	0xbf2311b8	-0.6369891
98	0x3b8fe57f	0.0043913717
99	0xbe8b1812	-0.27166802
100	0xbcae45cf	-0.021273522
101	0xbe66a9db	-0.22525732
102	0xbe8b5c35	-0.27218786
103	0xbd39fac2	-0.045405157
104	0xbe5e0eea	-0.21685377
105	0x3e674ad7	0.22587143
106	0xbd44ee83	-0.048079025
107	0xbd1fdc86	-0.039028667
108	0x3ebd84a0	0.37015247
109	0xbdd2dc46	-0.1029592
110	0x3dbe05e1	0.09278465
111	0xbf01cfb7	-0.5070757
112	0xbd56e61b	-0.05246554
113	0x3c28e9ef	0.01030968
114	0x3eae4508	0.34037042
115	0xbecd0182	-0.40040213
116	0xbe6ef64a	-0.2333614
117	0x3e09f648	0.13472855
118	0x3de39218	0.111118495
119	0x3ebfb104	0.3743974
120	0x3e5cf687	0.21578418
121	0xbed6cf47	-0.41955015
122	0xbe00c864	-0.12576443
123	0xbe4a587d	-0.19760318
124	0xbdbf14da	-0.09330149
125	0x3eb3f404	0.35147107
126	0x3db83c03	0.08995821
127	0x3df99c16	0.12187974
128	0x3e2a7b7c	0.16648668
129	0x3e49ea30	0.19718242
130	0xbe7126c6	-0.23549947
131	0xbec7bd48	-0.39011598
132	0x3e83f813	0.25775203
133	0xbe998354	-0.29983008
134	0xbea8ac46	-0.32943934
135	0xbebe3a37	-0.3715379
136	0x3e874507	0.2641985
137	0xbef3a4dd	-0.47586718
138	0x3ee61ff0	0.4494624
139	0x3e2b1b9c	0.16709751
140	0x3e59157e	0.21199605
141	0x3e8f092d	0.27936688
142	0x3dfd2b1c	0.12361738
143	0xbe9398ee	-0.28827614
144	0x3e158c80	0.14604378
145	0xbd1ce118	-0.038300604
146	0xbc89c5d9	-0.016817974
147	0xbe16864b	-0.14699666
148	0xbe107fc9	-0.14111246
149	0xbe0ed7dc	-0.13949531
150	0xbeafc6db	-0.34331402
151	0x3ec39566	0.3819992
152	0xbe73a3fc	-0.23793024
153	0x3cd2f464	0.0257513
154	0x3e62ece3	0.22160678
155	0xbe21c388	-0.15797246
156	0x3da4b2e8	0.08041936
157	0xbef3c634	-0.47612154
158	0x3e1c07e0	0.15237379
159	0x3e3071b7	0.17230879
160	0xbd9c4f36	-0.07632296
161	0xbea6b6c8	-0.32561326
162	0xbd214461	-0.03937185
163	0x3db28c3c	0.08718154
164	0xbed9a410	-0.42507982
165	0xbe502e4e	-0.20330164
166	0xbdbf5bfd	-0.09343717
167	0xbe882a0b	-0.26594576
168	0x3e10f937	0.14157568
169	0xbe54b77f	-0.20773123
170	0x3defb72b	0.117048584
171	0xbe4adc83	-0.19810681
172	0xbebf6687	-0.3738291
173	0x3dcaf36e	0.09909712
174	0xbe64a64d	-0.22329064
175	0xbe6d99f1	-0.23203255
176	0xbe274d2d	-0.16338034
177	0x3e9663cf	0.29373023
178	0x3c8b9723	0.017039841
179	0xbe948db4	-0.2901436
180	0xbdde2376	-0.108466074
181	0xbe093078	-0.13397396
182	0xbdc2b870	-0.09507835
183	0x3e82ee54	0.25572455
184	0x3e3e2332	0.18568113
185	0xbeae2d4e	-0.3401894
186	0xbe3943ea	-0.18092313
187	0xbe52c302	-0.20582202
188	0xbee9aacf	-0.4563813
189	0xbec936f6	-0.39299744
190	0xbeced8bc	-0.4039973
191	0xbec3f37e	-0.38271707
192	0xbdc9d70a	-0.098554686
193	0x3da9ad55	0.082850136
194	0x3c5cfd86	0.013488179
195	0x3c8e64d8	0.01738207
196	0xbe306c24	-0.17228752
197	0x3f008574	0.50203633
198	0xbf0f2818	-0.55920553
199	0x3cd401dc	0.025879793
200	0xbe93256b	-0.28739485
201	0x3e0fe394	0.14051658
202	0xbdb7cf65	-0.08975104
203	0xbe3d6055	-0.18493779
204	0xbe26ad58	-0.16277063
205	0x3df6d217	0.1205179
206	0xbe9de8b8	-0.30841613
207	0xbe9a6c4b	-0.30160746
208	0xbbf5e1ac	-0.007503709
209	0xbd668165	-0.056275744
210	0xbec797f8	-0.3898313
211	0xbdd5d3ff	-0.10440826
212	0x3db86ff0	0.090057254
213	0x3e9b7b2a	0.30367404
214	0xbe2113f4	-0.15730268
215	0xbe8e2767	-0.27764437
216	0xbdf9a6a3	-0.121899866
217	0xbeb1dfe0	-0.34741116
218	0xbde37a0a	-0.111072615
219	0x3e808b78	0.25106406
220	0xbf063aaa	-0.52433264
221	0xbe853d35	-0.2602326
222	0xbedad8a5	-0.42743412
223	0x3d676914	0.056496695
224	0x3e5e50bc	0.21710485
225	0xbe5850ae	-0.21124527
226	0xbf1c5862	-0.6107236
227	0x3edc0a5d	0.42976657
228	0xbef9ff02	-0.48827368
229	0xbeed3678	-0.4633062
230	0xbd44350c	-0.047902152
231	0xbde8e444	-0.11371663
232	0x3d6451dd	0.055742133
233	0xbecb1382	-0.3966332
234	0xbf0c42c7	-0.54789394
235	0xbe83a67f	-0.25712964
236	0xbe676079	-0.22595395
237	0xbeb77072	-0.35827976
238	0x3e7c3f29	0.24633469
239	0xbddaaec3	-0.106778644
240	0xbebd3b7e	-0.3695945
241	0xbecdd1f4	-0.40199244
242	0x3e39cf01	0.18145372
243	0xbef242f9	-0.4731672
244	0x3d93797b	0.07200905
245	0x3e5abf39	0.21362008
246	0xbee1b830	-0.44085836
247	0xbe424c5c	-0.18974441
248	0xbec7a398	-0.38992
249	0xbe1964f3	-0.14979915
250	0xbea7a793	-0.32745036
251	0xbeb6c805	-0.35699478
252	0xbe27f008	-0.16400158
253	0xbe8d63e4	-0.27615273
254	0x3e96e74e	0.29473346
255	0x3ee47cba	0.4462641
