Project/Ming_Jiang_1016239_Gengcong_Yan_1009903_Project/Part1/trained agents/td3/HalfCheetahBulletEnv-v0_TD3_3_1637055419_td3.pth (torch, 898095 bytes, 16 tensors)

l1.weight f4 [256, 32]
00000000: ef51 c03f a305 aebd 1154 ca3d 2722 ff3e
00000010: 681c b7bc 70d9 6f3f 8742 e33e 7d4e ae3f
00000020: 2df4 3d3e f671 c83e 5e25 1a3e 97b2 ec3e
00000030: aa14 a53d d05d 27bd 7a67 8ebe 3684 c7be
00000040: eab7 373e f905 0bbd 7748 473e c3f6 a83e
00000050: 3403 993c bf13 363d 633e bebd 4ebc 19bd
00000060: 9ec4 903e ef93 79be c910 d13d 9eff edbb
00000070: 1109 8dbb 0f11 5abd 147a 563d 3fb8 5f3d
00000080: b90e fa3d f900 a03d e5f2 a33d e54f 2a3e
00000090: 4560 17be c883 b1bf a0ef 5abe f2f7 4c3f
000000a0: 8ddb fb3e e978 d73e 042c da3e 6718 40be
000000b0: e44b 863e d062 2dbc 335d 5f3e 4cdb 073f
000000c0: c591 843e f02d 833e 02ae f8be 5e09 55be
000000d0: dcb1 043d 47fe 22be fd3e 2fbe 6d98 373e
000000e0: 80f0 7bbf d8a7 d1bd aee0 83bc 3042 79bd
000000f0: d2c4 18bd 556c a4bc 4eb9 803b 9c8b 02be
00000100: a4df 993f 8b6e e53d 12f3 e73d 26eb b1be
00000110: a3b4 aebc fd42 f8be 2fd4 1e3d c9ba 013f
00000120: 1ece 0a3f 1cff 4b3f 4823 173f 23dc c73e
00000130: 71c9 b8be 2b5c 51bd e4e2 803d 3672 1b3e
00000140: 3c7c 37be 162f 9a3d 4400 a9be 2a90 783d
00000150: ba51 1f3e 05cb 6fbe 50e7 dcbe ac11 963d
00000160: 3151 9a3d b828 03be f269 dc3d 8a65 5b3d
00000170: 402c 46bd 7d82 843d cb5b 1b3d 14a1 423c
00000180: 58ec e1be a691 0cbe 3f63 d63e dcfc 4ebe
00000190: d94c 8c3d 31af d7be 8f65 963e 5d19 56bf
000001a0: 469b ebbc aa1a e0bc 1297 b53d eb5d f33d
000001b0: 2f96 ccbd acad 933d 29ba aabe 972b 06be
000001c0: 65c6 fabd a2a7 ba3d 2dec 913c 9477 253e
000001d0: 71c6 983d c290 55bb f9e8 0dbe b284 113e
000001e0: 2434 2bbe e759 9dbe 3043 cebc 4a1c c73b
000001f0: 4f74 67bc 7f42 1abe a003 be3d 0790 683d
00000200: d415 c53e e9bb 81bd 4744 d8be 18ac 5dbb
00000210: 24a0 aabd 3d71 003f f1a0 85be 460f f7bd
00000220: 61df e33b eb5a 3c3e d462 3b3e b18a 5b3f
00000230: dbd6 363e a592 e43e 71a1 92bf 3677 06bf
00000240: 6b36 dabe e62e e63c ce50 133e a735 ad3d
00000250: 595b 33bf 646b 18bf 4251 953e cef4 223f
00000260: e059 17bf b7cb c8bf 4729 423e 665b 6b3e
00000270: 9a27 ea3c 9a56 e63d 377a 903e 3664 c0bb
00000280: 2bee 8f3f bdc1 17be e85b 71be 4a19 cabd
00000290: 2423 2b3d 1aec 47bf 2e2a 36be e940 4fbe
000002a0: f469 fdbe df3f 683e f85e 123f 40f1 9dbe
000002b0: f5c5 96bd 67f1 91bd 23f5 e8bd bb64 64be
000002c0: 19a3 ab3e 2a25 d23c 766c a63e 04fe 1a3e
000002d0: c792 4abe a772 5cbe 2211 adbe 598b 4dbe
000002e0: b4cb 89bf 9d4f 2d3f e43e b43b 93ae 70bd
000002f0: a511 9bbd 6f2f 7bbd 63d7 69bb 1e9f b13d
00000300: f973 be3e 33db e6bd dba9 843e 98c1 f0bf
00000310: 8db2 e0bd ec0d 7c3f 4515 0f3c 81bd 96be
00000320: 53b5 ac3e 29db b03f bc93 9cbd 1838 123f
00000330: e06d 36bd c5d0 1e3d e74e 093f 2a73 7e3e
00000340: a47d 9d3e e249 0f3e cb07 50be af32 503d
00000350: 715c 12be b3f6 b03d 25ca 833d bd53 63bd
00000360: d1b5 d63d 4db3 a4be 14f9 313d 3d18 6b3d
00000370: 8068 e53c c1b2 cfbc b316 c83c dafb 153c
00000380: 68ef 633e 5847 fa3c 6d59 eebc e11f a8bf
00000390: 4514 f3bc fe66 a0bf 660b 8dbe 655b 2dbf
000003a0: c617 9d3e 25fe 0b3f cca6 313f 3252 713d
000003b0: 0d1c 82be 6549 6f3d 81fa b4be 4154 9abe
000003c0: a1b7 853e dbd5 13be 7b0e 453e c88b 70be
000003d0: 8e0c d23d b4f3 bf3d 288f f23e 2b01 913c
000003e0: 4cbd 8c3e ac40 7e3e 382d 603c 55ca b53d
000003f0: 46dd b9bc 38f3 d4bd f639 bd3c daf5 6b3b
1.5025004 -0.08497169 0.09879316 0.49830744 -0.022352412 0.9369116 0.44386694 1.3617703
0.18550177 0.39149445 0.15053317 0.46230003 0.08060582 -0.04086095 -0.2781332 -0.38968056
0.17941251 -0.033941243 0.19461237 0.33000764 0.018678285 0.044452425 -0.09289243 -0.037533097
0.28275007 -0.24372838 0.1020828 -0.007263138 -0.0043040593 -0.053238925 0.052362517 0.05461907
0.122098394 0.078126855 0.08005313 0.1663204 -0.14782818 -1.3868341 -0.21380472 0.80065835
0.4919094 0.42084435 0.42611706 -0.18759309 0.26229775 -0.010582641 0.21812896 0.53068995
0.25892463 0.25620985 -0.48570257 -0.20804355 0.032396182 -0.15917312 -0.17113872 0.1792924
-0.9841385 -0.10237092 -0.016098347 -0.060854137 -0.037297077 -0.020071188 0.00392834 -0.12748569
1.2021375 0.11202725 0.11325659 -0.34749717 -0.021326369 -0.48488608 0.038776573 0.50675637
0.5422076 0.7968614 0.5903821 0.39035138 -0.36091188 -0.05111329 0.06293276 0.15180287
-0.17918485 0.07528512 -0.33008015 0.06068436 0.1555852 -0.2341729 -0.43145227 0.073275894
0.07535017 -0.12808502 0.10762395 0.053563632 -0.048382044 0.06470201 0.037929337 0.011879224
-0.44125628 -0.13727435 0.41872594 -0.20213646 0.06850595 -0.42125848 0.29374358 -0.8363245
-0.028760564 -0.027356464 0.08866705 0.11883148 -0.09989583 0.0721086 -0.33345154 -0.13102566
-0.12244872 0.09114005 0.017812813 0.16158897 0.07459725 -0.0032587503 -0.13858403 0.14210775
-0.16719109 -0.30732653 -0.025178522 0.0060763704 -0.014126851 -0.15064429 0.09278035 0.05677798
0.38493216 -0.06334669 -0.4223959 -0.00338245 -0.08331326 0.5017279 -0.2609935 -0.1206346
0.006954119 0.18394057 0.18299419 0.857585 0.17855398 0.4464313 -1.1455518 -0.5252565
-0.42619643 0.028098535 0.14386293 0.08457499 -0.7006126 -0.59538865 0.29163557 0.6365479
-0.59121513 -1.5687169 0.18961059 0.22984084 0.028583337 0.11246987 0.28218243 -0.005871321
1.1244558 -0.14819999 -0.23570216 -0.09868105 0.04178156 -0.7809464 -0.17789528 -0.20239605
-0.49494898 0.22680615 0.5717616 -0.30848122 -0.07361976 -0.07126122 -0.11374881 -0.2230405
0.3352287 0.025652487 0.32504624 0.15135962 -0.19782554 -0.21528111 -0.33802134 -0.20072688
-1.076529 0.67699605 0.005500661 -0.058760237 -0.07571725 -0.061324533 -0.003568136 0.08672927
0.37197855 -0.11272278 0.2591084 -1.880908 -0.10971556 0.98458743 0.008733098 -0.29441455
0.3373209 1.3816882 -0.076453656 0.5711684 -0.04453838 0.038773317 0.5363602 0.24848619
0.3075992 0.13993028 -0.20315473 0.050829586 -0.14293076 0.08640804 0.064350404 -0.05549978
0.104838975 -0.32168046 0.04345043 0.057396162 0.028003931 -0.025353791 0.024424886 0.009154284
0.22259295 0.030551597 -0.029095376 -1.3134729 -0.029672751 -1.2531431 -0.2754776 -0.6771758
0.306822 0.5468467 0.69395137 0.05891628 -0.25412026 0.058419604 -0.3534737 -0.30142406
0.2611666 -0.14437048 0.19243805 -0.23490822 0.10256301 0.093726546 0.47374845 0.017700752
0.27488172 0.24829358 0.013682656 0.088764824 -0.02268852 -0.10397953 0.023098927 0.0036004693

l1.bias f4 [256]
00000000: ca65 10bd 9df5 e8bd a778 4f3d cfde b73e
00000010: 062b f5be b795 353d 5da8 993d ee69 afbe
00000020: 3253 3cbd 1173 9ebe 1741 59bd d92f 08be
00000030: 19fd 9abe 22a6 1a3f 7907 f2be 553d 06bf
00000040: 769d cc3e fe83 8e3d 7fa7 1ebf 9b37 a43e
00000050: d42b 7f3e a218 2fbe ba46 67be d0e6 a93e
00000060: f7d8 a4be 3f34 9cbe 01c7 a7be 323e c23d
00000070: 48fe fc3e 3b4c b1be fa80 643d 0bb8 04be
00000080: 0314 ccbe f2b6 8a3e 6e7b ecbc 22e0 04bf
00000090: cac1 64be b148 1fbf 508d a2be e7e7 d0be
000000a0: 3040 12bf cb76 b2bd f948 f1be 36fa 773e
000000b0: fb68 2e3f 5d88 f33e 371e c9bd 82ed 3dbe
000000c0: ba38 8bbe 6ff6 a53e 215b ddbc db43 983e
000000d0: 7c0f 28be 8094 ffbe 02ff 663e ca3d 013e
000000e0: 5cb2 b4bd 49a8 ad3d 8998 28be 0ff5 4dbe
000000f0: 63fe 6e3e 373a 84bb 00bb adbe 6d59 12bf
00000100: c121 703d e482 603e 1ec3 aebd be32 96be
00000110: 3a3f a0be 934f 4dbe 4dc3 e93e d20e e7be
00000120: 2088 13bc fff3 5c3d ab5c 953e aa83 15be
00000130: e100 1c3f 75ae ca3e 0b4e 08be d3a6 a2be
00000140: 4c73 93be 7529 5d3d c56a ccbd 146d 893e
00000150: c6fe 04bf 298d fcbe 841a 00be 84fb 163d
00000160: f324 2ebf 7826 9a3d 87b2 a2be 48b1 6dbe
00000170: df2b 973e cc12 88be 8655 413e d0be 80be
00000180: 2985 fe3e 3043 b6be 3dd3 043f fc80 d9be
00000190: 14a1 8ebe cc5d 9abe 8431 01bf 9d64 903d
000001a0: b4ed 83be c4ea 54be 989f bebe 9380 be3e
000001b0: bedb 233c 7ddf 5a3e 87f3 043f 7984 5d3e
000001c0: 765e 1e3d 7ca5 ea3e 0085 bbbe 7db7 21bf
000001d0: 8ae2 ca3d 7468 c63e 940e 29bf 47c4 0cbe
000001e0: c6ab 2e3f 8cfd 12be 30ff e73d 0de3 0b3b
000001f0: ed49 dcbd 0314 e23e 00a2 2f3e dbba e63d
00000200: b2a9 913e 5b78 883d d148 863d 56ab aabd
00000210: a09b ebbc d33d 17bf ffda a4bd 6619 05be
00000220: 1a05 873e 2b10 5fbe d559 81be 84bd d33e
00000230: 02fd 81be ed2a 023e 2ec0 c23e 1064 6ebe
00000240: ee8d 703d f29d 613b 409c a7be 4a4e 09bf
00000250: d9cf 42be fed2 85be c333 f6be 77d4 473d
00000260: ca83 d3be c83f 913e b587 17bf b475 26be
00000270: 8643 24be 97be 93bd 9ecf 043d e2db 15bf
00000280: 20d5 b7be d61d 863e 8158 8fbe bb43 0dbd
00000290: f0d7 c2bd 249f a63e a64c c13c f664 dc3e
000002a0: b6c7 0dbf 94a1 f5be 4720 f83e b61d cebd
000002b0: de38 033e 0e3b 9c3c f251 e43c 6d1c b73b
000002c0: a5a5 4f3e bc35 02be 1606 8a3e ff3a d8be
000002d0: fab4 033e 5705 9cbe b2e6 67be ee4f 25bf
000002e0: fa89 a6be c6ea 2cbe 33dd 393e cbde 2ebe
000002f0: 497a 4f3e 0ce1 c9be fb36 b2bd c06f 8f3d
00000300: 5991 bf3c 1521 ab3e c2b5 08bf 671d a83e
00000310: 533c ee3d 00ec 79be cec6 8c3d c8d1 73be
00000320: 946a fdbe db05 be3d b435 69be f470 3abf
00000330: d6b1 7dbe 3c0c eeba f86c 25bf 605c 65be
00000340: 9880 bebe 4136 17bd df47 a73e 20c5 0dbf
00000350: 598e d9be d8aa 08bf 92b5 cf3e 91bc 6b3e
00000360: e454 b1bd 4831 75be 58d6 66be 5377 b53c
00000370: dfce 85be 6bbc 43bd bd5f 923e a3f2 323e
00000380: b5ba 36bb f2d8 6b3e f954 0a3f 56ab 81be
00000390: 784f 4b3e ec73 ba3e 36b1 f33e 3891 363b
000003a0: 120f a83e c105 3d3e 78fb db3d edf5 6dbd
000003b0: e97e 0ebe 5279 2dbe cefd cc3e 2ca4 1abe
000003c0: 89d1 b8be 4f83 0cbd 0590 aabd 3d51 e7be
000003d0: fbef 04bf 031c 0fbf 67e1 7ebe bfb4 67be
000003e0: 6ff3 c6be de56 bdbd 9bbd 19be 2c41 503e
000003f0: 0e4d cc3d a866 f8bd 8fe6 fdbe 231b abbe
-0.035253324 -0.11374972 0.050652172 0.35912177 -0.47884387 0.044332232 0.07502816 -0.34260505
-0.04597778 -0.30947164 -0.05304059 -0.13299502 -0.30271223 0.6040975 -0.47271326 -0.52437335
0.39963883 0.06958769 -0.6197433 0.32073674 0.24919063 -0.1709924 -0.22585574 0.33183908
-0.3219678 -0.3050861 -0.32769015 0.09484519 0.4941275 -0.34628472 0.055787064 -0.12960832
-0.39859018 0.270927 -0.02886745 -0.519045 -0.2233955 -0.62220293 -0.31748438 -0.40801927
-0.5712919 -0.08714064 -0.47125986 0.24216542 0.6812894 0.47564974 -0.09820216 -0.18547633
-0.27191716 0.32414576 -0.027020993 0.2973927 -0.16412157 -0.49917984 0.22558215 0.12621227
-0.08823082 0.084793635 -0.16464438 -0.20113014 0.23339228 -0.00403526 -0.33931732 -0.571677
0.05862594 0.21924931 -0.085333094 -0.29335588 -0.31298238 -0.20049886 0.45656815 -0.45128495
-0.009004623 0.05394363 0.29172263 -0.14601007 0.6093884 0.39586225 -0.13311021 -0.31767902
-0.28798902 0.053994615 -0.09981302 0.26841033 -0.51951253 -0.49326447 -0.12510115 0.036860958
-0.6802513 0.075268686 -0.3177683 -0.23212159 0.29525658 -0.2657684 0.18880281 -0.25145578
0.49710968 -0.35598135 0.51884824 -0.4248122 -0.27857268 -0.30149686 -0.5046618 0.070504405
-0.2576729 -0.20792681 -0.37231135 0.3720747 0.010001121 0.21374317 0.51934093 0.21632566
0.038664304 0.4582938 -0.36624908 -0.63170606 0.0990649 0.38751566 -0.6603787 -0.13746749
0.68230855 -0.14354533 0.1132797 0.002134505 -0.10756288 0.44155893 0.17151642 0.112661086
0.2844978 0.06663581 0.065568574 -0.08333461 -0.028760731 -0.5907871 -0.08049583 -0.1299797
0.2637108 -0.21783511 -0.2526385 0.41355526 -0.25388342 0.12711687 0.38037246 -0.23280358
0.058729105 0.0034426418 -0.32736397 -0.53635085 -0.190246 -0.26137537 -0.48086366 0.048786607
-0.41311485 0.28368974 -0.5919145 -0.16255838 -0.16041383 -0.072140865 0.03242456 -0.5853864
-0.3590479 0.26194638 -0.2799721 -0.03448842 -0.09513843 0.3254329 0.02359612 0.43045777
-0.5538286 -0.47974837 0.48462126 -0.10064261 0.12814662 0.019071128 0.027871106 0.0055881054
0.20278032 -0.1271581 0.26957768 -0.4223251 0.12862006 -0.30472824 -0.22646597 -0.6457509
-0.32527143 -0.16886434 0.18150787 -0.17077176 0.20261492 -0.3942951 -0.08701893 0.070037365
0.023384737 0.33423677 -0.5340234 0.32834932 0.116326 -0.24406433 0.068738565 -0.23810494
-0.49495375 0.092784606 -0.22774392 -0.728286 -0.2477487 -0.0018161605 -0.646194 -0.2239852
-0.37207484 -0.036916975 0.3267202 -0.55378914 -0.42491415 -0.53385687 0.40568215 0.23021151
-0.0865877 -0.2394458 -0.22542703 0.022151625 -0.26134393 -0.04778711 0.28588668 0.17475371
-0.0027882282 0.23031977 0.5403591 -0.2532603 0.19854534 0.36416566 0.4759614 0.0027857553
0.32823998 0.18459226 0.10741323 -0.05809586 -0.139156 -0.16940811 0.40037388 -0.15101689
-0.36097363 -0.034304913 -0.08328251 -0.45179167 -0.5192868 -0.5590212 -0.24890672 -0.22627543
-0.388576 -0.09245084 -0.15013735 0.20337361 0.099756345 -0.12128955 -0.49589965 -0.3341914

l2.weight f4 [256, 256]
00000000: 4de2 f53e 700e 75bc 6e63 df3d 9d3b 5d3e
00000010: 6a25 8fbf a649 cdbd 0d34 e43d 6907 703f
00000020: 8957 56be c70e 363d 907b a3be 08d5 723e
00000030: 572c 25bf e24c c2be f27d 07be b136 2ebe
00000040: eabe be3e ddf0 cdbc e86c 30be bd9a 3dbf
00000050: 04dc 08be a038 f03e d524 af3e 9200 1d3f
00000060: 3296 c2bd 8053 b23c 10fa 6abe 1da4 c73d
00000070: 8fa0 e13e 28ad 893c 8a32 e43e 358a 433e
00000080: b902 013e d552 96bd 4ec0 debd 8fd4 a3be
00000090: bc94 42bd 2cc3 253e 3788 ce3a 117a 603d
000000a0: 8463 0a3f 5649 4abe f03f 21bf 045f 06be
000000b0: 963f 10bd 1d64 94be b2cf a13e cd2d fabe
000000c0: cde8 e73e 6d4c 08be b06b 123f 4720 d9bc
000000d0: 5503 a0bd f89f 663a 589a 0cbd 8637 0b3e
000000e0: 3790 8ebd 7396 943e 9ccf 30be 41a5 80bd
000000f0: 3110 3cbe 3dcd bdbe bfab 05be 7c03 08be
00000100: 131b 0bbf f6f4 173f 5eba ff3d 4ec6 2e3e
00000110: 4e98 1dbe 5ea5 d23e d100 253c d57f cc3d
00000120: 0744 f73d a7c4 723d c3eb d83d f519 c7be
00000130: cc1a 163f 6b4e 80bc 3ed6 b63e 664b ea3e
00000140: cae5 0a3f f561 bb3e 01d8 7cbd ccef 40be
00000150: d335 183f 0f80 4abe 57d4 6ebe f413 d0be
00000160: 5f0b 993e e7e6 853e 6cc6 133f 5fe7 5e3e
00000170: 2bc9 d73e 3b5a e73b 7312 233f 3e50 0abf
00000180: 6e41 35be e6dc 7dbd ed7f c33e ae71 81be
00000190: dc87 16bd f551 bebe 9c12 44be 1703 0e3e
000001a0: 11a9 ca3e feb9 2ebf d9e5 d63e bda1 99be
000001b0: f31a 563e 60c3 ad3e 70da 4e3b 575a 19bf
000001c0: f992 063e 4588 123d b2b3 8ebe 6887 c1be
000001d0: 7266 10be d03a 71be 95a9 c9be e965 253c
000001e0: ca07 8b3d 1efe e1bd 62c2 d23d 19df 90bd
000001f0: 151b 8f3e f07a 22be 2b67 1a3d 5c53 a6bd
00000200: 1165 a43e 28af d43e 4d74 c6be 54fd 263d
00000210: 0b17 d8be 02fa 7cbe 352e 583f 74cc 80bd
00000220: 6afe 59be e883 9dbe f4aa b6be 09bb b0be
00000230: 6721 8f3e acfb 2d3f c5f6 0e3f 2a3c 4a3f
00000240: e111 093f b2c3 333e 36a2 273f f49e adbd
00000250: 8915 0c3f 4676 acbb 4d73 473f dcf9 66be
00000260: 6edc d4be 06dd f83d 87f8 a7be f7b4 323d
00000270: fbbe 32bd 04ed 37bd dfca 993e a29d 1dbe
00000280: 4256 173e a8f5 86bc ae42 cc3e cdfc 793f
00000290: 96e2 38bc 63a2 eabd aaf1 b5bd 69c0 efbd
000002a0: 413d bdbe d221 a23d d880 b73d 05d9 2f3d
000002b0: 129a ae3d 9813 bcbe 5366 76be d09e 58be
000002c0: 5c8e 303d c5e5 d4bd 3dad ee3c f71d 333c
000002d0: 6447 513e cc36 563c cc1f a1bf 9b50 43be
000002e0: 9d0b 4abe 2601 91be 70d8 bf3e c3c6 4ebe
000002f0: bfc0 d4bd eea4 eb3e e41f e63e a407 adbe
00000300: 8f73 dfbd 9d54 973e c61d 8a3e 8487 c4bd
00000310: 54c8 3ebe f67d f63e 8735 013e 5cdb 223e
00000320: 98f4 4c3e 7cdd 72be a05d b53e 3a45 9f3d
00000330: 6f75 833e 11b5 c5be 461b e7be abe6 a53e
00000340: bae7 a63e 1c85 94be 9c39 2bbe 9a77 f7bc
00000350: b2ce 58bf 60d0 643e 372e b0be 459a 993d
00000360: 8fec 0fbe f554 c83e 468d a33d 7723 90bf
00000370: 4975 c83e 4583 a83e fba6 f8be 7b57 4c3e
00000380: ff7f c2be 0869 07be bf60 0ebb cb40 c3be
00000390: a2c6 773e 76db 2fbe 26c6 ae3d 3891 fbbc
000003a0: 5056 b33e 898d 45be 7443 a53e f503 5a3e
000003b0: fca2 51bd 6c95 783e f208 813e c27c d03e
000003c0: 5b34 0f3e 9215 4a3d fd7b 93be 19f8 003f
000003d0: 81c4 babe dcde 953c 8b76 a4be 2aef 81bd
000003e0: bab7 973e 884a ffbd e813 933d 9c7d 8fbe
000003f0: b536 903e 0800 bd3e e63a 81bd 3137 19be
0.48024216 -0.014957055 0.109076366 0.21604772 -1.1183293 -0.10023813 0.111427404 0.93761307
-0.2093183 0.044447687 -0.31930208 0.23714077 -0.6452078 -0.37949282 -0.13231638 -0.1701305
0.3725503 -0.025139267 -0.17229044 -0.74064237 -0.1336518 0.469182 0.34207788 0.61328995
-0.09501304 0.021768332 -0.22946954 0.09748099 0.4406781 0.0168062 0.44569808 0.1909569
0.12598695 -0.07340018 -0.10876523 -0.31998107 -0.047505125 0.16187733 0.0015757148 0.05480391
0.540581 -0.19754538 -0.62988186 -0.13122183 -0.03521689 -0.2898263 0.3160377 -0.48863068
0.452948 -0.13310404 0.5719557 -0.026504649 -0.078131355 0.0008797641 -0.03432688 0.135954
-0.069611005 0.29021034 -0.17266697 -0.0628152 -0.18365552 -0.37070647 -0.13053797 -0.13282579
-0.54338187 0.59358156 0.124867186 0.17067835 -0.15390131 0.4114179 0.010070995 0.099853195
0.12073522 0.059269574 0.10591843 -0.3888699 0.5863464 -0.015662393 0.3571033 0.4576065
0.5425688 0.36598173 -0.061729435 -0.18841475 0.5945713 -0.19775413 -0.23323189 -0.40640223
0.29891488 0.26152727 0.5772464 0.21767949 0.42145666 0.007060317 0.63700026 -0.5402869
-0.1770074 -0.061978243 0.38183537 -0.25282043 -0.03675066 -0.37171903 -0.19147724 0.13868366
0.39582112 -0.6825255 0.41972235 -0.3000621 0.20908718 0.33938122 0.0031563304 -0.5990347
0.13142003 0.035774488 -0.27871472 -0.3779862 -0.1410158 -0.23557591 -0.39387193 0.010095098
0.06788595 -0.11034797 0.10290982 -0.070738025 0.2795035 -0.1586721 0.037696045 -0.08121368
0.32108358 0.41539884 -0.38760605 0.040768936 -0.4220508 -0.24704745 0.84445506 -0.06288996
-0.21288458 -0.307647 -0.35677302 -0.34517696 0.2795517 0.67962146 0.5584529 0.78998053
0.53542906 0.1755512 0.6548189 -0.084775835 0.5472036 -0.0052631227 0.7791031 -0.22556251
-0.41574425 0.12151532 -0.328068 0.043629613 -0.043639164 -0.04490377 0.3003759 -0.15392163
0.14778998 -0.01647456 0.39894623 0.9765137 -0.011284491 -0.11456754 -0.088839844 -0.11706621
-0.36960796 0.07916607 0.08960122 0.042931575 0.0852548 -0.367337 -0.24062471 -0.21154332
0.043104514 -0.103953876 0.02913534 0.010932437 0.2043739 0.013074588 -1.2587829 -0.19073717
-0.19730993 -0.2832119 0.37469816 -0.20193009 -0.10388326 0.4602427 0.44946206 -0.33794892
-0.10910713 0.29556742 0.2697584 -0.0959616 -0.18631107 0.48142976 0.12618075 0.15903991
0.2001518 -0.23717302 0.35422993 0.07776876 0.25675532 -0.38614705 -0.45137995 0.32402548
0.32598668 -0.29007804 -0.16721195 -0.030208398 -0.8469039 0.22345114 -0.3441026 0.07500128
-0.14055084 0.39127317 0.0798593 -1.1260823 0.3915198 0.3291265 -0.48564896 0.19955246
-0.37988278 -0.1322366 -0.0021725146 -0.3813537 0.24196866 -0.17173561 0.085338876 -0.030708894
0.3502679 -0.19292273 0.32278025 0.21290572 -0.051180825 0.2427575 0.25202137 0.40720183
0.13984816 0.049336977 -0.28805533 0.50378567 -0.36478046 0.018294744 -0.3212169 -0.06344445
0.2963236 -0.124653876 0.07181531 -0.2802552 0.28166738 0.36914086 -0.06310062 -0.1496246

l2.bias f4 [256]
00000000: f714 07bf cb48 07bf 3008 b5be 9608 a9be
00000010: a7f6 393f c60d 7cbe eb3b ed3e b4ba fdbe
00000020: 6e4a af3e 00ac 1d3f 7813 f6be 67e3 c7be
00000030: e6bf bbbe ddb2 e1be 6b03 89be bf3e 7e3d
00000040: 68e7 9f3e cc18 223f 53c3 fa3e 6195 9ebe
00000050: 2416 17bf 2522 8abe e5bd 59bf c632 803e
00000060: eb7a 04bf ab46 193f 2414 063f 5181 fb3e
00000070: 6430 0f3f 2b06 d3be d3d2 1c3f 5152 0e3f
00000080: 0800 d8be 7b74 ddbe a998 463e 3494 d63e
00000090: 4221 c5be f5b8 483f 8602 12bf 70dc f7be
000000a0: b911 b0be 8b72 d7be ca36 c83e 2eaa b23e
000000b0: 21a5 c83e ce26 f6be f982 e9be f2f5 c43e
000000c0: 186c 583e f059 a23e 3e2e a33e aad2 cebe
000000d0: b21d d7be 4f03 c8be 99f4 eebe 56a3 3d3f
000000e0: 5da3 9dbd e842 f03e c955 0c3f 7c99 ecbe
000000f0: d74d cd3e e8a9 c6be 8931 933e bf4b f7be
00000100: 54eb 16bf 1efb b43e c3d1 623e c337 e33e
00000110: 0862 06bf 4699 debe 69c3 2a3f 7127 063f
00000120: 72da d23e c61a c0be 423b e83e 8d52 febe
00000130: e78b f6be 93d4 eabe 51d2 113f 7c55 e1be
00000140: 6aac aabe e807 443e 3b4f b83e b663 f63e
00000150: 8344 b5be 2cf1 a9be c129 d83e 7c42 a1be
00000160: 036e 993e 684d 1c3f fad7 c5be 5752 ea3e
00000170: 4b2b a3be 93ca b93e e91a 0b3f 5c8f ddbe
00000180: a1bd d0be e6a0 07bf 9eda 05bf 552c 433e
00000190: 36b4 8e3e 0d36 0ebf 944e e0be 27bc fbbe
000001a0: b124 b7be 78d4 bf3e dd4d 9dbe 5bdb dc3e
000001b0: f774 a8be c55d 023f 58e6 f33e f924 ac3e
000001c0: 09ef b63e 4c0a 8fbe 0df0 b1be 7417 f5be
000001d0: 2f40 bebe 9593 94be 8e40 c0be 2320 0abf
000001e0: 41ef 103f 17f5 0cbf 6e13 883e ac3d a9be
000001f0: de12 023f 3f1a d5be 1697 e93e a7e9 053f
00000200: 0b84 ac3e d1cd e63e 2c1a fdbe 7da7 bbbe
00000210: 47ed 04bf 1c32 113f ba3b cfbe 7906 7d3e
00000220: 6668 753e 570b fb3e fcc5 c6be 74a3 ee3e
00000230: 992a c13e be8e bebe 0f08 023f fa71 023f
00000240: e786 b9be 5395 0fbf 67f6 d6be 376d eabe
00000250: ee7c 0d3f f63e 063f e0e1 cdbe a8cf d33e
00000260: 8d3c d0be 1233 d2be 16d7 c9be 432c ef3e
00000270: 9502 ecbe 7457 b2be 94ec b13e 1c3c fb3e
00000280: fc6c 773f a209 d8be eb08 063f 63ef 04bf
00000290: 4365 fc3e d43c 203f f9f1 abbe abc5 633f
000002a0: 1813 ee3e ee9f d0be c607 d23e c632 b5be
000002b0: a218 dabe 2ed8 acbe 3e93 7abe cd83 b83e
000002c0: 9c47 183f e76e bf3e 4328 e0be d782 0fbf
000002d0: bc4c 8a3e c9ba 91be 745c 213f 898c dfbe
000002e0: c18b c0be d050 233f 0fed a1be 3147 efbe
000002f0: 1a37 a4be dd92 003f bc9f 643e ce6d e63e
00000300: 6c31 cabe faf8 18bf c11c e6be 22dd 4f3e
00000310: b861 d83e 853e 9bbe 8754 c23e fdc8 18bf
00000320: 8eb8 fcbe 11ae eb3e 6cda 113e fddb e93e
00000330: 4cc9 fa3e 44d4 193f 20fe e0be 8db6 e1be
00000340: e82b 9dbe 36c4 0b3f 11a9 e9be fbba 8c3e
00000350: 282b 823e 4d46 5a3f 20de 0d3f 530e d4be
00000360: 4e7f d9be 56aa bfbe 0a4b 1abf 91b1 85be
00000370: 8dd8 f23d dbab d8be 1a84 02bf e88a 043f
00000380: 71c7 1bbf a7a3 0c3f ea35 d9be a0af acbe
00000390: 2589 9b3e 639b 063f 0ff2 aabe 9682 b63e
000003a0: 3dc0 ae3e cc8f 03bf cc64 f0be 35b5 8e3e
000003b0: 64f6 193f dd59 8ebc f328 a7be 1875 25bf
000003c0: 9531 dbbe 5c2f c33e 928b 013e ad5f e6be
000003d0: 254b f3be f9c4 0e3f 4dd9 163f 310f a9be
000003e0: 9d76 e3be 5a5c 0c3f e7f0 c6be e241 d8be
000003f0: 7fff a6be d6c4 df3e c29d 05bf d2c3 b83e
-0.52766365 -0.5284545 -0.3535781 -0.33014363 0.72641987 -0.24614629 0.46334776 -0.49556506
0.34236473 0.61590576 -0.48061728 -0.39040682 -0.36669844 -0.44081774 -0.2676042 0.062071558
0.31231236 0.6331909 0.48977146 -0.30973342 -0.5901816 -0.26979175 -0.8505538 0.25038737
-0.5175006 0.59873456 0.5237448 0.49122098 0.55933213 -0.41215643 0.6125919 0.55594355
-0.42187524 -0.4325293 0.19394173 0.41909945 -0.38501936 0.7840722 -0.570351 -0.48410368
-0.3438852 -0.42079577 0.391043 0.34895462 0.39188483 -0.4807648 -0.45607737 0.3846889
0.21134984 0.31709242 0.31871217 -0.403951 -0.42014843 -0.39065024 -0.46670988 0.74077356
-0.07697175 0.46926045 0.548184 -0.4621085 0.4009845 -0.38801503 0.2874873 -0.48299977
-0.5895283 0.35347837 0.2215033 0.4437848 -0.52493334 -0.43476313 0.6670442 0.5240393
0.41182286 -0.37520427 0.4535771 -0.49672356 -0.48153612 -0.45865306 0.5696154 -0.44010532
-0.33334666 0.19143641 0.35997948 0.48122948 -0.35403833 -0.33191812 0.42219356 -0.31496036
0.29966745 0.6105561 -0.3864134 0.45765945 -0.31868967 0.36287364 0.54337937 -0.43273437
-0.40769675 -0.52979887 -0.5228671 0.1905988 0.27871865 -0.55551225 -0.4380995 -0.49166986
-0.3577018 0.37466788 -0.30723467 0.43136105 -0.32901737 0.5092433 0.47636676 0.33621958
0.35729244 -0.27937543 -0.34753457 -0.47869456 -0.37158343 -0.29018846 -0.3754925 -0.53955287
0.5661507 -0.5506148 0.26577324 -0.33054864 0.5081004 -0.41621587 0.45623082 0.5230965
0.3369449 0.450789 -0.4943403 -0.3665122 -0.51924556 0.56717086 -0.40475255 0.247095
0.23965606 0.4903209 -0.38822925 0.4660908 0.37727812 -0.3721828 0.50793546 0.50955164
-0.36235735 -0.56087226 -0.41984865 -0.4578645 0.5526875 0.5243982 -0.4021139 0.41369367
-0.40671197 -0.4105459 -0.3942191 0.46713457 -0.4609572 -0.34832346 0.34750807 0.49069297
0.9665067 -0.4219485 0.5235736 -0.51927775 0.49296007 0.62592816 -0.33583048 0.8897349
0.46498942 -0.40747017 0.41021556 -0.353903 -0.42596918 -0.33758682 -0.24470231 0.36038056
0.5948427 0.373893 -0.43780717 -0.5605902 0.2701167 -0.28462818 0.630317 -0.43661907
-0.37606624 0.63795185 -0.31626174 -0.46734002 -0.3207329 0.50224096 0.22326559 0.4500565
-0.3949083 -0.5975491 -0.44943812 0.20299199 0.42262053 -0.30321136 0.37955114 -0.59681684
-0.49359554 0.4603124 0.14243478 0.4567565 0.48981702 0.60089517 -0.43943882 -0.44084588
-0.3069756 0.5459627 -0.456368 0.27486405 0.2542355 0.8526352 0.5541706 -0.4141718
-0.42479938 -0.37434644 -0.6027075 -0.26112035 0.1185771 -0.42318615 -0.5098282 0.51774454
-0.608512 0.54937214 -0.42423946 -0.3372774 0.3037807 0.5258085 -0.333878 0.35646504
0.3413104 -0.5139129 -0.46951902 0.27872625 0.6014159 -0.017376835 -0.3264843 -0.64631796
-0.42811266 0.3812207 0.12650898 -0.4499487 -0.47518268 0.55769306 0.58925325 -0.33019403
-0.44426432 0.5482842 -0.3885567 -0.42237765 -0.32616803 0.4370486 -0.52193844 0.360869

l3.weight f4 [1, 256]
00000000: 030b c3bf ee0e b2bf 90e4 51bf 369a a7bf
00000010: 4cc4 593f 15ea 7ebf 1f4a 683f da5c 61bf
00000020: 6652 9a3f e441 723f 8a76 92bf 32d1 3abf
00000030: e750 19bf ed68 97bf 48fd 86bf 742a c23f
00000040: e0e1 f33f d6e5 9a3f f671 253f 3c9a 63bf
00000050: a4e6 82bf 2072 8cbf 9d7b 51c0 f49c db3f
00000060: 7056 dfbf f6fa 993f 56ac 6a3f ff16 5d3f
00000070: ed07 7b3f f0df 76bf e2df 893f 099c 6b3f
00000080: 40b2 89bf 7985 6ebf c8c5 8a3f 71ec 913f
00000090: cb3e 47bf 2687 493f 5d4d ebbf 3c64 adbf
000000a0: f113 fbbf 4dca 01c0 42d8 963f bd09 9a3f
000000b0: dced 973f b5e4 69bf f558 9bbf 388b 3a3f
000000c0: 1d07 a13f 641f 4c3f 17a3 b63f f197 81bf
000000d0: c9d2 d0bf dc9d 6dbf 1eac bdbf b0da 823f
000000e0: 7c6c 083c 7cf3 d03f c993 4a3f 6fe5 c6bf
000000f0: 917e 8c3f 43c6 03c0 05f7 b23f 22f5 3abf
00000100: 8c16 aabf ca41 913f 5a33 b53f 205b 2b3f
00000110: 73ac bdbf 439e 8cbf fd70 7b3f dab3 a73f
00000120: 72c3 683f 9695 bfbf a68f 4a3f e48f 38bf
00000130: 8c18 8bbf a49a 6cbf 3299 4c3f 019a 9dbf
00000140: 34fe 3ebf 88cf 8e3f 7729 bf3f e425 573f
00000150: 3ccd 52bf d0bf 4abf eacd 8c3f ca16 bebf
00000160: 25bb 1440 2bfa 6c3f 35e6 a0bf 4e3c 793f
00000170: baa3 e0bf 2699 b13f 5edb 313f 777b 5abf
00000180: 4821 8fbf 1bf5 44bf 7342 52bf a516 e53f
00000190: 567e 783f 3ca4 50bf 1534 c6bf 465d 81bf
000001a0: 247e 4bbf c192 8c3f 5996 3ebf ba6e c83f
000001b0: 9560 a5bf ebfb 673f af40 5c3f b723 783f
000001c0: 2099 883f 449c 4cbf 056e 84bf 75b4 4cbf
000001d0: 5bad 91bf 69a7 e0bf f7aa 6ebf 0e40 bcbf
000001e0: 0add 523f 9bad 3dbf dd52 bd3f 441e 62bf
000001f0: 1594 6c3f 5950 6abf b3b7 933f c95d 6b3f
00000200: dd1f 7a3f 7ba5 9f3f 949f 11c0 af8d bfbf
00000210: f1dc 71bf 7110 653f 2249 53bf 6145 cf3f
00000220: 0d53 ea3f 7c61 893f b0da d8bf 4015 753f
00000230: f813 933f b97e 8ebf 3ee6 7a3f 54c5 6b3f
00000240: 26e1 0dc0 ed1c adbf cd68 17c0 1293 b5bf
00000250: 2508 a13f 630a 7c3f 50e0 ebbf 27b1 733f
00000260: 4541 68bf ae11 97bf ccee 63bf 68c8 793f
00000270: 8e5e 87bf 8552 9cbf ff5f e53f c705 a03f
00000280: f4e2 723f 2d6f afbf 0477 cd3f ff15 97bf
00000290: aa88 4b3f 00e8 763f 4809 86bf 3a7d 843f
000002a0: d3f9 533f 9fb6 58bf e375 7e3f e31a cabf
000002b0: 0b3b 3dbf 6fab 37bf 4e11 84bf 3f7a 7a3f
000002c0: f5d2 5e3f 0690 7e3f ba01 ccbf 7a79 aabf
000002d0: 6132 b13f edef c8bf b545 6b3f 319c d8bf
000002e0: d22e 49bf 37a7 b53f ae91 aebf 6b29 34bf
000002f0: 6bee acbf cc5d a73f 14b4 a83f d0ff a23f
00000300: ecdd 5abf a094 6dbf 23b0 7fbf a208 3940
00000310: cedd 7c3f 8e97 cdbf bd56 723f b2ba 5ebf
00000320: c70f a4bf a074 9e3f d708 d13f 5265 a53f
00000330: 07ba 8e3f 9a66 503f ccda 7fbf 97bd a9bf
00000340: 6364 78bf b109 633f fd21 a1bf 56b4 be3f
00000350: 80f6 923f ad96 513f 6a98 783f 47f5 8bbf
00000360: 6301 58bf 62ba 82bf 8140 b1bf b64b bcbf
00000370: 668e 0140 619d 86bf 7b16 40bf 3b40 aa3f
00000380: 471b dfbf e625 413f e39a 27bf 9579 ddbf
00000390: c7ea 5540 ecd7 563f 0aa1 47bf 5f18 5e3f
000003a0: 2065 ad3f b5f6 87bf 3181 94bf 5cc8 c63f
000003b0: 1672 5a3f 3a63 b2bb fa00 ddbf 64ba 5abf
000003c0: d92b 9ebf 28ae c03f 9dc9 1940 026e 57bf
000003d0: 00b1 76bf 1b8d 493f 34b0 523f 98ab 8ebf
000003e0: e4d5 28c0 3c43 e23f bcf7 c5bf b9a0 dbbf
000003f0: 5b60 81bf 956d a93f 111e 46bf 9d1a 8a3f
-1.5237736 -1.3910806 -0.81989384 -1.3093936 0.8506515 -0.9957593 0.907381 -0.88032305
1.2056396 0.9463179 -1.1442425 -0.72975457 -0.5988907 -1.1828896 -1.0546045 1.5169206
1.9053307 1.210139 0.64627016 -0.8890722 -1.0226636 -1.0972328 -3.2731698 1.7157273
-1.7448254 1.2029712 0.91669214 0.86363214 0.9805897 -0.9643545 1.0771449 0.92034966
-1.0757523 -0.93172413 1.0841608 1.1400281 -0.7783019 0.78721845 -1.8382984 -1.3546214
-1.9615461 -2.0279725 1.1784747 1.2034222 1.1869464 -0.91364604 -1.2136523 0.7286868
1.2580296 0.797354 1.4268521 -1.0124494 -1.6314327 -0.92819 -1.4818151 1.0222988
0.008326646 1.6324306 0.7913175 -1.5538768 1.0976125 -2.058976 1.3981634 -0.73030293
-1.3288131 1.1348202 1.4156296 0.6693592 -1.4818252 -1.0985798 0.9821928 1.3101761
0.90923226 -1.4967525 0.7912544 -0.7209456 -1.0866866 -0.9242346 0.7992126 -1.2312623
-0.74606633 1.1157084 1.4934529 0.8404219 -0.8234441 -0.7919893 1.100034 -1.4850705
2.3239224 0.92569226 -1.2570254 0.9735764 -1.7549965 1.3874862 0.6947535 -0.8534464
-1.1182032 -0.769365 -0.82132643 1.7897536 0.97067773 -0.815006 -1.5484644 -1.010659
-0.7948935 1.0982286 -0.7444816 1.5658791 -1.29201 0.9061877 0.860362 0.96929497
1.067173 -0.7992594 -1.0346075 -0.79962856 -1.1381029 -1.755109 -0.9322962 -1.4707048
0.8236853 -0.74093026 1.4790913 -0.8832743 0.92413455 -0.9152885 1.1540436 0.9193998
0.9770487 1.2472376 -2.2753649 -1.4965113 -0.94477755 0.8947821 -0.82533467 1.6193048
1.8306595 1.0732875 -1.6941738 0.9573555 1.1490469 -1.1132423 0.9800757 0.92097974
-2.216867 -1.3524452 -2.3657715 -1.4185507 1.258061 0.9845335 -1.842783 0.9519219
-0.90724593 -1.180227 -0.8903625 0.9757142 -1.0575731 -1.2212683 1.7919921 1.2501763
0.94877553 -1.3705803 1.6051946 -1.1803588 0.7950541 0.96447754 -1.0471582 1.0350716
0.82803077 -0.8465366 0.9939863 -1.5789455 -0.7391822 -0.7174596 -1.0317781 0.9784278
0.87040645 0.9943851 -1.5938027 -1.3318322 1.38435 -1.569822 0.9190324 -1.6922666
-0.7858707 1.4191655 -1.3638208 -0.703757 -1.3510259 1.30755 1.3179955 1.2734318
-0.85494876 -0.9280491 -0.9987814 2.891152 0.9877595 -1.6061876 0.946636 -0.87003624
-1.2817315 1.2379341 1.6330823 1.2921546 1.1150521 0.8140656 -0.9994323 -1.3260983
-0.9702818 0.8868666 -1.2588497 1.4898784 1.1481476 0.8187054 0.97107565 -1.0934228
-0.84377116 -1.021313 -1.384781 -1.4710605 2.0243163 -1.0516778 -0.750343 1.3300852
-1.7430199 0.75448453 -0.65470713 -1.7302729 3.3424547 0.8392322 -0.779801 0.8675594
1.3546486 -1.0622164 -1.1601926 1.5529895 0.8533033 -0.0054439576 -1.7265923 -0.8544066
-1.2357131 1.5053148 2.4029305 -0.84152234 -0.9636383 0.78730935 0.82300115 -1.1146116
-2.6380548 1.7676768 -1.5466228 -1.7158424 -1.010753 1.3236567 -0.7738963 1.0789372

l4.weight f4 [256, 32]
00000000: a696 d8be 640e 0ebd e443 74be 0412 34bf
00000010: 0e7a 063e 7522 04bf 00be 3dbd 68d1 823e
00000020: 181c 65bc e58a 903e 91e7 843e caf9 f63d
00000030: f16e 32be 97a1 463e 19a1 193e 5fe1 37bf
00000040: ddc7 af3e 8085 f4be 45aa c53e 9f77 debe
00000050: 12ca 033e a82d 03bf 6a3a d5be 029f 533d
00000060: 73b8 40bd f602 ebbe 56b7 64bd 7e12 a13d
00000070: 228b 6f3d ca3e 4cbd 0312 973d 5e0b 12be
00000080: 6f00 92bf 0123 02bd 60c7 bdbe 5a70 263f
00000090: 1ede 923d ca75 833f e211 03bf 506e b43e
000000a0: 35ca a43d 390e 0e3e 7a9a 483e 5d58 d63e
000000b0: 5534 06bf 8382 3f3d 9f38 80bc 516b f83c
000000c0: 72b1 9cbd c472 3abe 718b bd3e 7646 52bd
000000d0: 7494 8f3d 176d 0b3e 3afe 5d3d 0295 60be
000000e0: ffde 103e 0ebc 753e d252 d73d 8bda 363e
000000f0: c16d 823d 436f a23d 5672 a33b a0b1 08bc
00000100: eae5 273e 3b1e 863d 1a96 123e 089e 53be
00000110: bd8c 023e 72c5 6abd 183b 04bf 6275 13bf
00000120: 835c 1c3d 0d18 a63e f64f 1b3e b793 21bc
00000130: b04e 3dbe 34f6 2c3e 70f0 aabd da49 35bd
00000140: aa29 83bd b49b 993d 8e41 c33d bdf8 00bd
00000150: cf4e fe3d 2805 cfbe 2309 703e 1f3c 933d
00000160: bf2a 2cbf d8ad e7bd dd8a 9e3d 21c0 9dbd
00000170: a132 543d 283c e5bd c701 133e 7e7d d0bd
00000180: e0b5 4dbf f030 823d caae bc3c 7ca4 a2be
00000190: bd8f 2bbe 3a33 aebf b60a e7be b821 0dbf
000001a0: 985d 21bd 6a2e 7fbe 2799 a0bd 42e5 a2be
000001b0: 51ba fe3c 365f 8bbd dcb8 a53d 3938 e9be
000001c0: d337 5cbe 9834 873c 4609 1d3d be1c 8f3e
000001d0: e393 78bd 8c20 03bd 972f 8dbf 7e98 d23d
000001e0: e5a4 51be 08c8 333d 4fc9 e7bd 57d3 0ebd
000001f0: a762 d03c 7457 14be 1456 97bd 23f6 1f3e
00000200: c14d 55bd 4bf8 1f3e 07ad 62bd 2cdd 22bf
00000210: 1d72 9bbd c2f2 833d dd97 a6bd 4aa8 313f
00000220: a6c0 933e 2834 443f 1dd0 25be 37bb 6ebd
00000230: be28 bb3b af71 d03c 34c3 2c3f b673 9b3e
00000240: a77a 913e 8f35 5c3e c530 ecbe 9b18 da3d
00000250: d56c b03e 69e8 88bd 5382 89bf ef7f 97be
00000260: b617 ccbd 7ce4 1fbe e1bf f63d 62c3 4cbd
00000270: 3aab 0dbd 443d 2b3e 4a62 9fbd 64c1 6a3d
00000280: 1ea2 a13c e283 263e 8e0a bb3e 7bf1 edbf
00000290: ea1f f5bd 21e4 4b3f 9071 03bf 04b7 1f3e
000002a0: 9027 fe3d 8952 0c3f d493 ec3b e330 103e
000002b0: 62b0 db3d 76eb 953d b50e 8a3e ddf9 473f
000002c0: b592 22be 9478 cf3e ffe6 28bf d2fc 3b3e
000002d0: f47a 723e 3fc9 d6bd d66a cdbc 2143 803c
000002e0: 3482 72bf 7fc0 29bf 692a 483d dd94 093d
000002f0: b041 223c 2238 82bd d778 fcbc a084 4e3d
00000300: e085 963e fe3b 083e 4e58 8a3e fa83 d5bf
00000310: 07f1 14be 9b2f 8ebf 2d84 9ebe 5122 433e
00000320: b853 083f cd1d f03d 199c 51be 4b64 76be
00000330: 0a0f 40be bb8d 41be 0e1c 32bf c37f 123f
00000340: 2831 703e e7ba 383e 4082 ed3e 18ce 00be
00000350: cf4c 573c cfa2 313e f1a8 2d3e f130 363d
00000360: 9c7d 533e 6051 d1bb b7c6 0b3e abc9 abbd
00000370: 49c6 67bd b0e8 1f3d 38a0 47be c140 ae3b
00000380: 6ea4 23be 5afe 5c3d 12da 8a3e 3eb6 da3d
00000390: 75b5 25bd 39d9 b23e 5e87 e33e 7d2e 45be
000003a0: 58e5 84bb 1812 693d c437 a63e 0f85 18be
000003b0: e008 41be 0dd2 8c3d a351 443e f160 983d
000003c0: b656 2b3d a53c 6b3d 6bf4 3d3e 1fb2 c2bb
000003d0: cd2e b9bc fe7b b3bc da98 aa3d 2b87 e43d
000003e0: 3947 c33e 1da1 debd 29be 703b 89a2 84bc
000003f0: d6bf 58be 0f0d d73d 8463 813d c2ae 2d3d
-0.42302436 -0.034681693 -0.23854023 -0.7033999 0.13132498 -0.5161508 -0.046323776 0.2555039
-0.013983749 0.28230968 0.2595792 0.12059362 -0.17425133 0.19397579 0.1500286 -0.71828264
0.3433217 -0.47758102 0.38606468 -0.4345064 0.12870052 -0.5124154 -0.4164613 0.051665314
-0.047050904 -0.45900697 -0.055838905 0.07864855 0.058482297 -0.049864568 0.07376482 -0.14262149
-1.1406382 -0.031771664 -0.37066174 0.65015185 0.07171272 1.0270321 -0.5119916 0.35240412
0.080463804 0.13872613 0.19590178 0.4186429 -0.524236 0.046755325 -0.015651999 0.03032461
-0.076510325 -0.18207842 0.37020448 -0.051336728 0.07010737 0.13615833 0.054197527 -0.21931842
0.14147566 0.23997518 0.105138436 0.17856805 0.0636859 0.07931378 0.004987995 -0.00834313
0.16396299 0.06548735 0.14315072 -0.20665753 0.12749 -0.057317205 -0.5165267 -0.57600987
0.038174164 0.32440224 0.15167221 -0.009861878 -0.18487048 0.16890794 -0.08346641 -0.044259883
-0.06404431 0.07500401 0.09533988 -0.031487215 0.12417375 -0.4043362 0.23440985 0.071892016
-0.67252725 -0.11312455 0.0774133 -0.07702661 0.051806096 -0.111931145 0.14356147 -0.10180186
-0.80355644 0.0635699 0.023032565 -0.31766117 -0.1675405 -1.3609383 -0.4512536 -0.55129576
-0.0393959 -0.2492005 -0.078417115 -0.31815535 0.031094702 -0.068052694 0.080919 -0.45550707
-0.2150567 0.01650457 0.038338922 0.27951616 -0.06068791 -0.03201346 -1.1030148 0.10282992
-0.20473059 0.043891937 -0.113176934 -0.034869518 0.025437666 -0.14486486 -0.07389465 0.15621237
-0.052076105 0.1562206 -0.055340793 -0.6361873 -0.07590125 0.06442787 -0.08134434 0.69397414
0.28857917 0.76642084 -0.1619267 -0.05828401 0.005711644 0.025444834 0.67485356 0.30361718
0.2841389 0.21504806 -0.46130958 0.10649224 0.34458032 -0.06684954 -1.0742897 -0.29589793
-0.0996546 -0.15614504 0.12048317 -0.04999102 -0.034587122 0.1672259 -0.07782419 0.057313338
0.019730624 0.16261247 0.3653149 -1.8589319 -0.11968978 0.7964497 -0.5134516 0.15597159
0.1240989 0.5481344 0.007219771 0.14081149 0.10727002 0.07320301 0.26964346 0.78115636
-0.15876277 0.4052168 -0.6597747 0.18358162 0.23679715 -0.104876034 -0.025075357 0.01565701
-0.94729924 -0.6630935 0.04886857 0.033589233 0.009903356 -0.06358363 -0.03081934 0.05041945
0.29399014 0.13304135 0.27020496 -1.6680901 -0.1454507 -1.1108278 -0.30960217 0.1905606
0.53252745 0.11724434 -0.20469703 -0.24061696 -0.18755737 -0.18901722 -0.6957406 0.572262
0.23456252 0.18040048 0.46388435 -0.12578619 0.013140871 0.17347263 0.16958977 0.044480268
0.20653385 -0.0063878745 0.13650022 -0.083880745 -0.056585584 0.039040267 -0.19494712 0.005317778
-0.15980694 0.053953506 0.271195 0.10679291 -0.040456254 0.34931353 0.44439214 -0.19256015
-0.00405566 0.05690202 0.3246442 -0.14894508 -0.18851042 0.068760015 0.19171767 0.07440365
0.04183074 0.057430882 0.1855027 -0.005941644 -0.022605324 -0.02190971 0.08329935 0.11158594
0.38140276 -0.10870574 0.0036734438 -0.016190784 -0.2116693 0.105005376 0.06317809 0.04240299

l4.bias f4 [256]
00000000: 05c5 a6be 8197 19bf db06 323e c2bb 953d
00000010: e24b 35be f3d6 8b3e b1bb a9bd e4e6 eb3e
00000020: 4234 7ebe dfeb aabe 06ae 18bf 3682 83be
00000030: 7a31 f5be d242 f13d 8ff8 313e 5954 72be
00000040: f5f6 873e 2fd5 ebbd 6b46 56be 11b1 a83e
00000050: a4f8 e1be 3da3 b6be 699e f83e 4b87 23bf
00000060: 1553 9f3e c43d cb3e 66e5 993d 25b4 fabe
00000070: 0c9b 093f 15e6 ccbe ba38 15be 3258 22bf
00000080: 1b46 323e 3592 423e bdbd 15bf 5793 3ebe
00000090: 16d9 9f3c 360b 9cbe db71 c8be 5080 62be
000000a0: 0c93 d3be 4622 743e bcb5 b9bd a9f2 5e3e
000000b0: a3e0 fabe 1d89 af3e 8846 b4be 7257 103c
000000c0: 7683 a5be 22e3 85bd cd15 82be 0088 0f3f
000000d0: f582 acbe 3d38 96be f41a 0abf d72b 2d3d
000000e0: f0b0 e23e 2f5a 883e d11d 6fbe f9e2 9cbd
000000f0: c8c9 aabe 4bcf 68be 9f0e 0cbe 0156 b7be
00000100: 9995 73be e040 3dbe 5972 f83e 9be3 df3e
00000110: 6d88 8b3b 01d8 533e d47e f0be 6c19 8a3e
00000120: 02e5 b93d ef75 0cbf 2138 dd3d 0119 2b3f
00000130: 31f6 e4be c5c5 fb3e e14b eabe b0f6 ecbe
00000140: 26df 9bbe aeeb 9dbe 0f81 e0be 96a3 093f
00000150: 6e9e cebe 5a3f e1be 3231 f83e a0f9 92be
00000160: 64e9 f4bd 23c6 1cbe 5597 133e 06aa a4bb
00000170: 7698 1d3f a78b a23e 2c92 b63e dcf5 f0bd
00000180: e3a6 3fbe f3a9 48bb 997b 9abd 4fa5 96be
00000190: 2740 dc3e c54a ddbe bf13 6b3e 3feb db3e
000001a0: 8caf 37bf 862b 1c3e d617 a5be c262 42bf
000001b0: 2ef7 11bf 4589 24be b03a cb3c 84cd a53e
000001c0: 1532 dfbe 5a1f fbbe d6cb ffbd 6107 4639
000001d0: cf36 2cbe 479f d13e 73a8 b4be ad5b ec3e
000001e0: 5abe aebe af79 94be 1a25 37bd eda2 a5be
000001f0: a70d f23e 31e5 1b3e 5d34 09bd 4ce4 6d3e
00000200: d85d 563e 462e 9d3e d823 aabe 8292 8f3d
00000210: 2931 0dbe b9ea 0cbe 4614 05bd 9d2b f3be
00000220: d824 753e c577 bebd f4b6 03bf 5e71 19be
00000230: 5589 34be 7d3b c13a 5a64 c4be 8824 f0bd
00000240: cc6a a53e a450 36bf 3d23 eb3e 3ff5 cf3d
00000250: cee4 f0bc f167 e83d a534 7abe 815b 023d
00000260: 0457 733e c712 e4be 5940 973e 2f82 91bd
00000270: 257f 90be 2cb1 21be 543b 433d 139e 1d3e
00000280: 2ae4 a13e 495e 9bbe b793 8fbe 1238 c43e
00000290: 2c33 adbe 8126 f9bd 8b61 803c 89dc c63e
000002a0: c24d 4b3e 47ca 70be 7d16 78be cec3 243e
000002b0: d6d6 e13d 59b7 a13d e30b 6abe 14eb edbd
000002c0: df86 503e e3af febe c824 e13d e358 a6bd
000002d0: a1a2 19bf ee95 393e f76c 5b3e 787e e53d
000002e0: cc29 c7bc 846e 05bf eaa8 433d 8791 b83e
000002f0: 1ac2 13be d598 c73d 1943 213c d78d 38be
00000300: c737 593b f373 a2be f662 d0bb 4700 7cbe
00000310: 5d02 483e ea34 7c3e e2e6 32bc 6e3e c53d
00000320: 5e46 8bbe 05b7 aabe 54af f93e e0f9 a73d
00000330: 1d6f acbe 2e9c 9fbe 8dcf 903d 9a7f 903e
00000340: 0825 b93d 3b1f 913e aa6a e3be 5523 153f
00000350: 9e2b cabd 7482 e63e bc54 31be 6c47 903e
00000360: be5a 0abf 9b74 01bf 8b09 9e3e 8635 d2bd
00000370: 4259 9d3e 1b55 b0bd 0658 483e 6254 9ebe
00000380: 2d8d 273d 470a aebe 7a76 3cbe d739 cfbe
00000390: 57f3 18bf c2a3 03be e1d1 f03e f194 e23e
000003a0: 23d3 2d3e 854b aa3e 0f5c 5dbf 7814 b9be
000003b0: ec8b e83e 99b7 463d dbb2 f13d 9465 cabe
000003c0: 0236 c03e 1913 5abe 0330 f03e 4e2b 55be
000003d0: add7 e53e efca f5be 2029 123d 4b86 733e
000003e0: 6c4f 6cbe 70f0 bcbd 8ba0 10be 55d7 83be
000003f0: 5b20 f13e 0b80 b2bd a577 3a3d 73a8 eebe
-0.3257219 -0.599968 0.17385428 0.073112026 -0.17704728 0.2731243 -0.082877524 0.46074593
-0.24824622 -0.3338308 -0.5964054 -0.2568528 -0.4788931 0.11780323 0.17379974 -0.23664989
0.265556 -0.11515271 -0.209253 0.3294759 -0.4413501 -0.35671416 0.48558357 -0.63878316
0.31118074 0.3969556 0.075144574 -0.48965564 0.5375221 -0.4001929 -0.1457242 -0.63415825
0.17409556 0.19001086 -0.5849264 -0.18610893 0.019512694 -0.30477303 -0.39149365 -0.2211926
-0.41323125 0.238412 -0.09067866 0.21772255 -0.4899951 0.34284297 -0.3521006 0.008809911
-0.3232686 -0.06537463 -0.25407258 0.56066895 -0.33693662 -0.2933978 -0.5394738 0.042278137
0.44275618 0.26631305 -0.23351218 -0.07660479 -0.33357072 -0.22735326 -0.13677453 -0.35807803
-0.23787536 -0.18481779 0.4852474 0.43728337 0.0042582066 0.20687868 -0.46971762 0.2697252
0.09076883 -0.5486745 0.10801721 0.6683503 -0.4471908 0.49174324 -0.45761016 -0.46281958
-0.30443686 -0.30843872 -0.43848464 0.5376524 -0.40355247 -0.43993646 0.48475033 -0.28706074
-0.11958578 -0.15309958 0.14413197 -0.005025151 0.6156076 0.3174717 0.35658395 -0.11765644
-0.18716006 -0.0030618876 -0.07543106 -0.29422995 0.43017694 -0.43221107 0.22956751 0.42952916
-0.7175224 0.15250978 -0.32244748 -0.7593194 -0.5701779 -0.16067989 0.024808258 0.32383358
-0.43592897 -0.49047357 -0.124900505 0.000188855 -0.16817783 0.4094183 -0.35284767 0.46163693
-0.34129602 -0.28999087 -0.044713117 -0.32350865 0.4727604 0.15224148 -0.033497203 0.2323162
0.20934236 0.30699366 -0.33230472 0.07010366 -0.13788284 -0.13761415 -0.032490037 -0.47494212
0.23939836 -0.09300188 -0.5145104 -0.14984652 -0.17630513 0.001474246 -0.38357812 -0.11725718
0.32308042 -0.712168 0.45925322 0.10154199 -0.029405978 0.1134795 -0.24434145 0.031825546
0.23763663 -0.44545576 0.2954128 -0.07104909 -0.28222004 -0.15790242 0.047664 0.15392332
0.31619388 -0.3034537 -0.28042385 0.38324028 -0.33828104 -0.12165547 0.015671512 0.3884013
0.19853881 -0.23514663 -0.24227329 0.16090319 0.11027305 0.07896299 -0.22856097 -0.11617103
0.20363949 -0.49743566 0.109933436 -0.081224225 -0.60013777 0.181236 0.21428286 0.112057626
-0.024311922 -0.5212176 0.04776851 0.3604853 -0.14429513 0.09745947 0.0098426575 -0.18022858
0.0033144818 -0.31729087 -0.0063594533 -0.24609481 0.19532152 0.2462956 -0.010919305 0.09631048
-0.27202123 -0.33342758 0.48766577 0.08201957 -0.33678523 -0.31173843 0.07070837 0.28222352
0.09040266 0.2834414 -0.44417316 0.5825704 -0.098716006 0.45021403 -0.1731748 0.2817949
-0.5404471 -0.5056855 0.30866656 -0.10264115 0.3073216 -0.086099826 0.19564828 -0.30923754
0.04090612 -0.33992216 -0.1840457 -0.40473816 -0.5974631 -0.12855437 0.47035125 0.44254258
0.16975074 0.33260742 -0.86468595 -0.3614843 0.45419252 0.048514936 0.11801692 -0.39530623
0.37541205 -0.21296348 0.4691163 -0.208173 0.4489111 -0.4800639 0.03568375 0.23781697
-0.23077172 -0.09225547 -0.14123742 -0.25750223 0.47094998 -0.087158285 0.04552426 -0.46612892

l5.weight f4 [256, 256]
00000000: e486 dd3e d596 87bd 531e 5e3e c2c3 0dbd
00000010: 28c0 463e b70d 733d 48bc 3dbe df0e aebd
00000020: 5333 183e d6b6 e63d 6077 48bf eece d63e
00000030: 393d a4be 6dc3 a7be c4c2 9d3d cc24 553e
00000040: b519 f53e 39e2 ae3d d207 bb3f 40b7 123e
00000050: 3440 31bf b982 3a3d 872b bebd 93cf 043d
00000060: 8a37 763d 9446 e83d 8f3a 17bd 297e 0abe
00000070: a413 4bbd 265b d33d 5e5f 89be aac1 803d
00000080: 657b aabe c2dd 2ebf cc48 a6be 92ed d13e
00000090: b132 68bf a236 413e b73e bebe a4f0 063b
000000a0: e859 f0bd 1211 95bd f0ed 1c3d de7f fbbc
000000b0: e7aa 98be ca9c 663c 3282 c6be d65b 2b3e
000000c0: accd d03e 992f 0abf a900 a6bd 22ff d93d
000000d0: a9a6 f1bd 3cda f6be 6d35 613e 40d1 a43f
000000e0: 99e1 be3a 63a7 0d3c efc4 733d b412 6e3e
000000f0: d17f 0dbb e340 633e b608 9a3d d34c 053f
00000100: 4aa9 efbe 82b8 873e f5f6 3ebd 62a6 cbbc
00000110: 6bf6 123d 0c08 483e 2e7a b63e 6f5b 0cbe
00000120: e6a1 1c3e d6f8 edbe 7f93 96be e89f 6bbe
00000130: 5e9d 33be 9e7a 13be 2bc2 d93e 5da2 3f3d
00000140: a876 bbbe a7aa 093e 7a5d 60bf dce1 8bbd
00000150: 7960 c53d c749 04bf fd0a 49be 514d bcbe
00000160: a0ab 16be 0126 2f3f 5a93 b5be 1651 793e
00000170: 6513 12be 39ec b8be 055d 07bf 417a f23e
00000180: af47 71bf f8e6 1bbf a0ba 663e f16a 2cbe
00000190: 756f 78ba 3abf 6b3d 3851 9cbe 74d7 9cbe
000001a0: c38d 243e b287 27bf ee50 373d dbeb dabd
000001b0: af9c 903d e91b cdbb f022 f53d 042c 37be
000001c0: 16c2 02bd aafc 4fbf c41c 40bf 89db 5b3d
000001d0: 3585 94be 683a 14be a317 fabe 8021 9e3d
000001e0: 64ae 9abd ce26 ddbd 86a8 8ebe 0f81 fc3d
000001f0: e215 52be d8ca 0ebd 0de4 15bd 47d6 24bd
00000200: 06c2 2ebe b621 f83c c5fc 4b3e 9aa3 66be
00000210: ad08 983e 0630 34bf 4cf0 95be d3e4 943e
00000220: 9849 663d 568e 6a3e d46e aa3e 1d29 80bf
00000230: 3cac 1cbf 2aa0 ca3d e7d0 073f 32cd 20be
00000240: 6054 d93d bdc2 563e 37e3 b2be 32e9 b43d
00000250: faa5 693e ac07 c33d 5d52 8c3c a3b1 42be
00000260: 21b8 453c 8905 a6be 6424 2a3c 17bf 2b3d
00000270: 5dca 313b 9cca 293e 6e2e c6be e50b 8b3e
00000280: 33db ab3d ad43 643c 6309 ee3e 56d9 96bc
00000290: 9ea9 553e 418c 923d c7f9 cc3e a1a8 2fbd
000002a0: 88e8 2a3f 33c6 683e 4cdf 9abe b1e2 8b3d
000002b0: 7038 623e 7c7d 983e 6981 8d3d 639f c73e
000002c0: 80f1 dabe b20f 87be 3847 9a3d 1fd7 673e
000002d0: 07e8 07bf 8499 d0be c58b b4bd 5aa2 17bf
000002e0: e19e cb3e 49a3 7c3e a9d6 8f3c 0feb 733d
000002f0: 6dac f0be 1676 10bf d6be 103f c3dc 3f3e
00000300: 0039 313e 2bf4 023f a8f3 993d 1a37 f9bd
00000310: 234b 2fbe e335 a3bc d865 fcbb 5c0d 663e
00000320: c955 5bbf db38 07be a85d 4abe 122c d8be
00000330: 3e01 f63e f65f f7bd 3d60 b4bc 33e6 99bd
00000340: ea76 69be fcd9 1b3e 8252 613d 58f1 f23e
00000350: 1e0f 343e b3be 11c0 d957 61be f848 33be
00000360: f178 b3bd 118d 2cbe 24db 0abf a3a9 3bbf
00000370: 8833 50be eceb 65be 6cc3 563e 5b8d 2f3d
00000380: 9b4e e73e 6687 fe3b b528 e53e cae6 88bc
00000390: 7af7 14be 1dd5 8a3e e1b6 8ebe 0755 213e
000003a0: dc5c a93d 6e7d a0ba 15e1 fcbe ad28 0f3f
000003b0: 5f19 8bbe c1d3 073f 62ce 96be 7e8c a9bd
000003c0: 71af 9e3d 4949 553c 1854 39be 238b fb3b
000003d0: 39a1 df3d 58d1 bebb 3161 80bd 50da ddbd
000003e0: 5ef6 9c3b ec81 023f 6c37 e2bd 942a c8bd
000003f0: 4103 093e 7ca9 653e c405 af3d c8eb 913e
0.43266976 -0.06620566 0.21691255 -0.034610517 0.1940924 0.05933925 -0.18528855 -0.0849893
0.14863329 0.11265342 -0.7830715 0.4195475 -0.3207796 -0.32766286 0.07703164 0.20814818
0.47871175 0.08539242 1.4611762 0.14327717 -0.6923859 0.045534823 -0.09285646 0.03242452
0.06011156 0.11341587 -0.03692108 -0.13524689 -0.049579278 0.103201196 -0.26830572 0.062869385
-0.33297268 -0.68307126 -0.32477415 0.41001564 -0.9070235 0.18868497 -0.37157223 0.002059021
-0.11735898 -0.072786465 0.038312852 -0.03070062 -0.29817888 0.014075467 -0.38771206 0.16734251
0.40781915 -0.5397888 -0.08105595 0.10644366 -0.11799366 -0.48213375 0.21993037 1.2876358
0.0014563083 0.008645865 0.059513982 0.23249322 -0.0021591077 0.22192721 0.07521193 0.5207035
-0.46808845 0.26507956 -0.046622235 -0.024859611 0.035879534 0.1953432 0.3564009 -0.13706754
0.15296134 -0.4647891 -0.29409406 -0.23010218 -0.175405 -0.14402243 0.4253095 0.0467857
-0.36613965 0.13444005 -0.87642634 -0.06830189 0.09637541 -0.51675075 -0.19633098 -0.36777738
-0.14713907 0.68417364 -0.35463983 0.24347338 -0.14265211 -0.36117724 -0.5287631 0.47358897
-0.94250005 -0.60899305 0.2253213 -0.1683767 -0.00094770576 0.057555415 -0.30530715 -0.30633128
0.16069703 -0.6544143 0.044754915 -0.10689517 0.07061135 -0.0062594307 0.119695544 -0.17887884
-0.031923376 -0.8124491 -0.7504389 0.053676162 -0.2900788 -0.14475405 -0.48846158 0.07721233
-0.075527936 -0.10798417 -0.27862948 0.123293035 -0.2051616 -0.034861416 -0.03659444 -0.040243413
-0.17066202 0.030289512 0.19920643 -0.22523347 0.2969412 -0.7038578 -0.29284894 0.2908083
0.05622253 0.2290586 0.3328768 -1.0012547 -0.6120031 0.0989383 0.53053135 -0.15703276
0.106117964 0.20972724 -0.34938976 0.08833541 0.22817221 0.09522948 0.017129118 -0.19013076
0.0120678255 -0.32426098 0.010384653 0.041930284 0.0027128675 0.16581196 -0.38707298 0.27157512
0.08391418 0.013932151 0.46491536 -0.01841418 0.20865485 0.071556576 0.40034315 -0.042885426
0.66761065 0.22731857 -0.30248487 0.06830347 0.22091842 0.29783237 0.06909449 0.3898879
-0.42762375 -0.26379162 0.07533115 0.22640656 -0.5308842 -0.40742123 -0.088157214 -0.59232104
0.39769652 0.24671663 0.017558413 0.05955034 -0.4700655 -0.56430185 0.5654119 0.18736558
0.173069 0.5115382 0.07517177 -0.12168713 -0.17118506 -0.019923156 -0.0077025704 0.22466034
-0.8567777 -0.13205282 -0.1976229 -0.42221123 0.48047823 -0.1207885 -0.022018546 -0.0751461
-0.22799268 0.15219873 0.055010326 0.47449756 0.17583892 -2.2772644 -0.22006167 -0.17508304
-0.08763302 -0.16850688 -0.5424063 -0.7330572 -0.20332158 -0.22453278 0.20972985 0.042859416
0.4517716 0.0077676056 0.4475762 -0.016711611 -0.1454753 0.27115718 -0.278739 0.15755092
0.08269665 -0.0012244412 -0.49390474 0.5592144 -0.27167794 0.53057486 -0.29454333 -0.0827875
0.077483065 0.013017961 -0.18098485 0.0076764985 0.10919423 -0.0058232956 -0.06268538 -0.108326554
0.0047901114 0.50979495 -0.11045727 -0.09773746 0.13380148 0.22427934 0.085460216 0.285002
