Project/Ming_Jiang_1016239_Gengcong_Yan_1009903_Project/Part1/trained agents/td3/InvertedPendulumBulletEnv-v0_TD3_2_1637008802_td3.pth (torch, 818223 bytes, 15 tensors)

l1.weight f4 [256, 6]
0	0xbf2435e2	-0.6414472
1	0xbda63091	-0.08114732
2	0x3e4f1c5e	0.20225665
3	0x3f83bb5d	1.0291554
4	0x3cef2027	0.029190136
5	0x3ebd6ed8	0.3699863
6	0xbf297ff5	-0.6621087
7	0x3ef83079	0.48474482
8	0xbe9a95af	-0.30192325
9	0xbf002820	-0.50061226
10	0x3d0b692f	0.034035858
11	0x3ec44d73	0.3834034
12	0xbded1911	-0.11577047
13	0x3d4fe991	0.050759856
14	0xbe79bfdf	-0.243896
15	0x3fccba1e	1.5994298
16	0x3e18f31a	0.14936486
17	0xbd3096bc	-0.0431125
18	0x3f38ed6f	0.72237295
19	0xbe6686ea	-0.22512403
20	0xbf114c73	-0.5675728
21	0x3f416864	0.7554991
22	0x3f14f4d2	0.58186066
23	0xbe1f2c92	-0.15544346
24	0x3e80df3e	0.2517032
25	0x3e81d916	0.25360936
26	0x3ea8e1ea	0.3298486
27	0x3ee10f51	0.43956998
28	0xbef05f22	-0.4694758
29	0x3e084e92	0.13311222
30	0x3e5ed49a	0.21760789
31	0xbcdbf519	-0.02685027
32	0xbe5fc719	-0.21853293
33	0x3dbbd0c0	0.09170675
34	0x3d9d69fe	0.07686232
35	0xbe691bb3	-0.22764473
36	0x3de401aa	0.1113313
37	0x3cc5a0b7	0.024124486
38	0x3e77582b	0.24154727
39	0x3f24967d	0.64292127
40	0xbecb4dc3	-0.39707765
41	0x3cefdf5c	0.02928131
42	0x3ebbe9b4	0.3670174
43	0xbf071b1e	-0.5277575
44	0xbed65187	-0.41859075
45	0xbec256b2	-0.37956768
46	0x3e85ace0	0.26108456
47	0xbe4b6afa	-0.19865027
48	0xbe24e6b1	-0.16103627
49	0xbe9d6edd	-0.30748644
50	0xbe427510	-0.18989968
51	0x3f185847	0.595097
52	0xbf15115f	-0.5822963
53	0xbd9bd072	-0.07608117
54	0xbd7bd244	-0.06147982
55	0xbd318f6a	-0.04334966
56	0x3cf08037	0.029358013
57	0xbf8285e1	-1.0197107
58	0x3edf97c1	0.43670467
59	0x3a5ef602	0.0008505286
60	0xbdaa1e96	-0.08306615
61	0x3d829641	0.06376315
62	0xbebf1c69	-0.37326363
63	0x3fceba8a	1.6150677
64	0x3e8237d0	0.25433207
65	0xbd4a43b2	-0.049380966
66	0x3e9f8cae	0.31162018
67	0x3e5faa6c	0.21842355
68	0xbe8c093d	-0.27350798
69	0x3f7eb901	0.99501044
70	0x3ecd1e71	0.40062287
71	0x3e88b0dd	0.26697436
72	0x3e82f236	0.25575417
73	0x3f3edd12	0.74556077
74	0x3d02ca52	0.03193123
75	0x3faed12b	1.3657583
76	0x3ec6fa66	0.38862914
77	0xbb610223	-0.003433355
78	0xbd88a549	-0.06672151
79	0xbde05c04	-0.109550506
80	0x3ea50344	0.32229054
81	0xbe9c8936	-0.30573434
82	0x3e5c82be	0.21534249
83	0x3e21b4e9	0.15791668
84	0x3d8fc747	0.07020431
85	0x3ebbbec9	0.36668995
86	0x3ebc3282	0.36757284
87	0xbf84cb31	-1.0374509
88	0x3e1f25b1	0.15541722
89	0xbde90f82	-0.11379911
90	0xbf5dc8fa	-0.8663479
91	0xbd81eb26	-0.06343679
92	0xbe992d65	-0.29917446
93	0xbf84a1c2	-1.0361865
94	0xbf07c9c0	-0.5304222
95	0x3dd3b34f	0.10336935
96	0xbdc67204	-0.096897155
97	0x3d4ef178	0.05052325
98	0x3e291b03	0.1651421
99	0x3f69c587	0.9131703
100	0x3dbd556b	0.09244808
101	0xbe6ac906	-0.22928247
102	0x3f49d6e3	0.78843516
103	0x3f06535a	0.52470934
104	0x3d367244	0.044542566
105	0x3eba033f	0.36330602
106	0x3e40e8e8	0.18838847
107	0x3c42e6e0	0.011895865
108	0x3c0dce88	0.008655198
109	0xbe1efd8d	-0.1552641
110	0xbe510c86	-0.20414934
111	0xbff98e13	-1.9496483
112	0xbed4fc50	-0.4159875
113	0x3d9a43b5	0.07532445
114	0x3f8c23a7	1.094838
115	0x3f16db73	0.589286
116	0xbc1f4b31	-0.009722517
117	0xbf1d04cc	-0.61335444
118	0x3e723cbf	0.23655985
119	0x3c6328c9	0.013864704
120	0xbe2b75df	-0.16744183
121	0x3e22d1b5	0.1590031
122	0xbed7a080	-0.4211464
123	0x3ae3b892	0.0017373732
124	0xbde9544f	-0.11393034
125	0xbd22c75a	-0.039740898
126	0x3d664518	0.056218237
127	0x3f061e06	0.5238956
128	0x3cfa245e	0.03053492
129	0xbdc524ee	-0.096261844
130	0xbd2d37e0	-0.042289615
131	0x3d01302d	0.031540085
132	0xbd9f5194	-0.07779232
133	0x3cc74fa3	0.024329966
134	0x3ea73a63	0.32661733
135	0xbe30111e	-0.1719403
136	0xbe55abf6	-0.20866379
137	0x3dc48ba5	0.095969476
138	0xbf19674c	-0.59923244
139	0xbe7b81e1	-0.24561264
140	0x3e3c9e8c	0.18419856
141	0xbf424e01	-0.75900275
142	0x3e4100b0	0.18847919
143	0xbe226aee	-0.15861103
144	0x3ef1eefb	0.4725264
145	0xbe23e0ae	-0.16003677
146	0xbef90591	-0.4863706
147	0xbf9fb257	-1.24763
148	0xbe88f14a	-0.2674659
149	0x3d5ff483	0.054676544
150	0xbea5ef39	-0.32409075
151	0x3e69636f	0.22791837
152	0x3e93593d	0.2877902
153	0x3f99299b	1.1965822
154	0x3e8b2e4e	0.27183765
155	0xbd3a8cd5	-0.045544464
156	0xbe1bda4e	-0.15219995
157	0xbde3b238	-0.11117977
158	0xbe6b4e96	-0.22979197
159	0xbe468b13	-0.1938899
160	0x3f139a63	0.5765745
161	0xbe4345f1	-0.1906965
162	0x3c941bd9	0.018079685
163	0x3e3da05a	0.185182
164	0x3e5587fa	0.20852652
165	0xbf7821eb	-0.96926755
166	0x3ea9b6de	0.3314733
167	0xbe90bb1a	-0.28267747
168	0x3e99df83	0.30053338
169	0xbf0cef3f	-0.5505256
170	0x3e1a6a5b	0.15079634
171	0x3e59446e	0.2121751
172	0xbe796a8e	-0.24357054
173	0xbd4bb644	-0.04973437
174	0x3e451f5f	0.19250248
175	0xbe3cb612	-0.1842883
176	0xbda006c8	-0.078137934
177	0xbfbd867e	-1.4806669
178	0xbe6da0c5	-0.2320586
179	0x3d291fac	0.04128997
180	0xbe18cb07	-0.14921199
181	0xbe38c0d6	-0.18042311
182	0x3eb1435a	0.34621698
183	0xbe8b2357	-0.271754
184	0xbe7a89aa	-0.24466577
185	0xbe92dee9	-0.28685692
186	0x3f1abaad	0.60441095
187	0xbcabe239	-0.020981895
188	0xbe23126c	-0.15924996
189	0x3c3c415f	0.011490195
190	0x3cd13309	0.02553703
191	0xbbf121e7	-0.007358778
192	0xbf8d6de8	-1.1049166
193	0xbc24a1d0	-0.010048345
194	0xbe91c2e8	-0.28469014
195	0x3f3d2cda	0.73896563
196	0x3e0ff92d	0.14059897
197	0xbb3f0f9c	-0.002915359
198	0xbedb77c1	-0.42864802
199	0x3d1725cf	0.03690129
200	0x3cb6a45a	0.022295166
201	0x3f3dbdcc	0.7411773
202	0x3e9eb4fb	0.30997452
203	0xbe618e7f	-0.22027014
204	0xbe61dd92	-0.22057179
205	0x3e9184e0	0.28421688
206	0x3ea802e2	0.328147
207	0xbf1565f3	-0.5835869
208	0xbcef9291	-0.029244693
209	0xbe817301	-0.25283054
210	0xbeb2c699	-0.34917143
211	0x3cceaeda	0.02522986
212	0x3e945c54	0.2897669
213	0x3ed02ea3	0.4066058
214	0x3e400423	0.18751578
215	0xbe161425	-0.14656122
216	0xbce2a2c9	-0.027665513
217	0xbdc994ff	-0.09842872
218	0xbeb5932d	-0.3546385
219	0x3f0b49c6	0.54409444
220	0xbec3caa5	-0.38240543
221	0xbebff70b	-0.37493166
222	0x3e234d14	0.15947372
223	0xbebd70c3	-0.37000093
224	0x3dcfa912	0.101396695
225	0xbeceb1f6	-0.40370148
226	0x3f06ed0d	0.5270546
227	0x3e32ecff	0.1747322
228	0x3f333f4e	0.7001847
229	0xbe93f9b8	-0.28901458
230	0xbd5d2535	-0.05399056
231	0xbfa0f83e	-1.2575758
232	0xbe83f7ee	-0.25775093
233	0x3b8eeb39	0.004361537
234	0xbef0452c	-0.46927774
235	0x3e6a97e6	0.22909507
236	0xbd86a77c	-0.06574914
237	0xbf0bd1ba	-0.5461689
238	0x3e9f190b	0.31073794
239	0xbe2ee646	-0.1708003
240	0x3e49ca2d	0.1970603
241	0xbdf6850e	-0.12037097
242	0x3d01a776	0.031653844
243	0xbf58ebc3	-0.84734744
244	0xbe01d1d9	-0.12677707
245	0x3c94a64c	0.018145703
246	0xbd119428	-0.035541683
247	0xbc8d4ce8	-0.017248586
248	0x3c412999	0.011789703
249	0x3f3a0075	0.7265695
250	0x3e3c9b1a	0.18418542
251	0xbce267be	-0.027637359
252	0x3ed1692b	0.4090055
253	0x3eb76640	0.35820198
254	0xbe511b3e	-0.20420548
255	0x3ec762e5	0.38942638

l1.bias f4 [256]
0	0xbea7604d	-0.3269066
1	0x3dd3a395	0.10333935
2	0xbdd74407	-0.10511022
3	0xbe4f809f	-0.20263909
4	0xbeb9d40e	-0.36294597
5	0xbea7e04a	-0.32788306
6	0xbe7f59e3	-0.24936633
7	0x3e088d78	0.13335216
8	0xbe0dd36d	-0.13850184
9	0x3d23eacf	0.040018853
10	0xbd842c4c	-0.064537615
11	0xbeb29b2c	-0.34884012
12	0xbe67c400	-0.22633362
13	0xbe67c144	-0.22632319
14	0xbe13a061	-0.14416648
15	0xbec96fbf	-0.39343068
16	0x3e84420b	0.25831637
17	0xbe2a9905	-0.16659935
18	0xbebd6951	-0.36994413
19	0xbcc2d2b2	-0.023782108
20	0xbe0c6fa7	-0.13714467
21	0xbdd49804	-0.10380557
22	0xbd6d5afc	-0.057948098
23	0xbe543d86	-0.20726594
24	0x3e39a4af	0.18129228
25	0x3dfad92d	0.12248454
26	0xbea96370	-0.33083677
27	0x3bff08dc	0.0077830385
28	0xbda7daa0	-0.08195996
29	0xbe98a58f	-0.2981381
30	0x3eaaffa9	0.33398178
31	0xbec84257	-0.39113113
32	0x3e076158	0.13220727
33	0xbe9ad279	-0.30238703
34	0xbed8f1dc	-0.42372024
35	0x3e03d38b	0.12873666
36	0x3e22e36a	0.15907064
37	0xbe40e1a1	-0.1883607
38	0xbe74d816	-0.23910555
39	0x3dcddf08	0.100523055
40	0x3e5700df	0.20996426
41	0x3eafa92f	0.34308764
42	0x3d50926a	0.05092088
43	0xbe5a4cc2	-0.21318343
44	0xbdcc4568	-0.09974176
45	0x3e13bbfd	0.1442718
46	0xbec4ed4e	-0.384623
47	0x3e5cdca4	0.21568543
48	0x3eb09879	0.34491327
49	0xbdad9b1d	-0.08476851
50	0xbe443b11	-0.19163157
51	0xbe4e6055	-0.20153935
52	0xbe72cd10	-0.23711038
53	0x3dc5f865	0.09666518
54	0xbdb70782	-0.08936979
55	0xbea6c8e7	-0.3257515
56	0xbe4d4077	-0.20044123
57	0x3e595e85	0.21227463
58	0x3e852b54	0.2600962
59	0x3c43d4cf	0.011952593
60	0x3eacbb86	0.3373682
61	0x3e8e0f17	0.27745888
62	0xbeac78d1	-0.33685926
63	0xbd8baa86	-0.06819634
64	0x3e5fed10	0.21867776
65	0xbe6e57b8	-0.2327565
66	0x3e0f55e5	0.1399761
67	0x3e351488	0.17683613
68	0x3d91f188	0.071261466
69	0xbd0ab819	-0.033866975
70	0x3e9a9da2	0.3019839
71	0xbd946df1	-0.07247532
72	0x3ece69e5	0.40315166
73	0xbe8e032d	-0.27736798
74	0xbea935d8	-0.33048892
75	0x3e4153b7	0.18879591
76	0xbef56c95	-0.47934404
77	0x3e5f09f9	0.21781148
78	0xbeb44663	-0.3520995
79	0x3dade2e9	0.08490545
80	0x3e873b1b	0.2641228
81	0xbdd59a93	-0.10429873
82	0x3b0417fb	0.0020155895
83	0x3d278ce6	0.040905856
84	0x3d63eed4	0.055647686
85	0x3e0b8dc3	0.13628297
86	0x3c901dcb	0.017592331
87	0xbc2811fe	-0.010258196
88	0xbe8cb117	-0.2747886
89	0x3e89b5fc	0.26896656
90	0xbd066853	-0.032814335
91	0x3eb62501	0.35575107
92	0xbdd62d29	-0.10457832
93	0x3e832e88	0.25621438
94	0x3e9f5769	0.31121376
95	0x3e7a2798	0.24429166
96	0xbd6478fe	-0.05577945
97	0xbdf4e977	-0.119585924
98	0xbe9cbccf	-0.306128
99	0xbe31c052	-0.1735852
100	0x3e3f06f9	0.18655004
101	0xbdefbc59	-0.11705846
102	0xbe9a981b	-0.30194172
103	0x3e9aec85	0.30258575
104	0xbea02b84	-0.312832
105	0x3d389d0a	0.04507164
106	0x3dadb4c1	0.08481742
107	0xbe754029	-0.23950256
108	0xbeaa47b2	-0.33257824
109	0x3e1e6c51	0.15471007
110	0x3e87291f	0.2639856
111	0xbd8e1d19	-0.06939144
112	0xbdcc661d	-0.09980414
113	0x3ccf8c81	0.025335552
114	0x3dc911b2	0.09817828
115	0xbe512f79	-0.20428266
116	0xbd63bf30	-0.055602252
117	0xbefff66d	-0.49992695
118	0xbdb6f0f5	-0.08932678
119	0xbe58c966	-0.21170577
120	0xbb71aada	-0.0036875517
121	0x3e4a8434	0.19776994
122	0x3e245384	0.16047484
123	0x3c8d057f	0.017214535
124	0xbdee83b6	-0.116462156
125	0xbdf8ed60	-0.12154651
126	0xbe92fd4b	-0.28708872
127	0x3e1259e9	0.1429211
128	0x3e563590	0.2091887
129	0xbeb8b5f8	-0.3607633
130	0xbe64e51c	-0.22353023
131	0xbe4a35ad	-0.19747038
132	0xbe24f9d0	-0.16110921
133	0x3e241c56	0.16026434
134	0xba974698	-0.0011541424
135	0x3a3330ae	0.0006835562
136	0x3e551f25	0.20812662
137	0x3dd17980	0.102282524
138	0xbe8bad6f	-0.27280757
139	0x3d120d24	0.035657063
140	0x3de1b7d7	0.11021393
141	0xbe94f50a	-0.290932
142	0xbe506f97	-0.20355068
143	0x3e0ba2bc	0.13636297
144	0xbe7281c0	-0.23682308
145	0xbeb2c1e9	-0.34913567
146	0xbeb5c6dd	-0.35503283
147	0x3e9559f5	0.29170194
148	0x3e703bdb	0.23460333
149	0x3e78cb4a	0.24296299
150	0x3ea55cfb	0.322975
151	0xbeb279ca	-0.34858543
152	0xbe59481a	-0.21218911
153	0x3e8b90a4	0.2725879
154	0x3e19f6f4	0.15035611
155	0x3e8cd8b1	0.27509072
156	0xbde467d6	-0.11152618
157	0xbe917da0	-0.28416157
158	0xbedfb4f7	-0.43692753
159	0x3e2f3856	0.17111334
160	0xbda74af6	-0.081685945
161	0x3e724dc9	0.23662485
162	0xbe876821	-0.26446632
163	0x3eb24f8e	0.3482632
164	0xbe2c564e	-0.16829798
165	0x3cf13ed8	0.029448912
166	0x3e4a86fd	0.19778056
167	0xbec01b8f	-0.37521026
168	0xbda342f1	-0.079717524
169	0xbd95f0f3	-0.07321348
170	0xbe879bc3	-0.26486024
171	0x3d1c1082	0.03810168
172	0x3eb0ab8e	0.34505886
173	0x3e4fc1d9	0.20288791
174	0x3e9021d4	0.2815081
175	0x3e9290a4	0.28625977
176	0x3e1b2d0f	0.15153907
177	0x3eae326e	0.3402285
178	0xbc7318a3	-0.014837417
179	0xbdd00d1d	-0.10158751
180	0x3e310edb	0.17290823
181	0xbba71a44	-0.0050995667
182	0x3e8db0ca	0.27673942
183	0xbe8f9ebf	-0.280508
184	0xbe6478ad	-0.22311659
185	0xbecddb37	-0.4020631
186	0xbf060d64	-0.5236418
187	0x3d82b417	0.06382006
188	0xbea2ed78	-0.318218
189	0xbde5dcaf	-0.11223733
190	0xbdea7da0	-0.11449742
191	0xbdcd296f	-0.100176685
192	0xbdbaf32e	-0.09128414
193	0x3e72f14a	0.23724857
194	0x3e9d1eb2	0.3068748
195	0xbdacf7cb	-0.084457
196	0xbdb16712	-0.08662237
197	0xbd9646a4	-0.073376924
198	0x3db2651b	0.087106906
199	0x3eb1ff94	0.34765303
200	0xbe73b5a3	-0.23799758
201	0xbdac59ea	-0.08415587
202	0xbc3b9d36	-0.011451056
203	0xbe4649e8	-0.1936413
204	0x3e82bed0	0.25536203
205	0xbd043e1f	-0.032285806
206	0xbaac3c7c	-0.0013140584
207	0xbe1fc321	-0.1560178
208	0xbed80247	-0.42189237
209	0xbd5105fc	-0.051031098
210	0xbecb822e	-0.39747757
211	0xbe4072db	-0.18793814
212	0x3c4a9025	0.012363468
213	0xbe027695	-0.12740548
214	0xbdc87cbb	-0.097894154
215	0x3c6e3592	0.014539139
216	0xbe2af1e6	-0.1669384
217	0xbea892a7	-0.32924387
218	0x3d5a0637	0.053228583
219	0x3edfe543	0.437296
220	0xbd59fbeb	-0.053218763
221	0xbdc0010f	-0.09375202
222	0xbe4be941	-0.19913198
223	0x3e2398fd	0.15976329
224	0xbe4b1efe	-0.19836041
225	0x3e93c8fc	0.28864276
226	0x3d73a01a	0.059478857
227	0x3e41dee0	0.18932676
228	0x3e937fca	0.28808433
229	0xbeb7401f	-0.35791108
230	0x3deb62d0	0.11493456
231	0xbe75b77c	-0.23995775
232	0xbf052487	-0.5200886
233	0x3cf2d440	0.029642224
234	0xbe762042	-0.24035743
235	0xbe9daf89	-0.30797985
236	0xbc90f949	-0.017696993
237	0x3d77457e	0.060369007
238	0xbdb2e21a	-0.08734532
239	0xbde93fdc	-0.11389133
240	0xbe9db433	-0.30801544
241	0x3e560f32	0.20904234
242	0xbe92eb27	-0.28695032
243	0xbea542d1	-0.3227754
244	0x3ea98d09	0.33115414
245	0x3eb6ba9b	0.35689244
246	0x3e44320c	0.19159716
247	0x3e8f425b	0.27980313
248	0xbe0bced5	-0.13653119
249	0x3c6b3e53	0.014358121
250	0xbeaae9d7	-0.3338153
251	0xbecdfe32	-0.40232998
252	0xbe5f17b5	-0.21786387
253	0xbdef59fe	-0.116870865
254	0xbec79b8a	-0.38985854
255	0xbef3aa08	-0.4759066

l2.weight f4 [256, 256]
0	0x3c892f9c	0.016746335
1	0x3c8915e2	0.016734067
2	0xc0779e1e	-3.8690257
3	0xbeaac31f	-0.3335199
4	0xbd73dc2b	-0.05953614
5	0xbd3e2c42	-0.046428926
6	0xbd42bb9a	-0.047542192
7	0xbe50cb98	-0.20390165
8	0xbdc0d161	-0.09414936
9	0xbbb1f584	-0.005430879
10	0xc066dddb	-3.607291
11	0xbe9f2d00	-0.3108902
12	0xbe351555	-0.17683919
13	0xbc834dbc	-0.016028278
14	0x3da7e071	0.08197106
15	0x3ee49fa8	0.44653058
16	0x3da71d98	0.081599414
17	0xbe8baa80	-0.2727852
18	0x3efcc273	0.49367103
19	0xbcb6f11e	-0.02233177
20	0x3d2676b1	0.040640537
21	0x3d532c08	0.051555663
22	0x3cdf8fda	0.027290273
23	0xbc4f51f0	-0.012653813
24	0x3eac3ffc	0.33642566
25	0x3e02956c	0.12752312
26	0xbcf8080c	-0.030277275
27	0x3d0f541b	0.03499232
28	0x3d1a0392	0.03760106
29	0xbe06f8ea	-0.1318089
30	0x3dee75b5	0.116435446
31	0xbecbff90	-0.39843416
32	0xbf2f2aaa	-0.68424475
33	0xbcecb856	-0.028896492
34	0xbcb41231	-0.02198133
35	0x3bbdb411	0.005789288
36	0xbdc4da93	-0.09612002
37	0x3da646ae	0.0811895
38	0x3e6e805c	0.23291153
39	0xb90ae728	-0.00013246818
40	0x3df92fea	0.12167342
41	0xbb83e137	-0.0040246504
42	0xbd6d6cd6	-0.057965122
43	0xbd75281b	-0.0598527
44	0xbc25319a	-0.010082627
45	0x3bd91d1c	0.0066257846
46	0xbe437f67	-0.19091569
47	0x3d67628a	0.05649046
48	0xbdc91499	-0.09818382
49	0xbd95c7e3	-0.07313516
50	0xbd98a810	-0.074539304
51	0xc079e076	-3.904325
52	0x3d53e2d4	0.051729992
53	0x3e085fa8	0.1331774
54	0x3e5a7aeb	0.21335952
55	0xbd5cb8b0	-0.05388707
56	0xbe92b1c7	-0.28651258
57	0xbd3443d3	-0.044009995
58	0x3da94496	0.08265035
59	0x3d6d5c08	0.057949096
60	0x3cbab4b9	0.022791253
61	0x3da5f2b5	0.08102933
62	0x3f5f1997	0.8714842
63	0x3b990122	0.0046693245
64	0x3d92e70e	0.071729764
65	0x3d7eca8b	0.06220488
66	0x3d413d10	0.047177374
67	0xbd8b79e1	-0.06810356
68	0xbd549f4c	-0.05190973
69	0x3d7a0efe	0.061049454
70	0x3d8c526d	0.06851659
71	0x3ccf4d51	0.025305422
72	0x3cedfe61	0.029051961
73	0xbd0302ec	-0.03198521
74	0xbd47dfc4	-0.048797384
75	0x3ca1b496	0.01973943
76	0xbe821691	-0.25407842
77	0xbf8bfc02	-1.0936282
78	0xbf55b1e1	-0.83474547
79	0xbd3b5d5e	-0.04574334
80	0xbd9e9cc0	-0.077447414
81	0x3d31f798	0.043449014
82	0xbd204cf1	-0.039135877
83	0x3d0ba1d9	0.034089897
84	0x3d645468	0.05574456
85	0xbd219926	-0.039452694
86	0x3aa32f63	0.0012450035
87	0x3d5bb0fd	0.053635586
88	0x3c165385	0.009175186
89	0x3c8fadad	0.01753887
90	0xc03e211e	-2.9707713
91	0x3d091550	0.03346759
92	0x3dfc6e1c	0.12325689
93	0xbd05030b	-0.032473605
94	0x3cdf5b4f	0.027265219
95	0x3d30df04	0.043181434
96	0xbf1cad17	-0.61201614
97	0xbee9b353	-0.45644626
98	0x3e2729c3	0.16324525
99	0x3cc5eaf3	0.024159884
100	0x3db47750	0.088118196
101	0x3de8005e	0.11328195
102	0xbe0118e7	-0.12607156
103	0x3c1ed461	0.00969419
104	0xbedae713	-0.4275442
105	0x3dad0e3f	0.08449983
106	0xbd8b89fd	-0.068134286
107	0xbdb853ca	-0.090003565
108	0x3e4a0dcd	0.19731827
109	0x3d4bb2e8	0.049731165
110	0x3d602e56	0.05473169
111	0x3e07b5f4	0.13253003
112	0x3d08a1a6	0.033357285
113	0x3d4fee27	0.05076423
114	0x3dc95601	0.09830857
115	0x3d28f2e8	0.04124728
116	0xbdb6cdbc	-0.089259595
117	0xbf02b404	-0.5105593
118	0xc055a7e2	-3.3383718
119	0xbd36d503	-0.044636738
120	0x3db9fffc	0.09082028
121	0x3d3e4ac2	0.046458013
122	0xbb7d9f11	-0.0038699547
123	0xbc81eef2	-0.015861008
124	0xbc871436	-0.01648913
125	0x3de2d901	0.110765465
126	0xbf107bf8	-0.5643916
127	0x3e516ac4	0.20450884
128	0x3cd8e6ca	0.026477236
129	0x3f54601d	0.8295916
130	0xbe58b3d0	-0.21162343
131	0xbf18e1a2	-0.5971929
132	0x3e25d0e9	0.16192974
133	0x3d6e607b	0.05819748
134	0x3de389bb	0.111102544
135	0x3d27c3bc	0.04095815
136	0xbaff8968	-0.0019495906
137	0xbf6456d6	-0.89195
138	0x3e924dfc	0.28575122
139	0x3ab91f30	0.0014123674
140	0xbda8ce37	-0.08242457
141	0xc02e5fa3	-2.7245872
142	0x3bdf6b4a	0.00681821
143	0x3c786f7b	0.015163298
144	0x3ee6ad97	0.45054314
145	0xbd2a9fb2	-0.041656204
146	0xbc2e0ba3	-0.010622892
147	0x3d9e1887	0.07719522
148	0x3de642c7	0.112432055
149	0xbc86e15f	-0.016464887
150	0xbd0a962b	-0.033834618
151	0xbe33e263	-0.17566828
152	0xbf131732	-0.5745727
153	0x3de73cfa	0.11290927
154	0x3dd94c52	0.1061026
155	0x3d937acd	0.07201157
156	0x3d9ef4f0	0.07761562
157	0xbdd12069	-0.1021126
158	0xbf98647e	-1.1905668
159	0x3d4c038a	0.049808063
160	0xbd9d27a0	-0.076735735
161	0x3d39cc0a	0.045360602
162	0x3d2fd218	0.04292497
163	0x3dbcafcd	0.09213219
164	0x3ed4a89b	0.41534886
165	0xbc50b526	-0.012738502
166	0x3c3ddb46	0.011587923
167	0xbc5b5afa	-0.01338839
168	0xbd155471	-0.036457483
169	0x3e6ace7a	0.22930327
170	0xbd819268	-0.06326753
171	0x3d80e386	0.06293397
172	0x3d7ad945	0.06124236
173	0xbdbadd1a	-0.09124203
174	0x3d9f7e24	0.07787731
175	0xbcd163a3	-0.025560206
176	0x3d458ed1	0.048231903
177	0x3da1d95d	0.07902787
178	0xbd64787e	-0.055778973
179	0xbd062ab2	-0.03275556
180	0xbd4c8048	-0.049927026
181	0xc046623a	-3.0997453
182	0xbde30e87	-0.11086755
183	0xbe31e2bd	-0.1737165
184	0x3d2f1894	0.04274805
185	0xbe2cb722	-0.16866735
186	0x3deb46db	0.11488124
187	0xbd13832d	-0.03601377
188	0xc003c9a2	-2.0591817
189	0xc02d3324	-2.7062464
190	0x3c88209b	0.01661711
191	0x3e6e7886	0.23288164
192	0xbd8f64db	-0.070016585
193	0x3d2ed641	0.042684797
194	0xbd9361b9	-0.071963735
195	0xbf964b28	-1.1741686
196	0x3defa2d4	0.11700979
197	0xbd117bac	-0.035518333
198	0x3e6d3783	0.23165707
199	0xbabe4f2d	-0.0014519446
200	0x3dcf3d97	0.10119169
201	0xbb94aada	-0.0045369687
202	0x3cada77f	0.021198032
203	0xbdb08e29	-0.08620865
204	0x3d7e9a2a	0.06215874
205	0x3d8f622f	0.07001149
206	0x3d91a5e6	0.07111721
207	0x3f0ec9dc	0.5577676
208	0x3e1bcc47	0.15214644
209	0x3da2041c	0.0791094
210	0xbdae6b52	-0.085165635
211	0x3f57087f	0.8399734
212	0xc0a0a211	-5.0197835
213	0xbf2291d3	-0.6350376
214	0x3d6a55f1	0.057210866
215	0x3ce3ef49	0.027824061
216	0xbecf678c	-0.40508687
217	0xbd564096	-0.052307688
218	0x3db08043	0.08618214
219	0xbcbb7ea7	-0.022887541
220	0xbe9e4b3a	-0.30916768
221	0xbdb5358c	-0.08848104
222	0xbc96fd21	-0.018431248
223	0x3c7cfa92	0.0154406
224	0xbd1e562a	-0.03865639
225	0xbd227a68	-0.039667517
226	0xbf084084	-0.53223443
227	0x3d4906f9	0.049078915
228	0x3b895f1d	0.0041922466
229	0xbfe247a2	-1.7678111
230	0x3e2c774b	0.16842382
231	0xbd3babcc	-0.045818135
232	0xbe85df91	-0.2614713
233	0xbd32e258	-0.04367289
234	0x3e3bf9e9	0.18357052
235	0xbd521730	-0.051291645
236	0x3d35ae03	0.044355404
237	0x3d41f01f	0.047348138
238	0x3da04e41	0.07827426
239	0x3decd261	0.11563564
240	0x3e218399	0.15772857
241	0x3d849b65	0.06474952
242	0x3dec7c31	0.11547125
243	0x3e04e5fb	0.12978356
244	0xbd88bb4c	-0.06676349
245	0x3d728e82	0.059217937
246	0x3d86812d	0.06567607
247	0xb7a4f7f9	-1.9665795e-05
248	0x3e146a2e	0.1449363
249	0x3ef10a0c	0.47077978
250	0x3c8fbe40	0.017546773
251	0x3d693cea	0.056942858
252	0x3c8698ab	0.01643022
253	0xbdbe3f6d	-0.09289441
254	0xbeb63a58	-0.35591388
255	0x3d99c905	0.075090446

l2.bias f4 [256]
0	0x3dc815f2	0.09769811
1	0x3d533faf	0.051574405
2	0x3d61f89e	0.05516874
3	0xbc3aaec8	-0.01139421
4	0x3dbe3ef4	0.09289351
5	0x3c43ba82	0.011946322
6	0x3cb46e7f	0.022025345
7	0xbd7ee8d1	-0.06223375
8	0xbd65f684	-0.0561433
9	0x3ce803a8	0.028322056
10	0xbb65eced	-0.0035083846
11	0x3c41121d	0.011784104
12	0xbd92f07a	-0.071747735
13	0xbd1c2522	-0.03812135
14	0xbd0c3e46	-0.034239076
15	0x3d9597cd	0.07304344
16	0x3bdbbf8d	0.0067061842
17	0x3c18ca1b	0.009325529
18	0x3d5097b1	0.050925914
19	0xbbe2fd5e	-0.0069271764
20	0x3d268e31	0.040662948
21	0x3c614cdb	0.013751234
22	0x3dd28b97	0.10280531
23	0xbe6c3416	-0.23066744
24	0x3c756b12	0.014979141
25	0x3d85325f	0.06503748
26	0x3b4959ed	0.0030723766
27	0xbdabb9dd	-0.0838506
28	0x3d9651d6	0.07339828
29	0x3d66f7b3	0.056388568
30	0xbcb88405	-0.02252389
31	0x3d985d17	0.074396305
32	0x3d6ef77b	0.058341485
33	0x3cf35f4e	0.02970853
34	0x3d89cdda	0.06728716
35	0x3df27d7a	0.11840339
36	0x3d3903c1	0.045169596
37	0x3ce7f5b1	0.028315397
38	0x3da706d4	0.08155599
39	0xbd04eb93	-0.032451224
40	0xb9b0e9cf	-0.00033743537
41	0x3cb2f73c	0.021846406
42	0x3b8cf82c	0.0043020453
43	0x3d72d059	0.059280727
44	0xbc2f5d62	-0.010703417
45	0x3d8f7e8d	0.070065595
46	0xbd4f33ad	-0.05058639
47	0x3b842c21	0.004033581
48	0x3ce5f30d	0.028069997
49	0xbd04a15a	-0.03238044
50	0x3d1c76aa	0.038199104
51	0xbc44526e	-0.011982543
52	0x3cc0c614	0.023531951
53	0x3c768301	0.015045882
54	0x3d3dc04b	0.046325963
55	0x3de74664	0.11292723
56	0x3d814f2c	0.06313929
57	0x3d07cb0f	0.033152636
58	0xbd0d914c	-0.034562394
59	0x3cd05cc1	0.025434854
60	0xbe0c9bb0	-0.13731265
61	0x3caae186	0.020859491
62	0x3d4e5280	0.050371647
63	0x3c9558eb	0.018230876
64	0x3c9bc4d0	0.019014746
65	0x3ca6925a	0.020333458
66	0x3cc100b8	0.023559913
67	0xbd22f91f	-0.03978836
68	0xbc6465c4	-0.013940278
69	0x3e03b251	0.12860991
70	0x3dd264a7	0.10273104
71	0x3d09234a	0.03348092
72	0x3dee1d85	0.11626724
73	0x3d21aef2	0.03947348
74	0xbda93846	-0.082626864
75	0xbd77dda5	-0.06051411
76	0xbcfdf25f	-0.03099936
77	0x3d34f80a	0.04418186
78	0x3dccdfa5	0.10003594
79	0x3d66475c	0.056220397
80	0x3e01f469	0.12690891
81	0x3999db05	0.00029345616
82	0x3d8137de	0.06309484
83	0xbd131e0c	-0.035917327
84	0x3da4f31a	0.080541804
85	0x3de79369	0.11307413
86	0x3db895e4	0.09012964
87	0x3d812886	0.06306557
88	0x3d831280	0.06400013
89	0x3de10427	0.1098712
90	0x3d987d8b	0.074458204
91	0x3b8f83f9	0.004379746
92	0x3ccebdf2	0.025237057
93	0x3db5e547	0.08881622
94	0x3d05daa9	0.032679234
95	0x3d201027	0.039077904
96	0xbd152a90	-0.036417544
97	0x3db0de40	0.08636141
98	0x3c93ba6a	0.018033225
99	0x3cca7fe4	0.024719186
100	0x3e05e88b	0.1307699
101	0xbd0f6fe5	-0.03501882
102	0xbd7010c9	-0.058609758
103	0x3da7c360	0.08191562
104	0x3ca090ec	0.019600354
105	0x3d60b9f6	0.054864846
106	0xbd765765	-0.06014194
107	0x3d8f81cc	0.07007179
108	0xbc4791ba	-0.01218074
109	0xbca6b7f2	-0.020351384
110	0xbcdd5390	-0.027017385
111	0x3db0f585	0.08640579
112	0xbd809e5a	-0.06280203
113	0x3c56f2c9	0.013119408
114	0x3c1a2beb	0.009409885
115	0xbd8e8908	-0.069597304
116	0x3da9cedd	0.08291409
117	0xbd21deaa	-0.03951899
118	0x3cd419b3	0.02589116
119	0xbd3ba0f3	-0.04580779
120	0x3dd081c9	0.101810046
121	0xbc712e5e	-0.014720527
122	0x3dcfe6da	0.10151453
123	0x3cf229fd	0.029561037
124	0x3d3eebc5	0.046611566
125	0x3d4d032f	0.050051864
126	0x3da51aea	0.08061774
127	0x3dc181e8	0.09448606
128	0xbd009af4	-0.031397775
129	0x3d2e95a6	0.042623185
130	0x3c90215e	0.017594036
131	0x3c9ad2a6	0.018899273
132	0x3cf46416	0.029832881
133	0x3de27f48	0.11059433
134	0x3d8061b0	0.062686324
135	0x3d832ac2	0.0640464
136	0xbc6df269	-0.014523127
137	0xbd837350	-0.064184785
138	0x3ce80bc3	0.02832592
139	0xbc05bd38	-0.008162789
140	0x3de00937	0.109392576
141	0x3c0ad7a8	0.008474268
142	0xbd775f2e	-0.060393505
143	0xbd58f6bf	-0.05296969
144	0xbd4a3758	-0.049369186
145	0xbc26c798	-0.010179423
146	0x3cca813d	0.024719829
147	0x3d472393	0.04861791
148	0xbbdfa460	-0.006825015
149	0xbb7d0d57	-0.0038612687
150	0xbd81de27	-0.063412
151	0x3d20d57d	0.0392661
152	0x3df4f05b	0.11959907
153	0xbb155682	-0.0022787158
154	0x3c0879c8	0.008329816
155	0x3caf695f	0.02141255
156	0x3c495d3d	0.012290296
157	0x3dab1fa3	0.083556436
158	0xbdb2d9a8	-0.08732921
159	0x3c8ff114	0.01757101
160	0xbc1391d7	-0.009006939
161	0x3b9293f9	0.004473206
162	0xbe2790b2	-0.1636379
163	0xbbdcc1fa	-0.006736991
164	0x3d21e069	0.039520655
165	0xbd6f782a	-0.058464207
166	0xba7f680e	-0.00097429834
167	0x3d05d709	0.032675777
168	0x3d5152f1	0.05110449
169	0x3cac3041	0.021019103
170	0x3de472cc	0.11154708
171	0xbc4e2985	-0.012583141
172	0x3d5ed3f1	0.05440134
173	0x3d5115d7	0.05104622
174	0x3a893520	0.0010468103
175	0x3d7a257e	0.06107091
176	0x3dbf0f41	0.09329081
177	0x3ca6e23f	0.020371554
178	0x3b925d89	0.0044667167
179	0xbb21e205	-0.0024701369
180	0xbca2b464	-0.019861408
181	0x3dc1af04	0.0945721
182	0x3d15c637	0.036565986
183	0x3d436ebd	0.04771303
184	0xbd70319e	-0.05864107
185	0xbcb5abc1	-0.022176625
186	0x3d5f1756	0.054465614
187	0x3cfa7e46	0.03057779
188	0x3d57db1c	0.052699193
189	0x3b94f921	0.0045463
190	0x3d1976ad	0.037466694
191	0x3be9c67b	0.0071342564
192	0x3cc763e0	0.024339616
193	0xbd547016	-0.051864706
194	0xbe5df279	-0.21674527
195	0xbc8292ca	-0.015939135
196	0x3cb96901	0.022633078
197	0x3d997662	0.07493283
198	0x3bea821f	0.007156625
199	0xbcefc5fb	-0.02926921
200	0x3cb04987	0.021519436
201	0x3deedcfd	0.11663244
202	0x3deef5ce	0.11667977
203	0xbc903043	-0.017601138
204	0x3d931330	0.07181394
205	0x3d31990e	0.043358855
206	0x3d839902	0.06425668
207	0x3bd5a739	0.0065201786
208	0x3d572b30	0.05253142
209	0xbd2e5321	-0.042559747
210	0x3dd233f8	0.102638185
211	0x3d71e610	0.059057295
212	0x3d548c5c	0.05189167
213	0x3d14ba12	0.036310263
214	0xbd4cee5e	-0.050032012
215	0xbcb00c33	-0.021490192
216	0xbc8ab0fe	-0.0169301
217	0x3db0af3b	0.086271726
218	0x3d207083	0.0391698
219	0xbd2f4f07	-0.042799976
220	0xbae8ba5b	-0.0017755734
221	0xbda46fc2	-0.080291286
222	0xbd7bdef2	-0.061491914
223	0x3c5fd54d	0.013661695
224	0x3cb4a1a2	0.022049729
225	0x3d5c4353	0.053775143
226	0x3d3dce1c	0.04633914
227	0xbca33129	-0.019920902
228	0x3b83803a	0.0040130885
229	0x3cee45a2	0.029085938
230	0x3cf5988c	0.029979967
231	0x3d1acb32	0.03779144
232	0x3ce16113	0.027512109
233	0x3d56df43	0.052459013
234	0x3d8519db	0.06499072
235	0x3c874143	0.016510611
236	0xbbd6fc3c	-0.0065608304
237	0x3de1081c	0.10987875
238	0xbc71ade2	-0.01475093
239	0xbd8a9d4b	-0.067682825
240	0x3bb88f16	0.0056322915
241	0x3d290aea	0.041270174
242	0x3dadddb2	0.08489551
243	0x3cfacf5d	0.030616457
244	0x3c84cff3	0.01621244
245	0xbd75a1b5	-0.05996867
246	0x3c72a6c6	0.01481027
247	0xbd69e866	-0.057106398
248	0xbd7bcf0d	-0.061476756
249	0x3ca7eeea	0.020499665
250	0x3d0bbb3d	0.03411411
251	0x3d837ed9	0.06420679
252	0x3d433139	0.047654364
253	0xbd80f766	-0.062971875
254	0xbc93366e	-0.01797029
255	0xbd3434e2	-0.043995745

l3.weight f4 [1, 256]
0	0x3f0eb2c4	0.55741525
1	0x3f2e0e86	0.6799091
2	0xbc222b61	-0.009898038
3	0xbcb41860	-0.02198428
4	0x3f28444e	0.65729225
5	0x3cac6b79	0.02104734
6	0xc0510aec	-3.2662916
7	0xbd034212	-0.03204543
8	0xbd4af157	-0.049546566
9	0xbd47adb6	-0.048749648
10	0xbf443593	-0.7664425
11	0xc029a8ff	-2.6509397
12	0xbb8bdf0c	-0.0042685326
13	0xbd65c57f	-0.05609655
14	0xbff7400d	-1.9316422
15	0x3f431a5f	0.76212114
16	0x3efd9632	0.49528652
17	0x3f0e1e1f	0.5551471
18	0x3ba1f7dc	0.004942877
19	0x3e60bc0c	0.21946734
20	0xbfb3cb92	-1.40465
21	0x3f1b2dc5	0.60616714
22	0x3eeea146	0.46607417
23	0xc03e4b4f	-2.9733465
24	0x3f08f482	0.5349809
25	0x3f0bc1e3	0.5459272
26	0x3f4c3b67	0.7977814
27	0xc00364bd	-2.0530236
28	0x3f22cac1	0.6359063
29	0xbf26fab5	-0.652263
30	0xc032a2ef	-2.7911947
31	0x3f82870b	1.0197462
32	0x3f4afea9	0.7929483
33	0x3f944248	1.1582727
34	0x3f56e6c2	0.8394586
35	0x3f963d8b	1.1737531
36	0xbfa6a902	-1.3020327
37	0x3eb73d3a	0.357889
38	0x3f4841d8	0.7822547
39	0xbd317e0d	-0.043333102
40	0xbd3fa51b	-0.046788316
41	0x3f1c4d23	0.610552
42	0x3f339fd8	0.7016578
43	0x3f05e129	0.5229669
44	0xbb87e21f	-0.004146829
45	0xc07a64cb	-3.912402
46	0xc025ca07	-2.5904558
47	0x3f9712cb	1.180261
48	0x3f0d68fb	0.5523831
49	0xbfb63378	-1.4234457
50	0x3f19f0d7	0.6013312
51	0xc01ee5a7	-2.4827669
52	0x3f08bf03	0.5341646
53	0xbcae4fc0	-0.021278262
54	0x3f8591e7	1.0435151
55	0x3efd0cbc	0.49423778
56	0x3f1c4377	0.61040443
57	0xbce98dd9	-0.028510021
58	0xc0883810	-4.2568436
59	0xbd169bec	-0.036769792
60	0xbeff88ec	-0.4990915
61	0xc0325ef7	-2.7870462
62	0x3ed1a561	0.40946487
63	0x3edc8893	0.43072948
64	0xbba0b154	-0.0049039517
65	0x3eb1b00e	0.34704632
66	0xbc817650	-0.015803486
67	0x3bfcc105	0.0077134394
68	0x3f880935	1.062781
69	0x3f995f60	1.1982231
70	0x3f0eadae	0.55733764
71	0x3f100659	0.56259686
72	0x3f12e507	0.5738072
73	0x3f8db3fa	1.107055
74	0xc039b4e5	-2.901666
75	0xbf3ab533	-0.7293274
76	0xc0402da7	-3.0027864
77	0xbf9080c7	-1.12893
78	0x3f9773f9	1.1832267
79	0x3f0c834c	0.54887843
80	0x3efd682a	0.49493533
81	0x3edc1f5b	0.42992672
82	0x3f0b934f	0.5452165
83	0xc00ad70d	-2.1693757
84	0x3f1ed9d1	0.6205111
85	0x3f16b795	0.58873874
86	0x3f100e8c	0.56272197
87	0xbf886137	-1.0654668
88	0x3f34178c	0.7034843
89	0x3f19c542	0.60066617
90	0x3f1edeb0	0.62058544
91	0x3f8fab3f	1.1224135
92	0x3f4b5d05	0.7943881
93	0x3f215a0f	0.63028044
94	0x3f0fda2f	0.56192297
95	0x3d397651	0.04527885
96	0xbfbbeb42	-1.468117
97	0x3f8071cf	1.0034732
98	0x3cca2e67	0.02468033
99	0x3b2d7440	0.0026466995
100	0x3f9373d4	1.1519723
101	0x3b837335	0.0040115365
102	0x3b93cc60	0.0045104474
103	0x3f6eeecc	0.93333125
104	0xbd33363a	-0.043752886
105	0x3e81774c	0.2528633
106	0x3c5fdbe9	0.0136632705
107	0x3f0ce419	0.5503555
108	0x3f8874e1	1.0660669
109	0x3cc64911	0.024204763
110	0xbcf32515	-0.029680768
111	0x3f0a6eca	0.540753
112	0xc02c0619	-2.6878722
113	0x3ef7f0c3	0.48425874
114	0x3f17d13e	0.59303653
115	0x3bb5812c	0.00553908
116	0x3f1b2ab5	0.6061204
117	0x3c01f070	0.00793086
118	0xbd4fdffc	-0.050750718
119	0x3d2ffa88	0.042963535
120	0x3f41421d	0.75491506
121	0x3f22cf42	0.635975
122	0x3f943e5b	1.1581529
123	0xbca8c15e	-0.020600017
124	0x3f268051	0.65039545
125	0x3f062821	0.5240498
126	0x3f17854f	0.5918779
127	0x3f0a305d	0.53980047
128	0x3e2c7efb	0.16845314
129	0x3f0c4a63	0.54801005
130	0x3f69d94f	0.9134721
131	0xbcf710bb	-0.030159345
132	0xbcc4fc35	-0.024046043
133	0x3eff2d02	0.49839026
134	0x3ef3334f	0.47500083
135	0x3f1d9efc	0.61570716
136	0x3d44e613	0.04807098
137	0xbd07d741	-0.033164266
138	0x3ed55abe	0.41670793
139	0x3ef26540	0.47342873
140	0x3f9414be	1.156883
141	0xc085759b	-4.170606
142	0xbc85b1bd	-0.016320104
143	0xbcbf1558	-0.023325607
144	0xc031d2ad	-2.7784836
145	0xbc79ff20	-0.01525858
146	0xbc2f8ec1	-0.0107151875
147	0xbd252bcd	-0.040324975
148	0xbcee8c14	-0.029119529
149	0x3f2bb70d	0.6707619
150	0x3b75266f	0.0037406941
151	0x3f592b5e	0.848318
152	0x3ed6d670	0.41960478
153	0x3ef4637c	0.4773215
154	0xbc514305	-0.012772326
155	0x3ee85f71	0.45385316
156	0x3eee6cad	0.46567288
157	0x3f94d11d	1.1626316
158	0xbf9a4c6e	-1.2054574
159	0xc06e9c9b	-3.7283084
160	0x3eda07fd	0.4258422
161	0xbc0a7caa	-0.008452574
162	0x40adf58a	5.436223
163	0x3f86b9bd	1.0525433
164	0x3f563be6	0.8368515
165	0xc007bbc8	-2.1208363
166	0xbd30b0c8	-0.04313734
167	0x3f824aed	1.0179116
168	0x3ef38835	0.47564855
169	0x3f164878	0.5870433
170	0x3f8f9e42	1.1220171
171	0x39d9b006	0.00041520613
172	0xbf24df6c	-0.64403415
173	0x3f18fc85	0.59760314
174	0xc03ae698	-2.9203243
175	0x3f981722	1.188206
176	0x3f0da710	0.5533304
177	0x3d0795fb	0.033102017
178	0x3f1b9c17	0.6078505
179	0xbfed1f07	-1.8525094
180	0xbce04286	-0.02737547
181	0x3fb1ee86	1.3900917
182	0xbb80057a	-0.003906903
183	0x3ad08795	0.0015909547
184	0x3cdb5c37	0.02677737
185	0x3e7541ce	0.23950884
186	0x3f1c6e89	0.61106163
187	0x3f17bb81	0.59270483
188	0x3f89c558	1.076335
189	0x3e15b246	0.14618787
190	0xbd202833	-0.039100837
191	0x3bd92ff0	0.006628029
192	0x3f820037	1.0156316
193	0xbd027e80	-0.03185892
194	0xbf972d9a	-1.1810791
195	0xc0345752	-2.8178296
196	0xbf612bdd	-0.87957555
197	0x3f632dc4	0.8874171
198	0xbff1c9b4	-1.888968
199	0xbd1be1a9	-0.038057003
200	0x3f14eff8	0.58178663
201	0x3f14ac58	0.58075476
202	0x3f914cdb	1.135158
203	0x3f0e4801	0.5557862
204	0x3f934d63	1.1507992
205	0x3f368105	0.7129062
206	0x3ec3b9a9	0.38227585
207	0x3b1d528f	0.0024005508
208	0x3f1b3c82	0.606392
209	0xc0302de3	-2.7528007
210	0x3f1c6f40	0.61107254
211	0xbf241cc1	-0.64106375
212	0x3edf3969	0.43598488
213	0xc02ee13d	-2.7324975
214	0x3d3f5940	0.046715975
215	0xc0379516	-2.8684745
216	0xbccc9fb8	-0.024978504
217	0x3ef39e0a	0.47581512
218	0x3f86da88	1.053544
219	0x402e2293	2.7208602
220	0xc089631c	-4.2933483
221	0xc008c6d1	-2.1371348
222	0xbcc3a28a	-0.023881216
223	0x3efc6aff	0.49300382
224	0x3f259e5f	0.6469478
225	0x3f092fb7	0.5358843
226	0x3fc23ddc	1.5175128
227	0x3f280b90	0.6564264
228	0x3f11509c	0.56763625
229	0xbcf003f0	-0.029298753
230	0x3f858bfd	1.0433346
231	0x3b4e9b72	0.0031525758
232	0x3eeff55c	0.46866882
233	0xbd132c23	-0.035930764
234	0x3f9944eb	1.1974157
235	0x3cfb9c93	0.030714309
236	0xbf3617bf	-0.71129984
237	0x3f15ca99	0.58512264
238	0xbc884a91	-0.016637119
239	0xbf9670d0	-1.1753178
240	0xbf4369e2	-0.7633344
241	0xc0400bb8	-3.0007153
242	0x3f114df0	0.5675955
243	0xbce5e181	-0.02806163
244	0x3f11a042	0.5688516
245	0xc008d9bb	-2.1382892
246	0x3f198387	0.5996632
247	0xc034481d	-2.8169014
248	0x3b4d30dd	0.0031309642
249	0x3f671663	0.90268534
250	0x3ee4f848	0.44720674
251	0x3f3e69a6	0.74379957
252	0x3c9fccf3	0.019506907
253	0xbc827595	-0.015925208
254	0xbcc3ba8d	-0.023892665
255	0xbd2bfc68	-0.04198876

l4.weight f4 [256, 6]
0	0x3e13f80a	0.14450088
1	0xbe494f12	-0.19659069
2	0xbe1fe5ff	-0.1561508
3	0xbf9afbf1	-1.2108136
4	0xbe216568	-0.1576134
5	0x3bb07c55	0.0053859153
6	0x3ed96911	0.42462972
7	0x3db4a2c0	0.088201046
8	0xbe8680e5	-0.26270214
9	0xbf830a63	-1.0237545
10	0xbe3cc2c5	-0.18433674
11	0x3d77f367	0.06053486
12	0xc0026e25	-2.0379727
13	0xbf51dd7d	-0.8197859
14	0xbe77803e	-0.24170014
15	0x3eb55c63	0.35422048
16	0xbe5f940a	-0.21833816
17	0xbd2c99e6	-0.042138956
18	0x3dfd480a	0.12367256
19	0xbef96e37	-0.487169
20	0xbe73c80f	-0.23806785
21	0xbf3979c3	-0.7245142
22	0x3eb5d764	0.35515893
23	0x3d880b0c	0.06642732
24	0x3e7bcd9e	0.24590155
25	0xbed8ef5e	-0.42370123
26	0x3ec113c9	0.37710407
27	0xbf7c59d5	-0.9857457
28	0xbec0b522	-0.37638193
29	0x3d5cfb2d	0.053950477
30	0x3e321709	0.173916
31	0xbe38cd0c	-0.18046969
32	0xbea96e6a	-0.33092052
33	0xbfe70a46	-1.805001
34	0xbed65a53	-0.41865787
35	0x3d8bfe93	0.068356656
36	0xbe14d0fb	-0.14532845
37	0x3e830741	0.25591472
38	0x3ead9588	0.33903146
39	0xbda4d8c0	-0.08049154
40	0x3ed5b805	0.41741958
41	0xbd6ee578	-0.058324307
42	0xbdd8193b	-0.10551687
43	0xbe4de730	-0.20107722
44	0x3e357a77	0.17722498
45	0xbf33f568	-0.70296335
46	0xbe6220fd	-0.22082897
47	0xbdb1c770	-0.08680618
48	0x3e4aac0b	0.19792192
49	0xbe7fd3e4	-0.24983174
50	0xbd158b03	-0.036509525
51	0xbfb6b9f8	-1.4275503
52	0xbe8e1298	-0.2774856
53	0x3d29fb03	0.04149915
54	0xbeb7f4af	-0.35928866
55	0x3e63ae37	0.22234426
56	0xbe890705	-0.26763168
57	0x3ebcba69	0.3686097
58	0x3ea0cd98	0.31406856
59	0xbea49e7d	-0.32152167
60	0xbf591e4d	-0.8481186
61	0xbdc35477	-0.09537595
62	0xbe7146cd	-0.23562165
63	0x3faff741	1.3747331
64	0x3d1759ef	0.036951
65	0xbc8c5ba3	-0.01713354
66	0x3ec2537a	0.37954313
67	0x3cc4fab6	0.02404533
68	0x3dcdb98b	0.10045155
69	0xbf3de7a0	-0.74181557
70	0x3cdb82bd	0.02679574
71	0xbd1d8253	-0.038454365
72	0x3dd31d34	0.103083044
73	0xbdac90cd	-0.08426056
74	0x3e436e7e	0.19085118
75	0xbfa48b98	-1.2855101
76	0xbe0b80e5	-0.13623388
77	0x3ce2b764	0.027675338
78	0x3e23144f	0.15925716
79	0x3edd15c4	0.43180668
80	0xbeb51a19	-0.35371473
81	0xbf2ec07c	-0.6826246
82	0xbf04a17c	-0.51808906
83	0x3eb2bc90	0.34909487
84	0xbf3d5752	-0.73961365
85	0xbe6b9f5d	-0.23010011
86	0xbe19526c	-0.14972848
87	0x3f9aa0db	1.2080339
88	0xbb5b7828	-0.0033488367
89	0xbd07de07	-0.033170726
90	0x3e794e0c	0.24346179
91	0xbf36e264	-0.71439195
92	0x3e2bdc3e	0.16783234
93	0x3ef8fcc0	0.48630333
94	0xbeee21cb	-0.46510157
95	0x3d9304ab	0.07178625
96	0x3ece3bd1	0.4028001
97	0xbe900141	-0.28125957
98	0xbe30dd1d	-0.17271848
99	0x3f45196a	0.76991904
100	0x3ebb3a82	0.36568075
101	0xbdae4df1	-0.0851096
102	0xbf768ccd	-0.96308595
103	0xbf0fbbaf	-0.5614576
104	0xbd8f8353	-0.0700747
105	0xbf19fa8e	-0.6014794
106	0xbe8df916	-0.277291
107	0x3dbb9f72	0.09161271
108	0x3e87e047	0.26538298
109	0xbea8ecad	-0.3299307
110	0xbee1e337	-0.44118664
111	0x3f7d7e42	0.9902078
112	0x3ec5920f	0.38587996
113	0xbe80e237	-0.25172588
114	0x3d97e3ea	0.07416518
115	0xbefd2088	-0.49438882
116	0xbdad9323	-0.0847533
117	0x3f58b330	0.8464842
118	0xbe77a1f6	-0.24182877
119	0x3eae7227	0.34071466
120	0x3e0780be	0.13232705
121	0x3c655d95	0.0139993625
122	0x3e17ae1f	0.14812516
123	0x3f275c3a	0.653751
124	0x3e9e4077	0.30908558
125	0x3e843fb6	0.25829858
126	0x3edc9f55	0.4309031
127	0x3f0d7175	0.55251247
128	0xbe0484ec	-0.1294133
129	0x3f1c84d8	0.61140203
130	0x3ea14242	0.31495863
131	0xbc85a76e	-0.016315188
132	0x3f454379	0.7705608
133	0x3eac8ba5	0.3370029
134	0xbd33f125	-0.043931145
135	0xbf7ebad5	-0.99503833
136	0x3bf9b42e	0.007620356
137	0x3e61e02a	0.22058168
138	0x3f158884	0.5841143
139	0x3cb96659	0.022631811
140	0xbe4399a4	-0.19101578
141	0x3f8189a2	1.0120127
142	0x3edb2a93	0.4280592
143	0x3cb2df62	0.021835033
144	0xbe293a6e	-0.16526195
145	0x3dcb409f	0.09924435
146	0x3db66cdc	0.08907482
147	0x3fcb74a0	1.5894966
148	0x3e85f961	0.26166824
149	0xbd09c614	-0.033636168
150	0x3f3b9595	0.7327512
151	0x3e8806ed	0.26567784
152	0xbe71005f	-0.23535298
153	0xbf6e216a	-0.93019736
154	0xbef72189	-0.48267773
155	0x3e0ad89a	0.1355919
156	0xbe17ed0f	-0.14836524
157	0x3d31d804	0.0434189
158	0xbe11401e	-0.14184615
159	0xbf62e2a3	-0.8862707
160	0x3ea57a19	0.32319716
161	0xbd130ff3	-0.035903882
162	0x3eae65e0	0.340621
163	0xbeaecde3	-0.34141454
164	0xbe6ecdfe	-0.23320767
165	0xbfde0d43	-1.7347797
166	0xbef86328	-0.4851315
167	0x3d97e8a8	0.074174225
168	0x3f498644	0.787205
169	0xbed1d3e9	-0.40981987
170	0xbd690ff2	-0.056899972
171	0xbf5f7241	-0.8728371
172	0xbec53f98	-0.3852508
173	0x3d13cb4c	0.03608255
174	0x3ee2f33c	0.44326198
175	0x3e8beef8	0.27330756
176	0x3eb2e9b4	0.34943926
177	0xbdeecfaa	-0.116607025
178	0x3e00e309	0.12586607
179	0xbded623b	-0.115910016
180	0x3d2115b4	0.03932734
181	0xbe9240f1	-0.2856517
182	0x3ee9bd19	0.45652083
183	0xbfa982fd	-1.32431
184	0xbe905b93	-0.28194866
185	0x3d0dbf3f	0.034606215
186	0xbe4f786d	-0.20260783
187	0x3ec55af4	0.38545954
188	0x3e626f5a	0.2211279
189	0x3fb18bc2	1.3870776
190	0x3eb743d7	0.35793945
191	0xbd33cc78	-0.04389617
192	0xbea401cd	-0.32032624
193	0xbdc5dded	-0.096614696
194	0x3ed1d58f	0.40983245
195	0x3e9ca803	0.30596933
196	0xbec0de36	-0.37669533
197	0xbe4ab005	-0.19793709
198	0x3ee59803	0.44842538
199	0x3f19ff8c	0.6015556
200	0xbdb4d7b4	-0.088302046
201	0x3f547098	0.82984304
202	0xbefd72b3	-0.4950157
203	0x3e2976ef	0.16549276
204	0xbecf3562	-0.40470415
205	0x3e7cd624	0.24691063
206	0xbe597f7c	-0.21240038
207	0xbee7c868	-0.45270085
208	0xbed086e6	-0.4072792
209	0xbeacd9e8	-0.3376
210	0xbd871436	-0.06595652
211	0x3f18bb1c	0.59660506
212	0x3ea090ae	0.31360382
213	0xbe161d99	-0.14659728
214	0xbf0a3fb7	-0.5400347
215	0x3db0f263	0.086399816
216	0xbf969037	-1.1762761
217	0xbec4a614	-0.38407958
218	0xbe070f77	-0.13189493
219	0xbe5a5ca8	-0.21324408
220	0x3bd4c4ad	0.006493172
221	0xbe88e9ef	-0.26740977
222	0xbecd1cbd	-0.40060988
223	0x3e96a634	0.29423678
224	0xbeb78aee	-0.35848182
225	0xbec4880f	-0.38385054
226	0x3e3cc221	0.1843343
227	0xbeaf4fe2	-0.34240633
228	0xbe635848	-0.22201645
229	0xbf2f064e	-0.68368995
230	0xbe9c7726	-0.30559653
231	0xbf712eda	-0.94212115
232	0xbec1eb88	-0.3787501
233	0x3bb2d578	0.0054575764
234	0xbe8e9051	-0.2784448
235	0xbe3b8e6c	-0.18316048
236	0x3eadcac6	0.33943766
237	0xbe15a75e	-0.14614627
238	0xbe55a817	-0.20864902
239	0x3cf6517c	0.030068152
240	0xbe9dc3de	-0.30813497
241	0xbd860e3c	-0.06545684
242	0x3ed3b910	0.4135213
243	0x3f484783	0.7823412
244	0xbea7ad7f	-0.32749555
245	0x3e8d08f3	0.2754589
246	0x3da1ed30	0.07906568
247	0x3de719f1	0.11284245
248	0xbec39411	-0.38198903
249	0xbfb5587d	-1.416763
250	0xbed7ca86	-0.421467
251	0x3e326888	0.17422688
252	0x3e07a2f2	0.13245752
253	0xbe46dc25	-0.19419916
254	0x3e84f513	0.25968227
255	0xbfa3d3fb	-1.2799066

l4.bias f4 [256]
0	0xbe1759d0	-0.14780354
1	0xbc41df2e	-0.011832995
2	0x3e664511	0.22487284
3	0x3ea8519a	0.32874757
4	0x3d25f0ca	0.040512837
5	0xbe787dd3	-0.24266748
6	0x3e2044f6	0.15651307
7	0x3eb09bc5	0.34493843
8	0xbeb33444	-0.35000813
9	0x3ec012f0	0.37514448
10	0xbca2bd1b	-0.019865563
11	0x3d684b9b	0.056712728
12	0xbef63f01	-0.48094943
13	0xbe8d101e	-0.2755136
14	0xbd9d6f2d	-0.07687221
15	0x3e798386	0.24366578
16	0xbe83e175	-0.25757948
17	0x3e8f6b09	0.2801135
18	0xbef31560	-0.47477245
19	0x3e840e76	0.25792283
20	0x3e378543	0.17921929
21	0xbe618761	-0.22024299
22	0x3db285ac	0.08716902
23	0xbeef9aff	-0.4679794
24	0xbf037d55	-0.51363117
25	0xbe954ed7	-0.29161713
26	0x3eb9e7d6	0.3630969
27	0xbebb00de	-0.365241
28	0xbec40847	-0.38287565
29	0x3e8e5c04	0.27804577
30	0xbd321b70	-0.043483198
31	0x3e78fc03	0.24314885
32	0xbcc582f0	-0.024110287
33	0x3e0a83c8	0.13526833
34	0xbf09213f	-0.53566355
35	0xbe8a4886	-0.27008456
36	0xbde7316c	-0.11288723
37	0x3e4f063e	0.20217225
38	0x3ef78f3d	0.4835147
39	0x3e10a61a	0.14125863
40	0x3e59c5db	0.21266882
41	0xbe655adb	-0.2239794
42	0x3e3cea13	0.18448667
43	0xbeb13fe5	-0.3461906
44	0x3eac578d	0.33660546
45	0xbecf24f4	-0.4045788
46	0x3d36255a	0.044469215
47	0xbe2abcd7	-0.16673599
48	0xbec2a4dd	-0.38016406
49	0x3d54ad25	0.051922936
50	0x3cdc1e92	0.026870046
51	0xbe008f6a	-0.12554708
52	0xbe63f43a	-0.22261134
53	0xbed56a1e	-0.41682523
54	0x3e9d6869	0.3074372
55	0xbeb45005	-0.352173
56	0xbe0012c0	-0.12507153
57	0x3e6ba860	0.23013449
58	0xbeb5dc37	-0.35519573
59	0xbe626dec	-0.22112244
60	0xbeaba9f2	-0.33528095
61	0xbebdf32b	-0.37099585
62	0x3e084d8a	0.13310829
63	0x3ea0db37	0.31417248
64	0x3c2e0b5f	0.010622828
65	0x3e40a023	0.18811087
66	0x3c88e6e4	0.01671166
67	0x3df66586	0.12031083
68	0xbf09c162	-0.53810704
69	0x3d5524de	0.052037112
70	0xbec8e2ed	-0.3923563
71	0xbe983ecf	-0.2973542
72	0xbe95cc66	-0.29257506
73	0x3e24a03e	0.16076753
74	0xbe6f6f26	-0.23382244
75	0x3e66b992	0.22531727
76	0x3d708695	0.058722097
77	0x3ba4293e	0.0050097993
78	0xbb8f0965	-0.0043651336
79	0xbecc3a10	-0.39888048
80	0x3e6dfbaa	0.23240533
81	0xbea34ff0	-0.31896925
82	0x3d518213	0.05114944
83	0xbf0c745e	-0.5486506
84	0xbd5392b0	-0.051653564
85	0x3d2cfe25	0.04223456
86	0xbd078337	-0.03308412
87	0x3eac0386	0.33596438
88	0xbd40e1a3	-0.047090184
89	0xbbb48728	-0.005509276
90	0x3e9f46e4	0.31108773
91	0xbd0b4507	-0.034001376
92	0x3e4598a5	0.1929651
93	0xbe1ac651	-0.15114714
94	0x3bf22282	0.0073893676
95	0xbed9f0cf	-0.42566535
96	0xbbf235a4	-0.0073916484
97	0x3cdb41a7	0.026764704
98	0x3e08656f	0.13319944
99	0xbe842142	-0.25806624
100	0x3e500b7a	0.20316878
101	0x3e4daa8f	0.20084594
102	0xbebe0374	-0.3711201
103	0x3e99d0b3	0.30042037
104	0xbdbe5e99	-0.09295387
105	0x3e39d348	0.18147004
106	0xbecf39d5	-0.4047381
107	0x3dae4267	0.08508759
108	0xbe9edb61	-0.31026748
109	0x3dff55ee	0.12467562
110	0xbeadeecc	-0.3397125
111	0xbd016797	-0.03159293
112	0xbe11fc7a	-0.14256468
113	0xbe42134f	-0.18952678
114	0x3e033bac	0.12815732
115	0x3e354b3f	0.17704485
116	0xbe0ee9cb	-0.13956372
117	0xbd3515d2	-0.044210263
118	0x3e113503	0.14180379
119	0x3eb76c89	0.35824993
120	0x3d54b9a5	0.051934857
121	0x3eb98009	0.36230496
122	0xbe41a218	-0.1890949
123	0x3eb3f8a5	0.35150638
124	0xbe45c0be	-0.19311807
125	0x3eadc14f	0.33936545
126	0x3d9ae6a3	0.07563522
127	0x3e944d25	0.28965107
128	0x3e8f44f4	0.27982295
129	0x3e990615	0.29887453
130	0x3e0f08c0	0.13968182
131	0x3dca6451	0.09882415
132	0x3e3c7afb	0.18406288
133	0xbcd5cf82	-0.026099924
134	0xbe8e1524	-0.27750504
135	0xbe6f7457	-0.23384224
136	0xbe73e52a	-0.23817888
137	0xbe44a676	-0.19204125
138	0x3e6c55d9	0.23079623
139	0xbdfe1960	-0.12407184
140	0x3dd7f50f	0.10544788
141	0xbd817824	-0.06321743
142	0x3e305c5f	0.17222737
143	0x3e7b46e2	0.24538758
144	0x3e1330d5	0.14374097
145	0x3d89bb4e	0.06725179
146	0xbecac03c	-0.39599788
147	0xbe759d63	-0.2398582
148	0xbebb598d	-0.3659176
149	0xbd1fbd37	-0.03899881
150	0x3eab7221	0.3348551
151	0x3d843294	0.064549595
152	0xbeb1d1d9	-0.34730414
153	0x3c14b44b	0.009076188
154	0x3c372b88	0.011179812
155	0x3eae9796	0.34100026
156	0x3e1e5b6f	0.15464567
157	0xbece797b	-0.40327057
158	0x3e9ca2de	0.30593008
159	0x3ecf26d8	0.40459323
160	0x3cbf3034	0.023338415
161	0xbeb79727	-0.35857508
162	0x3d2c1740	0.04201436
163	0xbe85f05e	-0.26159948
164	0x3ea72ca2	0.3265124
165	0x3ee2d1f8	0.44300818
166	0xbee45c25	-0.4460155
167	0xbca5e988	-0.020252958
168	0xba9d9d4a	-0.0012025025
169	0xbd6b0f8d	-0.057387877
170	0x3eb0e28b	0.3454784
171	0xbe934588	-0.28763986
172	0x3dad765b	0.0846984
173	0x3e7cf62d	0.24703284
174	0xbc7f8bba	-0.015597278
175	0xbe90020c	-0.28126562
176	0x3db3c2e0	0.08777404
177	0x3e9d3ebb	0.30711922
178	0x3ea6b8da	0.32562906
179	0xbdd591e0	-0.10428214
180	0x3ddebf1d	0.10876296
181	0xbe9c487b	-0.30524048
182	0xbd9d5c86	-0.07683663
183	0xbeb31475	-0.34976545
184	0xbe96d365	-0.29458156
185	0xbeb74e86	-0.35802096
186	0xbc5c60f8	-0.0134508535
187	0xbd6813f6	-0.05665966
188	0x3d148cb9	0.036267016
189	0xbe376787	-0.17910586
190	0x3e8c9acd	0.27461854
191	0x3eb873f6	0.3602597
192	0x3e83db9b	0.25753483
193	0x3d1cfd38	0.038327426
194	0xbeb21735	-0.3478333
195	0xbe2f61f8	-0.17127216
196	0xbea9db75	-0.33175245
197	0x3d1f37ee	0.038871698
198	0x3e09ec68	0.13469088
199	0xbecf6265	-0.40504757
200	0x3dbb4001	0.09143067
201	0x3e3df342	0.18549827
202	0x3eda2ccb	0.426123
203	0x3e3be37b	0.18348496
204	0x3e97c63f	0.29643437
205	0xbce3d707	-0.027812494
206	0xbe2fe153	-0.17175798
207	0xbd0e4987	-0.03473809
208	0xbd9412ce	-0.07230149
209	0x3e3550d8	0.1770662
210	0xbe435873	-0.1907671
211	0x3e06529d	0.13117452
212	0x3d19bca3	0.037533414
213	0x3e7fbb4b	0.2497379
214	0xbe950a3f	-0.2910938
215	0xbed57481	-0.41690448
216	0xbeb1c80e	-0.34722942
217	0xbe8bbad1	-0.27290967
218	0x3be3d4c3	0.0069528534
219	0xbe38f0f7	-0.18060671
220	0x3e8ab510	0.27091265
221	0xbecf634b	-0.40505442
222	0xbf027df8	-0.50973463
223	0x3e5ea5e7	0.21742974
224	0x3e9a6b59	0.30160025
225	0xbe7ae6b8	-0.24502075
226	0xbe54f2c1	-0.20795728
227	0xbe9b762d	-0.30363598
228	0x3e65cef0	0.22442222
229	0xbe0b7b4c	-0.13621253
230	0x3e05cec2	0.13067153
231	0x3e113a21	0.1418233
232	0xbbf8be4d	-0.007591045
233	0x3e3b9f5e	0.18322513
234	0xbe899a35	-0.26875463
235	0x3e0d3a38	0.1379174
236	0x3e16c8df	0.14725064
237	0x3e8f8934	0.28034365
238	0x3e98e8f6	0.29865235
239	0x3e9a17e2	0.30096346
240	0x3e469090	0.19391084
241	0x3cc4de08	0.024031654
242	0xbd79d67b	-0.06099556
243	0x3dd09fbe	0.101867184
244	0xbe95de64	-0.29271233
245	0xbda7f238	-0.082004964
246	0xbead9bb6	-0.3390786
247	0xbe098041	-0.13427831
248	0x3eaa6a75	0.33284345
249	0xbe09d9b3	-0.13461952
250	0x3d78c4ac	0.060734436
251	0x3e8e5968	0.27802587
252	0xbe545bcd	-0.20738144
253	0x3ea5fb0b	0.32418093
254	0x3ed98918	0.42487407
255	0xbe0bb776	-0.13644204
