Project/Ming_Jiang_1016239_Gengcong_Yan_1009903_Project/Part1/trained agents/td3/InvertedPendulumBulletEnv-v0_TD3_1_1637008124_td3.pth (torch, 818223 bytes, 15 tensors)

l1.weight f4 [256, 6]
000000 31 db cd be 9e 7b 10 bd 82 00 bb bc 02 c3 34 3f
       -0.40206292 -0.03527414 -0.02282739 0.7061006
000010 af ac c8 be 1e 49 aa bd 79 8a 42 3f 3a d5 24 3f
       -0.39194247 -0.08314727 0.7599254 0.6438786
000020 59 0f 9b be 5f b8 82 bc 28 e7 ce bd 5b 2a 8c 3d
       -0.30285147 -0.015957056 -0.10102683 0.06844016
000030 23 16 84 3e 73 5f 2f be 0c d0 4a be 00 4b a4 bf
       0.2579814 -0.17126255 -0.19805926 -1.2835388
000040 31 59 48 be 44 54 cd 3c 82 89 f7 bd 32 4e 8f 3a
       -0.19565274 0.025064595 -0.120867744 0.0010933338
000050 b6 eb d2 3e 67 e9 6c 3f 0d 29 cb be d6 46 3f 3d
       0.41195458 0.92543644 -0.39679757 0.046698414
000060 5c 3c 03 bf 86 f2 c2 3d a4 39 58 be 50 71 95 3f
       -0.51263976 0.09518914 -0.21115738 1.1675205
000070 79 04 3e 3e e9 d8 28 bd 57 f9 32 3e 12 1f d5 be
       0.18556394 -0.041222487 0.17477928 -0.41625267
000080 5e 3c 58 3d b4 19 8b be ca 74 a1 be 8c 28 36 3e
       0.052791946 -0.27168047 -0.31534415 0.17788905
000090 97 b0 a9 3e 09 e4 fd be 04 ca c7 be 3d 3c ae be
       0.3314254 -0.4958804 -0.39021313 -0.34030333
0000a0 06 e4 fa be 35 c9 95 3d 2d 21 df bc fc 94 25 bf
       -0.49002093 0.07313768 -0.0272375 -0.6468046
0000b0 70 6e 46 3d aa 57 7d bf fb 99 bd be 2d 35 80 3c
       0.048445165 -0.9896189 -0.3703154 0.015650356
0000c0 c2 97 dc 3e f5 98 c5 3e f7 d7 b1 be 6f fc 4f bf
       0.43084532 0.3859326 -0.3473508 -0.8124456
0000d0 9c be 1d be ab 48 3e 3d d8 07 39 3f db d8 88 3e
       -0.15404743 0.04645602 0.72277594 0.26727948
0000e0 65 1f 9f be f7 0d 65 3e d3 5f d5 3e ee 56 87 3e
       -0.3107864 0.22368608 0.4167467 0.2643351
0000f0 1e c3 7f bc 4c 25 19 3d 02 b2 61 3e f6 48 9e 3f
       -0.015610484 0.037389085 0.22040561 1.2366016
000100 31 f9 a0 3e ac 10 35 bd e8 0c 6e bd 70 0d a0 3c
       0.31440118 -0.044205353 -0.058117777 0.019537657
000110 41 eb be 3d 86 61 a1 bf ac 63 b1 bd f9 82 e4 3c
       0.09322215 -1.2607887 -0.08661589 0.027894484
000120 92 a5 2f 3d ed f5 5a be bc fd 57 bd 14 6e 68 bf
       0.04288251 -0.21382876 -0.052732214 -0.90792966
000130 a2 a0 ca 3e 43 98 1e be 3f 69 18 be e1 a8 49 3e
       0.39575678 -0.1548777 -0.14883898 0.19693328
000140 6e 82 98 bd 46 71 9c 3f bd ea 9a be b2 45 12 3e
       -0.074467525 1.2222068 -0.30257216 0.14284399
000150 3b 11 c1 3d e0 a1 ec 3d c5 7f 28 3e c4 8b 8b bf
       0.094271146 0.11554313 0.1645499 -1.0902028
000160 cf f7 83 3e 84 f7 4e 3c 27 40 55 be c3 f2 bf 3d
       0.25775 0.0126322545 -0.20825253 0.09372475
000170 60 2a 07 be f4 1c 36 bf 80 5e e7 3d 1d f4 e4 bd
       -0.13199759 -0.7113793 0.11297321 -0.111793734
000180 87 5b e4 bf c5 a6 10 3f 79 f6 b0 bd d7 e1 63 3e
       -1.7840432 0.5650447 -0.08640761 0.2225412
000190 79 31 e4 3d 1d e1 8e 3b 72 a5 3b 3e 04 6e da bd
       0.11142249 0.0043603317 0.18324831 -0.10665515
0001a0 2f 4e 3f 3e 39 a7 8b 3f 7b 3c b2 3d 96 e4 d2 3d
       0.18682168 1.0910407 0.08702942 0.102975056
0001b0 57 01 85 bf 1d 51 16 be cd 2b 1e 3e 9e 2a ef be
       -1.0391034 -0.1467938 0.15446396 -0.46712202
0001c0 6d 76 01 bd 32 e6 c1 bc c6 4f 1f be d7 13 f3 be
       -0.03160708 -0.023669336 -0.15557775 -0.47476074
0001d0 c1 67 56 3e c2 39 c5 3e 0f 7c d2 bd c7 0e 06 3d
       0.20938016 0.38520628 -0.102775685 0.032728937
0001e0 03 2f a4 be cf 66 b0 3e 28 f9 89 3d af 8e 41 3f
       -0.32067117 0.34453437 0.06736976 0.7560834
0001f0 db 75 8c 3e 20 e7 ad 3d b5 91 04 3f eb c1 1b 3f
       0.27433667 0.08491349 0.5178483 0.6084277
000200 a1 ce 91 3d d0 94 06 bf aa 7c e9 3e 22 ca 53 bd
       0.071194895 -0.5257082 0.45602924 -0.05170644
000210 4b 16 ec 3e a3 1b a5 be 9b 07 32 3d 2f 45 87 bf
       0.46110758 -0.32247648 0.043464284 -1.0567988
000220 53 e6 aa be 57 89 31 3d 14 b8 1b 3e f4 5b b1 3e
       -0.33378848 0.043343868 0.15206939 0.34640467
000230 d4 3e 48 be be 9d 82 3f 32 50 9e 3e c0 cf 22 bd
       -0.19555217 1.0204389 0.3092056 -0.039748907
000240 49 bc 44 3f 6e 42 94 be 7b 36 35 be 7e 03 5f 3f
       0.768498 -0.28956932 -0.17696564 0.87114704
000250 c1 56 8d be 42 51 c4 3d db ee 7c be 51 1a 32 be
       -0.2760525 0.09585811 -0.24700491 -0.17392851
000260 ab e5 7c be 64 38 be bf f0 6c 97 be 2c a7 72 3d
       -0.24696986 -1.4860959 -0.295753 0.05924146
000270 ff 02 ac bd 59 a1 3b 3e 68 75 90 be 31 37 b6 3f
       -0.08399009 0.18323268 -0.28214574 1.4235593
000280 57 0f a8 3e 54 74 7a bd 4f f9 9f 3e 25 bc 02 3f
       0.32824203 -0.061146095 0.31244895 0.51068336
000290 ef 81 3e be 1d 15 19 bf 67 b6 ec bd ec 87 ad be
       -0.18604253 -0.5979784 -0.11558228 -0.33892763
0002a0 4e 40 28 be aa 3f 54 3e ec c4 14 3e 04 b3 38 3f
       -0.1643078 0.20727411 0.14528245 0.72148156
0002b0 45 0d 8b be 77 85 0b be 45 ed 36 3d 37 05 77 bc
       -0.2715856 -0.13625132 0.04465987 -0.015076927
0002c0 fd 6b a9 be 33 74 ca 3f 6d d5 1e 3e bf 0e 3b bd
       -0.330902 1.5816711 0.15511103 -0.04566836
0002d0 8a 00 25 bf 26 ab 96 3e 8b de df 3c 0a 82 76 3f
       -0.6445395 0.2942745 0.027327796 0.96292174
0002e0 51 2b ef be 9a 87 84 3d 5f bc a2 3e bb ff ee 3e
       -0.46712735 0.064711764 0.3178434 0.46679482
0002f0 39 18 bb 3d ec e7 41 3f 27 c2 dd 3e 7f ad 51 bd
       0.091354795 0.7574451 0.4331219 -0.05119085
000300 2c e4 08 3f ca 6e f6 3e a4 c3 2b be 76 2e aa 3f
       0.5347316 0.481314 -0.1677385 1.3295429
000310 42 dd 45 bd fe 7d 85 3e 09 23 22 bf 7d f9 a6 3e
       -0.04830671 0.26072687 -0.6333471 0.3261222
000320 fe 5b a0 be 55 60 cb bf c3 91 99 bd a7 48 44 3d
       -0.31320184 -1.5888773 -0.07498505 0.04792085
000330 59 9b 96 be 7b 5e c0 3d 57 a4 f7 be d8 94 cb 3f
       -0.29415396 0.09393021 -0.4836757 1.5904799
000340 71 69 81 3e 72 7d 76 bd c4 54 1a 3f 83 90 9b 3d
       0.25275758 -0.060178228 0.6028559 0.07595923
000350 ac 31 51 be 27 88 48 bf d2 e1 da bc a1 ac 83 be
       -0.20429105 -0.7833275 -0.026719008 -0.25717643
000360 e5 20 ff be a8 3d 8e 3e 95 2a b1 3e c8 8f 72 3f
       -0.49829784 0.27781415 0.346028 0.9475064
000370 32 9f c2 3d 81 36 dc bc b5 77 45 bd 08 db ba 3c
       0.0950302 -0.026881458 -0.048209865 0.02280952
000380 c9 22 0e 3e 28 a9 0b 3f b2 86 cb 3e 9f a5 82 be
       0.13880457 0.54554987 0.39751202 -0.25516984
000390 f5 e8 8c be a7 77 65 3e f4 d7 b7 be 38 2b 8b bf
       -0.27521482 0.22408925 -0.35906947 -1.0872564
0003a0 ad 25 91 3e ed 3d d5 be 66 0d df 3d 84 e0 0d 3e
       0.28349057 -0.41648808 0.108912274 0.13855177
0003b0 89 ac 87 3e cd 34 aa be da b9 35 3e cb c7 a6 3e
       0.2649882 -0.3324341 0.17746678 0.32574305
0003c0 ca 11 1c 3e e9 b5 89 be 21 7d ca be ea 48 9e bf
       0.15241161 -0.268966 -0.3954859 -1.2366002
0003d0 47 c8 b2 be d0 3d 37 3d 99 a7 3b 3e cb 3f ac 3d
       -0.34918424 0.044736683 0.18325652 0.08410605
0003e0 a6 65 bf 3e 58 de 3e bf 7e 5e 38 3e d2 13 41 3e
       0.3738224 -0.7455802 0.18004796 0.18855217
0003f0 6e 41 43 3f be 0d b0 be 9e bb 61 bd f9 1b 67 bf
       0.7627171 -0.34385484 -0.055110566 -0.9027706

l1.bias f4 [256]
000000 18 f8 2f 3d c5 7f 29 3e f5 22 13 be ad 81 c6 be
       0.04296121 0.16552646 -0.14368804 -0.3877081
000010 40 d7 d1 bd d6 a2 a7 3e e5 ea fb 3c 2a f6 10 be
       -0.10246134 0.3274142 0.030751655 -0.14156404
000020 59 78 d0 3e 7a d9 7d be 2c 39 a5 3e 32 8c 4a 3e
       0.40716818 -0.24789992 0.3227018 0.19780043
000030 6c 49 f3 3d 05 ea 8c 3e 2b 9a d2 bd fe 59 c3 3d
       0.118792385 0.27522293 -0.102833115 0.09538649
000040 00 df 17 3e 31 c1 9c 3c 69 05 d0 be 1f 58 18 be
       0.14831161 0.01913509 -0.40629128 -0.14877366
000050 a0 19 bd 3e 04 63 09 3e 4d 13 d3 be 1d 76 c1 be
       0.36933613 0.13416678 -0.41225663 -0.37785426
000060 aa 03 67 3e f0 b6 33 be 7b 0a 05 be d9 0d 37 bd
       0.22559991 -0.17550254 -0.12992279 -0.04469094
000070 e8 24 83 bc 70 36 04 bc 0a a1 cb 3d ba 5f a5 3e
       -0.01600881 -0.00806962 0.09942825 0.32299596
000080 be c9 17 bd 2c 54 97 bd c5 94 70 3d 75 10 61 3e
       -0.03705763 -0.073891014 0.058735628 0.21978934
000090 8d d6 83 bc 02 c3 c5 3e 69 c7 87 3d 14 9b 59 3e
       -0.016093517 0.38625342 0.06629831 0.21250564
0000a0 4d 80 a1 bc b8 2e e4 bd 79 5d 51 be b1 14 af be
       -0.019714499 -0.111417234 -0.20445813 -0.34195474
0000b0 d8 91 0e bf 4f e8 1d bd a2 06 94 3e a2 86 bb be
       -0.5569129 -0.038551625 0.2891131 -0.36626154
0000c0 56 43 f1 be 87 d7 6e bc c5 b4 d6 bd 60 fe 9b 3e
       -0.47121686 -0.014577753 -0.10483698 0.3046751
0000d0 79 69 37 3e 8d c1 7d 3e fb 90 2d 3e e2 45 22 3e
       0.17911328 0.24780865 0.16949837 0.1584697
0000e0 2b cf 59 3e 65 39 ea 3e c9 a6 cf bb 30 1b 6d be
       0.21270435 0.45746914 -0.006337021 -0.23154902
0000f0 84 10 cf bd c7 f2 c3 3e f9 c6 8a 3e ee ea 34 3e
       -0.10110572 0.38271162 0.2710493 0.17667744
000100 d2 ac b8 be ea ce 57 be bd f0 4b 3e 59 c1 e8 be
       -0.3606935 -0.21075025 0.19916053 -0.45460013
000110 73 02 84 3d e8 de 77 3e 90 ef c4 be a9 23 33 3d
       0.0644578 0.24206126 -0.38464022 0.04373518
000120 6f e0 94 be 09 41 89 3d 67 4f b0 3e 80 95 19 3e
       -0.2907748 0.067018576 0.3443558 0.14998436
000130 2b 33 22 3e fc 96 3f be a3 c7 7e 3e 70 7e 12 bd
       0.15839832 -0.1870994 0.24880843 -0.03576511
000140 0f f8 ac 3e 60 4c 9f 3d 26 c4 c1 be 12 c2 be 3d
       0.33783004 0.07778239 -0.37844962 0.0931436
000150 79 7b 5a 3d 0b 67 b8 be db 02 be be 1e 63 4c bc
       0.05334041 -0.36016116 -0.37111554 -0.012474803
000160 c6 1c ae be fe ff 38 be 01 d0 1a be 97 45 51 be
       -0.34006327 -0.18066403 -0.1511841 -0.20436703
000170 9b d9 b3 be 18 46 99 be 96 6d 60 be f6 9c 5c be
       -0.35126957 -0.2993629 -0.21916804 -0.21544251
000180 cd ae c3 be f6 e8 41 3e 5e 9f dd bd e0 a9 8f be
       -0.382193 0.18936524 -0.108214125 -0.28059292
000190 a8 1f 8a be 82 60 ae 3d 52 a3 4d 3d 59 c6 68 be
       -0.26977277 0.08514501 0.050204583 -0.22731914
0001a0 3c 05 02 3b bf d3 04 3e b1 10 23 be a9 dd df 3c
       0.0019839546 0.129714 -0.15924336 0.027327375
0001b0 09 de 15 be 0b 42 8a be ef b8 b0 3e ae fc a5 be
       -0.14635481 -0.27003512 0.34516093 -0.32419342
0001c0 97 2f af 3e 5d 86 a1 be cb 96 35 3d 23 05 0a be
       0.34215996 -0.31547824 0.04433326 -0.13478522
0001d0 28 d6 27 bd d5 11 9a 3d ed 76 9c be 61 3a 47 3e
       -0.04097572 0.075229324 -0.30559483 0.19455864
0001e0 b6 38 8e 3e b6 ee 65 bd 18 62 0a 3d eb 2b ea bc
       0.27777642 -0.056135856 0.033784956 -0.028585395
0001f0 69 26 47 be 03 ec 6d be 91 ee a6 3e a6 ac aa 3e
       -0.19448246 -0.23234563 0.32603887 0.33334845
000200 3a 1e 67 be e3 f8 72 3e bd 19 9f 3e 54 12 f0 3e
       -0.22570124 0.23727755 0.31074324 0.46888983
000210 a1 80 14 bd cf d7 80 be 33 5a 1a be f5 31 8c bc
       -0.036255483 -0.2516465 -0.15073471 -0.017113665
000220 86 04 4f 3e 90 2c 07 bf 3a b0 9f 3e 76 1a ab be
       0.2021657 -0.5280237 0.31189138 -0.33418626
000230 fe 2d a6 be b7 db a5 3e 54 6a e8 3c 68 c4 e9 be
       -0.32456964 0.32394192 0.028371014 -0.4565766
000240 2e b5 29 3e 85 d1 81 3d 08 bc f4 bc c3 d7 ad bd
       0.16573021 0.06338791 -0.029874817 -0.08488419
000250 fa ba c4 be 5a 84 cb be 21 28 b5 bd 58 f6 ed 3b
       -0.38423902 -0.39749414 -0.088455446 0.0072620325
000260 d2 6b 9a 3d 70 7c da 3d 60 ec 93 3e c9 5c 74 3e
       0.07540096 0.10668266 0.28891277 0.2386352
000270 9a 44 0e 3e 3d 98 56 3e ab b8 a4 be bf 9d 98 3e
       0.13893357 0.20956512 -0.3217214 0.2980785
000280 95 de a6 be cf 01 c2 be 33 c5 a1 3d 72 78 e6 3d
       -0.32591692 -0.37892005 0.07898941 0.11253442
000290 60 d4 c0 bd 2b a0 0b be 9c f1 be 3d 61 a4 94 bd
       -0.09415507 -0.13635318 0.09323427 -0.07257915
0002a0 07 e7 a1 3e 49 5b 54 bd 1f c0 c5 be e7 16 11 3c
       0.31621572 -0.05184487 -0.3862314 0.008855558
0002b0 a8 6b b8 3e b1 e3 bb be 3d 7d 23 3b a0 33 bf bd
       0.36019635 -0.36697152 0.0024946474 -0.093360186
0002c0 0c d9 b7 be 19 0b 9c 3d de 05 09 be 0d 9c df be
       -0.3590778 0.07619304 -0.13381144 -0.43673745
0002d0 36 fd 91 3e 39 56 f4 be d3 5e 5d be d0 b0 24 3e
       0.28513497 -0.47722033 -0.21618204 0.16083074
0002e0 24 f1 87 3e 7e 7d 94 3d 9b 4f 4f be b6 ce 7d bd
       0.26551163 0.07250498 -0.20245211 -0.061964713
0002f0 4c f3 99 3e f2 b0 9c be 06 b9 54 bd 3a f8 0f 3e
       0.30068433 -0.3060375 -0.051934265 0.14059535
000300 dc d3 4f be 9f fc af be 75 b8 bd be d5 00 8d 3d
       -0.20295662 -0.34372422 -0.37054792 0.06884924
000310 22 01 7b be f8 bf f8 bc f8 a0 7d bc 3c 73 40 3e
       -0.24512151 -0.030364975 -0.0154802725 0.18793958
000320 ef 12 95 3e 48 0d 2d be 8b e2 4e 3e cb 48 25 3d
       0.29116008 -0.16899598 0.20203607 0.040352624
000330 1e fa 9d be 22 d9 5d 3d 22 2c 82 be f9 55 10 bd
       -0.30854887 0.054162152 -0.25424296 -0.03523824
000340 7a 29 12 3e e5 52 8e be ff 28 90 3e 4d 45 40 be
       0.14273635 -0.27797619 0.28156278 -0.18776436
000350 48 1e 5a be 94 52 0a 3e bd 9d 62 3e e8 90 4f be
       -0.21300614 0.13508064 0.22130485 -0.20270121
000360 b9 de 10 3e 9e 58 7d 3e b8 80 ea 3d 58 84 a8 3e
       0.14147462 0.24740836 0.114503324 0.3291347
000370 64 63 69 3d 9d 1a bd bd d4 e7 dc 3d 1e 10 cc be
       0.056979552 -0.09233592 0.10786405 -0.39856046
000380 b8 2d 10 3e a7 8c a3 be 67 87 03 be cd 73 15 be
       0.1407994 -0.31943247 -0.1284462 -0.14594956
000390 d8 0a 09 3d 1f 85 d0 bd 3f 5e c2 3e 70 12 cd 3c
       0.033457607 -0.10181641 0.3796253 0.025033206
0003a0 c6 f4 02 bd e9 98 91 be 2f 79 2e 3d de f5 59 3c
       -0.031971715 -0.28436974 0.04259604 0.013303248
0003b0 8e 90 db be 87 e2 09 bf 11 5c 06 be 45 0b cc 3d
       -0.42883724 -0.5386128 -0.13121058 0.09963087
0003c0 4d 41 73 be ce 70 aa 3e 47 9b dc bd 79 dc 76 3e
       -0.23755379 0.33289188 -0.10771804 0.24107541
0003d0 72 98 b4 bd 58 ee 4d 3e 6a 3c 8f 3d e7 48 2a 3e
       -0.08818139 0.20110452 0.06993945 0.16629373
0003e0 73 22 7a bd cf 67 05 bd af a3 8f 3d 5a 8a 94 be
       -0.06106801 -0.032569703 0.07013642 -0.29011804
0003f0 fd e1 1b be 5e 8a dd 3e d8 45 0f 3e 04 cd 6e be
       -0.15222926 0.43269628 0.13991487 -0.23320395

l2.weight f4 [256, 256]
000000 20 c7 3b bd c3 98 dd 3b 49 27 72 c0 b0 c5 72 3e
       -0.045844197 0.0067625954 -3.7836478 0.23708224
000010 87 51 bb 3e 74 22 21 3d c1 21 0a 3b ed 92 0b be
       0.36585638 0.039339498 0.0021077248 -0.13630266
000020 f8 24 9d bd 33 79 fc 3d 7f 2f cf 3d 6d 03 19 3d
       -0.07673067 0.123278044 0.10116481 0.037356783
000030 fe f9 8d bc 1f 7b be 3d f5 fa 10 bd 8b 72 93 bd
       -0.01733112 0.09300827 -0.03539558 -0.07199582
000040 06 f3 45 bd 0b 0e bc 3d aa 85 9d be 4c e8 c8 ba
       -0.04832747 0.09182366 -0.3076604 -0.0015328019
000050 d9 be 80 3d bd d9 01 3d 79 0a 64 be 5e 40 2a 3d
       0.06286401 0.031701792 -0.2226962 0.04156529
000060 fe 84 db 3d a5 96 86 bf 60 04 7f 3d a5 70 b0 3d
       0.107187256 -1.0514723 0.06226003 0.08615235
000070 50 f2 a3 3d 22 63 1d be f7 08 71 3d 64 a7 53 3d
       0.08005202 -0.15369847 0.05884644 0.051673308
000080 b6 93 f4 3c 3e c8 9d bf e5 c1 1e 3e ad 6a 41 bd
       0.02985559 -1.2326734 0.15503652 -0.047220875
000090 2e da bf 3d 80 70 4a 3c 5e 18 29 bd 90 94 9c 3c
       0.09367786 0.012355924 -0.041283004 0.019113809
0000a0 85 18 76 be ad ed c9 bc a3 c8 eb bc a7 f8 d0 bf
       -0.24032791 -0.024649465 -0.028782194 -1.6325883
0000b0 81 d6 ba be 06 a9 3d be 7e d1 33 3e 5d 17 87 bb
       -0.36491778 -0.18521509 0.17560384 -0.004122658
0000c0 0c 60 0d 3e 08 76 d8 be de f2 18 bd ca 97 bd 3c
       0.1380617 -0.4227755 -0.03734099 0.023143668
0000d0 ac 7f 96 3d 81 df c5 3c 56 9e 7f 3d 7e d0 86 bd
       0.0734857 0.024154427 0.06240686 -0.065827355
0000e0 41 f7 50 3c 50 18 aa 3d 9c e1 e2 bd d0 8f 86 bc
       0.012754262 0.083054185 -0.11078188 -0.016425997
0000f0 f0 ec bf bf cc cb ac 3c 83 7f 76 bc dc f4 be 3d
       -1.4994183 0.021093272 -0.01504505 0.09324047
000100 3f c2 05 3e 89 bb 8e bc e7 9a 25 3d 90 2a 60 be
       0.1306238 -0.017423408 0.04043093 -0.21891236
000110 4a 1c 9f 3d d9 03 06 3d 62 3e ca be 06 ef 83 3c
       0.077690676 0.032718513 -0.3950072 0.016105186
000120 8c 91 11 3d 59 83 ca bd 50 e9 8f 3d aa 18 d0 3d
       0.035539195 -0.09888334 0.07026923 0.10160954
000130 6f 09 8e 3c 55 09 e4 be c6 9d 5b bb ba 3f 1f 3d
       0.017338483 -0.4453837 -0.0033510788 0.038879134
000140 40 47 52 3d 2f a1 d7 bd c7 2f 15 bf f5 19 b3 be
       0.05133748 -0.1052879 -0.5827603 -0.3498074
000150 4b 6f 3d bd 69 00 ca bd f7 20 03 3a b5 20 89 be
       -0.046248715 -0.098633595 0.00050021656 -0.26782766
000160 bb e1 10 3e c9 c8 57 bd 02 51 e9 be b3 d6 3c be
       0.1414861 -0.052681718 -0.45569617 -0.18441276
000170 72 1c f2 bd 3e 30 67 3d 85 0c eb 3e 11 25 62 be
       -0.11821832 0.05644249 0.4590799 -0.22084452
000180 7b bc 34 3d 68 c5 4d bc 24 13 29 3d 7b 2f fc be
       0.04412506 -0.012559272 0.04127802 -0.49254975
000190 88 3d 3d 3d b4 4b 9c 3d 43 1f ca 3d 8d 6e 13 be
       0.04620126 0.07631627 0.09869244 -0.1439764
0001a0 e5 40 bd 3c 3c c7 8c be e2 a7 0f bf 4b f5 d9 3d
       0.023102233 -0.27495754 -0.56115544 0.10642489
0001b0 69 6b 6a 3b f6 1d 86 3e 72 90 a9 3b e2 29 5e bd
       0.0035769588 0.26194733 0.00517469 -0.05423916
0001c0 1a 89 97 3d f2 de 61 c0 11 7a 04 3d 7c 36 a0 3d
       0.07399197 -3.5292325 0.032342974 0.07822892
0001d0 43 73 36 3c 29 4d 55 bd 76 3e 50 c0 3a 3d 52 3d
       0.011135879 -0.05207554 -3.2538123 0.05132792
0001e0 9e ee 2e bd 93 a9 64 3b 11 58 38 bd 75 76 aa 3c
       -0.04270803 0.0034891113 -0.04500586 0.020808438
0001f0 02 cb da 3d 8d 25 0c c0 72 d5 43 bd 22 0c 13 3d
       0.10683252 -2.189792 -0.04781098 0.035900243
000200 51 59 1d c0 ba 4f 8d 3d f9 5c 43 bc 7e 1a 93 bd
       -2.4585764 0.06899972 -0.011924022 -0.07182787
000210 00 38 24 c0 ef e8 3a bc 3a a1 4d 3d 47 f1 d7 be
       -2.565918 -0.011408075 0.050202586 -0.42176268
000220 90 3a 24 bd 55 25 47 be e7 16 31 3d f4 8d 7b bd
       -0.040094912 -0.19447835 0.043234732 -0.061414674
000230 b5 4f 2e be 5c 5e 18 be 98 7b 9d 3c 8b 93 4f 3e
       -0.17022593 -0.14879745 0.019223973 0.20271127
000240 c7 c3 de 3d d7 64 b9 3d 34 b5 b1 3d 9a 21 a7 3d
       0.10877185 0.09052437 0.0867714 0.08160706
000250 36 b6 54 3d 64 a9 9e bd 81 b3 a9 3d ed ed fa bc
       0.051931582 -0.077471524 0.08286191 -0.03063103
000260 bb a2 6e bd 16 7a 90 bd 02 12 4a 3c 52 72 d9 3d
       -0.05826066 -0.07054536 0.012333395 0.10617508
000270 5b 0d 93 bd fe 96 f4 3d f8 0f a3 bb a6 b8 cc 3d
       -0.07180282 0.11942862 -0.004976269 0.099961564
000280 06 79 9a be d4 5e ed 3d 1f f3 a0 3d 21 96 90 bc
       -0.3017046 0.11590353 0.07858872 -0.017649712
000290 b0 04 de bf a4 46 db 3c f3 bf fe 3d b0 97 87 bd
       -1.734518 0.026767083 0.12438955 -0.06620729
0002a0 14 e5 50 3d 2b c5 fd 3c 58 47 a3 be 46 3a ee 3d
       0.050999716 0.030977806 -0.31890368 0.116322085
0002b0 a2 4a c5 3c 67 d0 fc bc 93 0c 07 bd 74 0a 7a 3d
       0.02408344 -0.030861093 -0.032970976 0.061045125
0002c0 08 2d 26 be 07 a3 45 3c 2d 37 93 3d 3e a7 ce 3b
       -0.16228116 0.0120627945 0.07188258 0.006306558
0002d0 b5 f5 c4 3d 5c 11 aa 3d e5 37 b8 3c f1 de b1 3d
       0.096171774 0.08304092 0.02248759 0.08685101
0002e0 4a 92 8f bc 12 ac be bc d3 af a9 3d 2c 43 3e 3d
       -0.01752581 -0.023275409 0.08285489 0.04645078
0002f0 a3 80 31 3c 54 5c 0c 3d 59 0d 01 3d a7 2e 3b 3d
       0.010833892 0.03426774 0.03150687 0.045698788
000300 fa 1a af bc d7 63 57 3e 60 74 80 3c 22 9c a3 3d
       -0.021375168 0.2103418 0.015680492 0.07988764
000310 15 00 b2 3d 54 98 6f bd 70 6f 35 3d b4 f3 92 3d
       0.08691422 -0.05849488 0.04429573 0.07175389
000320 44 9d 98 3c b5 45 28 be 4a bc b2 3c b5 aa 53 c0
       0.018629678 -0.16432841 0.021818299 -3.3072941
000330 bf 50 63 bf 8c 80 f4 bd 4c 07 10 be 6b cf 6e bc
       -0.88795084 -0.11938581 -0.14065284 -0.0145758195
000340 ee a4 93 3c 25 c0 0a be 47 d5 89 3d de 08 8a bb
       0.01802298 -0.1354986 0.067301326 -0.004212483
000350 96 a4 1e be 63 89 a0 3d 6c 88 36 bd d6 3b e7 3c
       -0.15492472 0.078387044 -0.044563696 0.028226774
000360 95 82 7c bc d4 d0 aa bc 03 30 6d 3d 60 2f c9 3d
       -0.015411993 -0.02085153 0.057907116 0.09823489
000370 dd 92 30 3d a4 e8 1a 3e fa 7a c8 bc de 7e 0e bf
       0.04310881 0.15127808 -0.024472702 -0.55662334
000380 56 8e da 3c a2 49 b7 bc 48 54 58 3d 14 13 d6 3c
       0.0266792 -0.022373978 0.052814752 0.026132144
000390 37 36 19 3e e1 06 06 bd ec 2a 87 3d 8f ab 4b b9
       0.14962088 -0.032721404 0.065999836 -0.00019423499
0003a0 5d 67 b8 be 7e 6e 89 bd 4c 21 4a 3d 82 53 88 3c
       -0.3601636 -0.06710528 0.04934816 0.016641382
0003b0 36 87 2b bf 4c b1 3b 3e c9 9d b9 3d 0f fb 03 3d
       -0.6700319 0.18329352 0.09063298 0.03222185
0003c0 4f 46 66 be 13 01 a4 3d 5f ed 00 be 3c d8 ab 3d
       -0.22487758 0.080080174 -0.1259055 0.08390853
0003d0 07 29 28 3d a9 55 ba 3d bb d4 80 be 8a 5c 92 bf
       0.04105475 0.0909837 -0.251623 -1.1434491
0003e0 84 01 13 be d7 2a 99 c0 07 38 3c 3d 45 d7 84 c0
       -0.14356047 -4.7864795 0.04595187 -4.151278
0003f0 02 ca 13 bc 45 bb db 3c b9 60 2f 3d ff 46 55 bd
       -0.00902033 0.026822696 0.04281685 -0.05206966

l2.bias f4 [256]
000000 46 a4 93 3d 6a c4 bf 3c ec 20 cf bc d6 35 39 3d
       0.07209067 0.023409087 -0.025284253 0.045217358
000010 ba 1a de 3d a9 5b 04 bc 7d 2a e5 3d f0 61 be 3c
       0.108449414 -0.008078494 0.111897446 0.02324006
000020 ca 27 c7 3d 7c 2b 16 bd b6 f8 46 bd 97 f2 85 3b
       0.09724386 -0.036662564 -0.048577033 0.004087757
000030 b9 de 7f 3d 86 36 31 bd 56 52 94 bc 8c aa 37 3d
       0.062468264 -0.04326489 -0.018105667 0.04484038
000040 64 bd a5 bd d2 e3 94 bc 2d ec 5c bd cd fe b8 3d
       -0.08092764 -0.01817504 -0.053936172 0.090329744
000050 61 66 fe bb 9d 18 2b ba b2 e4 57 bd 9c 41 8c 3d
       -0.0077636694 -0.00065268 -0.052708335 0.068484515
000060 37 5b 20 bd 62 f7 db 3c 5f 8d 23 3d 3a 25 fa bb
       -0.03914949 0.02685136 0.039929744 -0.0076338323
000070 c7 6b 63 bd 7b 06 ee bc 28 d9 70 bd 3d c1 00 3e
       -0.055522706 -0.029055825 -0.058800846 0.12573715
000080 3e ee 55 3b 29 cc 0b 3b 9d 4f 87 bc f9 1f b9 3d
       0.0032643224 0.0021331406 -0.016517455 0.090393014
000090 b0 ee 18 3c d7 17 ac bc 0b 5c cf 3d 28 8d 6b bd
       0.009334251 -0.021007461 0.10124978 -0.057507664
0000a0 31 20 0b 3d 47 7b 86 bd 08 17 bd 3c ac 95 5d 3d
       0.033966247 -0.06566482 0.023082271 0.054097816
0000b0 0d 35 3f bd 11 56 cc 3b 00 f9 ef 39 c7 8a 8e 3d
       -0.046681453 0.006235846 0.00045771152 0.069600634
0000c0 ce 12 a5 3d 5e 3c f0 3c 73 ca e5 3c 18 40 f7 3c
       0.08060227 0.02932566 0.028050637 0.03018193
0000d0 14 97 a0 3d 1f a7 27 3e 87 4a 01 3e 80 3f 48 bd
       0.07841316 0.16372345 0.12626086 -0.048888683
0000e0 90 bd 52 bc 8f f0 49 3d 85 d4 d4 3c 0a 49 03 bd
       -0.012862578 0.04930168 0.025980243 -0.032052077
0000f0 3b 8e ba bc 25 56 1a bd b0 8a 6e 3d bc 8f 9b 3d
       -0.022772899 -0.03767981 0.05823773 0.075957745
000100 4d 0b d7 3c 79 61 09 bd 60 da 22 bd b6 e6 93 3d
       0.026250506 -0.033540223 -0.03975904 0.07221739
000110 55 f8 c9 bc 28 03 00 3e 9a 35 ab 3c 6e e5 be 3d
       -0.024654547 0.12501204 0.020899583 0.09321104
000120 ff c2 4d 3d a7 e4 12 3d f3 9b 61 3d b0 3c 04 bd
       0.05023479 0.03586259 0.055080365 -0.03228444
000130 a5 81 82 3d 4f 37 45 3d 76 79 45 bd 52 dd 98 3c
       0.06372384 0.04814845 -0.048211537 0.018660221
000140 65 f1 a8 3c f9 d9 7e be 40 be 82 3d 8f f3 29 bc
       0.020622918 -0.24887837 0.063839436 -0.01037301
000150 16 5a d8 bc 4c ea b7 3c e5 cc e8 3d c7 a4 03 bd
       -0.026410144 0.022450589 0.113672055 -0.032139566
000160 d0 06 64 bc e7 a0 df 3d 8a 1b 02 3d 81 b0 8b bd
       -0.01391764 0.109193616 0.031764545 -0.06820775
000170 1b a8 f0 3d 52 2a 79 bd ab ec cf 3b 36 54 d3 bc
       0.117508136 -0.060831375 0.0063453517 -0.02579699
000180 fc e3 aa 3d 1e 73 0e 3e 5c 0e bf 3d 11 56 93 3d
       0.08344266 0.13911101 0.09328911 0.0719415
000190 7f 9b 8f 3d f9 04 a8 bc ec 1d 55 bb cd c0 68 3d
       0.070120804 -0.020510184 -0.0032519056 0.056824494
0001a0 d6 f8 27 3d ae a4 9f 3c 4d 2d 3b bd 98 a8 d5 bc
       0.041008793 0.019487705 -0.0456975 -0.026081368
0001b0 82 be d5 3d a3 96 14 3d 2a 7d 36 ba 36 29 e1 3d
       0.10436727 0.03627647 -0.00069614 0.109941885
0001c0 e5 d7 1a bc b8 39 57 bd b6 09 14 3d 0e 7e 84 3c
       -0.009450887 -0.05254528 0.036142074 0.016173389
0001d0 8e b7 2f 3d 6f 70 92 3d 59 12 f8 bc e1 11 9b 3d
       0.04289966 0.07150351 -0.030282186 0.075717695
0001e0 f4 57 ae bd b4 0e 98 3d 66 ad 12 3d 5b 56 96 3d
       -0.085128695 0.074246794 0.035809897 0.0734069
0001f0 a7 28 9c 3d f7 fe 01 3e f8 10 91 bd e4 ca 9b bc
       0.07624941 0.12694918 -0.07083315 -0.019017644
000200 73 aa ad bc 11 ed 13 bd b3 d4 98 3b 2c 23 01 3c
       -0.02119944 -0.036114756 0.0046640276 0.007881921
000210 82 a9 b1 3c 3c dc 4e bd b7 ae e2 3d 43 12 a2 bc
       0.021687273 -0.050503 0.110684805 -0.019784098
000220 2c 32 04 3e 07 a0 6e 3d 59 b5 c4 bc 44 dd 29 3d
       0.12909764 0.058258083 -0.024012255 0.04147078
000230 46 b8 e8 3d 96 3e 56 bd 9a 6e ac bc e2 d2 1c 3d
       0.11363272 -0.05230578 -0.021048833 0.03828705
000240 63 e2 14 bd d6 f5 66 3d 2b 21 cd 3c 83 8e 9c 3d
       -0.03634871 0.05638679 0.02504023 0.076443695
000250 c4 83 9f 3d 2f f1 25 3d e8 7d 33 bd 8b da 18 3d
       0.07788804 0.040513214 -0.043821245 0.037317794
000260 c5 9c bf 3d 67 f4 13 3d 28 49 d1 3a 07 ca 91 3d
       0.09356073 0.036121752 0.0015967237 0.07118612
000270 78 7e 7f bd be f7 90 3c cd ee 74 3d 6f fb 24 3d
       -0.06237647 0.017696258 0.05979805 0.04027885
000280 d8 7f 03 bd b8 89 7a 3d b4 c8 48 3d 5b 69 d3 bc
       -0.032104343 0.061166495 0.04901953 -0.025807073
000290 c1 33 c2 bb 26 b2 8b 3c 8e db 19 bd 18 ea 83 bd
       -0.0059265797 0.017052721 -0.0375629 -0.06441134
0002a0 02 d0 bb bc 53 45 84 3d 03 5e 46 3d a6 cb 8b 3d
       -0.022926334 0.06458535 0.0484295 0.06825952
0002b0 a1 1c d2 3d eb 1a 12 3e 83 a9 11 bd d6 5e f6 3c
       0.10259367 0.14268081 -0.03556205 0.030074518
0002c0 3e 59 85 bd c5 64 4f 3d 48 ed ee bc 37 83 b2 3c
       -0.06511162 0.05063321 -0.029165879 0.021791084
0002d0 96 cc fb 3c b3 12 8d bd e4 b8 0a 3b 39 11 1e 3a
       0.030737203 -0.06888332 0.0021167332 0.0006029788
0002e0 6a f7 c0 bc d4 0f ef 3d d8 93 d7 bc 61 e3 91 3c
       -0.023555476 0.11672941 -0.026315615 0.017808618
0002f0 8d f6 ed 3c 52 9a 94 3d 3a aa 41 3d 6f e7 6d 3d
       0.029048229 0.07255997 0.04728148 0.05808204
000300 c7 e7 63 3d f8 8a 0e bd 85 fa 11 b9 bb c3 dc 3a
       0.055640962 -0.0348005 -0.00013921603 0.0016843
000310 6d 19 39 bd fb c9 69 3d ea 5e 36 bd 10 8c f3 3d
       -0.045190264 0.05707739 -0.04452411 0.11891949
000320 3d aa b3 3d 80 db 86 3c 44 63 df 3b 3f c1 db bc
       0.08772705 0.016462088 0.0068172533 -0.026825545
000330 0e 64 72 3d 10 ca 81 3b a6 22 82 bd 5c e9 5b 3d
       0.05917745 0.0039608553 -0.06354265 0.053689346
000340 df 0e 1a 3e d3 49 da 3a 2b 9d 53 bd 95 dd 11 bd
       0.15044735 0.0016654081 -0.05166356 -0.035611708
000350 35 4d 89 bd 6d eb 7a 3d 22 9d b1 3c c9 ee be 3d
       -0.06704179 0.061259676 0.021681372 0.093228884
000360 e1 02 fa 3c 2a d1 bd 3d 5e 46 47 bc 2e 5f d9 3d
       0.03051895 0.092684105 -0.012162773 0.10613857
000370 d4 b6 8e 3d 1f e5 24 bd 2e 1a 04 3c 24 ee f8 ba
       0.069684654 -0.04025757 0.008062882 -0.001899187
000380 dd ab 24 3d 72 15 94 bb c9 0a c6 3d 3d f0 ba 3c
       0.040202964 -0.004519158 0.09670026 0.022819633
000390 75 4f 59 3d a4 d1 3d bc 46 5b 4a 3d b6 2b f1 3c
       0.05305429 -0.011585627 0.04940345 0.029439788
0003a0 37 f5 57 bd 2a 3b d6 3c 5b 6c cf 3d 40 cf 64 3b
       -0.05272409 0.026151258 0.10128089 0.003491357
0003b0 a5 16 1f 3c 4a f3 bc 3c 3c 70 d4 3d ad b3 e6 3b
       0.009709989 0.023065228 0.103729695 0.007040462
0003c0 46 98 06 bc 79 3f ec 3c fa a6 6e bd a3 03 04 3d
       -0.008215016 0.02883886 -0.05826471 0.03223003
0003d0 1e 64 99 3c 82 eb ae 3c d9 6d ce 3c 75 8e b4 3c
       0.018724497 0.021352533 0.025198864 0.022040585
0003e0 b0 4d 83 bd 6b fc 15 bc 4e 9b 4d bd f6 33 0f 3d
       -0.06411302 -0.009154419 -0.05019694 0.034961663
0003f0 19 c4 11 3c e8 45 6a 3d 00 c6 a9 3d 85 ed 10 3d
       0.008896851 0.057195574 0.08289719 0.035382766

l3.weight f4 [1, 256]
000000 80 bf 05 3f 41 b1 80 bf 64 06 94 3c 46 b4 69 bf
       0.5224533 -1.0054094 0.018069454 -0.912907
000010 8b 55 a3 3f d4 50 77 c0 c1 58 7e 3f 01 56 6c bd
       1.2760481 -3.8643084 0.9935418 -0.057699207
000020 b4 65 3c 3f 8b dd db bc ca 33 01 bd 32 c6 0d 3f
       0.73592687 -0.026839038 -0.03154353 0.5538055
000030 aa 62 71 bf ea 49 0d c0 d4 45 bd bc ad 98 03 3d
       -0.94291174 -2.2076364 -0.023104586 0.032128025
000040 b0 92 d0 bf 1c 89 41 bf 74 c0 cb bc 53 a3 34 3f
       -1.6294765 -0.7559984 -0.024872042 0.70561713
000050 f3 08 36 3f 7e 4c dd 3d 9c 14 24 bd a2 2e 4f 3d
       0.71107405 0.10805605 -0.040058717 0.050581582
000060 41 51 b3 bc 93 ec b9 b8 f4 f6 82 bc 51 5f 13 bd
       -0.02188933 -8.865553e-05 -0.015986897 -0.035979573
000070 41 1b f5 bf 5d 81 2a bd 5d de 87 bf 72 64 8e 3f
       -1.9148942 -0.041627277 -1.0614735 1.1124403
000080 ea 16 dd bc 20 79 52 3f bd 4e e5 ba a4 24 ef 3e
       -0.026988465 0.8221607 -0.0017494779 0.46707642
000090 0f db 07 3f e8 96 61 bd 04 5a 00 3f e5 77 f1 bc
       0.5306863 -0.055075556 0.5013735 -0.029476115
0000a0 24 70 99 3f 5b 83 cf bc 89 09 3a 3f 2d c4 c0 bc
       1.1987348 -0.02533119 0.726708 -0.023531044
0000b0 c8 31 74 bc 54 ac 06 3f a4 90 cf 3c db dc ca 3e
       -0.014904447 0.526067 0.025337525 0.39621624
0000c0 41 93 30 3f 0f 4b 0a 3f 87 8c 1d 3f 91 68 aa 3f
       0.6897469 0.5402078 0.6154255 1.3313161
0000d0 03 f9 29 3f fb 46 01 3f df 01 02 3f db 88 b6 be
       0.66395587 0.5049893 0.50784105 -0.35651287
0000e0 33 22 f4 bf 63 53 11 3f c3 6b 05 c0 12 3c a2 bf
       -1.9072937 0.56767863 -2.0847023 -1.2674582
0000f0 13 8f 3f bd 63 7a ca bc f2 f9 13 3f 66 6e 88 c0
       -0.046767306 -0.024716562 0.5780326 -4.2634764
000100 9c 8d 97 3f c8 3f 26 bd bb 21 15 40 64 84 52 3f
       1.1840091 -0.04058817 2.3301837 0.8223326
000110 65 44 44 bb d9 f0 56 3f 58 fc 2b bf de 03 0b 3f
       -0.0029947993 0.83961254 -0.6718192 0.54302776
000120 b6 32 04 3f d8 89 ee bf a4 d8 03 3f 3e ab 63 bd
       0.5163988 -1.8635817 0.5150244 -0.05558323
000130 e4 31 1c 3f 38 99 03 3f 00 ef 8a bc e6 6c 19 3f
       0.6101363 0.5140567 -0.016959667 0.5993179
000140 98 b1 18 c0 ea d9 66 40 32 0b 51 3c 4c 8e 04 bf
       -2.3858395 3.6070504 0.012759017 -0.5177963
000150 f6 af 0d c0 c9 dd 04 bc 90 85 30 3f 1d 4d 3c bf
       -2.2138648 -0.008109518 0.689538 -0.73555166
000160 0b 32 8c bf b3 f6 00 3f db e4 7d 3e 68 f1 83 bf
       -1.0952772 0.50376433 0.24794333 -1.0308046
000170 3b 69 9d 3f 9d 5d 0d c0 93 66 21 bf b9 8c 2d 3d
       1.2297739 -2.2088387 -0.6304714 0.04237053
000180 ae 65 87 be 34 34 9c 3f 3a 47 df 3e b1 14 b3 3f
       -0.26444763 1.2203431 0.4360903 1.399069
000190 15 27 40 3f 48 d9 0a 3a 91 d9 ee bf 94 c2 20 bd
       0.75059634 0.00052966597 -1.8660146 -0.039248064
0001a0 52 84 0d 3f b1 b9 2d 3f fc dd a6 3d bc b2 78 3e
       0.5528003 0.6786147 0.08147809 0.24286932
0001b0 ab 54 3d 3f 70 d6 01 3f e7 aa e1 bc f8 44 96 3f
       0.7395732 0.5071783 -0.027547313 1.1739798
0001c0 20 50 b4 bc 10 ed a0 bc 93 e6 7b 3f 5a e7 48 bd
       -0.022010863 -0.01964429 0.98398703 -0.04904876
0001d0 6d 3f 20 bf 66 cf 0e c0 94 15 0b bd 52 ba 1c 3f
       -0.6259678 -2.2314086 -0.033956125 0.612218
0001e0 f8 ec c9 3e c8 ee fb 3e 28 d6 ea 3e da 90 fc 3e
       0.39438605 0.49205613 0.45866513 0.49329263
0001f0 09 60 52 3e 2f 20 03 3f 37 e6 0f bf 2c 87 04 bd
       0.20544447 0.51220983 -0.56210655 -0.032355472
000200 dc 4c 50 bd b6 41 12 bd 6a 88 45 bd a4 3f d2 3e
       -0.05085455 -0.035707198 -0.048225798 0.4106418
000210 c5 22 db bb c2 4a 47 bc 73 3b 1f 3f 4f 26 04 c0
       -0.0066874945 -0.01216382 0.6220009 -2.0648382
000220 7a c9 ff 3e ec dc 8e be a8 96 59 3e cf 83 e1 bc
       0.49958402 -0.27902925 0.21248877 -0.027528672
000230 ff 33 09 3f 0c 96 be bc a9 c4 67 3f 49 cc be 3e
       0.53594965 -0.023264907 0.90534455 0.37265232
000240 07 a2 91 bf 91 5f 9d 3f 2e 2f 3d 3d 8c 52 fe 3e
       -1.1377572 1.229479 0.046187572 0.49672353
000250 01 49 64 3f ce 76 cc bc 5f 96 13 3d bc cd 29 bd
       0.89173895 -0.024958994 0.036032077 -0.04145597
000260 15 e0 04 3f 70 02 5e bf 8c de 90 bc 27 23 74 3d
       0.5190442 -0.8672247 -0.017684244 0.059603836
000270 da a6 53 bd d2 83 b4 bc f5 37 1c 3f e9 98 95 3b
       -0.051672794 -0.022035513 0.61022884 0.0045653475
000280 5b db ad ba c4 b5 35 3f c8 83 fa 3e 77 92 1b 3d
       -0.0013264226 0.7098048 0.48928666 0.037981477
000290 8b ee b7 bf eb f8 23 bf 70 1d 36 3c b9 04 b3 3c
       -1.4369673 -0.64051694 0.011115417 0.021852838
0002a0 2a b9 23 3d 16 e6 14 3f e4 11 9b 3f 27 03 30 bf
       0.039971508 0.58163583 1.2114835 -0.6875481
0002b0 db 90 21 3f 8d c3 03 3f b3 8d 1a bf ee 74 1d ba
       0.63111657 0.5147026 -0.60372466 -0.00060064986
0002c0 f5 60 e8 3a c2 e4 31 bd dc 41 99 bf 58 75 99 3d
       0.0017729091 -0.04343105 -1.1973224 0.07493085
0002d0 8a 0d 11 bd e8 b0 53 3f 54 fe 1a bf 27 b5 18 c0
       -0.035413302 0.8269181 -0.60544324 -2.3860567
0002e0 45 c8 01 c0 8d 46 56 3f 1d d2 95 be 27 59 f4 bc
       -2.0278485 0.837014 -0.29261866 -0.029827667
0002f0 5b 13 8f 3f 79 c2 fd 3e 2b c3 10 bd 71 f1 ed 3e
       1.1177782 0.49562433 -0.035342377 0.46473268
000300 01 6c 1a 3f 79 06 24 bd 50 0b 21 bf f1 be c2 bc
       0.6032105 -0.040045235 -0.62907887 -0.023772689
000310 20 87 4a bd 64 e5 87 3e 94 dc 63 bd 39 3b fc 3e
       -0.04944527 0.265422 -0.05563028 0.49263933
000320 d5 3e 05 3f cb 72 65 bc 38 51 17 bf 8c 14 4f bf
       0.52049 -0.01400442 -0.59108305 -0.8089073
000330 c0 b5 03 c0 ba 63 1d 3d ac d7 5b be 34 d4 ed bc
       -2.0579681 0.038425185 -0.21468991 -0.02903185
000340 1b 9e 01 3f e9 1e fb 3b 51 e5 b3 bb 2b 51 14 bd
       0.50631875 0.007663597 -0.005489983 -0.03621022
000350 6b cd 56 bf 82 00 0a c0 b5 97 1f 3b c1 58 9e 3f
       -0.8390719 -2.156281 0.00243519 1.2370836
000360 a5 a1 2c bf e6 18 00 3f 7c 78 8d 3d 05 bc 28 3f
       -0.6743415 0.5003799 0.06907746 0.65911895
000370 d9 c0 04 3f f1 02 42 bc cd 84 73 bb 25 ac d4 3c
       0.5185676 -0.011841522 -0.0037158013 0.025960991
000380 e8 0e 28 3f 72 86 a6 3b e6 51 a0 3f bd 6f 2b bc
       0.65647745 0.005081945 1.2524993 -0.010463652
000390 2b c5 06 3f c0 32 9d bf f5 f7 04 3f 80 d6 0a c0
       0.52644604 -1.2281113 0.5194085 -2.169342
0003a0 c1 f2 ac 3c 7b 7c 93 bf d0 b1 f8 3e f5 63 d3 3e
       0.021111848 -1.1522363 0.4857316 0.412872
0003b0 85 c9 2d bf 73 2b 08 3f 9c e4 02 3f a8 5d 82 3c
       -0.6788562 0.531913 0.5113008 0.0159138
0003c0 7a 11 0f 3f fc e6 aa bb e4 3e 35 bd ba 89 98 bf
       0.5588604 -0.0052155238 -0.04424943 -1.1917031
0003d0 6b 51 56 3f 04 9c f0 bf 3d 50 24 c0 65 60 e7 bf
       0.83717984 -1.8797612 -2.5673974 -1.8076292
0003e0 cb 2b 4f bc 69 34 99 bb fe 0b 4a bd 08 f3 2e 3f
       -0.012644718 -0.004675437 -0.049327843 0.68339586
0003f0 5c 97 58 bb dc 40 e2 3c 21 93 db 3f 48 67 fc 3e
       -0.0033049202 0.027618818 1.7154275 0.49297547

l4.weight f4 [256, 6]
000000 3d b5 c8 be 56 ae 7f 3e 03 69 75 3d 33 4f f2 3e
       -0.39200774 0.24968848 0.0599146 0.4732605
000010 e4 85 da be c1 04 1a 3e 39 99 87 bc d7 39 74 bd
       -0.42680275 0.15040876 -0.016552554 -0.059625473
000020 a8 bf 03 bd a0 2f 59 bf 6d 9f ac 3e 27 fd 90 bd
       -0.0321652 -0.84838295 0.33715382 -0.07079535
000030 37 92 c7 be be 8f f1 3d 2f 8f f7 3d 23 92 64 3f
       -0.3897874 0.11794995 0.12087857 0.89285487
000040 06 15 87 3d 69 0b b2 3d a9 30 46 be 10 51 44 3d
       0.06595807 0.086935826 -0.193545 0.04792887
000050 0a d6 b7 bc 11 59 b5 3f 66 d3 28 3e 09 37 2f bd
       -0.022440929 1.4167806 0.16486892 -0.042777095
000060 e1 2c 39 be 5e 59 76 bd d5 3a c5 3d a2 aa 37 bf
       -0.18083526 -0.06014382 0.09630362 -0.7174474
000070 bd a3 68 be 85 82 6a 3c b5 8b 16 3e e0 5d cd 3e
       -0.22718711 0.014313345 0.14701732 0.40110683
000080 8c b7 10 3d 23 bd 93 3f 5b 75 26 3e 29 82 59 3e
       0.035331294 1.1542095 0.16255705 0.21241058
000090 fe b1 b8 3e 32 79 83 be f8 9d 46 bb 30 c2 3d 3d
       0.36073297 -0.25678402 -0.003030656 0.04632777
0000a0 73 93 62 be a9 82 f3 3c 1e 1a a1 3e 8f d9 ca 3d
       -0.2212656 0.02972539 0.31465238 0.09904777
0000b0 fa 80 5d 3e db 1e 7b 3d 1d 95 9c be a9 94 98 be
       0.21631232 0.061308723 -0.30582514 -0.2980092
0000c0 ce 7f 45 3d be 45 83 3e 5b 76 f1 be 59 7e 86 3f
       0.048217587 0.25639147 -0.4716061 1.0507308
0000d0 96 9d 9a 3e ca e0 2c bd 0b 35 45 3e ce 52 6c be
       0.30198354 -0.042206563 0.19258516 -0.23078462
0000e0 cd d2 1c bd 93 15 62 3e 94 ae 8f be a4 78 c9 bd
       -0.038286973 0.22078542 -0.2806288 -0.098374635
0000f0 8d 52 9b 3d 11 72 2a bd 37 59 33 3c 6b f3 82 bf
       0.07584105 -0.04161269 0.010946563 -1.0230535
000100 19 51 b0 bd f3 9a b4 3c ea c3 4c 3e b7 fd 96 3d
       -0.08609218 0.022046542 0.1999661 0.07372611
000110 09 fc 06 be 92 64 a4 bf 00 4c 9e 3e 48 94 48 bd
       -0.13182081 -1.2843192 0.30917358 -0.048969537
000120 84 13 be 3b 30 86 9b 3e e1 1b b6 be 6f fe b2 3e
       0.0058006663 0.30375814 -0.35568145 0.34959742
000130 47 9d 0e bf ca 5a 25 be 13 1c 3b bf 89 d1 ed bd
       -0.55708736 -0.16147915 -0.7308971 -0.11612231
000140 1c 06 42 be a0 3b c4 3f c8 1d 10 3e 4b 00 df bc
       -0.18947643 1.5330696 0.1407386 -0.02722182
000150 56 0b 9c be 97 6f 5d 3e 8a 27 f4 bd 5c f3 4a 3f
       -0.304774 0.216246 -0.11921604 0.79277587
000160 a8 69 15 bf 00 24 f0 ba b0 bd ce 3e e0 c2 1b be
       -0.58364344 -0.0018321276 0.40379095 -0.15211058
000170 5d 3e af be 13 de cf 3e f3 fc 3a bd fc 9c e9 bd
       -0.34227267 0.40599117 -0.045651387 -0.114068955
000180 5b 4b 7a be 3e 3c 93 bd e5 9a cf be 75 06 7d bf
       -0.24442808 -0.07189225 -0.40547863 -0.9883798
000190 80 03 a0 be 03 42 a2 3d e6 9e 52 be a9 a7 5e be
       -0.3125267 0.07922747 -0.20568427 -0.21743645
0001a0 de ee 73 be a4 a7 f0 bf 8a 29 e0 be 38 b9 a3 3d
       -0.2382159 -1.880116 -0.43781692 0.07994312
0001b0 5c 8d 2d 3f d5 a6 1c bf 19 5f a1 be d1 03 25 bf
       0.6779382 -0.61192065 -0.31517866 -0.6445895
0001c0 61 d0 b3 3e e3 bf e1 be 19 39 4e bf 3c ce e2 be
       0.35119918 -0.4409171 -0.80555874 -0.4429797
0001d0 1d 3b ac bd 04 b8 a2 bf bb d5 85 be 30 c5 da bd
       -0.084097125 -1.2712407 -0.26139626 -0.10682142
0001e0 3f 65 a2 bb f3 b5 45 be 2a 9c ff 3d fb 02 97 3f
       -0.004955917 -0.1930769 0.12480958 1.1797785
0001f0 12 c2 82 be a4 80 51 3e 38 c5 90 3e 7a eb 3d be
       -0.2553869 0.20459229 0.28275466 -0.18546858
000200 19 46 dd be 1a d6 2d 3f 0f 0b 17 3e d2 34 90 3e
       -0.43217543 0.6790482 0.14750312 0.281653
000210 8c e7 95 3f a1 47 27 3f 6e e6 08 3e eb 21 dc be
       1.1711287 0.6534367 0.13369152 -0.42994627
000220 3b 35 06 3d 42 4b bc 3d e4 b0 df be b5 64 de be
       0.03276561 0.09194042 -0.43689644 -0.43436208
000230 13 9c dc be 8c b8 95 bf 9d ae f8 be f5 9b 94 3d
       -0.43087825 -1.1696944 -0.4857072 0.07256309
000240 90 42 c2 3d 2f c0 05 3e f6 2b 49 bd 07 a6 8c 3e
       0.09485352 0.13061593 -0.04911419 0.2747042
000250 83 80 98 3c 4e 18 ad 3d de 50 b2 3e 12 e7 02 bf
       0.018615967 0.084519014 0.34827322 -0.51133835
000260 55 60 8e 3d 46 ab 35 be 68 ee 57 be 96 41 1a bc
       0.069519676 -0.17741117 -0.21087039 -0.009415051
000270 46 6b 73 3e ec a4 c0 bc aa e4 fe bc a7 be 12 3f
       0.2377139 -0.02351614 -0.031114895 0.5732216
000280 86 e8 9b 3d 17 83 22 bc 3c 91 35 3f 91 74 a6 3d
       0.0761271 -0.00991895 0.70924735 0.08127702
000290 aa 97 73 be 1a 77 d2 3d 6d 61 8e 3d b3 cc 33 be
       -0.23788324 0.10276623 0.06952176 -0.17558555
0002a0 2a 5f 04 be c0 e7 29 be ac df 61 3d 2d b8 84 bf
       -0.12926927 -0.16592312 0.05514495 -1.0368706
0002b0 63 c5 b9 bd c6 26 91 3c 03 a2 b6 be ac a3 c6 3e
       -0.09070852 0.017718684 -0.3567048 0.38796747
0002c0 d6 d2 b1 be 44 00 c3 be ec 25 2b bd 18 37 50 3d
       -0.34731168 -0.3808614 -0.041784212 0.05083379
0002d0 23 bb 43 be 44 8b 01 3e 55 bd 9c bd dc 02 1a 3f
       -0.19114356 0.12650782 -0.076533 0.60160613
0002e0 53 02 27 be c3 47 37 3c 44 ef 63 be 40 35 42 3f
       -0.1630948 0.011186543 -0.22259241 0.75862503
0002f0 2f 10 87 be 9b 76 e5 3e f6 2b 56 be 99 7d 51 3e
       -0.26379535 0.4481705 -0.20915207 0.20458068
000300 ba 4a da bd 51 80 ed 3e 9d 7c 10 bd 61 51 81 3f
       -0.10658784 0.4638696 -0.03527509 1.010296
000310 4a 77 3b be 0b 95 20 3e fe 29 07 3d 8f 2d 4c be
       -0.18307224 0.15681855 0.03299903 -0.19939254
000320 43 ed 87 3e f2 34 38 bf 1a 1c a5 be 8c 97 79 3e
       0.26548204 -0.7195579 -0.32248002 0.24374217
000330 88 69 51 be 9d d9 19 bf 77 74 26 be 73 e0 30 bf
       -0.20450413 -0.60097677 -0.16255365 -0.6909248
000340 71 6a 13 bf e9 2a 7b 3d c2 79 86 3f 85 5d 0a bd
       -0.5758429 0.06132022 1.0505908 -0.033780593
000350 29 49 8d be 02 c9 7b be 31 27 43 3c a3 4e 36 bd
       -0.2759488 -0.24588397 0.011911199 -0.044508588
000360 83 e5 81 3e 0c 9d d2 bd 89 92 0e bd 7f 3f 81 bf
       0.25370416 -0.102838606 -0.034807716 -1.0097502
000370 e0 cb 45 be 16 32 f6 3d 5c 8f 56 3f 1f 23 86 bd
       -0.19316053 0.12021272 0.838125 -0.065496676
000380 0d 69 74 3d 55 24 2b bf bb c0 9e be f3 be a6 3e
       0.059670497 -0.66852313 -0.31006417 0.32567558
000390 cc 8a c6 be 14 9b 17 bf d1 28 bc 3d 0e 43 22 3f
       -0.3877777 -0.59221005 0.091874726 0.6338357
0003a0 8e 93 f0 3c 9d 26 27 bd 1e 5b a6 3e c3 02 b5 be
       0.029367235 -0.04080831 0.32491392 -0.3535367
0003b0 d8 9d 80 3e df 41 e4 3e 10 63 98 bd 9f c3 04 3f
       0.25120425 0.44581506 -0.0744077 0.51860994
0003c0 c3 72 bb 3d f9 12 64 bc 02 0a da bc 70 b0 46 3f
       0.091527484 -0.013920539 -0.0266161 0.7761297
0003d0 a7 43 25 bf ed 9c 47 3e c7 a5 98 3f 8d d7 ba be
       -0.64556354 0.19493456 1.1925591 -0.36492577
0003e0 5a 49 b8 be 40 2a d0 be 77 b0 18 be 45 24 8d 3c
       -0.35993463 -0.40657234 -0.14911066 0.017229209
0003f0 04 46 d6 3e 29 00 21 be ee be e8 3e 7b 64 c1 bf
       0.41850293 -0.15722717 0.45458168 -1.5108789

l4.bias f4 [256]
000000 10 9d f2 bc dc a0 73 3d 6e 91 34 3e 6e 52 9b be
       -0.029615909 0.05947958 0.17633602 -0.30336326
000010 3a 59 97 3e ec 0b 76 be 4c 34 a6 be 51 43 eb 3d
       0.29560262 -0.24027985 -0.32461774 0.11487449
000020 5a e0 23 3d 94 c6 89 3e b1 2f 6f 3e 6d 21 5c 3e
       0.04000888 0.26909316 0.23358037 0.21497126
000030 dc 9c 11 be d6 04 06 be 9d c5 1f 3e 8f bf 92 be
       -0.14219993 -0.13087782 0.15602727 -0.28661773
000040 b9 c3 70 bd 51 e7 b6 be c0 98 0e 3e 56 bf 1b 3e
       -0.058780406 -0.35723355 0.13925457 0.15209708
000050 8e 30 a5 3d fe 44 20 be 7a 92 8f be 46 6b f3 bc
       0.08065902 -0.15651318 -0.2804144 -0.029714238
000060 bb cf 2f 3e 29 e7 0a be 67 23 77 3e ce ed ae 3e
       0.17169087 -0.13564743 0.24134599 0.34165806
000070 a7 30 b4 3e 82 07 8b be 9d 56 cd 3e ad 89 a4 bd
       0.3519337 -0.27154166 0.40105143 -0.08034072
000080 ff a7 9a 3e d1 c6 ce 3e f3 c2 c1 be c9 5a 17 3e
       0.30206296 0.4038606 -0.37844047 0.14780726
000090 33 e9 82 3e 17 59 86 be de 43 c3 be 8f cc dd be
       0.25568542 -0.26239845 -0.38137716 -0.43320128
0000a0 9d b1 1f be 67 f6 1e 3e 02 5f b1 3b f1 e0 b7 3d
       -0.15595098 0.15523683 0.005412937 0.08978451
0000b0 e1 c3 de 3d 7e 9d 1d be 7d 42 88 3d a6 91 ca be
       0.10877205 -0.1539211 0.06653307 -0.39564246
0000c0 64 f9 0b 3f 94 12 0c be 36 40 ef 3e 95 d3 2d 3e
       0.54677415 -0.13678962 0.46728677 0.16975243
0000d0 68 8a ae 3e c7 29 88 3e 97 83 e2 3c 9f d0 eb 3d
       0.3408997 0.26594374 0.027650638 0.11514401
0000e0 08 c2 fe 3d 45 26 da 3d 60 f4 82 3d 82 72 af 3e
       0.12439352 0.106518306 0.06394267 0.3426705
0000f0 6e 54 50 3e a3 7c ba 3e a8 6e 91 3e d4 d2 f4 3d
       0.20344707 0.36423215 0.28404737 0.11954275
000100 08 fe 86 3e dc 8b b4 3e 10 28 f6 be 8c a6 67 3c
       0.26365685 0.35262954 -0.4807744 0.014138829
000110 95 dd 9f be c7 30 c8 bd 0d 12 7f 3e 1c 2c 4d bd
       -0.3122374 -0.097749285 0.2490923 -0.050090894
000120 09 a6 43 bd e2 a8 69 3e 9d fc 9d 3d 7d b6 9a 3e
       -0.047765765 0.2281833 0.07714198 0.30217353
000130 2b 97 64 be 3a ba 70 be 1d 7b 86 be 1d a3 5a 3e
       -0.22323291 -0.2350854 -0.26265803 0.21351285
000140 6b ca 95 bd 4f 4c c4 be a2 28 6b be 90 ca e8 3e
       -0.07313999 -0.3833947 -0.22964719 0.45467043
000150 f8 7d 22 3e ce b6 56 3e 68 d2 e7 be 21 3f 51 3e
       0.15868366 0.20968172 -0.45277715 0.20434238
000160 2f e3 c3 3e 02 48 b7 be c3 a2 c9 3e 8d f9 27 3d
       0.38259265 -0.35797125 0.3938199 0.041009475
000170 e9 41 e6 3e 23 ed 50 3e a6 68 8e bc 26 77 fe be
       0.4497216 0.2040296 -0.017383885 -0.49700278
000180 64 0e 85 3e 70 50 ae be fa 86 09 bd 19 e7 64 bd
       0.25987542 -0.34045744 -0.03357599 -0.055884454
000190 13 e9 40 3e 3b 8a e9 be c2 10 92 3d 88 16 a6 3d
       0.18838911 -0.45613274 0.071321025 0.08109766
0001a0 3a fd 9c 3c c3 ae 35 3d 44 e1 89 3d 69 de 86 be
       0.019163717 0.04435612 0.06732419 -0.2634156
0001b0 96 d3 89 be 53 5b 03 be 25 c5 de bd 60 a8 a8 3e
       -0.2691924 -0.12827806 -0.10877446 0.3294096
0001c0 b9 d8 60 be 4b dd 43 bc 73 73 53 be 11 f5 21 3e
       -0.21957673 -0.011954616 -0.20649509 0.15816142
0001d0 50 ed be 3e 29 31 94 3e 3a 69 97 3e a6 64 b0 3e
       0.3729043 0.28943756 0.2957247 0.3445179
0001e0 16 04 e7 3d ab ed 4a 3d 2f 34 8e 3e 72 58 31 be
       0.11280076 0.049543064 0.27774188 -0.17318895
0001f0 58 3c 9c be 54 93 37 3e d0 cc 04 bd 7a c5 bc be
       -0.3051479 0.17927295 -0.032421887 -0.36869413
000200 9d 46 55 bc d6 62 21 bd 9c 99 1d bc c3 b4 54 3e
       -0.013017324 -0.039400898 -0.009619143 0.2077208
000210 47 60 f8 be 0d b3 a7 3e 8f fe bd be d0 8b e4 be
       -0.48510954 0.32753792 -0.37108275 -0.44637918
000220 01 af 92 3e e6 a9 06 3e 71 f2 41 3e 3b 7d b1 be
       0.28649142 0.13150749 0.1894014 -0.34665856
000230 6a 47 34 3d b9 e7 96 3d 14 f1 c2 3e 58 1a 9c 3e
       0.04401342 0.07368416 0.38074553 0.3048885
000240 f3 e7 93 3e b9 ca 13 be 50 32 75 be e3 7a ee be
       0.288879 -0.14432801 -0.23944974 -0.4657813
000250 20 33 b0 3e 8d fc 85 3c ab f3 5a 3e 97 f1 00 bd
       0.34414005 0.016355777 0.21382014 -0.031480398
000260 4e 4b fc bd bb d5 b6 be 53 4a 61 be 74 65 53 3e
       -0.12319051 -0.35709938 -0.22001009 0.2064417
000270 8f 7e 51 be 3f 8a 45 be bb 2b 2f 3e 49 c2 00 be
       -0.20458435 -0.19291018 0.17106526 -0.12574114
000280 6f 25 3f bd 92 8c da 3e 17 a1 ff be b2 10 b8 3e
       -0.04666656 0.42685372 -0.4992759 0.35950238
000290 96 98 de be 03 c9 89 3e 89 c4 09 bf c4 c1 dd 3d
       -0.4347579 0.26911172 -0.53815514 0.108279735
0002a0 75 db c2 be e2 95 a6 bd 6c 23 f6 3c b2 24 16 be
       -0.38058057 -0.08134057 0.030046187 -0.14662436
0002b0 95 67 1d be e3 13 23 be 92 09 a6 be 55 93 78 bd
       -0.15371545 -0.15925555 -0.32429177 -0.06068738
0002c0 6c 8d ae 3e 81 92 5d 3e bf bc f6 3d cf d9 1f be
       0.3409227 0.21637918 0.12047719 -0.15610431
0002d0 6a 84 78 be 4f 78 ae be df 1d 86 3d b6 a4 90 3e
       -0.24269262 -0.34076163 0.06548666 0.28250664
0002e0 2f fb 23 be 7c 15 7e be 76 69 95 be 70 1f 82 3e
       -0.16013788 -0.24812883 -0.29182023 0.2541461
0002f0 42 81 09 3e 5c 2f e1 3e 90 cd 94 3e 06 9b d8 be
       0.13428214 0.43981445 0.29063082 -0.42305773
000300 68 ae 28 3e b1 b6 a4 be 4e 14 09 bf 46 bc 01 be
       0.1647278 -0.32170632 -0.5354661 -0.12669477
000310 95 45 79 be c8 52 4f be f1 20 ce 3e ec b5 86 3e
       -0.2434295 -0.20246422 0.40259507 0.2631067
000320 38 6f 95 3e 83 95 53 be f6 9e 7c 3d 93 1c 85 3c
       0.29186416 -0.20662503 0.061675034 0.016248977
000330 5e b5 5e 3e 36 a1 97 3d f4 63 13 3d a9 a9 00 bd
       0.21748874 0.074037954 0.035983995 -0.0314118
000340 66 fd a5 3e 1d d0 89 be fc 2e c3 3e 2c df 3a be
       0.3241989 -0.2691659 0.38121784 -0.18249196
000350 40 91 e8 be f7 a9 d5 3d fe 4b ca be 51 f1 97 be
       -0.45423317 0.10432809 -0.39511102 -0.29676297
000360 ec 22 16 be 17 e2 9c 3e 7d 6a c0 bd 4f dd b0 3e
       -0.14661759 0.30641243 -0.09395311 0.34543845
000370 2c dc 9f be b3 00 4b be ec 84 90 be b1 88 2c be
       -0.31222665 -0.19824485 -0.2822641 -0.16849019
000380 59 ff 87 3e a6 9f f6 3d 82 b4 ed 3d 74 10 85 3e
       0.26562002 0.12042169 0.11606695 0.25989115
000390 d3 4c 14 3e ef cb bd bd 1e 08 b8 be ca b9 86 3c
       0.14482431 -0.09267413 -0.35943693 0.016446013
0003a0 54 c3 42 3e d3 e9 ab 3d 81 64 4d 3c c3 8e 36 be
       0.19019824 0.08394208 0.012536169 -0.17827897
0003b0 24 bd b0 be bd 21 a2 3e 5e f4 c9 3d ef 19 b3 3e
       -0.34519303 0.31666365 0.098610625 0.34980723
0003c0 95 f9 8a be e2 fc ac bc 95 54 1a 3e 2b b3 52 3e
       -0.2714354 -0.021116678 0.15071328 0.2057616
0003d0 10 51 ac be 74 b8 65 be 92 be 53 3d 28 ce 29 3e
       -0.33655596 -0.22433645 0.051695414 0.16582549
0003e0 4c f9 bc bd c4 b0 a5 3d ca f7 9f 3e c6 23 f4 bb
       -0.09227237 0.08090356 0.31243736 -0.0074505536
0003f0 f8 18 d5 be c7 97 9d be f6 66 01 3e 36 9c 94 bb
       -0.41620612 -0.3077986 0.12636933 -0.0045352234
