Project/Ming_Jiang_1016239_Gengcong_Yan_1009903_Project/Part1/trained agents/td3/InvertedPendulumBulletEnv-v0_TD3_3_1637009588_td3.pth (torch, 818223 bytes, 15 tensors)

l1.weight f4 [256, 6]
000000 c8 0f 80 be 4b ee 03 3f 2e 2d e9 bc 63 63 fa 3e
       -0.2501204 0.5153548 -0.028463926 0.4890395
000010 7c ce e1 be c1 52 1a 3e 40 22 7d bd 45 d8 7a 3e
       -0.44102848 0.1507063 -0.06180024 0.24496563
000020 02 14 c3 be 42 9a c2 3f 96 4a 9d 3e 65 77 24 bd
       -0.38101202 1.5203326 0.30720967 -0.040152926
000030 46 b8 65 3d 20 38 59 3e e2 98 08 3e ad 62 78 bf
       0.05608394 0.21212816 0.1333957 -0.9702557
000040 b9 9d 8a be 9c e0 eb bd 29 21 87 3e e3 c9 54 be
       -0.27073458 -0.1151745 0.26392487 -0.20780139
000050 32 da a2 be 70 da 94 bf 2c fa c2 bd da 5d 2d be
       -0.31807095 -1.1629162 -0.09520373 -0.16930333
000060 e3 4e 1f bf 13 1b 07 bf 98 bb 38 be be 49 a1 bf
       -0.62229747 -0.52775687 -0.18040311 -1.2600629
000070 1a d6 b3 be 87 ff ba 3c 09 b9 ae 3e 1e 85 42 be
       -0.35124284 0.022826923 0.34125546 -0.18996093
000080 f2 49 09 be d2 7f ad bf cf 9d 8b be 6e d2 62 3d
       -0.13407114 -1.3554633 -0.27268836 0.055376463
000090 0c 82 a4 3e fb 79 5c be fe 1e e5 3d 35 21 c1 3d
       0.32130468 -0.21530907 0.11187552 0.09430162
0000a0 a8 58 ed bd 04 82 7f 3e d8 6e 06 bf 94 f2 fa be
       -0.115891755 0.24951941 -0.52512884 -0.49013197
0000b0 c3 c8 b1 bd 35 7a 84 bf 41 17 b5 be 5e 0f cf 3c
       -0.086808704 -1.0349795 -0.35369304 0.025275882
0000c0 06 33 8f bc b8 6c 13 3f 86 2f e9 bd 99 6c 20 be
       -0.017480385 0.57587767 -0.113860175 -0.15666427
0000d0 4b 61 80 be fb bb 41 3d 88 82 28 be 8f dc 7e be
       -0.2507423 0.047298413 -0.16456044 -0.24888824
0000e0 4f 3f b1 3e 71 63 da be ca 06 ec 3d fe 08 43 3e
       0.34618613 -0.42653993 0.115247324 0.19046399
0000f0 2b ce 7d 3d 76 3f 2a 3e 8b e8 57 3e 83 cd 3a bf
       0.061964195 0.16625771 0.21084802 -0.72969836
000100 35 ce 5d 3e f5 84 a9 3d ab 54 af 3f df 5e ef 3e
       0.21660693 0.08277313 1.3697714 0.46752068
000110 cd 61 e8 3d f4 6e 98 bf 6a 3a 94 ba d3 56 1e 3d
       0.11346779 -1.190886 -0.0011308913 0.03865702
000120 1d 28 99 be d7 50 16 be c2 bd 66 3e 4d 4a 2e 3e
       -0.29913417 -0.14679275 0.22533324 0.17020531
000130 cf 34 d7 bc 85 0e 80 be f3 26 2d be 94 41 9b 3d
       -0.026270298 -0.25011078 -0.16909389 0.075808674
000140 2e 6b 06 bc fd da b1 3f 11 1e 0f 3e 71 e9 f3 bc
       -0.008204265 1.3894955 0.13976313 -0.0297744
000150 0f bd 9c be f4 b1 24 bd 24 33 16 3e e9 96 5c 3e
       -0.3061299 -0.04020877 0.14667946 0.21541943
000160 3f 65 69 3d 45 c6 a9 bd 08 59 84 3e 48 3e 86 be
       0.05698132 -0.0828977 0.25849175 -0.26219392
000170 c4 72 1b 3e e1 96 5f be 0a d1 91 be 47 d2 39 3e
       0.15180498 -0.218349 -0.28479797 0.1814662
000180 15 a9 8c 3e cc 45 50 be 49 be 1b be 60 9e 31 bf
       0.2747275 -0.20339125 -0.15209307 -0.69382286
000190 fd 63 9c 3e 41 05 97 3e 01 90 46 3f 36 c0 b8 3e
       0.30545035 0.29496196 0.7756348 0.36084145
0001a0 30 90 05 be ed 1f 93 be ae 5f bc be b7 f7 9f 3e
       -0.13043284 -0.28735295 -0.36791748 0.3124368
0001b0 10 2a 02 3f db af 47 bf 75 ba 91 be 6d ad 2e bf
       0.5084543 -0.7800271 -0.28462568 -0.68233377
0001c0 79 51 88 bb b7 cb a5 bd 51 9b 15 be 28 00 da 3d
       -0.004160103 -0.08095496 -0.1461003 0.10644561
0001d0 69 39 c3 3e 3a 48 e0 be a2 67 c2 3d 00 c9 51 3e
       0.38129738 -0.43805104 0.09492423 0.20486832
0001e0 70 56 0a bf ea 94 e1 be 74 61 45 be a7 84 69 bf
       -0.54038143 -0.44058925 -0.19275457 -0.91218036
0001f0 e6 04 6b be ad 0d 1d 3e ce 91 cb bd 83 02 82 be
       -0.22951087 0.15337248 -0.099399194 -0.2539254
000200 50 02 da bc 37 c7 68 bf 4b f5 a8 bc cc 50 43 bd
       -0.02661243 -0.9092898 -0.020624777 -0.047684476
000210 57 81 c4 bf 3d 8e 0a be 05 f7 d6 3d 06 1b b1 3f
       -1.5351971 -0.13530822 0.10496334 1.3836372
000220 37 a0 03 3c af 40 5b bc 43 3d e4 be a1 d7 3f 3e
       0.008033804 -0.013382121 -0.4457799 0.187346
000230 53 d9 21 be 5e 7d 73 3f a6 2d 86 be fb ed de 3e
       -0.15805559 0.9511317 -0.26206702 0.4354094
000240 9e 2e 2d 3f 8b 66 d0 3e 3d 22 bb 3e 60 dd a3 be
       0.6764926 0.40703234 0.3654956 -0.32004833
000250 19 8f f6 bc 18 8b 81 bc ae 10 a0 3d 4b 88 f9 bd
       -0.030097531 -0.015813395 0.078156814 -0.12184199
000260 da c0 57 3c 8b 11 6b 3f 82 12 ec bd 19 1a 76 bd
       0.013168538 0.91823643 -0.115269676 -0.060083482
000270 cc b2 c5 be 5c 57 89 3e d6 82 b9 be 21 1e 6b 3f
       -0.38612974 0.26824462 -0.36232632 0.9184285
000280 e3 b9 a9 be 12 78 00 3e 18 cd 4b 3f 8c bc 46 3f
       -0.33149633 0.12545803 0.79609823 0.7763145
000290 32 ef 82 be a1 5a 3a bf bf 18 98 3e c1 93 7d 3e
       -0.25573117 -0.7279454 0.2970638 0.24763395
0002a0 15 fa be 3e 15 c2 28 3f 6f e6 35 3c fa f7 2b 3f
       0.37300172 0.65921146 0.011102303 0.6717526
0002b0 09 52 1e be bb 83 af bd 97 0b 5d be 29 55 66 be
       -0.15460981 -0.085700475 -0.21586452 -0.22493424
0002c0 c9 9c bf 3d 9b 9f 18 3f 00 4a 62 3e fe 90 4e 3c
       0.09356076 0.5961854 0.22098541 0.012607811
0002d0 ee 78 3d 3f a1 34 cb 3d bf 27 50 be 0e 69 69 bf
       0.7401265 0.099221475 -0.20327662 -0.91175926
0002e0 7c 9e d3 3e da 07 2b bd 04 f8 11 bf 74 fd 69 3e
       0.4133185 -0.041755535 -0.57019067 0.22850591
0002f0 b1 86 b0 be c3 ea e6 3f 41 07 c1 3e 6b d8 75 bd
       -0.3447776 1.8040394 0.37700847 -0.060020845
000300 db 04 2b bf 72 2d ad bd fb e0 4f be 0d b5 87 3f
       -0.66804284 -0.08455934 -0.20300667 1.0602127
000310 50 7c 80 3e 04 6d 4a be b5 b5 4f bd ad 83 a0 3c
       0.25094843 -0.19768149 -0.0507104 0.019594038
000320 e3 59 d8 3e 34 e4 06 3f 61 09 3d 3e 60 2a 85 be
       0.42256078 0.5269196 0.18460609 -0.26008892
000330 ae c3 e4 be 33 04 3f be 7b 8c aa be 7b fc 7d bf
       -0.44680542 -0.18653946 -0.33310303 -0.9921338
000340 3c d4 32 be 6d 80 82 3c 28 99 de bd 32 c8 48 bd
       -0.17463773 0.015930379 -0.10869056 -0.049019046
000350 f3 cc 36 be 41 bb 43 3c 9c fd d2 3e 09 57 f2 bd
       -0.1785162 0.0119465 0.41209114 -0.11833007
000360 c8 5d 7d be 57 83 67 be aa 2a e5 3d 53 2d ba 3e
       -0.24742806 -0.22608696 0.11189778 0.36362705
000370 71 f4 b5 3d eb dd 33 bd 0a 38 90 3e 1f 0e ab 3e
       0.08884514 -0.04391281 0.28167754 0.3340921
000380 56 ba 8b 3e bc 09 65 bf 47 e0 8f 3e ac e5 a2 be
       0.272906 -0.8946798 0.28100798 -0.3181585
000390 02 42 09 bf f4 34 02 bf 66 ed 10 3e 02 cf 2b 3f
       -0.53616345 -0.5086205 0.1415306 0.67112744
0003a0 e9 3f 31 be d2 63 6c 3e 65 cc 94 be c3 58 b0 be
       -0.17309536 0.23084953 -0.2906219 -0.3444272
0003b0 2b 68 bb 3d cc 0b 7b bf 74 a6 67 be fc 3f 2e 3c
       0.09150728 -0.98064876 -0.2262209 0.010635372
0003c0 d1 8f 5c 3e a3 33 f0 3e 8f 6a 57 3e 04 50 80 3f
       0.21539237 0.46914396 0.21036743 1.0024419
0003d0 a5 6f e9 bd 2d c0 da 3d 58 7a 10 3f f6 9f 94 3d
       -0.11398248 0.10681186 0.5643668 0.07257073
0003e0 7d b2 1d 3d f2 40 6b 3f a0 ff 3a 3d af 0e 97 bb
       0.038500298 0.91895974 0.04565394 -0.0046099047
0003f0 37 63 b5 3e 7b 1e 32 be 9e f0 8b be e6 77 ce bf
       0.35427257 -0.1739444 -0.27332014 -1.613034

l1.bias f4 [256]
000000 2c 69 9c 3e 66 8a 12 3c e3 b3 d1 be ec 01 9e bd
       0.3054899 0.00894413 -0.40957555 -0.0771521
000010 58 fd 2b 3d 4c f3 74 be 08 51 cc 3e fe 20 dd bd
       0.041989654 -0.23920935 0.39905572 -0.107973084
000020 3e 08 6f be eb de 70 be 23 c0 a5 3c 6d 39 4b 3e
       -0.23342988 -0.23522536 0.02023322 0.19846125
000030 69 00 bd 3e 8a 9a af 3e 4b 51 81 be ba 79 f7 3d
       0.36914375 0.3429759 -0.25257334 0.120837644
000040 29 d0 69 bd 5c ba dd 3d 25 04 be 3e da 4b ad 3e
       -0.057083283 0.10826561 0.37112537 0.33846933
000050 b9 05 82 3e 53 70 ce 3e 40 fc 29 3e 6b ea 43 be
       0.2539499 0.40320072 0.16600132 -0.19132392
000060 1d 35 3c be 9a 1d a8 3e b5 e3 aa 3e 6b 77 e5 ba
       -0.18379636 0.32835084 0.33376852 -0.0017506903
000070 3f 6a 04 3d 30 85 9f 3e be 0f 8e 3e c9 4a 3d be
       0.032327887 0.31156301 0.27746385 -0.1848556
000080 e5 80 6c be 2a 29 95 3e 50 cd 7b 3e 92 d2 b0 3e
       -0.23096044 0.29132968 0.24590039 0.34535652
000090 35 fc 89 3d fb 19 43 3d 94 7f 01 be 45 45 03 3d
       0.06737558 0.0476322 -0.12646323 0.032048482
0000a0 f5 11 82 be 3d 89 4d bd 61 7d 00 be 7b 5c 84 be
       -0.25404325 -0.05017971 -0.12547828 -0.25851807
0000b0 91 c9 a2 bc 92 76 9a 3e da 3c 57 be 91 42 c3 bd
       -0.019871505 0.30168587 -0.21019307 -0.09534181
0000c0 3f d3 99 3e f5 e8 81 be 8f 1b 9d be 9d 9d b4 3d
       0.3004398 -0.25373045 -0.30685088 0.08819125
0000d0 3f 28 2f 3e 55 04 6b 3e 8a 97 61 3d b5 88 02 bf
       0.17105196 0.22950871 0.05507616 -0.5098985
0000e0 8d 1d ab be dd f8 b6 3e 86 27 70 bd 5e b5 89 be
       -0.33420983 0.35736743 -0.058631442 -0.26896185
0000f0 41 28 bb be 56 a8 8c 3e cc 20 28 be 60 cf b6 be
       -0.3655415 0.2747218 -0.16418761 -0.3570509
000100 e0 3c ac be 27 6d a5 3e 5d 34 00 3d 6b 37 ef 3d
       -0.33640194 0.3230984 0.031299938 0.11680492
000110 01 b7 46 3d ab e8 81 bd 33 d3 8b be 97 a8 95 3e
       0.04851437 -0.06343206 -0.2730957 0.29230186
000120 f2 a2 ca be 32 9d 99 be 38 89 54 be 2a 95 ab be
       -0.39577442 -0.30002743 -0.2075547 -0.3351224
000130 84 5f 89 3e 93 6e 57 be 29 88 33 be 2e 9d 84 3e
       0.26830685 -0.21038274 -0.1753241 0.2590117
000140 d2 8b ba 3e 5e 01 9d be cb f3 05 3e be 02 f3 3e
       0.364348 -0.30665106 0.13081281 0.4746303
000150 5a ce 28 3e 62 72 8a 3d a7 19 ce 3d 9d fc 33 be
       0.16484967 0.06760098 0.100634865 -0.17576833
000160 fb 0f 38 b8 3c 29 c6 3b 2c e5 42 3e bf 83 1a be
       -4.38839e-05 0.006047396 0.19032735 -0.1508932
000170 43 a4 e4 3d ff 2b db bd e5 20 93 3e ac 96 e7 3d
       0.11164143 -0.10701751 0.28736034 0.11308035
000180 be 89 ff bd c1 d2 c1 be 88 a0 cd 3d 03 ce b0 bd
       -0.12477444 -0.37856105 0.100403845 -0.086330436
000190 d9 2b fb bd f6 59 66 bd 1a 40 7e be 39 7f 7c 3e
       -0.12264223 -0.056238137 -0.2482914 0.24657907
0001a0 0c b8 7b be da 82 a5 3c b2 6b de 3e 9f 06 80 be
       -0.24581927 0.020203996 0.4344154 -0.25005051
0001b0 5e 4d 59 be f8 5f 00 bd 2a b7 9e be 85 d7 5f be
       -0.2122092 -0.031341523 -0.30999118 -0.21859558
0001c0 cc 12 dd be a8 c6 89 3e 9a a1 bf bd e6 cc bb 3e
       -0.43178403 0.26909375 -0.09356995 0.36679763
0001d0 c6 f5 45 bd c5 dd eb be 4e fd e7 3d 7a bf 20 3c
       -0.04833009 -0.46067634 0.11327611 0.009811277
0001e0 27 7f 56 3d bf 9c a0 be 98 7e 82 bd 19 a1 cb 3d
       0.052367356 -0.31369588 -0.06371802 0.09942836
0001f0 62 54 ba be ce 97 a0 be c6 a2 70 3e ce dc 02 3e
       -0.36392504 -0.31365818 0.23499593 0.12779543
000200 0c 9f 31 be ed 3f 0d bd dd ba d3 3e 1b b0 9f 3e
       -0.17345828 -0.034484793 0.41353503 0.31189045
000210 57 e6 d6 bd 01 0b 88 be cb 11 87 3e 9d d5 46 3e
       -0.104931526 -0.26570895 0.26380762 0.19417424
000220 3f c2 24 3d 73 eb eb 3d d7 52 91 be dc 6a ab 3d
       0.04022431 0.11519518 -0.28383514 0.08369991
000230 17 d3 98 be 4c aa 05 be 35 34 66 3e 74 7f fe 3d
       -0.2984855 -0.13053244 0.22480853 0.124266535
000240 c4 8e b1 3d dd 7b 8a be 7c c4 a1 be a6 04 96 3e
       0.086698085 -0.27047625 -0.31595218 0.2930042
000250 ab 2d ca be 40 28 80 be ae a0 6d 3e 61 45 9d 3e
       -0.39487967 -0.25030708 0.23205826 0.30716994
000260 37 34 61 bd 77 e9 ec 3d 79 84 0f 3e 63 61 95 3e
       -0.054981437 0.115679674 0.14015378 0.29175863
000270 27 2b c4 bd a3 dd b4 3e 62 5f bb be c7 fa 1a be
       -0.09578543 0.35325345 -0.3659621 -0.15134726
000280 ca 81 68 be de dc 6c 3d 99 fe 8c 3e 69 7e 80 3e
       -0.2270576 0.057827823 0.27537993 0.25096443
000290 90 90 ad 3e 8a 74 81 be dd e9 be 3d e1 52 96 3d
       0.33899355 -0.25284225 0.0932195 0.07340027
0002a0 ac 32 81 be 12 a4 21 3c 3e 1b 74 3e 12 91 c5 3e
       -0.25233972 0.009865778 0.23838517 0.38587242
0002b0 2e b5 8b be d1 f1 48 3d 5c 43 3c bc 99 f2 15 bf
       -0.27286667 0.04905874 -0.011490669 -0.585733
0002c0 6d 75 1a 3e 66 06 11 bd 0b f4 ba 3e 37 ea 26 3d
       0.15083857 -0.035406493 0.36514315 0.04075071
0002d0 be ae c0 3e 79 ff b0 be 0e 4e 64 3d 17 b3 38 be
       0.37633318 -0.3456991 0.0557385 -0.18037067
0002e0 ac 93 bf 3e 78 12 81 be 70 ac 75 be 07 c9 7e be
       0.37417352 -0.25209403 -0.23991561 -0.24881373
0002f0 67 79 8e be 55 3b 81 3e 1c 4a dc be db a9 e4 be
       -0.27826998 0.2524058 -0.4302529 -0.4466084
000300 17 18 95 be e5 21 9b 3e 2b 37 04 bd c6 5f c9 be
       -0.29119942 0.30299297 -0.032279175 -0.39330882
000310 9b 9a 6a be 59 d1 8b be d9 f1 89 bd d1 85 7c be
       -0.2291054 -0.27308157 -0.06735582 -0.24660422
000320 d3 37 02 be dc 63 1b 3e c8 e7 a6 bc b0 d0 50 3d
       -0.12716608 0.15174812 -0.020374194 0.05098027
000330 a2 cc 7f 3d 7b ee cb 3e 12 cd c7 bd 9c c3 9a 3e
       0.062451012 0.39830384 -0.09755911 0.30227363
000340 64 8c a4 3e 83 3d 96 be 5a 31 33 be 52 0f c6 be
       0.3213836 -0.29343805 -0.17499295 -0.38683563
000350 5f 90 a9 3e 24 18 a2 be 33 5f 17 3e 38 29 78 be
       0.3311796 -0.31659043 0.1478241 -0.24234474
000360 f9 c6 03 bd 56 31 c9 be 5e 67 a2 3e 69 e4 3a bb
       -0.032172177 -0.39295453 0.31719488 -0.002851749
000370 5b ee 98 3e e3 4f a6 bd 8c 7a d9 3e ef 38 99 3e
       0.2986935 -0.08120706 0.42476308 0.2992625
000380 c9 6f 3f 3b 07 b6 bc 3e 66 d3 aa 3e 04 7a 51 3e
       0.0029210916 0.36857626 0.3336441 0.20456702
000390 1e 2e ba be 28 89 f1 be 79 1f c4 3d f8 0b 05 be
       -0.3636331 -0.47174954 0.095763154 -0.12992847
0003a0 09 0b 56 3e 26 05 0b 3e d4 c8 54 3e 30 c3 6b be
       0.20902647 0.13576183 0.20779735 -0.23023677
0003b0 39 cc 3d 3e 99 20 eb bd 22 a2 7e 3e 9c e2 4f be
       0.18534936 -0.11480827 0.24866536 -0.20301288
0003c0 10 51 7d be e5 fa b4 bd 10 df 93 3c 42 09 87 3d
       -0.24737954 -0.08836917 0.0180507 0.06593563
0003d0 50 a0 49 3e ce 62 8d 3e 53 3b 1e 3e d6 1d f0 3d
       0.1969006 0.27614444 0.15452318 0.11724441
0003e0 ae de 23 be fc 3f 98 be 08 d6 ab be 8d 3c 7d bd
       -0.16002914 -0.29736316 -0.3356173 -0.061825324
0003f0 06 ab 59 be 40 ad 87 be df cc 3c 3e 35 2f 01 be
       -0.21256647 -0.26499367 0.18437527 -0.12615664

l2.weight f4 [256, 256]
000000 7e 2b 2d 3d 86 f1 2b 3d 14 e9 1b 3d 36 d1 48 bd
       0.042277806 0.04197838 0.038064077 -0.049027644
000010 f0 c1 db bb 94 39 da 3c 7f 3c 22 3d 8e 4c 45 3d
       -0.0067064688 0.026638784 0.039608475 0.04816871
000020 cc ed 97 3c 43 6e c9 3c a5 a6 8a bc 88 2f 09 3c
       0.018546008 0.02458871 -0.016925165 0.008373149
000030 4c 5c 92 bc bb 11 83 bd 6c c6 1b bd 16 64 1a bc
       -0.017866276 -0.06399866 -0.038031027 -0.009423276
000040 79 35 01 3d b1 5a 32 bd e3 e1 c3 bb b1 b8 46 3d
       0.031545136 -0.04354352 -0.0059778555 0.04851598
000050 68 be 6d bd ce 34 27 bd fe 62 4c 3d 42 3b 24 3d
       -0.058042914 -0.040821843 0.049899094 0.040095575
000060 8d a1 1e 3c ee 8d 52 bc 97 8d 15 bd 9f a8 e9 3c
       0.009682071 -0.0128512215 -0.036511984 0.028522788
000070 58 12 8a bc 4f 34 0e bd d0 0c 2c 3c a8 d8 ac bc
       -0.01685445 -0.034717854 0.010501102 -0.021099404
000080 c0 43 c4 3c 90 23 98 bc a4 c4 4b 3d c3 67 7f bd
       0.023958087 -0.018571645 0.049748078 -0.062354814
000090 54 f7 11 3d e9 e0 09 bc 7b ce 80 bd 36 7b 3f bd
       0.03563626 -0.008415439 -0.06289383 -0.046748362
0000a0 e3 7e 34 bd 27 1f 38 bd bc 90 82 3c d2 86 53 3d
       -0.04406632 -0.044951584 0.015938155 0.051642247
0000b0 67 07 52 bd 83 d0 64 3d 83 6d 34 3d c2 cb 34 bd
       -0.05127659 0.055862915 0.04404975 -0.04413963
0000c0 ba 08 06 bd fe 34 2a 3d 0e 66 3c 3d d9 06 60 bd
       -0.032723166 0.041554444 0.045995764 -0.05469403
0000d0 0c 4a c0 bc 8a e5 4c bd 5c 62 69 3d 69 f7 fa bc
       -0.023472808 -0.050023593 0.05697857 -0.030635552
0000e0 98 bb a1 bc 90 a0 18 bc d4 79 6f bd bc 9a 69 bd
       -0.019742772 -0.009315625 -0.058465794 -0.05703233
0000f0 00 91 18 ba 24 c4 08 3d 64 25 e0 bc 44 ee 85 bc
       -0.00058199465 0.03339018 -0.02736158 -0.016348965
000100 80 7b 1d 3c a7 4b 19 3d 94 0e 91 3c d4 81 2d 3c
       0.009611964 0.037425663 0.017707147 0.0105900355
000110 e3 69 34 bd cf 0d 07 3d 21 ac 7c bd 51 38 98 bc
       -0.044046294 0.032972153 -0.061687592 -0.018581541
000120 64 26 f1 bc c0 70 cd 3a 18 96 11 3c 90 c6 af bc
       -0.029437251 0.0015673861 0.008885883 -0.021456987
000130 77 98 51 3b c4 35 3c bd a8 ac c6 bc c6 97 05 3d
       0.0031981745 -0.045949712 -0.02425225 0.032615446
000140 51 96 e2 bc 70 9e 1f bc 82 26 bf 3a d5 01 03 bd
       -0.027659567 -0.009742364 0.001458362 -0.03198417
000150 6d 8d 0c bd 7a 9b 6a ba fd c3 9d bc d8 09 a1 3c
       -0.03431456 -0.00089495594 -0.019258494 0.019658014
000160 b0 49 64 3d 64 7f 53 bd 08 ee 75 bd 1a d6 5c bd
       0.055734336 -0.05163516 -0.060041457 -0.05391512
000170 a0 80 16 bb 34 f5 b9 bc 6d ad 3f bd 7f 7e e0 bc
       -0.002296485 -0.02269993 -0.04679625 -0.027404068
000180 95 de a3 3a dc ff 33 bd ea d9 2f bd 40 41 02 3c
       0.0012502248 -0.04394518 -0.04293243 0.007950127
000190 fe af 67 bd 20 e2 11 bd be 5c 69 3d 47 9f 72 3d
       -0.056564324 -0.03561604 0.05697321 0.05923393
0001a0 90 59 c8 bc 22 ff 15 bd d0 c1 3a bd 52 ea 72 3d
       -0.02445677 -0.036620267 -0.04559499 0.059305497
0001b0 d8 d4 3b 3d 3a 5b 4a bd 80 9c 61 3d 9a 70 fe 3c
       0.04585728 -0.049403407 0.05508089 0.031059552
0001c0 f2 0a 0e bd f3 51 60 3d 6f e4 59 3b 85 62 21 bd
       -0.034678407 0.054765653 0.003324773 -0.039400596
0001d0 b1 eb 59 3d 18 0f e1 bc 51 08 03 3d 3c 77 7e bd
       0.05320329 -0.027473018 0.031990353 -0.06212543
0001e0 94 71 fc 3c 74 44 7c bd 08 1e 8d 3c 60 d1 ec 3b
       0.030815877 -0.06158872 0.017226234 0.007227108
0001f0 00 fa 1d 3b a0 bc 36 bd d9 89 aa bc 10 18 dd bc
       0.002410531 -0.04461348 -0.020817684 -0.026989013
000200 19 5e f9 bc a0 82 7f bc da 22 77 bd b3 d8 70 3c
       -0.030440377 -0.015595108 -0.06033597 0.014700103
000210 66 b9 19 bd d6 b4 68 3d f8 e0 5b bc 65 91 65 bd
       -0.037530325 0.056813084 -0.013420336 -0.056046862
000220 59 bd 8d 3b c0 08 1f bc e0 e9 73 3d 31 ec 2c bd
       0.0043255505 -0.009706676 0.059549212 -0.042217437
000230 40 8c 5f bc fc 00 f0 3c 6b ed 9c bc 01 c0 0c 3d
       -0.013644278 0.029297344 -0.019156178 0.034362797
000240 02 6a 41 bd d8 65 73 3d 98 14 cd bc 47 eb 6e 3c
       -0.047220238 0.059423298 -0.025034234 0.014582462
000250 48 00 4c bc b0 95 8c 3b 78 48 56 3c 20 ce 53 3d
       -0.012451239 0.004290305 0.013078801 0.051710248
000260 10 44 4f 3d c2 8c 12 3d a4 f4 7b bd 38 8b 25 bd
       0.05060202 0.03577877 -0.061512604 -0.040415972
000270 fb 37 12 3c 60 b3 b9 bb 94 5d fc 3c 42 16 26 bd
       0.00892448 -0.005667135 0.03080634 -0.04054857
000280 95 0d de bb 33 e9 4f bd 8f 3b 0d 3d 8a 70 5c 3d
       -0.0067765214 -0.050759505 0.034480628 0.053818263
000290 bd 0f 24 bd 70 c1 4e bd d0 de eb 3b a4 f0 56 3d
       -0.04005407 -0.050477445 0.007198192 0.052475587
0002a0 f8 c9 0d bc 12 ca 60 bc 6b 2f 31 bd c0 2a 04 3d
       -0.00865411 -0.013720052 -0.043258112 0.032267332
0002b0 68 c4 62 3d 60 07 b6 3b f4 80 87 3c 00 88 7e 3a
       0.05536309 0.0055550784 0.016540982 0.00097095966
0002c0 0b 09 50 3d 98 76 5e 3c 7d e4 c9 bb a8 9b 7d 3d
       0.050789874 0.01357808 -0.006161271 0.061916023
0002d0 d1 5b 56 3d 5e e9 79 3d 66 8e 98 3c 48 6c 3f bd
       0.052333657 0.061013572 0.018622588 -0.046734124
0002e0 b7 3a f3 3c 6c d9 ce 3c 00 1f c7 ba 96 ee 51 bd
       0.029691083 0.02525016 -0.0015191734 -0.051252924
0002f0 fb 66 03 3d 94 1f 15 bd 8c 8a 54 bd 6e 70 71 3d
       0.03208063 -0.03640707 -0.05188994 0.058945112
000300 54 04 2a bd c1 f8 0e bd 18 23 58 3d 10 5b 96 bc
       -0.041508034 -0.0349052 0.052767843 -0.018353969
000310 78 6b 59 3c 50 15 44 3c 0c 4f c2 bc 66 25 5c bd
       0.013270251 0.011967972 -0.023719333 -0.053746603
000320 d0 75 38 bd 60 85 5d bc b9 8f 0c 3d a0 76 44 bc
       -0.04503423 -0.013520569 0.034316752 -0.011991173
000330 a5 f5 49 3d 49 81 7e bd 69 b6 ef bc 9a f6 bd 3c
       0.04930653 -0.062135015 -0.029261785 0.023188878
000340 dc b0 39 bd 44 d0 e6 bc be b4 5c 3d 4c e2 36 bd
       -0.045334682 -0.02817548 0.053883307 -0.044649407
000350 0b 34 69 bc 8c af 99 bc f8 bf 1c 3c 28 06 89 3c
       -0.014233599 -0.018760465 0.009567253 0.016726568
000360 90 35 4a bd 20 d6 34 3d 2a f7 e1 3c fc 3b 49 bc
       -0.049367487 0.044149518 0.027583677 -0.012282368
000370 17 d1 c4 bc 60 f4 39 3b 3e 1b c8 3b 4f 0c fd bc
       -0.024025483 0.0028374419 0.006106763 -0.030889658
000380 f0 65 68 3c 94 4c 72 3d c5 cd d5 3c d8 05 e7 3c
       0.01418446 0.05915506 0.026099095 0.028201029
000390 9a d5 5b bd 7d 70 ed 3c bf 27 18 3d b0 c8 e5 bc
       -0.053670503 0.028984303 0.03714728 -0.028049797
0003a0 23 7d 0c bd 6b d2 81 bd 0f 89 23 bd 00 9f 45 ba
       -0.034299027 -0.06338962 -0.03992563 -0.00075386465
0003b0 7c 3d 0c 3d cf bd 8c bc 03 35 ab 3b 28 60 55 3d
       0.034238324 -0.017180352 0.0052248253 0.052093655
0003c0 3a ad 24 3d 20 b2 c4 3c d8 ca 06 3c ac 43 34 bc
       0.040204264 0.024010718 0.008227073 -0.011002462
0003d0 4f 01 0b 3d 74 54 b3 bc 99 51 a2 3c 2b 61 f7 b9
       0.033936795 -0.021890856 0.0198143 -0.00047183907
0003e0 4b 2f 61 3d 0d 15 72 3d ac 56 aa bc 28 ff e1 bc
       0.054976743 0.059102107 -0.020793281 -0.027587488
0003f0 10 80 7d 3d 5c d3 5b bd ae 0d 18 bc f0 f4 20 bc
       0.061889708 -0.053668365 -0.009280605 -0.009824023

l2.bias f4 [256]
000000 2c fd e5 bc b5 de e1 3c 7a 6c 41 3c cc 87 55 3d
       -0.028074823 0.027572015 0.011805648 0.05213146
000010 bf 19 0b bd bc 8c 18 3d 16 1d 4c 3d 64 6d d5 3d
       -0.0339601 0.03724359 0.049832426 0.10421255
000020 34 7b f1 3d 01 e4 b8 3c 04 d0 e1 3d 5c 8b 40 be
       0.11791077 0.022569658 0.11026004 -0.18803161
000030 d2 79 7a bd 44 7d 39 bd c7 df bf 3c 8d a4 ed 3c
       -0.061151333 -0.04528548 0.023422135 0.029009128
000040 2e b2 cd 3d c9 30 9c 3d 23 41 f8 3d 40 60 73 bd
       0.10043751 0.076264925 0.12121799 -0.059417963
000050 9e 77 27 bc b9 71 9a 3d 3b a3 30 3d 7a 5d cd 3c
       -0.01022139 0.07541222 0.04312442 0.025068987
000060 14 f3 b7 3c 68 a1 c8 3d a9 08 6a bd c5 7b a3 3d
       0.022454776 0.09796411 -0.057137165 0.079825915
000070 0e 7d e7 3d fb 3b 8f bc 36 38 fe 3d 12 37 b2 bc
       0.11303149 -0.017484656 0.12413065 -0.021754775
000080 c4 35 07 3e df 8c f0 3d 67 4f 2d 3c 25 72 80 3d
       0.13204104 0.11745619 0.010578013 0.06271771
000090 8a 88 d6 3d a1 18 bd 3d fc 41 65 bc cc 70 e3 3d
       0.104752615 0.09233213 -0.013992783 0.11105499
0000a0 68 34 92 3d 54 3f b4 3c 56 ec ba 3c d8 0f 8b 3d
       0.07138902 0.022002853 0.022817772 0.06790131
0000b0 3d ee 25 3d 98 82 76 bd 13 93 93 3d 70 6d 06 3d
       0.040510405 -0.060183138 0.072057866 0.03281921
0000c0 fc d5 d3 3d 4b e1 fd 3d b1 0c 82 3d e1 e9 1b bd
       0.10343549 0.12396487 0.06350077 -0.03806484
0000d0 b6 8b d9 3c 61 06 c3 3d 48 48 95 bb 4a 0d 4b 3d
       0.026555877 0.09522701 -0.0045557357 0.04957322
0000e0 55 03 5a 3d 4f e4 82 3d e3 5a 8f bd 55 ee a7 3c
       0.053225834 0.06391203 -0.06999757 0.020499388
0000f0 e4 31 6b bc b2 ec 8d bc 28 8d d2 3b 32 68 c0 3c
       -0.014355157 -0.01732478 0.0064255185 0.023487184
000100 b2 2f 34 3d ac f6 dc 3d b2 8a 2e bd d7 29 05 3e
       0.0439908 0.107892364 -0.04261274 0.13004242
000110 bc e4 84 bd d6 3f 92 3d bf 11 6e 3d 5c f3 4e bd
       -0.0648894 0.07141082 0.058122393 -0.050525054
000120 30 b0 85 3d 72 86 52 3b ce 4c bf bd 00 87 1b bc
       0.06527746 0.0032123593 -0.09340821 -0.009492636
000130 1a 96 fd 3d 26 c6 66 bc 50 13 30 3c 49 13 fc bc
       0.12382145 -0.014085328 0.010746792 -0.030770915
000140 08 3f 17 3d 44 76 07 3d ca 55 62 3c ab ea 4c 3d
       0.036925346 0.03307177 0.013814399 0.050028484
000150 cd a7 d4 3c e6 dc 81 bc dc a7 78 bb 08 2b ab 3d
       0.02595892 -0.015852403 -0.003794185 0.08357817
000160 9a 32 5e bd fb cf 1c bc 13 6c 90 3d 63 53 1e bd
       -0.054247476 -0.009571071 0.070518635 -0.038653743
000170 94 39 4b bd c1 fa f4 bc 4e a2 6f 3c 6c 61 1c 3d
       -0.049615458 -0.029904725 0.014626099 0.038178846
000180 7d 63 84 bd 3c c4 34 3d e9 da 58 3c c3 b3 77 3c
       -0.064642884 0.044132456 0.013235786 0.015118542
000190 93 af a3 3d c7 a7 a7 bd 21 a1 57 3c a1 c8 69 bd
       0.079924725 -0.08186298 0.013160975 -0.0570761
0001a0 81 06 0d 3e 6a a1 42 3d bd 83 36 3d d4 2f 5d 3d
       0.13772012 0.047517218 0.04455923 0.05400069
0001b0 38 dc 9c 3d 0e 91 c4 3d 61 c0 23 3d ec 4d a6 3c
       0.07659191 0.095979795 0.03997839 0.020300828
0001c0 81 1b 57 bd 6d 9c 89 3d 52 e9 41 bd 3b a5 08 3e
       -0.052516464 0.06719289 -0.047341652 0.1334428
0001d0 0d 3d 53 bd e6 be de 3d 16 58 10 3d 02 30 77 bd
       -0.051571894 0.10876255 0.035240255 -0.06034852
0001e0 88 e1 c9 bc ce fd c9 3d 50 88 e9 3d 97 23 d9 bb
       -0.024643674 0.098628625 0.11402953 -0.006626557
0001f0 ef 73 fc 3c d8 52 bb 3c e5 ed 8a ba ab 0e da 3c
       0.030817 0.022866651 -0.0010599463 0.026618322
000200 d5 d5 d1 bc 1e b9 9e bc b9 e1 7a bd 35 ce ed 3d
       -0.025614658 -0.01937538 -0.061250422 0.116115965
000210 43 df 27 bc 2c f9 8b 3d ec c2 25 3c 58 9b 67 bc
       -0.010246101 0.06834635 0.010117274 -0.014136158
000220 8a 10 2c bc c1 85 8a 3c 9a b6 29 bd 46 58 68 3d
       -0.01050199 0.016909482 -0.041433908 0.05672481
000230 c5 97 96 3d 81 c8 a1 3d 94 7d 50 3d 43 5f c2 3d
       0.073531665 0.07899571 0.05090101 0.09490826
000240 ae 43 ad bc f4 41 7f 3d 1c 3c 38 bd 34 63 2a 3c
       -0.021150436 0.062318757 -0.0449792 0.010399628
000250 db 63 03 bc 25 4f c0 3d 09 bf 51 3c 5a cf 13 bd
       -0.008019413 0.093900956 0.012801894 -0.036086418
000260 a7 41 4b 3d 8e 15 e2 3b 15 94 65 3c 3d c8 3e 3d
       0.049623158 0.006899542 0.014012356 0.04657768
000270 04 4a a7 bc 7b c7 99 3d 99 99 e4 3d 8c cf 19 bd
       -0.020421036 0.07508751 0.11162109 -0.037551448
000280 97 33 52 bd 01 ff 2c 3d a3 8c 59 3c 46 2d 7b bc
       -0.05131873 0.04223538 0.013278159 -0.015330618
000290 f8 fd 26 3d a5 06 08 3e cc f6 88 bb 9d 47 e4 3d
       0.040769547 0.13283785 -0.004179811 0.11146472
0002a0 12 8e b9 bd 87 3b 3b bc f1 8e c4 3d 66 7c a4 3d
       -0.09060301 -0.011427767 0.095975764 0.080315396
0002b0 79 53 0f 3d ea a0 90 bd 98 76 44 3d 5c 6e 56 bd
       0.034991715 -0.07061942 0.047964662 -0.05235134
0002c0 fd 58 fb 3c e2 da e7 3d 6f 01 f5 3d 21 fc b7 bc
       0.030682081 0.113210455 0.11963164 -0.022459092
0002d0 c9 8c 93 3c 5f ab 02 3d 23 a0 20 3d 25 ca 26 3d
       0.018011468 0.031901713 0.03921522 0.040720124
0002e0 78 3d 44 bd 17 ff ae 3c 6d 3c 23 3b cc c3 18 3e
       -0.047910184 0.02136187 0.0024907843 0.1491844
0002f0 8a a2 0d 3e e2 bc 48 3d b6 25 c0 3d 42 e2 29 bd
       0.13831535 0.049008258 0.09382193 -0.041475542
000300 fa 8d 93 bd 81 cc 1e 3d d9 03 ac 3d a1 55 03 bd
       -0.07204814 0.03876925 0.083991714 -0.032064084
000310 55 39 c5 bc 74 9e 5c 3c 52 13 81 3d 01 6a 86 bd
       -0.02407519 0.013465513 0.06302513 -0.065631874
000320 55 cc f5 3c 45 00 fa 3d 03 4e ab bc 9c f1 19 bd
       0.03000466 0.12207083 -0.020911222 -0.037583932
000330 cd 0c 1f bd 8c 16 a2 3c 88 4a 69 bd 48 ec 0b 3d
       -0.038830567 0.019786142 -0.056955844 0.034160882
000340 73 c1 95 3d 48 f6 94 3d 8e d2 57 3d 99 17 a1 3d
       0.07312288 0.07273537 0.052691035 0.07865829
000350 b7 82 0d bd cb 04 f1 3c a0 4b 89 bd 50 f6 d8 bc
       -0.034548488 0.02942123 -0.067038774 -0.026484638
000360 ca 1a 02 3d c8 d5 a3 3c 2c 5c 8c bc 3c 2a e5 3d
       0.03176383 0.0199994 -0.017133795 0.11189696
000370 de b4 8f bc bf e7 08 3d 0f 44 65 3c 05 77 ee 3c
       -0.017542299 0.033424135 0.013993277 0.029109487
000380 00 26 50 39 e3 4c 79 3d d3 81 55 bd be fa 81 3d
       0.00019850582 0.06086434 -0.052125763 0.063466534
000390 d2 e0 7a bc 08 51 28 be 78 78 e1 3d 9c 32 de bc
       -0.01531239 -0.16437161 0.11009306 -0.027123742
0003a0 7c 56 10 3c 2e 02 f8 3d b4 b5 03 3e 00 c8 94 3b
       0.008809682 0.12109791 0.12862283 0.0045404434
0003b0 7b d8 b4 bc ac 8a e0 bc 52 a6 c2 3b 13 65 5a 3d
       -0.022075882 -0.027409874 0.005940237 0.053319048
0003c0 cd 36 05 3d f6 29 67 3d fe 34 58 bd 64 bf ba bc
       0.032522965 0.0564365 -0.052784912 -0.02279634
0003d0 ee 4e 22 bd 62 b7 e1 3c 22 44 40 be 5b a8 d5 3c
       -0.039626054 0.027553264 -0.1877599 0.026081255
0003e0 ab 53 68 be 93 f2 25 be 03 72 bc 3c d6 c7 aa 3d
       -0.22688167 -0.16205816 0.023003584 0.08338897
0003f0 97 ac 39 bc 91 22 01 3d 4f 51 24 3d 32 56 88 3d
       -0.0113326525 0.031527106 0.040116604 0.066570655

l3.weight f4 [1, 256]
000000 9c ec 4a bd b6 03 c3 3e 2c 33 b2 bc f3 cf a8 bc
       -0.049542055 0.3808877 -0.021752916 -0.02060697
000010 f7 45 36 bd 69 60 74 3f f7 82 db 3e fc 30 64 3f
       -0.044500317 0.9545961 0.42873356 0.89137244
000020 cc ab e9 3e da 17 28 bf 9d ce a6 3e b3 bf bc bf
       0.45638883 -0.65661395 0.32579508 -1.4746002
000030 ed e1 2c bc 9c 2b 36 bc 89 fe cc 3e 8c f2 ce bc
       -0.010551912 -0.011118796 0.40037945 -0.02526214
000040 39 f2 3d 3d b8 62 ed 3c d9 b5 65 3f 74 c8 0a bc
       0.04637358 0.028977737 0.897306 -0.008470643
000050 f5 fd fc 3c 08 d0 c7 3e 00 cc c6 3e 25 49 3d bd
       0.030882815 0.39025903 0.38827515 -0.046212334
000060 ed 43 06 3f cb 53 cc 3e 23 e6 b4 bc 47 09 10 3f
       0.52447397 0.3990768 -0.022082394 0.56264156
000070 72 a7 51 3f a6 f1 41 bf 3b 3e 6c 3f 7d 1c 43 3d
       0.81896126 -0.7575935 0.92282456 0.04763459
000080 8d ce f1 3e 28 43 d7 3e 8e 0e e8 bc dd 38 d0 3e
       0.47227898 0.42043424 -0.028327253 0.40668383
000090 84 c3 64 3f 99 de 1f 3e 65 01 e3 bc 60 d6 b3 3e
       0.89360833 0.15612258 -0.027710626 0.35124493
0000a0 74 2c e2 3e 7f 95 65 3f 3c f7 11 3f 62 ae 68 3f
       0.4417454 0.8968124 0.57017875 0.9089109
0000b0 e1 30 f2 3e be c9 18 bd 34 cf a6 3d 72 2f 29 c0
       0.47302917 -0.03730177 0.081449896 -2.6435208
0000c0 f9 84 74 3f 2c 42 5d 3f fa bb d3 3e 0f 4c 4d bc
       0.955154 0.86429095 0.41354352 -0.012530341
0000d0 6e 01 e3 3e d8 2c 67 3f 34 d1 67 bd 3a 80 c2 3e
       0.44337028 0.903028 -0.056595996 0.37988454
0000e0 2a 56 70 3f 92 c6 d2 3e 9d b7 01 bf 9c 3e 2b bd
       0.93881476 0.41167122 -0.50670797 -0.041807756
0000f0 5f cd 44 bf 61 a3 a9 bb 5a 1e 5c bd 92 34 ce 3e
       -0.7687587 -0.005176947 -0.053739883 0.40274483
000100 96 71 51 3e d0 a9 e9 3e 8c 5f 56 bd 3d 6c 6a 3f
       0.20453486 0.4563737 -0.052337214 0.9157141
000110 cd f9 1e 3b 88 56 9b 3d 0e be 64 3f ae c5 3b bc
       0.002425778 0.07584864 0.893525 -0.011460705
000120 b8 86 e3 3e f4 65 d3 bc d7 3b 61 bf 35 35 28 c0
       0.4443872 -0.025805451 -0.87981933 -2.6282475
000130 8b 29 bd 3e 98 24 03 bd 8d 1d 19 bf 52 5b 9e bf
       0.36945757 -0.03201732 -0.59810716 -1.2371619
000140 d2 dd 62 bd 6c 20 50 bd 50 20 65 bf 1d 49 c7 3e
       -0.055387326 -0.05081217 -0.8950243 0.38922969
000150 54 76 65 3d ae ed 7d bf 89 9a 80 bc db ba bc 3e
       0.05602105 -0.99190795 -0.015698688 0.3686131
000160 8c f3 f4 bc 71 cb 48 3a 3e 9f 59 3f da 3e c4 bf
       -0.029901288 0.00076597097 0.8500861 -1.5331681
000170 85 4b d0 bc 01 13 39 bd 93 f7 77 bf 3a d0 d0 3e
       -0.025426636 -0.04518414 -0.96862143 0.40783864
000180 b2 d4 77 bf ff 16 6f 3b 63 f2 df 3e 01 4f 47 3f
       -0.9680892 0.0036482213 0.43739614 0.77854925
000190 44 81 b4 3e 76 0f 34 bb 48 53 a0 3e 78 d3 9a bc
       0.35254872 -0.0027475036 0.3131354 -0.018899664
0001a0 46 d9 93 3f 3e 75 f8 bb b1 15 59 3d 3c 6d 49 3f
       1.1550682 -0.0075823357 0.052999202 0.78682303
0001b0 3d c4 47 3f de 7c db 3e e9 59 4d 3d e5 bb f7 bf
       0.7803381 0.42868704 0.050134573 -1.9354216
0001c0 be c4 f8 bf 1e 42 3e 3f be 74 53 bf 81 d6 54 3f
       -1.9435041 0.74319637 -0.8260001 0.83139807
0001d0 db eb 3b bf d4 c5 cd 3e 0a be b6 3e 7d 6a 2e bf
       -0.7340676 0.40189993 0.35691863 -0.6813124
0001e0 b3 b5 c1 bf c3 0e 2b 3d 8d aa 35 3f 3d 1b e7 3c
       -1.5133575 0.041762125 0.70963365 0.02821123
0001f0 9f a7 dc 3e a6 c9 06 bf a8 04 df 3c 12 b0 05 bd
       0.43096635 -0.5265144 0.0272239 -0.032638617
000200 f9 07 ea bc af b9 03 bd e3 77 ce bc f6 a9 6d 3f
       -0.028568255 -0.032159504 -0.02520365 0.92837465
000210 d9 5c 72 bd e6 1e 60 3f 22 65 f4 3e 34 2e 1f bc
       -0.059170578 0.8754715 0.47733408 -0.0097156055
000220 fc fd ca bc f8 b0 98 bc b0 00 4a 3c 96 67 e0 3e
       -0.024779312 -0.018639073 0.0123292655 0.4382903
000230 ce 29 25 bc 33 d6 d3 3c 15 7f 1f c0 64 71 81 3d
       -0.010080768 0.025858974 -2.4921315 0.06320456
000240 c2 9a c9 bf 54 d0 89 3d ed f8 e5 be 34 f5 11 c0
       -1.5750353 0.067291886 -0.44916478 -2.280591
000250 fe fc 94 3e 30 bb 70 3f fc cc a5 3f 83 7d e6 bc
       0.29099268 0.94035625 1.2953181 -0.02813602
000260 68 69 db 3e 78 b4 a4 3c 69 aa d9 bc 35 96 44 3d
       0.42853856 0.020105585 -0.026570516 0.04799481
000270 df 76 b1 bc c9 cb 6e 3f fd af d8 3e c6 5e 82 bf
       -0.021663127 0.932797 0.42321768 -1.0185173
000280 d7 52 11 39 04 4d ce 3e c4 42 ba 3e 79 5c 12 bf
       0.00013859138 0.40293133 0.36379063 -0.5717235
000290 6a 25 d7 3e 9c 3f c4 3e 3b e4 52 bc f1 88 c6 3e
       0.42020732 0.3832978 -0.012871797 0.38776353
0002a0 22 0b 84 bf db d0 25 bf 3c 7b 45 3f 0c 38 bb 3e
       -1.0315897 -0.64771813 0.77141166 0.36566198
0002b0 a2 25 36 bd c3 52 23 bd bd d5 d0 3e ab 9d e6 be
       -0.044469483 -0.03987385 0.4078807 -0.45042166
0002c0 87 c2 d1 3e 03 b0 60 3f c2 fd ac 3e aa ee 46 bd
       0.40968725 0.8776857 0.33787352 -0.04856745
0002d0 c8 0b ff bf ec b0 72 3f 83 c5 be 3e 47 69 84 bb
       -1.992547 0.9480121 0.37260064 -0.0040408703
0002e0 f1 d2 ec bf 55 22 a0 3e f7 b0 79 bf d5 e7 e6 3e
       -1.8501874 0.31276193 -0.9753565 0.4509875
0002f0 ae 94 dc 3e ca 63 9c 3c fd b1 44 3f c4 10 fa bc
       0.43082184 0.019090552 0.7683409 -0.030525573
000300 2c 9c d3 bb e6 c8 7c bc 10 d6 de 3e fc 1d a3 be
       -0.006457826 -0.015428757 0.43522692 -0.31858814
000310 27 ea b3 bc 13 2b 5c 3f a0 49 b4 3d a2 bc e3 bc
       -0.021962238 0.86003226 0.08803105 -0.027799908
000320 20 0a 6c 3f 0a fe 52 3f 23 a5 ae bf 57 a7 a4 bf
       0.9220295 0.8241888 -1.3644146 -1.2863568
000330 ef c9 f6 3c 0c 2b 34 bd 30 fa cd bc 15 79 5a 3f
       0.030125586 -0.043986365 -0.025143713 0.85341007
000340 35 8f 9b bf 43 c5 f4 3e 4e 34 71 3f a9 23 38 c0
       -1.2153078 0.4780675 0.94220436 -2.8771765
000350 65 20 d2 bc 20 a2 a6 bc 60 9f 7c bb 9a f8 36 bd
       -0.025650213 -0.02034098 -0.0038547143 -0.04467068
000360 41 66 c5 3e fa 51 0a 3d 78 e9 fb be fb ce 53 3f
       0.38554576 0.033769585 -0.4920156 0.827377
000370 51 9a 70 bf 64 6f 02 bc a4 5a 53 bc b4 36 b8 3e
       -0.9398547 -0.007961128 -0.012900028 0.35979235
000380 32 bb 28 bd 24 d8 d4 3e 46 9f 19 3b 4f f4 ba 3c
       -0.04119415 0.41571152 0.0023440882 0.022821574
000390 96 f1 37 bf 59 0f 8e bf 7e 9d 5d 3f a1 cc 12 bd
       -0.71853006 -1.1098434 0.8656844 -0.03583968
0003a0 e2 f4 bf be ab 26 62 3f 8e c4 65 3f 5f 56 20 bf
       -0.37491518 0.8834025 0.89753044 -0.6263179
0003b0 42 7c 06 c0 a0 5b 98 3b 22 22 1f 3d 51 fa 81 bf
       -2.101334 0.0046495944 0.03885091 -1.0154516
0003c0 53 a3 15 bf 42 2d eb 3e 2b f9 af 3c f4 96 b8 bf
       -0.5845234 0.45932966 0.021481117 -1.4421067
0003d0 62 bd 07 3d 8a 90 fa bf 22 b8 20 bf 58 67 85 bb
       0.033139594 -1.957536 -0.62780964 -0.0040711574
0003e0 73 b2 57 bf 1e a0 25 40 ca fa 32 3d 93 1d 54 3f
       -0.84256667 2.5878978 0.043696202 0.82857627
0003f0 5c ec 28 bf 0b 77 2d bd 1b 98 61 3f 20 e4 b4 3e
       -0.65985656 -0.042349856 0.8812272 0.35330296

l4.weight f4 [256, 6]
000000 96 14 9f 3e ce 79 1f b9 9c ec 85 3e 85 71 84 bc
       0.31070393 -0.00015208797 0.2615708 -0.016167412
000010 10 a7 b3 3e a5 6e 95 bd d3 fb 05 3f f8 1b 51 be
       0.35088396 -0.072964944 0.5233738 -0.20420825
000020 e6 4d fb be cb 66 bb 3f 47 f9 9e 3e 18 34 30 bd
       -0.4908287 1.4640745 0.3104956 -0.04301843
000030 64 cb 15 3e 60 e4 af 3d 02 0a cf 3e 26 5e d7 bd
       0.14628369 0.08588481 0.40437323 -0.10516004
000040 6f dd 52 3e eb 56 40 3e bd 50 53 3e c4 ed c8 bd
       0.20592283 0.18783157 0.20636268 -0.09810975
000050 8a 17 8a be df c3 b8 bf 5e f3 95 be d3 c9 8f 3d
       -0.26971084 -1.4434775 -0.29287237 0.07020917
000060 86 72 88 bd af 5b 63 be e5 de 6a be 0a 83 ac bf
       -0.066624686 -0.22202943 -0.2293659 -1.347749
000070 b0 18 a5 be e7 d8 0f 3d 79 b6 8c 3e 75 8f 8f 3e
       -0.32245398 0.035118964 0.27482966 0.28039137
000080 f2 99 75 3e 76 1a 97 bf 0e 36 44 be 86 67 69 3d
       0.23984507 -1.180495 -0.19161245 0.056983493
000090 9e ba 55 bf 34 96 05 bf 64 29 09 3e 17 ec 14 3f
       -0.8348788 -0.52182317 0.13394696 0.58172745
0000a0 df d9 99 be 6c 6d 44 3c 71 d5 22 bd 57 c3 cb be
       -0.30049035 0.011988979 -0.039754335 -0.3979747
0000b0 3f 1e 56 bd 18 36 27 3f d0 51 05 bf e2 54 e5 bd
       -0.05227494 0.65316916 -0.5207796 -0.11197831
0000c0 0f 36 49 3f fb b7 2f 3f 0f bb 4a 3e 59 8f 73 bf
       0.7859811 0.68640107 0.1979792 -0.95140606
0000d0 74 47 cc ba 39 bb 6c 3e 3b c4 10 bf 0c f9 34 bf
       -0.001558526 0.23118295 -0.56549424 -0.70692515
0000e0 bb 1c f4 bd bd 24 67 bf 97 e9 6a 3e 50 56 56 3e
       -0.119195424 -0.90290433 0.2294067 0.20931363
0000f0 ec 33 7c bd 45 71 41 be 10 9e a5 bd 64 b1 2b 3e
       -0.061572954 -0.18890865 -0.08086789 0.16766888
000100 2c 85 87 3d 18 52 da 3d 0d 71 b6 3d 64 7b 2c bd
       0.066171974 0.106601894 0.089082815 -0.042109862
000110 63 02 26 3d e4 3f 5c 3f 79 64 c2 3d d6 46 19 3e
       0.04052962 0.8603499 0.0949182 0.14968428
000120 7d bb 77 3e 2a fa 7f be 9d 94 23 be 38 12 85 3f
       0.24192615 -0.24997774 -0.1597466 1.0396185
000130 42 35 78 3e 78 25 75 be 22 93 81 3e 2f 7f e7 3e
       0.24239066 -0.23940074 0.25307566 0.4521422
000140 da 57 65 3e 44 8b 69 3f f1 b2 74 be 64 8b 02 3e
       0.22396794 0.9122813 -0.23896386 0.12748486
000150 7e 0c 00 3f 7d dc c2 bd 5f dd 35 be 67 43 85 bf
       0.5001906 -0.09514711 -0.17760228 -1.0411195
000160 a9 54 b1 be 57 ae 2e 3e 94 3a c5 3e 57 4b 50 3f
       -0.34634903 0.17058693 0.38521254 0.8136496
000170 d3 f9 ca 3d eb b0 02 bf 72 65 b6 3e 32 50 d7 bc
       0.099109314 -0.51051205 0.35624272 -0.026283357
000180 54 ec 73 bf 65 79 f3 be 20 f1 b6 3d f6 86 f5 be
       -0.95282483 -0.47553554 0.0893271 -0.4795453
000190 e1 a0 e7 3e f2 2a 2d be bb c3 9f bf b8 96 13 bc
       0.45239928 -0.16910914 -1.2481607 -0.009008102
0001a0 68 50 4e 3e b2 1f 98 3f f1 69 be 3d bd eb 07 bc
       0.2014786 1.1884673 0.092975505 -0.0082959505
0001b0 ca 30 43 3f b1 b8 44 bd 5f 9a d4 be 1b 28 99 bf
       0.7624632 -0.048027698 -0.41524026 -1.1965364
0001c0 7b 1d 2f be d8 03 07 3d b7 4d ab be 14 60 54 3e
       -0.1710109 0.03296265 -0.3345773 0.20739776
0001d0 b1 3f 9d 3e d0 32 d0 bc 7a 6b bd 3e 75 a4 4a bd
       0.30712655 -0.025414854 0.3699606 -0.049473245
0001e0 e3 78 89 be e3 c5 9e be 28 2b 96 3d 13 da c6 bd
       -0.26850042 -0.3101035 0.0733245 -0.09709563
0001f0 40 a1 09 be 25 4f 37 be 25 7a 26 3e 2b ec 46 3e
       -0.13440418 -0.17901285 0.16257532 0.19426028
000200 66 ea e6 bd c3 99 92 3f 9d a4 79 3e d4 74 e9 bc
       -0.11275177 1.1453174 0.24379201 -0.02849809
000210 c0 9f 76 bd 03 cc 8c be a4 c7 c8 3d fb 49 50 3f
       -0.060210943 -0.274994 0.098037034 0.81362885
000220 0e 3b 6b be d0 74 db bd b3 be fb be 09 56 54 3e
       -0.22971746 -0.107156396 -0.4916893 0.20735945
000230 e9 b5 c4 3c 1b b5 d1 3f 92 4f a7 3e 4d d2 4e bd
       0.024012523 1.6383394 0.32677895 -0.050493527
000240 86 bb fb be d0 44 fc be 81 b0 68 bd ab 2d 84 bf
       -0.49166507 -0.4927125 -0.056808952 -1.0326437
000250 9e 7a 89 be 17 09 a9 3e aa 5a 7c 3e 09 a6 4b be
       -0.26851362 0.33014748 0.2464396 -0.19887556
000260 27 17 9c 3e e2 43 97 bf 39 11 ab bd 8b 27 28 3e
       0.30486414 -1.1817591 -0.08352894 0.16421334
000270 a1 a5 e4 3c 39 ca d1 3e 9f f9 94 3e 99 96 37 3f
       0.02791101 0.40974596 0.29096696 0.7171417
000280 98 c6 8b 3d d2 9c 89 bd 8f 74 4a 3e df 2a 93 3c
       0.06824988 -0.06719364 0.19771026 0.017964778
000290 6a 0b 91 3e de 59 7f bf 53 21 e7 3d 33 d8 43 be
       0.2832902 -0.997465 0.11285653 -0.19125442
0002a0 d2 17 17 be 19 72 8e 3a f6 fd 89 be be f2 9e bf
       -0.1475518 0.0010867744 -0.2695157 -1.2417829
0002b0 87 5e 35 be 89 6f 28 3d 33 aa 9f 3f aa bf 39 3f
       -0.1771184 0.041121993 1.2473816 0.7255808
0002c0 1a a6 44 3c 01 23 a4 bf ed ac 5c 3e a7 d5 2f 3d
       0.012002492 -1.2823182 0.21550341 0.042928364
0002d0 21 50 bb 3e fd b3 4a 3e 54 1d cf 3e 3f 06 ad 3e
       0.3658457 0.19795223 0.40452063 0.33793828
0002e0 33 d8 c5 3e 7b d2 64 be 08 d3 44 3e 72 d8 0e bb
       0.3864151 -0.22345917 0.19221127 -0.0021796492
0002f0 43 d7 f1 bd bf 1b 5d 3f 92 66 f5 bd f9 1d 9d 3c
       -0.11808636 0.8637046 -0.11982454 0.019179331
000300 88 13 d5 3e a3 07 f8 3e d9 48 4c bd 81 95 16 3f
       0.41616464 0.48443326 -0.04987416 0.58821875
000310 1a 4d f7 3e 45 aa 57 bd 2d 8a c3 be 2e f0 54 3e
       0.4830101 -0.052652616 -0.38191357 0.20794746
000320 65 2e e8 3d bc ad 59 3f b8 e5 50 3e 5a 46 5b 3e
       0.11336974 0.8503072 0.20400131 0.21413556
000330 d5 dc 5a bf 03 01 00 3e ad 18 94 be 2c 08 b0 3f
       -0.8549321 0.12500386 -0.28925076 1.3752494
000340 5f 93 84 3e c5 e1 67 bd 1a be 1e 3f 1c a2 3d 3f
       0.25893685 -0.056611795 0.6200882 0.74075484
000350 4b 65 f1 3d c3 50 02 bf f9 da ad 3e dd bc 81 39
       0.11786898 -0.5090448 0.33956125 0.00024745511
000360 d2 05 54 3e 44 24 27 3e 8a d1 05 be 45 2c 5f bf
       0.20705345 0.16322428 -0.13068214 -0.87176925
000370 13 a4 32 be cf 50 8b be d0 4e a7 3e 79 df 0d bf
       -0.17445402 -0.2721009 0.32677317 -0.5541912
000380 15 b1 d9 bd 5d 2b 64 bf c9 d8 53 be fa 4e 5a be
       -0.10629479 -0.8912867 -0.20688166 -0.2131919
000390 5e b4 e7 3e 73 3d 14 3c 20 e8 ac 3e b0 d2 95 bf
       0.45254797 0.009047854 0.33770847 -1.1704922
0003a0 82 70 bf 3e 7c 10 40 bd 93 8a 37 bf 85 d2 02 bf
       0.37390524 -0.04689072 -0.7169582 -0.5110248
0003b0 11 b4 ba 3e f4 27 61 3f b8 e4 62 be aa 34 f6 3b
       0.36465505 0.8795159 -0.22157562 0.0075136023
0003c0 64 d2 1e 3f 39 6c 32 3f 09 64 09 3e 29 aa 0b 3f
       0.6203978 0.69696385 0.13417067 0.5455652
0003d0 49 ca d1 be d1 13 ac 3d 21 3b e5 3e f3 47 3a 3f
       -0.40974644 0.08402217 0.44771674 0.72766036
0003e0 a2 20 98 be f7 bd a4 be 64 18 64 3d 75 05 83 3e
       -0.29712397 -0.32176182 0.055687323 0.255901
0003f0 7f c4 68 bf b3 95 50 bf 49 25 9d be db d0 71 bd
       -0.9092483 -0.8147842 -0.3069251 -0.05903707

l4.bias f4 [256]
000000 da 05 73 3e 58 e3 d6 bd 7d 71 b8 3c f5 3e 2f be
       0.23732701 -0.10492581 0.022515053 -0.1711386
000010 42 c0 63 bc 24 f4 d6 be 0b 4c af bd 8b 84 44 be
       -0.013900818 -0.4198314 -0.08559426 -0.19191186
000020 d5 47 1f be 50 c1 99 bd 7b 5c e3 be eb cf cc 3d
       -0.15554745 -0.075075746 -0.44406494 0.10000595
000030 2f 7c 14 be 2a 8a 6c 3a 32 11 6f be df aa 1a be
       -0.14500497 0.00090232736 -0.23346403 -0.15104245
000040 12 bc 62 be 30 a4 ad 3d 1d d4 44 3e 7d c4 01 3e
       -0.22142056 0.08478582 0.1922154 0.1267261
000050 0e c9 2f 3e 00 4e dd bd f7 c7 7f 3e 58 b3 f9 be
       0.1716654 -0.10805893 0.24978624 -0.4876964
000060 9c b9 07 be 73 b6 2e ba 63 67 d7 3d 59 8f 4a 3d
       -0.13254398 -0.00066647603 0.10517766 0.049453113
000070 44 13 cd ba e0 d4 3d 3e ce 52 61 3e 73 10 ad 3e
       -0.0015646 0.18538237 0.22004244 0.33801612
000080 5b 7c f6 be 9f 9b bb 3e 0e fa ae bd da 01 05 be
       -0.4814175 0.36642167 -0.08543788 -0.12988988
000090 de bb 3a be 68 72 82 3e 71 e2 47 be 30 7a 89 be
       -0.18235728 0.2547791 -0.19519974 -0.26851034
0000a0 6c 86 57 be 29 d7 3a 3e a4 ea cf 3e 15 97 5d 3e
       -0.21047372 0.1824614 0.40608704 0.21639664
0000b0 fb 34 d0 3e a6 81 c3 3e fe c9 4e 3d 42 56 bb be
       0.4066542 0.3818485 0.050485604 -0.36589247
0000c0 b7 ad c5 be e1 e9 59 3e 95 a4 92 be 75 9b 06 be
       -0.38609096 0.21280624 -0.2864119 -0.1314524
0000d0 a0 9d 99 3e e5 97 82 bd 3c c9 42 bc e0 f4 0f bf
       0.3000307 -0.06376628 -0.011888798 -0.56233025
0000e0 fd df 17 3e 31 ce 04 3d 0f ff 35 3e 39 e8 53 bd
       0.14831538 0.032423202 0.17773078 -0.051735137
0000f0 ba 71 2b be 74 fe a0 3e b7 ed e6 3d 9d b0 5a 3e
       -0.16742602 0.31444132 0.11275809 0.21356435
000100 2b ca 83 be c7 b1 4d 3e aa 6d 3a be fd 26 65 be
       -0.2574018 0.20087348 -0.18205896 -0.22378154
000110 aa 59 a2 be 2b 26 c3 3e 0e 0e 67 3e 76 34 14 be
       -0.31709033 0.38115057 0.22563955 -0.14473137
000120 c4 df e5 bd c0 d8 09 3e 89 05 80 3e 44 78 00 bf
       -0.112243205 0.1346159 0.25004223 -0.5018351
000130 39 0f 96 3e cc 45 47 3e f8 da d0 3e 8f 02 8e 3e
       0.2930849 0.19460219 0.4079206 0.27736327
000140 8e 71 b3 bd 3a 5d 16 bd 7d 44 4c 3e 10 ab ac be
       -0.08761893 -0.03671 0.19948001 -0.3372426
000150 56 27 5f be 29 d1 48 3e 45 01 88 3e 25 09 b3 3e
       -0.21792349 0.19611038 0.2656347 0.34967914
000160 32 30 08 3c 19 9c 96 3c a4 cb 79 bd 68 1a 73 be
       0.008312272 0.01838498 -0.060985222 -0.23740542
000170 1b 48 89 39 c1 60 ec 3c 32 97 14 be 72 e7 92 3e
       0.000261844 0.02885473 -0.14510801 0.28692204
000180 55 16 ba be b4 7d 7c 3d 8c a4 b2 3e fb 7f e2 be
       -0.36345163 0.061643317 0.34891164 -0.44238266
000190 f9 d0 ab 3d ba 03 01 be 67 eb b5 bc c1 c0 d0 3d
       0.08389468 -0.12599078 -0.022206975 0.10193015
0001a0 10 79 b9 be 89 62 c6 be 11 46 ed 3d e4 3e 2e be
       -0.36225176 -0.3874705 0.1158563 -0.17016178
0001b0 26 32 c2 bd ea cc 66 be 20 ed b0 be ee 02 1d be
       -0.09482221 -0.22539106 -0.34555912 -0.15333149
0001c0 5e bd c3 be a3 e8 bf bd 3a da 8e bc bc 9c f6 bd
       -0.38230413 -0.09370544 -0.017438043 -0.120416135
0001d0 fb f0 89 be 00 7c ab 3e 44 39 42 3e 56 e7 f8 3d
       -0.26941666 0.33493042 0.18967158 0.12153499
0001e0 8f 01 1a be 91 06 29 3e 22 1f 71 bd 73 6c dd bc
       -0.15039657 0.16506411 -0.05886758 -0.027029252
0001f0 99 d7 9f 3b 7d 10 00 be 11 60 09 bf 6a d4 ae bd
       0.004877996 -0.1250629 -0.5366221 -0.085366085
000200 3a d9 02 be 58 53 0a 3e e3 84 ab 3d 67 49 af be
       -0.12778178 0.13508356 0.083749555 -0.3423569
000210 9a f6 c3 3d 03 4a 31 be 58 92 0c 3e b3 5d 68 bd
       0.0956852 -0.1731339 0.137277 -0.056729984
000220 a7 11 db 3e df 1b c7 be 67 e3 13 3e 9d 1c 4a 3d
       0.42786905 -0.3888845 0.14442216 0.049343694
000230 cc 4c da be 5a cb 89 3d 8f 29 84 be de 5a c0 bd
       -0.42636716 0.06728239 -0.25812957 -0.093923315
000240 e0 4d d8 bc 61 42 0e be b6 0c 9b 3d 57 d5 b5 3e
       -0.026404321 -0.13892509 0.07570784 0.35514328
000250 55 84 cc 3e 15 55 cd be 61 88 34 be 66 82 31 bd
       0.3994471 -0.40103975 -0.1763015 -0.04333725
000260 75 ef 4a be e1 11 9c be fd 40 22 3e a3 a6 98 3e
       -0.19817908 -0.3048239 0.15845104 0.29814634
000270 cc fe 8b 3e ef 56 4f 3d cc 57 93 3e a4 2d 30 3e
       0.27342832 0.050620016 0.2877792 0.1720491
000280 e6 f8 40 3e 93 34 21 3e 1e eb 8a be 27 9d f8 3e
       0.18844947 0.15742712 -0.27132505 0.48557398
000290 11 b1 ea 3d 8a de b3 3e d5 1d ff 3d 54 76 cd be
       0.11459554 0.3513072 0.12456862 -0.4012934
0002a0 d6 15 ab 3d d1 27 41 bd 46 9e bf 3c 37 28 7c 3e
       0.08353774 -0.047157113 0.0233909 0.24624716
0002b0 59 cd a2 3e 77 72 49 3e b2 81 8d be 6e 21 db 3d
       0.31797293 0.19672571 -0.27638012 0.106997356
0002c0 dc a9 7f be ed fe cb bd 02 4d 27 bc d7 46 dd bd
       -0.2496714 -0.099607326 -0.010211231 -0.10804527
0002d0 ed 32 16 3d 78 6f bf 3c 02 94 9b 3e 6a 25 c8 be
       0.03666966 0.023368582 0.30386358 -0.39091045
0002e0 4b d3 d2 be 26 9e bf be 31 0a 8b 3e b2 55 f3 3d
       -0.4117683 -0.37425345 0.27156213 0.118815795
0002f0 fa 8c a7 be c4 f3 09 be 4b 39 91 3d ba e6 6f be
       -0.32724744 -0.13471895 0.07091006 -0.23427859
000300 8b b5 21 be d3 24 7e be 89 80 c4 be 82 44 6f be
       -0.1579191 -0.24818735 -0.38379315 -0.23365977
000310 59 ae a7 bd 2c 90 8a be 08 0b a9 3e 27 59 01 bf
       -0.08187551 -0.2706312 0.3301623 -0.5052666
000320 13 2b 2f be 30 91 1e be f8 7f d0 3e d9 9e e9 bd
       -0.17106275 -0.15485072 0.40722632 -0.11407251
000330 7a f5 6b 3d 7a 79 80 3e 72 7a a5 be 46 9c 38 3e
       0.05760715 0.2509268 -0.3231998 0.18028364
000340 c3 bc cf 3c 8d 63 27 be c7 20 17 3d 2a 5c 9f be
       0.025358563 -0.1634657 0.036896493 -0.31125003
000350 50 10 8f 3e 24 72 38 be 9a 19 19 3e 13 44 8d 3e
       0.27942133 -0.18012291 0.14951172 0.27591
000360 97 67 9e be e9 75 61 3e d3 05 d6 be 17 6b 86 bc
       -0.30938408 0.22017635 -0.4180132 -0.016408486
000370 24 82 cb 3e c8 f7 11 be 86 31 9c bc 79 9d 92 be
       0.39747727 -0.14254677 -0.019066583 -0.28635767
000380 dc ef d9 bd 0f 27 30 3e db 91 73 3c 60 37 be be
       -0.10641453 0.172024 0.014866318 -0.37151623
000390 c6 0e b8 3d cb 30 8c bc f1 79 23 be fa d0 ca be
       0.08987193 -0.01711311 -0.15964486 -0.3961256
0003a0 a3 0d af 3d ad 1c a4 3e ce 4b 91 be e8 e3 52 3e
       0.08547523 0.32053128 -0.28378147 0.20594752
0003b0 2c 34 d5 be 4a e5 01 bf e5 fb 2f 3e 94 84 e9 3d
       -0.41641366 -0.5074049 0.17185934 0.114022404
0003c0 ea 58 a0 3e f3 77 88 3e 1b 6f 7e be f4 c5 9b be
       0.31317836 0.26654014 -0.24847071 -0.30424464
0003d0 31 56 af be 1c 0c 31 ba 5b 3b 6b 3e f7 91 e8 be
       -0.34245446 -0.00067538186 0.22971861 -0.45423862
0003e0 cd 52 11 be a0 4e 00 be 8e 2a 16 be 5e aa 23 be
       -0.14191742 -0.12529993 -0.14664671 -0.15982959
0003f0 0f c7 14 bd 64 e5 10 3e ef 1a 0b bf 27 33 ee bc
       -0.03632265 0.14150006 -0.5433797 -0.029077126
