Project/Ming_Jiang_1016239_Gengcong_Yan_1009903_Project/Part2/trained agents/td3_bc/HalfCheetahBulletEnv-v0_TD3_BC_1_1638386350_td3_bc.pth (torch, 898095 bytes, 16 tensors)

l1.weight f4 [256, 32]
00000000: 25e5 20bf 5fa8 503d 7a48 afbd c6a7 62be
00000010: f62d 1d3e ab8a 49bf 6b77 9bbc 0872 56bc
00000020: 57e9 963c 7630 6fbe bf4c 29be 8927 dfbe
00000030: 5255 c13e 709f 5fbe 4776 bebd d7cc 05bd
00000040: 7067 76bd d189 89be f87a 3abe a9ad edbc
00000050: 1a77 b5bd 9ad5 0cbd 6004 743e 0534 e23e
00000060: 4d59 28bd 7d18 203e f8db 6dbc e880 0cbf
00000070: 823a 003f b7af 95be 764b 90be 0d93 6d3e
00000080: 936e d53d 8d5c 853d b7fc a4bd 90a3 2c3e
00000090: 224d 93bd 8e77 4cbe d610 22be 2d22 bfbe
000000a0: efdd 0a3e 7cb4 ed3d 4bd0 013e aa2d a83c
000000b0: 10aa 133e 1101 113c e70f a6be c3c2 9abe
000000c0: d05f 3a3d 4334 6cbd 9088 2f3e 6cab 3bbe
000000d0: 1589 4bbd f977 983e 19e3 28bf 7067 3abe
000000e0: 2eec 66bd ba4d a2be 1f24 043e e6bd f43d
000000f0: 858d 3f3e 5329 c7bc 57cf 3e3e cd29 1a3d
00000100: c4e4 833e 2aca 20be 172c 5ebd 7687 68bf
00000110: 9ba6 acbd 8fa8 07b9 cddf 173d 18b3 ed3c
00000120: e857 4bbe 5a5a 603c 1de3 c2be adb2 803e
00000130: c8f2 733d 1c82 8d3d a7a8 eebd d12f 35be
00000140: d29c 7b3e 4466 ad3d dc1b bdbe a7aa 9cbc
00000150: 393d 693d 159f ec3d aeeb ebbe 7e1a 83be
00000160: 0811 a13d 8702 11be 72b2 94bd 3d3f 153f
00000170: 1117 0b3e 76b0 8d3e ac60 19be d04d f23d
00000180: 8185 01be d499 9abd 307e 58bd 0955 42bc
00000190: f5bd 32be 1677 d73d 240e 17be f5c9 59bf
000001a0: 3d28 313f a5f8 223e 167c 2a3f f100 bf3d
000001b0: 85e0 4d3f 17cb d33e 1115 593e 5995 3b3e
000001c0: 1ebb 2e3d 1619 59be 09bb 7f3e 2825 d4bd
000001d0: 0b3b abbe 3a86 12be ada2 493d af67 33be
000001e0: b846 c5be 81be 82bd 5535 f93d 24e1 c9bc
000001f0: 740b 473f 0ff7 6bbd 3c73 823e c406 2bbe
00000200: 95d2 59bd 20a7 20be abb9 1c3e a871 6abe
00000210: 810e a93d 36fc 803e c020 d83d 26ed 14bf
00000220: 0e1d db3e b111 fb3e 82e7 9e3d 3bdd 933e
00000230: ce00 473e ba2b 123e 512b edbe fbed 4d3e
00000240: 620c 37be 45be 59be 180a 143e 3e4e 733e
00000250: 5dde 43be ae90 71bc 8373 773c e202 043c
00000260: 4b8a e8bd a807 ca3d 4e92 bd3e 0f0d 943e
00000270: 7670 54be 3e7b c6bc 66e1 31bc 4474 a53e
00000280: 04ac f33d 32f3 163e 022b 8ebc 7621 1ebe
00000290: 05bb febc 0fa5 a03e 81ff 64bd 7c49 80bf
000002a0: 82c0 873d 2a7a 51be 02fc 653e 8a98 673e
000002b0: 8bca 813f ec98 013e 0b65 9b3e 5b3e 64bb
000002c0: 6b57 8ebd 6bde 4bbe 5b00 0fbf 35e0 1ebf
000002d0: c0c6 a53e 51c2 b83d 9a28 113e 168b 633e
000002e0: 6da5 803d b5c2 9bba 45a8 82be 8b3a da3e
000002f0: dc92 243f 2853 8d3e 42f6 abbe 3944 b93e
00000300: 8297 0b3f d42a a33d 7b5a 8cbd 86c0 80ba
00000310: b01d 893d fc54 43be 70fe b3bd 39ce b4bc
00000320: 9f06 48be 4580 0d3e 6ce2 e2be 318e 153d
00000330: 156e cd3e a95d aa3d c015 ec3e e6e1 99bd
00000340: f8b6 04bf de33 50bd 60bb 18bf 31da 1fbe
00000350: edc3 613e 40c6 e3bc beb6 72bc 718c b6bc
00000360: b5f8 a8bd 135d d43d 38ee 2abc e077 9e38
00000370: 5c6b e1bd 74e0 9cbd fe72 a23e a060 b6bd
00000380: 806d a2bd deef 67bd 3e98 b03d f22b b8bd
00000390: a697 2fbe 435e 3dbe 6d55 a03c c8a7 793f
000003a0: 7336 c6be c2c6 8c3d 55bf 043f aaaf 873d
000003b0: 85cd 303d b061 423d e6d1 083f a805 66be
000003c0: 2311 6d3e dc02 1dbd f5d2 933e b6e8 3c3e
000003d0: ef08 0dbe b81d fbbb e94c 093e 3d75 a6bd
000003e0: 1444 2c3e 75c9 21bd 0811 c2bd 809a abbd
000003f0: 3af6 6d3c 053a b6be 6d17 8f3e 8fd2 903d
-0.62849647 0.05094182 -0.08558746 -0.22134313 0.15349564 -0.78727216 -0.018977841 -0.013088711
0.018421812 -0.2335833 -0.16533183 -0.4358485 0.37760407 -0.21838164 -0.09299903 -0.032666054
-0.06015724 -0.26862958 -0.18210971 -0.029013472 -0.088606074 -0.034383394 0.23829794 0.44180313
-0.04110079 0.15634342 -0.014517777 -0.54884195 0.50089276 -0.29235622 -0.28182572 0.23200627
0.10421481 0.06511793 -0.08056014 0.16859269 -0.07192446 -0.19967481 -0.15826735 -0.37330762
0.13561223 0.1160669 0.12677114 0.020529587 0.14420342 0.008850352 -0.32434008 -0.30226716
0.04550153 -0.05766703 0.17141938 -0.18327111 -0.04969128 0.29779032 -0.65971524 -0.18203521
-0.056377582 -0.31699926 0.12904404 0.11950283 0.18706329 -0.024311697 0.18633781 0.03763752
0.25760472 -0.1570212 -0.054241266 -0.90831697 -0.08430215 -0.00012937396 0.037078667 0.029016063
-0.19857752 0.0136934165 -0.380639 0.2513632 0.059557706 0.06909582 -0.11653262 -0.17694022
0.24571541 0.08466771 -0.36935318 -0.019124342 0.056943152 0.1155378 -0.46078247 -0.2560615
0.078645766 -0.1416112 -0.07260598 0.5829962 0.13583018 0.27673692 -0.14978284 0.11831248
-0.12648584 -0.07548872 -0.052854717 -0.011861094 -0.17455275 0.10520761 -0.14751488 -0.85073787
0.69202024 0.15915163 0.6659559 0.093263514 0.80420715 0.41365883 0.21199442 0.1831869
0.042658918 -0.21200976 0.24973692 -0.103586495 -0.33443484 -0.14309016 0.049227405 -0.17520021
-0.38530517 -0.06383992 0.121683754 -0.024643488 0.7775185 -0.05760866 0.25478542 -0.167018
-0.053179342 -0.15688753 0.15305202 -0.22894919 0.082547195 0.25192422 0.105531216 -0.5817436
0.42795604 0.49036935 0.07759 0.28879723 0.194339 0.14274493 -0.4632211 0.20110314
-0.17875817 -0.21263988 0.14456975 0.23760316 -0.19127794 -0.014743967 0.015103224 0.008057328
-0.11354502 0.098647416 0.37025684 0.28916213 -0.20746025 -0.024228688 -0.010856962 0.32315266
0.11898044 0.14741209 -0.017354492 -0.15442452 -0.031095037 0.3137593 -0.05590773 -1.0022426
0.06628515 -0.20456758 0.22459415 0.22616783 1.0139936 0.12655991 0.30350527 -0.0034827206
-0.069502674 -0.19909064 -0.5585992 -0.6206086 0.32378197 0.09021438 0.14175645 0.22221026
0.062815525 -0.0011883589 -0.25519004 0.4262279 0.6428659 0.27602506 -0.33586317 0.36184862
0.5452806 0.07967153 -0.06853195 -0.0009823001 0.066951156 -0.19075388 -0.087887645 -0.02207099
-0.19533776 0.13818462 -0.4431337 0.036512557 0.40123048 0.083186455 0.46110344 -0.0751379
-0.5184169 -0.050830714 -0.5966091 -0.15610577 0.22047396 -0.027804494 -0.014814077 -0.022283765
-0.08250562 0.10369315 -0.010432772 7.5563556e-05 -0.11006805 -0.076599985 0.31728357 -0.089051485
-0.07931042 -0.05662524 0.08622788 -0.08992757 -0.17147693 -0.18492989 0.019571984 0.9752164
-0.38713416 0.068738475 0.5185445 0.06625302 0.04316475 0.047456443 0.5344528 -0.22463095
0.23151068 -0.038332805 0.28871885 0.18448147 -0.13772939 -0.007663455 0.13408245 -0.0812783
0.16822845 -0.039498765 -0.09475905 -0.08379078 0.014524037 -0.3559114 0.2794756 0.07071411

l1.bias f4 [256]
00000000: e5cc 01be e385 813e 09b2 9fbd d19d 2ebf
00000010: 46b9 29bf 6df4 08bf 2f1f dcbe bfa7 8cbd
00000020: 55fd babe ca5f a7bd 8f06 95bb 2b8e 7d3d
00000030: 06a4 92be 13f9 59be 82ea e5be b2b0 9d3e
00000040: 51ac 4abe a58a aebd f78d a03d 37e5 f23e
00000050: 9989 a13e d9fd 69be b99f bdbe 76de b4be
00000060: c8f8 82be 8dc8 1ebf 12e8 79be d8f1 9d3e
00000070: f38f 063e f994 33be a724 79be beed 4a3d
00000080: fe93 bdbe ad07 06bf 2777 1ebf a1aa f0be
00000090: c367 3fbc e774 02bf 8c82 1a3f 6b65 8c3e
000000a0: a774 023f 9cac 243e c1f9 3c3d 7024 8b3d
000000b0: 7af9 a53d 89a4 52be 7b42 6f3d 853d aabe
000000c0: 8753 cfbe 97aa 2fbf 9afa 89be aaed 0cbf
000000d0: 108b 16be 0eb3 d4be 49c1 5ebd 0193 5cbe
000000e0: 3d6e 4b3e a79e 8dbe 8ad6 34bf 99b0 41bd
000000f0: 8677 bc3d 1050 0a3e 3f2e 183e bf9a fc3e
00000100: 1f5a c6be debe 98be 8552 22be dd15 aebe
00000110: acdd d23b 3957 a33d cbea 35bf e1a0 d63e
00000120: a4bb adbe 720d 9bbe d858 143e 420b 44be
00000130: 457a b33e 0456 d93d 811a aebe 64da 86bd
00000140: b412 803e 0d25 abbe edd4 353e 4a67 803e
00000150: dbc7 cd3d 1255 d9bd 810b 883e b591 8ebe
00000160: e1cf bbbe cb7c 15be ed82 98be 0f2c 9dbe
00000170: 1dd8 cebe dd50 653e f222 10bf b09b bd3d
00000180: f43e 8cbe 5a0f 88be 22f8 8b3e 9f6e 0abf
00000190: 5cd5 0b3e ce22 09be aa91 05be 1328 c23e
000001a0: b1e2 09be c9d0 e8be 6ba3 b13e 4623 223f
000001b0: 590b 9c3d ac03 ecbe 25ab ae3d ff23 673e
000001c0: bf3c b9bd f3ca b2be 7c50 39bd 75be 073e
000001d0: 6bed 9d3e 0b91 cebd 4bd5 f9be 3c1c f9be
000001e0: 4bc0 acbe cb5c f73d 3639 9ebe b2b8 3f3e
000001f0: 817b 233d 0303 f53d 3091 a7be 5f3b 153e
00000200: f27c 32bf 6098 9f3d 644c 68bf a283 0c3f
00000210: 327e a6be fefc 03bf a429 653e 9de8 b0bd
00000220: fa0e a53e bac3 0d3e b935 e9be e603 90be
00000230: 7534 70be 3ac6 0bbf fc6c d7be f29e b53d
00000240: c4d3 08bf 32cf 453e 9dd4 f7be aa65 35be
00000250: 679a 523e 09bb 553e 771f d93e 2c9c afbe
00000260: 0aa2 e5bd 36bf 5fbf 400d a8be bc00 debd
00000270: 6bdb ae3e 1aef babe 0817 d5bc 01f3 1bbf
00000280: 8b34 153e 76e8 d9be 9fd9 06bf 1bb2 bfbd
00000290: 8514 bc3e a19a 58be 8cda a5be 8951 7bbe
000002a0: 864f 57be aaf1 8a3d f159 3d3d 4368 97bd
000002b0: ee36 e53e 6a26 0cbf ad7e ffbe 5bbc d1bd
000002c0: a7f9 173e 7256 80be fd1c e93e 7020 e4be
000002d0: 643f 0d3f 01e6 f9bd 7e5e bbbe 2c98 e3be
000002e0: 0d65 8e3e f380 e9be b996 dbbc c40c 27bf
000002f0: bd87 b8be 8cfc edbe 44ef 323e 28fe 83be
00000300: 585a 1f3e e35c dcbd 405e e0be 375b 703e
00000310: 0a14 05bf 2235 76be 2d54 43bf 2e4c bf3d
00000320: 00b8 16bf e300 d03d e757 d33c f1d0 8f3e
00000330: 1c44 943e 2a47 06bf c8cf d33d a0fe 98be
00000340: a33f 86be 4021 21bf f07f 6fbe 15fa 9d3e
00000350: a938 d63e b54e 04be a102 0b3f 3278 85be
00000360: 88a7 babe 170d 4fbe 00d9 b5bd ac65 833e
00000370: b5c1 af3e 6dae d83e fbc9 4fbe e2fb c9bd
00000380: 9175 1abe cd2b 1bbf e9f4 a63e bd55 5dbe
00000390: 8308 9abe 902c b1bd fbfb c0bd 8828 95bd
000003a0: 2e84 32be 03cf d73e dfc1 22bf b20b aebe
000003b0: 960e 55be 5d13 8dbe ff68 22be d2b6 043e
000003c0: ef55 bebe e3ae 63be 29e7 efbe 70af ac3e
000003d0: 8fcd 43bf 8705 e5be 09ad cb3e feff 03bd
000003e0: ef08 16bd e36a cebe 3677 853e 4540 dc3e
000003f0: 3cc5 cf3e 970a 1fbf a0ad 20bd 2cc4 e3bd
-0.12675817 0.2529746 -0.077976294 -0.6820956 -0.6629833 -0.53497964 -0.4299254 -0.068679325
-0.36521402 -0.08172567 -0.004547901 0.06190316 -0.28640765 -0.2128642 -0.44905478 0.3079887
-0.19792296 -0.08522538 0.07839578 0.47440502 0.3155029 -0.22850741 -0.3703592 -0.35325974
-0.2558043 -0.62024766 -0.24404934 0.30848575 0.1314085 -0.17537297 -0.24330388 0.049543135
-0.37026972 -0.5235546 -0.6190056 -0.4700518 -0.011682454 -0.5095963 0.6035545 0.27421126
0.5095925 0.1608147 0.04613662 0.06794059 0.081042245 -0.20570578 0.05841301 -0.3325006
-0.40493414 -0.68619674 -0.26949006 -0.55050147 -0.14701486 -0.41542858 -0.05438355 -0.21540453
0.19866271 -0.27660105 -0.7063986 -0.047287557 0.09202485 0.13507104 0.14861391 0.49336812
-0.38740632 -0.2983312 -0.15851791 -0.34001055 0.0064351168 0.07975621 -0.7106139 0.41919616
-0.3393222 -0.30283695 0.14487016 -0.1914492 0.35054222 0.10612109 -0.34004596 -0.065846235
0.2501427 -0.33426705 0.17757006 0.25078803 0.10047885 -0.10611929 0.26571277 -0.2784554
-0.36682037 -0.14598386 -0.29787388 -0.30697677 -0.40399256 0.22394128 -0.5630332 0.09258211
-0.2739178 -0.26574212 0.27337748 -0.54075044 0.13655609 -0.13392183 -0.13043848 0.379212
-0.13465382 -0.4547179 0.3469499 0.63335073 0.07619352 -0.4609655 0.08528737 0.22572325
-0.090447895 -0.34920463 -0.04524277 0.13256247 0.30845198 -0.100862585 -0.48795542 -0.48654354
-0.33740458 0.12078246 -0.30903023 0.187228 0.039912704 0.11963465 -0.32727957 0.1457343
-0.697219 0.07792735 -0.9074156 0.54888356 -0.32518154 -0.5155791 0.22379166 -0.086381175
0.3223799 0.13844195 -0.455488 -0.28127974 -0.23457511 -0.54599345 -0.42075336 0.08868207
-0.5344813 0.1931732 -0.484044 -0.17714563 0.20566712 0.2087213 0.42406818 -0.34298837
-0.11212547 -0.8740114 -0.3282261 -0.10839984 0.34151778 -0.36510545 -0.026011959 -0.6091767
0.14570825 -0.42560166 -0.52675813 -0.09360143 0.36734405 -0.21152736 -0.323933 -0.24542822
-0.2102643 0.06784375 0.046228353 -0.07392933 0.4476847 -0.54746115 -0.49901333 -0.10241004
0.14841329 -0.25065953 0.4552993 -0.44555998 0.5517485 -0.12202073 -0.3659553 -0.44452035
0.2781147 -0.45606193 -0.026805269 -0.65253854 -0.3604106 -0.4648174 0.17474085 -0.25779843
0.15561807 -0.10759904 -0.43821907 0.23472296 -0.519837 -0.24043706 -0.7630032 0.09340702
-0.5887451 0.10156419 0.025798751 0.28089097 0.28958213 -0.5245234 0.103423655 -0.29881763
-0.26220426 -0.6294136 -0.23388648 0.3085486 0.41840103 -0.1292065 0.54300886 -0.26068264
-0.3645594 -0.20219837 -0.0887928 0.25663507 0.34327474 0.42320576 -0.20291893 -0.09862496
-0.1508391 -0.6061371 0.32608727 -0.21614738 -0.3008462 -0.08651078 -0.094230615 -0.07283121
-0.17433235 0.42150125 -0.63577074 -0.33993298 -0.20806345 -0.27553836 -0.15860365 0.12960365
-0.37174937 -0.22234683 -0.4685605 0.33727598 -0.7648553 -0.4473078 0.39780453 -0.032226555
-0.036629613 -0.40315923 0.26067513 0.43017784 0.40580165 -0.62125534 -0.03922808 -0.11121401

l2.weight f4 [256, 256]
00000000: af77 9b3d 4628 29ba 856f d03d 8f35 303e
00000010: 7f48 263d f744 843e 79e6 4e3e d680 57bd
00000020: 4e4d cf3d d4a5 c1bc 0e17 91be 90c9 5ebe
00000030: 8b66 b83c 11ad 763e f616 d3be b3b2 bc3d
00000040: 10a5 443d 7273 d7bf ee60 733e bb67 313e
00000050: 95fa 3e3d 070f e8bc eccd a13d e627 aa3e
00000060: 0aa8 113e b290 24be f3c8 d13d cbf3 9fbc
00000070: 4700 8fbe c708 753e ae64 00be 35bd 21bd
00000080: af97 cd3d cae9 bbbd e1cf 353d d83c cb3d
00000090: a957 7ebe b468 8a3e a756 09bf a7f5 d53d
000000a0: 20ae 23be 1085 893e af30 80bd 4fff 88be
000000b0: 8d02 3e3e 14b4 0d3e 19e5 02bf d4fd 4c3e
000000c0: c35c f63e 3f23 543d e129 e8bd 2adb 12bf
000000d0: 3bbf 02bf 3d9b bc3d cc89 33bb c979 5cbe
000000e0: b4e1 6f3e cec2 62be a796 ab3c b80f fbbb
000000f0: 091a 823e e39c e6bd 595b 15bd bd14 7bbe
00000100: 382b a33e 9f7d 253d 0d6f 8b3e 3e6e 313e
00000110: 9abd b6bd 0214 163e 4802 4dbd e243 b93d
00000120: a158 973e 965b 93bd c43a c8ba 6666 6b3e
00000130: ad8b 713e 75c3 18be 1126 05be b2ed 9f3d
00000140: b99e 68bd 14d9 a0be 72b1 babd df2d aebd
00000150: dcad 56be 6e2d 84bd fa47 44be ca5d 343d
00000160: f895 c4bc cf43 093f fa15 edbd dc31 43be
00000170: 25db 043e 2684 213e c68b 20bf 49e1 89bd
00000180: bfb7 933d 9cb4 03be 9fc6 94bd 92e7 65bc
00000190: 293d 883d ee8a 313e 2cda 4dbe 5752 293d
000001a0: 8723 8bbe 89bd b63e 7320 313e 3143 d13d
000001b0: 0460 6f3e feee 4b3e 108c a5be ebc6 403d
000001c0: e58d b33e 82d5 343c 5e4b 763e 14b4 b8be
000001d0: d9c4 1ebe b23c a83c f5cf 73be 2c9d febd
000001e0: a8f5 1c3d 06d0 55be e88e 213e bf94 453e
000001f0: 55ae 0dbe 6604 323e ba25 9abd d7e9 133c
00000200: 8b9b b2bc 0c0c 4d3d 761c 863e f117 3b3d
00000210: 23a3 8d3e 06ae be3e 6195 223e 6c11 2dbe
00000220: 9d80 4a3e ee60 563d 9c2e cbbe 222c 663d
00000230: 6ae4 833e 040a d4bd fb5d 0f3c af47 80bd
00000240: 8d14 e4be 4a05 debc 3d75 753e 5ba7 cbbe
00000250: b445 cf3d 1f6c 053d 2f71 19be 4ddd 79bb
00000260: 0462 d9bc 252b b73d 533b 40bb d4af 1e3d
00000270: d42a 3dbe f222 f4bd dec2 f3bd 835e 2bbf
00000280: abf4 893e 74a5 d03e a3f1 37be 3c1b 89be
00000290: 45e5 92be 6dcf 713c c321 483e e155 cbbd
000002a0: 1aea b6be 0191 c5bd e3eb b3be be9f 8ebc
000002b0: 3d3b 313d e205 a13e 60b9 1b3d 3278 62bd
000002c0: a04a 04be 32dc 34be 9748 9b3d c0d5 313e
000002d0: acf7 c4bd 1f8d 163e 97e1 a23d 03d6 bd3d
000002e0: 0aad 363d dbdb 0fbe 1aa7 653d b157 debe
000002f0: 0d80 2e3e 68b4 04be aa7c 97be 410e d13d
00000300: ff52 bd3e 8fd0 30be 0bed 483d 8a08 f1bd
00000310: 57f4 3d3d f219 313e ff45 86be 9633 59bd
00000320: aef7 9e3e 50d6 a6bd ab65 193e 1c56 a9be
00000330: c2bf dc3d 4602 0fbe c60a 00bd 41a7 b83e
00000340: a73d 4dbd d520 9c3c 5e09 8a3e 1d81 fd3d
00000350: b47f 913d 58e7 dbbd c618 1d3e ab7b a63e
00000360: 4db1 57be 0014 dc3d bc88 14bf 033a 15bf
00000370: 4345 4a3d 77fa adbe 70a2 9a3d 2aba 893d
00000380: fcfb d33e fcf3 213f 1231 143c 70ca 7ebe
00000390: 07d8 a33e 545e 7fbe 2a24 79bd 034f a23d
000003a0: 560f 9ebd 26cb 24be 93f4 773e c13a 4d3d
000003b0: d4db 8c3d 40ed 043f eb57 26bd 60d8 34be
000003c0: 8e93 3e3e e1f8 c1be e44a c9ba 1c3e 273d
000003d0: 55b2 6fbe 23f7 eabd 1149 8c3d a62e 4dbe
000003e0: a363 5dbf 59e5 9d3e 4036 b1be 82f2 78be
000003f0: 8070 babe a463 043e de06 85bc 675c b2bd
0.07591187 -0.00064528396 0.10177521 0.17207931 0.04059648 0.25833866 0.20205106 -0.052613102
0.101221666 -0.023638643 -0.28337902 -0.21756577 0.022509834 0.24089457 -0.41228455 0.09213772
0.04800898 -1.6832106 0.23767444 0.17324726 0.046625692 -0.028327478 0.079006046 0.33233565
0.14224258 -0.16070822 0.10243406 -0.01952543 -0.279299 0.2392913 -0.12538406 -0.039487083
0.10038697 -0.09175451 0.044387702 0.099237144 -0.24838127 0.27033007 -0.53647846 0.10447245
-0.15984392 0.2685933 -0.06259286 -0.26757285 0.1855566 0.13838226 -0.51130825 0.20018703
0.48117647 0.051791426 -0.11336113 -0.5736567 -0.51073045 0.09209297 -0.0027395366 -0.21530832
0.23425943 -0.22144625 0.02094586 -0.007661786 0.25410488 -0.112603925 -0.03646407 -0.2451963
0.3186891 0.040403005 0.27233163 0.1732721 -0.089228824 0.1465607 -0.050051004 0.09046151
0.29559806 -0.07195203 -0.0015276303 0.2298828 0.23588438 -0.14918311 -0.13002802 0.07809009
-0.056791995 -0.31415617 -0.09115876 -0.08504843 -0.2096476 -0.064539775 -0.19168082 0.044034757
-0.023997292 0.5361909 -0.11576457 -0.19061989 0.12974222 0.15773067 -0.6271328 -0.06732423
0.07212781 -0.12861866 -0.072644465 -0.014032261 0.066522904 0.17338154 -0.20102757 0.04133829
-0.27175543 0.3569148 0.17297535 0.10217894 0.23376471 0.19915387 -0.32333422 0.047064703
0.35069194 0.011037232 0.24052188 -0.3607489 -0.15504779 0.020536754 -0.23809798 -0.12432322
0.038320214 -0.20880136 0.1577717 0.19295023 -0.13836034 0.1738449 -0.07526727 0.00902792
-0.021802684 0.050060317 0.2619359 0.04567713 0.27663526 0.37242144 0.15877296 -0.16901177
0.19775625 0.052338533 -0.39683998 0.056194432 0.25760204 -0.10353473 0.008750434 -0.062636726
-0.4454693 -0.027102131 0.23970504 -0.3977612 0.10120717 0.032573815 -0.14984582 -0.003812629
-0.026535995 0.08943776 -0.0029332235 0.0387419 -0.18473369 -0.11920728 -0.11902402 -0.6694109
0.2694448 0.4075123 -0.17963271 -0.2677859 -0.28690544 0.014758927 0.19544129 -0.099284895
-0.3572548 -0.09646798 -0.35140905 -0.017410155 0.043269385 0.314498 0.038018584 -0.05529041
-0.12919092 -0.17662123 0.07582205 0.17366695 -0.09617552 0.14702271 0.07953184 0.09269335
0.044598617 -0.14048712 0.056067564 -0.43426278 0.17041035 -0.12959445 -0.295873 0.10207797
0.36977383 -0.17267059 0.049054187 -0.11769207 0.0463756 0.17295054 -0.26225278 -0.05302771
0.3104834 -0.081463456 0.1498019 -0.3307351 0.107787624 -0.13965711 -0.031260274 0.36065105
-0.050107624 0.019058624 0.26960272 0.12378142 0.071044356 -0.10737485 0.15341482 0.32516226
-0.21063729 0.10746002 -0.5802114 -0.58291644 0.04938246 -0.33980152 0.07550514 0.06724961
0.41403186 0.63262916 0.009044902 -0.24881911 0.32000753 -0.24938327 -0.060825504 0.079252265
-0.07717769 -0.1609312 0.24214391 0.05010486 0.068778664 0.51924515 -0.04061119 -0.17660666
0.18610975 -0.37885192 -0.0015357402 0.040830716 -0.23407872 -0.11472919 0.06849874 -0.20037326
-0.8648016 0.3083904 -0.34611702 -0.2431126 -0.36413956 0.12928635 -0.016238626 -0.087090306

l2.bias f4 [256]
00000000: c111 99be dc71 abbd 0627 e33e a1dd a0be
00000010: 45cf 6cbe 9de2 8abc 68d4 d2be 3044 6cbe
00000020: 017e 723e 3b57 c4be d193 97be 4292 e9be
00000030: acce fb3e 58e7 093e 3e35 b43e a59d 3fbe
00000040: 522e 003f acb1 ce3e fa4b 42be 810b a7be
00000050: 0cc6 a8be 3ebc ca3e 8ae5 e93e bccd a23e
00000060: b82d 7cbe 8045 d1be 2f1a 2a3c cd20 063f
00000070: 29cd cc3e 674a 1a3f 8f72 f03e 99fb 20be
00000080: 892b d23e 2a66 103f e3bc 83be e00c 073f
00000090: 6fdc b63e 61ba 30be 270f aabe 058a 9ebe
000000a0: fe9c c63e 54d8 e83e 9f73 cd3e 9c19 17be
000000b0: 8434 a9be 7e38 083f 2e6f e63e d777 df3e
000000c0: 9900 21be 5ad8 50be 839e 20be 8af0 ef3e
000000d0: 6c74 203f 2c6e b13e 849d ee3e f7dd 10be
000000e0: cb5a dcbe 121d cf3e 7a29 523e c9a5 4bbe
000000f0: 552a 16be 3eab f63e a85d 61be 4310 81be
00000100: 4680 ba3e ac93 8cbe 85b8 053f 349f cf3e
00000110: d9f8 84be 7d2d 1cbe 2279 e23e f716 fd3e
00000120: 8ced 8cbe 2857 a43e bf84 0fbe 5810 ea3e
00000130: a374 903e 758a a6bd 816d d03e 2628 c3be
00000140: b575 fc3e a100 143f d8a1 0e3f f065 91be
00000150: ea78 89be 3b9f dc3e 7949 bbbe 502d f73e
00000160: 14b1 77be 2130 5dbe e2f0 bfbe b59e edbe
00000170: 9839 ec3e 3948 1bbe 1527 ec3e c05b 023f
00000180: 7105 aebe 1e60 683e 729c 02be 2750 abbd
00000190: 75b1 10bf b002 5fbe c088 083f e772 c33e
000001a0: 1e9e c4be 1b0b 34be eeb6 dbbe d1c7 b5be
000001b0: e8a3 02bf cfa4 103f 8abb d9be 73b1 d43e
000001c0: e38f bf3e 7aec 12be 42af d23e 1cb2 c9be
000001d0: 272c 88be e86c 51be 1b1a da3e 5492 1dbe
000001e0: b222 de3e 3dc5 61be 5f5b 20be 5fb1 22be
000001f0: d41b 61be cd7c aebe e95c ef3e f812 f3bd
00000200: e6cc 48be 27c8 2cbe 1d16 0f3f a03b cfbe
00000210: f74d cc3e 5ad9 a1be 2634 89be bd9a cfbd
00000220: 221b ee3e 21ac 75be c35a debe 6893 bbbe
00000230: 9977 153f 4cb9 44be b946 3ebe 26a9 ebbc
00000240: 7545 6ebe 3cbf 01be 130f 76be 7486 4abe
00000250: bab7 2f3d d173 b6be 774f b4be 08c0 9ebe
00000260: d6cf 103f b83e 17be c146 213f dcc0 a5be
00000270: 30b1 ca3e 817b f13e 1a87 8ebe ea1f afbe
00000280: a2b7 adbd 9cb4 033f ecd9 073f 0fe8 e33e
00000290: 98d2 8ebe ba5d f13e 8be6 d7be 554a bb3e
000002a0: 06d6 81be 288f 3ebe 7d16 e63e f94c 823e
000002b0: 9842 f43e c593 163f a7fc 4dbe 13a0 17be
000002c0: 9bef 123f e90b bfbe b67f f53e 2f3e 14be
000002d0: ccc2 053f fd1e 033f a8d6 e63e d95b 2dbe
000002e0: 8c6b 073f 895a 07be f5e5 d5be 7915 0bbe
000002f0: ff95 183f 6a4b 85be 3e05 043f 2961 78be
00000300: 7403 b93e 3ec7 903e 215e 8abe 2636 dd3e
00000310: 65ce c1bd ee34 74be 577a 073f 1007 e43e
00000320: 6cb2 06bd 9f6b d63e 5051 033f 2eb2 f23e
00000330: 017f f33e 605c 38be 7ab9 bfbe bf3f 9dbe
00000340: dc5e d2be bf9c 41be bd7c d53e fa2d f83e
00000350: 295c 83be 1caa 1d3f 98bc c53e cd4f 20be
00000360: 1afe 90be 6f0f ed3e 0ef8 91bd 7070 1fbe
00000370: 3680 81be 109e f1bd ae32 123f 2d44 bf3e
00000380: 28ee e83e 3794 c4be 428b 05be 00e7 2dbe
00000390: ab48 393e 6477 81be aa1f 003f 2c0d 0a3f
000003a0: 71d9 72be c766 073f fa6f dc3e f3b1 d03e
000003b0: b252 94bc 3cec 86be 5e85 0d3f 1de0 cdbe
000003c0: 243e 9abd 2245 d83e 29b2 b4be 970b fabe
000003d0: 3f50 103f cb9f 183f 454e b63e 0779 03be
000003e0: ca7d 11be 4423 ec3e 9069 eebd 486d 9e3e
000003f0: a6b7 8b3e 584b b1be b62f 98be 98c1 e3bd
-0.29896358 -0.08371326 0.4436571 -0.3141909 -0.23125942 -0.01695376 -0.41177678 -0.23072886
0.23680879 -0.38347802 -0.29604962 -0.45619398 0.49181116 0.13467157 0.3519687 -0.1871248
0.5007068 0.40369928 -0.18974295 -0.32625964 -0.32963598 0.39596742 0.45682937 0.31797588
-0.24626815 -0.40873337 0.010382219 0.523938 0.40000275 0.6026978 0.469624 -0.15720977
0.4104884 0.5640589 -0.25730047 0.5275402 0.35715052 -0.17258598 -0.33214685 -0.30964676
0.3879165 0.45477545 0.40127274 -0.14755863 -0.3304788 0.532112 0.45006698 0.43646118
-0.15722884 -0.20395032 -0.15685467 0.46863204 0.62677646 0.34654367 0.4660455 -0.14147173
-0.4303802 0.40451866 0.20523635 -0.19887461 -0.14664586 0.48177522 -0.22008383 -0.2520772
0.3642599 -0.27456415 0.5223468 0.4055115 -0.25971106 -0.15251727 0.44233042 0.49431583
-0.27524984 0.32097745 -0.14015482 0.45715594 0.28213987 -0.08131877 0.40708545 -0.38116568
0.49308553 0.5781346 0.55715704 -0.28398085 -0.26850063 0.43090233 -0.36579493 0.48276758
-0.24188644 -0.21600391 -0.37488467 -0.46410146 0.4613769 -0.1516427 0.46123567 0.5092125
-0.33988526 0.22692916 -0.12754992 -0.08364897 -0.5652078 -0.21778369 0.53333664 0.381736
-0.38401884 -0.17582361 -0.42913002 -0.3550401 -0.5103135 0.5650148 -0.42525893 0.41541633
0.37414464 -0.14348021 0.41149336 -0.393937 -0.26596186 -0.204517 0.42598042 -0.15387851
0.43385845 -0.22047897 -0.15659855 -0.15887974 -0.21983272 -0.3407959 0.46750572 -0.118688524
-0.19609413 -0.16873227 0.5589312 -0.40475178 0.39903232 -0.3161114 -0.267976 -0.10136936
0.46505076 -0.23991443 -0.4342862 -0.366359 0.58385617 -0.1921131 -0.18581666 -0.02876718
-0.23268683 -0.12670606 -0.24029188 -0.19777852 0.042899825 -0.35635236 -0.35216877 -0.31005883
0.5656713 -0.14770019 0.62998587 -0.32373703 0.39588308 0.47164539 -0.2783745 -0.34204036
-0.08482291 0.51447463 0.530669 0.44512984 -0.27895045 0.4714182 -0.42168078 0.36580148
-0.253586 -0.18609297 0.44939032 0.2544935 0.47707057 0.5881923 -0.2011591 -0.14807157
0.5739686 -0.37313774 0.47948998 -0.14476846 0.5225036 0.5121916 0.45085645 -0.16929568
0.5289848 -0.1321813 -0.41777006 -0.1358241 0.59603876 -0.260341 0.515705 -0.24255814
0.36135447 0.2827701 -0.2702494 0.43205374 -0.09463195 -0.23848316 0.5292105 0.44536638
-0.032885 0.41878983 0.5129595 0.47401565 0.47557834 -0.18003988 -0.37446195 -0.30712697
-0.41087997 -0.1890745 0.4169673 0.48472577 -0.2565625 0.6158769 0.38620448 -0.15655442
-0.28318864 0.46300837 -0.07127391 -0.15570235 -0.2529313 -0.11797726 0.5710858 0.37356701
0.454942 -0.3839433 -0.13041404 -0.16982651 0.18094127 -0.252864 0.50048316 0.5392635
-0.2371576 0.528912 0.4305418 0.40760764 -0.018105838 -0.26352108 0.5528163 -0.40210047
-0.07531384 0.42240244 -0.35292175 -0.48836967 0.56372446 0.59618825 0.3560659 -0.12839137
-0.14208141 0.46120656 -0.11641228 0.3094275 0.2728855 -0.34627795 -0.297239 -0.111209095

l3.weight f4 [1, 256]
00000000: 3a5a 55bf 36d8 99bf 43a3 f33e 44e9 8cbf
00000010: eb99 94bf d132 7d3b 2b1d 88bf 4166 eabf
00000020: bfdc 3a3f 964e b2bf ab97 6abf 8205 a3bf
00000030: 0684 563f a306 6f3f 0292 3d3f ea39 b4bf
00000040: 3eaf 5d3f 2e2c 193f 40e9 a0bf 5a84 9bbf
00000050: 802a bebf 9d68 3c3f e492 1c3f a8d5 6d3f
00000060: f8a2 8fbf 1073 9fbf 20d1 0e3b afc6 8b3f
00000070: a1d9 263f ab71 f13e 8e0e a33e f3a6 babf
00000080: 4470 173f 615e 1c3f 80a5 88bf d1ea 2d3f
00000090: 7661 4a3f e6a8 5cbf e3ee 97bf 5327 94bf
000000a0: c31a 0e3f 9b83 033f f419 083f c2b5 8abf
000000b0: 7a6c 96bf 2792 213f 08a0 0e3f 8c67 2e3f
000000c0: 38f1 cbbf 2815 93bf 2930 5bbf 8867 933f
000000d0: 9f47 373f cb32 613f 488b d93e 52d1 b3bf
000000e0: 12ec 8dbf 397d 6a3f 6afb 813f 20bf bebf
000000f0: 6b44 adbf 9869 d13e 5558 91bf e51d 86bf
00000100: 4a52 093f 7ffe a9bf 0f12 133f d7fd 0a3f
00000110: 3a01 8abf c120 9dbf 4bbc 533f 5ad8 6f3f
00000120: 505d dabf 2e74 fe3e 434e 80bf 2255 a93f
00000130: d52c 5e3f e3b1 04c0 faf4 053f 47f9 ddbf
00000140: 6a4a bc3e 91e5 9a3f 0399 ff3e 0daf b9bf
00000150: 7f1f e3bf 7ff0 263f 287e d0bf 1b75 963e
00000160: 3489 b8bf 6bd5 adbf 7e5d 71bf 6fdf cfbf
00000170: 9bd9 483f 94a4 65bf a4c4 443f 582a cf3e
00000180: b114 a7bf f4ed 883f e87e 48bf 1b42 33c0
00000190: 35fe a7bf b712 25bf 2acb 053f 7fc0 723f
000001a0: 8bc2 8dbf 683c b2bf 17da cfbf 8286 d3bf
000001b0: 5236 bcbf d0ec 093f 594a 40bf 43fd 743f
000001c0: 8da9 313f b298 37bf a090 2c3f 8728 b8bf
000001d0: cbca 88bf cd1f 3bbf b3ce 193f 2181 84bf
000001e0: 7d24 323f 6229 8fbf 539f 8dbf ecc3 bcbf
000001f0: 2a13 8dbf 422c 8bbf ae6d fd3e 5b4f 47bf
00000200: ce2d d0bf 91d9 9abf 3fb9 b33e d466 febf
00000210: 242e 253f b111 54bf ddb7 94bf 8b4d 7fbf
00000220: 848e 673f 69be b9bf f5a8 84bf d393 c5bf
00000230: 5305 003f b496 8dbf 1316 a8bf 2b78 1c40
00000240: ce96 38bf d537 75bf 3875 86bf 4cdf 6abf
00000250: c7f2 c4bf 2a34 65bf 38c4 8ebf b60b 1abf
00000260: feb4 4c3f 3f3d 70bf f123 a23e fc1d debf
00000270: 0efe 433f 00e6 013f 00d3 79bf 76f1 b5bf
00000280: 611e a1bf 664d eb3e 6daa 7c3f 50e1 6b3f
00000290: f0ef bbbf faf7 ae3e fba1 83bf 103e 643f
000002a0: 56a3 9ebf 0ec1 c9bf 70c3 213f 87d2 803f
000002b0: d214 093f c217 b33e fa1a 9fbf 89bb 5fbf
000002c0: 4f7b 0c3f 8a74 c2bf 31b0 0e3f aae9 80bf
000002d0: af38 0a3f 1dd7 2a3f 162a 133f 65bf 2fbf
000002e0: a9e5 203f b2dc 93bf 0270 95bf 57d8 8bbf
000002f0: 2edf fc3e 2609 dbbf d0df 043f 718a 90bf
00000300: 7f4b b53e e0ee 723f 1972 5bbf fbc2 563f
00000310: 5bbb efbf 90bb b8bf 80b1 f23e 43d5 3f3f
00000320: 09aa 56bf e8fc 543f 6193 f93e e4ae 0c3f
00000330: 4a9a 163f 268c 84bf e028 c5bf 83b8 74bf
00000340: e84f bfbf c448 88bf 252e 143f 63cd 033f
00000350: 1d83 a4bf a091 183f eae7 8a3f 249e cabf
00000360: 4b82 77bf 4edd 5a3f 5839 803c 0688 85bf
00000370: 79cf 8ebf c108 8cbf 59ee 1a3f f33c 843f
00000380: 5743 0c3f b234 64bf e208 86bf 506f 84bf
00000390: 5182 e53f cde8 5fbf 0d16 163f 86a1 e53e
000003a0: 1b63 e6bf 7d1e b63e 7dc8 fe3e 6f6f 343f
000003b0: c471 953c a29f 14c0 5a6b fc3e 34fd adbf
000003c0: d4ca a8bf 11de 773f 6511 a4bf 785f b5bf
000003d0: ef05 133f 6c0f ab3e 89e0 463f 1a22 7fbf
000003e0: 02e2 c2bf a1e4 353f 424f 02c0 4f9d 983f
000003f0: 75b4 903f 3087 c5bf 6707 a9bf e30c 94bf
-0.833408 -1.2019107 0.47585496 -1.1008687 -1.1609472 0.0038635025 -1.0633901 -1.8312455
0.7299308 -1.3930233 -0.91637677 -1.2736056 0.837952 0.933695 0.74050915 -1.4080174
0.86595523 0.5983304 -1.2571182 -1.2149765 -1.485672 0.7359713 0.6116164 0.9290414
-1.1221609 -1.2456989 0.0021792129 1.0920008 0.65175825 0.47157034 0.31847042 -1.4582199
0.5915568 0.6108151 -1.0675507 0.67936426 0.79054964 -0.8619522 -1.1869777 -1.1574501
0.55509585 0.5137269 0.531646 -1.0836718 -1.1751854 0.63113636 0.5571294 0.6812675
-1.5932989 -1.1490831 -0.8562036 1.151597 0.7159366 0.8796813 0.42489076 -1.4048254
-1.1087668 0.91597325 1.015485 -1.4902077 -1.3536505 0.40900874 -1.1355082 -1.0477873
0.5364119 -1.3280791 0.5744943 0.5429358 -1.0781624 -1.2275621 0.8270919 0.936895
-1.7059727 0.49698013 -1.0023884 1.3229105 0.8678716 -2.0733573 0.5232693 -1.7341698
0.36775523 1.2101308 0.49921426 -1.4506546 -1.7743987 0.6521072 -1.62885 0.2938622
-1.4416871 -1.3580755 -0.9428328 -1.6240062 0.7845704 -0.8970425 0.7686255 0.40461993
-1.305319 1.0697618 -0.78318644 -2.8009098 -1.3124453 -0.6448168 0.5226313 0.94824976
-1.1074995 -1.3924685 -1.6238431 -1.6525424 -1.4704077 0.5387697 -0.75113446 0.95698947
0.6939934 -0.7171737 0.6740818 -1.4387368 -1.0686888 -0.730954 0.6008102 -1.0351907
0.69586927 -1.1184504 -1.1064247 -1.4747291 -1.1021473 -1.0872881 0.4949774 -0.7785546
-1.6263978 -1.2097646 0.3510227 -1.9875131 0.6452353 -0.82839495 -1.1618611 -0.99727696
0.90451837 -1.4511234 -1.0364062 -1.5435737 0.50008124 -1.1061616 -1.3131737 2.4448345
-0.7210511 -0.9578832 -1.0504522 -0.91746974 -1.538659 -0.8953272 -1.1153631 -0.6017412
0.7996367 -0.93843454 0.31668046 -1.73529 0.7655953 0.5074158 -0.97587585 -1.4214313
-1.2587396 0.45957488 0.9869755 0.92140675 -1.4682598 0.34173566 -1.0283808 0.891572
-1.2393596 -1.5762041 0.6318884 1.0064248 0.53547394 0.34979063 -1.2430108 -0.8739553
0.54875654 -1.5191815 0.55737597 -1.0071309 0.5399274 0.66734487 0.57486093 -0.6865142
0.62850434 -1.1551726 -1.1674807 -1.0925397 0.49389023 -1.7112167 0.5190401 -1.1292249
0.3540916 0.94895744 -0.85720974 0.83891267 -1.8729051 -1.443224 0.47401047 0.74934787
-0.83853203 0.83198404 0.48745254 0.5495436 0.58829176 -1.035527 -1.5403099 -0.9559404
-1.494626 -1.0647206 0.5788291 0.5148527 -1.2852513 0.59597206 1.0852025 -1.5829511
-0.96683186 0.85493934 0.015652344 -1.0432136 -1.1157066 -1.0940171 0.6051994 1.03311
0.5479025 -0.89142907 -1.0471461 -1.034647 1.7930394 -0.874646 0.58627397 0.44849795
-1.7998995 0.35570136 0.49762335 0.70482534 0.018242724 -2.3222432 0.49300653 -1.3592896
-1.3186898 0.9682322 -1.2817808 -1.416976 0.5743093 0.33410203 0.77686363 -0.9966141
-1.5225222 0.71051985 -2.0360875 1.1923007 1.1305071 -1.5431881 -1.3205384 -1.1566433

l4.weight f4 [256, 32]
00000000: 0e59 71bf 61f5 18be f2b6 2bbe 44c6 4bbe
00000010: 73cf 523b 356c 7b3d 469a 5cbd c3bd 2e3f
00000020: 26d9 203e 35e1 bebd 81a0 d7bd 99a2 5fbe
00000030: 1a44 52be 5cf1 94bd cd39 a23e 48a9 ae3c
00000040: ff63 68be 5779 7bbd 86c4 bd3e f1af e1bd
00000050: b21f aebd e23f b43d 21f8 e43d 4491 b2bc
00000060: 1d6b 0fbd 589e f4be 1acd f13d 6c95 8a3d
00000070: 64ab 9bbe c344 7d3c c9a2 883d 4f9f cd3c
00000080: 7599 1bbe ce7b 133e 5d4c e2bd 8fe4 cfbe
00000090: 6914 c93d 98bd 8ebd 6b08 263e db69 6a3d
000000a0: 16dd 9fbf 604b 6fbe f166 6bbd 2b5d c5bd
000000b0: a877 503e bdd0 8a3e e48e 0e3e 5468 69bd
000000c0: c360 973d 17ae 983d ac7a 753a 8716 72bd
000000d0: c540 fcbd 0766 c53e b790 ff3d 00a1 a03e
000000e0: a82a 86be 822a 903c 7be8 babe e6b1 a13e
000000f0: 6597 3a3e 7a31 99be e27f 62bd 7c37 7b3d
00000100: 5bb0 823e c2c3 9c3c 6106 a33d 72d5 25bc
00000110: 4f72 15be 9e3a cc3d 3e0c ce3d 424f 873e
00000120: d838 003f e5a5 263d f758 01be 90a4 34bd
00000130: 5751 a9bd eb76 39bc 2320 4b3f cb49 5b3c
00000140: 82e0 0d3e 7222 25bd 324b 883e d7ba edbc
00000150: d82e b5be 54b6 09be 4c40 963e def5 373d
00000160: 38ed b03d 4564 1f3d dfea cf3e 4bdc 973d
00000170: 68c5 003e 76cd 3fbe 3e04 cebd 3256 91be
00000180: 6e01 aebe 41b0 62bb 2580 9f3d ec86 c43d
00000190: 1caa 2b3d bc22 5fbe 8eff a4bb efb5 b43e
000001a0: d397 19be 54c3 c7be fd95 b4be 14f5 59be
000001b0: 7797 3b3e 94ab ebbc 8164 043f 1635 863e
000001c0: aa1d 7d3e f63f 643d 9954 98be 29db 153e
000001d0: 9fd5 30be 7668 d43d 87ca 01bf 1af1 ae3d
000001e0: be23 bf3d 211a 433e 1269 25be 876b 8a3e
000001f0: 24b5 403e 125c 613e 6384 043f 7a64 abbd
00000200: 199b 2e3f aa6b 26be aa66 0fbd b188 3bbf
00000210: d190 f1bc 91da 5e3e 35f3 27be a336 f539
00000220: 857f 05be 872d ff3d 5967 b3be a5fa 383e
00000230: 98f7 06be 336d 883d 6efb 933e fc01 09be
00000240: 6fae bbbe bb6c dbbd 05f0 0abe 68b8 72be
00000250: a4da 56bd 77b7 643e 6720 babd e3b3 983d
00000260: 528c aa3c 7223 36bd aef7 9cbe 67d1 69be
00000270: 3214 2bbe e3a8 8ebe d56d 8c3e 64d3 863e
00000280: 5fcf b1be b6fd 00bd fba4 67bc 09cb 8f3e
00000290: d6f9 4d3c 35f8 443e b62e 1bbe 1cca 89bd
000002a0: 220a 47be b680 edbc 3481 843e 3e90 b4bd
000002b0: 66cf a0be 8be0 c43e 4398 b7be e8b1 a83e
000002c0: e8fa b6be 5a7d d93d f543 91bb 584b cebe
000002d0: 6a1b 93be 6150 9a3e 0311 063e 4c35 42bd
000002e0: 243a c7bd f4f0 d6bd 17cc edbc 1796 bc3e
000002f0: 8d0b 923b fba2 b5bd a96f 353c 9e54 323b
00000300: aa7b f43d 6658 0f3e bdcb 063e 39ac 653c
00000310: 3d89 ed3c 3a70 9d3d 6394 86bd 33b5 86be
00000320: 3af3 ae3e 30c0 d93d a43e 0e3e 8a2c db3d
00000330: b67f a4be ff44 94bd e61c 08be 97a2 c33b
00000340: 816e 13be 047f 283d 987c f5bd b604 9a3d
00000350: 19fb a73e 4cda 52be ec4a 13bf f556 743e
00000360: 89f0 19bd 4455 52bd cb0a aebd aa75 703e
00000370: 9eea eb3e 3643 ca3e ea26 43bf 6aee 5a3e
00000380: 3900 213f 35c4 d53d 20e7 33be 9483 f0be
00000390: c6d2 24be 2ab0 2c3e 55d8 673d 7e28 373e
000003a0: adbc e5bd e3d9 98be 5d2f 63bf 3936 69be
000003b0: c2b1 843c 899c 69bd c08a 8bbd 1eaf 13be
000003c0: f0e0 23bd dd32 c1bd 267e ff3d 4b16 ecbd
000003d0: 5b90 65bd 459a a8bd 2fb0 a0be 5336 5cbe
000003e0: 275b 563e 7329 95be 0f09 b93e 0334 513e
000003f0: 6020 5abe 0fcc a3be e58f 5a3e 51f2 5fbd
-0.9427651 -0.14937355 -0.16769007 -0.19899851 0.0032167106 0.06138249 -0.053858064 0.68258303
0.15707836 -0.093202986 -0.105286606 -0.2183937 -0.20533791 -0.07272598 0.31684723 0.021320954
-0.22694395 -0.061395016 0.37063998 -0.11019886 -0.08502139 0.08801247 0.11180139 -0.021797784
-0.03501426 -0.47777057 0.11806698 0.06766781 -0.30404198 0.015458289 0.06671674 0.025100378
-0.15195258 0.14402696 -0.110497214 -0.40604064 0.09818346 -0.06969756 0.16214149 0.057229858
-1.2489345 -0.23368597 -0.05747122 -0.09636911 0.20358145 0.2711238 0.13921696 -0.05698426
0.07391503 0.0745508 0.0009364288 -0.059103515 -0.12317041 0.38554403 0.12478774 0.31372833
-0.2620442 0.017598394 -0.36505494 0.31581038 0.18221815 -0.2992056 -0.05529774 0.06133221
0.25525174 0.019136313 0.07960201 -0.01012169 -0.14594387 0.09972118 0.10060929 0.26427656
0.50086737 0.040685553 -0.12631594 -0.04410225 -0.082674675 -0.011319856 0.7934591 0.013384293
0.13855174 -0.040316053 0.2661987 -0.029019756 -0.353873 -0.13448459 0.2934593 0.04491221
0.08638996 0.038913984 0.4060888 0.074150644 0.12575305 -0.18730721 -0.10059403 -0.28386074
-0.33985466 -0.0034589919 0.077881135 0.09596047 0.041910276 -0.21790594 -0.0050353473 0.35295054
-0.14999323 -0.3901621 -0.35270682 -0.21284896 0.18319498 -0.028768338 0.51715857 0.26212376
0.24718347 0.05572506 -0.29752043 0.14634384 -0.1726899 0.10371487 -0.5069966 0.0854208
0.09332989 0.19052936 -0.16153362 0.27035162 0.188191 0.22007778 0.51764506 -0.08368774
0.6820541 -0.16252008 -0.035010017 -0.7325545 -0.029488 0.21763064 -0.1640137 0.0004677075
-0.13036926 0.124598555 -0.35039786 0.18064363 -0.13180387 0.06661453 0.28902763 -0.13379663
-0.3665652 -0.10714098 -0.13568123 -0.23703158 -0.052454606 0.22335611 -0.090882115 0.07456186
0.020818863 -0.044467397 -0.30657715 -0.22833787 -0.16706923 -0.27863225 0.27427545 0.26333153
-0.34728524 -0.031491958 -0.0141384555 0.2808459 0.012571773 0.19235308 -0.15154538 -0.067280024
-0.19437459 -0.028992038 0.25879824 -0.088165745 -0.31408232 0.38452563 -0.35858354 0.32948232
-0.357383 0.10619612 -0.00443315 -0.40291858 -0.28731853 0.3013945 0.13092427 -0.04741411
-0.09727886 -0.10495177 -0.029027982 0.3683326 0.0044569434 -0.08868977 0.011073985 0.002721108
0.119376495 0.13998565 0.13163657 0.014018112 0.028996104 0.07687421 -0.06571271 -0.2631012
0.34169942 0.1063236 0.13891083 0.107018545 -0.32128686 -0.072397225 -0.13292274 0.00597031
-0.14397623 0.041136757 -0.11986655 0.0752043 0.3280876 -0.20591086 -0.57536197 0.23861296
-0.037582908 -0.051350847 -0.08498152 0.23482385 0.46077436 0.39504403 -0.76231253 0.2138001
0.62890965 0.10437814 -0.17568636 -0.46975386 -0.16096029 0.16864076 0.056602795 0.1788654
-0.11217628 -0.29853734 -0.88744146 -0.2277459 0.016198043 -0.05703405 -0.06813574 -0.1442227
-0.04000944 -0.094335295 0.12475233 -0.115276895 -0.05604587 -0.082325496 -0.31384417 -0.21505098
0.2093321 -0.29133186 0.36139724 0.20429997 -0.21301413 -0.31991622 0.21343954 -0.05467445

l4.bias f4 [256]
00000000: 2cbb 22bf aa92 7b3c 0be9 c93d c734 063f
00000010: dc1d a8be 62d0 f7be 6036 183e 4ba7 5cbc
00000020: 5eb4 81be e54a ac3d b5a4 b2bc 4ce6 b03e
00000030: 5519 0cbf 63dd 59be 156b 2dbe 7645 c33e
00000040: 0f6c d73e 39db aabe d8f0 cebe 48bc a5bd
00000050: c9a9 56be 1e08 d8bd efa5 1cbf 63aa 5e3d
00000060: 8713 753e 66a2 f1be e438 b13c 53df cf3e
00000070: 10ec 0a3d 3cc8 e3be 8849 fabe b1fc a7bd
00000080: d6f0 c0bd 8f9e 26be fbca 7bbe 2137 b1be
00000090: e40f eebd 9e7c 3dbf fcd5 39bf 2d45 dcbe
000000a0: 0259 863e a35a a2be 4c2f b33e e0b6 853e
000000b0: 7a46 7bbe f1bd 49bd 8a00 fabe fe2c 2a3c
000000c0: 925e 8bbe 6d0e 7b3e effe cebe 03d7 a83e
000000d0: 7e4b aa3e 0ba5 b8be a255 adbe 67dd c7bd
000000e0: 7355 f93e 992b b73c 54ad 42bf ff8f a33e
000000f0: 763a 57bf e66a fbbe 5cef 20bf 1940 eebe
00000100: 8b10 5bbe 8953 933e 2f3a 833e 836c e7bd
00000110: 5d0e 063c 815e 12be 0387 41be 7b0d 35bf
00000120: 0b86 5e3e de81 32bf 956f 82be b497 11bd
00000130: 4629 9bbd 8c5e f6be 845c eabe 38a6 d73e
00000140: 5710 9bbe 5435 8c3e 990a 17be bed0 303e
00000150: 73ee 19be 2827 4fbf 944d e73d 4a73 093f
00000160: 57dc 37be f0b9 af3e f449 8fbe 5529 56bf
00000170: 0f4a 25bf e508 8dbe 02e9 b13d 7825 9d3d
00000180: 4a4e 22bf e8f4 a43e a54c 46be 2002 48bf
00000190: 9657 91bd d0aa 14bf dc9f f33e b235 27be
000001a0: 3f6b 82be 1e7d c4be 668d 013d 3dcc bfbe
000001b0: 6541 4bbe 481b c83d 3432 dabe dd79 1f3e
000001c0: 4fac 793c 8a9f 863e 0e38 9cbe e74d e1be
000001d0: 29e0 2bbf 4a31 b3be cb44 eabe ad0d adba
000001e0: 56b3 b33e 5008 db3e 0b22 b8be c4ec 32bf
000001f0: 6ad7 d2be 7e96 bbbe 59a4 c2be 32ca a4be
00000200: 5cfa 39bf 8498 37bf cb5c af3e e08f dcbe
00000210: 0c3f 21bf 04ed 04bf 76ae 59bf 60e8 253e
00000220: 0861 53bf c6ce a8be 1604 2ebe a5e1 0cbd
00000230: 696e f0be 5999 21bd e487 9b3e deb1 a73e
00000240: e8c5 53be c4b5 19bf 21b4 a53e 87d3 a23e
00000250: 30c7 913e 49f7 aabe 53c2 b7bd 7b50 e43e
00000260: 73ab 823d 4de7 b73d c4e2 b6be fd01 a6bd
00000270: cfb5 36be 3c48 f5be 7886 38be 47c7 f73e
00000280: 05ce 44bf 516e 90be 6c54 abbe d3b0 5abf
00000290: 0e87 433e 21d9 33be d965 46bf 80fb 59bf
000002a0: 2c52 bebe 27e6 f73d bcc1 4c3e a2ca 003f
000002b0: 2460 e7be 3ee7 d7bd f639 60bf e517 ffbe
000002c0: 8aea 45be 6203 13bf eda0 373d 5f93 0a3e
000002d0: 54bb d9bd fcb9 79be 5c82 1ebf 7e56 8a3d
000002e0: 24b4 b23d 05b3 793e 4f10 db3e b45f 06bf
000002f0: fd6d c1be ccb4 c0be 4432 27be ead9 5f3e
00000300: 53d0 843e b448 09bf 979b 863c f290 cf3d
00000310: a986 713e 8ca4 19bf bd9e 44bd e9e0 2abf
00000320: 636a 32bc c8b1 b5be 9ad2 96be 6938 833e
00000330: 0c78 c0be d265 42bf 04d6 53bd 57ee 013f
00000340: b38a 37be fd8c ba3e ab7c 2f3e 3bd9 7a3e
00000350: 60ab 8c3d 06df 85bd 183c 29be f505 57bd
00000360: e9cb 3a3e 04a1 d1be 7e4a 5ebe 357a f1be
00000370: 2ad7 123f e0f2 d43e 78e9 123c ad2e 18bf
00000380: aa83 013f d47f 12bd e2ab b73e 43bc e03e
00000390: 2247 433e 4853 2ebe 4480 9bbe c0f9 abbe
000003a0: 30a9 be3e f674 0c3e 52f4 1f3e 8cc6 233e
000003b0: aca4 debe db87 523e af10 d83e 73f3 14bf
000003c0: f9e0 a0be 61b1 02bf 73bb 37bf 141c 923e
000003d0: 0142 a4be 85af ecbe e869 6bbe 5650 933d
000003e0: 5e5e b13c 29a4 13be 7e92 cd3d e7d2 83bf
000003f0: cd39 36bf ede4 6ebf 8066 7dbf 4ceb 34be
-0.6356685 0.015354792 0.098589025 0.5242428 -0.3283528 -0.4840117 0.14864492 -0.01346762
-0.25332922 0.084127225 -0.021807054 0.34550703 -0.54726154 -0.21275859 -0.1693538 0.38138932
0.4207463 -0.3337038 -0.40418124 -0.080925524 -0.20963205 -0.10548423 -0.61190695 0.054361712
0.2393323 -0.47194213 0.021633573 0.4060007 0.033916533 -0.44488704 -0.48884225 -0.08202494
-0.09420936 -0.16271423 -0.2458915 -0.34612373 -0.11624125 -0.74018276 -0.7259214 -0.43021527
0.26239783 -0.31709775 0.34997022 0.26116085 -0.24538603 -0.049253408 -0.48828536 0.010386704
-0.2722059 0.24517222 -0.40428874 0.3297654 0.3326072 -0.36063418 -0.33854395 -0.09759026
0.48698005 0.022359656 -0.7604573 0.31945798 -0.8407358 -0.49104995 -0.62865233 -0.46533278
-0.2139303 0.2877467 0.25630328 -0.11299994 0.008182135 -0.14293863 -0.18899159 -0.70723695
0.21730821 -0.6972941 -0.25475755 -0.035545066 -0.07576232 -0.4811901 -0.4577371 0.42119002
-0.30285904 0.27384436 -0.14750136 0.17267129 -0.15032367 -0.8091912 0.11294094 0.5369154
-0.17955147 0.34321547 -0.2798611 -0.8365682 -0.6456613 -0.27545848 0.08687021 0.07673162
-0.6340071 0.322181 -0.19365175 -0.7812824 -0.07096784 -0.5807314 0.475829 -0.16329077
-0.25472447 -0.38376707 0.03162899 -0.3746051 -0.19849165 0.097708285 -0.42616427 0.15573831
0.0152388355 0.26293594 -0.30511516 -0.44004747 -0.67138916 -0.34998542 -0.4575561 -0.0013202928
0.3509776 0.4277978 -0.35963473 -0.69892526 -0.41179973 -0.36638254 -0.38016012 -0.32185513
-0.72647643 -0.71717095 0.34250483 -0.43078518 -0.62986827 -0.5192416 -0.8503183 0.16201925
-0.8256993 -0.32970256 -0.16993746 -0.03439488 -0.46959236 -0.039452884 0.30377114 0.3275289
-0.20680964 -0.6004298 0.3236399 0.31802008 0.2847228 -0.3339179 -0.08972611 0.44592652
0.063803576 0.08979664 -0.35719883 -0.08105848 -0.17842792 -0.47906673 -0.18020046 0.48394224
-0.7687686 -0.28209165 -0.33462846 -0.8542606 0.19094488 -0.17563297 -0.7749916 -0.85149384
-0.37172067 0.12104445 0.19995779 0.50309193 -0.45190537 -0.10542153 -0.8758844 -0.49822918
-0.19327751 -0.57427037 0.044831205 0.1353278 -0.10631433 -0.24387354 -0.6191766 0.06754778
0.08725765 0.24384697 0.4278588 -0.5248978 -0.37779227 -0.37637937 -0.16327769 0.21860471
0.2594019 -0.5362656 0.016431613 0.10135068 0.23586525 -0.60016704 -0.048002947 -0.66749436
-0.010889622 -0.354872 -0.2945755 0.25628975 -0.37591588 -0.75936615 -0.051717773 0.507543
-0.17924003 0.3643569 0.17137401 0.2449693 0.06868625 -0.06536679 -0.1652683 -0.052495915
0.18241848 -0.40943158 -0.21708104 -0.4716355 0.57359564 0.4159155 0.008966796 -0.5944622
0.5059153 -0.035766438 0.35873324 0.43893632 0.19070104 -0.17023957 -0.30371296 -0.33588982
0.37238455 0.13716492 0.15620545 0.15993708 -0.4348501 0.20559637 0.4220023 -0.58183974
-0.3142164 -0.5105191 -0.717704 0.28537047 -0.32081607 -0.4622766 -0.22989619 0.07193057
0.021651443 -0.14418091 0.10037707 -1.0298737 -0.71181947 -0.93318063 -0.9898453 -0.17667884

l5.weight f4 [256, 256]
00000000: f055 be3d 7c5d ddbc 6271 2ebe a864 3ebe
00000010: be3a c7bd 5284 5d3d 82bf 0abd fcd7 f83d
00000020: 6281 81bd 620a 583e 0b83 70be e2ea 213e
00000030: 7baa 01bf 8391 febd 987f 4bbe f063 af3d
00000040: b715 8e3e 8c78 0dbe 37d7 b8bd 5241 993d
00000050: 407d a8be 9d16 d53d 05ab 98be 0680 103e
00000060: 2f1c 703c ea08 5cbe 6f95 bdbd 75d9 3d3e
00000070: 11fb 7c3d 901a 713e f8c5 823d 3bcc a43e
00000080: 0b47 2bbf 26ac 993d d835 95be 8064 c8be
00000090: be2d 9e3e c125 303e c508 813e 2754 cfbe
000000a0: 555f 433e 132f 23be ab4d c2bc e43f 0f3e
000000b0: 07de 423e 1597 37be b189 41be 0d68 4b3e
000000c0: 7fee f03d 4d34 a63e 82f1 f0bd 387d 8a39
000000d0: ed9a 593e d8f0 a9b9 439e 663d d802 64be
000000e0: 586a 67bd 0bbf 87be b015 01bf 51ca 0c3d
000000f0: f424 9bbe ffe9 c9bd 4aa9 03bf e76d dfbc
00000100: 03e3 d13e dcd1 ce3e f0ad abbd b2de 05be
00000110: 55cd 433d d093 17bd c574 e63c 43db d23d
00000120: 3c6b 06bd 0f78 7dbe 07a6 bebd 5a19 dabe
00000130: 42d8 3c3c a648 a0be c2e7 253e 7d6c fb3d
00000140: 4fc9 d13d 3c2a c0bb 7a63 7b3e d43c c2bd
00000150: c189 30bf e43d 53be fad1 7cbe fae6 253d
00000160: 4799 343d 6b32 ed3c 4798 ae3d b863 85bd
00000170: c777 503e 0b3f 003e 8a87 543e 8a61 e03d
00000180: 9044 41be 15a5 5ebe 3730 a93e 426c 33bf
00000190: bfcb 84bd 8524 a53d 83d5 52bd 760c 523e
000001a0: 7fc8 c8bd c1de 383e b0bc 0abe 3d6f 41bd
000001b0: 8b9b 82be 6957 94bd 1a57 943d 753f b83d
000001c0: 8246 633d 310d 0b3c db02 233d 6635 e13d
000001d0: eb36 313e cb7a 073a 9af2 85be d747 0bbe
000001e0: a062 bd3e 5144 ac3d be6c 36be de84 9dbe
000001f0: 5afa 833d 2d34 33be e674 0dbe a2d1 773e
00000200: 8dd8 803d b6d9 aebe ba0c 123e 1c8c 8abe
00000210: e849 f7bd afbf 033d 0e77 613c 52aa 74be
00000220: b918 9fbd af33 d83c 28db 583e e94f 163e
00000230: 35a7 dabd a711 333d e302 3fbe 00d6 613d
00000240: 939c a5bd 8f78 f4be d5ea 27bc 21fe aa3c
00000250: 981c 313d d56e 3fbe 347b 8a3c 35f2 68be
00000260: 0b03 253d e9b1 173b d5d3 e33d d73b 10be
00000270: 8fef 82be e2af 883e fb04 59bc 45dc 9d3d
00000280: 50b8 603e 3b98 1fbc 03d8 853e 95b5 07bf
00000290: 691a 593e 4cf1 a6bd 9b98 bd3d 5491 8d3d
000002a0: b5c7 b33d 8ed0 91bd 1299 e03e b68a 0bbe
000002b0: 5417 ee3e 5bc9 5bbe de4a 6fbe 37a5 c03e
000002c0: cc37 16bd c835 54be d17f 63be 5923 66bd
000002d0: f4fe 77bd 7d96 23be 6b1b e13d 38f0 91bd
000002e0: ca7d c0bd 4f28 b13d 4802 ba3d 05ab 983e
000002f0: c0cb efbe 98b7 4f3e 40b1 21bc 872d 7e3d
00000300: fe19 babd 7cd0 e5be 7ee8 f6bc 29ae 5c3e
00000310: fc37 033e e0b8 023f bde9 56bf d51f aa3e
00000320: b856 913d 5e24 83bd ca7e 2a3e 46e0 453d
00000330: 220c a73e 7d3b 5bbd 13d4 873d de77 2f3e
00000340: 9924 93be acaf a03e 5dad 7c3e 7401 8c3c
00000350: a340 8e3e 83d3 2b3d 3a4c 923e 3198 ef3d
00000360: 414c b9be e4e2 4abe 933b 97be e007 803d
00000370: 5196 14be 0ba5 723e 9101 f7bb 165e 963e
00000380: 263c 41bd c644 dc3c c068 843d 668f d8bc
00000390: 5e1b 8abd 30ca a03e 172e fe3d 2db0 cf3d
000003a0: b604 6abe 7b07 dabd 8d18 14bd dc0b 153e
000003b0: 0122 343e 29b1 b13c a4a6 db3d f53f b8be
000003c0: e627 b83d 707d b73e 31d3 fd3e b306 153e
000003d0: ad12 673e 3434 273c 1877 9e3e 0848 2a3c
000003e0: d89c 04be c634 093c fbed 883d c903 dabe
000003f0: a0ef b6bd 30a5 19bf b5df e03e d60d 6bbe
0.09293735 -0.027022116 -0.1703544 -0.18593085 -0.09728001 0.05408127 -0.033874042 0.12150571
-0.06323506 0.2109771 -0.23487489 0.15812257 -0.5065076 -0.12430098 -0.19872892 0.085639834
0.27750942 -0.13815516 -0.09025424 0.07483162 -0.32908058 0.10404704 -0.29817978 0.14111337
0.014655157 -0.21487775 -0.09257018 0.18539985 0.061762873 0.23545289 0.06385416 0.32187065
-0.6690528 0.07503538 -0.29142642 -0.39139175 0.30894274 0.17201902 0.25202003 -0.4049389
0.19079335 -0.15935926 -0.023718676 0.13989216 0.19030009 -0.17928727 -0.18900181 0.19863911
0.117642395 0.32461777 -0.11764814 0.00026414706 0.21250506 -0.00032413634 0.056303274 -0.2226671
-0.0564979 -0.26512942 -0.5042372 0.03437263 -0.3030163 -0.09859084 -0.5143019 -0.027274085
0.4099351 0.40394485 -0.08382785 -0.13073233 0.04780324 -0.0370062 0.028131852 0.10295727
-0.03281711 -0.2475283 -0.09309011 -0.42597467 0.011526169 -0.31305426 0.1620169 0.12276552
0.10243475 -0.0058644097 0.24549666 -0.09484258 -0.68960196 -0.20629078 -0.24689475 0.04050348
0.04409149 0.028954705 0.08525138 -0.065131605 0.20358191 0.12524049 0.20754829 0.10956104
-0.18873811 -0.21742661 0.33044598 -0.70087063 -0.06484174 0.08063606 -0.051473152 0.20512566
-0.098038666 0.18053724 -0.13548541 -0.047225226 -0.25509295 -0.07243235 0.07243176 0.089964785
0.055487163 0.008487032 0.039797645 0.10996513 0.17306106 0.0005168139 -0.26161653 -0.13601623
0.36989307 0.08411468 -0.1781492 -0.30765432 0.06444235 -0.17500372 -0.13814124 0.24201062
0.06291304 -0.34150475 0.14262667 -0.2706002 -0.120746434 0.032165226 0.013761295 -0.23893097
-0.07768387 0.026391832 0.21177351 0.14678921 -0.106764235 0.043718006 -0.18653445 0.055135727
-0.08086505 -0.4774823 -0.010248859 0.020873131 0.04324016 -0.18694623 0.016904451 -0.22748645
0.040286105 0.0023146814 0.11124388 -0.14085327 -0.25573394 0.26696688 -0.013245816 0.07708029
0.2194531 -0.009740884 0.26141366 -0.5301145 0.21201481 -0.081514925 0.09257623 0.06912485
0.087783255 -0.07119857 0.43866783 -0.13627133 0.46502173 -0.2146353 -0.23368403 0.3762605
-0.036674306 -0.20723641 -0.22216727 -0.056186054 -0.060545877 -0.15975375 0.10991558 -0.07125896
-0.09398992 0.086502664 0.09082466 0.29817978 -0.46835136 0.20284879 -0.00986892 0.062055137
-0.09086989 -0.44885623 -0.030140158 0.21550812 0.12814325 0.51063347 -0.83950406 0.3322741
0.070966184 -0.06403421 0.16649929 0.048309587 0.32626444 -0.05352353 0.06632247 0.1713557
-0.2873886 0.31384027 0.24675508 0.017090537 0.2778369 0.04194976 0.2857378 0.1169895
-0.3619099 -0.19813114 -0.2953764 0.06251502 -0.14510466 0.23695771 -0.0075380285 0.29368657
-0.047176503 0.026888262 0.06465292 -0.026435565 -0.06743501 0.31404257 0.12411135 0.10141025
-0.2285336 -0.10645958 -0.036156226 0.14555305 0.17591096 0.021690922 0.107251436 -0.35986295
0.08991985 0.3583789 0.4957519 0.14553337 0.22565718 0.010205317 0.30950236 0.01039315
-0.12950456 0.008374399 0.06686016 -0.42581013 -0.089324236 -0.6001768 0.43920675 -0.22954497
