Project/Ming_Jiang_1016239_Gengcong_Yan_1009903_Project/Part2/trained agents/td3_bc/HalfCheetahBulletEnv-v0_TD3_BC_9_1638388626_td3_bc.pth (torch, 898095 bytes, 16 tensors)

l1.weight f4 [256, 32]
0	0x3cc2a4e1	0.023760261
1	0xbc738b1b	-0.014864708
2	0x3d5edd2f	0.054410156
3	0x3e4bd388	0.19904912
4	0x3e1e9dab	0.15489833
5	0xbec3c682	-0.38237387
6	0xbe95f4d8	-0.29288363
7	0xbebeff21	-0.37304023
8	0x3c8921d4	0.016739763
9	0x3eca02d2	0.39455277
10	0x3e5f8d29	0.21831192
11	0x3bc6bb58	0.0060648136
12	0x3e620d6e	0.22075436
13	0x3beefb0e	0.0072931116
14	0xbe26ca2f	-0.16288064
15	0xbeac8cad	-0.33701077
16	0xbde78687	-0.11304956
17	0xbed6b01e	-0.41931242
18	0xbee0baa7	-0.43892404
19	0x3df0ee07	0.1176415
20	0x3ea91427	0.33023188
21	0x3c300f7f	0.010745882
22	0xbd90f36f	-0.07077681
23	0xbdcfdd6c	-0.10149655
24	0xbde85f73	-0.113463305
25	0xbe138ec9	-0.14409937
26	0x3e896573	0.26835212
27	0xbee68e93	-0.4503065
28	0xbe881abb	-0.26582894
29	0x3e9b948c	0.3038677
30	0xbe460f2c	-0.19341725
31	0x3d91bfbd	0.07116649
32	0x3ec86aaa	0.39143878
33	0xbdf8200e	-0.12115489
34	0xbd23ee3a	-0.040022112
35	0x3e8d9ab5	0.27657095
36	0xbe0575e4	-0.13033253
37	0x3daec844	0.085342914
38	0xbd6d790c	-0.057976767
39	0x3f538585	0.8262561
40	0x3eaa369c	0.3324479
41	0xbd11ea35	-0.035623748
42	0x3e89c539	0.2690828
43	0x3d028454	0.03186448
44	0x3c79458e	0.015214337
45	0x3d963af1	0.07335461
46	0x3e2b657a	0.16737929
47	0xbe0d7232	-0.13813093
48	0xbe867e53	-0.26268253
49	0xbe68f400	-0.22749329
50	0xbf15233f	-0.58256906
51	0xbee49a00	-0.44648743
52	0x3e92faba	0.28706914
53	0x3bda6c35	0.0066657313
54	0xbc8189a1	-0.015812697
55	0x3d71f782	0.059073932
56	0x3c668b7c	0.014071342
57	0xbdb6a69c	-0.08918497
58	0x3b9b639b	0.0047420985
59	0x3d9b2d8e	0.07577048
60	0x3c899434	0.016794302
61	0xbfaf14d9	-1.3678237
62	0x3f8f550d	1.119783
63	0xbd687464	-0.056751624
64	0x3bfe2114	0.007755408
65	0xbe0e4c40	-0.13896275
66	0x3e9d4d6b	0.30723128
67	0x3eee1b88	0.4650538
68	0xbd37df42	-0.04489065
69	0x3ec59e1e	0.38597196
70	0xbea731a2	-0.32655054
71	0x3e87c0d6	0.2651431
72	0xbe432bc7	-0.19059668
73	0xbecaaf0e	-0.3958668
74	0xbea14831	-0.3150039
75	0xbd5f1260	-0.054460883
76	0xbe0d53cd	-0.13801499
77	0x3d035759	0.032065723
78	0xbc163436	-0.0091677215
79	0xbc134265	-0.008987998
80	0x3dc26502	0.09491922
81	0x3d6a28c0	0.05716777
82	0x3e79a1a0	0.24378061
83	0x3e25b3e2	0.16181901
84	0xbf29786c	-0.66199374
85	0x3e64c164	0.22339398
86	0x3d2b4a43	0.04181887
87	0x3ce29f74	0.027663924
88	0x3da0e88b	0.07856854
89	0x3dfc75a7	0.12327128
90	0xbd959060	-0.07302928
91	0xbdb21149	-0.08694703
92	0x3c975932	0.018475149
93	0x3ab90489	0.0014115731
94	0xbdf6eb31	-0.12056578
95	0x3d1ce48b	0.038303893
96	0x3e99a7b3	0.30010757
97	0x3d8918e1	0.066941984
98	0xbd7419ce	-0.05959492
99	0xbee35cea	-0.44406825
100	0xbdbfa322	-0.09357287
101	0xbeb300eb	-0.34961638
102	0xbbad2d9f	-0.0052849795
103	0xbec2b940	-0.3803196
104	0x3e1bd6b5	0.15218623
105	0x3edc45fd	0.43022147
106	0xbe8ec3dc	-0.27883804
107	0x3ec7f258	0.3905208
108	0x3f053f3d	0.5204962
109	0x3e0452b4	0.12922174
110	0x3e0bb78c	0.13644236
111	0x3eb5e1c1	0.355238
112	0x3e9775a1	0.2958193
113	0x3e934463	0.28763112
114	0x3cba002f	0.022705166
115	0xbc83e362	-0.016099636
116	0xbe801688	-0.2501719
117	0xbe0c3748	-0.13692963
118	0x3eb3aaaf	0.3509116
119	0xbd369c38	-0.044582576
120	0x3cce498c	0.025181554
121	0x3dce0968	0.10060388
122	0xbd49d88b	-0.049278777
123	0x3cf50c03	0.029912954
124	0xbf23832f	-0.63872045
125	0xbe96c19f	-0.29444596
126	0x3f238415	0.63873416
127	0xbe913898	-0.2836349
128	0x3f377c08	0.7167363
129	0xbd818461	-0.063240774
130	0xbdb3170b	-0.087446295
131	0xbe0e9d17	-0.13927113
132	0x3c04e5d3	0.008111435
133	0xbdb851fe	-0.09000014
134	0xbb29b0b4	-0.0025892677
135	0xbe872d30	-0.26401663
136	0xbea40c81	-0.3204079
137	0x3e3fe405	0.18739326
138	0xbe87f32e	-0.2655272
139	0x3dfb5cf5	0.122735895
140	0x3ed06bf0	0.4070735
141	0x3dc1dcc0	0.09465933
142	0xbe688094	-0.22705299
143	0x3c82621e	0.015915927
144	0x3e133139	0.14374246
145	0x3da406fc	0.08009145
146	0xbe512ede	-0.20428035
147	0x3cd96bca	0.026540656
148	0x3da5c44b	0.080940805
149	0xbde7f410	-0.11325848
150	0x3e82c491	0.25540593
151	0x3e0a857e	0.13527486
152	0xbdb52b34	-0.08846131
153	0xbc9bcc1d	-0.019018227
154	0x3d888222	0.06665446
155	0x3c861832	0.01636896
156	0x3ea11214	0.31459105
157	0x3e52fa1c	0.20603222
158	0x39fb9d05	0.0004799144
159	0x3dbd4bf7	0.09243005
160	0xbdb9db55	-0.090750374
161	0x3ada64d0	0.0016662125
162	0x3ef7ea71	0.48421052
163	0x3e7c88ca	0.24661556
164	0xbe305972	-0.1722162
165	0x3a3f0046	0.00072861125
166	0xbefd0d67	-0.49424288
167	0xbdffbf9f	-0.12487721
168	0x3cf4913f	0.029854415
169	0xbd331a8f	-0.0437265
170	0xbe10588b	-0.14096276
171	0xbbabc18d	-0.005241579
172	0xbdd45cc1	-0.10369254
173	0xbc6da8c7	-0.014505572
174	0x3ed9b12d	0.42517987
175	0x3dada2a4	0.08478287
176	0xbdbfa610	-0.09357846
177	0xbd8bff45	-0.06835798
178	0xbed45033	-0.41467437
179	0xbdf8d201	-0.1214943
180	0xbc8807ae	-0.016605224
181	0xbce49556	-0.02790324
182	0x3df9d95b	0.121996604
183	0xbec54545	-0.3852941
184	0xbcf88ea2	-0.03034145
185	0xbc79744f	-0.015225484
186	0x3cf02180	0.029312849
187	0xbbb2c229	-0.0054552746
188	0xbd0e60c5	-0.034760255
189	0x3ce75c46	0.028242242
190	0x3d23af8a	0.03996233
191	0xbcd919e6	-0.026501607
192	0xbdcdcde7	-0.100490384
193	0x3df19575	0.11796085
194	0x3da89918	0.08232325
195	0xbe11347a	-0.14180174
196	0x3e2425dd	0.16030069
197	0x3ecf5849	0.40497044
198	0xbe691e65	-0.22765501
199	0x3f2b9f7c	0.6704023
200	0x3ef206c6	0.47270793
201	0xbcdb9fd2	-0.026809607
202	0xbe9bddca	-0.3044265
203	0x3e04907d	0.12945743
204	0xbee904f6	-0.45511597
205	0xbe70dcc5	-0.23521717
206	0xbe129344	-0.1431399
207	0x3e4a54db	0.19758932
208	0xbe95c851	-0.29254392
209	0xbd14c5d3	-0.036321472
210	0xbe7c1eff	-0.24621199
211	0xbe409c3b	-0.18809597
212	0xbd98b1c6	-0.074557826
213	0x3d59a4e5	0.05313577
214	0xbc936c47	-0.017995967
215	0xbcd8ccf5	-0.026464919
216	0xbe4b1158	-0.19830835
217	0xbd34ef11	-0.044173304
218	0x3d14f53d	0.03636669
219	0x3deed815	0.11662308
220	0xbe54e3d2	-0.20790032
221	0xbc1b9596	-0.009496113
222	0xbd77d104	-0.060502067
223	0xbdab9594	-0.08378139
224	0x3e19da51	0.15024687
225	0x3e057d28	0.13036025
226	0x3e766b38	0.24064338
227	0x3edb1f79	0.4279745
228	0xbe1e92fd	-0.15485759
229	0x3da09e8d	0.07842741
230	0xbe2ae06c	-0.16687173
231	0xbd081f28	-0.033232838
232	0x3e0919e9	0.1338879
233	0xbc198e6e	-0.009372337
234	0xbe076936	-0.13223729
235	0xbebbda7d	-0.3669013
236	0xbe28525b	-0.16437666
237	0xbde13dc2	-0.109981075
238	0xbeb8c564	-0.36088097
239	0xbe8d37bb	-0.2758158
240	0xbd6837d7	-0.056693878
241	0xbc88f057	-0.016716165
242	0xbea20ce6	-0.31650466
243	0x3e9cb29b	0.30605015
244	0xbe9eccdd	-0.31015673
245	0x3dd23661	0.10264278
246	0xbe5da4be	-0.21644875
247	0x3eba4983	0.3638421
248	0xbeb3abf0	-0.35092115
249	0xbdf9465f	-0.12171625
250	0x3e5b5925	0.21420725
251	0xbf360822	-0.7110616
252	0xbea9fa51	-0.3319879
253	0x3e8695f1	0.2628627
254	0xbe99f377	-0.3006856
255	0x3e0f35c1	0.13985349

l1.bias f4 [256]
0	0xbee0a2d7	-0.43874237
1	0xbe8e0848	-0.27740693
2	0x3e6631e2	0.22479966
3	0xbeaaf144	-0.33387196
4	0xbe5bcc2a	-0.21464601
5	0x3f221bb5	0.6332353
6	0xbe9340c4	-0.2876035
7	0x3dfa4838	0.12220806
8	0x3ea69504	0.32535565
9	0xbea4e234	-0.3220383
10	0x3e169259	0.14704265
11	0xbed2c8a4	-0.41168702
12	0x3f13cf71	0.57738405
13	0xbf3e86c9	-0.74424416
14	0xbd88a1fc	-0.06671521
15	0x3ecb0b5f	0.39657113
16	0x3f07821c	0.52932906
17	0x3e9d2342	0.30690962
18	0xbf5b50fd	-0.85670453
19	0x3f011d0f	0.50434965
20	0x3edd376a	0.4320634
21	0x3edff30b	0.43740115
22	0x3e88fc10	0.26754808
23	0xbefdd8c9	-0.49579456
24	0xbf2389be	-0.6388205
25	0x3da6e1b2	0.08148517
26	0xbd369324	-0.044573918
27	0x3bcc9913	0.006243834
28	0x3e5bcce5	0.2146488
29	0xbd8f757a	-0.07004829
30	0xbe3d6beb	-0.18498199
31	0xbe778ca0	-0.24174738
32	0x3ea1954c	0.31559217
33	0xbd5fc0f6	-0.05462738
34	0x3e0e695b	0.13907377
35	0xbf33dd15	-0.7025922
36	0xbefe651e	-0.4968652
37	0x3daca408	0.08429724
38	0x3ef1aa37	0.47200176
39	0xbdf6950a	-0.12040146
40	0xbf568b02	-0.8380586
41	0x3dd0ffe0	0.10205054
42	0xbead7430	-0.33877707
43	0x3ee9a078	0.4563024
44	0x3e602c01	0.21891786
45	0x3ee8b421	0.45449927
46	0x3dcd360a	0.10020073
47	0x3f1b2128	0.6059747
48	0x3e91ec60	0.28500652
49	0xbef662e2	-0.48122317
50	0x3e362ac6	0.17789754
51	0xbeba5e27	-0.36399958
52	0x3e55c859	0.20877208
53	0xbf12f130	-0.5739927
54	0xbeb8b647	-0.36076567
55	0x3ce70915	0.028202573
56	0x3eef8ab1	0.467855
57	0xbdcf967e	-0.10136126
58	0x3edfc9ef	0.4370875
59	0xbd6940f6	-0.056946717
60	0x3ea791ec	0.32728517
61	0xbd3a2c37	-0.045452323
62	0xbf2ffacb	-0.68742055
63	0x3e3fb4bb	0.18721287
64	0x3f0f7448	0.56036806
65	0xbea6b3f7	-0.32559177
66	0xbefbc0a1	-0.49170402
67	0x3e56ea6a	0.2098786
68	0x3ec64db3	0.38731155
69	0xbee506ac	-0.44731653
70	0xbf295cb4	-0.6615708
71	0x3e224ce6	0.15849647
72	0xbec8b295	-0.39198747
73	0xbe8cb941	-0.27485088
74	0x3ef97379	0.4872091
75	0x3c96b89f	0.018398581
76	0xbf25285b	-0.645147
77	0xbec90558	-0.3926189
78	0x3eb02287	0.34401342
79	0x3e1eb1fa	0.1549758
80	0x3f1dbe4d	0.616185
81	0xbe36ceaf	-0.17852281
82	0x3ea6ed4d	0.3260292
83	0x3ebeb1d3	0.37245044
84	0x3dcab3a7	0.09897547
85	0xbf506425	-0.8140281
86	0xbf1d4109	-0.6142736
87	0xbf0a1826	-0.539431
88	0x3ebf3640	0.37346077
89	0xbf81024a	-1.0078824
90	0x3e33fd86	0.1757718
91	0x3e9d15b7	0.3068063
92	0xbe920ab7	-0.285238
93	0xbf44e53e	-0.76912296
94	0xbee08a0e	-0.43855327
95	0x3ea5457f	0.32279584
96	0x3b5f860e	0.0034107002
97	0x3d988dd0	0.074489236
98	0x3e3194d2	0.17341927
99	0x3e68f15f	0.22748326
100	0x3ee97148	0.4559424
101	0x3e2fa225	0.17151697
102	0xbeb9b266	-0.3626892
103	0xbdcb871b	-0.09937879
104	0xbdcb73a6	-0.099341676
105	0xbe2cae85	-0.16863449
106	0xbeeba621	-0.46025184
107	0x3effd942	0.49970442
108	0xbf13e247	-0.57767147
109	0xbf330e01	-0.69943243
110	0xbf02ec7b	-0.5114209
111	0x3d3ba7a8	0.045814186
112	0x3d2a4d9a	0.041577913
113	0xbe2b8dbc	-0.16753286
114	0x3f0d7424	0.5525534
115	0x3d248e46	0.040174745
116	0xbe676d50	-0.22600293
117	0xbcc787db	-0.024356773
118	0xbefb2be4	-0.49056923
119	0x3ca083ef	0.01959416
120	0xbe22ffe0	-0.15917921
121	0xbea9d7d9	-0.3317249
122	0xbf7ba09b	-0.9829194
123	0xbf26e7f6	-0.65197694
124	0xbe87a681	-0.2649422
125	0x3eb31bd4	0.3498217
126	0xbf82e789	-1.0226909
127	0xbf01d012	-0.50708115
128	0x3f044e6a	0.5168215
129	0xbebbaf13	-0.3665701
130	0xbed8fa8e	-0.42378658
131	0xbd4badf3	-0.049726438
132	0x3e9489e7	0.2901146
133	0xbefcca58	-0.49373126
134	0x3ea9c961	0.33161452
135	0xbe977f4d	-0.2958931
136	0x3ee204d8	0.4414432
137	0xbe16eca2	-0.14738706
138	0x3db3ea3f	0.08784913
139	0xbdd475b7	-0.10374015
140	0x3e850ada	0.25984842
141	0xbe9ae953	-0.30256137
142	0xbf11553c	-0.5677068
143	0xbf4d7c84	-0.8026812
144	0x3e90f820	0.28314304
145	0xbe23699f	-0.1595826
146	0x3d11eaad	0.035624195
147	0xbcc23451	-0.023706587
148	0xbdd08756	-0.10182063
149	0xbf1674fb	-0.5877225
150	0xbe9f87bf	-0.31158254
151	0xbdd95261	-0.10611416
152	0xbf0761a7	-0.5288338
153	0xbea87d5f	-0.3290815
154	0x3f052f44	0.52025247
155	0xbd8b2d59	-0.06795759
156	0xbf1c3667	-0.6102051
157	0x3e9f1313	0.3106924
158	0xbec36eac	-0.38170373
159	0x3d27998f	0.04091793
160	0xbe973790	-0.29534578
161	0x3eb88fc4	0.36047184
162	0xbdb6f27e	-0.089329705
163	0x3f16bd26	0.5888237
164	0xbecd6408	-0.4011538
165	0xbcbded7d	-0.023184532
166	0x3f11d936	0.5697206
167	0xbef133d5	-0.47109857
168	0xbebe9adf	-0.37227532
169	0x3f04cb51	0.51872736
170	0x3f115fe8	0.56786966
171	0x3ec5a42f	0.38601825
172	0x3ee292fa	0.4425276
173	0xbf0899f8	-0.5335994
174	0xbe5f0aa0	-0.21781397
175	0xbef0a22b	-0.46998724
176	0xbf43094c	-0.7618606
177	0xbe0910c3	-0.133853
178	0xbea766d6	-0.32695645
179	0x3e8842d5	0.2661349
180	0xbf23be4c	-0.63962245
181	0x3e79f45b	0.2440962
182	0xbed05795	-0.4069182
183	0xbf40c307	-0.7529759
184	0xbe596c15	-0.21232636
185	0xbe8be153	-0.27320346
186	0xbebff4a7	-0.37491342
187	0x3eef545a	0.46744043
188	0xbd6aa504	-0.057286277
189	0xbf49300a	-0.78588927
190	0xbe5a0f4c	-0.21294898
191	0xbeeb5fb9	-0.45971468
192	0xbeabbbda	-0.33541757
193	0xbe3e52d7	-0.18586288
194	0xbe7ac9b2	-0.24491003
195	0x3e8a1bfa	0.2697447
196	0x3e3f74f8	0.18696964
197	0xbddc35d2	-0.10752453
198	0x3e9dea2a	0.30842716
199	0x3a10ef3f	0.00055288145
200	0x3eb11d99	0.34592894
201	0xbeb8422e	-0.3598799
202	0xbe03317d	-0.12811847
203	0x3e66d1f9	0.22541036
204	0xbe41e66a	-0.18935552
205	0x3df1ac64	0.11800459
206	0xbe9c2fe2	-0.30505282
207	0x3ea7665a	0.32695276
208	0xbeee99a6	-0.466016
209	0xbe47c65d	-0.19509263
210	0xbf1ca24a	-0.61185133
211	0xbef821c0	-0.4846325
212	0x3d71748b	0.058949035
213	0x3d66022e	0.056154422
214	0x3f386d29	0.72041565
215	0x3e638b25	0.22221048
216	0x3ec8c337	0.39211437
217	0xbf2efc28	-0.6835351
218	0xbe0fcd9e	-0.1404328
219	0x3ecbe1f3	0.39820823
220	0xbdcd0d4f	-0.10012304
221	0xbd142500	-0.0361681
222	0x3ed42c0c	0.41439855
223	0xbe3ff4f3	-0.18745784
224	0xbf3a1a78	-0.7269664
225	0xbea9fb79	-0.3319967
226	0xbeed92d7	-0.46401092
227	0xbea5e9da	-0.32404977
228	0xbef9c452	-0.48782593
229	0xbd529bc2	-0.051418073
230	0xbf0f3766	-0.55943906
231	0x3d16d31b	0.03682242
232	0xbeaffa67	-0.3437073
233	0x3f224be6	0.6339706
234	0x3f09afb3	0.5378372
235	0xbec7d787	-0.39031622
236	0xbe83c893	-0.25738963
237	0x3bf806b4	0.0075691584
238	0xbd0b9a01	-0.034082416
239	0x3eb3f808	0.3515017
240	0xbe438a2d	-0.19095679
241	0xbef12d3e	-0.4710483
242	0x3c0e8890	0.008699551
243	0x3ee7cce0	0.45273495
244	0xbe9ce39a	-0.30642396
245	0xbf9f0e6b	-1.2426275
246	0x3eea357b	0.45743927
247	0x3f0a57bc	0.5404012
248	0xbc2f23b0	-0.010689661
249	0xbf07b778	-0.53014326
250	0xbd2f90e1	-0.042862777
251	0x3e9f3a03	0.31098947
252	0xbecf0bff	-0.4043884
253	0xbe4799eb	-0.19492309
254	0x3eb4f2f9	0.35341623
255	0x3e9a0aa8	0.30086255

l2.weight f4 [256, 256]
0	0xbe23664a	-0.15956989
1	0xbef6a9ad	-0.48176327
2	0x3df322b3	0.11871853
3	0x3d2ea395	0.042636473
4	0xbd11f18e	-0.035630755
5	0xbe47c438	-0.19508445
6	0xbe9c6275	-0.30543867
7	0x3d3f6fab	0.046737354
8	0xbdaa2749	-0.08308274
9	0x3eca7e1e	0.39549345
10	0xbe96e53a	-0.2947176
11	0xbdcbc526	-0.099497125
12	0xbd52cea1	-0.051466588
13	0x3db42134	0.087953955
14	0xbaf11fe2	-0.0018396343
15	0xbdf249a6	-0.118304536
16	0xbd67aaa0	-0.056559205
17	0xbda80700	-0.0820446
18	0xbd7464bd	-0.059666384
19	0xbe124f77	-0.14288126
20	0xbdcd88f2	-0.10035886
21	0x3d997781	0.07493497
22	0xbd4e8e3f	-0.050428625
23	0xbe4a4de9	-0.19756283
24	0x3ddc9d9a	0.107722476
25	0xbe02b07f	-0.1276264
26	0xbe3c8909	-0.1841165
27	0x3ec0152c	0.37516153
28	0x3e1a50e5	0.15069921
29	0xbe99bf77	-0.3002889
30	0xbe2f70b6	-0.1713284
31	0x3d579be9	0.052638922
32	0xbe7a389a	-0.24435654
33	0x3e6f6886	0.23379716
34	0x3dd22059	0.10260076
35	0x3dbed08b	0.0931712
36	0xbedc2dcb	-0.43003687
37	0x3d8d3742	0.06895305
38	0x3dbc120f	0.09183132
39	0x3e767550	0.24068189
40	0xbda1d817	-0.07902544
41	0xbd8397b0	-0.064254165
42	0x3d450aa9	0.04810587
43	0x3e058fe0	0.13043165
44	0x3e169949	0.14706911
45	0xbddecf5c	-0.108793944
46	0xbe051f2e	-0.13000175
47	0xba26de3d	-0.00063655135
48	0x3d84e8a1	0.06489683
49	0xbe4ae4ad	-0.19813795
50	0xbde7b1b2	-0.113131896
51	0x3e402e4c	0.18767661
52	0x3e2574d1	0.16157843
53	0xbe0d3b82	-0.13792232
54	0x3e861f79	0.26195887
55	0xbdd55d7c	-0.10418221
56	0xbe69165d	-0.22762437
57	0x3d905acf	0.0704857
58	0xbe9a1eaf	-0.30101535
59	0xbec52254	-0.38502753
60	0x3ed0e13b	0.40796837
61	0x3eeeff05	0.4667894
62	0x3dbb2a09	0.09138877
63	0x3e661340	0.22468281
64	0xbdf7a4d8	-0.12091988
65	0x3e5472de	0.20746943
66	0x3d1b4fb2	0.0379178
67	0xbe23a998	-0.15982664
68	0x3dfc8337	0.12329715
69	0xbe547b4f	-0.20750163
70	0xbdbe064f	-0.09278547
71	0x3da99433	0.0828022
72	0xbdd164a5	-0.102242745
73	0x3e971c90	0.2951398
74	0xbe293b4a	-0.16526523
75	0xbe84e62d	-0.2595686
76	0xbe7b1abe	-0.2452192
77	0xbee55d22	-0.44797617
78	0xbe9966c4	-0.29961216
79	0xbd9113ad	-0.07083831
80	0x3da9eead	0.08297477
81	0x3f1de82f	0.6168241
82	0x3cb984d7	0.02264635
83	0xbde7a371	-0.11310471
84	0x3ee38048	0.44433808
85	0xbf005dfc	-0.5014341
86	0x3dad5403	0.084632896
87	0xbdbefec9	-0.0932594
88	0xbd108f31	-0.035292808
89	0xbc4ac386	-0.012375718
90	0x3e47f565	0.19527204
91	0x3c8553db	0.016275337
92	0x3de70e04	0.1128197
93	0x3f2eaec3	0.68235415
94	0xbe5ee6f8	-0.21767795
95	0x3c4119e9	0.011785963
96	0xbe08bb64	-0.13352734
97	0xbddf52da	-0.109044746
98	0x3dc2ed74	0.09517947
99	0xbc890164	-0.016724296
100	0xbdc6a6c2	-0.09699775
101	0xbdd2c554	-0.102915436
102	0x3ccfe5af	0.025378076
103	0x3ec32507	0.38114187
104	0x3c7db298	0.015484475
105	0xbd04b2dc	-0.032397136
106	0xbf2fe34e	-0.68706214
107	0xbe1d5f46	-0.15368375
108	0xbe193f73	-0.1496561
109	0xbeb06986	-0.34455508
110	0x3ecb3141	0.39686015
111	0x3ca3c3d6	0.019990843
112	0xbd23ceb2	-0.039992042
113	0x3e8d966f	0.27653834
114	0xbe6e5e5c	-0.23278183
115	0x3e72aa16	0.23697695
116	0x3e2fa502	0.17152789
117	0x3dbae2f5	0.0912532
118	0xbe58a821	-0.21157886
119	0xbd2413f1	-0.04005808
120	0xbf05f31d	-0.52324086
121	0x3ea9dde6	0.33177108
122	0xbf06db62	-0.526785
123	0xbdfbee00	-0.12301254
124	0x3e4bf4ba	0.19917575
125	0x3cce43f9	0.025178896
126	0xbdec5976	-0.11540501
127	0x3c12094b	0.008913348
128	0xbcf34f18	-0.0297008
129	0xbeec745d	-0.46182528
130	0xbdc93cc7	-0.098260455
131	0xbe5c925c	-0.21540207
132	0xbd16f333	-0.036853027
133	0x3e86b08c	0.2630657
134	0xbcf2a880	-0.029621363
135	0x3e7e1876	0.24814019
136	0xbeccd3e4	-0.4000541
137	0x3e447926	0.1918684
138	0x3b5b50f9	0.0033465012
139	0x3e0005ab	0.12502162
140	0x3bd4a15d	0.0064889626
141	0xbe339fca	-0.17541423
142	0x3dfc6bf4	0.12325278
143	0x3d49384f	0.049125966
144	0xbd0b3864	-0.033989325
145	0xbd80f0dd	-0.06295941
146	0xbdb9677a	-0.0905294
147	0x3e6c0beb	0.23051421
148	0x3eafaf28	0.3431332
149	0xbe36d9e2	-0.17856553
150	0x3eaea690	0.34111452
151	0x3d2586e7	0.040411856
152	0xbea4be2b	-0.32176337
153	0xbd52f8a6	-0.05150666
154	0xbe851a63	-0.25996694
155	0xbe656270	-0.22400832
156	0x3d8c7115	0.06857506
157	0x3ee0ea7b	0.43928894
158	0x3bd6a2be	0.006550162
159	0x3c69385e	0.01423463
160	0x3e235447	0.15950118
161	0x3dcb6e55	0.099331535
162	0x3b66b551	0.0035203288
163	0xbd3f7f3f	-0.04675221
164	0x3e3da27a	0.18519011
165	0x3e057a0c	0.13034838
166	0xbde1ab58	-0.11019009
167	0x3e95dc4e	0.29269642
168	0x3e6f6670	0.2337892
169	0xbf055062	-0.5207578
170	0xbdd4e6e5	-0.10395602
171	0x3d0ec572	0.034856267
172	0xbe650071	-0.2236345
173	0x3cac2f38	0.02101861
174	0xbad1d80a	-0.0016009819
175	0xbde4f095	-0.111787
176	0xbe97d6d0	-0.29656076
177	0xbdcb64fc	-0.099313706
178	0x3e917972	0.28412968
179	0xbca503d2	-0.020143423
180	0x3ddb7cb5	0.10717145
181	0x3e82bd8f	0.25535247
182	0xbe046d8b	-0.12932412
183	0x3e499f73	0.19689731
184	0x3e86e243	0.263445
185	0x3e3b96ba	0.18319216
186	0x3e8aa4b4	0.27078784
187	0xbdca096c	-0.09865078
188	0x3f0a0073	0.53906935
189	0xbe93c1ce	-0.288588
190	0xbc82f533	-0.01598606
191	0xbec312b0	-0.38100195
192	0x3daba5ac	0.08381209
193	0x3efdeaed	0.49593297
194	0xbd9771ee	-0.07394777
195	0x3e528007	0.20556651
196	0xbdd86b36	-0.10567324
197	0xbd8be88a	-0.06831463
198	0xbe14700e	-0.1449587
199	0xbe79319e	-0.24335334
200	0x3e35ee43	0.17766671
201	0x3d99a3ca	0.075019434
202	0x3d6b4932	0.05744285
203	0x3e0fc17e	0.14038655
204	0x3d9b07d0	0.075698495
205	0x3e53f7d0	0.20700002
206	0x3e052714	0.13003188
207	0x3e0fe7ee	0.14053318
208	0xbe90cceb	-0.2828134
209	0xbc92b691	-0.01790932
210	0xbda4ca15	-0.080463566
211	0x3e8ea92d	0.27863446
212	0x3ed9210d	0.42408028
213	0x3de4170a	0.11137207
214	0xbd1bc8bb	-0.03803323
215	0xbe633956	-0.2218984
216	0x3e9fb950	0.3119607
217	0x3e76abb1	0.24088933
218	0xbcf83c49	-0.030302184
219	0x3e6c3fba	0.23071185
220	0x3e4dd148	0.20099366
221	0xbe353a40	-0.17698002
222	0xbe1f5749	-0.1556064
223	0xbd9075ab	-0.070536934
224	0xbe817a4f	-0.25288627
225	0xbd9984bc	-0.0749602
226	0x3e461be6	0.1934658
227	0x3e8fbcb2	0.2807365
228	0x3d52dd30	0.051480472
229	0xbddc80aa	-0.10766728
230	0x3eaa22c4	0.3322965
231	0x3e6c9930	0.23105311
232	0xbd8b5485	-0.0680323
233	0xbdc73ed3	-0.0972878
234	0xbe884996	-0.26618642
235	0x3e2b2d66	0.16716537
236	0xbce1ee6b	-0.027579507
237	0x3d8a3f0f	0.06750309
238	0xbb43aee6	-0.0029858886
239	0x3e8adf68	0.2712357
240	0xbd64b7eb	-0.05583946
241	0x3dd20e34	0.10256615
242	0x3d95ee0c	0.073207945
243	0xbe153e41	-0.14574529
244	0x3e18df9b	0.14929049
245	0x3d219b35	0.039454658
246	0xbdc0639b	-0.09393998
247	0x3d0cf772	0.03441567
248	0x3b9d0e42	0.0047929594
249	0xbde121ca	-0.10992773
250	0xbe084517	-0.13307606
251	0x3d0c085f	0.03418767
252	0x3efd7cca	0.4950927
253	0x3d462e7d	0.04838418
254	0xbc1bda62	-0.009512516
255	0xbcf835e2	-0.03029913

l2.bias f4 [256]
0	0xbf1c30d0	-0.6101198
1	0x3f3e188d	0.7425621
2	0xbec10691	-0.37700322
3	0x3f2c34da	0.67268145
4	0x3f44af34	0.7682984
5	0xbc7f0532	-0.0155652035
6	0x3f2645e4	0.64950395
7	0x3eef2860	0.4671049
8	0xbeb31895	-0.34979692
9	0x3f26ed20	0.65205574
10	0x3f2d1423	0.6760885
11	0xbf0213b7	-0.5081133
12	0x3f0428d1	0.5162478
13	0x3f276ce5	0.65400535
14	0xbe7962ea	-0.24354139
15	0xbeaa2288	-0.3322947
16	0x3f34ea99	0.7067047
17	0xbe6ba747	-0.2301303
18	0xbeaf223f	-0.34205815
19	0x3f0024e9	0.5005632
20	0x3f01cbe3	0.5070173
21	0xbf0d6f92	-0.5524837
22	0x3b9bc3c0	0.00475356
23	0xbe979161	-0.29603103
24	0x3f30b413	0.6902477
25	0x3f027fa5	0.5097602
26	0x3f0f2cc2	0.5592767
27	0xbd923637	-0.07139247
28	0xbe9c393b	-0.30512413
29	0x3f258da7	0.6466927
30	0xbddffd03	-0.1093693
31	0xbe664e85	-0.2249089
32	0x3f17a896	0.59241617
33	0x3f03bb8a	0.51458037
34	0xbe6d7994	-0.2319091
35	0x3f375a27	0.71621937
36	0xbed17ed6	-0.4091708
37	0x3f354f12	0.70823777
38	0xbda174de	-0.07883619
39	0x3f402edb	0.75071496
40	0xbe1db421	-0.15400745
41	0xbe47c0ab	-0.19507091
42	0xbe8cf6c0	-0.27532005
43	0x3effe4c7	0.4997923
44	0x3f3d2cd8	0.7389655
45	0xbefc07f5	-0.4922482
46	0xbe66e189	-0.22546972
47	0x3f2c45d0	0.67294025
48	0x3f1284b5	0.57233745
49	0xbe8c9fe8	-0.2746575
50	0x3ef05b7f	0.46944806
51	0xbe492bd7	-0.1964563
52	0xbed14cc7	-0.4087889
53	0x3f093022	0.5358907
54	0x3f36859b	0.71297616
55	0xbcf6b3c6	-0.03011502
56	0x3f3228c3	0.6959345
57	0x3f100194	0.5625241
58	0x3f2a2d62	0.664755
59	0x3f2ea654	0.68222547
60	0xbf15bc12	-0.584901
61	0xbee6713c	-0.45008266
62	0x3ef44bb8	0.4771402
63	0xbeeda1c4	-0.4641248
64	0x3f2a1d2e	0.66450775
65	0xbf15bf3b	-0.5849492
66	0xbf1304c2	-0.57429135
67	0x3f1ab91b	0.604387
68	0xbecaf78f	-0.39641997
69	0x3eecf006	0.46276873
70	0x3f2b1b36	0.66838396
71	0xbf0f63e4	-0.56011796
72	0xbf2aa138	-0.6665225
73	0x3f2a8b50	0.66618824
74	0xbeebfe9f	-0.46092698
75	0xbf2a606d	-0.66553384
76	0x3f21c168	0.6318574
77	0xbf019a99	-0.5062652
78	0xbe7d578c	-0.24740428
79	0xbe954d6e	-0.29160637
80	0x3f3357e2	0.70055974
81	0x3f2d08e1	0.67591673
82	0xbebd80cb	-0.37012324
83	0x3f342bad	0.70379144
84	0x3f305e13	0.68893546
85	0x3f32b3e9	0.6980577
86	0x3f338835	0.7012971
87	0xbf11fe58	-0.5702872
88	0xbeb8bc8f	-0.3608136
89	0x3f221352	0.6331073
90	0x3f2bdf77	0.67137855
91	0xbea7a741	-0.32744792
92	0xbefa8d05	-0.48935714
93	0xbd106a0e	-0.03525739
94	0xbef1f684	-0.4725839
95	0xbe5b6103	-0.21423726
96	0xbd9bd200	-0.07608414
97	0xbef2349e	-0.4730577
98	0xbee3205d	-0.4436063
99	0x3ee43454	0.44571173
100	0x3f0caf4c	0.5495498
101	0xbe640762	-0.22268441
102	0xbea7f2ea	-0.32802516
103	0xbe8d18c0	-0.27557945
104	0xbe2c4e87	-0.16826831
105	0xbe6e34ab	-0.23262279
106	0xbe70a72b	-0.2350127
107	0x3f26fc18	0.65228415
108	0xbe8dc241	-0.27687266
109	0x3f2ce5f8	0.67538404
110	0xbecc54de	-0.399085
111	0xbf1ec28f	-0.6201562
112	0x3f2c9cd4	0.674268
113	0x3f2d25ec	0.6763599
114	0x3f2614ff	0.6487579
115	0xbe72f226	-0.23725185
116	0xbea0fe8f	-0.31444213
117	0x3f06eeed	0.5270832
118	0x3f1b08ec	0.6056049
119	0x3f11b05d	0.56909734
120	0xbf1d0019	-0.61328274
121	0xbe59fa4a	-0.21286884
122	0xbecf1aec	-0.40450227
123	0xbef03fe8	-0.46923757
124	0xbe37b897	-0.17941509
125	0x3f202839	0.62561375
126	0x3f2920e5	0.6606582
127	0x3f157e67	0.58396
128	0xbef8910d	-0.48548165
129	0x3f1643fd	0.5869749
130	0x3efb1257	0.4903743
131	0xbea6bae2	-0.32564455
132	0xbeec4eeb	-0.4615396
133	0x3f0e16ac	0.55503345
134	0xbda6852a	-0.08130868
135	0xbebd76db	-0.37004742
136	0x3f1f5f8c	0.6225517
137	0xbe8686f5	-0.2627484
138	0xbe0e2a1c	-0.13883251
139	0xbf0c4714	-0.54795957
140	0x3f39a6bb	0.72520036
141	0xbef46b3c	-0.47738063
142	0xbebee1d5	-0.3728167
143	0xbead48c2	-0.33844572
144	0x3f2b6f89	0.66967064
145	0xbe61fda4	-0.22069412
146	0x3f1eec5d	0.6207941
147	0x3f1a1f11	0.60203654
148	0x3f2c4bdb	0.67303246
149	0x3f2d4986	0.6769031
150	0xbe0abd14	-0.1354869
151	0x3f0bcd42	0.54610074
152	0xbef11a36	-0.4709031
153	0xbe17d4e8	-0.14827311
154	0x3f259d9e	0.6469363
155	0x3f21464a	0.6299788
156	0x3f38a959	0.72133404
157	0xbe3d5f3a	-0.18493357
158	0x3f0d6ab4	0.5524094
159	0x3f2e9351	0.68193537
160	0xbf01b636	-0.50668657
161	0xbf3e69aa	-0.7437998
162	0xbebec5b3	-0.37260208
163	0x3ed4cef9	0.41564158
164	0xbecc4761	-0.39898208
165	0x3f151d33	0.5824768
166	0xbebcae2d	-0.36851636
167	0x3f38d6fa	0.7220303
168	0x3f2735c0	0.6531639
169	0xbead09d9	-0.33796576
170	0xbe12c452	-0.14332703
171	0xbea279c5	-0.31733528
172	0xbf042ef5	-0.5163415
173	0xbeb0cd65	-0.34531704
174	0x3f0a08b8	0.53919554
175	0xbe49ea95	-0.19718392
176	0x3f18eed4	0.5973942
177	0x3f2c1a61	0.6722775
178	0x3f2c0104	0.6718905
179	0xbed3bdd8	-0.41355777
180	0x3f25da2e	0.6478604
181	0xbe6e3bf4	-0.23265058
182	0xbe383019	-0.17987098
183	0x3f144814	0.5792248
184	0xbe2a5fb2	-0.16638067
185	0xbece404d	-0.40283433
186	0xbe6503e5	-0.22364767
187	0xbeaffb28	-0.34371305
188	0x3f2c800f	0.673829
189	0x3f052972	0.52016366
190	0xbedd7267	-0.43251345
191	0xbf029868	-0.51013803
192	0xbeb942ce	-0.3618378
193	0xbec4302e	-0.38318008
194	0x3f55a7ac	0.8345897
195	0x3f2707e0	0.6524639
196	0x3f34959d	0.7054079
197	0xbef2f17e	-0.4744987
198	0x3f2fe0cd	0.68702394
199	0xbe59c3b5	-0.21266063
200	0x3f2624ea	0.64900076
201	0xbeeba86c	-0.46026933
202	0xbec1bba8	-0.37838483
203	0x3f09b236	0.53787553
204	0x3f16b6a0	0.58872414
205	0x3f0b2b8b	0.54363316
206	0xbe03edd1	-0.12883689
207	0xbe230ec1	-0.15923597
208	0xbee20fe9	-0.44152763
209	0x3f2682aa	0.6504313
210	0x3f0b7e70	0.54489803
211	0xbf3718f1	-0.7152243
212	0x3f37c897	0.7179045
213	0xbe19a436	-0.15004048
214	0x3f2cd581	0.6751328
215	0xbe8b93fc	-0.2726134
216	0x3f317677	0.6932139
217	0x3f25f4df	0.6482677
218	0xbe48ed83	-0.19621854
219	0x3d42ee67	0.04759064
220	0x3f1c7b00	0.61125183
221	0xbf08b63f	-0.53403085
222	0x3f2049ad	0.6261242
223	0xbe816272	-0.2527042
224	0x3f3bdddb	0.733854
225	0xbea18e24	-0.31553757
226	0xbe82984e	-0.25506824
227	0xbf1e81be	-0.6191672
228	0x3f19d02d	0.60083276
229	0x3f27e552	0.6558429
230	0x3f20eb84	0.6285937
231	0x3f3234f5	0.69612056
232	0xbeb50b37	-0.3536012
233	0xbe2a5272	-0.16633013
234	0x3f222b03	0.6334688
235	0xbdad52a2	-0.084630266
236	0xbedb39e4	-0.42817605
237	0xbe192389	-0.14954962
238	0x3f2e939f	0.68194
239	0x3f3266af	0.6968793
240	0xbe725aec	-0.23667496
241	0x3f16c98e	0.589013
242	0x3f1ca282	0.6118547
243	0x3f47225e	0.77786815
244	0xbea97dd2	-0.33103806
245	0x3f38cde7	0.7218918
246	0x3f3500b7	0.70704216
247	0xbe2b91c1	-0.1675482
248	0xbe3d9b75	-0.18516333
249	0xbe786323	-0.24256568
250	0xbe62541a	-0.22102395
251	0x3f29e9a4	0.6637213
252	0xbe87446b	-0.26419386
253	0x3f3e2799	0.7427917
254	0xbee315a3	-0.44352445
255	0x3bb0754d	0.005385077

l3.weight f4 [1, 256]
0	0xbf599ec3	-0.85007876
1	0x3e807ec0	0.25096703
2	0xbf7a3cc7	-0.9774899
3	0x3f1ae8fd	0.6051176
4	0x3e5dfe3f	0.21679018
5	0xbf71d3a1	-0.94463545
6	0x3ea41e5d	0.32054415
7	0x3ed4ffca	0.41601402
8	0xbfb59d44	-1.4188619
9	0x3e7d0003	0.24707036
10	0x3e8df561	0.27726272
11	0xbf739bb9	-0.9515949
12	0x3e7ad0b7	0.24493681
13	0x3e4628b5	0.19351466
14	0xbfa5e0d9	-1.2959243
15	0xbf5610b6	-0.8361925
16	0x3e146848	0.14492905
17	0xbf71efb4	-0.9450638
18	0xbf62719e	-0.88454616
19	0x3ec47edb	0.38378033
20	0x3ef5008a	0.47851974
21	0xbfaf4fd5	-1.3696238
22	0xbcf7e549	-0.030260699
23	0xbf86f2e3	-1.0542873
24	0x3e823c1c	0.25436485
25	0x3eb6923e	0.3565845
26	0x3e690d9e	0.22759101
27	0xbf845942	-1.0339739
28	0xbf7ce91e	-0.9879321
29	0x3eb64b1f	0.35604188
30	0xbf30a9d0	-0.69009113
31	0xbf33c624	-0.70224214
32	0x3ea80b57	0.32821152
33	0x3ee250fa	0.44202405
34	0xbf3d2e7c	-0.73899055
35	0x3f0b95ab	0.5452525
36	0xbf7b642e	-0.9819974
37	0x3e5467bb	0.20742695
38	0x3b593c3b	0.0033147472
39	0x3e40e048	0.18835557
40	0xbf6a2764	-0.91466355
41	0xbf46624b	-0.77493733
42	0xbf7f525d	-0.9973505
43	0x3ef67e0f	0.4814305
44	0x3eb25c70	0.3483615
45	0xbf40d9bf	-0.75332254
46	0xbf67f4f4	-0.90608144
47	0x3e94bc7a	0.29050046
48	0x3ed9d2da	0.4254368
49	0xbf9039ee	-1.1267679
50	0x3ec5d4cc	0.38638914
51	0xbf5b4121	-0.85646254
52	0xbf8bffd1	-1.0937444
53	0x3e8fcc37	0.2808549
54	0x3e4174b6	0.18892178
55	0xbf1f2a21	-0.6217366
56	0x3e87be14	0.26512206
57	0x3f6a4435	0.91510326
58	0x3e6c030b	0.23048036
59	0x3e8c147d	0.2735938
60	0xbf50ba15	-0.8153394
61	0xbf2182ca	-0.63090193
62	0x3ed2dd99	0.4118469
63	0xbf4661cc	-0.77492976
64	0x3e7b1350	0.24519086
65	0xbf3e447a	-0.74323237
66	0xbf57162b	-0.840182
67	0x3e8c3f73	0.27392158
68	0xbf5c748a	-0.86115324
69	0x3ed7b7cd	0.42132416
70	0x3e4c3541	0.1994219
71	0xbf7eb8aa	-0.99500525
72	0xbf48428e	-0.78226554
73	0x3e838c1c	0.25692832
74	0xbf8e8067	-1.1132935
75	0xbfa71fae	-1.3056543
76	0x3ee563a7	0.4480259
77	0xbf792624	-0.9732382
78	0xbf05f239	-0.5232273
79	0xbfa73c21	-1.3065225
80	0x3e70c20b	0.23511522
81	0x3e7a6c29	0.24455322
82	0xbf2bb59a	-0.67073977
83	0x3ea01dc5	0.31272712
84	0x3e5a3b2f	0.21311639
85	0x3ecb7343	0.39736375
86	0x3df62fda	0.12020846
87	0xbf9ab378	-1.208602
88	0xbf8da625	-1.1066328
89	0x3e4550da	0.19269124
90	0x3f3ae640	0.73007584
91	0xbf37e80d	-0.71838456
92	0xbfa4e112	-1.2881186
93	0xbf881ccb	-1.0633787
94	0xbf4b0f2b	-0.7932002
95	0xbf49455f	-0.78621477
96	0x3cbfd2cb	0.023415944
97	0xbf937ad1	-1.1521856
98	0xbf622c9d	-0.88349324
99	0x3eea4556	0.45756024
100	0x3ebc2c88	0.36752725
101	0xbf317ce2	-0.6933118
102	0xbf10e37f	-0.5659713
103	0xbec1b4c0	-0.37833214
104	0xbfa77cec	-1.3084998
105	0xbf8eb513	-1.114901
106	0xbfb66b10	-1.4251423
107	0x3e927a44	0.28608906
108	0xbecebb01	-0.40377048
109	0x3e261b83	0.16221432
110	0xbefb556a	-0.49088603
111	0xbf8edc65	-1.1161009
112	0x3eb5e324	0.35524857
113	0x3dd7e72d	0.1054214
114	0x3e3e1238	0.18561637
115	0xbfd6fd24	-1.6796002
116	0xbf936366	-1.1514709
117	0x3eaa2a72	0.33235508
118	0x3ec6b796	0.3881194
119	0x3e983018	0.29724193
120	0xbf179be7	-0.59222263
121	0xbeefad32	-0.46811825
122	0xbf798dbd	-0.974819
123	0xbf37bc1f	-0.71771425
124	0xbf2cd87e	-0.6751784
125	0x3eb47936	0.35248727
126	0x3e6274fc	0.22114938
127	0x3eb9246e	0.36160606
128	0xbf35cb0b	-0.71012944
129	0x3ec3a196	0.38209218
130	0x3ee35c66	0.44406432
131	0xbf5d6ad6	-0.86491144
132	0xbf10fbb6	-0.5663408
133	0x3ec394f0	0.38199568
134	0xbf730195	-0.9492429
135	0xbf33efca	-0.70287764
136	0x3e26f9eb	0.16306274
137	0xbf97bacd	-1.1853882
138	0xbf9b9aea	-1.2156651
139	0xbf29b5f6	-0.66293275
140	0x3e8bf567	0.27335665
141	0xbf0c2a31	-0.5475188
142	0xbf26adfc	-0.6510923
143	0xbf895698	-1.0729551
144	0x3e3cc071	0.18432786
145	0xbf8a4ab7	-1.0804051
146	0x3e9d1bf0	0.30685377
147	0x3e3e3533	0.18574981
148	0x3ec0318a	0.37537795
149	0x3e5536ba	0.20821658
150	0xc054153c	-3.313796
151	0x3eec7274	0.4618107
152	0xbf4159c5	-0.755276
153	0xbf062bed	-0.52410775
154	0x3ea0b478	0.31387687
155	0x3ed5ab95	0.4173247
156	0x3da3c734	0.07996979
157	0xbf2c1d37	-0.6723208
158	0x3f7ac35f	0.9795436
159	0x3e79b468	0.24385226
160	0xbf812a94	-1.0091119
161	0xbf3e82b4	-0.7441819
162	0xbf61bcb4	-0.88178563
163	0x3ec31ba4	0.38107026
164	0xbf84fb18	-1.0389128
165	0x3f3572f7	0.7087855
166	0xbf73d677	-0.9524912
167	0x3e93bb18	0.2885368
168	0x3e47e001	0.19519044
169	0xbf486074	-0.78272176
170	0xbf294a5a	-0.66129076
171	0xbf880f48	-1.0629663
172	0xbf9f0520	-1.2423439
173	0xbf5c6761	-0.86095244
174	0x3eca612d	0.39527264
175	0xbf3b2f0c	-0.7311866
176	0x3ec15aec	0.3776468
177	0x3e53ec30	0.20695567
178	0x3e6bc7a7	0.2302538
179	0xbf8c58cd	-1.09646
180	0x3e9aaf8d	0.3021206
181	0xbf375489	-0.71613365
182	0xbf661935	-0.8988221
183	0x3ee0988d	0.43866387
184	0xbf2b1482	-0.6682817
185	0xbf844485	-1.033341
186	0xbf62acba	-0.8854481
187	0xbf85b493	-1.0445732
188	0x3edee117	0.43531105
189	0x3f561a15	0.8363355
190	0xbf90e9f6	-1.1321399
191	0xbf85aa01	-1.0442506
192	0xbf84bebb	-1.0370706
193	0xbf26e06d	-0.65186197
194	0x3ead4ca7	0.33847544
195	0x3e977252	0.29579407
196	0x3e8db11a	0.2767418
197	0xbf26f7de	-0.65221965
198	0x3e26b45f	0.16279744
199	0xbf8211e6	-1.0161712
200	0x3eab17cd	0.33416596
201	0xbf6e5bfe	-0.9310912
202	0xbf6e0edb	-0.9299142
203	0x3f6cf765	0.92564994
204	0x3e74d1b6	0.23908123
205	0x3eb7b51e	0.3588037
206	0xbf9d052d	-1.2267205
207	0xbf825514	-1.0182214
208	0xbf44d00e	-0.76879966
209	0x3e8d5db6	0.27610558
210	0x3ecb9db6	0.3976876
211	0xbf0859a5	-0.53261787
212	0x3e84b2d5	0.25917688
213	0xbf8c72ab	-1.0972494
214	0x3eacf660	0.3378172
215	0xbee6d62b	-0.45085272
216	0x3e9985fd	0.29985037
217	0x3ea49e35	0.32151952
218	0xbf54d792	-0.83141434
219	0xbf9865f3	-1.1906112
220	0x3eb1c514	0.3472067
221	0xbf45aad5	-0.77213794
222	0x3e820a3b	0.2539843
223	0xbf4fdd1e	-0.81196773
224	0x3f1803b3	0.59380645
225	0xbf411b70	-0.7543249
226	0xbf8e7273	-1.1128677
227	0xbf45dc8c	-0.7728965
228	0x3ec5361e	0.3851785
229	0x3e9b9bb4	0.3039223
230	0x3f19691e	0.5992602
231	0x3e9882d1	0.29787305
232	0xbf21b07d	-0.63159925
233	0xbf7ab90c	-0.9793861
234	0x3ea75870	0.3268466
235	0xbf968ed9	-1.1762344
236	0xbf94ce81	-1.162552
237	0xbf01f67b	-0.50766724
238	0x3e52043e	0.20509431
239	0x3e667cc8	0.22508538
240	0xbf38a8b2	-0.7213241
241	0x3e73a817	0.2379459
242	0x3ef3d9d3	0.47627124
243	0x3e95e9ee	0.29280037
244	0xbf1b6296	-0.60697305
245	0x3e450e87	0.19243823
246	0x3e96b778	0.2943685
247	0xbfa2cb8b	-1.2718366
248	0xbf83fbea	-1.0311253
249	0xbf76fa27	-0.9647545
250	0xbf485f03	-0.78269976
251	0x3f0185d6	0.5059484
252	0xbf6bc737	-0.9210085
253	0x3f7a674b	0.9781386
254	0xbf61a5aa	-0.8814341
255	0xbf806e89	-1.0033733

l4.weight f4 [256, 32]
0	0xbe19f90e	-0.15036413
1	0x3c6d71fe	0.01449251
2	0x3d9956d0	0.07487261
3	0xbd2ad4bf	-0.041706797
4	0x3d0df76f	0.0346598
5	0xbda92529	-0.08259041
6	0xbd313cf1	-0.04327101
7	0x3ebeab6c	0.3724016
8	0xbe8488b9	-0.2588556
9	0xbe0afbeb	-0.13572662
10	0xbf585f8c	-0.8452079
11	0xbdb227a3	-0.08698966
12	0x3d72375d	0.05913483
13	0xbdee690c	-0.1164113
14	0xbe35a5a2	-0.17738965
15	0x3cba88f1	0.022770377
16	0x3deafb17	0.11473673
17	0xbd9a2a38	-0.07527584
18	0xbe2bceea	-0.1677815
19	0xbde84834	-0.11341897
20	0xbdd4caa6	-0.103902146
21	0x3e7ae521	0.24501468
22	0xbeb8f3ca	-0.36123496
23	0xbd7c3ca9	-0.061581288
24	0x3e550c11	0.20805384
25	0xbeacb6e4	-0.33733284
26	0xbe382b27	-0.17985211
27	0xbd94c2aa	-0.07263692
28	0xbd6406bb	-0.05567048
29	0xbdebfd43	-0.11522915
30	0xbd008534	-0.031377032
31	0x3c819d3e	0.01582205
32	0x3d06c47d	0.03290223
33	0x3e054473	0.13014393
34	0x3cccef3d	0.025016421
35	0xbef923dc	-0.4866017
36	0xbdb56512	-0.08857168
37	0x3d1c5442	0.038166292
38	0xbe4e597a	-0.2015132
39	0xbf1e9178	-0.6194072
40	0x3e8fb876	0.2807042
41	0xbe0e5d42	-0.13902763
42	0xbdfe5109	-0.124178
43	0xbec36127	-0.3816006
44	0xbed6af09	-0.41930416
45	0xbda55c50	-0.08074248
46	0xbeaf179f	-0.3419771
47	0x3bbfa0a4	0.0058480073
48	0xbde90e1b	-0.113796435
49	0x3e660fea	0.22467008
50	0x3f0297b2	0.5101272
51	0x3e541210	0.20710015
52	0xbda3f542	-0.080057636
53	0xbddb8cc6	-0.1072021
54	0x3dc8310e	0.097749814
55	0xbdccd025	-0.10000638
56	0xbc3ad742	-0.0114038605
57	0xbd6806ee	-0.056647234
58	0x3d9d3ba4	0.07677391
59	0x3ce7fb83	0.028318172
60	0xbd524b0c	-0.0513411
61	0xbdf51240	-0.119663715
62	0x3e3dc14c	0.18530768
63	0x3e6cdfb5	0.23132212
64	0xbdea9429	-0.114540406
65	0xbe314070	-0.17309737
66	0xbe3932ac	-0.18085736
67	0x3d9fca01	0.07802201
68	0xbd8d0791	-0.06886209
69	0xbe814d6a	-0.25254375
70	0x3d4939ca	0.049127378
71	0xbe7dd449	-0.24788012
72	0xbe81b275	-0.25331464
73	0xbea8b8fb	-0.3295363
74	0xbed775fe	-0.42082208
75	0x3dac99ef	0.08427798
76	0x3e864d36	0.26230782
77	0x3c816010	0.015792876
78	0x3ede2379	0.43386438
79	0xbdd1c077	-0.10241788
80	0x3f03bbcb	0.51458424
81	0xbe8b98b5	-0.27264944
82	0x3f14d601	0.58139044
83	0xbd0841e3	-0.03326596
84	0xbd82f7a7	-0.06394892
85	0x3e701ed3	0.23449259
86	0xbc6d2c72	-0.014475929
87	0x3ea36f13	0.3192068
88	0x3dc3c364	0.09558752
89	0x3e021662	0.12703851
90	0x3cb06cc5	0.02153624
91	0x3e3a9e18	0.1822437
92	0x3cc0102e	0.023445215
93	0x3eb0c23b	0.34523186
94	0x3be81de7	0.0070836428
95	0x3d80a11a	0.06280728
96	0xbea372dd	-0.3192357
97	0x3e21cb10	0.15800118
98	0x3cd4e2fc	0.02598714
99	0x3e81b0a1	0.2533007
100	0xbe1de4b3	-0.15419273
101	0xbdfbbdd4	-0.12292066
102	0xbdc797e5	-0.097457685
103	0xbe04fd07	-0.12987147
104	0x3ddb093b	0.1069512
105	0x3d597324	0.053088322
106	0x3f7e76f9	0.9940029
107	0x3eb8cbe5	0.3609306
108	0x3ed03269	0.4066346
109	0x3dff57f8	0.124679506
110	0x3d2236f6	0.039603196
111	0xbe7b5f0c	-0.24547976
112	0xbc94b398	-0.018152043
113	0xbe4ee53e	-0.20204636
114	0x3e183c88	0.14866841
115	0xbd023d58	-0.031796783
116	0xbda10d1b	-0.07863828
117	0xbd9b99c5	-0.075976886
118	0xbd99e8af	-0.07515084
119	0x3c7e7a9d	0.015532163
120	0x3b18b348	0.002330022
121	0x3bc6853a	0.0060583623
122	0xbf1b70ab	-0.6071879
123	0x3f8ad256	1.084544
124	0xbdcd1422	-0.10013606
125	0xbdc69f67	-0.09698372
126	0x3d9f3a36	0.07774775
127	0xbd6d78b6	-0.057976447
128	0x3d4eecbb	0.050518733
129	0xbe345847	-0.176118
130	0xbd699993	-0.057031225
131	0x3d94fd5f	0.07274889
132	0xbd829cbd	-0.06377552
133	0x3dd7befc	0.10534474
134	0x3e054e1e	0.1301808
135	0xbef6a574	-0.48173106
136	0x3e1bd88c	0.15219325
137	0x3e1a1f1a	0.15050927
138	0x3e3ad72e	0.18246147
139	0xbe3b39c4	-0.18283755
140	0xbd981239	-0.07425351
141	0x3ef72d48	0.48276734
142	0x3e383db1	0.17992283
143	0x3d959bac	0.07305083
144	0x3e2742cd	0.16334076
145	0xbe6604d9	-0.22462787
146	0x3f148449	0.5801435
147	0xbec48478	-0.38382316
148	0xbc462356	-0.012093386
149	0x3e9ea8fe	0.30988306
150	0xbe189fd3	-0.14904718
151	0x3d173faf	0.036925968
152	0xbea80069	-0.32812813
153	0x3e212071	0.15735032
154	0x3d87b019	0.06625385
155	0xbd25c396	-0.04046973
156	0x3e9dd657	0.3082759
157	0xbbee40cd	-0.0072709084
158	0xbeac910b	-0.3370441
159	0xbe7d6cc9	-0.2474853
160	0x3dc29254	0.09500566
161	0xbdc49b24	-0.09599903
162	0x3b89730c	0.004194623
163	0xbe3f1a07	-0.18662272
164	0x3d1344ca	0.035954274
165	0xbdb0fec5	-0.086423434
166	0x3bcfa7d7	0.0063371467
167	0x3ebf4e80	0.37364578
168	0x3e8ededc	0.27904403
169	0x3d5874a1	0.0528456
170	0x3efaa041	0.4895039
171	0x38da3040	0.00010404037
172	0x3e4fdad0	0.20298314
173	0x3d5887d3	0.052863907
174	0xbc637631	-0.0138831595
175	0xbed25d68	-0.41086888
176	0xbdec97d1	-0.11552394
177	0xbcc06c12	-0.023489032
178	0xbda87a82	-0.082264915
179	0x3d9e790d	0.07737932
180	0xbd493d24	-0.049130574
181	0x3dc98623	0.09840038
182	0x3e3b6695	0.1830085
183	0xbbf1a454	-0.0073743258
184	0xbe0dfe66	-0.13866577
185	0xbd183c5b	-0.037166934
186	0x3d36d54d	0.044637013
187	0xbdcdef37	-0.10055392
188	0x3d8623d6	0.06549804
189	0xbf6b0a82	-0.9181291
190	0x3f394338	0.7236819
191	0x3e188d79	0.14897718
192	0x3ebecff7	0.3726804
193	0xbd3fcd6e	-0.046826772
194	0xbddd65ad	-0.10810409
195	0x3d0ccd91	0.03437573
196	0xbe1dbf14	-0.15404922
197	0x3e9a0ad8	0.30086398
198	0x3e648b7f	0.22318839
199	0x3f17816b	0.5918185
200	0x3ca152dd	0.019692833
201	0xbe48c13e	-0.19604966
202	0xbf215ab5	-0.6302903
203	0xbc94f099	-0.018181132
204	0x3e6a7db6	0.22899517
205	0xbe8cc2b9	-0.27492312
206	0xbe953753	-0.29143772
207	0x3d96ebbd	0.07369182
208	0xbe5af338	-0.21381843
209	0x3d8fb56f	0.070170276
210	0xbcd3d0f4	-0.025856473
211	0x3c27ef40	0.010249913
212	0x3d873d7f	0.06603526
213	0x3f022543	0.50838107
214	0x3da3b68c	0.079938024
215	0x3e00652f	0.12538598
216	0x3e535361	0.20637275
217	0x3ccbc0bc	0.024872176
218	0xbdef8e48	-0.1169706
219	0x3d6cd99e	0.057824723
220	0xbd4ae4d6	-0.04953464
221	0xbd9ae517	-0.07563227
222	0x3d213867	0.03936043
223	0xbb019a3e	-0.0019775773
224	0xbe4a9a8f	-0.19785522
225	0xbbfda762	-0.007740901
226	0xbe33cd4a	-0.1755878
227	0xbe185bf5	-0.14878829
228	0x3e1b3d05	0.15159996
229	0xbba87c77	-0.0051417905
230	0x3e2d0e5d	0.1690001
231	0xbdfb5218	-0.122715175
232	0x3f01938f	0.5061578
233	0x3f24f1a7	0.6443123
234	0xbe2edd8d	-0.17076702
235	0x3ec79393	0.38979778
236	0x3e148e2e	0.14507362
237	0x3d75ec10	0.06003958
238	0xbe0cf462	-0.137651
239	0xbe69f836	-0.22848591
240	0xbd4be0e2	-0.04977501
241	0xbeb3cacf	-0.35115668
242	0x3e98fcbd	0.29880324
243	0xbdd051ee	-0.10171877
244	0xbd5bda8b	-0.053675216
245	0xbd8dac67	-0.06917649
246	0x3a6c827f	0.0009022131
247	0xbd1209cb	-0.03565387
248	0xbd3f3479	-0.0466809
249	0x3d199944	0.03749968
250	0x3ec640ed	0.3872141
251	0xbc36ef75	-0.011165489
252	0xbd2892d2	-0.041155644
253	0x3e071950	0.1319325
254	0x3d4b6bc8	0.049663335
255	0xbd607d38	-0.054806918

l4.bias f4 [256]
0	0xbd5e7192	-0.054307528
1	0xbf50accc	-0.8151367
2	0xbe98c916	-0.29840916
3	0xbdd8c40b	-0.10584267
4	0xbf19d586	-0.60091436
5	0xbf1d65fd	-0.61483747
6	0xbf015c84	-0.5053179
7	0xbf9427be	-1.1574628
8	0x3ea4eb75	0.3221089
9	0xbede099b	-0.43366703
10	0xbc724995	-0.014788051
11	0x3e807ac3	0.2509366
12	0xbf12c4e5	-0.5733169
13	0xbf8c36c0	-1.0954208
14	0xbf15191c	-0.5824144
15	0xbf4907c2	-0.7852746
16	0xbf91fa7a	-1.1404564
17	0x3ec0cbdf	0.3765554
18	0x3e302d83	0.17204861
19	0x3d343c65	0.04400291
20	0xbf06fe3d	-0.52731687
21	0xbd723dbc	-0.059140906
22	0xbea97e97	-0.33104393
23	0x3f2d4a1f	0.67691225
24	0xbecbcd71	-0.39805177
25	0x3ee50511	0.44730428
26	0xbf17fc3d	-0.5936926
27	0x3ea46259	0.32106283
28	0xbead64f8	-0.33866096
29	0xbebb630a	-0.36598998
30	0x3c1e2df0	0.009654507
31	0xbe10005d	-0.14062639
32	0xbe9f2406	-0.3108217
33	0xbe6dba04	-0.2321549
34	0x3f13e904	0.5777743
35	0xbe724f30	-0.2366302
36	0x3ee014a9	0.43765762
37	0xbe849cca	-0.2590087
38	0xbf90a9a6	-1.1301773
39	0xbe992c00	-0.29916382
40	0x3ecc6422	0.39920145
41	0xbe6bd857	-0.23031746
42	0xbe0839da	-0.13303319
43	0x3ef1b44e	0.47207874
44	0x3e00080c	0.1250307
45	0x3e4027a2	0.18765119
46	0x3e8f84e0	0.28031063
47	0x3df013f4	0.11722556
48	0x3e901ec2	0.28148466
49	0x3f0e075c	0.5547998
50	0x3ecbc3f4	0.39797938
51	0xbe89be87	-0.26903173
52	0x3f05ee06	0.5231632
53	0x3ef70e42	0.48253065
54	0xbf41eed8	-0.7575507
55	0x3e31d95d	0.17368074
56	0x3f062b0a	0.5240942
57	0x3ef0e543	0.47049913
58	0xbee28f2d	-0.4424986
59	0xbeef4eb5	-0.46739736
60	0xbf205276	-0.62625825
61	0x3ed09e0d	0.40745583
62	0x3c896f8d	0.016776824
63	0xbee2d9c5	-0.4430677
64	0xbe17e96b	-0.14835136
65	0x3ed77f3a	0.42089254
66	0x3e46cc73	0.19413929
67	0xbf06cf47	-0.5266003
68	0xbe53d8f7	-0.20688234
69	0xbec9c8c2	-0.3941098
70	0x3e8dc365	0.27688137
71	0x3eda03c2	0.42580992
72	0xbe62db87	-0.22154056
73	0x3ddd9246	0.10818915
74	0x3eef555a	0.46744806
75	0x3f23685f	0.6383113
76	0xbe9faabe	-0.31184953
77	0xbdc30f79	-0.095244355
78	0x3eeb4eb2	0.45958477
79	0xbf1aaf20	-0.6042347
80	0xbecb39a7	-0.39692423
81	0xbf05ce62	-0.5226804
82	0x3e81db23	0.253625
83	0xbdb2e2d9	-0.08734674
84	0x3e64cad5	0.22343
85	0x3e85da8e	0.26143306
86	0xbece674f	-0.40313193
87	0xbf4b26f1	-0.79356295
88	0xbe8592c0	-0.26088524
89	0x3ef17375	0.471584
90	0xbdc7f6b1	-0.097638495
91	0xbf124962	-0.57143223
92	0x3dcff9c5	0.10155062
93	0x3f190c38	0.5978427
94	0xbe2e9f11	-0.17052867
95	0x3e062433	0.13099746
96	0xbf098e43	-0.537327
97	0xbf18b59f	-0.5965213
98	0xbe59c16a	-0.21265188
99	0xbf1e92cc	-0.61942744
100	0xbe4f44fd	-0.2024116
101	0x3ec6552c	0.38736856
102	0x3e765e9b	0.24059527
103	0xbf82e4ca	-1.0226071
104	0xbc936fd3	-0.017997658
105	0xbeae4cf6	-0.34043092
106	0xbdb54fdc	-0.088531226
107	0x3ea23e7c	0.31688297
108	0x3ee05783	0.43816766
109	0x3ea5fcaf	0.32419345
110	0x3e41443d	0.18873687
111	0x3ebb6217	0.36598274
112	0xbdc8bf9f	-0.09802174
113	0xbed48c69	-0.41513374
114	0xbf197138	-0.59938383
115	0x3e332acf	0.17496799
116	0xbf5b8145	-0.85744125
117	0xbf01bcf6	-0.50678957
118	0xbf6c8c05	-0.9240115
119	0x3ed39963	0.41327962
120	0xbed1875e	-0.4092359
121	0xbedc65f1	-0.43046525
122	0xbef0be2b	-0.47020087
123	0xbe889ca6	-0.26682013
124	0xbe87e8da	-0.2654484
125	0xbf5477bf	-0.8299522
126	0xbdfe4ea6	-0.12417345
127	0x3e0e8886	0.13919267
128	0xbe90d869	-0.28290108
129	0x3ddf190a	0.10893448
130	0xbf039831	-0.514041
131	0xbe4a0967	-0.19730149
132	0xbf016ef9	-0.50559956
133	0xbeeec486	-0.4663431
134	0xbf3dc534	-0.74129033
135	0xbdb28dac	-0.08718428
136	0xbf15a7ec	-0.58459353
137	0xbdabd78a	-0.0839072
138	0xbeda5908	-0.4264605
139	0x3e4cadfe	0.19988248
140	0x3e965b20	0.29366398
141	0xbf09d796	-0.53844583
142	0xbea7b721	-0.32756904
143	0xbe29838c	-0.16554087
144	0x3e925718	0.28582072
145	0xbef0dc13	-0.47042903
146	0x3d841b58	0.06450528
147	0x3ee0e6b0	0.43926
148	0xbea1aa00	-0.31575012
149	0xbf4779d0	-0.77920246
150	0x3d33fdec	0.04394333
151	0xbf80d2c9	-1.0064327
152	0xbec00f75	-0.37511793
153	0xbf0b40bd	-0.5439566
154	0x3ea24cc4	0.31699193
155	0xbe9201ea	-0.28517085
156	0xbf095568	-0.53645945
157	0x3e4cac00	0.19987488
158	0xbebfcec8	-0.3746245
159	0x3e9bb8fb	0.30414566
160	0xbf2d5116	-0.6770185
161	0x3e0a7542	0.13521293
162	0x3da939ca	0.082629755
163	0xbcdf959a	-0.027293015
164	0x3e528fbc	0.20562643
165	0x3eba452c	0.363809
166	0x3e2d98a7	0.16952763
167	0xbf266d3c	-0.6501043
168	0xbd62b96c	-0.055352613
169	0x3f0c3ab4	0.54777074
170	0x3f0429b1	0.51626116
171	0xbcdaf0df	-0.026726184
172	0x3caf8e00	0.021430016
173	0x3ed8923a	0.42299062
174	0x3ef4fd2b	0.47849402
175	0xbed2d95c	-0.41181457
176	0xbd2cef28	-0.042220265
177	0xbe1aad56	-0.15105185
178	0xbf07cee2	-0.53050053
179	0x3eda95d3	0.42692432
180	0x3e58d874	0.2117632
181	0xbf009681	-0.5022965
182	0xbf5865da	-0.84530413
183	0x3e3279e8	0.17429316
184	0x3d98a39c	0.07453081
185	0xbefdcaf6	-0.4956891
186	0x3e2b0425	0.167008
187	0xbf16a0d5	-0.5883916
188	0x3f14b733	0.5809204
189	0xbf12f0ed	-0.57398874
190	0xbe4e867c	-0.20168489
191	0xbf6cd437	-0.92511314
192	0xbf090682	-0.53525555
193	0xbf46e64f	-0.77695173
194	0xbe2df827	-0.16989194
195	0xbf60b406	-0.87774694
196	0xbe9397d9	-0.28826788
197	0x3f134c3d	0.57538205
198	0xbefa31ea	-0.48866206
199	0xbeabe3fa	-0.3357237
200	0xbeedcf5b	-0.46447262
201	0xbed6cc1e	-0.41952604
202	0x3e349ba0	0.17637491
203	0x3e47b4a0	0.19502497
204	0x3d82c16e	0.0638455
205	0xbe5a9c36	-0.21348652
206	0xbf8945f2	-1.0724471
207	0x3ee7b515	0.45255342
208	0x3e772fcd	0.24139328
209	0xbe33c200	-0.17554474
210	0x3e4b3a16	0.19846377
211	0xbed62646	-0.41826075
212	0xbd4ca469	-0.04996148
213	0xbf06a9d7	-0.52602905
214	0xbe4b2457	-0.19838081
215	0x3e2cfd70	0.16893554
216	0xbe8082c3	-0.25099763
217	0x3ebf340e	0.37344402
218	0xbe843d92	-0.25828224
219	0x3db21e5f	0.08697199
220	0xbed760b7	-0.42065975
221	0xbe7a8f57	-0.24468742
222	0x3e423674	0.18966085
223	0x3ea7d62b	0.32780585
224	0x3d5b621a	0.053560354
225	0xbc8c7623	-0.017146176
226	0x3ef09b66	0.4699356
227	0xbec81986	-0.39081973
228	0x3e9ae0dc	0.3024968
229	0xbf2e2f12	-0.68040574
230	0xbe75054e	-0.23927805
231	0xbf6f3bae	-0.9345044
232	0xbeb81881	-0.35956195
233	0xbed6799c	-0.41889656
234	0x3e9dfd43	0.30857286
235	0xbf12e195	-0.5737546
236	0x3e24bf1c	0.16088527
237	0xbf095bd7	-0.5365576
238	0xbedacb83	-0.42733392
239	0xbf6c3f33	-0.92283934
240	0x3cff538a	0.031167764
241	0x3ebc41fa	0.36769086
242	0xba3e7f92	-0.0007266934
243	0xbe3023df	-0.17201184
244	0x3dd863fb	0.10565945
245	0xbebe09b4	-0.37116778
246	0xbde8eb14	-0.113729626
247	0x3e0d8fff	0.13824461
248	0x3ea8fd81	0.33005908
249	0xbe947a7d	-0.289997
250	0x3edcfe6f	0.43162867
251	0x3ede14bb	0.4337519
252	0xbf127a60	-0.5721798
253	0x3e0e0502	0.13869098
254	0x3eda0e0c	0.42588842
255	0x3edcf645	0.4315664
