Project/Ming_Jiang_1016239_Gengcong_Yan_1009903_Project/Part2/trained agents/td3_bc/HalfCheetahBulletEnv-v0_TD3_BC_4_1638387328_td3_bc.pth (torch, 898095 bytes, 16 tensors)

l1.weight f4 [256, 32]
00000000: d504 e93c e693 1dbe bdf0 9a3e 3660 413e
00000010: 813e 1b3e ec04 47be 3148 dbbe 58c2 86be
00000020: 4574 0b3e c248 99bb ac4c 68be ae5d 09bd
00000030: 9a21 36bd 9521 a0bd aa19 223d 3ce9 70be
00000040: 99b9 82bc 1d9c 09be 33a2 bdbe b7c4 1ebc
00000050: 7999 b4be fc39 cfbe 58ea 40be 9edb 043e
00000060: 3550 fcbe aeac 77be 9005 5ebd 6c28 d0bc
00000070: 12a3 ffbd e98c d6bd 71cc 763d 9130 433d
00000080: b44f 8abe 8a00 1e3c e10e a63d 04c6 aabe
00000090: 4c78 23be d867 99bd 48d6 bfbe 9448 6fbe
000000a0: 9064 f9bd c964 613b 4dff 3e3e 6f0b 4c3d
000000b0: 95be b73d 3e3e b93d b9b5 8abe 3739 423e
000000c0: 85fd 4a3d 995a ba3e 48c0 95bd ce08 41be
000000d0: f0fc 66be dc95 a4be 85d4 b0bd 7366 2b3e
000000e0: 702a ccbe 10c4 7e3e 6d1c 233d 7292 ee3d
000000f0: 1897 c7bd 4e16 1dbd 70cb 0d3d ac67 693d
00000100: f120 89bd 402f 11be 143a 3a3e 6d7c b8bd
00000110: ba3c dabc 158f d4be f421 0cbe 31ea 33bf
00000120: de85 91be 36bc 8e3e d603 4abe 1cab 1fbd
00000130: c6ca 653f 7ca5 9cbe 4bc0 b93e 88ce 033f
00000140: f6d9 98bd bac5 1d3f 35a5 ae3e ff79 553e
00000150: 0d0a 313e 8ae9 773e e505 89bd 0560 07be
00000160: 7651 853e a7c5 10be f98a af3e 89eb 31be
00000170: e59d 88bd dfc1 9d3e efcb 79be 504c 4fbe
00000180: 62b7 9abd 89c9 d53c 57d3 733e 039a d0be
00000190: 44b0 87bc 3ddb 9e3e 7480 9bbe c89f 75be
000001a0: 21aa 91bf 5b2f 013e 2309 26bf 0b72 093e
000001b0: 749b 573e d22d 463d c282 26bf 7fd5 a13d
000001c0: 6b93 f3be 97e8 9a3e fef4 98bd 8df4 0e3e
000001d0: e833 bfbd 1b28 f0bd aca2 ec3d e77d a4bc
000001e0: 0357 983c 9052 53be 8cb5 a03d 7ebd 29bd
000001f0: 6828 c83c e8e4 f8be f91d a23e 391f 213e
00000200: fa39 a03e a3c0 f33d 133f 04be a5a8 c73b
00000210: b51e 9bbd 332e d33e acae 093e 4e09 0bbe
00000220: 5431 1fbe ce2c 863c f371 313d bdc2 cc3e
00000230: 27c0 0fbf c488 a23e d7bb cc3e f7c9 d23e
00000240: 002b dbbe 8553 883e cef0 6abe b30f 9f3e
00000250: f390 6cbc af27 c4bd 2023 073f 62a5 b6bc
00000260: 8ac0 8bbe e7ea 5e3e e71a 21be 45aa 273e
00000270: b907 d23e 6649 f93e 55a7 08be e493 343d
00000280: dba4 37be 820c fabd 5f5c 063f 2f7b 833d
00000290: a0e6 79bd a5a1 6d3c 1c5d bfbe 7eb5 babd
000002a0: 5655 c5be c1bb 333c be9e 043d 80e0 c8bc
000002b0: 82c1 743e 1008 95bd addb b1bd 4009 633e
000002c0: bec6 44be cfb9 403e 163b 7fbe aa68 09be
000002d0: 03ef 133f 9508 2bbe 7749 92be 22a2 a83e
000002e0: 88dc e9be c6b7 a0be b00d 3f3e 5fa2 7cbd
000002f0: 25ef a53e e625 b13d 06a8 143e bbf2 d33d
00000300: a7f3 a03e 7949 fabd d1e1 a7be c229 6cbe
00000310: 31fa ab3c aeea 8a3e 91f4 b03e f4fd 593d
00000320: b3a9 023d 054d db3e 4b21 d2be 30f0 a8bd
00000330: bbb2 e0be f17d 6fbe 9e12 9a3f a4aa 113e
00000340: 59a6 37bf 275a b2be 6923 03bf c36c 583e
00000350: 4df7 10be 384a f83c a9f3 15be 1f1a 423f
00000360: 56eb 53bd 6049 db3e 86cc a03d 63c9 84be
00000370: 3551 02bf bf95 62be 9b4e 133e 1e1f 2d3e
00000380: ffa9 393d e774 40bc 6e44 093e bfcb 3e3f
00000390: 3e19 bc3d 8949 a9be 4dc4 93be e442 55bd
000003a0: c085 c0be df92 a53d e43e a0bd d29d d23d
000003b0: f6fa 1fbc 0a91 103e 9136 c33d 90d5 c6be
000003c0: 4a75 bf3e 905e 50bd 6827 b13e 5d54 f83d
000003d0: 88c6 7ebc 79be debd d850 dc3d 295a dabd
000003e0: ff2e b03d 4346 0c3e ab5d 9d3d d1b6 8d3c
000003f0: ecc3 84bc c54e 5dbd 9762 f23d df81 79bc
0.028444687 -0.1538845 0.30261794 0.18884358 0.15160562 -0.19435471 -0.42828515 -0.26320148
0.13618572 -0.004677863 -0.22685498 -0.033536606 -0.04446564 -0.07818905 0.039575256 -0.23526472
-0.01595764 -0.13438459 -0.3703781 -0.009690455 -0.3527334 -0.40473926 -0.18839395 0.12974402
-0.49279943 -0.24186966 -0.054204524 -0.0254099 -0.12482275 -0.10476095 0.060253564 0.04765374
-0.27013934 0.009643683 0.08108307 -0.333542 -0.15963858 -0.0749051 -0.3746817 -0.2336753
-0.12177384 0.0034392348 0.18652077 0.04981559 0.089718975 0.09045075 -0.27091768 0.18967138
0.04955818 0.36397246 -0.07312065 -0.18851015 -0.22557425 -0.32145584 -0.08634285 0.167383
-0.39876127 0.2487948 0.03982203 0.11649026 -0.09745616 -0.03835135 0.03461784 0.056983635
-0.06695736 -0.1417818 0.18186218 -0.09008107 -0.026640285 -0.41515413 -0.13684827 -0.7027922
-0.28422445 0.2787797 -0.19728026 -0.038981542 0.8976253 -0.30595005 0.3627952 0.51487017
-0.07463448 0.6162983 0.34110418 0.20847319 0.1728899 0.24210182 -0.066905774 -0.13220222
0.26038712 -0.14137898 0.34285715 -0.17375006 -0.06670741 0.30811974 -0.243942 -0.20243955
-0.07554509 0.026097076 0.23811089 -0.40742502 -0.016563542 0.3102664 -0.3037144 -0.23986733
-1.1380044 0.12615721 -0.6485769 0.1342241 0.21055394 0.04838354 -0.6504327 0.07902049
-0.47573408 0.30255577 -0.074686036 0.13960476 -0.09336072 -0.117263995 0.11554465 -0.020079566
0.018596178 -0.20636964 0.07847127 -0.04144048 0.02443333 -0.48612142 0.31663492 0.15734567
0.31294233 0.11901977 -0.12914686 0.006093102 -0.07574216 0.41246185 0.13445538 -0.13577768
-0.15546161 0.016378786 0.04332156 0.39992324 -0.56152576 0.3174497 0.3998706 0.41169712
-0.42806244 0.2662622 -0.22943422 0.31066665 -0.014438855 -0.095778815 0.5278797 -0.022295658
-0.27295333 0.21769296 -0.15732919 0.16373546 0.41021517 0.4868881 -0.13345082 0.044086352
-0.17933981 -0.12209417 0.524847 0.0641998 -0.061010957 0.014503871 -0.37375724 -0.09116648
-0.3854167 0.010970057 0.03237795 -0.024521112 0.23901942 -0.072769284 -0.08684478 0.22171497
-0.19216439 0.1882088 -0.24924883 -0.13418832 0.5778658 -0.16702493 -0.28571674 0.32936198
-0.45676064 -0.31390208 0.18657565 -0.061678287 0.32409015 0.08649807 0.14517221 0.103490315
0.31435892 -0.12221045 -0.32789472 -0.23062804 0.020993324 0.2713217 0.3456159 0.053220704
0.03190012 0.428322 -0.41041026 -0.08248937 -0.4388636 -0.23387887 1.2036932 0.1422525
-0.717382 -0.34834406 -0.51225907 0.2113524 -0.14156838 0.030308828 -0.1464373 0.7582111
-0.051738106 0.42829418 0.0785151 -0.25934896 -0.5090516 -0.22127436 0.14385454 0.16906402
0.045328137 -0.011746622 0.1340501 0.7452964 0.09184502 -0.33063915 -0.28860703 -0.052065745
-0.37602043 0.08084654 -0.078244954 0.10284008 -0.009764424 0.14117828 0.09531892 -0.3883481
0.37394172 -0.05087143 0.34600377 0.12125466 -0.015550263 -0.108761735 0.10757607 -0.10661728
0.08602714 0.13698678 0.07683881 0.017299088 -0.016206704 -0.0540302 0.11835211 -0.015228718

l1.bias f4 [256]
00000000: 8014 073f f0c4 cd3e 3405 b7be 9da2 96be
00000010: d845 81be ecec 983e 6399 13bf 5a3f 2e3d
00000020: e85d 4ebe b46b 943e 996b debd 39fd 37bf
00000030: 3163 bc3e 675a 073e a586 01bf f52b 8fbe
00000040: dedb 6a3e efde 11be 1043 e5be fe2c 03bf
00000050: 4695 c63c ed18 a13e bc23 72be a0be 17bf
00000060: db26 713e 81cb 7fbd 9e16 f8be 380e 28bf
00000070: 3abc 46be ffb2 84be 3a12 ba3e 1d18 573e
00000080: d3b4 8e3e 4a5a 74be 56f4 7bbe 7d8a 0e3f
00000090: 2f98 3ebe 009a 03be 7706 fabe 1189 903d
000000a0: 23d7 a4be 843b 90be dd71 0cbe 15c1 6d3e
000000b0: e128 7c3e 37bb 99be d0ad 5dbe 556b 8a3c
000000c0: 1ef9 f03e 03c5 39be 2876 20bf c85a e5bd
000000d0: b353 1a3d 2300 d9be 10e0 bc3e fdcf 103f
000000e0: 8605 353d 7b89 f03b fd6c fd3e 42f7 a2bc
000000f0: 465b a3be a448 473c 4c83 42be f05b c63e
00000100: 2b55 693e 26a5 19bf a9be 4c3e 6543 62be
00000110: 0bdd a9be ec52 c1bd 69bb ffbe 674d 25bf
00000120: f539 b5be 2a30 54be b688 66bc 1ad7 edbc
00000130: e90d 93bd 1482 afbe 50c5 023e 0a46 13bf
00000140: d631 0fbf 7024 8ebe d7c1 49be ba10 d73e
00000150: 59bd abba e70d 063e df94 8abe a9ba d5be
00000160: 7795 d3bd eacf 51be 044d b03d b2bb 79be
00000170: 0771 3dbd 3d1d 35bf b585 53bf 7e23 b1be
00000180: 2d8e fbbd 2674 833e e64a a8bd 5821 04bf
00000190: 2539 d3be 5986 bcbe bb43 07bf 7e9a 2cbf
000001a0: 1cfa d1be 7b2e 12be d750 b43e 5412 29bf
000001b0: 4dd1 89be 8ec4 dd3d ad78 35bf 5858 fbbe
000001c0: 3b40 29bf f770 c83e 0c98 77be 5be4 533e
000001d0: e436 79be 3ce3 24bf 891f f6be a394 e23e
000001e0: e32d ba3e ebef 98be 00f6 d1bc 41c1 2fbf
000001f0: 56d5 9fbe 409e af3e c5fb 02bf 91fa 6dbf
00000200: df67 69be 5398 1a3e 3f2c 993d aa67 e2be
00000210: 9e17 9cbe 785d 7439 adbb 62be 433a 77bd
00000220: da6a 533e 00a1 94be 67bd 9fbd 2f2f 0b3f
00000230: cf48 db3e 22db 5e3e 105e a1bf 92c4 303d
00000240: 8dbb 5ebf aced c43e 99a7 ad3e 19cc 83be
00000250: f769 c4be a7bd 933e 83c0 1b3f 2204 dfbe
00000260: edfb ef3c c80d efbe 6f27 5f3c 2164 893c
00000270: c3be ebbd 49e6 43bf 25ca b93e 1103 163f
00000280: e3cb 36be 744c ecbe 2907 79bd 0c88 1b3e
00000290: 6d29 81bd 1366 873e 9507 a2be fb8d d3bd
000002a0: 26e9 29be f2b0 00be 3c9d 4abe 5c05 9dbc
000002b0: c112 5c3e d417 03bf 867a 013f 1d16 423e
000002c0: d4ad 3f3e 76c9 663b 20f7 5ebe 381b 34bf
000002d0: 2f95 903e 7f6f 0ebe 2d4a ec3d 5e06 df3d
000002e0: 5eea 45bd 60a6 113e 525e b8be 99de 0abf
000002f0: f1b0 b8be 03f7 873e 1a43 c43d 7789 75bd
00000300: 5779 ab3e aa72 5d3d e199 dcbd e81e 033f
00000310: 9989 9c3e e99c b0be 44d5 8ebe f74f 16bf
00000320: c55e 47bd 5a1c 48be 99c2 1b3e 06de bbbe
00000330: 3101 0f3e 313e 59bf 7655 cfbe 161c 4c3e
00000340: b583 1abf 7ba3 39be e466 dfbd 0807 f8bc
00000350: 4874 26be 7919 9b3e 662e e0be 0f46 013e
00000360: e498 5cbf 4540 053e d857 4fbd e0c1 12be
00000370: 3ce2 993e b70a 15be 2989 d73c 94d2 6d3e
00000380: cd3b efbe 00f7 1f3e 7342 54be 03b2 90be
00000390: 553a cf3e 82d8 bfbe e646 0bbf 3c13 e83e
000003a0: dda2 d03e 5227 5fbe 7818 003e 7002 d8bd
000003b0: c932 3fbf aa7e 503e e65b 34bf d95a 443e
000003c0: a24f 953e a7e2 04be 211a da3e ead4 803c
000003d0: 4666 e0be 69b5 04bf 768f 0abf 4ed5 febe
000003e0: e34a 48bf f8c3 3bbd 3bda b5be e4ce de3e
000003f0: 85f1 543e 5665 5ebe 310a 5fbd b662 44bf
0.52765656 0.40189314 -0.35746157 -0.2942094 -0.252486 0.29868257 -0.57655925 0.042540886
-0.2015301 0.2898842 -0.108603664 -0.7187076 0.36794427 0.1321808 -0.50596076 -0.27963224
0.22935435 -0.14245199 -0.44777727 -0.5124053 0.024241101 0.3146433 -0.23646444 -0.59275246
0.23549978 -0.062449936 -0.48454756 -0.65646696 -0.1940774 -0.25917813 0.3634203 0.21005292
0.27872333 -0.23862568 -0.24604926 0.55680066 -0.18612741 -0.12851715 -0.48833057 0.07057393
-0.32195386 -0.28170407 -0.1371531 0.23218186 0.24624969 -0.30025646 -0.21648335 0.016896883
0.4706506 -0.1814156 -0.6268029 -0.11198956 0.037677478 -0.42382917 0.36889696 0.56567365
0.04419472 0.0073406077 0.49497214 -0.019893292 -0.31905574 0.012163315 -0.18995398 0.38742018
0.22786395 -0.6001762 0.19994606 -0.22096021 -0.33176455 -0.09439644 -0.4994767 -0.6457123
-0.3539578 -0.20721498 -0.01407068 -0.029033232 -0.071803875 -0.3427893 0.12770581 -0.57528746
-0.5593542 -0.27762175 -0.1970285 0.4200495 -0.0013102695 0.13091241 -0.27066705 -0.41743973
-0.103312425 -0.20489469 0.086084396 -0.24388006 -0.04625037 -0.7074774 -0.82625896 -0.3459739
-0.12282977 0.25674552 -0.08217411 -0.5161338 -0.41254535 -0.3682125 -0.52837723 -0.67423236
-0.4101113 -0.14275543 0.35217926 -0.6604359 -0.26917496 0.108285055 -0.7088726 -0.49090838
-0.6611363 0.39148685 -0.24179095 0.2069258 -0.24337345 -0.6440923 -0.48070934 0.44254026
0.36363134 -0.29870543 -0.025629997 -0.6865426 -0.3121745 0.34300423 -0.5116542 -0.9296046
-0.2279353 0.1509717 0.074791424 -0.44219714 -0.30486768 0.00023304473 -0.22141905 -0.060358297
0.2064623 -0.29029083 -0.077997975 0.5436887 0.42828986 0.2176328 -1.2606831 0.043156214
-0.8700493 0.3846258 0.3391693 -0.25741652 -0.38362095 0.2885563 0.60840625 -0.4355784
0.029294932 -0.46690202 0.013620242 0.016771378 -0.11510994 -0.7652326 0.36287037 0.5859843
-0.17851214 -0.4615208 -0.060797844 0.15188617 -0.063067295 0.26445064 -0.3164641 -0.10329815
-0.16592845 -0.125675 -0.19786543 -0.019167595 0.21491529 -0.51208234 0.5057758 0.18953748
0.18718654 0.0035215295 -0.21773958 -0.7035403 0.28238818 -0.1390972 0.115375854 0.10889886
-0.048319213 0.14223623 -0.3600946 -0.5424591 -0.36072496 0.26555642 0.09583111 -0.05994555
0.33491012 0.05406443 -0.107715376 0.51219034 0.3057373 -0.34494713 -0.27897084 -0.58715767
-0.048674364 -0.19542065 0.15210952 -0.36692828 0.13965298 -0.8486052 -0.4049489 0.19932589
-0.6035722 -0.18128769 -0.10908297 -0.03027679 -0.16255295 0.30292872 -0.437854 0.12624381
-0.8617079 0.13012798 -0.050620884 -0.1433177 0.30055416 -0.14554869 0.02631052 0.2322486
-0.46725312 0.15621567 -0.20728473 -0.28260812 0.4047419 -0.3746987 -0.5440506 0.45327175
0.40749255 -0.21792343 0.12509334 -0.1054734 -0.74686867 0.20360819 -0.70452726 0.1917528
0.29162318 -0.12977086 0.4259806 0.015726525 -0.43828028 -0.5183931 -0.54125154 -0.49772114
-0.7823927 -0.045841187 -0.3551806 0.4351722 0.20795257 -0.21718344 -0.05445308 -0.7671312

l2.weight f4 [256, 256]
00000000: 4b5d 283e 468e 1ebf b30b 3c3c e298 3ebf
00000010: 3af4 1bbd 6ffb 87be 7850 613e 73bf afbd
00000020: c494 7d3e 49d2 403e 7342 623e ab3c 983d
00000030: 9ff8 37be 6c1f de3d 20b9 01bf d0aa e7bd
00000040: 2dd2 923e 18e4 0fbd 06b2 8d3e 1dde 2f3d
00000050: 668d ff3d 1949 ed3d 025d 08bd b74b d83e
00000060: 3feb 253e 788f 123f 148b 73bd f0d5 99be
00000070: 34e1 1b3d f3b2 5dbf 8b36 8fbe cc25 b33e
00000080: 0d5f 393e 8e2c 2dbf d017 3fbe c2f9 20be
00000090: a8db 1abe 6f4f b4be 026e 0d3f c25b 25be
000000a0: c08d 21bc 0df0 b4bd 4369 f43d d989 ed3e
000000b0: 292d aa3c f6bf 4f3d 822d 4ebd f16e 6f3e
000000c0: b0ee a5be 5e07 a13e 7e13 e6bc 3311 52be
000000d0: 31cc 80be f1af 1f3c 424c cbbd 8079 a03d
000000e0: db23 65bd aeb4 b33e 9e6a 66be 31f3 73bf
000000f0: 2247 28bd dd09 03be 7687 c2be fee1 febd
00000100: e9fa debe 29a1 97be 447a a0bd ce7f 78bd
00000110: b6c9 b1be 8ae6 193e 3b9c d03e f8a2 6dbf
00000120: eb44 89be 2be1 b83e 3248 f2bd 0aec 5d3e
00000130: f1ab 883d 8818 a13e d02f 1c3d edf0 31bf
00000140: 716a fe3d 3252 18be 7fca 30bf 5ec5 fcbe
00000150: ead7 07be 8379 ae3d 9e7d 513e b535 67be
00000160: 7040 f73c fb28 fcbd d139 e1be 4c8e 993e
00000170: 5901 6bbe c314 253e 0f74 d6be 4bce 00bc
00000180: a4c8 37be 78bb c83d c158 013f f7d6 133e
00000190: 35af 8ebe 9e35 0c3f a0a8 bb3e e157 d6bd
000001a0: f16e 39be b7b0 75be 9b77 583e a50e 10bb
000001b0: c9ce dcbe 020c 83bd c892 153e a045 2c3e
000001c0: ec7c 9bbe f3c7 4dbe eb5b 8e3e 0965 e43e
000001d0: 5f39 073e 1593 173d e960 d7be 2eba fb3c
000001e0: 2e98 0a3e 30c1 713e 81f2 ebbd b486 d73e
000001f0: f344 9d3e 31cb 6c3e 8698 60be 3023 303f
00000200: 57c5 66be 3b83 c03d 5dc2 22be 74d8 14be
00000210: 8560 ecbe 62fd 903c efec 163e be22 f83e
00000220: 99ff 513e 049d 853d 1ff5 373e 7798 0e3e
00000230: 74d6 bcbc c62b 943e 5689 23be f634 0fbe
00000240: 276d 21be b4d6 adbe 2fb8 1d3e 09f7 b3be
00000250: c38a 16be c9d5 783e 2b75 663d 3e63 83be
00000260: dc3c 2e3e a5ba f03d 7da8 673e 6527 db3e
00000270: 7d78 23be 302d 4cbd 25a4 ae3e f050 d43e
00000280: d413 9abe 0032 9dbe 18dc 89be caec 4bbe
00000290: 5598 7a3e 8287 863e 0661 01bf 9ed5 0e3e
000002a0: 40ac dd3e 6185 3f3e 1a9e f83d 83d2 b1be
000002b0: 49e0 133f de9a ffbd 6feb ac3e 84fd ce3c
000002c0: 2e9f d9bc d7fe 93be 86b5 3a3e 28d7 9abe
000002d0: b285 58be d5b7 813e 1768 d93e 8df3 aebe
000002e0: 1fdd 873d f40f 123e 22c3 c3be da05 4bbd
000002f0: c629 b33d 29dd 583e 966c a93c 7dea 843e
00000300: a315 35be d089 6ebe e4cb b73e be71 bd3d
00000310: dced 163d d2ef d9be bf52 e1bd 6c23 913e
00000320: 752e 863e 6ee9 7b3c e912 d93c 84be 953e
00000330: dd2a 9abd c602 9e3e 6bbc 083f 54ed 6d3e
00000340: d71e 6cbe cf60 8d3c 4685 3f3d f140 163e
00000350: 56c2 90bd a8fb 7e3c 99ec 21bf c085 813d
00000360: 3302 8d3b 14b7 84be 89f5 823e 6d01 64be
00000370: 159a 113e 6a25 89bd d5ed 91be dcc7 b7be
00000380: 6717 19bd 48b7 38be 4d8c 41bd 0b27 cbbe
00000390: 3ee2 443e a92c 633e a305 613e 8f6b 593e
000003a0: f97c bdbd c112 e9bd 270f 93be 8da5 513e
000003b0: 5a95 be3e 049f 7fbd 9eeb 97bd 7b42 71be
000003c0: 8d48 f93e ba44 4cbf bed0 2e3e 448a b3be
000003d0: 8198 f8be 1e31 0cbf 5a8a 1bbf 565b 343d
000003e0: 59de f53d c367 52be d998 cabe 204d 593d
000003f0: 6abc 183d ff9f f43d 2e32 72be 6b8e f4be
0.16441838 -0.6193584 0.011477399 -0.7445203 -0.03807471 -0.26559016 0.22003353 -0.08581438
0.24763781 0.18830217 0.22095661 0.074334465 -0.17965935 0.10845837 -0.50673103 -0.11311877
0.28675976 -0.035129637 0.27674884 0.042936433 0.124781415 0.11586208 -0.033291824 0.42245266
0.1620302 0.57250166 -0.059458807 -0.30046034 0.038056567 -0.8660118 -0.279713 0.34989774
0.18102665 -0.6764611 -0.18661427 -0.15720275 -0.15122855 -0.35216853 0.55245984 -0.16148284
-0.009860456 -0.088348486 0.119341396 0.46394232 0.020773487 0.050720178 -0.05033637 0.23382165
-0.32408667 0.31450933 -0.028085466 -0.20514373 -0.25155786 0.009746538 -0.099266544 0.07835674
-0.055942398 0.35098785 -0.22501609 -0.95292956 -0.041083463 -0.12796731 -0.37993973 -0.12445448
-0.43550804 -0.29615143 -0.0783582 -0.06066876 -0.34724206 0.1502935 0.40744194 -0.92826796
-0.26810393 0.3610929 -0.118301764 0.21672073 0.0667342 0.31464028 0.038131535 -0.6950825
0.12422646 -0.14875105 -0.69058985 -0.4936933 -0.13265958 0.0851927 0.20458075 -0.22579081
0.030182093 -0.12312504 -0.43989423 0.29991376 -0.22949733 0.16121201 -0.4188542 -0.007861684
-0.17947632 0.09801382 0.5052605 0.14437471 -0.27868047 0.54769313 0.36652088 -0.1046598
-0.18108727 -0.23993193 0.21139376 -0.0021981385 -0.43126515 -0.06398775 0.14606774 0.16823435
-0.30368745 -0.20095806 0.27804503 0.44608334 0.13205479 0.037005503 -0.42066124 0.030728426
0.13534614 0.23608851 -0.11520863 0.42094958 0.30716667 0.23124386 -0.21933183 0.6880369
-0.22536217 0.0940003 -0.15894456 -0.14535695 -0.4616739 0.017698947 0.1473882 0.48464006
0.20507659 0.06524089 0.179646 0.13925348 -0.023051478 0.28939646 -0.15970358 -0.13985047
-0.15764295 -0.33952868 0.15402292 -0.3514941 -0.14701371 0.24300303 0.056264084 -0.25661653
0.17015404 0.117543496 0.22622867 0.42803493 -0.15963931 -0.04984778 0.34109607 0.41468
-0.30093253 -0.3070221 -0.2692573 -0.19914547 0.24472173 0.2627526 -0.5053867 0.13948676
0.4329548 0.18703224 0.121395305 -0.3473092 0.57764107 -0.124807104 0.33773372 0.02526737
-0.02656516 -0.28905365 0.18233308 -0.30242276 -0.2114475 0.25335565 0.42462227 -0.3417019
0.066339724 0.14263898 -0.38234812 -0.049566127 0.08748202 0.21178116 0.02068166 0.2596015
-0.17684035 -0.23294759 0.35897744 0.0925021 0.036847934 -0.4256578 -0.11002111 0.28347337
0.2620732 0.015375478 0.026498275 0.29246914 -0.07527707 0.3086149 0.53412503 0.23235065
-0.2305864 0.017258076 0.04675796 0.1467321 -0.07068317 0.015562929 -0.63251644 0.06324339
0.0043032407 -0.25920928 0.25577953 -0.22266169 0.14218934 -0.06696589 -0.28501764 -0.35894668
-0.037375834 -0.18038666 -0.047252942 -0.39678225 0.1922693 0.22185005 0.21974806 0.21232437
-0.09252352 -0.1138053 -0.28722498 0.20473309 0.3722332 -0.06240751 -0.07417987 -0.23560517
0.48688164 -0.7979237 0.17071816 -0.35066426 -0.4855385 -0.54762447 -0.6075798 0.044032417
0.120053 -0.20547394 -0.39569739 0.053052068 0.03728906 0.11944579 -0.23651955 -0.47764906

l2.bias f4 [256]
00000000: 96c6 993e 5464 1d3f d4aa c5be f4d4 923e
00000010: a50e 2a3f 1e6a 90be 302b ddbe 5a29 183f
00000020: 9de0 aa3e dd9a a9be 5288 89be f777 cbbe
00000030: c6a9 c2be c74a 70be 7391 fcbe 4ce8 043f
00000040: b08b 1ebe 38f5 cebe 71c3 0b3f c60f d23e
00000050: fd8f 253f ebbd 05bf fa4c ce3e fc39 1e3f
00000060: e26e 1a3f a91d a4be 7f29 203f aff3 1a3f
00000070: fb10 93be 8334 f33e ac11 20bd 7c22 ca3e
00000080: 489d 59be 772c d83e a8a8 cbbe ee27 9fbe
00000090: d36b db3e 249b 60be 5d6b f0be f77b 0e3f
000000a0: 08eb 083f 4dc8 a3be 9fef 02be 25d8 50be
000000b0: 3bba 103f 9dc8 133f 2da5 4cbe 97e2 b3be
000000c0: 58fc 1d3f 764d 363d adb4 2a3f 44c4 eebe
000000d0: 2c6a 79be 3838 e2be 361b cbbe 293a 0d3f
000000e0: 17dd 0c3f b16b 0d3f 6db2 023f 1834 133f
000000f0: cd9d bbbe 9a29 3dbe 26a0 1b3f ebb1 83be
00000100: 1fdf 033f 2a5b a43e 9e4b 00bf 3c24 9cbe
00000110: 61ca a7be b29b 193f a5bd 143f 8a1d dfbe
00000120: 721c 233f 950f 213f 5bce c43e e636 e63e
00000130: efa8 e83e a97e 01bf d3c4 163f 19ad 0dbf
00000140: ed47 b0be 37c7 7abe 881f c2be e111 363f
00000150: c61b 82be 9152 893e 83af f8bd eec4 2bbf
00000160: 6e13 043f 12ef 1a3f d870 09bf 414f c1be
00000170: 53bd dabe a004 1a3f 21f4 1d3f 9ac1 153f
00000180: 2c6d 0c3f 5004 c9be 2bc6 273f ee5b 85be
00000190: 73f1 f03e 1dca 77be 4408 c4be d590 0dbf
000001a0: 87a4 2c3f 7c3c 02be 9b93 5abe acda 02bf
000001b0: 0d54 ecbe d314 b9be 1b25 2c3e 41ef 00bf
000001c0: 7c3b edbe 39fd 023f a1fa bebe 7c8e 2d3f
000001d0: 416e 8cbe af7b 213f ea20 203f 99cf 26bf
000001e0: f305 dfbe 4c37 a1be 1207 1c3f a8db e83e
000001f0: 98e0 0fbf ee8b 32bf 8ed2 84be 5add 97be
00000200: 00a1 76be 4db9 f13e 54a9 a7be 22f7 863e
00000210: cdc2 253f 0415 cd3e 4d4c b5be 5df4 073f
00000220: 493d 0a3f 5213 71be 2471 0c3f 8066 c4be
00000230: 98eb 0bbe 284f e43e 54da ddbe 039f 61be
00000240: 48ac 0f3f 3337 9bbe 173c 45be 3184 c4be
00000250: 004e 9fbe e137 00bf d01b e43e be01 a1bd
00000260: 1729 fabe bf34 99be c789 b03e 54c5 d33e
00000270: 3115 293f a0bd cebe 258d dcbe 0a4f 213f
00000280: a777 29be af3f 1a3f dc2c 133f 5204 f73e
00000290: 1b9a 1b3f ee14 f33e 7767 103f 2383 1c3f
000002a0: c6b4 d1be 0475 ac3e 3fdf a8be bf00 9fbe
000002b0: 41b4 37be b349 073f 5334 01bf 4aa5 10be
000002c0: 2c46 193f 3236 c4be 2418 033f 98e8 acbe
000002d0: a8ff 193f a512 133f ea7a 1a3f bfdc c5be
000002e0: 4de3 043f 7a18 00bf 2956 183f fd17 e03e
000002f0: f381 043f 6cbf ac3e c420 523c f3c5 9ebe
00000300: 370c cebe 9af0 91be 7c3a afbe fa58 03bf
00000310: e770 b4be e3cd a4be 16ad aebe a055 3abe
00000320: 1d6a 2e3f 5068 e03e 2496 093f 01b3 c7be
00000330: eaf3 7bbe ef71 e93e 1c61 0b3f bea3 cebe
00000340: c470 cbbe 2ccb 093f 302b f7be 6572 dabc
00000350: 3bec 1d3f 576b 1e3f 1eb6 2c3f 0e69 a93e
00000360: b879 183f 5d5f 203f c238 153f e9d2 173f
00000370: b3b0 7bbe d9a8 a4be 4780 f73e 3f50 053f
00000380: ea89 113f 4352 1a3f 8f95 0fbd dc2d 293f
00000390: 39b7 efbe ad57 78be b9fc b8be 8a39 a5be
000003a0: f129 e23e fae3 6dbe 9366 073f 0381 243f
000003b0: e0e8 03bf 7ce4 b4be 2d67 c03e fb70 83be
000003c0: ae4c 2a3f 33a8 f0be a4bf 183f e9ab 3f3d
000003d0: 1e07 b4be 3cdf 343f a2c5 263f 65b4 f7be
000003e0: 413a 74be a249 a7be 4790 0c3f e427 d6be
000003f0: b50b 2e3f ef0d ebbe ebf9 163f 5ce5 1a3f
0.30034322 0.61481214 -0.38606894 0.28678095 0.66428596 -0.2820596 -0.43197012 0.594381
0.3337449 -0.33125964 -0.26861817 -0.39739963 -0.38020152 -0.23466025 -0.4932972 0.51916957
-0.15482974 -0.40421462 0.54595095 0.4102766 0.64672834 -0.52242917 0.40293103 0.6180723
0.60325444 -0.3205388 0.6256332 0.6052808 -0.28723893 0.47501 -0.039079353 0.39479434
-0.21251404 0.42221424 -0.39777112 -0.3108515 0.428557 -0.21934181 -0.46956912 0.55657905
0.5348363 -0.31988755 -0.1278672 -0.20394953 0.56534165 0.57727987 -0.19984885 -0.35133812
0.6171317 0.044507466 0.6668194 -0.46634114 -0.24356908 -0.44183517 -0.39669198 0.5516687
0.55024856 0.5524245 0.51053506 0.57501364 -0.3664383 -0.18472901 0.6079124 -0.25721678
0.5151233 0.32100803 -0.5011538 -0.30496395 -0.3277159 0.600032 0.58101875 -0.43577224
0.6371528 0.629144 0.38438687 0.4496376 0.45441386 -0.50583893 0.5889408 -0.5534225
-0.34429875 -0.24490057 -0.3791468 0.7112103 -0.25411814 0.26820806 -0.12142851 -0.67097366
0.5159215 0.6052104 -0.5368781 -0.37755778 -0.42722568 0.6016331 0.61700636 0.5849854
0.54854083 -0.39261103 0.65536755 -0.260467 0.4705921 -0.24198194 -0.38287556 -0.5529912
0.6743855 -0.12718385 -0.2134537 -0.51114917 -0.46157876 -0.361487 0.1681103 -0.5036507
-0.46334445 0.5116764 -0.3730059 0.6779554 -0.27427867 0.6307935 0.6255022 -0.6516052
-0.43559226 -0.314875 0.6094829 0.45480084 -0.5620208 -0.69744766 -0.2594189 -0.29661065
-0.24084854 0.47211686 -0.32746375 0.26360422 0.6475037 0.40055096 -0.35409775 0.53107244
0.53999764 -0.23542526 0.5486014 -0.3835945 -0.1366409 0.4459164 -0.43330634 -0.22033314
0.56122255 -0.3031555 -0.19261204 -0.38382104 -0.31114197 -0.50085264 0.4455247 -0.078616604
-0.48859474 -0.29923055 0.34480116 0.41361487 0.6604796 -0.40379047 -0.43076435 0.6301123
-0.1654955 0.60253423 0.57490325 0.48245484 0.6078202 0.47476906 0.56407875 0.611376
-0.40958232 0.33683026 -0.32982823 -0.31055257 -0.17939855 0.5284683 -0.50470465 -0.14125553
0.598727 -0.38322598 0.5120871 -0.33771205 0.60155725 0.57450324 0.603438 -0.38644978
0.51909333 -0.5003735 0.5950647 0.43768302 0.51760787 0.33739793 0.012825195 -0.31010398
-0.40243694 -0.28503877 -0.34224308 -0.5130764 -0.35242388 -0.3218833 -0.3411643 -0.18196726
0.68130666 0.43829584 0.5374472 -0.39003757 -0.24604765 0.45594737 0.5444505 -0.403593
-0.3973447 0.5382564 -0.48275137 -0.026665876 0.61688584 0.6188254 0.6746539 0.33087963
0.5956073 0.6264551 0.5828973 0.593062 -0.24579124 -0.3216007 0.48340055 0.5207557
0.56851065 0.6028177 -0.03505474 0.660856 -0.46819475 -0.24252196 -0.36130312 -0.3227046
0.44172624 -0.23231497 0.5289089 0.64259356 -0.51527214 -0.3533057 0.37578717 -0.25672135
0.66523254 -0.47003326 0.5966742 0.046794806 -0.3516168 0.7065313 0.65145314 -0.48379818
-0.23850347 -0.32673365 0.5490765 -0.4182731 0.67986614 -0.45909068 0.58975095 0.60506225

l3.weight f4 [1, 256]
00000000: 5fbb e63f b08f fa3e c9a1 a3bf 1086 583f
00000010: 1e5e a33e a758 f7be 10d1 a1bf bbc8 f43e
00000020: 21ed 8c3f 4793 9dbf f58d 69bf 7b81 84bf
00000030: 79fb 0dbf c5f0 7abf fcef d3bf 1607 5a3e
00000040: c739 86bf f144 aebf 3df8 363f 2611 0e3f
00000050: 1b22 a53e da18 78bf ea45 043f 7711 eb3e
00000060: cc78 bd3e e644 53bf 0087 8c3e f383 b73e
00000070: 7b50 76bf 0852 173f 176e c7bf 8169 ea3f
00000080: 5cc6 d9bf 8d15 233f dc4b a7bf 8829 91bf
00000090: 0894 723f d766 a3bf 98a7 4fbf 338d a63e
000000a0: 36d8 c03e 48d4 86bf 2033 4abf b946 acbf
000000b0: 00b7 b43e 6e0e 403e 6f71 71bf 4c16 a2bf
000000c0: 82de 913e 1847 2bbd b7f4 8d3e d4c9 35bf
000000d0: 2a8d a4bf beb6 99bf 40f4 06c0 0f1a bf3e
000000e0: 302c 8e3e c9fa bd3e 64d8 2a3f 46d4 e73e
000000f0: c047 a7bf 334b bcbf d205 2c3f e0e4 2bbf
00000100: 7b36 bc3e ce9f 2a3f 0bde 7fbf ff4a 93bf
00000110: 2ea2 57bf 26e0 0e3f 0d44 ab3e edd8 a2bf
00000120: 9627 e23e f831 b63e bdf7 a63f 8b39 943e
00000130: 7669 8a3e cbe3 59bf edd8 ca3e 9cf5 96bf
00000140: cd72 93bf a101 5ebf cca9 61bf c584 9f3e
00000150: 47c9 97bf 7334 1c3f 94f0 85bf f93b 85bf
00000160: 5088 303f c920 ff3e 940a 8cbf bb37 b6bf
00000170: 8646 88bf 0cc5 a43e 4ee4 833e 39b4 703e
00000180: d5df 0c3f 3985 73bf 2cf7 323f 674a a9bf
00000190: 6c25 813f 16d3 a5bf aaf2 7dbf 3e34 7bbf
000001a0: d655 c03e 2919 9cbf 4452 66bf ff1a 83bf
000001b0: 90dd aabf da1d adbf bf8e b53f 1872 97bf
000001c0: 2d98 80bf 6d60 2a3f 0bc3 88bf 658b d43e
000001d0: 87d9 81bf c6ff 563e 0621 753e 5f5c 80bf
000001e0: f9c2 88bf 09fa 6dbf feee 9a3e 57c7 3e3f
000001f0: f693 9cbf 8331 9dbf eb47 59bf 4e09 95bf
00000200: e162 a2bf eb3e 303f d439 94bf 7e55 8f3f
00000210: a038 e73e 25bb 063f 29ce 75bf 601d 353f
00000220: 50eb c43e 055b 82bf 53d8 be3e 98dd 82bf
00000230: e561 5abf 36aa ae3e 3f5e 46bf 3234 93bf
00000240: daa1 933e c5ca 84bf 29b1 9bbf 7515 07c0
00000250: a372 a9bf c24e 4abf dcc6 c83e 87d9 a8bf
00000260: 0b44 43bf 2eef 80bf 1117 303f e172 183f
00000270: 684e 6d3e e149 adbf 0335 e2bf d2bf f53e
00000280: 5eff cebf b388 f63e 1962 043f aa52 213f
00000290: 31d6 d83e a853 833f 1eb9 053f d702 173f
000002a0: 6688 96bf 529d 543f ecb8 46bf 1b0a cbbf
000002b0: 9418 a4bf d2dc db3e ca34 88bf e218 c7bf
000002c0: d334 4c3f 925c 78bf 5242 2f3f 95ef 8dbf
000002d0: 5b14 ca3e acac ac3e 81f9 8e3e 2728 9dbf
000002e0: 10db 263f a09a 95bf c5f3 e43e b8d9 113f
000002f0: 3e33 bb3e e90b e93e 7056 19bd 4292 59bf
00000300: 0804 8abf 48ef 86bf 8c6e 32bf 01c1 43bf
00000310: 01e8 4dbf 9eb5 3ebf 4cf4 55bf fbdd b4bf
00000320: b7a1 853e 767d 293f 0498 b23e bed6 80bf
00000330: b6db 9cbf 9c5c c13e 5c1e 8b3e 6528 d1bf
00000340: 06db 4abf d3ee bf3e b473 7ebf 26f5 88bf
00000350: a432 bd3e 78ea fe3e d682 853e 3979 033f
00000360: a10c b63e d746 cd3e 86f4 033f c1f1 db3e
00000370: b79a acbf 613a 3fbf 75b3 093f ad53 693f
00000380: 7bae 413f 8524 9f3e de15 d5ba fc97 903e
00000390: d19f 8abf c63b aabf 4ee7 23bf e9ad bebf
000003a0: b744 fe3e 3266 2cbf 9cff 183f 44f7 7a3e
000003b0: 268a c7bf 0884 6ebf 806a 743f c7ed 98bf
000003c0: 6b7c 633e 78d1 7ebf 43ef 773e 22a2 a73f
000003d0: aa67 edbf 7f74 683f 258f a63e 9c66 82bf
000003e0: f8cf babf 48ca a3bf 9c52 593f 9b42 9bbf
000003f0: 7d6e 293f b987 a5bf 170b 113f 1c39 f23e
1.8025931 0.4893775 -1.2783748 0.84579563 0.31907743 -0.48309824 -1.2641926 0.47809395
1.1009866 -1.231057 -0.91232234 -1.0352014 -0.5546184 -0.98023635 -1.6557612 0.21291766
-1.0486382 -1.3614789 0.7147253 0.55494916 0.32252583 -0.9691292 0.5166918 0.45911762
0.37006223 -0.82527006 0.27446747 0.35842857 -0.96216553 0.59109545 -1.5580472 1.8313447
-1.701366 0.6370476 -1.3070025 -1.1340799 0.9475713 -1.2765759 -0.811151 0.325296
0.37664956 -1.0533533 -0.7898426 -1.3459083 0.35295868 0.18755504 -0.9431371 -1.2663054
0.28490072 -0.041815847 0.27725765 -0.7101109 -1.285558 -1.2008893 -2.1086578 0.3732457
0.27768087 0.37105396 0.66736436 0.4527914 -1.3068771 -1.4710449 0.6719638 -0.6714611
0.36760315 0.6665009 -0.99948186 -1.1507262 -0.8423184 0.55810773 0.33450356 -1.272245
0.44170827 0.35584998 1.3044354 0.28950152 0.27033585 -0.8511321 0.39618626 -1.1793704
-1.151941 -0.86721236 -0.88149714 0.31155983 -1.18583 0.6101753 -1.0464044 -1.0408927
0.68957996 0.498297 -1.0940728 -1.4235758 -1.0646522 0.32181585 0.2576012 0.2350625
0.5502904 -0.95125157 0.69908404 -1.3225831 1.0089545 -1.2955043 -0.991984 -0.9812659
0.37565488 -1.2195178 -0.8996928 -1.0242614 -1.3348866 -1.3524735 1.4184188 -1.1831694
-1.004644 0.66553384 -1.0684522 0.415126 -1.0144509 0.20996007 0.23938379 -1.002819
-1.0684501 -0.9295965 0.30260462 0.7452292 -1.2232654 -1.2280735 -0.84875363 -1.1643465
-1.2686425 0.68846005 -1.1580148 1.1197965 0.4516039 0.5262931 -0.960177 0.7074795
0.3846078 -1.0184027 0.37274417 -1.0223875 -0.85305625 0.34114236 -0.7748756 -1.1500304
0.2883442 -1.037438 -1.216344 -2.1106846 -1.3238109 -0.79026425 0.39214218 -1.3191384
-0.762757 -1.0072992 0.68785197 0.5955029 0.23174441 -1.3538171 -1.7672428 0.4799791
-1.6171682 0.48151168 0.51712185 0.6301676 0.42350915 1.0259905 0.5223559 0.5898871
-1.1760375 0.8305255 -0.7762592 -1.5862459 -1.2820001 0.4294191 -1.064111 -1.5554469
0.79768103 -0.9701625 0.6846057 -1.108874 0.39468655 0.33725488 0.2792473 -1.2277879
0.6517801 -1.1687813 0.4471723 0.5697284 0.36562532 0.455169 -0.03743595 -0.84988797
-1.078248 -1.0541773 -0.6969993 -0.76466376 -0.80432135 -0.74495876 -0.8357589 -1.4130243
0.2609994 0.66207063 0.34881604 -1.0065534 -1.225455 0.37765968 0.271716 -1.6340452
-0.79240453 0.37486896 -0.993953 -1.0699813 0.36952698 0.4978826 0.26076382 0.51356846
0.3555651 0.4009311 0.5154499 0.4295788 -1.3484715 -0.74698454 0.53789455 0.91143304
0.7565686 0.3108255 -0.0016257127 0.28240955 -1.0830022 -1.3299491 -0.6402482 -1.4896823
0.496618 -0.6734344 0.5976503 0.24508387 -1.5589035 -0.93170214 0.95475006 -1.1947564
0.2221543 -0.99538374 0.24212365 1.3096354 -1.8547261 0.9080276 0.32531086 -1.0187564
-1.4594717 -1.2796106 0.84891677 -1.2129701 0.66184217 -1.2932044 0.56657547 0.47309196

l4.weight f4 [256, 32]
00000000: 2e40 a53c 5bf0 8c3d fda7 af3e e586 fabd
00000010: 6daa a63d c80f 713d 4e0d 97bd 7440 abbe
00000020: c863 0e3e 1845 8f3d a24b 6e3d 3e38 653d
00000030: 215d 953e 304c 19be e986 ac3e 82bf 2abd
00000040: 7b0a 103d e1b0 423e aea0 59be 1ba0 5a3e
00000050: 2849 b73e 54b0 483e e1ba 2a3d d232 45be
00000060: 1abc b4be 813b 51be 47d2 2d3e 9190 9fbd
00000070: 28a8 15be 0b24 bbbe 823e 6cbc 621c 293d
00000080: 16f6 f4be f16e 47bd e041 343e fa84 dfbe
00000090: e675 0e3e 8479 2a3e 182f dfbc fb59 5abe
000000a0: aeac 23bd 8497 92bd ed30 80be e188 c1bd
000000b0: 8c66 733e c353 093d 3941 70be dc02 d4bc
000000c0: cd61 10bf f416 99be 9f2d 0abf 7ba5 babe
000000d0: 894b 8e3e ad84 adbe f3a4 253e 963a d93d
000000e0: c00b 143d 4dc2 07bf f00f 88be 7438 1fbe
000000f0: 8c3d 6e3e f987 733e 717f b1be 40d4 1ebe
00000100: ec26 1e3f d333 113e c591 a63e d934 c53c
00000110: ce93 15be e0bf 993e 4db1 9dbb be30 b0be
00000120: 623f 6dbd e07d c03d 7c24 acbe 6f49 3f3e
00000130: ff41 ad3d 0e8d 893b 5dc5 0f3f 616b c23e
00000140: 7434 813e 6e25 9c3e abb4 2c3e 99bc 453e
00000150: e0e4 b93d ab61 b9bc 1d18 9dbd fc0f 263f
00000160: a63f 96be ec57 8b3e 3785 913d 162b ff3c
00000170: 3aee c5bb fd27 023d 5453 693d 0b12 233e
00000180: c0ae 8ebe 9c60 3d3d 4e84 af3d 5d58 eb3e
00000190: 6f18 323e 6755 35bd 27ad 79be a01e 78be
000001a0: 6dcd 64be dda2 b33d 3021 98bc 7195 5cbe
000001b0: c363 0f3f a8ef 013e acd6 6b3e 0a0f 73be
000001c0: 2ffa 853e 42e2 9cbe 6770 8dbe 4e2c 93be
000001d0: 25f6 853e 14e0 a73e 7680 8bbe 92a4 64be
000001e0: 060e 463e 56d9 e0bd 05e3 113e 0c95 c8be
000001f0: 1e1a 4cbe ba99 21bf 5dd1 7f3e bdba 5dbe
00000200: 347d eabe 0605 593b 94ea 893e 3c96 c03e
00000210: 0c12 10be ee71 b8be 55b4 96bd 7a59 a7ba
00000220: 354f c7be d4c4 4dbd bc59 693d 0e9b a1bc
00000230: 3dd3 4cbf c8dc e03c d6fa 41be d7b2 c53c
00000240: b2af 8a3e b9f6 6e3e 6e75 af3c 9f62 fb3d
00000250: 8177 8ebd 3d29 483e fc23 a53d 3054 b43c
00000260: 84d7 79be ceb6 6ebd d936 cdbd fdec fabc
00000270: f0f9 30be 3919 0ebe 1893 063d b643 0f3d
00000280: 7fd0 17be 6eb0 14be 3468 c13e 53e1 6fbe
00000290: 658a 5fbd f24d 2abe 5502 8abe 24f4 1bbd
000002a0: 1414 f4be 3734 10be 0bcc c53d 3351 3bbc
000002b0: 67f5 ea3d 430b 9bbd 38ec cdbe 3255 f1bc
000002c0: af4a b63e bf45 763c 3f66 e6be 2046 7fbe
000002d0: 6643 883d 6e6c 5ebc a076 0c3d 0a03 55be
000002e0: 3d2b b63c 710d cbbc 684c 9fbe 6829 c33e
000002f0: 0ebd 8abe 8014 a7be 21b2 363e 738e 74bd
00000300: 0fb5 04bf bd5e 073e d606 593d a8e5 6c3e
00000310: f253 46bd d9f8 1abe 3155 c1bd e813 05bf
00000320: fab0 bcbd d427 29be 863c 273d 293a 66be
00000330: 03ea a03e ddf7 4ebc efa4 0c3f d9fc 073f
00000340: fbeb 343f ddc4 1a3f 1fb3 2f3f 3155 5e3e
00000350: ad08 5e3a 4074 303e 7684 3fbe 8fcd f83d
00000360: 800f e5bc 000d ea3c 249b bebd 5bb2 20bf
00000370: 465d 3d3e 1d3c 28be 54af 753e 059e b4be
00000380: 85c4 2f3e de81 edbd fcd8 773e 90e2 f8be
00000390: 7b5e 433d a536 093f 0d72 63be 6a5c 27bf
000003a0: 56fa 09bf e707 203e eba1 21bd 7569 fa3e
000003b0: de6d 9cbe 3c87 6bbe 8c38 953e 223c c13e
000003c0: 7688 7abe ad86 86bb e3f0 1d3e 5ee7 6dbe
000003d0: 2d1f babe e682 a13e 7911 c03d 6f08 7f3e
000003e0: 130d 833c 9b18 87bd add0 a43d 8160 8c3e
000003f0: 2ea3 29ba 6403 78be 5b7d db3e 58b2 50be
0.020172205 0.06881782 0.34307852 -0.1223276 0.08137975 0.05885294 -0.073755845 -0.3344761
0.13905251 0.069956005 0.058177598 0.05596184 0.29172614 -0.1497047 0.33696678 -0.041686542
0.035166245 0.19012786 -0.212527 0.21350138 0.35798 0.19598514 0.041682128 -0.19257668
-0.3529976 -0.20432855 0.16974746 -0.07791246 -0.14614928 -0.36550936 -0.0144192 0.041286834
-0.47844 -0.048689786 0.17603254 -0.4365614 0.13912162 0.16647917 -0.027244136 -0.21323387
-0.039959602 -0.071578056 -0.25037327 -0.09449936 0.23769587 0.033527147 -0.2346238 -0.02588027
-0.5639923 -0.29900324 -0.5397586 -0.36454377 0.27792004 -0.33890286 0.16176204 0.106068775
0.03614402 -0.53030854 -0.2657466 -0.15548879 0.23265666 0.23782338 -0.34667543 -0.15510654
0.6177814 0.14179926 0.32533088 0.024073051 -0.14607164 0.30029202 -0.0048123957 -0.34412187
-0.057921775 0.09399009 -0.33621585 0.18680356 0.084598534 0.004197723 0.5616053 0.3797255
0.2523533 0.30497307 0.16865794 0.19310226 0.090768576 -0.02262958 -0.07670615 0.6486814
-0.29345435 0.27215517 0.07105487 0.031148475 -0.0060403617 0.031776417 0.056964234 0.15924852
-0.278677 0.046234712 0.08570157 0.45965853 0.17392133 -0.0442709 -0.24382459 -0.24230433
-0.22343989 0.08771298 -0.018570513 -0.21541382 0.560116 0.12689078 0.2303111 -0.23736206
0.26167437 -0.3064137 -0.2762482 -0.2874474 0.26164356 0.32788146 -0.27246445 -0.22328404
0.19341287 -0.109789535 0.14246757 -0.39176214 -0.19931838 -0.63125193 0.2498221 -0.21653266
-0.45798647 0.0033114566 0.2693678 0.3761462 -0.14069384 -0.3602442 -0.07358614 -0.0012767755
-0.38927618 -0.050236538 0.056970343 -0.019727256 -0.80009824 0.027449027 -0.18943343 0.024133129
0.2708717 0.23336305 0.0214183 0.1227467 -0.06956387 0.19546981 0.08063504 0.0220128
-0.24398619 -0.058279805 -0.10020227 -0.030630583 -0.17282844 -0.13876809 0.032855123 0.034976684
-0.14825629 -0.14520428 0.37774813 -0.23425798 -0.054575343 -0.16631296 -0.26954904 -0.038074628
-0.47671568 -0.14082418 0.09658059 -0.011432934 0.11472588 -0.075705074 -0.40219283 -0.02945957
0.35603854 0.015031277 -0.44999883 -0.24929094 0.0665348 -0.013575656 0.034292817 -0.2080194
0.022237414 -0.024786683 -0.3111298 0.38117528 -0.27097362 -0.32632828 0.17841388 -0.059706163
-0.51838773 0.13219734 0.052985035 0.23134482 -0.0484199 -0.1513399 -0.09440077 -0.519835
-0.09213443 -0.165191 0.040829204 -0.22483124 0.31428537 -0.012632337 0.5493917 0.5312019
0.7067258 0.6045664 0.6863269 0.21712185 0.0008469921 0.17231846 -0.18702874 0.12148582
-0.027961493 0.028570652 -0.093069345 -0.6277215 0.18492612 -0.16429181 0.23992664 -0.3527681
0.1716481 -0.11597036 0.24203867 -0.48610353 0.047697525 0.53599006 -0.22211476 -0.6537539
-0.5389761 0.15628015 -0.039461058 0.48908582 -0.30552572 -0.23000807 0.29144704 0.3774119
-0.24466118 -0.00410541 0.15423922 -0.23232791 -0.3635191 0.3154518 0.09378333 0.24905561
0.015997445 -0.0659649 0.08047614 0.27417377 -0.0006471154 -0.24220043 0.42869076 -0.20380533

l4.bias f4 [256]
00000000: c83d 5f3e 66ae ce3d bec5 4d3b 7ec7 9abd
00000010: ce53 593e e89f 3d3e 734c 41bf 6ae0 26be
00000020: 2a84 15bf 1ee1 afbd 7727 1bbe d4e6 d7be
00000030: b6c2 fc3d edf1 773c 3b26 e43d 93ff a5be
00000040: db29 13bf a195 c0bb 14b5 cbbe 6cec f6bb
00000050: 2ddf dfbd 41ee aa3e fdfd 04bf cc83 01be
00000060: f3a5 213f 25b7 77be 7890 a93e 2711 993e
00000070: 813f e03d 5d7d b1be 1df9 bb3e ae71 cd3e
00000080: 503b 8bbe c69d 193e ac0f e63e a8fe 583e
00000090: 3988 22bf b799 afbe 859f 413e 1935 2ebd
000000a0: a6a9 babe 54ec 86be 29b7 bfbe 93fe c1be
000000b0: db36 bb3e 3419 de3e 6e6d 44bd b308 3abf
000000c0: 1939 15be 75e3 a63e ca06 b4be 3653 9b3e
000000d0: 51ab 50be 6438 21bf 5040 313e d835 82bc
000000e0: 742d 823c db66 10bf 2f5c 41bd ef16 84bd
000000f0: 9fb4 76be ec9b 59be 8837 cb3d ca3e c23d
00000100: 74fc 8e3d ae00 c83e 905c 7abf 5f40 f13e
00000110: b54b 0bbe d05f 083f 064e cb3e ee00 13bf
00000120: ea0a 00bf d7cf 8a3e 9b34 da3e 9f42 0cbc
00000130: 94c5 2b3e a8f5 77be e059 1bbf 0020 d5be
00000140: 5ec1 bcbe f0db 1dbe e76a c6be 30d8 05bf
00000150: 7a0c a2be d259 d73d 82f7 0d3e 9fa7 d1be
00000160: a4e2 24be 83fd a1be ed15 83be ad8a 0d3e
00000170: 30de cc3e ae6c afbe 80c1 2ebf 0691 82bf
00000180: 707a a03e b6ae 5a3e 8859 553e 08f7 3e3c
00000190: acb4 febe 2641 2bbe 8983 c8bd b1ec 593e
000001a0: c985 993e 3187 d23e dd22 0a3e 26f4 ccbe
000001b0: 9c54 8cbe 3454 263d c83c 60be 6331 32bf
000001c0: f85b 1dbf 2b02 f8be 549c 80be 2c0e cebe
000001d0: 96d2 6bbe 63d0 f4be 11c2 32bf a308 9d3d
000001e0: fd0d 06bf fa57 e9bd 75c1 33bf a9df 43be
000001f0: e932 13bf 310f e5bd ccbe d8be 8ff4 0f3f
00000200: 7736 cfbd 9633 19be ea1c cebe 7dd5 693d
00000210: fea0 c0be 651e 373e 71d4 d23e 1ce6 733e
00000220: 8d35 ef3e b17f d6be 480a cbbc bd6c a3be
00000230: b847 3cbd 502d b9bd afaf 26bf bd02 0dbe
00000240: 718d adbe 791d 3abf b4d3 5dbf ff37 d23e
00000250: 924b 0c3f 9c15 c63e 857a 3fbc 1814 27be
00000260: 402e e03e f3b4 373e 0dc9 f7be a6dc ebbd
00000270: 1ec1 23bf a064 e53c 1314 11bf ff03 3dbd
00000280: e260 233e 3665 c63e 4ceb 983e 09fc a3bd
00000290: b2e7 db3e 466c 973e b110 3ebe 6c42 2ebf
000002a0: d01b 36be 4698 34be cf82 76bd 84d1 12bf
000002b0: 07fe e3be 79ee a7bd 0d24 0f3e 5bc6 02be
000002c0: 2cf8 efbe 1ddb f2bd ea82 4bbe 7849 cb3e
000002d0: bd8f 863e fcb5 0d3f 6e7a 7a3d b22e 9bbe
000002e0: 39ec e5be bd5b 6ebf 3853 3bbf 97d6 56be
000002f0: d61f e7be f0de 8abe cd4d a8bd 8526 c2bc
00000300: 1971 ecbe 7f7f 4bbe f8bb 6bbd 8030 9cbe
00000310: 7472 b8be 9376 013e d07f 17bf 36e6 dbbe
00000320: a9c9 06be 230b afbe c4b1 36bf 19ad dabc
00000330: d045 fdbe 1176 21bf a215 7dba 0176 c6be
00000340: c934 b73e 3d7e a73e ed2b 8d3e b3e3 68be
00000350: e14f 11be 639c e03d 301e c73e a3d1 1abf
00000360: f198 35bf 63a7 f3be b03d 0f3e c195 fa3e
00000370: bcb2 d7be 9c94 e33e 052b 71be ede3 1bbf
00000380: 8229 9b3d 61c9 b43e 62f1 e6be 4e02 80be
00000390: dc84 14bf 12f5 943e 569d 933e 33f1 bf3e
000003a0: 6c91 90bf 3611 2cbe 61ed 12bc e44c 88bf
000003b0: 2c62 9f3d c02b 4abf f415 4bbf c911 bebe
000003c0: 35c4 03be 7abe 843e 79fe b8be dc35 143f
000003d0: d869 8bbe c954 a23e 77a4 3fbe 0635 d73e
000003e0: 2c3d 653d f913 b63e 18f4 a3be 9f27 a1be
000003f0: e877 183e c337 133f 287b f4be 18aa a2be
0.21800911 0.100918576 0.003139838 -0.07557581 0.21223375 0.1851803 -0.7550728 -0.16296545
-0.5840479 -0.085878596 -0.15151773 -0.42168295 0.12341826 0.015133363 0.111401044 -0.3242155
-0.5748574 -0.005877212 -0.3978659 -0.007535508 -0.10931239 0.33384898 -0.51950055 -0.12647933
0.63143843 -0.24190958 0.33118033 0.298959 0.109496124 -0.34665957 0.36713496 0.40125793
-0.2719369 0.15001592 0.44933832 0.21190894 -0.6348911 -0.34296963 0.18908508 -0.042531107
-0.36457556 -0.2635218 -0.37444428 -0.37889537 0.3656529 0.43378603 -0.047955923 -0.72669524
-0.14572562 0.3259541 -0.3516143 0.30336922 -0.20377852 -0.6297667 0.1730969 -0.015894815
0.015890814 -0.56406945 -0.047207054 -0.06449687 -0.24092339 -0.21250886 0.09922701 0.09484632
0.06981745 0.3906302 -0.9779749 0.47119424 -0.13603099 0.532712 0.39707965 -0.57423294
-0.50016654 0.27111694 0.4261826 -0.008560806 0.16774589 -0.24214804 -0.60684013 -0.41625977
-0.36866277 -0.15415931 -0.38753435 -0.52283 -0.31650144 0.10515179 0.13863948 -0.40948197
-0.16102082 -0.31638727 -0.25602666 0.13822432 0.40013266 -0.34262604 -0.6826401 -1.0200508
0.31343412 0.2135571 0.20834935 0.0116555765 -0.49747217 -0.16724071 -0.09790713 0.21281697
0.29984882 0.41118768 0.13489862 -0.4003002 -0.27408302 0.040607646 -0.21898186 -0.6960661
-0.6146846 -0.48439154 -0.2511927 -0.40245187 -0.23029551 -0.47815236 -0.6982737 0.07667663
-0.52365094 -0.11393733 -0.70217067 -0.19128288 -0.5749956 -0.11184538 -0.42333066 0.5623254
-0.1011781 -0.14961085 -0.40256435 0.057088364 -0.37622827 0.17882688 0.41177705 0.23818249
0.46720544 -0.41894296 -0.024785176 -0.31918898 -0.045966834 -0.09041846 -0.6511182 -0.13770576
-0.33896974 -0.7270122 -0.8665116 0.41058347 0.5480281 0.38688362 -0.011686926 -0.16316259
0.43785286 0.1794012 -0.48395577 -0.11516695 -0.6396655 0.028002083 -0.56671256 -0.04614639
0.15954927 0.38749093 0.29867017 -0.08007056 0.42950207 0.29574794 -0.18561055 -0.680701
-0.17784047 -0.17636213 -0.060183343 -0.57350945 -0.44529745 -0.08199782 0.13978596 -0.12770979
-0.46869028 -0.11858199 -0.19874159 0.3970449 0.2628154 0.5535581 0.061151914 -0.30309063
-0.44906786 -0.9310873 -0.73173857 -0.20980297 -0.45141476 -0.27123213 -0.08217964 -0.023700008
-0.46180037 -0.19872855 -0.057552308 -0.30505753 -0.3602482 0.12642889 -0.591794 -0.42949075
-0.13162865 -0.34188184 -0.71365 -0.026693868 -0.49467325 -0.6307078 -0.00096544076 -0.38761905
0.3578246 0.327135 0.27572575 -0.2274311 -0.14190628 0.109673284 0.3889022 -0.6047613
-0.70936495 -0.47588643 0.13988376 0.48942378 -0.4212855 0.44449317 -0.23551567 -0.6089466
0.07576276 0.3530989 -0.45106035 -0.25001758 -0.5801523 0.29093224 0.28830975 0.37488708
-1.1294379 -0.1680344 -0.008967728 -1.0648465 0.07782397 -0.7897301 -0.7933037 -0.37122944
-0.12867816 0.25926572 -0.36131647 0.5789468 -0.2722919 0.3170531 -0.18715082 0.4203264
0.05596654 0.35562113 -0.32022166 -0.3147554 0.1488949 0.5750696 -0.4775021 -0.31770396

l5.weight f4 [256, 256]
00000000: 6471 d4bd 26ba 5bbe 7d32 69be 6df7 59be
00000010: ead4 3d3d 6c52 28bf 2a2c d3be 3ba6 463c
00000020: a353 01be 6b5b 263e 3c82 083f 9657 9cbd
00000030: 7598 803d 7e8d 473e d61e c3be 262b c9bd
00000040: dc2f 84be ce4c 24be 1779 4bbf a151 133e
00000050: 8606 73be e3c1 41bd 30cd c53e a49a 3cbe
00000060: 01cd 4a3e 6308 5cbe ae57 13be d055 2ebf
00000070: 2a1d de3e ffb1 02bf f2f3 14be d57b d23d
00000080: 8de2 043f 4566 2f3e d7db 5fbe 69c6 363e
00000090: db05 9a3d c1a1 403c 5f31 fcbd 8869 933e
000000a0: 8ad7 50be cd7e 62be 5883 59bc 8b0a 0abe
000000b0: c352 babe 73f2 463e 3027 5439 8e64 973d
000000c0: cd57 b13e d355 5ebe 4113 30bd f117 abbd
000000d0: 588e 5a3d 5990 86bd ae22 6b3e ac33 b93e
000000e0: bd47 d8bd e45c d33e 4b88 05be 4683 d03d
000000f0: bc87 793f 6436 083d fbbf a43e a3fc 90bd
00000100: 5eff 65bc 3679 153e 8f9b 5c3e b2ad 23bd
00000110: 7566 603e fb29 713e 64c7 53bd 76c6 70be
00000120: f685 9ebe 8df4 9b3c 9c14 0a3e e6b5 94be
00000130: af17 efbc ff7a e9bd 7e54 a5be 7483 5d3d
00000140: 9efc d23e fb2a 2e3e a84b cc3e 06f4 91be
00000150: d86f 21bf 407e 8abb e667 bb3e 455f 91be
00000160: 2137 7ebe 40fb 6abe f44b b6be f038 53be
00000170: d11b cdbe 47bf 483f 35a1 613d f73a 11be
00000180: 7a5f 003f 4ff8 003c 7391 69be e251 bb3c
00000190: 705c b6be 3b17 91be d866 98be af00 a5bd
000001a0: 1a13 1f3e 3cea 793a 49ed 42be c258 a9be
000001b0: 89a3 6b3d ffc6 313e 5076 1bbe 955f 0b3e
000001c0: f929 463d cdee ac3e b2d9 6fbc a966 43be
000001d0: eef7 a83e 3277 033d 4b69 623d 5a99 803e
000001e0: edfc 03bf 96c7 803e ae2f 233f 0b17 b8bd
000001f0: cd30 0c3e 07f3 903d ac56 c03e 0b4a 56be
00000200: 0f4b e0be b4a3 b3bd 6868 193f cf4c d3be
00000210: d7b8 20be 9037 743e 2926 cabc a6ad cd3e
00000220: 8a82 6abe ec1f 063a 46cf 71bd e71c be3d
00000230: 8e35 fe3d e22a 0b3e 80fa 6c3d 2ed9 693e
00000240: a8d0 ccbd 6588 373e b9a5 ca3c 7093 503d
00000250: 22f1 0f3e 8ab1 483c 12e5 14be b352 953e
00000260: 5f05 7a3c 8c1e 4e3d 6664 773d 90f9 8bbd
00000270: 2cbb 7dbc 2978 bdbe 36c1 823e e555 703e
00000280: d68b 85bd c347 5bbf a3ed 1f3f 6149 013e
00000290: c36e 383e bfc3 62be 8f29 193f 777e 94bc
000002a0: bcf4 f33d 9081 523c d04c 953c 7186 853e
000002b0: 3ebe e4be 1b55 d6bd 57bd 473c 4041 44be
000002c0: 0726 bf3d 2c54 6bbd 3897 0dbd 9a67 05be
000002d0: e304 2fbe 8db2 4fbe fb09 63be 28f6 02be
000002e0: 84b8 ecbc 9bb1 193d 8ec5 1dbe 7c18 003f
000002f0: 436f 533e 559c 543e 1861 2fbe 0568 51bd
00000300: a3e4 bebe 8d9f 2bbf cbef 003e 31a5 403d
00000310: c205 ccbb 725b f23d 7200 98bb 33b5 843e
00000320: c29a e03d 3657 10be a969 773e af46 9fbd
00000330: 432c 7f3d a01b 5f3e 18cb f4be 3b00 2bbf
00000340: 9f17 4d3d 66a8 133e d500 e93d b6fa 81be
00000350: 7717 1b3e 53cb 783d f886 a7be a5ac 8bbd
00000360: 39fe d93d f024 04bd 15c9 3c3d ed59 333e
00000370: e708 bf3e 10d9 973d e5b5 18be f2b8 8c3e
00000380: 4a4f bfbe 7bc2 32bf e87b bcbe ee0a b0bd
00000390: ae5f a6be e728 69be d562 ea3d 91b4 43bf
000003a0: 8ce2 9c3c c745 bfbd 723f 683e cff5 a43e
000003b0: 407a a4bd 63c7 12be 1358 5f3e 358c 1abf
000003c0: e1fa a73e 26d3 97bb 3204 e23d 85db bebd
000003d0: 6fb6 c0be bfda b5be 2671 25bf 1fc3 393e
000003e0: 85c3 2ebf 00a1 bbbc c268 923e 4a8f 35bd
000003f0: 3af1 a0be 9fb1 263e 313f 8e3e 9214 2ebe
-0.1037319 -0.21457729 -0.22773166 -0.21285792 0.04634563 -0.65750766 -0.41244632 0.012124593
-0.12629561 0.1624581 0.5332372 -0.07633893 0.06279079 0.19487569 -0.38109463 -0.09822683
-0.25817764 -0.16044924 -0.79481643 0.14386608 -0.23732957 -0.047304045 0.38633108 -0.18418366
0.19804765 -0.21487574 -0.14388916 -0.6809969 0.43381625 -0.5105285 -0.14546183 0.10277525
0.5190819 0.17128856 -0.21861206 0.17849125 0.07520648 0.011757315 -0.12314104 0.2879145
-0.20394722 -0.22118683 -0.013275944 -0.13480584 -0.36391267 0.19428425 0.00020232494 0.07392226
0.346373 -0.21712427 -0.042987112 -0.08354176 0.053358406 -0.06570501 0.22962448 0.36172235
-0.10560558 0.41281807 -0.13040273 0.101812884 0.9747274 0.033254996 0.3217772 -0.07079437
-0.014037935 0.1459702 0.21543716 -0.03996057 0.21914084 0.2355117 -0.051703826 -0.23513207
-0.3096158 0.01903751 0.13484424 -0.29045027 -0.029186098 -0.11400413 -0.32291025 0.05408044
0.41208357 0.17008583 0.3990147 -0.28506488 -0.63061285 -0.004226476 0.36602706 -0.28392997
-0.24825718 -0.22947407 -0.35604823 -0.20627189 -0.40060285 0.78416866 0.05508538 -0.1418265
0.50145686 0.007871701 -0.2280939 0.022866193 -0.356174 -0.28338036 -0.29765964 -0.08056771
0.1553463 0.00095335 -0.1903583 -0.3307553 0.057529006 0.17361067 -0.15181851 0.1361068
0.048379872 0.3377594 -0.014639305 -0.1908213 0.33001655 0.032096095 0.055276196 0.25116998
-0.5155781 0.25152272 0.6374463 -0.0898877 0.13690491 0.07077604 0.37566125 -0.20926683
-0.43807265 -0.08771458 0.59924936 -0.41269538 -0.15695511 0.2384932 -0.0246764 0.40171546
-0.22901359 0.0005116451 -0.059035562 0.092828564 0.124125585 0.13590577 0.057856083 0.22836754
-0.100007355 0.17923124 0.024737226 0.050921857 0.14056829 0.01224936 -0.14540508 0.29164657
0.01526007 0.0503221 0.06039848 -0.0683471 -0.01548652 -0.37005737 0.25538033 0.23470266
-0.06520812 -0.85656375 0.6247198 0.12625648 0.18011002 -0.22144984 0.5982904 -0.01812671
0.11911914 0.012848273 0.018225104 0.26079133 -0.44676393 -0.10465451 0.012191138 -0.19165516
0.09333425 -0.05745332 -0.03456804 -0.13027802 -0.17091708 -0.20282955 -0.22171776 -0.12789214
-0.028896578 0.037522893 -0.15407392 0.5003736 0.20647912 0.20762761 -0.17126882 -0.05112459
-0.3728381 -0.6704033 0.12591474 0.04703254 -0.0062262723 0.11833848 -0.004638725 0.25919494
0.10967018 -0.14095768 0.241614 -0.07777154 0.06229807 0.21787882 -0.47811198 -0.66797227
0.050071355 0.14419708 0.11377112 -0.2538659 0.1514567 0.06074078 -0.3272016 -0.06820039
0.10644192 -0.03226179 0.046090204 0.17514773 0.3731148 0.07414448 -0.14913137 0.27484852
-0.3736518 -0.69828004 -0.36813283 -0.08595835 -0.32494873 -0.2276951 0.11444632 -0.764474
0.019150995 -0.09339481 0.22680452 0.32218787 -0.0803113 -0.14333872 0.21810941 -0.6037019
0.32808593 -0.004633325 0.110359564 -0.09319214 -0.37639186 -0.35518453 -0.64625776 0.18140839
-0.6826709 -0.02290392 0.2859555 -0.044326104 -0.3143404 0.16278695 0.27782586 -0.17000034
