Project/Ming_Jiang_1016239_Gengcong_Yan_1009903_Project/Part2/trained agents/td3_bc/HalfCheetahBulletEnv-v0_TD3_BC_10_1638388674_td3_bc.pth (torch, 898095 bytes, 16 tensors)

l1.weight f4 [256, 32]
00000000: a772 af3b 6a3b c03d c211 163d 9547 483e
00000010: 5c9c 4abd c5d9 0ebe 1c95 70bd dd73 173f
00000020: d26a 183c ce9b ab3d 0a44 193f ede9 3a3d
00000030: 4e51 56bd 3283 103e 8622 25be 579e d7be
00000040: 79c6 9fbe 648e 08bf a11c 00bf 8caa cabe
00000050: 57f1 ab3d 64fd bfbc 3f04 60bb fdad 37be
00000060: 9c90 29be dba1 283e 52f6 88bd 7980 cfbb
00000070: e0c0 bf3e 2ee1 c33d 9689 9b3c 57e6 46be
00000080: 3c70 e63d f901 a9bd ba63 42be 64c8 29be
00000090: 9cb4 f63c bc77 98be 1e14 1f3e c481 d5be
000000a0: 7a1c 37bf a906 a83e b6b3 61bf 2d5c 083d
000000b0: 310c abbe c45e b4bc 1ad8 a63e 68da 31be
000000c0: 1328 dd3e 4f52 e63d bf26 023f 09a6 df3d
000000d0: 6dee 9d3d 76c2 7d3e 9f84 edbe c616 81bc
000000e0: 5ee2 54be f011 993d cf89 b43d ad03 d13d
000000f0: 9701 3a3c 26e2 8cbd e73d 073e 42ca 0bbc
00000100: f68a 943e d437 50bc d6ca ce3e d957 d6bd
00000110: 03b5 0c3d db8a a03e 6f6b 80be 8e05 04be
00000120: f813 82bd 887d 443e df07 4d3e 84f4 3a3e
00000130: 8843 00be aa4d a9bd 6ae0 8f3e 5842 9abd
00000140: 3605 0d3d 6c70 35bd 5d27 d93d b0d7 563e
00000150: 766c 313f c49f ffbd 6a6c a63c fd08 f43c
00000160: 2384 253e 89c7 22be e278 7d3e 2468 453e
00000170: 1431 cabd 6d4f 093e 5855 5f3d 93f3 47bc
00000180: 93f8 9ebe 042a 7bbc 43f8 8b3e a87f 9c3e
00000190: 230d a63c 21e1 293e 1e53 97be 2a4a c43e
000001a0: f5f0 5e3e 132e b6bc 7192 4ebe 6fac 683d
000001b0: 8ed4 433e 4a85 3c3e fe19 81be 08d7 593e
000001c0: cfb1 b5bd 76a4 c33b 9da3 973e 71f1 98be
000001d0: 55c4 9abe 4d31 203e d35e 343d 6d56 8abe
000001e0: a3b2 1dbb 5f29 d3bc 2df1 a1bd a4d7 193e
000001f0: 6df2 253d 83d4 413d 9cca 093e 2b1a 77bd
00000200: 9568 0b3e 1f08 c83d 78c5 a13d 9b15 9d3d
00000210: 353b d7bd ea58 95be 832e d73c 66d7 033f
00000220: 6f23 503e 859e 953d 1851 a2bd 8dbd c9bd
00000230: 082e 1e3e 3928 313d 6c39 8bbc d096 47bc
00000240: fdb0 1bbf f21a a5be a069 93be ec29 153d
00000250: dd5b 9bbd 8654 a73d 3b97 fb3d 0a48 14be
00000260: 657a c1b9 bcf8 053d 1035 6d3d 64bc 14be
00000270: f842 7d3b d3dc aa3e 46bd c9be 000c dabd
00000280: b8a0 ffbe d957 aa3c a730 2c3e c199 1fbd
00000290: bbf2 cb3c ec5f 933c 82da d63d d543 15be
000002a0: 8f15 44be b3f7 b53d 9523 1abf 119a 33bd
000002b0: 8652 3abe dd99 993c 9a39 033e bd2a 95be
000002c0: f291 fbbe a55a 48bf b975 2e3f 3831 ebbe
000002d0: f0d9 d8be 5ac9 3f3d 85d1 003e d3d1 243d
000002e0: 45d3 fb3d 3039 21be ed75 19bd c37f b4bd
000002f0: 1d54 50be db05 243d b62c 203c 5c78 253e
00000300: a4b3 6dbe 852e dc3d 3e5f aa3d 87bf e63d
00000310: 9668 803d e90e aa3e 9e53 72bd fc42 2abe
00000320: eb48 b3be 8b03 7a3e f57d 633e ef5b 2dbe
00000330: a9e7 0d3e 26c8 2abe cd42 3bbe 6c48 e73b
00000340: 3adc 31be f816 c7bd b909 c73e 225a 923d
00000350: 11f3 68be 56c5 87bd 6037 483e a923 bcbe
00000360: cd7b 87bd 080a 403e 0f2b 2d3f b9ba 34bf
00000370: 4f82 dfbe dbcc 00be 1596 903d 5e55 333e
00000380: 27cc 1e3d ad3a 92bd 1929 783e 5b4c 99bd
00000390: 0742 0fbd 0400 fabd 71bf 9dbe b802 413f
000003a0: 2580 2f3e 26c7 07bd 5c4a 0ebf fede a1bd
000003b0: 541d aebe a7ab dcbd e985 c23d fab8 33bd
000003c0: 650a d23e d974 3f3e 7bdc a6be d67f 943d
000003d0: 5ffe cdbb 6871 3d3c 8a59 d9bd 66d6 1bbe
000003e0: 4715 ed3d 362f 58bc 4aa4 5fbd b8a2 95bc
000003f0: 15d2 7cbe 0fbc 8ebd 3cd9 253e 20d2 3cbe
0.005354244 0.09386332 0.03663803 0.19558556 -0.049465522 -0.1395026 -0.05873595 0.5916117
0.009302812 0.08379327 0.59869444 0.045633245 -0.052323632 0.14112547 -0.16126451 -0.4211299
-0.3120611 -0.5334227 -0.50043684 -0.39583242 0.08395641 -0.023436256 -0.0034182218 -0.17937465
-0.1655907 0.16467993 -0.06687607 -0.006332454 0.3745184 0.09564434 0.018986505 -0.19423805
0.11251876 -0.082523294 -0.18983355 -0.16580349 0.030115418 -0.2977885 0.15535018 -0.41700566
-0.71527827 0.3281758 -0.8816484 0.03329103 -0.3340774 -0.022017844 0.32586747 -0.17368472
0.43194637 0.11246168 0.5084037 0.109203406 0.07711492 0.24781212 -0.46390244 -0.01575793
-0.20789477 0.074741244 0.088153474 0.10205779 0.011352918 -0.06879072 0.13207208 -0.008532109
0.2901227 -0.012708623 0.40389127 -0.10465974 0.034352314 0.31355938 -0.25081965 -0.12892744
-0.06351465 0.19188511 0.20022534 0.18257338 -0.12525761 -0.08266766 0.28100902 -0.07532185
0.034428798 -0.044296667 0.10603211 0.20980716 0.69306123 -0.12481645 0.020315368 0.029789442
0.16163687 -0.15896429 0.24753144 0.19278008 -0.09872642 0.13409205 0.05452475 -0.012204069
-0.31049022 -0.0153298415 0.27337846 0.30566144 0.020269936 0.16589786 -0.295556 0.38337833
0.21771605 -0.022238767 -0.2017305 0.05680507 0.19124052 0.1841022 -0.25215143 0.21273434
-0.08871805 0.005970533 0.29617015 -0.29871705 -0.30227914 0.15643807 0.044035744 -0.27019063
-0.0024062775 -0.025776563 -0.07907329 0.15023667 0.0405144 0.047321808 0.13456196 -0.06032769
0.13614114 0.09767174 0.07898992 0.076701365 -0.1050934 -0.291694 0.026267296 0.51500547
0.20326017 0.07305626 -0.07925624 -0.09850607 0.15447247 0.04325125 -0.016995154 -0.012181953
-0.6081694 -0.3224712 -0.28791523 0.036416933 -0.07585881 0.081704184 0.12284704 -0.14480606
-0.0003690302 0.032707915 0.057911932 -0.1452499 0.0038644653 0.333716 -0.39402217 -0.1064682
-0.49927306 0.020793842 0.16815434 -0.03896499 0.024896016 0.017990075 0.10490896 -0.14576657
-0.19148849 0.088851355 -0.60210544 -0.0438481 -0.18195543 0.018750126 0.12814942 -0.2913417
-0.49134785 -0.7826331 0.6814838 -0.45935988 -0.42353773 0.046822883 0.12579925 0.040239166
0.12296156 -0.15744472 -0.03746598 -0.08813431 -0.20344587 0.040044647 0.009776285 0.16159195
-0.23213059 0.107510604 0.08318947 0.11267 0.06269948 0.332145 -0.059161775 -0.16627115
-0.3501657 0.24415414 0.22216018 -0.16929601 0.13857903 -0.16677913 -0.18287201 0.007058194
-0.17369166 -0.09721178 0.38874605 0.07146098 -0.22748972 -0.06629436 0.19552374 -0.36745957
-0.0661541 0.18753827 0.6764383 -0.70597416 -0.43654105 -0.12578146 0.07059876 0.17513034
0.038768914 -0.07140098 0.24234428 -0.07485267 -0.034975078 -0.12207034 -0.3081012 0.75394773
0.17138727 -0.033148907 -0.55582213 -0.079038605 -0.3400675 -0.107749276 0.094981976 -0.04387758
0.41023555 0.18696918 -0.32590088 0.07250945 -0.006286427 0.011562683 -0.10612781 -0.15218505
0.11576324 -0.01319485 -0.054600038 -0.018266067 -0.24689515 -0.06969463 0.1619615 -0.18439531

l1.bias f4 [256]
00000000: 31a0 91bd b0ee bebe c7f2 ab3e 7094 803e
00000010: 9c6e aebe 6454 9cbe 20af 37bf 35fc 9e3e
00000020: 8a29 153f 381f e4be 87a2 e7be 893c 3dbf
00000030: 869d 71be 6bc2 2b3f b79b fbbd aa23 ea3e
00000040: ee53 bf3e 47d0 fc3e 7d3d d53e 8351 fdbe
00000050: 254b a03e c62f 9fbd 3437 3e3f a2ae c4be
00000060: 6ba7 fd3e 379b 103f 4e0f bfbe e322 13bf
00000070: e486 053f 5e21 7fbe 995c c33e 3c3a 4abf
00000080: 7f28 873e 6823 033f 2f2b 4dbf 8af0 23be
00000090: bbba 67be d737 093f 5e50 863d 456c fa3e
000000a0: aaf7 01bf 3ef6 c9bd 79c5 02bf 9406 143f
000000b0: a8e5 bebd 89fc 48bf f26c 183f 9b6c 32be
000000c0: 18d1 2cbf 4694 063e 6928 233f 4976 d53e
000000d0: fc59 ce3e 1f1e 2cbe d0f4 efbc 96b9 52bf
000000e0: 9d21 dd3e e550 15bf 9a3e cf3e 5c71 44be
000000f0: 858f 3abe 1cc3 bb3c 6fd8 163f deaf 4dbf
00000100: e811 3d3f 741e a3be 22e5 38bf c59e adbc
00000110: 43a6 20be 27ed 223f f9ee 9cbe c0c5 a63e
00000120: 4e50 e4bc 452a 1ebd 835b 41bf 9715 d7be
00000130: a27b 00bf cb8f 59bf 6812 d5be 54d4 3bbf
00000140: 23d7 0e3c 17a2 17bf acc6 52be 1534 e4bd
00000150: c22e 693d 265d c73e a734 23bf 8e56 b1bd
00000160: cb60 1a3f de5f 8a3e 44bd 0c3f c74b 8cbd
00000170: 2cdb b0be 3673 6abd c08a 0ebe 9d59 c5bd
00000180: 253e 903d 16fb 6d3e 84a7 0a3e aa42 d3be
00000190: f9fd 253d f90b 143f 199d 75be 6378 6d3e
000001a0: b692 ac3e 4831 e83e 2cd8 193e 27ce 903d
000001b0: e3e7 21bf 2e12 3d3e 5b15 23be 63a3 1abd
000001c0: 10a3 92be c7cc 093f 0c10 59be 18f5 54bf
000001d0: 9229 0f3f df8f 7fbd 02a4 e03e 4523 82be
000001e0: cd97 173e 7fcf cd3e 3182 b0be f996 133f
000001f0: c9fd 8d3e d833 f63e 9e44 48bc d74a 18bf
00000200: 7920 133f eb34 c4be f12d f83e f616 a6bd
00000210: 76ea 8ebf 1173 99bd 0cea c63e 52d6 3c3f
00000220: 3a92 42bf e57a b2be b90b 54be 5659 40bf
00000230: 1972 cc3e 1018 9a3d 75c1 453d 4ad1 81bd
00000240: 4e4a f53d 994f 0fbf 7bff 4cbf 9933 0bbe
00000250: 33cc 203e 8f59 dc3e e4ce f3be 0706 f3be
00000260: 8a39 0cbe bd73 52bf 740d d9be 3ed2 373e
00000270: fc95 debe d1b0 353d 63bf 8a3e d0df 793e
00000280: 21f8 22bf 38f1 1ebf 412f cabe a223 043f
00000290: fb37 ecbe 5f57 983e 2e6d 623e 5a49 a73e
000002a0: db61 0c3f 8413 383f 2b26 f5be beab 37bf
000002b0: 4cca 7abf d5b8 4fbe 96b7 2b3e 5c68 ccbe
000002c0: 6855 0f3f e153 0e3e 5e08 d5be f524 be3e
000002d0: d5b8 dc3e d31d 1d3d 24e5 0c3f dee0 f9be
000002e0: 8528 cdbc 301d db3d 572c 62be 174e 983d
000002f0: 1563 a23e 0838 79bf 61c8 19bf 2091 3bbf
00000300: 66fa 953e 2326 c5be 3fd6 8e3e f779 c4be
00000310: 3c59 b13e 7ac8 5c3e d3e9 0d3f 2892 4c3d
00000320: 0fbd d3be f9d4 97be aff6 5cbe 466b 253f
00000330: 2e20 013f c1ce e53d 5dea 8a3e 0459 413f
00000340: 22d5 813e a278 c9be 1a50 5bbe af1c ed3e
00000350: dcb9 78bf 5404 d1bd e17e 1abf 03ff 56bf
00000360: 79ec bc3e 3e37 ecbe fbfd 62bd 08d8 0dbf
00000370: 5304 f5be 17fe 8bbe 3840 8ebf 84bc 12bf
00000380: 3eb9 163f fea5 d5be 87c2 033f 81ca 2ebe
00000390: 58d4 4e3e bf1e 193e 8330 093d 8797 11bf
000003a0: d299 893e ee90 b93e 81f7 4fbf 364a 82bf
000003b0: 5764 eabe fea3 1dbf 53b7 343f a905 123f
000003c0: 31bf da3e ec8a 2bbf 2409 0d3f 8b70 a13e
000003d0: 7df3 76be c5fc 9e3d a209 fdbe 0a19 f83d
000003e0: 880e 233f aae0 3cbf be16 0d3f a579 423e
000003f0: 1d71 3f3d 0920 7f3c ac9f dabd 305f 013f
-0.07110632 -0.3729148 0.33583662 0.2511325 -0.34068763 -0.30533135 -0.71751595 0.31051794
0.5826651 -0.44555068 -0.45241186 -0.73920494 -0.23595247 0.67093533 -0.122855596 0.45730335
0.3736872 0.49377653 0.41648474 -0.4947625 0.3130733 -0.07772784 0.74302983 -0.38414484
0.49541792 0.5648684 -0.37316364 -0.5747511 0.5215895 -0.24915072 0.38156584 -0.7899511
0.26398084 0.512259 -0.8014402 -0.16009727 -0.22629826 0.5360083 0.065582976 0.48910728
-0.5076853 -0.0986142 -0.5108257 0.5782254 -0.09321147 -0.7851034 0.5954124 -0.17424242
-0.6750655 0.131425 0.63733536 0.41691807 0.40303028 -0.16808365 -0.02929154 -0.8231443
0.43189707 -0.5832656 0.4047745 -0.19183868 -0.18218811 0.022920184 0.58924 -0.8034648
0.7385545 -0.3185917 -0.7222463 -0.021193871 -0.15688424 0.63643116 -0.30651072 0.32572746
-0.027870324 -0.03861453 -0.7553026 -0.4200866 -0.5018865 -0.84985036 -0.41615605 -0.7337086
0.008718285 -0.59231704 -0.205836 -0.11142746 0.056929357 0.38938254 -0.63752216 -0.08659087
0.60303944 0.27026266 0.54976296 -0.06850391 -0.34542215 -0.05723878 -0.13920116 -0.09636233
0.07043103 0.23240313 0.13540465 -0.41261798 0.04052541 0.5783077 -0.23985709 0.23190455
0.33705682 0.453501 0.1502387 0.070705704 -0.63244456 0.18463966 -0.15926115 -0.037753474
-0.28640032 0.5382809 -0.21197528 -0.83186483 0.55922806 -0.062393066 0.43875128 -0.25417534
0.14804001 0.4019737 -0.34474328 0.5765224 0.27732685 0.4808643 -0.012223391 -0.59489197
0.57471424 -0.38321623 0.4847255 -0.08109848 -1.1165302 -0.0749265 0.3885044 0.73764527
-0.76004374 -0.34859386 -0.20707597 -0.75136316 0.399308 0.07524121 0.048280198 -0.06338747
0.11977063 -0.5598083 -0.8007733 -0.13593902 0.15702896 0.43037078 -0.47618783 -0.47465536
-0.13693824 -0.8220785 -0.42393076 0.17951295 -0.43473804 0.04435808 0.2709914 0.24401784
-0.63659865 -0.6208682 -0.39489177 0.5161687 -0.4613646 0.2975416 0.22111961 0.3267315
0.54836816 0.7190478 -0.47880682 -0.7174643 -0.9796493 -0.20285352 0.16769251 -0.3992337
0.55989695 0.13899185 -0.41607946 0.3713757 0.43109766 0.03835852 0.5503714 -0.48804373
-0.025043735 0.106989264 -0.22087227 0.074367695 0.3171622 -0.9735112 -0.6007138 -0.7326832
0.292926 -0.38505659 0.27897832 -0.38374302 0.34638393 0.2156085 0.5543491 0.049944073
-0.41355178 -0.29654673 -0.21578477 0.6461681 0.5043973 0.11221076 0.2713193 0.7552645
0.2535792 -0.39349848 -0.21417275 0.46310946 -0.971586 -0.10205904 -0.6034985 -0.83982867
0.36899164 -0.46135896 -0.055417996 -0.5540776 -0.47854862 -0.27342293 -1.1113348 -0.573189
0.5887641 -0.41728204 0.514687 -0.17069437 0.2019819 0.14953135 0.03349353 -0.5687184
0.26875168 0.36243385 -0.81237036 -1.0178897 -0.45779678 -0.6157836 0.7059223 0.57039887
0.42723992 -0.6700885 0.5509207 0.31531176 -0.24116321 0.07763056 -0.49421412 0.12114151
0.6369405 -0.7378031 0.55112827 0.18991716 0.046738733 0.015571603 -0.10674986 0.5053587

l2.weight f4 [256, 256]
00000000: 7523 1dbe bf43 51be 35f0 4bbe f27b 86be
00000010: 7673 c73e 82a3 c3be 960d 3dbe 1635 863d
00000020: c1f7 903d b254 a13e c4b1 17bc 4286 023e
00000030: 9bca 903e 1b9a 133e bd69 2c3e 7dfb 97bb
00000040: 2ebd b8be 311c d3be 3fb6 5b3e 8ad5 653e
00000050: 5fb4 dbbd ed2d c33d e1fc debd b76a bfbe
00000060: 014d 69be cc99 83be 8a59 b33e ed6b df3d
00000070: 6781 1abe 12e6 0abd 42b2 20be d047 1fbe
00000080: 3558 5c3e 33d7 1c3c 8b9a 8d3e 8189 f13d
00000090: ccc9 c4be a36e c7be 7e0d 6a3d abfa bcbd
000000a0: 5b3e 883d d21f 343e 804e 7ebd 9e16 8abe
000000b0: c59b e9bd 746c 403d 2ffc 803d f05e 693e
000000c0: dbec 34bc 80cb 373d 150b da3d 1f70 063e
000000d0: f213 9d3e 6a13 d6bd 170b 78be 98ae fcbc
000000e0: 28a5 553e 50d5 ab3d 8bde 303e c771 bebe
000000f0: bf4f d5bf 9adf 413e 1b9d 403e c41b c1bd
00000100: 4873 9a3d 72e8 81bf ff43 3fbe eb59 39be
00000110: 9292 2c3e ce55 b93c 5508 12bb df41 1c3e
00000120: ac91 b33e 7878 993e 9caf 4cbd 96cf 633e
00000130: 0d07 543e f91d fd3d 0a7b 2c3e 3c99 c83e
00000140: 07ed 0b3d 96b4 bebe 9fd8 1fbe c1f7 033d
00000150: 6ed3 fcbe bed8 b5bd e71d 60bd 03d0 363e
00000160: d758 debe cc0a 623e a7e3 7bbe 91e6 2abe
00000170: 6935 223e 61df 2c3e ea90 05bf fc92 3fbe
00000180: 4e2b ecbd 8f3d 4e3c f96d 9d3e cca6 08be
00000190: 2110 853e 2493 87be 4588 373e 1916 843e
000001a0: 5df9 23be 1343 9fbf e62a e5bd f280 9dbe
000001b0: 4b0e 8a3e b274 45bf ec67 1a3f ffdc d7bd
000001c0: ed80 973e 0a7f 1cbe 26b9 51be 2f6e 05be
000001d0: b119 46be 711d 13be 45e8 f1bb 6e3d e53e
000001e0: bac2 32bc 6c3e 26be c1c1 6bbe aeed 273e
000001f0: 04c6 8cbd aace b7bd e728 933c 5366 f4bd
00000200: 3b45 02bf b05a 6a3e d036 a53d 6c72 a83e
00000210: 7211 94bc 2a37 1cbf 4b75 8f3e 780d af3d
00000220: 59ec 973e 27fb 903e 7638 cfbe aee0 c83d
00000230: b355 ea3d 4e71 083e f0f7 ce3b 97fd e2be
00000240: a1df dabe 4cb2 98be 569e ed3e d0b0 543d
00000250: d789 8d3e 794a c0bd 2894 953e 9041 c73e
00000260: 4d0f dc3e 67a8 14be 0206 cb3d 802e 223e
00000270: 97f3 04be 3920 afbc 06ad 863e 8d50 cd3d
00000280: 5bfe c63d 0fdb bd3e 098d a8be 211a b0bd
00000290: 5b98 5fbd 105f b03d d8b8 b8ba bab7 293e
000002a0: 40b9 adbd 9306 d0bd 1378 ab3e 26af 0c3c
000002b0: 2e8a 3c3b 4820 d3bc a85a 4c3e 41b5 d9bd
000002c0: bef9 51be 71b5 663e 5055 023e ff54 2d3e
000002d0: 4f87 b3bb 7064 b33e 4fe4 6f3d 3a69 0ebe
000002e0: 7bf1 c5bd 2f09 d3bd b833 073e aaf4 cc3e
000002f0: 8f6d 543e c902 533d f4d6 2a3e 3ce3 813d
00000300: 48eb d9be a37d 6f3e 144c 893e 712f cb3d
00000310: 3f29 8f3e cbbe 5c3e fb84 b0bd ceb9 b7be
00000320: 37f2 c8be 87d0 9fbe b4f0 973e 442f 293d
00000330: 56b4 203e a553 bc3d 4b78 60be cd6f 773e
00000340: aa1d 113e e02e 06bf 0212 38be 20f5 453d
00000350: 2682 a6bd ab3a f9be f497 2b3e 68e6 afbc
00000360: bb02 2dbe f01a 243e 611e bd3e 39fc 363e
00000370: e5fa 0d3e 6f01 943e b500 bd3e 8ce9 c83d
00000380: f3d3 78bd 2edb 333e 5226 833d 7643 4f3d
00000390: 1d2d 80be e056 b3be fbd7 f23d a616 fe3e
000003a0: 050d d4bd f1b5 27be 6b98 1ebd 298c a53e
000003b0: be1e 133f 2e96 4e3d 737c 673d a9cb cbbd
000003c0: 0066 22bf 81df 263e c604 8d3d 6055 a6be
000003d0: 6d38 e43c 0a96 89be 5244 8a3e 94ec f83d
000003e0: 9393 25be 55ae 8bbd ea08 d5bd 3cf9 04be
000003f0: f117 0dbd 964b babe 9f48 fcbe 1c52 2d3d
-0.15345557 -0.20436 -0.1991585 -0.26266438 0.38955277 -0.38210684 -0.18462214 0.06553094
0.07078505 0.3150993 -0.009258691 0.12746528 0.28279576 0.14414255 0.16837211 -0.004638134
-0.36081833 -0.41232446 0.2145624 0.2244474 -0.107277624 0.09530244 -0.108880766 -0.37386104
-0.22783281 -0.25703275 0.3502925 0.10909257 -0.15088426 -0.03391082 -0.15693 -0.15554738
0.21518023 0.009572792 0.2765697 0.11793805 -0.3843521 -0.38951597 0.057141773 -0.092274986
0.06652518 0.17590263 -0.062086582 -0.2697038 -0.11406664 0.04697843 0.062981 0.22790122
-0.011042799 0.044871807 0.10646645 0.13128708 0.3067928 -0.10452922 -0.2422298 -0.030844972
0.20863783 0.083902955 0.17272393 -0.3719618 -1.6664962 0.18932953 0.18809931 -0.09429124
0.075415194 -1.0149062 -0.18678282 -0.18100707 0.16852787 0.022623923 -0.0022282798 0.15259503
0.35072076 0.29974723 -0.04997216 0.22247157 0.20705815 0.123592325 0.1684381 0.3917941
0.034161594 -0.3724715 -0.15609978 0.0322187 -0.49380058 -0.08879231 -0.054716017 0.17852788
-0.43427154 0.22074431 -0.24598561 -0.16689517 0.15840687 0.16882087 -0.52174246 -0.18708414
-0.11531697 0.012587919 0.30747965 -0.13344878 0.25988868 -0.26479447 0.17923076 0.2579811
-0.16013093 -1.2442344 -0.11189823 -0.3076244 0.2696403 -0.7713119 0.6031482 -0.105401985
0.2959055 -0.15282837 -0.20480785 -0.13030313 -0.19345738 -0.143667 -0.007382425 0.4477343
-0.010910684 -0.1623475 -0.2302313 0.16399261 -0.06873706 -0.08974965 0.01796384 -0.11933579
-0.5088689 0.22886157 0.08067095 0.32899797 -0.018074725 -0.61021674 0.28019175 0.08547491
0.29672506 0.28316614 -0.40472764 0.09808479 0.11442127 0.13324472 0.0063161775 -0.443341
-0.4274874 -0.2982353 0.46409863 0.051926434 0.27644226 -0.093892045 0.29214597 0.38917208
0.42980424 -0.14517365 0.09913255 0.15838051 -0.12983547 -0.02137767 0.2630388 0.100251295
0.09716483 0.3708119 -0.329201 -0.08598734 -0.054588657 0.08611882 -0.0014093174 0.16573992
-0.08482599 -0.10157504 0.33490047 0.0085866805 0.0028768885 -0.025772229 0.19956458 -0.106302746
-0.20505425 0.22530152 0.12727857 0.16926955 -0.0054787765 0.35037565 0.05856734 -0.13907328
-0.09665199 -0.10304486 0.13203323 0.40030414 0.20744918 0.051516328 0.1668356 0.0634217
-0.42562318 0.2338777 0.26815856 0.09921158 0.27961156 0.21557157 -0.08619114 -0.35883945
-0.39247295 -0.3121378 0.2967583 0.04130484 0.15693793 0.091956414 -0.21920888 0.24163742
0.14171472 -0.52415276 -0.1797562 0.048329473 -0.081302926 -0.48677573 0.16757184 -0.021472171
-0.16895573 0.16025901 0.3693724 0.17869653 0.1386524 0.28907344 0.36914602 0.098101705
-0.060749006 0.17564079 0.064037934 0.050601445 -0.2503442 -0.35027218 0.11857601 0.49626654
-0.10354046 -0.16377999 -0.038719576 0.32333496 0.57468784 0.05043619 0.05651517 -0.099509545
-0.6343689 0.16296197 0.06885676 -0.3248701 0.027858937 -0.26872283 0.2700525 0.12154499
-0.16169576 -0.068203606 -0.10402091 -0.129857 -0.03444666 -0.36385792 -0.49274155 0.042314634

l2.bias f4 [256]
00000000: df5d f2be 7a71 173f 3c90 69bd ffa5 b9be
00000010: 06ad e3bd 56f4 edbe 2cbd f8be c8ca 0c3f
00000020: d65e f8be 8b6b f5be 2c6b a3bd 67e6 eabe
00000030: 49aa 133f 6767 6bbe e95d 1a3f b365 073f
00000040: 4639 b4bd eea6 1cbf 4b2c 0f3f 8661 153f
00000050: cec8 183f eccf d5be 82e2 113f 4aaf c1be
00000060: 301c f6be f27e 2a3f 1a4f 2c3f 5776 183f
00000070: 9926 ecbe 62df 683e 0c31 0a3f 5a32 403f
00000080: 02aa 1f3f b915 64be 3d8a ecbb e0ae 263f
00000090: 491f 38bd fa9a 9cbe c13e 46be 4a55 88be
000000a0: 79ac 273f f753 313f be2d 233f 7c72 1abf
000000b0: df37 92be 06f7 34bf 9bf2 fabe 44fb 1ebf
000000c0: 9372 9fbe 3724 283f 84d4 263f c1b5 a6be
000000d0: 2a4c 053f bc79 303f 7674 9dbe ef16 0a3f
000000e0: 7bac 123f 3490 c8be e055 f0be 701e 153f
000000f0: f137 2d3f e611 01be 44e8 2a3f fc4b 243f
00000100: 77ef 183f c738 b0bd 04a6 1c3f cd57 fcbe
00000110: f6a8 043f 3569 98be 3e59 ddbe b616 b7be
00000120: f3e8 0d3f 4626 adbe a7dd 073f f76a 1fba
00000130: 428f 0d3f 1db2 183f 4324 eb3e c572 203f
00000140: b6c7 82be 7600 cfbe 26dc 023f 03e7 333f
00000150: 3ce9 303f 80ba 183f b2b8 febe 0f74 1e3f
00000160: d497 0ebf 0d48 19be 0419 1d3f 7b95 093f
00000170: c7c8 093f 593a f93c 93d5 92be d921 0e3f
00000180: 214f fa3e eb69 203f 8b87 0c3f 0980 bfbe
00000190: dc21 333f 4259 06bf 11cc 143f e190 c0be
000001a0: f81a 62be 9244 b6be 1a4c 033f cca2 76be
000001b0: ba73 143f bde4 0a3f 8b84 283f 76aa ea3e
000001c0: 0fa3 233f 17c4 1d3f cb2c 263f aa62 213f
000001d0: f321 c8be 426d 243f d622 97be 10cf 143f
000001e0: 16d6 d4be 2220 f2be 378f 1b3f 3154 143f
000001f0: 9a09 2e3f 0f15 243f 41e3 58be 6f71 283f
00000200: a404 b4be 732b 81be e540 28be 0a08 323f
00000210: 24dc 233f 544f d4be 7f49 233f 98f2 ea3e
00000220: bfb9 153f dc44 113f 10b6 213f 8fc0 233c
00000230: 647f 1c3f d517 e33e 5e03 d1be 071a 183f
00000240: 8c11 313f caac 93be 14cd 1e3f 1fa0 313f
00000250: b3a8 2a3f 8d46 0e3f da58 233f 832d 323f
00000260: f324 8bbb e25e 063f e172 2a3f 9e71 11bf
00000270: ae2d 003f c702 203f 2130 7cbe 3f28 cabe
00000280: f546 bebd 7b19 5fbe 3936 9cbd 2c38 19be
00000290: be2e 9cbe 81e4 2b3f d84c a43e 6235 e33e
000002a0: fc0b 92be 9e83 5dbe bb8d b3be 84e7 043f
000002b0: fe1c eabd f101 36be b366 423f 9de5 173f
000002c0: e8c3 0f3f 4ba8 3bbe 7e16 f9bd c85c 123f
000002d0: b263 243f 55a0 203f 9282 043f 58f9 8ebe
000002e0: 2e4c 1e3f d08b c1be a5d9 233f 1a61 3e3f
000002f0: 144a 0d3f 73eb c338 3901 0f3f 97f8 0f3f
00000300: 12ab 393f bae0 0f3f 3f01 98be e838 0a3f
00000310: e4d4 08bf b5fc 6ebe 0013 153f c013 02bf
00000320: 45cc d1be 0c82 13be f280 a2be b16b 143f
00000330: f10b 163f 9cc6 79be edff c13e 7bad 95be
00000340: 2257 2b3f 6eb6 c9be 102e 283f 59dd 30be
00000350: 2420 0a3f 7487 013f 3802 f6be c9a7 213f
00000360: c959 1b3f 0e68 a3be 8d27 1c3f 1f34 353f
00000370: 81bc 1d3f 6275 3f3f f621 04bf 8424 91be
00000380: 860e 303f 6716 253f ef38 2c3f 3dd5 373f
00000390: 7386 1f3f ec4e a9be a5e2 44be 0f89 073f
000003a0: a6df a0be 8e79 2a3f 8ad4 023f ada6 70be
000003b0: 65bd 253f 660c 273f 98aa 0b3f 6e01 9abe
000003c0: 4f67 173f 2379 033f 130a 3fbe 6938 01bf
000003d0: 13f1 053f c364 2cbe ed9b 223f 6c8e 35be
000003e0: bf95 293f abfc 0dbf e7af 9bbe b408 dabe
000003f0: 821c b0be 1f44 54be ad0f 0dbd a779 bdbe
-0.47337243 0.59157526 -0.05702232 -0.36259457 -0.11116986 -0.46475476 -0.48581827 0.5499692
-0.48509854 -0.4793361 -0.07979426 -0.45878908 0.5768171 -0.22988664 0.60299546 0.52889556
-0.087999865 -0.61192214 0.5592696 0.58351934 0.59681404 -0.41760194 0.5698625 -0.37829047
-0.4806838 0.66599953 0.673082 0.5955557 -0.46123198 0.22741464 0.5398109 0.7507683
0.62368786 -0.22273912 -0.0072186277 0.6511059 -0.04495171 -0.30586988 -0.19359876 -0.2662757
0.6549755 0.69268745 0.6374167 -0.6033094 -0.2855825 -0.7068943 -0.49013218 -0.6210215
-0.311421 0.6568026 0.65168023 -0.32560542 0.5206934 0.6893575 -0.30752915 0.53941244
0.57294434 -0.39172518 -0.46940517 0.5824957 0.67663485 -0.12604484 0.6676066 0.6417844
0.59740394 -0.086045794 0.6119082 -0.49285737 0.51820314 -0.29767767 -0.4323215 -0.35759515
0.5543358 -0.33818263 0.5307259 -0.00060813077 0.5529672 0.5964678 0.45926103 0.62675124
-0.25542992 -0.4043004 0.5111717 0.7027437 0.6910589 0.59659576 -0.49750286 0.6189584
-0.5570042 -0.14968891 0.61366296 0.53743714 0.53821987 0.03042333 -0.2867857 0.555204
0.48888496 0.6266162 0.5489432 -0.3740237 0.6997354 -0.52479947 0.5812388 -0.37610534
-0.220806 -0.3559919 0.51287997 -0.2408554 0.57989085 0.54255277 0.65827245 0.45833176
0.6392068 0.61627334 0.649121 0.63041174 -0.390884 0.64229214 -0.29518765 0.5812845
-0.41569585 -0.4729014 0.60765404 0.57940966 0.679834 0.6409463 -0.2118044 0.65798086
-0.3515979 -0.25228462 -0.16431005 0.69543517 0.6400778 -0.41466773 0.6378402 0.4588821
0.5848655 0.56745696 0.6316843 0.00999464 0.6113188 0.4435412 -0.4082288 0.59414715
0.691674 -0.28842765 0.62031674 0.6938495 0.66663665 0.555764 0.6380745 0.69600695
-0.004246348 0.5248853 0.6658154 -0.5681399 0.500697 0.6250424 -0.24627735 -0.3948383
-0.09290878 -0.21787064 -0.0762753 -0.14962834 -0.3050441 0.67145544 0.32089877 0.44376665
-0.28524768 -0.21632239 -0.3506907 0.51915765 -0.11431311 -0.17774178 0.75937957 0.5933474
0.56158304 -0.18325917 -0.12162493 0.5717282 0.6421462 0.6274465 0.51761734 -0.2792461
0.6183499 -0.3780198 0.64003974 0.74366915 0.5519116 9.3421804e-05 0.5586124 0.56238693
0.7252666 0.5620228 -0.2968845 0.5399308 -0.53449845 -0.23338588 0.58232117 -0.50811386
-0.40976158 -0.14405078 -0.31739002 0.57976824 0.5861197 -0.2439217 0.37890568 -0.29233918
0.6692983 -0.39396995 0.65695286 -0.17271937 0.5395529 0.5059731 -0.48048568 0.63146645
0.60683876 -0.31915325 0.6099785 0.70782655 0.6161576 0.74788487 -0.5161432 -0.28348172
0.6877216 0.6448731 0.67274374 0.7180975 0.6231453 -0.33068025 -0.19227083 0.5294351
-0.3142063 0.6659173 0.5110556 -0.23501082 0.6474212 0.65253294 0.5455718 -0.30079216
0.5914201 0.51356715 -0.18656187 -0.504767 0.52320975 -0.16835313 0.63519174 -0.17730111
0.6624412 -0.55463666 -0.3040764 -0.42584765 -0.3439675 -0.20729111 -0.034438778 -0.37006876

l3.weight f4 [1, 256]
00000000: 9717 3bbf 9f18 ae3c 7fc1 a9bf 187c 12bf
00000010: f403 95bf af88 cdbe a5b0 3dbf 8211 023e
00000020: a6a3 1cbf 9f28 18bf a135 bf3c 8b8c 71bf
00000030: 1b0e 993e 9c95 0bbf 4b12 873e 2c07 6e3f
00000040: 916a a1bf 5b98 24bf 7ed8 2a3e ac91 8d3e
00000050: a871 193e bc22 67bf 9f26 c03e 19de 28bf
00000060: a51d 30bf eef5 613e f8b4 353e 2d55 3a3e
00000070: 896b 36bf ff8f bf3f 042b 8a3e 6c04 153f
00000080: d755 e53e 0d6f 1ebf fd69 7abf ef5d a03e
00000090: 214a 8cbf 2a3b 27bf 1d4a 69bf b9f2 96bf
000000a0: 1ade 123f 457f ca3e 1034 763e 8198 54bf
000000b0: 461e 89bf de94 81bf e202 f2be 91e3 85bf
000000c0: 0a2b 3cbf e53e de3e 8f05 fa3d 43bb 44bf
000000d0: 3694 853e f279 793e d9c9 37bf 8cbf 513e
000000e0: 3a04 983e e1f1 99bf 4553 82bf bc23 a53e
000000f0: e242 e53e 25de adbf a842 7e3e fecf 283e
00000100: 0639 953e e9d5 f7bf 7cf5 883e 708d 80bf
00000110: ae7f a03e e064 64bf 7645 78bf 846d 12bf
00000120: a5f1 2a3f 6db0 83bf 50df 0a3e 7f18 6f3a
00000130: 5487 a93e 384a 3f3f 9856 9d3e a664 ec3d
00000140: 0196 3dbf feff debe 8108 963e e271 673e
00000150: 3cd9 3b3e 3cfe 683e d99d 21bf 2cf4 903e
00000160: 1b86 96bf 6f06 aabf 2be8 283e d293 ed3e
00000170: 517b a73e d409 d1bf 582e 9ebf c84d 203e
00000180: 2053 9f3e ccaf d73d 57f9 4d3d 6985 9dbf
00000190: bcd2 5e3e 478b 30bf c7fa 583f a276 85bf
000001a0: 94f5 64bf 6e57 00bf 55fe fe3d baba 13bf
000001b0: 9ebe 2f3e 8926 913e 6214 943e 136b 853e
000001c0: 4b09 623e 5d94 043e c08b 023e 0eeb 8e3e
000001d0: 60f6 6abf d66d 6c3e fe75 04bf 2ceb c23e
000001e0: 46da 68bf 9b51 1fbf cb07 3a3e d7cd 013f
000001f0: e7d9 553e 3700 ce3e 4d17 01bf bde1 3f3d
00000200: 334f 59bf 210c 87bf 6f5d 58bf 9492 893e
00000210: 8738 883e 9b1a 34bf 00f6 123e f07f 533f
00000220: 5e59 1a3e 9454 bb3e 809d 623e 8ffe 0cbd
00000230: 638f e93d f68b 363f 87a7 63bf 9d45 623e
00000240: 9a41 723e e496 2dbf f032 f33d e52d e73d
00000250: 307e 4a3e 4427 7a3e aa88 423e 76dd 0c3e
00000260: 89c5 e0bf 4c56 993e e026 7a3e daea 25bf
00000270: aeb6 813e 1e90 113e 5861 d6be a7d9 30bf
00000280: a95e 33c0 930c d2bf 28cf 7ebf 8bb7 c2bf
00000290: ad16 95bf 50ae 6a3e 96e4 9d3f da13 823e
000002a0: 362e 7fbf ce26 2fbf fee5 1abf 8198 a13e
000002b0: 5187 afbf 421a 9abf 7221 a13e e481 ac3e
000002c0: dc10 943e 1b53 f0bf c8a7 33bf 5b0e cd3d
000002d0: ac53 8d3e 7388 573e 2353 5d3e 23b8 59bf
000002e0: bc3b 8b3e ed1c 69bf 3c8d 423e 8b70 ca3e
000002f0: c990 d63e 6eeb 29bd 1dfd 163e be2b fb3d
00000300: ad39 cd3e bb67 393d f646 a3bf 736e 7e3d
00000310: 2ddb 88bf 9441 73bf 023f 433e 0f50 92bf
00000320: 4587 3fbf 31d7 0ebf be95 a4bf cd45 b93e
00000330: 2505 793e 65ea 7ebf 9225 503f 2c82 48bf
00000340: bb39 f93d 509d 63bf 8e53 683e 54fe a3bf
00000350: 6b3c 673e d565 933e db84 bbbe c001 d63e
00000360: 6eac 303e 6c17 36bf 9c48 ac3e 2cf8 263e
00000370: 3d6e 233e 050f 933e 0427 15bf a9e8 83bf
00000380: 44fe 3b3e 68bb 9b3e 5890 433e ca3b 3e3e
00000390: 9cc5 823e a519 17bf 3e99 79bf c7a9 083e
000003a0: 0fd2 07bf 8eee 6c3e 1318 bf3e 4221 38bf
000003b0: 4d6f 553e 19c6 ca3d 692d 773e 57db 57bf
000003c0: 2c04 1a3f f1c3 c33e f329 1ebf 3c38 90bf
000003d0: e0df 9d3e 1d11 c7bf 1952 683e 8806 a3bf
000003e0: 0d36 df3d 6cd9 28bf 28a2 5abf 7efe 86bf
000003f0: 9599 37bf cb05 adbf 27b3 89bc ffc7 15bf
-0.7308287 0.021251975 -1.3262175 -0.572206 -1.1641831 -0.40143344 -0.74097663 0.12701991
-0.6118721 -0.5943698 0.023341002 -0.94355077 0.29893574 -0.5452516 0.26381144 0.92979693
-1.2610646 -0.64294976 0.16684148 0.276502 0.14984763 -0.90287375 0.37529466 -0.65963894
-0.68795234 0.22066471 0.17744815 0.18196554 -0.71257836 1.4965819 0.26985943 0.5820987
0.44792053 -0.618882 -0.97817975 0.31321666 -1.0960122 -0.6532465 -0.9112871 -1.1792823
0.5737015 0.39550224 0.24043298 -0.830452 -1.0712364 -1.0123556 -0.47267824 -1.0460073
-0.7350317 0.4340736 0.122080915 -0.7684824 0.26089638 0.24362925 -0.7179237 0.20483226
0.29690725 -1.202694 -1.0181662 0.32253826 0.4477759 -1.3583418 0.24830115 0.16485593
0.29145068 -1.9362155 0.2674979 -1.0043163 0.31347412 -0.89216423 -0.9698099 -0.5719836
0.6677497 -1.0288216 0.1356175 0.00091207767 0.3311106 0.74722624 0.30730128 0.11542635
-0.7405701 -0.43554682 0.29303363 0.22602037 0.18344587 0.22753233 -0.6313148 0.28311288
-1.1759676 -1.3283213 0.16494815 0.4640184 0.3271127 -1.6331124 -1.2357893 0.15654671
0.31118107 0.105315775 0.050286617 -1.2306339 0.21760076 -0.6896252 0.84757656 -1.0426829
-0.8943722 -0.5013341 0.12450854 -0.577068 0.17162558 0.28349712 0.289218 0.26058254
0.22073857 0.12947221 0.12748623 0.27913707 -0.9178219 0.23088774 -0.5174254 0.38070047
-0.9095806 -0.62233895 0.18167035 0.5070471 0.20883904 0.4023454 -0.5042618 0.04684614
-0.84886473 -1.0550576 -0.8451757 0.26869643 0.26605627 -0.70353097 0.14351654 0.8261709
0.15073153 0.36587965 0.22130394 -0.034422453 0.11404302 0.71307313 -0.889275 0.22096868
0.23657838 -0.67808366 0.1187495 0.112880506 0.19774699 0.24429041 0.18997446 0.13756356
-1.7560283 0.29948652 0.24428892 -0.6481148 0.25334686 0.14215133 -0.41871142 -0.6908211
-2.8026526 -1.6410087 -0.99534845 -1.5212263 -1.1647545 0.22918057 1.2335384 0.2540577
-0.9967989 -0.68418586 -0.6050719 0.31561664 -1.371317 -1.2039263 0.3147083 0.3369285
0.28919113 -1.8775362 -0.7017789 0.10012504 0.276029 0.21048145 0.21613745 -0.85046595
0.2719401 -0.9105976 0.18999189 0.39538988 0.41907337 -0.04148429 0.14744993 0.122642025
0.40083066 0.04526494 -1.275603 0.06211705 -1.0691887 -0.9502194 0.19067004 -1.1430682
-0.7481578 -0.55797106 -1.2858198 0.36186066 0.24318369 -0.9957641 0.8130733 -0.78323627
0.12169214 -0.88911915 0.22688124 -1.281199 0.22581641 0.2878863 -0.36624798 0.4179821
0.17253277 -0.7112949 0.33649147 0.16305608 0.15960021 0.28722396 -0.5826266 -1.0305377
0.18358713 0.30416417 0.19098032 0.18577495 0.2554139 -0.59023505 -0.97499454 0.13346015
-0.530549 0.23137876 0.37323055 -0.7192575 0.20843239 0.099010654 0.24138416 -0.8431906
0.60162616 0.3823543 -0.6178276 -1.1267161 0.30834866 -1.5552098 0.22687568 -1.2736368
0.10898981 -0.6595676 -0.8540368 -1.0546415 -0.7171872 -1.3517393 -0.01680906 -0.58508295

l4.weight f4 [256, 32]
00000000: 47e3 1f3f 880d 123d df73 02be 79a9 a1bc
00000010: efda 983b cb4b 81bc b420 1b3e 60b2 a43e
00000020: 5897 76bd 02b9 56bd 6fc7 873e 9e4d b8bd
00000030: 0664 bc3e 471b 9b3d 5b3b aebe 4b9b b83d
00000040: b2b9 35be 302e 3c3e d88a bcbe c6eb 4b3d
00000050: a2bd abbc 66db 3abe a448 ab3e 71d0 47be
00000060: 4e47 2dbd 7ba3 323d b341 d9bc a2e6 9f3d
00000070: 1358 bb3d e12f e1bd 234a 5cbd 9831 743d
00000080: d30e 413e d10b 14be 629a 313b 037e 66be
00000090: d2ac 5fbd 15e8 91bd 1403 20be 1382 253e
000000a0: 93c1 443e 2b8f 283f e8e1 743e d3f0 5b3e
000000b0: c6ce 033f 453e 143d 76a4 acbd 8dd0 10be
000000c0: 62da 54be c7f6 a5be bbde 8d3a f842 02be
000000d0: 54ee 103d 1637 20bd f4f2 6b3e 5feb e33c
000000e0: 23bd e1bd ee91 c83d 4a7b ad3e 3d54 983d
000000f0: d4d7 4bbd cb2c ac3d 5eed 76bc 82fd 85bc
00000100: fbf2 00be 2c06 983d d1ae 173e 1576 b43e
00000110: f269 26bd 10cf 4f3d dd5a dbbe bc22 713d
00000120: 33a6 b13d fe12 7f3d 6235 c13c bff6 da3d
00000130: d4c9 babe c162 40bd 29c7 763e 04a3 02be
00000140: 7f66 9b3e d7a0 79be e2d9 13be 07b5 c6bd
00000150: c8f0 2ebe 0b36 d9bd 5abe 18bf 0c0f 5dbc
00000160: ccae 1dbf e509 21bf b32a cc3d 0912 3ebd
00000170: 7010 e7bd 6ad6 2abd e253 523e baf2 883d
00000180: bb51 34be 2fd9 313e fbf0 f3bc b30f 16be
00000190: 3282 afbd a968 93bd 52e4 84bd 385d 913c
000001a0: a1d6 58be c8eb 403e 34f4 8bbe ea0a a33d
000001b0: c877 a4bd 3352 b43d df24 eebd edaf 2d3e
000001c0: 9a88 dfbd 7cc3 2e3e 589d 76be 0e77 fe3d
000001d0: 09b3 d9be 1111 afbd 5a67 133e b576 babd
000001e0: 38ab 1dbd 59d4 dfbe 5082 4b3c f760 233d
000001f0: 36da 853d 1c3a da3e 2a91 48bd 3467 a93b
00000200: fa4e 00bd 7691 923d 3500 a83c 7ab1 743b
00000210: a0f4 c2bd d526 85be ac5a d7bd 0da5 fb3e
00000220: 193d 71bd aee2 8e3e de85 16bf 46e3 bc3d
00000230: 68df cabc 139c 0cbe 9eac 01bf faca 24be
00000240: f854 f23e 01a3 563d 8b10 acbe b684 e73d
00000250: b4a2 673e bd38 f1bb 4d66 78bd 050e 2d3e
00000260: 6e22 5a3d 6326 c1bd 032e ab3e 3cd2 653c
00000270: c6c8 74be ade4 37be 6c11 473e 99a2 fbbd
00000280: fdcf b63e f1f3 0dbe fbab c33d ef33 7a3c
00000290: da48 31bc b056 00be 56b1 a9bd f80f ffbe
000002a0: 26f2 ae3e d8cc 773d 5097 0abf f1ef 53bd
000002b0: e296 eb3e 6572 c13d 26d2 203f dc0a 823e
000002c0: 134b a9be 2707 863e d407 16bd 8138 553e
000002d0: 5436 4a3e 9f00 5dbd 14b0 5e3c c87c 6abd
000002e0: 9b9e 4cbb a8e6 793d 739b abbd a537 3ebe
000002f0: 3425 803e 1c1f 1c3d 7335 86be c612 963d
00000300: 5b00 1a3e b32f 86bd 37e9 283d 20c7 b23e
00000310: f8c0 143c 4b32 6fbe 4a07 02bd 9484 243f
00000320: df1e 1f3e f963 183e 2726 bcbe c366 2bbc
00000330: 5bdf 10be 9b72 d2be f414 293d ceb3 223c
00000340: 2e6a ac3e fe9e d93d 94b7 dfbe 08f8 0fbe
00000350: 4f64 9cbe 14d9 09bf 1db1 1e3d 4d8e 433e
00000360: d169 1e3e 842d b93d 9258 543e ef2b f33c
00000370: 8c31 19bf 914c 643d 878b 973c bde8 d0bd
00000380: 46cb 4fbe d58d 91bd 7c62 0dbe 6290 0f3f
00000390: 7783 813d 2a56 f33d 9207 91bd e8d5 9b3f
000003a0: e66d 47be 70d0 7a3e bb30 19bf 7c0e 433e
000003b0: 9121 87be 1dbd 05bc 2832 44bc e914 183e
000003c0: 795c 813e dcd7 423e dfb1 3c3f 2c07 433e
000003d0: 883c 57bd 314e 2f3e ef21 123e e845 d6bc
000003e0: 8328 ebbc 9888 33bd 2092 373d 7988 d9bd
000003f0: e1cf d6bd 2db3 b4bd ab3a 0f3e e88b 98bd
0.6245617 0.035657436 -0.12739514 -0.019734131 0.004664771 -0.015783211 0.15149194 0.3216734
-0.060202926 -0.05242253 0.26519343 -0.08999179 0.36795062 0.07573562 -0.3402966 0.09013995
-0.17746618 0.18376994 -0.3682468 0.049785398 -0.020964447 -0.18247756 0.33453858 -0.19513108
-0.04230433 0.04361294 -0.026520586 0.078076616 0.09147658 -0.1099546 -0.05378164 0.05961761
0.18853311 -0.14457633 0.0027100076 -0.22509007 -0.054608174 -0.07124344 -0.15626174 0.161629
0.19214468 0.65843457 0.23914301 0.21478586 0.51487386 0.036192197 -0.08429806 -0.14142056
-0.20786431 -0.3241484 0.0010823825 -0.12720859 0.035383537 -0.039115034 0.23041898 0.027822195
-0.11022403 0.09793459 0.33883125 0.07437942 -0.049766377 0.08406981 -0.015071241 -0.016356234
-0.1259269 0.07423052 0.14812781 0.3524634 -0.04062838 0.05073458 -0.4284276 0.058871016
0.08674278 0.06227397 0.023585025 0.10691594 -0.36482108 -0.04696918 0.24099411 -0.12757498
0.30351636 -0.24377762 -0.14438584 -0.09702497 -0.17084038 -0.10606011 -0.59665453 -0.013492357
-0.61594844 -0.6290572 0.09969082 -0.04640392 -0.11282432 -0.041708387 0.20539811 0.066869214
-0.17609303 0.17368005 -0.029777994 -0.14654426 -0.08569755 -0.07197697 -0.06488861 0.017744645
-0.21175624 0.18839943 -0.2733475 0.07961066 -0.08030659 0.08804741 -0.11628126 0.16961642
-0.109147266 0.17066759 -0.2408346 0.12425052 -0.42519405 -0.08548177 0.14394894 -0.09104673
-0.038493365 -0.43716696 0.012421206 0.039887395 0.06535761 0.4262246 -0.048966564 0.0051697735
-0.031325318 0.07156651 0.020507911 0.003733723 -0.09519315 -0.2600619 -0.10515341 0.4914936
-0.058896158 0.27907318 -0.58798015 0.092230365 -0.024764732 -0.13731413 -0.5065402 -0.16093054
0.4733045 0.052401546 -0.3360637 0.113046095 0.2262066 -0.0073615 -0.060644437 0.1689988
0.05325549 -0.0943115 0.33433542 0.014027175 -0.23904714 -0.17958327 0.1944024 -0.122868724
0.35705557 -0.13862588 0.09554287 0.015271171 -0.010820592 -0.12533069 -0.08285777 -0.4981687
0.3416912 0.06049809 -0.54137135 -0.051742498 0.46013552 0.09445647 0.6282066 0.2539891
-0.3306509 0.26177332 -0.03662856 0.20822336 0.19747287 -0.05395567 0.013591785 -0.057247907
-0.0031222466 0.061010987 -0.08379259 -0.18575914 0.25028384 0.038115606 -0.26212654 0.073277995
0.15039198 -0.06552067 0.041238036 0.34917545 0.00907921 -0.23359029 -0.031745233 0.642648
0.1553912 0.14881887 -0.36747858 -0.010461512 -0.14147703 -0.41103062 0.041279748 0.009930564
0.3367476 0.106260285 -0.43694746 -0.1405946 -0.3054528 -0.5384686 0.038743127 0.19097252
0.15470053 0.090418845 0.20736912 0.029684035 -0.5984123 0.055737082 0.018499149 -0.10200641
-0.20292386 -0.071071304 -0.138071 0.56079686 0.06323903 0.11881669 -0.07081522 1.2174654
-0.19475517 0.24493575 -0.5983998 0.19048494 -0.26392797 -0.008162764 -0.011974849 0.14851727
0.25265864 0.19027656 0.7370891 0.19045705 -0.05254796 0.17119671 0.14270757 -0.02615638
-0.02870584 -0.043831438 0.04481709 -0.10621733 -0.104888685 -0.088232376 0.13987224 -0.0744856

l4.bias f4 [256]
00000000: 668b bcbe ae42 32bf 1c75 0b3f fa9d d13e
00000010: 00b6 bf3d c85b 39bf 6941 e63b c87a 3cbe
00000020: f27b fe3e 5868 74bf 46e4 61be c57e 90be
00000030: 0e4d 0f3f 5bf3 6bbf 7f9d afbe c6d3 7fbf
00000040: ae73 54bf 8865 b93e 1ad2 b23e 1afb 203f
00000050: 7961 2ebe a817 62bf 142c e43e 26a0 85be
00000060: 8242 103f fe9e 133f 6752 71be fe15 1e3f
00000070: e3a4 1a3f 5b3a 13bf 12d4 8f3e f29e 013e
00000080: 5bf2 143f 44fd cabe 12e5 a23e bf68 203f
00000090: df24 b5be bc58 3fbf 19e8 443c 9f89 b63e
000000a0: d6bd 23be ea64 d0be b2c5 1fbf de42 2fbd
000000b0: be5a 7cbe 9a69 dc3d 4373 02bf 7144 d53e
000000c0: acea 513f 83f1 33bd 4cbf b1be 0ebf 75bf
000000d0: 09cc 08bf 24fc e63d d341 303f 429d 6cbf
000000e0: 1158 cb3d 0a7b 1dbd d06b b5bc 7d08 edbe
000000f0: 66ec c7be 6f3c f93e a0fb 43bf aee0 353f
00000100: 42f9 3cbf 3ab7 92bd 616e 7b3e 5346 dfbe
00000110: 88dc c13e 32db ed3d e8cd c0be 7868 333e
00000120: 24b8 da3e 86b4 353e fde4 a9be 5e80 e2bc
00000130: 216c 22bf c657 21bf 83b6 4cbf 581e 21bf
00000140: 65be b33d 13df 863e 72a9 08be 2972 37be
00000150: 6011 2b3e 66e4 19bd cfa4 033f 3380 34bf
00000160: fad7 893e 9104 83be 52f1 6e3e 3ffe a8be
00000170: 4c4c 203f 6e7e e2be 24c1 1d3e ac28 38be
00000180: bc49 2e3e f542 edbe fe15 233f 31bb 67bf
00000190: 35fd a43c d27a 94be f4b4 643d 1727 bbbe
000001a0: 7af2 1d3f 9842 433d 872e 50bf 3138 7f3d
000001b0: cf7f eebe b0eb 133f cc12 343f c072 c8be
000001c0: 3b70 ff3d 27a9 0c3e 2e8c 59bf 8ae5 67be
000001d0: 5b4f 3abf afed d53e c917 c83e a96f 773d
000001e0: d3c0 2a3f 9fe4 6e3e 1a0d 00bf cece 013f
000001f0: 5670 eebc 3dfd 1c3d c119 31bf c629 b2be
00000200: 9535 963e 1463 b9be c7b6 52bf 54ea 0abf
00000210: 7c6f 0b3e 7fb1 ee3c cde2 283f 3b14 89be
00000220: 9c55 10bf 2bb5 53bf fc85 b4be 65ca d33d
00000230: c3a7 5dbe fab5 90be add7 48bf f891 1a3f
00000240: 3471 c0be c66b da3e ee61 083f 2742 e0be
00000250: e115 04bf afcf d5be d61b 193f 9ca6 013f
00000260: 8664 f93e f057 bcbd 4d31 bc3e 0e13 103f
00000270: 5ad6 56bf dc59 383e af43 1abf 09d5 1dbf
00000280: a07a 1d3f de35 bb3e a29d 963e d91c 443d
00000290: f7a9 29bf c365 103e a395 613e 3e30 f23e
000002a0: fc4c ad3e 72cc d13e fe41 3cbf 7335 f03c
000002b0: 6a89 8b3d f33a b2bd 7883 b3be 58e4 fbbe
000002c0: 6a95 843d c7fb 7fbe 7af8 0ebe f078 81bf
000002d0: 5a62 70be 2cab 10bf f155 c1be a868 7cbe
000002e0: 3df6 3cbf 61e1 2ebf 04b1 df3e ef78 353f
000002f0: a677 853e f1d5 01bf 17d8 273f 0a71 74be
00000300: 54e4 743e c292 0cbd f328 2ebf 1727 013d
00000310: 949a 3cbf 267c e53d d872 153d 2b38 61be
00000320: c604 423e 8eee abbe 5722 c83e ab59 73be
00000330: 3c8e 853d 9e7c 40bf beea 07bb 6eed 47bf
00000340: d8dd b1be 6144 c93e 7ad3 183f cd06 d1be
00000350: 2118 823e f5dc 80bd a357 173e 5d09 5abe
00000360: a179 c43e 9f78 043f 46a5 71be f06f 3ebf
00000370: c88e ce3e 5d9e f93e 1822 80bf 1be6 f6be
00000380: 49fc 21be 3a75 ed3d 074b c93c ed8a 55be
00000390: ad77 babe 1ab2 b73d d124 6fbf ef8f 0fbf
000003a0: cec1 10bf 9e54 46bd 7021 3b3e e1b1 993d
000003b0: f3b9 0e3f 9150 aa3e 1b6c 253f efd2 6ebe
000003c0: 3d49 19bf 5052 92be 9c66 c3be 5f94 123f
000003d0: 7682 50bf fd9b b03c f54a 513e 6bb5 28bf
000003e0: 51fa 183f 45cc 67be 7704 1b3f 0370 cdbe
000003f0: 10cd ae3c ed54 733d adf8 1d3f c83b ed3e
-0.36825103 -0.69632995 0.5447557 0.4094084 0.093608856 -0.7240567 0.0070268405 -0.18406212
0.49703938 -0.95471716 -0.22059736 -0.28221717 0.5597695 -0.92168206 -0.34299847 -0.99932516
-0.82989013 0.36210275 0.3492592 0.6288315 -0.1702937 -0.88317347 0.4456488 -0.26098746
0.5635148 0.5766448 -0.2356659 0.6175231 0.6040785 -0.5751092 0.28091484 0.12658289
0.58182305 -0.3964635 0.31815392 0.6265983 -0.35379693 -0.7474477 0.012018227 0.35651872
-0.15990385 -0.4070199 -0.62411034 -0.04278838 -0.2464399 0.107623294 -0.50957125 0.4165378
0.81998706 -0.043931495 -0.3471626 -0.9599465 -0.5343633 0.11278561 0.6885044 -0.92427456
0.09928907 -0.038447417 -0.022146136 -0.4629554 -0.39047545 0.4867892 -0.76555824 0.7104596
-0.7381784 -0.07163854 0.24553825 -0.4360834 0.37863564 0.11614074 -0.37657094 0.1752032
0.42718613 0.17744645 -0.33182517 -0.0276491 -0.6344624 -0.63024557 -0.7996599 -0.62936926
0.08776549 0.26342067 -0.13345888 -0.17914642 0.16705847 -0.037571333 0.5142335 -0.70508116
0.2692259 -0.2558942 0.23334244 -0.33006474 0.6261642 -0.44237083 0.15405709 -0.17984265
0.17020315 -0.46340147 0.6370543 -0.90520006 0.02014027 -0.28999954 0.055836633 -0.3655326
0.61698115 0.04767093 -0.81320995 0.062309448 -0.46581885 0.57781506 0.7034118 -0.39150047
0.12472578 0.13736401 -0.8497952 -0.22646156 -0.72777337 0.417829 0.39080647 0.06040922
0.66700476 0.233294 -0.5001999 0.50706184 -0.0291063 0.038327444 -0.6917992 -0.34797496
0.29337755 -0.36208403 -0.82310146 -0.54263806 0.13616747 0.029137371 0.6597107 -0.26773247
-0.5638063 -0.82698315 -0.35258472 0.10341338 -0.21646027 -0.28263837 -0.78454095 0.6037898
-0.37586367 0.4266035 0.5327443 -0.4380047 -0.51595885 -0.41760013 0.598081 0.5064485
0.48709506 -0.0919646 0.36756364 0.56279075 -0.83920825 0.18003029 -0.60259527 -0.6165319
0.61515236 0.36564535 0.2941714 0.047879074 -0.6627497 0.14101319 0.22029738 0.4730243
0.33847797 0.40976292 -0.73538196 0.029322362 0.06813319 -0.0870265 -0.3506124 -0.4919765
0.06473811 -0.24998389 -0.13961974 -1.0115032 -0.23475018 -0.5651119 -0.3776088 -0.24649298
-0.7381323 -0.6831265 0.4368974 0.70887655 0.26067847 -0.50717074 0.655641 -0.23871246
0.23915225 -0.034319647 -0.68031234 0.03153142 -0.7367337 0.1120532 0.036486477 -0.21994083
0.18947133 -0.3358044 0.390887 -0.23764674 0.0652127 -0.7519015 -0.0020739282 -0.78096664
-0.34739566 0.3930998 0.5969769 -0.408255 0.25409034 -0.06292144 0.14779525 -0.21292634
0.38374045 0.51746553 -0.23598203 -0.74389553 0.40343308 0.48753634 -1.0010405 -0.48222432
-0.15818895 0.11594625 0.024571909 -0.20853777 -0.3641943 0.08969517 -0.9341555 -0.56079
-0.5654572 -0.04842054 0.18274474 0.07504631 0.55752486 0.33264592 0.6461808 -0.23322652
-0.5987738 -0.28578424 -0.38164222 0.57257646 -0.8144907 0.021558756 0.2043875 -0.6590182
0.5975695 -0.22636516 0.6055369 -0.4012452 0.021338016 0.059407163 0.61707574 0.46334672

l5.weight f4 [256, 256]
00000000: f691 1f3e 96f7 03be fbbb c23d 7a5a 5b3e
00000010: 05b0 8f3d 47f2 40be 92fb c2bc 04ca 26bd
00000020: f95c 58bc 4fef a23d 77bd 29bf 6cd8 2ebe
00000030: 5065 5d3e 9c0f 6ebe e54e 0cbe eb57 0fbf
00000040: 1167 ab3d ec05 993d ca2a 9e3d 3e58 c63d
00000050: d3c3 1b3e ba6b cdbd c9c9 a73d 2a4b c3be
00000060: c7ea a3bd 1c07 8d3e f4b2 98be ac0c a03d
00000070: 9ecc 343c bca3 0d3d 927f 4f3c a312 a23d
00000080: 2d17 18bd 6125 2e3e 3a14 763d 7040 583d
00000090: 58a5 b63d fdf0 e63d 1fde 1b3e 9a31 9dbc
000000a0: ccb9 9d3d be37 cb3d 1970 14be bc43 bfbd
000000b0: 768d 8ebd 55f7 3abd 6b8c dcbd 43ed 05bd
000000c0: 2c3e 1c3e dfab 2e3d 05ef fcbd da9b 093c
000000d0: 5dab 9dbe 1d15 2c3a e6a2 aa3d c26b 28bc
000000e0: aabb f43b bc23 19be 67c3 92be aed9 3a3d
000000f0: 9b76 0e3c ab74 d53d e1d8 e0be 687b 2e3e
00000100: ad2d bf3d 0fc6 32bc 6418 453d 6d4d 923d
00000110: fa34 79bd 6308 f23d ff6b a83d 1032 ba3d
00000120: fc78 1e3e da6e 523e b5e1 f9bc 601f 20be
00000130: 9806 6ebe 7103 023e 6723 923c 5f56 11be
00000140: 229f 823d 2b94 923d cb08 d73c 1de5 9abd
00000150: 86c7 c83c 35fa f1bd f83f 1e3e df68 77be
00000160: 99fe f13d 3f93 083e e186 df3d 175b bf3c
00000170: 10b4 ed3d db64 0c3d c854 2f3d 373c 263e
00000180: b295 c4bd 04f4 843e a7c1 fe3d 4060 1dbd
00000190: bee3 2c3e 3bd2 d73d c46d aa3d 78e9 8dbd
000001a0: 99c6 2d3e 6a26 173e abaa b3be 472f 6c3b
000001b0: a542 1cbe 0e12 e73d 0ae9 d43d 2e3c 153e
000001c0: dcd4 c83d 03f4 3cbd eb33 2d3d e05f b6bc
000001d0: a17c 02be e8a2 853b eb8a 933e a470 da3d
000001e0: fbdc fa3d d83a 653c 72ba 46bd 4465 ea3d
000001f0: ff56 dc3c 6056 7f3c cdfc f4bc a755 d93c
00000200: f88e 533d a01e a0bd aed2 dcbc 2529 dc3c
00000210: 973d 2c3c a6d3 8b3d 319f dd3d b2b3 78bd
00000220: f1c9 3e3e 0dc7 b3be b8fe 0f3e e2a3 1fbc
00000230: 17cb 863c bd0e 063e c96e a83d 80d8 7f3e
00000240: a79b ecbd 3159 3a3c 351a fc3d 39a2 493e
00000250: 88d8 773e 99f1 01be 7bd5 2a3e 3a41 0fbd
00000260: 7e1a 9c3d 7011 ecbd fd2e 803e 7d09 273d
00000270: a24f 813e b820 1b3d 71fd f7bc 3990 10be
00000280: 5c8c 183e 4825 283e 7a50 473e e5ce 983d
00000290: 4552 0ebe 10e1 f63d f656 cebc e2f3 b33c
000002a0: 6823 1c3e 117e 253e e719 9dbd 6d30 0f3e
000002b0: 8122 ea3d 7bdf 783e 6004 adbd df42 533e
000002c0: 4992 993a 1efa 04bd 3c00 27bd cac1 efbe
000002d0: c1df b73d 6a27 5e3d 8bd3 943e b642 5e3d
000002e0: 0d1e 24be 6567 6c3e 5c7c 213d 6700 553e
000002f0: 3d79 363c 0134 7bbe 9df5 6d3e 3046 203e
00000300: 0198 85bd 4774 91bd 9df3 a33d 1d73 423e
00000310: f979 4b3d 3c17 8f3d 1a10 383d 5db8 90bd
00000320: 3885 bfbd 43fc 923d 90d5 ed3d bc16 6d3d
00000330: 089e ac3d aae6 4dbd ede5 6e3d 9033 92be
00000340: 2986 f9bd 6df3 003e 845b 243e 13bc eabd
00000350: 788f ed3c eef8 6c3e 7edf 13bd 55b7 d03d
00000360: 18ab 513e 90d5 213e 4053 133e 59af eebe
00000370: aacb 183e 31c5 813d 10d7 8dbe 10fc 27be
00000380: 83bf 80bd 7c7a 9abd 2426 813d 01e3 98bd
00000390: 9b3d d53d 39c6 163e dacd 213e bdb3 17bb
000003a0: 1688 2ebc a1ef 61be f31d 1cbd d026 413e
000003b0: fda4 f73d 4c2d acbd 041a 7a3d 384c 2f3d
000003c0: f149 b73c ba0c c8bd 13bb 793d 5521 fa3c
000003d0: f456 423e 5be2 273d dd8a 30be 9911 9b3b
000003e0: ae22 e03c ab06 e3be b6de 833e 1b83 643d
000003f0: 59de 74bc b77c 773e b61e 843d 6197 b93c
0.15583023 -0.12887415 0.09508511 0.21421233 0.07015995 -0.18842421 -0.023801599 -0.04072
-0.01320576 0.07955801 -0.66304725 -0.17074746 0.21620679 -0.23248142 -0.13701971 -0.5599353
0.08369268 0.07471833 0.07723005 0.096847996 0.1521142 -0.10030313 0.08192784 -0.38143283
-0.080037646 0.27544487 -0.2982403 0.07814917 0.011035113 0.034579977 0.0126646925 0.07913711
-0.037131477 0.17006446 0.060077883 0.052795827 0.089182556 0.112764336 0.15221451 -0.01918869
0.077014536 0.09922741 -0.14495887 -0.09339091 -0.06960575 -0.04564603 -0.1076897 -0.032696974
0.15258092 0.042644378 -0.12350277 0.008398974 -0.30794802 0.00065644254 0.08331852 -0.010279598
0.0074686604 -0.14955038 -0.28664705 0.04561775 0.00869527 0.10422643 -0.43915465 0.17039263
0.09334884 -0.010911479 0.048118964 0.07143674 -0.060841538 0.11818006 0.082237236 0.0909158
0.1547584 0.20550099 -0.030503133 -0.15636969 -0.23244703 0.12696625 0.017839147 -0.14193104
0.063780084 0.07157167 0.02624931 -0.07563231 0.024509203 -0.11815301 0.1545409 -0.24161099
0.11816139 0.1333742 0.10914398 0.023358865 0.1160661 0.03427587 0.042805463 0.16233908
-0.095988646 0.2596742 0.1243928 -0.03842187 0.16883752 0.10538145 0.083217174 -0.06929296
0.1697029 0.14760748 -0.35091147 0.0036038922 -0.15259798 0.112827405 0.10396011 0.14573738
0.09806225 -0.046131145 0.04228584 -0.022262514 -0.12742855 0.004078258 0.28816923 0.10666016
0.1224918 0.01399108 -0.04851765 0.11445096 0.026896952 0.015584558 -0.029905701 0.0265301
0.051650017 -0.07818341 -0.026955929 0.026875088 0.010512731 0.06827478 0.10821379 -0.060718246
0.18631722 -0.351128 0.14062011 -0.009743663 0.016454263 0.1309156 0.082242556 0.24984932
-0.11553126 0.011373804 0.12309686 0.1969079 0.24203694 -0.12689818 0.16682999 -0.034974314
0.076222405 -0.115267634 0.2503585 0.040780533 0.25256068 0.037873 -0.030272217 -0.14117517
0.14897293 0.16420472 0.19464293 0.07461337 -0.13898571 0.12054646 -0.02518795 0.021966878
0.15247881 0.16161372 -0.07670956 0.13983317 0.11432362 0.24304001 -0.084481 0.20630978
0.001171657 -0.032465093 -0.040771708 -0.46827537 0.089782245 0.054236807 0.29067644 0.05426284
-0.16027088 0.23086317 0.03942524 0.20800935 0.011137304 -0.24531557 0.23238225 0.15651774
-0.06523133 -0.07102256 0.0800545 0.18989225 0.04967687 0.069868535 0.04493723 -0.070664145
-0.09351581 0.07177021 0.116129994 0.05788301 0.084285796 -0.050268807 0.058324743 -0.28554964
-0.12183792 0.1259286 0.16050535 -0.114616536 0.028999075 0.23141834 -0.03610181 0.10191218
0.20475423 0.15804124 0.14387226 -0.46618155 0.14921442 0.063364394 -0.27703142 -0.16404748
-0.06286528 -0.07542893 0.06306103 -0.074651726 0.10412141 0.14724053 0.15801182 -0.0023147904
-0.010652563 -0.22064067 -0.0381145 0.18862462 0.12092016 -0.08407077 0.061059967 0.042797297
0.022374125 -0.097680524 0.060969424 0.030533472 0.18978482 0.040987354 -0.17240472 0.0047323224
0.027360287 -0.44341025 0.25755852 0.055789094 -0.01494559 0.24168669 0.0645117 0.02265519
