Project/Ming_Jiang_1016239_Gengcong_Yan_1009903_Project/Part2/trained agents/td3_bc/HalfCheetahBulletEnv-v0_TD3_BC_8_1638388583_td3_bc.pth (torch, 898095 bytes, 16 tensors)

l1.weight f4 [256, 32]
0	0xbe9f062d	-0.310594
1	0xbd680574	-0.056645826
2	0x3d6ff237	0.058580603
3	0xbe8c04e5	-0.27347484
4	0xbdbf5a39	-0.093433805
5	0xbeb22b3c	-0.3479861
6	0xbd86c3f3	-0.06580343
7	0xbee293d9	-0.44253424
8	0xbef5ce68	-0.48009038
9	0x3f250b8c	0.64470744
10	0xbd9ace90	-0.0755893
11	0x3e2cacbf	0.16862772
12	0x3f359748	0.7093396
13	0xbd8f275c	-0.06989929
14	0x3ef85353	0.4850107
15	0x3e00a848	0.12564194
16	0x3df9d310	0.1219846
17	0x3df63849	0.12022454
18	0x3c8096bc	0.015696876
19	0xbd9f7e4c	-0.07787761
20	0x3e2e2a1b	0.1700825
21	0xbe3a006e	-0.18164226
22	0x3e67b369	0.22627033
23	0xbda80296	-0.08203618
24	0xbd5718de	-0.05251395
25	0x3ce74c12	0.028234515
26	0x3e43c4d8	0.19118059
27	0xbd656243	-0.056001913
28	0xbe1ddd0a	-0.15416351
29	0x3e12f2d5	0.14350446
30	0x3e8ebbc6	0.27877635
31	0xbdaff437	-0.08591502
32	0xbf6407aa	-0.89074194
33	0x3d86ccad	0.065820076
34	0x3e428fec	0.19000214
35	0x3df6e8d7	0.120561294
36	0xbd4740d3	-0.048645806
37	0xbee1d123	-0.4410487
38	0xbda8c814	-0.08241287
39	0x3f0e6355	0.5562032
40	0xbda7b6e9	-0.08189184
41	0xbd2394df	-0.039936896
42	0x3e1a62de	0.15076777
43	0xbe609e0b	-0.21935289
44	0x3f256b41	0.6461678
45	0xbc37089f	-0.011171489
46	0xbeda337b	-0.426174
47	0xbd374834	-0.044746593
48	0xbed3a621	-0.41337684
49	0xbd365db7	-0.044522967
50	0x3b44cf36	0.0030030734
51	0xbd1ca79e	-0.03824579
52	0x3ccadef3	0.024764514
53	0xbc9a9b0c	-0.01887276
54	0x3cb9c899	0.02267866
55	0xbe318e8e	-0.17339537
56	0xbc090336	-0.008362582
57	0x3de611d3	0.112338684
58	0x3e9d46af	0.3071799
59	0x3d67e299	0.056612585
60	0x3da1a98e	0.07893668
61	0x3e42a1d3	0.19007044
62	0x3e07b5f3	0.13253002
63	0xbd69462a	-0.05695168
64	0x3f0f7af9	0.56047016
65	0xbe119500	-0.14216995
66	0x3dc6f025	0.09713773
67	0xbe0cbe3c	-0.13744444
68	0xbdff2818	-0.12458819
69	0x3f113a36	0.5672945
70	0xbe9ea08c	-0.30981863
71	0xbefea30a	-0.49733764
72	0xbdc9233a	-0.09821172
73	0x3eb38770	0.35064268
74	0x3ead210e	0.3381428
75	0x3e7afd50	0.24510694
76	0x3d97d3ce	0.074134454
77	0x3deec8ef	0.11659419
78	0x3f3d24cb	0.73884267
79	0x3f13d26e	0.57742965
80	0x3e8e6dab	0.27818045
81	0x3f5653d8	0.83721685
82	0x3de960d2	0.1139542
83	0x3e523d46	0.20531186
84	0x3e293121	0.16522647
85	0x3d934808	0.07191473
86	0x3e16bf70	0.14721465
87	0x3e40bb59	0.18821467
88	0xbd5ac450	-0.053409874
89	0x3c78a9ae	0.015177174
90	0x3ef8c703	0.48589334
91	0xbe9c768e	-0.305592
92	0xbe559604	-0.20858008
93	0xbe8d08ab	-0.27545676
94	0x3efa4474	0.4888035
95	0x3bf17930	0.007369183
96	0x3dcdaa31	0.10042227
97	0x3e322f74	0.17400914
98	0x3e20d32f	0.1570556
99	0xbe7b43c2	-0.24537566
100	0xbe28234c	-0.16419715
101	0x3dd1831e	0.10230087
102	0xbdd784c4	-0.1052337
103	0x3e5cb88b	0.21554773
104	0x3dabef8a	0.08395298
105	0xbdac7422	-0.08420588
106	0xbca9840a	-0.020692844
107	0xbe248791	-0.1606734
108	0x3dae1778	0.0850057
109	0xbdf7021e	-0.12060951
110	0xbd71854d	-0.058965016
111	0x3d3251aa	0.043534912
112	0xbd1dab47	-0.03849342
113	0x3bf615fe	0.007509946
114	0x3db79ed1	0.08965839
115	0xbda12e25	-0.078701295
116	0xbe55a50a	-0.20863739
117	0x3e4d9f03	0.2008019
118	0x3e41f14d	0.18939705
119	0x3f10206f	0.5629949
120	0xbe69148d	-0.22761746
121	0xbe7be545	-0.24599178
122	0x3c54521a	0.012959028
123	0xbea148f3	-0.31500968
124	0xbd6cb009	-0.057785068
125	0xbc25b2f6	-0.010113468
126	0xbceafdc3	-0.028685456
127	0xbd853895	-0.06504933
128	0x3bfa24b9	0.007633772
129	0xbe18cc8d	-0.1492178
130	0x3ed9862f	0.42485186
131	0x3db815c0	0.089885235
132	0xbe1f92fd	-0.15583415
133	0x3d8ee67e	0.06977557
134	0xbed62e8d	-0.4183239
135	0xbe8ee0d8	-0.27905917
136	0xbead65f5	-0.3386685
137	0xbdf1f2ef	-0.11813914
138	0xbed4ab11	-0.41536763
139	0xbc960173	-0.018311238
140	0xbe83d639	-0.25749376
141	0xbe2aa321	-0.16663791
142	0x3dfd375e	0.12364076
143	0x3de86d06	0.113489196
144	0xbd9ba72a	-0.076002434
145	0x3e0fcb2d	0.14042349
146	0xbecf2bd6	-0.40463132
147	0x3c5aba73	0.013350117
148	0xbd07349a	-0.03300915
149	0xbaa2f10f	-0.001243146
150	0xbecd7c96	-0.40134114
151	0xbe60f4b3	-0.21968345
152	0xbed3a2aa	-0.4133504
153	0xbea20c6c	-0.31650102
154	0xbe460dad	-0.19341154
155	0x3d5d8152	0.054078408
156	0x3ea205b2	0.3164497
157	0x3b310bc6	0.0027015074
158	0x3ded4fd2	0.1158749
159	0xbd85a578	-0.06525701
160	0xbe9b2373	-0.30300483
161	0xbe168ba8	-0.14701712
162	0xbe5306d0	-0.20608068
163	0x3e16032a	0.14649644
164	0xbdeed0e7	-0.11660939
165	0xbe4ad517	-0.1980785
166	0x3e1bac4d	0.15202446
167	0x3ed41dfb	0.41429123
168	0x3e727fe4	0.23681599
169	0x3d198dc6	0.03748872
170	0x3eee3ac7	0.4652922
171	0x3c4a321a	0.012341047
172	0x3d03f014	0.03221138
173	0xbd9ce63d	-0.07661102
174	0xbed6ef9b	-0.4197968
175	0xbd5c8d4d	-0.053845692
176	0xbe3b0048	-0.18261826
177	0xbe803b06	-0.2504503
178	0xbedf6dad	-0.43638363
179	0x3a443efd	0.00074861926
180	0x3e0bc8dd	0.13650842
181	0xbd23bcfb	-0.039975148
182	0x3e3a161c	0.18172497
183	0xbd3205a1	-0.0434624
184	0x3d5d13c1	0.053973917
185	0xbda40421	-0.080086
186	0xbc9673cd	-0.018365765
187	0x3e053b04	0.13010794
188	0xbd3c1c3b	-0.04592536
189	0x3f6a7ad8	0.91593695
190	0xbeefec27	-0.46859857
191	0xbd56d0f5	-0.05244537
192	0xbf146346	-0.5796398
193	0x3cc39b5b	0.02387779
194	0x3e120799	0.14260711
195	0xbd52eafd	-0.051493634
196	0xbe07ef6e	-0.13274929
197	0xbd7d7a66	-0.061884306
198	0x3cc217dd	0.02369302
199	0xbe93e138	-0.28882766
200	0xbf9d23f1	-1.2276593
201	0x3c7affa2	0.015319737
202	0xbf716b80	-0.94304657
203	0xbc006657	-0.0078369
204	0xbf4658bb	-0.7747914
205	0xbd6f3f91	-0.05841023
206	0xbecc3279	-0.39882258
207	0xbd03e452	-0.032200165
208	0x3d26b565	0.040700335
209	0xbb60bb31	-0.0034291262
210	0x3e6edb22	0.2332578
211	0x3d3ae720	0.045630574
212	0x3ce55a1b	0.027997067
213	0x3983514e	0.00025046844
214	0x3de466bb	0.11152407
215	0x3ce9a3b7	0.028520448
216	0xbee77c19	-0.45211866
217	0x3dbea382	0.093085304
218	0xbd2e29f5	-0.042520482
219	0x3b12e7e8	0.002241606
220	0xbdbacd46	-0.09121184
221	0x3ca7d5aa	0.020487625
222	0x3d44d58f	0.048055228
223	0x3cc7d92c	0.024395548
224	0xbf4fee1e	-0.81222713
225	0xbdf87fb3	-0.12133732
226	0x3dda19cc	0.106494516
227	0xbdda25b7	-0.10651725
228	0x3e2605f9	0.16213216
229	0xbd1059f0	-0.03524202
230	0xbd2518f7	-0.04030701
231	0x3f3d8cbc	0.7404287
232	0xbd49d8af	-0.04927891
233	0xbe81d9dc	-0.25361526
234	0xbe53108e	-0.20611784
235	0xbd8dfed3	-0.069333695
236	0x3ecd52fc	0.40102375
237	0xbe4cf78a	-0.20016304
238	0x3f159c7f	0.5844192
239	0xbde0809a	-0.10962029
240	0x3de2e164	0.11078146
241	0x3d68a63f	0.05679917
242	0xbe922c17	-0.28549263
243	0x3e4d437f	0.20045279
244	0x3ea0cfb1	0.31408456
245	0x3cc1d92a	0.023663122
246	0xbd2dc185	-0.042420883
247	0x3dc449d1	0.09584392
248	0xbe762d27	-0.24040662
249	0x3d0d466f	0.034491
250	0xbe08d441	-0.13362218
251	0xbe46554d	-0.19368477
252	0x3d99bc96	0.07506673
253	0xbe5345bf	-0.20632075
254	0x3c869b05	0.016431341
255	0x3d6e090a	0.05811409

l1.bias f4 [256]
0	0xbea6eafe	-0.3260116
1	0xbe41171c	-0.18856472
2	0xbe2e1011	-0.16998316
3	0x3e871125	0.26380268
4	0x3ea40bf8	0.3204038
5	0xbefb3e5e	-0.4907102
6	0xbebae46a	-0.3650239
7	0xbef25782	-0.47332388
8	0xbd21d93e	-0.03951382
9	0xbd7f3373	-0.062304925
10	0xbec18bee	-0.3780207
11	0xbf3a3934	-0.72743535
12	0xbeb46813	-0.35235652
13	0x3d91503c	0.070953816
14	0xbf55339b	-0.8328187
15	0x3de8cb20	0.11366868
16	0xbefa316e	-0.48865837
17	0x3f074cfe	0.52851856
18	0x3e085072	0.13311937
19	0x3eb4f102	0.35340124
20	0x3f1b1813	0.6058361
21	0x3f00bcae	0.502879
22	0x3e964e93	0.29356822
23	0xbf069130	-0.5256529
24	0xbeb218be	-0.34784502
25	0x3eb46af6	0.35237855
26	0xbf1b30d3	-0.60621375
27	0x3db63925	0.08897618
28	0xbd1b7713	-0.037955355
29	0xbecb79f1	-0.3974147
30	0xbd2d9a2b	-0.042383354
31	0xbf7aa43a	-0.9790684
32	0xbe33b0b8	-0.17547882
33	0xbed4029b	-0.41408238
34	0x3f039bb7	0.51409477
35	0xbeb7974c	-0.35857618
36	0x3d8eef63	0.06979253
37	0x3ea026e0	0.3127966
38	0xbd82d4fd	-0.063882805
39	0xbed7dfa6	-0.42162818
40	0x3ede87da	0.43463022
41	0xbf08313c	-0.53200126
42	0x3eb84c12	0.35995537
43	0x3ecb27ab	0.39678702
44	0x3eb67d6d	0.35642567
45	0xbec5cfba	-0.38635045
46	0xbe87f57c	-0.26554477
47	0x3ea7b845	0.32757774
48	0xbe52b33c	-0.20576185
49	0x3ea4a089	0.3215373
50	0xbf95c9b7	-1.1702183
51	0x3ec5315f	0.3851423
52	0x3e6a496c	0.2287957
53	0xbf565424	-0.8372214
54	0xbed6b479	-0.41934565
55	0xbebf7fe8	-0.37402272
56	0xbf19080e	-0.59777915
57	0xbf0f221b	-0.55911416
58	0xbf08717c	-0.53298163
59	0xbf0000b6	-0.50001085
60	0xbe0bad58	-0.13640344
61	0xbec6bd06	-0.38816088
62	0xbf146f62	-0.57982457
63	0x3d0da93c	0.034585223
64	0x3e868c8e	0.2627911
65	0xbf6bd4e1	-0.921217
66	0xbe7516b6	-0.23934445
67	0xbf268e22	-0.6506063
68	0x3f171181	0.59011084
69	0x3efa887d	0.48932257
70	0xbe84b35f	-0.259181
71	0x3d5cb1b3	0.053880405
72	0xbee512ee	-0.44741005
73	0xbdbe30df	-0.09286665
74	0xbf1600d7	-0.5859503
75	0x3ed5029c	0.41603553
76	0x3e5d3f44	0.21606165
77	0xbf245605	-0.64193755
78	0xbeeb66b9	-0.4597681
79	0x3e4943e1	0.196548
80	0x3d9d4963	0.07680013
81	0xbe873f6a	-0.2641557
82	0xbe7734c9	-0.2414123
83	0xbe9f338e	-0.3109402
84	0xbe183f56	-0.1486791
85	0xbecca83c	-0.39972103
86	0x3e1b09b9	0.15140428
87	0xbf232ce4	-0.6374037
88	0x3daf8237	0.085697584
89	0xbf497c35	-0.7870515
90	0xbed9708d	-0.42468682
91	0x3ee6a0d8	0.4504459
92	0x3ebd130c	0.36928594
93	0x3e5e8f07	0.21734248
94	0x3f11d2a7	0.56962055
95	0xbe852344	-0.26003468
96	0xbe819da9	-0.25315598
97	0xbe7d6a88	-0.2474767
98	0x3d3d7198	0.04625091
99	0xbeeb128c	-0.45912588
100	0xbf353e44	-0.70798135
101	0xbe52b028	-0.20575011
102	0x3da901fb	0.08252331
103	0xbece271e	-0.4026422
104	0x3e66dc94	0.22545081
105	0x3d93862b	0.07203325
106	0xbed81e7b	-0.42210755
107	0xbf27663f	-0.6539039
108	0x3e125776	0.14291176
109	0xbea70aad	-0.32625332
110	0x3eaeaf33	0.3411804
111	0xbf2e0f15	-0.67991763
112	0x3e6a1f4b	0.228635
113	0x3f06b899	0.52625424
114	0xbd069073	-0.0328526
115	0xbc251e13	-0.010077971
116	0x3e050c8f	0.12993072
117	0xbd44b0de	-0.048020236
118	0xbed61fc7	-0.4182112
119	0xbeaf4bde	-0.3423757
120	0x3ca22981	0.019795181
121	0xbdc6f276	-0.097142145
122	0xbd87fa18	-0.066394985
123	0xbbad8198	-0.00529499
124	0xbee07ab8	-0.43843627
125	0xbea9fc58	-0.33200336
126	0x3ebeef74	0.37292063
127	0xbf085807	-0.5325932
128	0xbe8aee66	-0.2713501
129	0xbdda0f8f	-0.10647499
130	0x3dd03335	0.10166017
131	0xbe8ce1b8	-0.2751596
132	0xbf1826cb	-0.59434193
133	0xbf043edb	-0.5165841
134	0xbf088265	-0.53323966
135	0x3ef35e64	0.47532952
136	0xbdf8a516	-0.12140863
137	0xbdeba8aa	-0.115067795
138	0x3e0d0ee0	0.13775206
139	0x3f1bc56a	0.60848105
140	0xbd6338cc	-0.055474088
141	0xbf64ef18	-0.8942733
142	0x3d9ce69b	0.07661172
143	0x3d36277e	0.044471256
144	0x3ee4edf7	0.44712803
145	0x3eed6785	0.46368042
146	0x3f2d7145	0.6775096
147	0xbf2b07cb	-0.66808766
148	0x3ebf3bc3	0.37350282
149	0x3ea0f38b	0.3143581
150	0xbe3a4c74	-0.18193227
151	0x3d8777e6	0.06614666
152	0x3ee4c554	0.446818
153	0x3e79c6f9	0.24392308
154	0x3dad10df	0.084504835
155	0x3d503e0f	0.050840434
156	0xbecded6b	-0.40220198
157	0x3f3a02ad	0.7266033
158	0xbf371d25	-0.71528846
159	0xbcee48e0	-0.029087484
160	0xbec6bf74	-0.38817942
161	0x3d9ee9cf	0.07759439
162	0xbeb72828	-0.35772824
163	0xbf0a7889	-0.5409017
164	0xbf216f6f	-0.6306066
165	0xbe8ef7d1	-0.27923444
166	0x3e5e26e2	0.2169452
167	0xbdc67b93	-0.09691539
168	0xbe0480ff	-0.12939833
169	0x3e85bb02	0.26119238
170	0xbeb8a067	-0.36059877
171	0x3dd85056	0.10562198
172	0x3e944ebf	0.28966329
173	0x3ea657fd	0.32489005
174	0x3ef2b528	0.47403836
175	0xbf85401a	-1.0410187
176	0x3e9d1e3a	0.30687124
177	0xbf05d9fd	-0.5228575
178	0x3eaf8128	0.34278226
179	0xbe4f4465	-0.20240934
180	0x3ebde2f3	0.3708721
181	0xbc777f25	-0.015105997
182	0x3f05ece8	0.52314615
183	0x3eb4ba23	0.3529826
184	0x3e58725a	0.21137372
185	0xbe1bc419	-0.15211524
186	0xbec9e93c	-0.39435756
187	0x3e3d2213	0.1847003
188	0xbd7a4351	-0.061099354
189	0x3eda83ca	0.42678672
190	0x3e816a49	0.25276402
191	0xbe151bf0	-0.14561439
192	0x3ea45093	0.32092723
193	0xbec526fc	-0.38506305
194	0xbf83e89e	-1.0305364
195	0xbf179584	-0.5921252
196	0x3e831ed2	0.25609452
197	0xbef9d40a	-0.48794585
198	0xbe17e4ba	-0.14833346
199	0xbf145047	-0.57934994
200	0xbee5cc96	-0.4488265
201	0xbeae6f3d	-0.34069243
202	0x3e7b54e8	0.24544108
203	0xbf417f46	-0.7558483
204	0xbe840169	-0.25782326
205	0xbeed0908	-0.46295953
206	0x3cba3dcc	0.022734545
207	0x3edaab46	0.42708796
208	0xbf7d5aac	-0.9896648
209	0x3f196f02	0.5993501
210	0x3eab4f7a	0.33459073
211	0xbe7ae5a5	-0.24501665
212	0xbf2eb50d	-0.6824501
213	0x3ea15e07	0.3151705
214	0x3f0f66a7	0.5601601
215	0x3eee2e77	0.46519825
216	0xbeb94bdf	-0.36190698
217	0x3e900e75	0.2813603
218	0x3e3277a1	0.17428447
219	0xbd619072	-0.055069394
220	0x3e8a26d1	0.2698274
221	0x3e660687	0.22463427
222	0xbe70ced4	-0.23516399
223	0x3f30074f	0.6876115
224	0x3ef3bea8	0.47606397
225	0xbf4d00e1	-0.80079466
226	0x3eaa1f02	0.33226782
227	0xbee864c4	-0.45389378
228	0xbed09ef8	-0.40746284
229	0x3e822967	0.25422212
230	0xbf273daf	-0.65328497
231	0x3d3740c5	0.044739503
232	0xbe8e7b8c	-0.27828634
233	0xbc70e0c8	-0.0147020295
234	0xbeba8709	-0.3643115
235	0xbf56d348	-0.8391614
236	0x3e5b7e93	0.21435003
237	0xbe6e9381	-0.23298456
238	0x3eb4500a	0.35217315
239	0x3ea06555	0.3132731
240	0x3d8852a3	0.06656387
241	0xbed7b179	-0.42127588
242	0x3e0cae62	0.13738397
243	0x3f0af072	0.5427314
244	0xbe78ea78	-0.24308193
245	0x3e8d8f7f	0.2764854
246	0xbf011cb7	-0.5043444
247	0xbf885822	-1.0651896
248	0xbefd0a21	-0.4942179
249	0xbed3c641	-0.41362193
250	0xbe41f2ee	-0.18940327
251	0xbee8dff2	-0.45483357
252	0xbed789ef	-0.42097422
253	0x3ee504a5	0.44730106
254	0xbe0d71d1	-0.13812949
255	0xbed542e1	-0.41652587

l2.weight f4 [256, 256]
0	0x3e5a9d40	0.21349049
1	0xbd498c99	-0.04920635
2	0xbf026294	-0.5093167
3	0xbe221677	-0.15828882
4	0x3f13ced5	0.57737476
5	0xbe02aa88	-0.12760365
6	0x3e74ca5d	0.2390532
7	0x3dd4af16	0.103849575
8	0xbda371af	-0.07980668
9	0xbe28f937	-0.16501318
10	0xbd9f97e3	-0.07792642
11	0xbf32f5e3	-0.69906443
12	0x3e45fda2	0.19335034
13	0x3e86852b	0.26273474
14	0xbde9ab57	-0.114096336
15	0x3e462f3b	0.19353954
16	0xbde01935	-0.10942308
17	0xbe0d1eb4	-0.13781244
18	0xbe1ab1bc	-0.15106863
19	0x3dfd195a	0.12358351
20	0x3db1d5eb	0.0868338
21	0xbe208759	-0.15676631
22	0x3dac11e1	0.08401848
23	0x3dc6cfba	0.097075894
24	0x3e9098e3	0.28241643
25	0xbf31987e	-0.6937331
26	0xbefc85d1	-0.49320844
27	0xbe1fac5d	-0.15593095
28	0xbe5e2f8d	-0.21697827
29	0x3f0514b5	0.5198472
30	0x3ee320e6	0.44361037
31	0x3bf3612d	0.0074273557
32	0x3f277469	0.65412
33	0x3e749d0a	0.2388803
34	0xbd323be3	-0.043514144
35	0x3e607d68	0.21922839
36	0x3dc6e302	0.09711267
37	0x3d45bdc2	0.04827667
38	0xbefcca1d	-0.4937295
39	0x3e56276a	0.20913473
40	0x3f1013d6	0.5628027
41	0x3e5abbd2	0.2136071
42	0xbf04a2f4	-0.51811147
43	0xbf481ec8	-0.7817197
44	0x3bc2f8a7	0.005950052
45	0x3e9c6cbd	0.3055171
46	0xbee608e0	-0.44928646
47	0x3d6a5b6c	0.057216093
48	0xbe5b111d	-0.21393247
49	0xbdd66e53	-0.104702614
50	0x3daa8455	0.083260216
51	0xbe84a470	-0.25906706
52	0xbdab5726	-0.083662316
53	0x3d7f31f1	0.062303487
54	0x3c65eca3	0.014033469
55	0xbd410fba	-0.04713414
56	0x3d5a2d2a	0.053265728
57	0x3ca4c5dd	0.02011388
58	0x3dba75a2	0.09104468
59	0x3dffd784	0.12492278
60	0x3e06ac05	0.13151558
61	0x3e14c8aa	0.14529672
62	0x3f18c72b	0.59678906
63	0x3dba6b77	0.091025285
64	0xbe93b35e	-0.28847784
65	0xbe8209c7	-0.25398085
66	0xbe2a53cd	-0.1663353
67	0xbe2d75d1	-0.16939475
68	0x3c1bed7d	0.009517071
69	0x3dc7619f	0.097354166
70	0xbe5f59ca	-0.21811596
71	0x3e0e40ec	0.13891953
72	0x3d11bdc9	0.035581384
73	0x3dbe5988	0.092944205
74	0x3d16bc5d	0.03680073
75	0x3d7fd2b1	0.06245679
76	0xbea45419	-0.3209541
77	0x3e172b72	0.14762667
78	0x3da59016	0.08084123
79	0x3dff30e8	0.124605
80	0x3e704ffe	0.23468015
81	0xbf20163d	-0.6253393
82	0xbf446975	-0.76723415
83	0xbea75b8b	-0.3268703
84	0xbf3971ef	-0.72439474
85	0xbdb08f70	-0.086211085
86	0x3e5af03c	0.21380705
87	0x3dcac574	0.099009424
88	0xbe93d339	-0.28872088
89	0x3d7b1293	0.06129701
90	0x3eae53ec	0.34048402
91	0xbc238d6a	-0.009982446
92	0x3e937713	0.28801784
93	0xbe6b748f	-0.22993682
94	0xbe3c128b	-0.18366449
95	0x3e9fffe2	0.3124991
96	0xbe6a3d58	-0.22874963
97	0x3e911ee1	0.2834387
98	0xbe2d6f75	-0.16937049
99	0x3ce94581	0.028475525
100	0x3d0482c6	0.032351278
101	0xbd73ad14	-0.059491232
102	0xbe01240f	-0.12611412
103	0xbdc85d27	-0.097833924
104	0x3dbed83f	0.093185894
105	0xbd9f6c2f	-0.07784306
106	0x3e30dd89	0.17272009
107	0x3e900513	0.2812887
108	0x3f1fb930	0.6239195
109	0xbd25c3f1	-0.040470067
110	0x3e309fd2	0.17248467
111	0x3f80cab6	1.0061862
112	0xbf0c0287	-0.54691356
113	0x3efc4ceb	0.49277434
114	0xbd4c52cd	-0.049883652
115	0x3ea40c47	0.32040617
116	0xbe8aeb6c	-0.27132738
117	0xbfbc440b	-1.4708265
118	0x3e197739	0.14986886
119	0xbfa6b706	-1.3024604
120	0xbdf9abce	-0.12190972
121	0x3dfe6660	0.1242187
122	0x3e966ff0	0.29382277
123	0xbefd86f7	-0.49517033
124	0x3d9b171c	0.07572767
125	0x3d715af6	0.058924638
126	0xbd81253d	-0.06305931
127	0xbe06e0a2	-0.13171628
128	0x3daa0c7f	0.08303165
129	0x3e400316	0.18751177
130	0x3d957230	0.0729717
131	0xbcd993af	-0.026559679
132	0x3e528885	0.2055989
133	0x3f09f6f4	0.53892446
134	0x3e9bffa0	0.30468464
135	0x3e2773a1	0.16352703
136	0x3e5800cb	0.21094052
137	0x3ea9e78e	0.33184475
138	0x3d1c63f3	0.038181257
139	0xbd51127f	-0.05104303
140	0x3d9b1139	0.07571644
141	0x3c4272f8	0.011868231
142	0xbe109437	-0.1411904
143	0x3e0797d7	0.13241516
144	0xbe90024d	-0.28126755
145	0x3e9e63f1	0.30935624
146	0xbf08b2a0	-0.5339756
147	0x3ebf12ac	0.37318933
148	0x3cfedc6e	0.031110968
149	0x3e18d975	0.14926703
150	0xbf74a34c	-0.9556167
151	0xbf2481b9	-0.6426044
152	0xbe38059e	-0.17970893
153	0x3f093334	0.53593755
154	0x3e89cadd	0.26912585
155	0x3ed1a895	0.4094893
156	0x3e2a6d8a	0.16643348
157	0x3e1b6c95	0.1517814
158	0xbe0ec7a8	-0.1394335
159	0x3e549569	0.2076012
160	0xbe720f59	-0.23638667
161	0xbd2acb62	-0.041697867
162	0x3e95b28c	0.29237783
163	0xbd7ea14c	-0.062165543
164	0x3ed2a160	0.41138744
165	0xbecb4286	-0.3969919
166	0xbe89e2ac	-0.2693075
167	0xbf08ae3c	-0.5339086
168	0xbf5a926f	-0.8537969
169	0xbe9744bb	-0.29544625
170	0xbeb8196e	-0.359569
171	0x3f117e40	0.5683327
172	0xbdc8044a	-0.09766443
173	0xbe673161	-0.2257743
174	0x3e7b6f64	0.24554211
175	0x3ea9f9b5	0.33198324
176	0xbe8904b7	-0.2676141
177	0xbe3f6b48	-0.18693268
178	0xbedf02db	-0.43556866
179	0xbd604a18	-0.05475816
180	0xbe6fdeab	-0.23424785
181	0x3de92f12	0.11385931
182	0xbe1a2c08	-0.15055859
183	0xbed8beeb	-0.4233316
184	0xbe8a3f9d	-0.27001658
185	0xbe23716d	-0.15961237
186	0x3e1e53e0	0.15461683
187	0x3d4711ae	0.048600845
188	0xbe814ae1	-0.2525244
189	0xbdd33b9b	-0.10314103
190	0xbd64ee93	-0.055891585
191	0x3e3666ca	0.17812648
192	0x3ed16d6b	0.40903792
193	0xbde45b0c	-0.11150178
194	0x3e76f1b9	0.24115647
195	0x3d6c2bc4	0.057658926
196	0x3e0b33be	0.13593957
197	0x3e7fb8bc	0.24972814
198	0x3e2f4c50	0.17118955
199	0xbe360d05	-0.17778404
200	0x3e5eead5	0.21769269
201	0xbf734a73	-0.95035475
202	0xbe0b6067	-0.13610993
203	0x3e0257c9	0.127288
204	0x3e733322	0.23749974
205	0x3e092ced	0.13396044
206	0xbe104d46	-0.14091977
207	0xbd94ed43	-0.072718166
208	0x3ea52c61	0.3226042
209	0xbd6464db	-0.055760246
210	0x3e2c49e0	0.16825056
211	0xbf1b3ce1	-0.6063977
212	0x3ded1edd	0.11578152
213	0xbd12f837	-0.035881247
214	0xbe2a83ef	-0.16651891
215	0xbd3d2734	-0.046179965
216	0xbd699edd	-0.05703627
217	0x3e8851ff	0.26625058
218	0xbd7a91b5	-0.061174113
219	0xbd9397e6	-0.07206707
220	0xbe995bd9	-0.29952887
221	0xbd8d682a	-0.06904633
222	0xbea48e9b	-0.3214005
223	0x3e532325	0.20618875
224	0xbe6a9193	-0.22907095
225	0x3ea4e3e1	0.32205108
226	0x3e5b40f3	0.21411495
227	0xbe864d19	-0.26230696
228	0x3e078b11	0.13236643
229	0x3e65b149	0.2243091
230	0xbdc424dd	-0.095773436
231	0xbdaac73a	-0.08338781
232	0x3e5a5c82	0.21324351
233	0x3e77120a	0.24127975
234	0xbe400b90	-0.1875441
235	0x3e25e334	0.16199952
236	0xbcd9f627	-0.026606632
237	0xbea87b4d	-0.3290657
238	0x3d5b0648	0.053472787
239	0x3e25a9d2	0.16178063
240	0xbe64ccd0	-0.22343755
241	0x3ec9f49b	0.39444432
242	0xbf11395b	-0.5672814
243	0xbca8951e	-0.020578917
244	0xbd83c339	-0.0643372
245	0x3df48f8e	0.119414434
246	0xbe847a06	-0.25874346
247	0x3e4c30a4	0.1994043
248	0xbed727fb	-0.4202269
249	0x3de6a5fd	0.112621285
250	0x3e663699	0.22481765
251	0x3e47fece	0.19530794
252	0x3e83fbb8	0.25777984
253	0xbe17c5d2	-0.14821556
254	0xbf7b1ca9	-0.98090607
255	0xbe78719e	-0.24262092

l2.bias f4 [256]
0	0xbea511f7	-0.3224027
1	0xbe5b3ad2	-0.21409157
2	0xbee9a1cd	-0.45631257
3	0xbf11c73e	-0.56944644
4	0xbeb5adf7	-0.35484287
5	0xbec53e95	-0.3852431
6	0x3edeb72b	0.4349912
7	0x3f15d617	0.585298
8	0x3ef53a8c	0.4789623
9	0x3f2d0d64	0.6759856
10	0xbf0b73e9	-0.5447374
11	0xbf0f9fbc	-0.5610311
12	0xbe86f900	-0.26361847
13	0xbd6fd890	-0.05855614
14	0xbe067575	-0.13130744
15	0xbeda59f3	-0.4264675
16	0x3f0a1fc1	0.539547
17	0xbeadb2ab	-0.33925375
18	0x3ef81639	0.48454455
19	0xbf154902	-0.58314526
20	0x3f293269	0.66092545
21	0x3f2f41f8	0.68460035
22	0xbed109b3	-0.40827712
23	0x3eeb5a43	0.45967302
24	0x3f21c50d	0.631913
25	0xbf4e4797	-0.8057799
26	0x3f06a30b	0.52592534
27	0xbe2dab6a	-0.1695992
28	0xbea78d9a	-0.3272522
29	0x3f2013c3	0.62530154
30	0x3e890461	0.26761153
31	0xbe6b2c0c	-0.22966021
32	0x3f1b7855	0.6073049
33	0x3f3206da	0.69541705
34	0x3ee43dbe	0.44578356
35	0xbe1f673d	-0.15566726
36	0x3f202053	0.6254932
37	0x3f1b68f4	0.6070702
38	0xbea3345c	-0.31875885
39	0xbe865241	-0.2623463
40	0x3f3514e4	0.70735
41	0x3f1cbfab	0.6122996
42	0x3f0020e2	0.50050175
43	0x3f1e5cc2	0.6186029
44	0xbecc9f73	-0.399654
45	0x3f20eee1	0.628645
46	0x3f0eaf28	0.5573602
47	0xbea6b6f8	-0.3256147
48	0x3ee4f3df	0.4471731
49	0x3f08df01	0.53465277
50	0xbee74e9b	-0.4517716
51	0x3f194c8f	0.59882444
52	0xbe0c2cc2	-0.13688949
53	0x3f311218	0.69168234
54	0x3f32ee9a	0.6989533
55	0xbec360d6	-0.38159817
56	0xbe3df994	-0.18552238
57	0xbde01ef7	-0.10943406
58	0xbeb01b64	-0.34395897
59	0x3ebee335	0.3728272
60	0x3f04d8ba	0.518932
61	0xbe755a19	-0.23960151
62	0x3f3e4930	0.74330425
63	0xbec73c95	-0.38913408
64	0xbeff821a	-0.49903947
65	0xbe8e8645	-0.27836815
66	0x3effd9b4	0.49970782
67	0x3f345977	0.7044901
68	0xbef40eda	-0.4766758
69	0xbef839ff	-0.48481748
70	0x3f353c3e	0.7079505
71	0x3f342b3a	0.7037846
72	0x3efc0d88	0.49229074
73	0x3f2f478d	0.6846855
74	0xbe2e552a	-0.17024675
75	0x3eeae193	0.45875224
76	0x3e839a97	0.2570388
77	0x3edcf588	0.43156075
78	0xbedf9ca5	-0.43674198
79	0xbeb2867e	-0.34868234
80	0xbe517265	-0.20453794
81	0xbef90183	-0.48633966
82	0x3f20da25	0.6283286
83	0x3f1e0050	0.61719227
84	0x3f082f56	0.5319723
85	0x3ca30add	0.019902641
86	0xbec65958	-0.3874004
87	0xbdeb890b	-0.11500748
88	0x3f1dbb84	0.6161425
89	0xbee3d7d6	-0.44500607
90	0x3efbbcad	0.49167386
91	0x3f2a5972	0.6654273
92	0xbe215f8c	-0.15759104
93	0xbe1be9ed	-0.15225954
94	0x3f2d3c10	0.67669773
95	0xbe7d0340	-0.24708271
96	0xbf21c8f4	-0.63197255
97	0xbf01c54b	-0.5069167
98	0xbf293d90	-0.6610956
99	0x3f188ef1	0.5959311
100	0xbe27dab6	-0.16392025
101	0x3f2b99af	0.6703138
102	0x3dd975e4	0.10618189
103	0xbe1b4ba1	-0.15165569
104	0x3f17706e	0.5915593
105	0x3f2b5f85	0.66942626
106	0x3f2c5967	0.6732392
107	0xbe8f9f56	-0.2805125
108	0xbf1ab266	-0.60428464
109	0x3f2055e0	0.62631035
110	0x3f2a4b43	0.6652109
111	0xbf024c2d	-0.50897485
112	0xbde8897b	-0.11354347
113	0xbea89cec	-0.32932222
114	0x3f27cb30	0.65544415
115	0x3f2f1fdc	0.6840799
116	0x3f36ac71	0.71356875
117	0xbf0ce3b7	-0.55034965
118	0x3f34db1c	0.70646834
119	0xbedc92f1	-0.43080857
120	0xbe1f1c58	-0.15538156
121	0x3f20c556	0.6280111
122	0x3f14cc98	0.58124685
123	0xbe7db2da	-0.24775258
124	0xbeee76f2	-0.46575123
125	0x3ee84e6c	0.4537233
126	0xbea82a2e	-0.3284468
127	0xbebc38d0	-0.36762094
128	0x3f1d9a18	0.61563253
129	0x3f23574e	0.6380509
130	0xbe967916	-0.29389256
131	0x3f3353c0	0.7004967
132	0xbe788fad	-0.24273558
133	0xbee9bbc1	-0.45651057
134	0xbe56630a	-0.20936218
135	0x3eff082a	0.49810916
136	0x3f2ca743	0.6744272
137	0xbea3f222	-0.3202067
138	0xbf063cc8	-0.52436495
139	0xbf12880d	-0.57238847
140	0xbf1b61c5	-0.6069606
141	0x3f15f25d	0.5857294
142	0xbf22f9e6	-0.63662565
143	0x3efaca56	0.48982495
144	0xbec6eaf4	-0.3885113
145	0x3f1580ff	0.5839996
146	0xbe518a47	-0.20462905
147	0xbee02be4	-0.43783486
148	0xbe528f5e	-0.20562503
149	0xbeb850dd	-0.35999194
150	0x3f27da85	0.6556781
151	0x3f1fc31b	0.6240708
152	0x3f2bde26	0.67135847
153	0xbe9f9b07	-0.31172964
154	0xbeb9e9f5	-0.36311308
155	0xbeba1ef6	-0.36351746
156	0xbeba573f	-0.36394688
157	0x3f10d305	0.5657199
158	0x3f16e291	0.5893946
159	0x3f059c98	0.5219207
160	0xbf3fcfe1	-0.74926573
161	0xbe786943	-0.24258904
162	0x3f1d857f	0.61531824
163	0x3f0b7767	0.5447907
164	0xbec16d80	-0.37778854
165	0xbf0fb393	-0.56133384
166	0xbec0449f	-0.37552354
167	0x3f25c210	0.6474924
168	0x3f265375	0.64971095
169	0xbee82742	-0.4534245
170	0x3f1b9b3c	0.60783744
171	0x3f0698db	0.5257699
172	0x3f18689a	0.5953461
173	0x3f358b75	0.7091592
174	0x3f25b1dc	0.64724517
175	0xbe6040ca	-0.21899715
176	0x3f29bb21	0.6630116
177	0x3f1f7253	0.6228382
178	0x3f23cc17	0.6398329
179	0x3f2cfcd2	0.67573273
180	0x3f2d9315	0.67802554
181	0x3f189e2f	0.5961637
182	0x3ef42d73	0.47690925
183	0x3ee202bf	0.4414272
184	0xbe0031dc	-0.1251902
185	0xbe8706fc	-0.26372516
186	0x3ec65999	0.38740233
187	0x3ed6a1fc	0.4192046
188	0x3ea24693	0.3169447
189	0xbf2f2bf8	-0.68426466
190	0xbeab5098	-0.33459926
191	0x3f2960e7	0.66163486
192	0x3f3b56c1	0.7317925
193	0xbee80082	-0.45312887
194	0xbeb197c4	-0.346861
195	0xbe8cefd3	-0.2752672
196	0x3f335279	0.7004772
197	0x3f28415f	0.6572475
198	0xbf1e4abc	-0.61832786
199	0x3f176c82	0.59149945
200	0x3f27cc40	0.65546036
201	0xbf0069f7	-0.5016169
202	0xbe7262e4	-0.23670536
203	0x3f293cdc	0.6610849
204	0x3f0809e2	0.5314008
205	0x3f20471c	0.62608504
206	0xbef8dc4c	-0.48605573
207	0x3f11aeb4	0.569072
208	0xbea466b4	-0.32109606
209	0x3d8d8f24	0.069120675
210	0xbf261026	-0.6486839
211	0xbea0cf1b	-0.3140801
212	0xbe963f21	-0.2934504
213	0x3f16da82	0.58927166
214	0xbe8d258e	-0.27567714
215	0x3effde6f	0.4997439
216	0x3f180bb8	0.5939288
217	0x3f23c051	0.63965327
218	0xbee913be	-0.45522875
219	0x3f28f0ea	0.65992606
220	0x3ee8f9bd	0.45503035
221	0x3f0146c4	0.50498605
222	0x3f1b73cc	0.60723567
223	0x3f0d6586	0.5523304
224	0x3ee3cc00	0.44491577
225	0x3ee7db4d	0.452845
226	0x3f10caf2	0.5655967
227	0x3f0e0ac2	0.55485165
228	0x3f36d61b	0.7142045
229	0xbdce6bc1	-0.10079146
230	0xbf1adfc9	-0.6049772
231	0xbe5ef80f	-0.21774314
232	0x3f2ccce8	0.6750016
233	0xbeba8a3f	-0.36433598
234	0x3f2edd6f	0.6830663
235	0x3969eb9a	0.0002230838
236	0x3f21f35d	0.6326197
237	0xbeca3972	-0.39496952
238	0xbdd415e1	-0.103557356
239	0x3ef7e605	0.48417678
240	0x3f30b5e0	0.6902752
241	0xbeb9f2cd	-0.36318055
242	0xbe9e1d7a	-0.30881864
243	0x3f1a96f7	0.60386604
244	0x3f096eb9	0.53684574
245	0xbd12c135	-0.035828788
246	0xbeec5059	-0.4615505
247	0x3eec082f	0.46099994
248	0xbe420255	-0.18946202
249	0x3efaf228	0.49012876
250	0xbc909ce1	-0.01765293
251	0x3ef16cbb	0.47153267
252	0xbe3bc6b6	-0.18337521
253	0x3eeee3d4	0.46658194
254	0x3f349848	0.7054486
255	0xbe88ec79	-0.26742914

l3.weight f4 [1, 256]
0	0xbf4ef441	-0.8084145
1	0xbf2ffd15	-0.6874555
2	0xbf344551	-0.7041827
3	0xbff683c8	-1.9258966
4	0xbf95d4c4	-1.1705556
5	0xbf66e3e5	-0.9019149
6	0x3eb46ef1	0.35240892
7	0x3e5d8439	0.2163247
8	0x3e8f85c1	0.28031734
9	0x3e6395d6	0.22225127
10	0xbf1785dd	-0.59188634
11	0xbf6eb33c	-0.9324224
12	0xbf3d608e	-0.73975456
13	0xbf60d4ac	-0.8782451
14	0xbfa23c73	-1.2674698
15	0xbf3eefc5	-0.7458461
16	0x3ee9bcb6	0.45651788
17	0xbf20e67f	-0.6285171
18	0x3eabc8e4	0.33551705
19	0xbf6bc640	-0.9209938
20	0x3e719be7	0.23594628
21	0x3e5708e5	0.20999487
22	0xbf716aa9	-0.94303375
23	0x3ee2e864	0.44317925
24	0x3f2fed86	0.68721807
25	0xbf99bdc2	-1.2011034
26	0x3eaf57a2	0.34246546
27	0xc00a6efe	-2.1630244
28	0xbf57c7b9	-0.8428913
29	0x3e85c396	0.26125783
30	0x3f90a01f	1.1298865
31	0xbf6ad8fd	-0.9173735
32	0x3f85dd1b	1.0458101
33	0x3e592153	0.21204118
34	0x3efac26d	0.4897646
35	0xbf1d328f	-0.6140527
36	0x3e44feed	0.19237871
37	0x3e4c7c73	0.19969349
38	0xbf188235	-0.5957368
39	0xbf2bf26a	-0.6716677
40	0x3e911a10	0.28340197
41	0x3e61791c	0.22018856
42	0x3edcb21d	0.4310464
43	0x3e727780	0.23678398
44	0xbf33d48e	-0.7024621
45	0x3e082c9f	0.13298272
46	0x3ea81f92	0.32836586
47	0xbf1609f6	-0.5860895
48	0x3f065d77	0.52486366
49	0x3ec22d25	0.37925068
50	0xbf1b56fa	-0.6067959
51	0x3ed6e91c	0.41974723
52	0xc01b81f3	-2.4298065
53	0x3eccd58b	0.4000667
54	0x3e3d5b9e	0.1849198
55	0xbf7c11c7	-0.98464626
56	0xbfdd20cf	-1.7275637
57	0xbf9575bf	-1.1676558
58	0xbf879136	-1.059119
59	0x3f5c048e	0.8594445
60	0x3ecefeb5	0.404287
61	0xbf1b83e9	-0.60748154
62	0x3f320c03	0.6954958
63	0xbf35f567	-0.7107758
64	0xbf65cbc9	-0.89764076
65	0xbf5af4cf	-0.855298
66	0x3e96dd55	0.29465738
67	0x3eed3e72	0.46336704
68	0xbf8d5a26	-1.1043136
69	0xbf5c628b	-0.86087865
70	0x3ece4825	0.40289417
71	0x3e2a313d	0.16620345
72	0x3efa07b3	0.48834
73	0x3e839981	0.25703052
74	0xbf8ae346	-1.0850608
75	0x3e9cc4b0	0.3061881
76	0x3fc9c33c	1.5762706
77	0x3ea65ead	0.32494107
78	0xbf8ab8f0	-1.0837688
79	0xbf55a0d6	-0.8344854
80	0xbf733087	-0.9499592
81	0xbfa8c67e	-1.3185575
82	0x3e580e82	0.21099284
83	0x3e7decf1	0.24797417
84	0x3ea3cd94	0.3199278
85	0xbd066b7f	-0.03281736
86	0xbf47867a	-0.7793957
87	0xbf904063	-1.1269649
88	0x3e81b82d	0.25335827
89	0xbf642d64	-0.8913176
90	0x3ef7a8d9	0.48371008
91	0x3ec16dba	0.37779027
92	0xbfd9c89e	-1.7014349
93	0xbf850d52	-1.039469
94	0x3e907ac6	0.2821867
95	0xbf81946b	-1.0123419
96	0xbf8b617a	-1.0889122
97	0xbf2ebf26	-0.6826042
98	0xbf70187e	-0.9378737
99	0x3e5af19d	0.2138123
100	0xbf7e841e	-0.99420345
101	0x3f26153a	0.6487614
102	0xbf89bdb9	-1.0761024
103	0xbf80de40	-1.0067825
104	0x3ec422e7	0.38307878
105	0x3e2bc347	0.16773711
106	0x3e8fc62d	0.28080884
107	0xbf46121a	-0.7737137
108	0xbf461844	-0.77380776
109	0x3e712482	0.23549083
110	0x3e72dff0	0.23718238
111	0xbf376457	-0.7163748
112	0xbfc57e45	-1.5429159
113	0xbf360dfb	-0.7111508
114	0x3e07af56	0.13250479
115	0x3ebd6d81	0.36997607
116	0x3f25963e	0.64682376
117	0xbf303318	-0.6882796
118	0x3e85899b	0.26081547
119	0xbf4158e8	-0.75526285
120	0xbf2bc433	-0.6709625
121	0x3e7b3c05	0.24534614
122	0x3f764b8d	0.9620903
123	0xc01c5931	-2.4429438
124	0xbf1c0bb4	-0.6095536
125	0x3e8732fc	0.26406085
126	0xbf6b0e1d	-0.9181841
127	0xbf930913	-1.1487144
128	0x3ebea027	0.37231562
129	0x3e31d534	0.17366487
130	0xbf35ed9e	-0.710657
131	0x3e6aa2f1	0.2291372
132	0xbfb8d986	-1.4441383
133	0xbf39d269	-0.72586685
134	0xbf948946	-1.1604393
135	0x3ec94a4a	0.3931449
136	0x3f99e50e	1.2023027
137	0xbf8038a1	-1.0017282
138	0xbf874193	-1.0566887
139	0xbf7460a7	-0.9545998
140	0xbf1dbd61	-0.61617094
141	0x3e4bbf61	0.19897224
142	0xbf53badd	-0.82707006
143	0x3f05717f	0.52126306
144	0xbf86cab8	-1.0530615
145	0x3e835c0f	0.25656173
146	0xbf4c905b	-0.7990777
147	0xbf124f76	-0.571525
148	0xbf54e553	-0.8316242
149	0xbf7990af	-0.97486395
150	0x3f02575e	0.5091456
151	0x3eada86b	0.33917555
152	0x3ead662f	0.33867022
153	0xbf85aeb0	-1.0443935
154	0xbf42836f	-0.759818
155	0xbfacd72a	-1.3503163
156	0xbf2d2751	-0.6763812
157	0x3ece2cc4	0.40268528
158	0x3e685fdc	0.22692817
159	0x3ebcfc2f	0.3691115
160	0xbfb83d4c	-1.4393706
161	0xbf390be2	-0.72283757
162	0x3e3f05e6	0.18654594
163	0x3e466a64	0.19376522
164	0xbf272797	-0.65294784
165	0xbf6ca35c	-0.92436767
166	0xbf67a204	-0.9048159
167	0x3eafd834	0.34344637
168	0x3e3cb2b2	0.18427542
169	0xbf3c76cb	-0.73618764
170	0x3e9534e0	0.29141903
171	0x3edb15e4	0.4279014
172	0x3e547aa8	0.20749915
173	0x3e89bd36	0.2690217
174	0x3e4ef9e4	0.20212513
175	0xbf4b92d0	-0.79520893
176	0x3e59046d	0.21193095
177	0x3eb6700d	0.35632363
178	0x3e753584	0.23946196
179	0x3ef97244	0.4871999
180	0x3e485078	0.19561946
181	0x3e6be004	0.23034674
182	0x3eb6c919	0.357003
183	0x3eb6035a	0.35549432
184	0xbf993ec6	-1.1972282
185	0xbfb6898a	-1.4260724
186	0x3ec41a05	0.383011
187	0x3ec98ec3	0.3936673
188	0x3fbeef53	1.4916786
189	0xbf634db2	-0.8879043
190	0xbf8234ef	-1.0172404
191	0x3e8adf43	0.2712346
192	0x3e2f6d88	0.17131627
193	0xbf22d0cd	-0.63599855
194	0xbf6be326	-0.92143476
195	0xbfabf6b5	-1.3434664
196	0x3e8f9a56	0.28047436
197	0x3ea2064d	0.31645432
198	0xbf40a2c9	-0.7524839
199	0x3ec3ce9e	0.38243574
200	0x3e5ad99b	0.21372072
201	0xbf595276	-0.8489145
202	0xbf6daf9d	-0.9284609
203	0x3e5f0a5d	0.21781297
204	0x3edfe2c3	0.43727693
205	0x3e4bc5aa	0.19899622
206	0xbf1981b9	-0.59963566
207	0x3f0b55f4	0.5442803
208	0xbf645689	-0.8919454
209	0xbf8c4ba5	-1.0960585
210	0xbf7f4149	-0.9970899
211	0xbf332ee1	-0.69993407
212	0xbf4c5ea6	-0.7983192
213	0x3e95729c	0.29189003
214	0xbf956b73	-1.1673416
215	0x3eaada62	0.33369738
216	0x3e0327a2	0.12808087
217	0x3e3a4d3c	0.18193525
218	0xbf519146	-0.81862295
219	0x3eae2198	0.34010005
220	0x3ea8b0bd	0.3294734
221	0x3f89f923	1.0779155
222	0x3e0f2913	0.13980512
223	0x3f05f86a	0.52332175
224	0x3e9c5fa8	0.3054173
225	0x3eb1b994	0.34711897
226	0x3e307614	0.17232543
227	0x3f37b41c	0.717592
228	0x3e7d780a	0.24752823
229	0xbf2b4085	-0.66895324
230	0xbf48f73a	-0.7850224
231	0xbf74ed60	-0.95674706
232	0x3e60a90b	0.21939485
233	0xbf6a9d8b	-0.9164664
234	0x3e916225	0.2839519
235	0xbd0931d3	-0.03349478
236	0x3eba4c9c	0.36386573
237	0xbf28ea41	-0.65982443
238	0xbfabb4a9	-1.3414508
239	0x3ecc59ee	0.3991236
240	0x3e522fe9	0.20526089
241	0xbf562fbc	-0.83666587
242	0xc025920e	-2.5870395
243	0x3ea8fc11	0.3300481
244	0x3eb2827b	0.34865174
245	0xbf4e10ac	-0.8049419
246	0xbf87504f	-1.0571383
247	0x3ec76485	0.38943878
248	0xbfce8a25	-1.6135908
249	0x3eba5bb8	0.363981
250	0x3b7e25ff	0.0038779972
251	0x3ea51710	0.32244158
252	0xbf91f3ba	-1.1402504
253	0x3f9ada36	1.2097843
254	0x3e621fd9	0.22082461
255	0xbff276ab	-1.8942465

l4.weight f4 [256, 32]
0	0x3e4efa84	0.20212752
1	0x3d0eee25	0.03489508
2	0xbe50055b	-0.20314543
3	0xbe746002	-0.23864749
4	0x3db9d83b	0.09074446
5	0x3e44e2fc	0.19227213
6	0x3e3ac2ba	0.18238345
7	0xbef1d1f5	-0.47230497
8	0xbf4e4401	-0.80572516
9	0xbd01209b	-0.031525236
10	0xbedaf340	-0.4276371
11	0x3e29d392	0.16584614
12	0xbe8ce237	-0.27516338
13	0xbe86947f	-0.2628517
14	0x3f04340d	0.51641923
15	0x3e15fa94	0.14646369
16	0x3eed3e24	0.46336472
17	0x3dbccbcb	0.09218558
18	0x3e6fd503	0.23421101
19	0x3d2a4655	0.04157098
20	0x3e6377a3	0.22213607
21	0xbe9b0a11	-0.30281118
22	0xbec73378	-0.38906455
23	0xbbbec694	-0.005822012
24	0xbd32f2d8	-0.043688625
25	0x3d0cf62b	0.03441445
26	0xbe47bce6	-0.19505653
27	0x3d49a2c3	0.049227487
28	0xbd95ae1f	-0.073086016
29	0xbaf9632f	-0.0019026751
30	0xbe51f123	-0.20502143
31	0x3c9d54bb	0.019205442
32	0xbf11278c	-0.5670097
33	0xbd8a5b11	-0.06755651
34	0x3d600024	0.054687634
35	0x3e7b79fd	0.24558254
36	0x3d703f54	0.058654144
37	0xbdf079a1	-0.11741949
38	0x3d61bcdb	0.055111747
39	0xbc3c31f1	-0.011486516
40	0x3e158214	0.14600402
41	0xbe5f16b2	-0.21786001
42	0x3c8e3d2b	0.017363152
43	0xbe051776	-0.12997231
44	0x3f69336c	0.9109409
45	0xbd135305	-0.035967845
46	0x3dd6aed4	0.104825646
47	0xbd4b4322	-0.04962457
48	0x3ec160ab	0.37769064
49	0x3d9fc676	0.07801525
50	0x3ee50638	0.44731307
51	0x3db9f503	0.090799354
52	0xbc39d320	-0.01134184
53	0xbcec06ab	-0.028811773
54	0xbdc1aa7a	-0.09456344
55	0xbd148a43	-0.03626467
56	0xbd9efd57	-0.077631645
57	0x3db9462d	0.09046588
58	0xbc7bd0df	-0.015369623
59	0xbda7a2e7	-0.08185368
60	0x3a5798a1	0.00082243426
61	0xbe321452	-0.17390564
62	0x3def7758	0.11692685
63	0xbd175d61	-0.036954287
64	0xbea3052d	-0.31839886
65	0xbdf781e2	-0.1208532
66	0xbd54feb3	-0.052000713
67	0xbdc50187	-0.09619432
68	0x3da1d105	0.079011954
69	0x3d95930e	0.07303439
70	0x3d971646	0.07377295
71	0x3f08f057	0.5349173
72	0x3e955631	0.2916732
73	0x3dfc4a1e	0.12318824
74	0xbdae848e	-0.085213766
75	0xbd80b4ae	-0.06284462
76	0xbf72fcbe	-0.94916904
77	0xbd8e2712	-0.06941046
78	0x3d128087	0.035767104
79	0xbcf6ba71	-0.030118199
80	0xbd429da4	-0.04751362
81	0xbde3f02f	-0.11129796
82	0x3f284dd7	0.65743774
83	0x3c6bb834	0.014387179
84	0x3d841d1d	0.064508654
85	0xbc557ce0	-0.013030261
86	0x3d4c376c	0.049857542
87	0xbe8bfd47	-0.27341673
88	0xbdb6c80e	-0.08924876
89	0x3d31850e	0.04333978
90	0x3d540337	0.05176088
91	0xbdd2d25d	-0.1029403
92	0xbea16c27	-0.31527826
93	0x3e36733b	0.17817394
94	0x3c921803	0.017833715
95	0x3d2c6d80	0.042096615
96	0x3eeffb4a	0.46871406
97	0x3d8118d8	0.06303567
98	0xbe331993	-0.17490225
99	0x3dc1c75c	0.09461853
100	0x3c998d6f	0.018744199
101	0xbc22578a	-0.009908566
102	0x3e5c4272	0.21509722
103	0x3e39c1c7	0.18140326
104	0x3ef609f1	0.4805446
105	0xbe898b86	-0.2686426
106	0xbeec4f3b	-0.46154198
107	0xbd2faf45	-0.04289176
108	0xbe981adb	-0.2970799
109	0x3d59f38a	0.053210773
110	0x3f00fc5d	0.50385076
111	0x3eb11240	0.34584236
112	0x3e8ae87c	0.27130497
113	0x3e52917e	0.20563313
114	0xbd45aa76	-0.048258267
115	0xbb82daea	-0.0039933817
116	0xbe95fbfb	-0.29293808
117	0xbbc28713	-0.0059365123
118	0xbe8ca5be	-0.274702
119	0xbe3833fb	-0.17988579
120	0x3dc89629	0.09794266
121	0xbc8f0468	-0.017458156
122	0xbe930dd4	-0.28721488
123	0x3eb980cc	0.36231077
124	0xbf212cf3	-0.6295921
125	0x3ddc2802	0.107498184
126	0xbe226b2a	-0.15861192
127	0xbe15f2df	-0.14643429
128	0xbef77eb0	-0.48338842
129	0xbbb18895	-0.005417893
130	0x3e8771c5	0.26453987
131	0x3e8f1cf0	0.27951765
132	0xbe24c6bb	-0.16091435
133	0x3e1c493b	0.1526231
134	0xbd967049	-0.073456354
135	0x3e480fa6	0.1953722
136	0x3ec33295	0.3812453
137	0xbe707598	-0.23482358
138	0xbea4ec7c	-0.32211673
139	0xbe425610	-0.18978143
140	0x3da8c635	0.0824093
141	0xbe01599c	-0.1263184
142	0xbe7ad46d	-0.24495097
143	0x3e09ce62	0.13457635
144	0xbf0e1864	-0.5550597
145	0xbb072b04	-0.0020625005
146	0x3e6dc255	0.23218663
147	0xbd8c8ba3	-0.06862571
148	0xbe8cf65d	-0.2753171
149	0xbe86e07a	-0.26343137
150	0x3dbe6c12	0.092979565
151	0xbe37c5b3	-0.1794651
152	0xbe86f9b5	-0.26362386
153	0xbea4bc52	-0.32174927
154	0x3cebd3ed	0.028787578
155	0xbd22d43c	-0.039753184
156	0xbd8bbd19	-0.06823177
157	0x3d625dcd	0.055265237
158	0xbda5f27e	-0.08102892
159	0xbe196ab1	-0.14982106
160	0xbf0ef7f4	-0.55847096
161	0xbe0a58ab	-0.13510387
162	0x3d0bd6f7	0.034140553
163	0xbe38d502	-0.18050006
164	0xbde48b68	-0.11159402
165	0x3ea722e8	0.3264382
166	0x3d062dc6	0.032758497
167	0x3e9338d4	0.28754294
168	0x3e3db103	0.18524556
169	0x3e17384f	0.14767574
170	0xbee21361	-0.4415541
171	0x3c8d48a8	0.01724656
172	0xbeda1ae8	-0.42598653
173	0xbeff0b95	-0.49813524
174	0xbdc556d9	-0.096357055
175	0x3e841519	0.25797346
176	0xbe505105	-0.20343406
177	0x3d9c0c50	0.07619536
178	0x3effc3d1	0.49954084
179	0xbc510b62	-0.0127590615
180	0xbe3e58c9	-0.18588556
181	0x3e12da00	0.14340973
182	0x3cef9afc	0.029248707
183	0x3da4ec23	0.08052852
184	0xbd9a18ed	-0.075242855
185	0xbe85d45c	-0.2613858
186	0x3eb9579a	0.36199647
187	0xbe24ca69	-0.16092838
188	0xbed4d87b	-0.41571411
189	0x3d7486b6	0.059698783
190	0x3e51bc85	0.2048207
191	0x3e2c398e	0.1681883
192	0x3f28b232	0.65896904
193	0x3c54594f	0.012960746
194	0xbdaf8301	-0.08569909
195	0xbd0d7208	-0.034532577
196	0x3c8a2099	0.016861247
197	0x3cef91e5	0.029244373
198	0xbd503f81	-0.050841812
199	0xbdd82fca	-0.1055599
200	0xbfdbf30f	-1.7183551
201	0xbe33a2dc	-0.17542595
202	0xbee76e03	-0.4520112
203	0xbe077534	-0.13228303
204	0xbf5557ad	-0.8333691
205	0xbdd51e21	-0.10406137
206	0xbe85b549	-0.26114872
207	0x3995d1f8	0.00028575934
208	0xbe746bf5	-0.23869307
209	0x3bd54c95	0.0065093734
210	0xbe30f3cd	-0.17280503
211	0xbb11a8cd	-0.0022225857
212	0xbcaab18a	-0.02083661
213	0x3e13fd83	0.14452176
214	0x3db17376	0.086646006
215	0x3d24d86e	0.040245466
216	0xbcdd0420	-0.026979506
217	0x3e24ae26	0.16082057
218	0xbd82224b	-0.06354197
219	0x3ba43733	0.005011463
220	0xbd7808bb	-0.0605552
221	0x3d00927e	0.031389706
222	0xbd000328	-0.03125301
223	0x3cc1da31	0.023663612
224	0x3ec54489	0.3852885
225	0xbdf2059a	-0.11817475
226	0x3e77a66b	0.24184577
227	0x3e848ee5	0.2589027
228	0x3e07803a	0.13232508
229	0x3d308490	0.04309517
230	0xbecc587d	-0.3991126
231	0xbdb26907	-0.087114386
232	0x3df33f77	0.11877339
233	0xbc8e09b8	-0.017338619
234	0x3c80dcfd	0.015730375
235	0xbd2c3c6e	-0.042049818
236	0x3d98708a	0.0744334
237	0xbd968c89	-0.07351024
238	0xbe96f171	-0.2948108
239	0xbe29bb13	-0.1657527
240	0xbe09dd58	-0.13463342
241	0xbd4d06f3	-0.050055455
242	0xbd74da11	-0.059778277
243	0x3e4f6d27	0.20256482
244	0xbe995b13	-0.29952297
245	0xbe18f69e	-0.14937827
246	0x3e5c2610	0.21498895
247	0xbe2eb436	-0.17060933
248	0x3caba33d	0.020951862
249	0x3c9b5342	0.018960599
250	0x3e078708	0.13235104
251	0x3db81da6	0.0899003
252	0xbe0e4d7e	-0.13896748
253	0x3e64c4bf	0.22340678
254	0xbcbe046d	-0.02319547
255	0x3df2afea	0.11849959

l4.bias f4 [256]
0	0xbec19955	-0.37812296
1	0xbef6df82	-0.48217398
2	0xbe314b25	-0.17313822
3	0x3da8f133	0.0824913
4	0x3e388530	0.18019557
5	0xbea102fd	-0.31447592
6	0xbf28c98e	-0.6593255
7	0x3ecdabc2	0.40170103
8	0xbe5c6687	-0.21523486
9	0xbf1525c4	-0.5826075
10	0xbdabe807	-0.08393865
11	0x3d9013bf	0.07035016
12	0xbea99640	-0.33122444
13	0xbea268d4	-0.31720603
14	0x3ebbf1cd	0.36707917
15	0x3ef360d5	0.47534814
16	0xbeca484e	-0.3950829
17	0xbebb3de5	-0.3657066
18	0x3d93b20f	0.07211696
19	0x3ed7ffbf	0.42187306
20	0xbec2f558	-0.38077807
21	0xbe0d078a	-0.13772407
22	0xbc90bb5e	-0.017667469
23	0xbdee0125	-0.11621312
24	0x3e013d13	0.12620954
25	0xbef9cbc8	-0.48788285
26	0x3f0ac2cf	0.54203504
27	0x3ec7cf0a	0.39025146
28	0xbe273e9a	-0.16332474
29	0xbf0f1dbe	-0.5590476
30	0xbef5b735	-0.47991338
31	0xbe82b54a	-0.25528938
32	0xbe648cb6	-0.22319302
33	0x3e5ad761	0.21371223
34	0xbead8c32	-0.33896023
35	0xbe3f0982	-0.1865597
36	0xbe3db971	-0.18527772
37	0xbd4d9db5	-0.05019923
38	0xbea8212d	-0.3283781
39	0x3e99786d	0.2997469
40	0xbf069c49	-0.5258222
41	0xbeab3399	-0.33437803
42	0xbef0bfcf	-0.47021338
43	0xbe6e1494	-0.23250037
44	0x3dcf5185	0.101229705
45	0x3f41a6f4	0.75645375
46	0xbef78b8b	-0.4834865
47	0x3edf147d	0.4357032
48	0x3f103e3b	0.56344956
49	0x3de83bc3	0.11339524
50	0x3e7c937e	0.24665639
51	0xbefc6369	-0.49294594
52	0xbe94f7ef	-0.29095408
53	0x3dd85e9f	0.105649225
54	0x3f170f1a	0.5900742
55	0xbf1c59e0	-0.6107464
56	0x3eee0fd8	0.46496463
57	0x3d5e0ffc	0.054214463
58	0xbe9795f2	-0.29606587
59	0xbf3a8881	-0.7286454
60	0xbdacf232	-0.084446326
61	0xbd939505	-0.072061576
62	0xbeb17c68	-0.34665227
63	0x3ef1110d	0.4708332
64	0x3e24bf57	0.16088615
65	0x3edd90b0	0.4327445
66	0xbf1c815d	-0.6113489
67	0xbd12750d	-0.03575616
68	0xbeb0e46a	-0.34549266
69	0xbe83f670	-0.25773954
70	0xbebc4dd4	-0.36778128
71	0xbf3df53f	-0.7420234
72	0x3e8da376	0.27663773
73	0x3eaa13b1	0.33218148
74	0xbe8e5b45	-0.27804008
75	0x3e6dd874	0.23227102
76	0xbf0f4dd6	-0.55978143
77	0xbda57495	-0.08078877
78	0x3e7ddb33	0.24790649
79	0xbd56f599	-0.052480314
80	0x3e218fdf	0.15777539
81	0x3d0e79c8	0.03478411
82	0xbf06e83a	-0.526981
83	0xbf92be96	-1.1464412
84	0xbf7dae78	-0.99094343
85	0x3efbd052	0.49182373
86	0xbea90d11	-0.3301778
87	0xbf24ddc1	-0.6440087
88	0xbdc909a5	-0.09816293
89	0x3f1b5aad	0.60685235
90	0xbd4467d9	-0.0479506
91	0xbf2732bb	-0.65311784
92	0x3e3a2435	0.18177874
93	0xbe8afa23	-0.27143964
94	0xbd1bb4fd	-0.0380144
95	0xbf1fd544	-0.6243479
96	0x3e7f9129	0.24957718
97	0xbf003f88	-0.5009694
98	0xbe2bec4d	-0.1678936
99	0x3eea7b2f	0.45797107
100	0xbe4f366a	-0.20235601
101	0xbe08b390	-0.13349748
102	0x3e1cdc20	0.15318346
103	0xbe9e298e	-0.3089108
104	0xbe4dd886	-0.20102128
105	0x3dd7912d	0.10525737
106	0xbf1922b2	-0.59818566
107	0xbec3d809	-0.3825076
108	0xbee9603d	-0.45581236
109	0x3f14c70a	0.5811621
110	0x3eb54925	0.35407367
111	0x3eeb8f5a	0.46007806
112	0xbec8c705	-0.3921434
113	0xbe7c31c7	-0.24628364
114	0x3e96294e	0.29328388
115	0x3f087587	0.5330433
116	0x3eebe78c	0.46075094
117	0xbdf1c79f	-0.11805653
118	0x3ef2dba1	0.4743319
119	0xbeb40683	-0.35161218
120	0xbf302157	-0.6880087
121	0x3cbe8608	0.02325727
122	0xbe95166c	-0.2911867
123	0xbf0fbc61	-0.5614682
124	0xbf98a88a	-1.1926434
125	0xbe47a09f	-0.19494866
126	0xbe586a27	-0.21134244
127	0x3a8a4fd5	0.0010552356
128	0xbeef58a6	-0.4674732
129	0x3eef7a26	0.4677288
130	0xbee57b43	-0.44820604
131	0xbdafebf7	-0.085899286
132	0xbed36ebc	-0.4129542
133	0x3ea39218	0.31947398
134	0x3f22ef8d	0.63646775
135	0xbed7021d	-0.419938
136	0xbea5f3d5	-0.32412592
137	0x3ecfba87	0.40571997
138	0xbe4d88e7	-0.20071755
139	0xbec6fb34	-0.38863528
140	0xbf2b2c6f	-0.66864675
141	0x3e9a302f	0.30114886
142	0xbf1283fe	-0.57232654
143	0xbf94c907	-1.1623849
144	0xbe9e6008	-0.3093264
145	0xbea8b26b	-0.32948622
146	0xbec4cf07	-0.384392
147	0xbf8508c4	-1.03933
148	0xbeffe03a	-0.4997576
149	0x3d785aa8	0.06063333
150	0xbd0de96b	-0.034646433
151	0x3f2d4613	0.6768505
152	0xbe9427f6	-0.28936738
153	0x3e91561f	0.28386018
154	0xbf0e1822	-0.55505574
155	0xbec566d2	-0.38555008
156	0xbe05582d	-0.13021918
157	0x3e78896f	0.24271177
158	0x3e51e2db	0.20496695
159	0x3ee3a7b5	0.44463888
160	0xbedb0b2c	-0.4278196
161	0x3e82e2fe	0.25563806
162	0x3e8fe1c3	0.2810193
163	0x3ee39048	0.44446015
164	0x3ee6e6be	0.45097917
165	0xbf0b6cc1	-0.5446282
166	0xbe56228f	-0.2091162
167	0x3ec258c0	0.37958336
168	0xbf51e6a1	-0.81992537
169	0xbdb31961	-0.08745075
170	0x3e2ea6d3	0.17055826
171	0x3e6aabec	0.22917145
172	0xbefcb97b	-0.4936026
173	0xbead6ddf	-0.33872887
174	0xbe368a56	-0.17826208
175	0x3de9d420	0.11417413
176	0xbea2fdbb	-0.31834206
177	0xbed6e5cf	-0.41972205
178	0xbf467278	-0.77518415
179	0x3dd53e02	0.10412218
180	0x3f0ad8c5	0.54237014
181	0xbe18c185	-0.14917572
182	0x3ee85198	0.4537475
183	0xbf62b9b2	-0.885646
184	0xbdd00423	-0.10157039
185	0x3e9aca42	0.30232435
186	0xbe2bc11f	-0.16772889
187	0xbecaab1d	-0.39583674
188	0x3d06a7b8	0.032874793
189	0x3e4ba26f	0.19886182
190	0xbf4244bf	-0.7588615
191	0xbc0c8ad9	-0.008578026
192	0xbf12f6d8	-0.57407904
193	0xbf0c880d	-0.54895097
194	0x3eea9a7e	0.45820993
195	0xbf2281d4	-0.6347935
196	0x3ef1e87e	0.4724769
197	0xbe539406	-0.20661935
198	0xbe6065ac	-0.21913785
199	0xbde380d5	-0.11108557
200	0x3eb51c53	0.35373172
201	0x3f00fc3d	0.50384885
202	0xbe8c1ac8	-0.27364182
203	0x3f022cbc	0.5084951
204	0x3ed5355b	0.4164227
205	0xbe892741	-0.2678776
206	0x3ec40591	0.38285497
207	0x3cf2a77e	0.029620882
208	0xbcc79e76	-0.024367552
209	0xbf26428b	-0.64945287
210	0x3df3113f	0.11868524
211	0xbda6d3b6	-0.081458494
212	0xbe9a5e71	-0.30150178
213	0xbeab92f5	-0.33510557
214	0x3f068452	0.52545655
215	0x3e865339	0.2623537
216	0x3eb615c0	0.3556347
217	0xbeccfdc5	-0.4003736
218	0xbd1f78fc	-0.03893374
219	0xbdd028c0	-0.101640224
220	0xbb231bb8	-0.0024888348
221	0xbebe6de8	-0.37193227
222	0x3e6ef5d3	0.23335962
223	0xbe0a574d	-0.13509865
224	0xbf51c72d	-0.81944543
225	0xbf6a6835	-0.9156526
226	0x3e3719e5	0.17880972
227	0x3f03bf5c	0.51463866
228	0x3edd8e22	0.432725
229	0xbeda1210	-0.42591906
230	0xbdc0875f	-0.0940082
231	0xbecd74a3	-0.4012805
232	0x3ee9febe	0.45702165
233	0x3f0faff3	0.5612785
234	0xbeb1a88a	-0.34698898
235	0xbec0938d	-0.37612572
236	0xbecde0d3	-0.4021059
237	0x3ec0f230	0.37684774
238	0xbf3ccb50	-0.7374773
239	0x3eaad094	0.33362257
240	0xbf63d4f3	-0.8899681
241	0x3f0182da	0.5059029
242	0xbf2fbfc5	-0.6865199
243	0xbe86f596	-0.26359242
244	0xbf59ae7b	-0.8503186
245	0x3e1f8f97	0.15582119
246	0x3f26d201	0.6516419
247	0x3ec2318e	0.37928432
248	0xbe8ee4bf	-0.27908894
249	0xbd926afa	-0.071493104
250	0xbf1ec97e	-0.620262
251	0xbeb40aca	-0.3516448
252	0x3eda4f16	0.42638463
253	0xbf270f2a	-0.65257514
254	0xbe9515c2	-0.29118162
255	0xbeaa7770	-0.3329425
