Project/upload/part2_q1/HalfCheetahBulletEnv-v0_TD3_BC_2_1638386631_td3_bc.pth (torch, 898095 bytes, 16 tensors)

l1.weight f4 [256, 32]
0.24172787 0.16368148 0.07761226 0.14214651 0.05306385 0.5506909 0.03785358 0.101654895
-0.06775049 -0.0742529 -0.22094567 0.3346266 -0.15323076 -0.27421394 0.014963279 0.01224342
0.26483682 0.28653416 -0.15111256 0.320261 -0.34383923 0.25955775 0.058320705 0.019418329
-0.016302506 0.12829319 -0.22120076 -0.22216046 0.041457463 -0.05544364 -0.17966124 0.23661545
0.0361637 -0.16208993 -0.09006084 -0.05239416 0.11971344 0.29966396 -0.17248715 0.33784238
0.08349666 -0.29451528 -0.4533821 -0.40725908 0.40278038 0.077411056 0.026379261 0.13543601
0.21723977 -0.12659436 -0.05970733 -0.2664767 0.07176053 -0.4870742 0.11899332 -0.0063341525
-0.15465294 -0.2489594 -0.04553152 -0.1519616 -0.068621 -0.19541734 0.08156017 -0.04763427
-0.12861979 0.15952629 0.13425423 0.19908114 0.13834684 0.09882181 -0.029118119 0.11076267
0.116938345 -0.08400219 0.00839654 -0.0010302445 -0.69089824 -0.21843402 0.12463087 0.057685494
0.104760446 0.059431836 -0.4516939 0.04206582 -0.07066439 -0.30422655 -0.00965012 -0.032377593
0.005327429 -0.18910243 -0.10151591 -0.13756396 -0.24357575 -0.044695742 -0.025265299 -0.05647496
-0.5627884 0.066883236 -0.16494456 -0.32636708 -0.052484058 -0.16278209 0.16159421 -0.15615982
0.727339 0.48819575 0.26968318 -0.050355967 0.022321932 0.19487186 -0.6391211 0.2919382
0.1074988 0.34881532 0.37211126 0.19743626 0.001542024 -0.4310669 -0.24709041 0.4942259
0.082185775 0.15652663 0.44691035 -0.15452522 0.100794494 0.35641876 -0.14857173 0.40737098
0.4061997 0.026327029 -0.07823899 0.0038742935 0.1677471 0.048444144 -0.061922442 -0.14796615
-0.12960564 -0.14142855 0.13957039 0.12203534 0.07310648 -0.15583378 0.11362367 0.019608933
0.059201695 0.053116273 0.25512058 -0.09614485 0.4928994 0.3430741 0.23586823 -0.12434447
0.060664225 0.25233486 0.23318195 0.208883 0.1420286 -0.23324917 -0.03483742 0.18420881
0.25255498 0.15356223 0.06394809 -0.20607316 -0.079225324 -0.0076413914 0.049234577 -0.06927113
0.30385566 0.12253498 0.286372 0.084487215 0.23081306 -0.23955448 0.115280636 0.009858454
-0.19459112 0.008389427 -0.13482928 0.27659583 -0.087225765 -0.29119518 0.020935701 0.16170411
-0.029045485 0.09539578 -0.111835666 -0.22027093 -0.25054842 -0.025647696 0.048360597 0.17586216
0.20725459 -0.10988943 0.03906092 0.4931666 0.1487328 0.035330717 -0.08204954 0.6095575
-0.5771505 -0.5535442 -0.336419 -0.27527612 0.25011092 -0.15986374 -0.1601247 -0.23639229
-0.54041964 -0.38180298 -0.5101569 -0.09034488 -0.1210824 -0.02182141 0.024159972 0.24918696
0.19095424 -0.18362671 -0.097329386 0.052905306 -0.05212555 -0.2583909 0.1305273 -0.24067137
0.40116772 0.16969326 -0.020323653 -0.098423794 -0.030691165 -0.04453863 0.12946776 0.08311207
0.27471107 0.361284 -0.36028266 0.36362615 0.78364563 -0.20381755 0.23145835 -0.13383102
0.40557942 0.21206243 -0.45159099 0.1954682 -0.37069732 -0.012839608 -0.08774193 -0.043113466
-0.21391188 0.123146206 0.4413242 0.4081042 0.052426737 0.09239172 0.13300957 0.27563497
00000000: 8387 773e 1e9c 273e 2df3 9e3d db8e 113e
00000010: 7b59 593d 14fa 0c3f 5b0c 1b3d 7130 d03d
00000020: c5c0 8abd e811 98bd 953f 62be 2d54 ab3e
00000030: 86e8 1cbe c565 8cbe 8a28 753c a098 483c
00000040: b198 873e 9bb4 923e 40bd 1abe 40f9 a33e
00000050: b20b b0be c1e4 843e b1e1 6e3d 3013 9f3c
00000060: d58c 85bc 4a5f 033e 7482 62be 087e 63be
00000070: 4dcf 293d df18 63bd 1ef9 37be 524b 723e
00000080: 6320 143d e7fa 25be d171 b8bd 429b 56bd
00000090: 522c f53d 8e6d 993e 79a0 30be adf9 ac3e
000000a0: 4c00 ab3d b5ca 96be b321 e8be 4384 d0be
000000b0: 3b39 ce3e b089 9e3d 5219 d83c bdaf 0a3e
000000c0: 1a74 5e3e f4a1 01be ac8f 74bd a26f 88be
000000d0: 2ff7 923d ca61 f9be c5b2 f33d b98e cfbb
000000e0: 575d 1ebe 37ef 7ebe 427f 3abd d29b 1bbe
000000f0: 2b89 8cbd 7c1b 48be 0509 a73d 271c 43bd
00000100: e8b4 03be dc5a 233e f179 093e eddb 4b3e
00000110: cbaa 0d3e 1763 ca3d 1f89 eebc 8ad7 e23d
00000120: 5f7d ef3d 5709 acbd a491 093c 4509 87ba
00000130: b5de 30bf 2bad 5fbe 783e ff3d a047 6c3d
00000140: a58c d63d cc6e 733d 6c44 e7be 364d 2c3d
00000150: 7eb8 90bd 95c3 9bbe 891b 1ebc 5e9e 04bd
00000160: b791 ae3b 11a4 41be 93e7 cfbd 91dd 0cbe
00000170: ec6b 79be e212 37bd 2cf9 cebc 4a52 67bd
00000180: e712 10bf 14fa 883d 3ae7 28be 9619 a7be
00000190: 86f9 56bd 59b0 26be f478 253e 5ce8 1fbe
000001a0: e432 3a3f cbf4 f93e ea13 8a3e 0f42 4ebd
000001b0: 7cdc b63c 7d8c 473e 719d 23bf ec78 953e
000001c0: 5528 dc3d ec97 b23e 5e85 be3e bb2c 4a3e
000001d0: bd1d ca3a cdb4 dcbe 4505 7dbe 2d0b fd3e
000001e0: 0451 a83d 8448 203e 6fd1 e43e dc3b 1ebe
000001f0: 586d ce3d 857c b63e 3023 18be ee92 d03e
00000200: 68f9 cf3e c8ab d73c c33b a0bd dce7 7d3b
00000210: e5c5 2b3e 5e6d 463d 63a2 7dbd 7084 17be
00000220: 57b7 04be a5d2 10be 8aeb 0e3e aaed f93d
00000230: dab8 953d e492 1fbe 87b3 e83d eaa2 a03c
00000240: 7a7d 723d 7390 593d 2a9f 823e 97e7 c4bd
00000250: 4f5d fc3e 69a7 af3e 7187 713e 50a8 febd
00000260: 0d7b 783d 0932 813e 40c7 6e3e 6de5 553e
00000270: f26f 113e dfd8 6ebe afb1 0ebd 3ca1 3c3e
00000280: e34e 813e 6b3f 1d3e 37f7 823d d804 53be
00000290: e340 a2bd a364 fabb 32aa 493d 06de 8dbd
000002a0: f892 9b3e 9ff3 fa3d 5a9f 923e a207 ad3d
000002b0: 425a 6c3e c54d 75be 4118 ec3d 5a85 213c
000002c0: e542 47be cf73 093c b010 0abe f89d 8d3e
000002d0: 6ca3 b2bd 8917 95be 5981 ab3c c395 253e
000002e0: ccf0 edbc dd5e c33d 190a e5bd b48e 61be
000002f0: e247 80be 1e1b d2bc c315 463d 3615 343e
00000300: 8c3a 543e b60d e1bd 58fe 1f3d 5580 fc3e
00000310: 694d 183e f1b6 103d 9709 a8bd f60b 1c3f
00000320: 23c0 13bf 13b5 0dbf 1c3f acbe fef0 8cbe
00000330: 8a0e 803e 52b3 23be bbf7 23be d210 72be
00000340: f158 0abf ae7b c3be a599 02bf bd06 b9bd
00000350: 0dfa f7bd d0c2 b2bc 22eb c53c de2a 7f3e
00000360: 8289 433e a408 3cbe a154 c7bd 3cb3 583d
00000370: 9a81 55bd d04b 84be f3a8 053e 8e72 76be
00000380: db65 cd3e 12c4 2d3e ca7d a6bc 6a92 c9bd
00000390: 0a6c fbbc 236e 36bd 3293 043e a936 aa3d
000003a0: eea6 8c3e 37fa b83e f876 b8be 352d ba3e
000003b0: 009d 483f 8cb5 50be 6b03 6d3e 000b 09be
000003c0: 1ba8 cf3e e526 593e ef36 e7be d128 483e
000003d0: 0acc bdbe 385d 52bc 0ab2 b3bd bf97 30bd
000003e0: b70b 5bbe 1434 fc3d 3ff5 e13e 09f3 d03e
000003f0: 6bbd 563d df37 bd3d a933 083e 0720 8d3e

l1.bias f4 [256]
0.2890908 0.09741336 0.46606654 -0.5069473 0.41638178 0.56679815 -0.36748523 -0.09603248
0.066617556 -0.29128015 0.19995725 -0.29351974 -0.4509754 -0.6216464 -0.19344607 0.08446974
-0.28021228 -0.2786396 -0.77281815 -0.31299776 0.13319997 0.24643488 -0.4982838 -0.49342725
0.092795484 -0.48219317 -0.6632276 -0.13391806 0.31033835 -0.81563145 -0.37767962 0.08582943
-0.48158652 0.12238587 -0.10027173 -0.45717204 -0.080346994 -0.56418616 0.13555922 0.3235655
0.051829387 0.36930865 -0.9289598 0.055055454 -0.4640132 0.17522153 0.042691037 0.45753887
-0.39927268 -0.41243643 0.36200607 -0.300305 0.014750732 -0.22665663 0.16768764 0.5178032
-0.880351 -0.46190643 -0.11588983 -0.091792755 -0.058465462 -0.37015828 -0.34940955 -0.22290397
0.4714823 -0.015939694 -0.29941323 -0.21516219 -0.67064095 -0.0502567 -0.14988297 0.3293993
0.229028 -0.34019652 0.36426535 -0.6502072 -0.681056 -0.2984491 -0.17122728 -0.4961576
0.13666691 0.17516507 -0.4821426 -0.47073773 -0.032102086 -0.2568943 -0.40012836 0.2872054
0.5953509 -0.2821094 -0.26756576 -0.31283236 -0.7942935 -0.087454855 0.46338853 0.37214354
0.022318697 -0.192994 0.00022368849 -0.03533691 -0.05418731 -0.18598405 0.49897987 -0.121545754
-0.0028017145 0.42344704 0.3484643 -0.71308225 -0.47475436 -0.6375357 -0.38824335 -0.5094846
-0.54512745 -0.17190821 -0.3684277 -0.2926479 -0.5766205 -0.34191746 -0.21068986 -0.16259249
-0.3850054 -0.47088245 -0.37763065 -0.19087087 -0.41209227 -0.34372455 -0.12946464 0.46762577
-0.067539565 -0.26165688 -0.41253975 -0.47903645 0.3479163 -0.41509676 0.03354108 0.17090014
0.05916236 -0.50088155 -0.38703233 -0.5014632 -0.12576574 -0.6868141 -0.22130406 -0.38176057
-0.040834963 -0.5007047 0.11558756 -0.27283967 -0.1770077 -0.109955795 -0.8447008 0.25708103
-0.036568772 0.1821933 0.1929901 0.47205603 0.42047432 -0.5173775 -0.0076920255 -0.40450212
0.2738528 -0.27619627 -0.3466186 0.2026298 -0.3645301 -0.06726282 -0.2081128 -0.22528595
-0.028194396 -0.6796547 -0.013976417 0.11457309 -0.036116727 0.39370206 -0.2903279 -0.32364514
-0.06864594 0.17079124 0.3887556 -0.30648217 0.36350298 -0.35240507 -0.67330515 -0.50179404
-0.32823342 0.13493739 -0.055900723 0.1327598 -0.22939783 -0.16008885 -0.21652235 0.4507267
-0.6926549 -0.06314941 -0.44121164 -0.32713956 0.25137433 -0.41351888 0.3643882 -0.045975756
-0.29375714 0.06336754 -0.6800898 0.3040021 -0.43457496 -0.94594467 -0.18055518 -0.2898671
-0.1109351 0.322219 0.35674882 -0.6142921 0.19035663 -0.34053025 0.19260938 -0.2002004
0.46014184 0.46411514 0.29467168 0.23065135 -0.44080222 0.2813738 -0.6620054 -0.12158853
0.4819532 -0.21943489 -0.3633197 -0.16966079 0.3624984 0.02606847 -0.7164138 -0.4316486
-0.9448983 -0.12449027 -0.14381222 0.06176943 -0.022815643 -0.5327254 0.2202786 -0.15927744
0.20468125 -0.19921736 -0.31844243 0.45592865 -0.3412949 0.019109048 0.05440627 -0.31469312
-0.59200907 0.40503493 -0.30187082 0.33913627 -0.39583543 -0.27335116 -0.5957749 -0.22253044
00000000: b603 943e a880 c73d 46a0 ee3e 4cc7 01bf
00000010: fe2f d53e af19 113f 0627 bcbe adac c4bd
00000020: c96e 883d ac22 95be 98c1 4c3e 3848 96be
00000030: 3fe6 e6be 3824 1fbf ba16 46be 79fe ac3d
00000040: fc77 8fbe daa9 8ebe 69d7 45bf 3e41 a0be
00000050: 9365 083e 6d59 7c3e 0e1f ffbe 7fa2 fcbe
00000060: 8f0b be3d 06e2 f6be 49c9 29bf d121 09be
00000070: abe4 9e3e 39cd 50bf 395f c1be 57c7 af3d
00000080: 8292 f6be 71a5 fa3d 445b cdbd 7412 eabe
00000090: f78c a4bd 816e 10bf 09d0 0a3e 61aa a53e
000000a0: 0d4b 543d 0616 bd3e 4fd0 6dbf d481 613d
000000b0: 2393 edbe 466d 333e ccdc 2e3d 8942 ea3e
000000c0: 786d ccbe de2a d3be dc58 b93e 94c1 99be
000000d0: 0ead 713c ad18 68be 4fb6 2b3e c08e 043f
000000e0: af5e 61bf 007f ecbe a657 edbd d7fd bbbd
000000f0: 7b79 6fbd 6385 bdbe cfe5 b2be f040 64be
00000100: 2166 f13e f693 82bc b14c 99be 7a53 5cbe
00000110: 20af 2bbf f8d9 4dbd ec7a 19be 06a7 a83e
00000120: 5186 6a3e 3d2e aebe fd80 ba3e fb73 26bf
00000130: b059 2ebf 52ce 98be 3456 2fbe 5e08 febe
00000140: 69f2 0b3e 795e 333e 65db f6be 8904 f1be
00000150: 7a7d 03bd a687 83be a0dd ccbe 960c 933e
00000160: eb68 183f a570 90be 61fe 88be 902b a0be
00000170: d256 4bbf 881b b3bd 4341 ed3e 9989 be3e
00000180: b3d5 b63c 38a0 45be ec8d 6a39 70bd 10bd
00000190: 83f3 5dbd 9a72 3ebe 4a7a ff3e fbec f8bd
000001a0: f89c 37bb 0dce d83e ea69 b23e 8f8c 36bf
000001b0: 0113 f3be 8a35 23bf d5c7 c6be 956d 02bf
000001c0: 798d 0bbf b508 30be 8ea2 bcbe f2d5 95be
000001d0: 679d 13bf ce0f afbe 15bf 57be a57e 26be
000001e0: 6e1f c5be 8117 f1be ce58 c1be a773 43be
000001f0: c2fd d2be aafc afbe 6192 04be a56c ef3e
00000200: 2f52 8abd e4f7 85be 6938 d3be 4444 f5be
00000210: 1622 b23e 9087 d4be 5f62 093d 7200 2f3e
00000220: 3b54 723d c639 00bf 1a29 c6be e45f 00bf
00000230: bcc8 00be 0dd3 2fbf 889d 62be 1f76 c3be
00000240: 9042 27bd 2f2e 00bf 2cb9 ec3d a4b1 8bbe
00000250: 8241 35be 8130 e1bd 503e 58bf 20a0 833e
00000260: 23c9 15bd e190 3a3e 329f 453e 54b1 f13e
00000270: 6948 d73e da72 04bf 630d fcbb e71a cfbe
00000280: 6f36 8c3e 9969 8dbe fe77 b1be 307e 4f3e
00000290: b0a3 babe 17c1 89bd 861b 55be 5cb1 66be
000002a0: eff7 e6bc dafd 2dbf 57fd 64bc 4ca5 ea3d
000002b0: 22ef 13bd 5193 c93e dca5 94be d1b4 a5be
000002c0: 3e96 8cbd e6e3 2e3e f90a c73e 3beb 9cbe
000002d0: 101d ba3e 706e b4be ba5d 2cbf 9375 00bf
000002e0: 360e a8be 072d 0a3e 28f8 64bd 2ff2 073e
000002f0: 44e7 6abe 55ee 23be 09b8 5dbe a6c5 e63e
00000300: d551 31bf 7a54 81bd 7ee6 e1be d67e a7be
00000310: 23b4 803e bfb8 d3be 1791 ba3e 1351 3cbd
00000320: 5667 96be d7c6 813d 5d1a 2ebf 2aa6 9b3e
00000330: 9c80 debe 6e29 72bf 75e3 38be 7669 94be
00000340: f131 e3bd e4f9 a43e c8a7 b63e 3f42 1dbf
00000350: d9ec 423e fb59 aebe 653b 453e 5501 4dbe
00000360: b697 eb3e 80a0 ed3e 35df 963e de2f 6c3e
00000370: d4b0 e1be 3a10 903e 3079 29bf 6803 f9bd
00000380: 92c2 f63e 8ab3 60be 0a05 babe 8fbb 2dbe
00000390: 6499 b93e 8b8d d53c e566 37bf 0c01 ddbe
000003a0: dbe4 71bf c1f4 febd 8343 13be f101 7d3d
000003b0: dfe7 babc b160 08bf b790 613e a019 23be
000003c0: f697 513e a3ff 4bbe e30a a3be 7b6f e93e
000003d0: 35be aebe 948a 9c3c 1cd9 5e3d 751f a1be
000003e0: e88d 17bf bd60 cf3e d08e 9abe 45a3 ad3e
000003f0: f1aa cabe aff4 8bbe b484 18bf 05df 63be

l2.weight f4 [256, 256]
-0.08212277 -0.10556275 0.22461377 0.16465375 0.047571786 0.077408925 -0.01327527 0.1657736
-0.17601636 -0.15862237 0.0130941635 -0.024773639 -0.0102623915 -0.1686291 -0.05754383 -0.17598774
0.35584697 -0.024069604 0.21191199 0.011152877 -0.1560305 -0.03497227 0.14888082 -0.20330606
-0.17179227 0.06413023 0.039252568 0.005303053 0.06194468 -0.016144745 -0.046942268 -0.032975826
0.13015693 0.0496693 -0.15232219 -0.047624744 -0.1519298 0.030032016 -0.33367315 -0.23371771
-0.49855536 -0.13937142 -0.28409082 -0.18803294 0.32333326 -0.049729206 0.3324217 -0.21190995
-0.0014085316 0.16805013 0.11188393 -0.5528003 -0.22950521 0.34013513 0.09966137 -0.17421421
0.11754522 -0.019413028 0.0519268 0.16060755 0.010724177 -0.115385465 0.31595635 0.18194644
0.017891092 0.16842373 0.0049141296 -0.054438032 0.11849219 -0.22912976 -0.05915553 -0.41540593
-0.03632797 -0.012023286 0.03647203 0.24691276 -0.14086987 0.26662624 -0.21432577 0.010790225
0.15489711 0.2983708 -0.5049874 0.04725234 -0.32287496 -0.23359679 0.26591134 0.038519844
-0.101581335 0.28220713 0.15435539 -0.020367358 -0.23796739 -0.22606711 0.20847782 -0.122016504
0.17871514 -0.33608213 -0.19039443 -0.12554574 -0.059153933 -0.15401939 0.27189264 0.102072
-0.19665572 0.2228429 -0.5012455 -0.025395866 -0.08561653 -0.09312771 -0.38202792 0.18688498
-0.27749738 -1.1417377 0.02225504 0.068348266 0.03754866 0.20158751 0.1876265 -0.062360313
-0.029525572 -0.00096734863 0.03831815 -0.28206167 0.40451655 0.08907444 0.17295834 -0.023402788
0.0952931 -0.51947147 0.025359474 0.007580968 -0.04601398 -0.4373355 0.2357824 -0.24639808
0.039312825 0.04031263 0.005397744 -0.04716924 -0.058170754 0.14556445 0.20810367 0.104662985
-0.24688724 0.21336164 -0.19139242 -0.08451866 -0.3174376 0.21061048 0.27949065 -0.37080422
-0.036974706 -0.5460137 -0.15819682 0.17412207 0.05137644 0.2705936 0.025801405 0.08456218
-0.07922591 0.18508396 0.20017374 0.12965998 0.01966312 0.11464178 -0.53633535 0.055917267
0.38256156 -0.050541997 -0.08263152 -0.23631604 -0.16231403 0.017517325 0.29973567 -0.033610385
0.24771963 -0.5168406 0.24235362 0.29054806 0.3004158 -0.0057629813 -0.11176391 0.10533617
0.084378354 -0.08658451 0.062257353 -0.2202045 -0.21602969 0.019158233 -0.007311812 0.2660116
0.039699342 -0.019875003 0.43036196 -0.17692266 0.10967039 0.071508445 0.07245431 0.047926117
0.27436602 -0.030873835 0.11477304 0.07770034 0.1829074 0.017133879 -0.14928335 0.15567179
-0.037716065 0.4167824 0.13017096 -0.136951 0.11726764 0.1372988 -0.22078991 -0.062423494
0.35518637 -0.002794718 0.041006327 0.12759694 0.12899426 -0.10990778 -0.55088145 0.32898462
-0.020121336 0.20898516 0.24325293 -0.19339387 -0.08946734 -0.100322105 -0.043127984 0.28322345
-0.19552472 -0.13402055 -0.21360394 0.3596297 0.20136854 0.22484873 -0.21070711 0.0060961936
0.1730132 0.17686902 -0.06769996 -0.20791535 0.25713605 -0.026037915 0.07253627 0.026004618
-0.08020482 0.13127877 0.3494165 -0.14272639 -3.6705558e-05 -0.09654539 -0.03829113 -0.15839617
00000000: fc2f a8bd 4831 d8bd 2701 663e fe9a 283e
00000010: a2da 423d 9288 9e3d 8580 59bc 8ec0 293e
00000020: a23d 34be e76d 22be e788 563c 16f2 cabc
00000030: 9723 28bc 1bad 2cbe 14b3 6bbd 2136 34be
00000040: 9331 b63e 9e2d c5bc 75ff 583e 8eba 363c
00000050: 76c6 1fbe 153f 0fbd 3774 183e 772f 50be
00000060: 50ea 2fbe b656 833d 4dc7 203d 3cc5 ad3b
00000070: b4b9 7d3d fc41 84bc 8946 40bd a911 07bd
00000080: dc47 053e 0972 4b3d 59fa 1bbe 2a12 43bd
00000090: 7c93 1bbe b405 f63c 35d7 aabe b253 6fbe
000000a0: a642 ffbe 62b7 0ebe 5a74 91be b58b 40be
000000b0: f08b a53e dab0 4bbd 2d33 aa3e ecfe 58be
000000c0: 7a9e b8ba 5515 2c3e 6723 e53d 5284 0dbf
000000d0: 6a03 6bbe 3126 ae3e 431b cc3d 3665 32be
000000e0: 8cbb f03d 1208 9fbc 32b1 543d 4e76 243e
000000f0: 75b4 2f3c 374f ecbd 08c5 a13e 2b50 3a3e
00000100: 5790 923c 4577 2c3e b506 a13b 6afa 5ebd
00000110: 09ac f23d fea0 6abe 124d 72bd 16b0 d4be
00000120: a3cc 14bd 51fd 44bc b263 153d b3d6 7c3e
00000130: 3140 10be 3c83 883e 3778 5bbe 7cc9 303c
00000140: 599d 1e3e 0fc4 983e db46 01bf ab8b 413d
00000150: de4f a5be ff33 6fbe 8825 883e fcc6 1d3d
00000160: e009 d0bd 747d 903e 570f 1e3e 72d9 a6bc
00000170: b9ad 73be 237e 67be 367b 553e cae3 f9bd
00000180: 1a01 373e f512 acbe c2f6 42be 108f 00be
00000190: 654b 72bd 42b7 1dbe 8335 8b3e 200b d13d
000001a0: 1e60 49be ee30 643e a051 00bf fe0a d0bc
000001b0: b857 afbd beb9 bebd 2a99 c3be c75e 3f3e
000001c0: 2314 8ebe 7624 92bf 3450 b63c 2dfa 8b3d
000001d0: a0cc 193d f56c 4e3e 2921 403e 876d 7fbd
000001e0: 9ddf f1bc ab95 7dba 7ef3 1c3d 636a 90be
000001f0: cb1c cf3e a96c b63d fe1b 313e 34b7 bfbc
00000200: 0729 c33d 15fc 04bf acbe cf3c c569 f83b
00000210: 2879 3cbd 70ea dfbe f170 713e c74f 7cbe
00000220: 7c06 213d db1e 253d 8fdf b03b 8834 41bd
00000230: 7544 6ebd d90e 153e 2119 553e 8c59 d63d
00000240: 02d0 7cbe 797b 5a3e 60fc 43be 1f18 adbd
00000250: 2e87 a2be 46aa 573e 6619 8f3e 0dda bdbe
00000260: ca72 17bd 8ec7 0bbf 59fe 21be 0e4d 323e
00000270: 1a70 523d 3f8b 8a3e 785d d33c f02e ad3d
00000280: 3241 a2bd a686 3d3e 58fa 4c3e 96c5 043e
00000290: 8d14 a13c 4fc9 ea3d 464d 09bf 8109 653d
000002a0: 1cdf c33e 2005 4fbd b73a a9bd d5fc 71be
000002b0: a635 26be 7e80 8f3c f476 993e 0bab 09bd
000002c0: 37aa 7d3e aa4f 04bf 8c2b 783e b7c2 943e
000002d0: 1ad0 993e 64d7 bcbb 7ae4 e4bd 7dba d73d
000002e0: 8fce ac3d 3853 b1bd 9101 7f3d 4a7d 61be
000002f0: e336 5dbe baf1 9c3c ed97 efbb ac32 883e
00000300: c79b 223d e7d0 a2bc 6758 dc3e 372b 35be
00000310: df9a e03d 0573 923d ed62 943d 2d4e 443d
00000320: b479 8c3e 20eb fcbc 210e eb3d 5b21 9f3d
00000330: 144c 3b3e 595c 8c3c bcdd 18be 6d68 1f3e
00000340: 297c 1abd 8164 d53e 894b 053e e23c 0cbe
00000350: 042a f03d 0e98 0c3e c016 62be c7af 7fbd
00000360: fdda b53e 9627 37bb 40f6 273d c6a8 023e
00000370: 1217 043e 5517 e1bd 9106 0dbf ac70 a83e
00000380: 80d5 a4bc 3500 563e 4c17 793e 0b09 46be
00000390: a73a b7bd ad75 cdbd f8a6 30bd aa02 913e
000003a0: a237 48be af3c 09be feba 5abe 6221 b83e
000003b0: 8e33 4e3e bf3e 663e 9bc3 57be 94c2 c73b
000003c0: 5f2a 313e 271d 353e 47a6 8abd c3e7 54be
000003d0: 56a7 833e 774d d5bc e58d 943d a307 d53c
000003e0: 6d42 a4bd f16d 063e b8e6 b23e de26 12be
000003f0: 4bf4 19b8 97b9 c5bd 29d7 1cbd 9b32 22be

l2.bias f4 [256]
-0.33831644 -0.3371417 -0.22190088 -0.14588659 -0.21503589 0.30526963 0.50164634 -0.32960936
0.49467427 -0.15586837 0.3198407 -0.14683162 -0.45078006 0.2401757 0.041014906 -0.4172416
-0.30505127 -0.33348596 -0.48549247 -0.40306345 0.34682173 0.24384739 0.60700005 -0.25406885
-0.16868757 -0.49387467 0.41853318 0.6928491 -0.16840073 -0.33153805 0.6152271 -0.1449013
-0.15026619 -0.039660383 -0.1695734 -0.2565339 -0.32326895 -0.106683254 -0.053636365 0.56759495
-0.4199152 0.39812836 -0.46865082 -0.19831395 -0.23920304 0.46200788 0.50638944 -0.3507207
-0.32678148 -0.122572005 0.43305647 0.38663977 -0.07928704 0.48233056 0.47825265 0.4531585
0.52885276 0.557389 -0.26340467 0.4562323 -0.38485926 0.5851408 -0.16169572 -0.18603286
-0.300472 -0.06551256 -0.56174654 0.31999806 0.3247024 -0.032310516 -0.13389857 -0.03854448
-0.40385175 0.42535394 0.39826632 0.52216643 0.5973559 -0.036797747 -0.31720093 -0.17350237
0.57330567 -0.2547968 -0.43371373 -0.3337972 0.52093834 -0.1716165 -0.1345638 -0.1263204
-0.431056 0.4997111 0.28572667 0.33628482 -0.17353879 0.408755 0.5698572 0.2992183
0.52501583 0.5033692 0.4939797 0.42309934 0.43258587 -0.19148082 0.3538938 -0.26449987
0.5803526 -0.17637561 0.5167819 -0.179814 -0.22016014 -0.15250252 -0.33504668 -0.29423466
0.44005057 0.34543923 0.43391958 0.2557865 -0.24041653 -0.15137483 0.4767143 0.48553655
-0.49206537 -0.06943347 -0.06012311 0.34143767 -0.2666329 -0.065977134 -0.07411986 -0.45029095
0.47034496 -0.17492133 -0.5225701 -0.1238101 0.3705112 0.24892855 0.46297118 -0.25820076
0.43634948 0.47566795 0.45512855 -0.114498295 -0.17248882 0.4052327 0.5511328 -0.23890768
-0.120816275 -0.21230337 -0.2211488 -0.31564242 -0.34443325 0.4365112 -0.01981897 0.40881485
-0.1948135 -0.2568886 -0.39953846 0.44007176 0.43459737 -0.2762274 0.46767515 0.53308547
0.26105797 0.28971592 0.23933224 0.48997602 0.598052 0.3552853 -0.13506836 -0.06961268
-0.10113548 0.46091312 -0.35486576 0.5618079 -0.10132706 0.4128591 -0.16136119 -0.06403934
0.45798746 -0.37238312 -0.34723118 -0.16343166 -0.082977675 -0.3968702 -0.14803337 -0.4628556
0.46270877 0.5047122 0.34231523 -0.35816526 0.45436332 0.42259032 -0.2379202 0.39910716
-0.4018492 -0.10476196 -0.28265217 -0.26796857 0.4005881 0.529449 0.6037087 -0.3471968
0.5069448 -0.35634434 -0.10013303 0.5262405 0.4371041 0.55182403 -0.23743838 -0.22967428
0.5404188 0.40769613 -0.327607 0.47303683 0.30810076 0.6116502 -0.3283105 0.3867238
0.50018334 0.30205494 -0.3000492 -0.21782362 -0.2667524 -0.25254807 0.49822614 0.5391448
0.26811853 0.29724595 -0.0456015 -0.23419647 -0.25124684 -0.2892028 0.29337734 -0.26289925
-0.27586994 -0.3109777 -0.3369367 0.478604 0.3895825 0.26690578 -0.15768798 -0.13503543
-0.36309865 0.44978884 -0.272161 -0.16895275 0.28326726 0.5471843 0.46142495 0.51372284
0.17700909 -0.06627085 0.5782239 -0.32108033 -0.16971816 -0.4327822 0.49068758 0.2990917
00000000: d037 adbe d69d acbe fc39 63be 4b63 15be
00000010: 5e32 5cbe 4d4c 9c3e e56b 003f 8fc2 a8be
00000020: f245 fd3e f59b 1fbe 29c2 a33e 075b 16be
00000030: a5cc e6be 9ef0 753e 3fff 273d b1a0 d5be
00000040: ae2f 9cbe acbe aabe 7892 f8be 555e cebe
00000050: 9e92 b13e 21b3 793e 5b64 1b3f 5015 82be
00000060: 6fbc 2cbe 24dd fcbe fb49 d63e 8f5e 313f
00000070: 3e71 2cbe 5bbf a9be 867f 1d3f 0261 14be
00000080: 61df 19be ed72 22bd a6a4 2dbe 6958 83be
00000090: 8283 a5be c07c dabd ceb1 5bbd e74d 113f
000000a0: 20ff d6be 7bd7 cb3e 00f3 efbe d012 4bbe
000000b0: a4f1 74be 4c8c ec3e bda2 013f aa91 b3be
000000c0: e74f a7be 0807 fbbd 94b9 dd3e a6f5 c53e
000000d0: 3e61 a2bd 08f4 f63e 88dd f43e 6404 e83e
000000e0: e562 073f 0cb1 0e3f fadc 86be 4897 e93e
000000f0: 460c c5be cacb 153f 9093 25be 667f 3ebe
00000100: 77d7 99be 732b 86bd 9fce 0fbf c9d6 a33e
00000110: 653f a63e 0858 04bd b51c 09be d1e0 1dbd
00000120: a8c5 cebe fec7 d93e 90e9 cb3e b3ac 053f
00000130: 51ec 183f 3cb9 16bd 2968 a2be 9baa 31be
00000140: 29c4 123f ba74 82be ba0f debe 77e7 aabe
00000150: 375c 053f 3cbc 2fbe 18cb 09be 235a 01be
00000160: 5fb3 dcbe 22da ff3e c44a 923e 862d ac3e
00000170: 27b4 31be 5648 d13e 29e2 113f 2433 993e
00000180: 7067 063f cedc 003f e8ea fc3e 7aa0 d83e
00000190: e57b dd3e 8c13 44be 9131 b53e 876c 87be
000001a0: fd91 143f cf9b 34be d24b 043f 2921 38be
000001b0: a971 61be 9f29 1cbe 3d8b abbe eda5 96be
000001c0: 4f4e e13e 69dd b03e b52a de3e 73f6 823e
000001d0: c02f 76be 0102 1bbe e613 f43e 3f98 f83e
000001e0: feef fbbe 2333 8ebd a643 76bd ebd0 ae3e
000001f0: 1c84 88be 051f 87bd 27cc 97bd 898c e6be
00000200: 0ed1 f03e 941e 33be 27c7 05bf 2690 fdbd
00000210: a5b3 bd3e 20e7 7e3e 8f0a ed3e e432 84be
00000220: 3369 df3e c08a f33e 9c06 e93e 157e eabd
00000230: e9a0 30be a97a cf3e 0a17 0d3f 37a4 74be
00000240: 866e f7bd 0e66 59be d574 62be e29b a1be
00000250: 8e59 b0be 657e df3e 645b a2bc 2e50 d13e
00000260: 317d 47be e786 83be 4e90 ccbe 1651 e13e
00000270: 8c83 de3e ae6d 8dbe 1e73 ef3e 4a78 083f
00000280: 64a9 853e a555 943e 8313 753e 23de fa3e
00000290: f019 193f f4e7 b53e 5c4f 0abe 1891 8ebd
000002a0: 1e20 cfbd cefc eb3e f7b0 b5be a4d2 0f3f
000002b0: 9084 cfbd 4562 d33e de3b 25be 0f27 83bd
000002c0: 557d ea3e 00a9 bebe 49c8 b1be a15a 27be
000002d0: 33f0 a9bd 9232 cbbe 0f96 17be 69fb ecbe
000002e0: 2ae8 ec3e d234 013f f143 af3e 7061 b7be
000002f0: 4fa2 e83e c25d d83e 5aa1 73be c657 cc3e
00000300: 2ebf cdbe 708d d6bd c9b7 90be 2d33 89be
00000310: e219 cd3e f889 073f a78c 1a3f c7c3 b1be
00000320: 22c7 013f c472 b6be 8c12 cdbd b3b7 063f
00000330: 1ccc df3e 5744 0d3f 0c23 73be bc2f 6bbe
00000340: e358 0a3f 8cbd d03e 1bbc a7be e231 f23e
00000350: 62bf 9d3e 1c95 1c3f 5018 a8be a900 c63e
00000360: 040c 003f f2a6 9a3e 0ca0 99be 280d 5fbe
00000370: c593 88be fb4d 81be 7f17 ff3e 6505 0a3f
00000380: d546 893e 9f30 983e a3c8 3abd 33d1 6fbe
00000390: 6da3 80be 6412 94be 8e35 963e bb9a 86be
000003a0: d33e 8dbe 7838 9fbe f882 acbe 950b f53e
000003b0: 5c77 c73e e0a7 883e f578 21be ba46 0abe
000003c0: 11e8 b9be b94a e63e b058 8bbe f301 2dbe
000003d0: 6808 913e 4514 0c3f e43f ec3e 5783 033f
000003e0: df41 353e 03b9 87bd 7b06 143f a464 a4be
000003f0: 99ca 2dbe a195 ddbe 673b fb3e 8c22 993e

l3.weight f4 [1, 256]
-0.6738459 -2.093798 -0.6677775 -1.3718252 -1.1836892 0.48430705 0.5333338 -1.2068837
0.44642156 -1.4791023 0.6429966 -1.1131482 -1.1476805 0.894941 0.025131458 -1.5304188
-1.3399847 -1.3018993 -1.4212134 -1.1119174 1.2325277 0.55171955 0.45206594 -1.3419186
-0.6362139 -1.305977 0.5812406 0.3768582 -1.1103132 -1.1958477 0.59387696 -1.0224756
-0.6776457 -1.7425 -0.8144732 -0.7960014 -1.7567811 -1.1238707 -1.407751 0.5019021
-1.2384809 0.861576 -1.1362586 -0.9852123 -0.5982387 0.53880006 0.81026614 -1.5487751
-1.0082508 -1.1822355 0.81645393 0.9325035 -1.0660911 0.61968243 0.4306924 0.8254591
0.507188 0.87840724 -1.3110738 0.7566814 -1.0456944 1.059002 -1.0752529 -2.1845353
-1.2758298 0.025913684 -1.3111051 1.0157897 0.9486477 -2.0710328 -1.1683741 -1.0639293
-0.971428 0.780375 0.557213 1.0980239 0.66407 -0.7880596 -1.1112428 -1.0617762
0.68999165 -0.998724 -1.2990946 -0.9495728 0.6421837 -1.1197344 -1.2689552 -0.92668164
-0.9773109 0.50985825 0.8978044 0.8326393 -1.4092263 0.60836875 0.653537 0.7431083
0.48851243 0.67495376 0.58520883 0.89189404 0.77416 -1.1037935 1.0116541 -1.620511
0.7288843 -0.9319752 0.5103008 -1.7599362 -0.85856557 -1.2816504 -1.5491427 -1.6555632
0.49321982 0.64832383 0.84611464 0.81962776 -1.6989506 -0.8747671 1.1375586 0.6479752
-1.6319029 -1.8560942 -0.88047963 0.8402618 -1.9362793 -0.042892616 -1.2508178 -1.3481426
0.45404243 -1.7612082 -1.4332855 -1.8956478 1.1875159 0.905116 0.7759324 -1.5445229
0.5069641 0.41127345 0.7607363 -0.9135208 -1.0579264 0.8833667 0.97870845 -1.3172191
-2.478439 -0.87397254 -0.680796 -1.1578531 -0.6844085 0.90984446 -1.4118216 0.8094051
-1.2515341 -1.6548796 -1.0146646 1.1538254 0.6727021 -1.0646474 0.5810727 0.5251409
0.698157 0.5231868 0.9057261 0.770553 0.75799805 0.9107281 -1.0399287 -1.2850523
-1.5005382 0.4513769 -1.7427467 0.38862833 -2.4417818 0.9095461 -1.2231904 -1.1132337
1.0583384 -0.82964516 -1.4687421 -1.1519182 -1.0857697 -1.1777751 -0.9873788 -1.2901583
0.532879 0.80935955 1.0436534 -1.7923471 0.62150794 0.7168798 -1.8501047 0.5620691
-2.0909681 -0.98145944 -0.5093627 -1.5643173 1.1402857 0.51310706 0.37915617 -1.1682802
0.696492 -1.5698953 -1.6168742 0.41042143 0.466767 0.76929736 -1.0506996 -0.7160276
0.6550519 0.60639524 -0.92965966 0.46070197 0.8169498 0.6840277 -1.3044643 0.68641984
0.6560086 0.9040669 -1.3190536 -0.9508301 -1.4864892 -1.3466121 0.95054704 1.0022851
0.8239458 0.69569904 -1.289884 -0.7917712 -0.9543167 -1.1906246 0.72093904 -1.4021137
-1.0393835 -1.4442929 -1.0682319 0.636419 0.7740933 0.85287553 -0.7502147 -1.7333589
-0.9567343 0.48706314 -0.93278795 -0.9377618 1.058639 0.53419447 0.5524734 0.76253146
1.5103441 -0.8855897 0.965142 -1.1516328 -2.194934 -0.95792854 0.4452303 1.0146693
00000000: 2a81 2cbf c900 06c0 77f3 2abf f897 afbf
00000010: 2183 97bf 18f7 f73e 9088 083f 2a7b 9abf
00000020: 5e91 e43e 3953 bdbf 6d9b 243f a47b 8ebf
00000030: 32e7 92bf da1a 653f 7de0 cd3c c3e4 c3bf
00000040: 9e84 abbf a3a4 a6bf 52ea b5bf 4f53 8ebf
00000050: 78c3 9d3f 7e3d 0d3f 3075 e73e fdc3 abbf
00000060: eade 22bf 412a a7bf 2fcc 143f 8ff3 c03e
00000070: be1e 8ebf 8a11 99bf 5208 183f 7be0 82bf
00000080: 307a 2dbf 3d0a dfbf 5181 50bf bfc6 4bbf
00000090: 34de e0bf ffda 8fbf 2f31 b4bf a87c 003f
000000a0: 8b86 9ebf 3f90 5c3f ec70 91bf e036 7cbf
000000b0: 2c26 19bf cdee 093f 9a6d 4f3f 433e c6bf
000000c0: 5d0e 81bf 7e53 97bf 2003 513f 8db8 6e3f
000000d0: ac75 88bf 82a3 1e3f b783 dc3e 4a51 533f
000000e0: 13d7 013f 4cdf 603f 44d1 a7bf dfb5 413f
000000f0: 50d9 85bf 618d 873f e3a1 89bf 6dcf 0bc0
00000100: 644e a3bf ef48 d43c 4bd2 a7bf 6605 823f
00000110: 93da 723f cd8b 04c0 488d 95bf d62e 88bf
00000120: 81af 78bf a8c6 473f 83a5 0e3f 0c8c 8c3f
00000130: 7e00 2a3f 46be 49bf 343d 8ebf 48e8 87bf
00000140: 4ba3 303f 60ac 7fbf bb48 a6bf 3417 73bf
00000150: 2766 243f 7553 8fbf 206d a2bf 023b 6dbf
00000160: 0c31 7abf 1286 023f 82d6 653f d927 553f
00000170: 8761 b4bf 0ebe 1b3f 334e 273f 583c 3e3f
00000180: 4d1e fa3e c5c9 2c3f 3fd0 153f 2b53 643f
00000190: 5a2f 463f 1b49 8dbf e27d 813f e86c cfbf
000001a0: 2998 3a3f ed95 6ebf 13a3 023f 9745 e1bf
000001b0: f4ca 5bbf 1f0d a4bf 4f4a c6bf 7fe9 d3bf
000001c0: 4f87 fc3e 8df8 253f f89a 583f 20d3 513f
000001d0: 3777 d9bf bdf0 5fbf 859b 913f b4e1 253f
000001e0: 32e2 d0bf 7f94 edbf 1d67 61bf 661b 573f
000001f0: 00d8 f7bf 2bb0 2fbd cc1a a0bf f08f acbf
00000200: 4078 e83e 456f e1bf e675 b7bf 96a4 f2bf
00000210: 8500 983f afb5 673f 81a3 463f edb2 c5bf
00000220: 66c8 013f 6f92 d23e 9dbf 423f 80dc 69bf
00000230: 226a 87bf 5224 623f a38c 7a3f a39a a8bf
00000240: bf9e 1ec0 aabc 5fbf a648 2ebf 8834 94bf
00000250: 6535 2fbf 91eb 683f 92b6 b4bf 2c35 4f3f
00000260: 4532 a0bf 18d3 d3bf 88e0 81bf 8db0 933f
00000270: 3436 2c3f 5e46 88bf 2ec1 143f a26f 063f
00000280: 6bba 323f 92ef 053f aadd 673f f642 453f
00000290: 290c 423f 7a25 693f 621c 85bf 987c a4bf
000002a0: a311 c0bf df1a e73e 5312 dfbf 4bfa c63e
000002b0: 2746 1cc0 03d8 683f 8191 9cbf 717e 8ebf
000002c0: a277 873f a063 54bf beff bbbf 0e72 93bf
000002d0: 80fa 8abf 56c1 96bf dbc4 7cbf e823 a5bf
000002e0: c26a 083f 3032 4f3f 6f96 853f a16b e5bf
000002f0: 251b 1f3f 6f85 373f 3bd0 ecbf c3e3 0f3f
00000300: 6cd2 05c0 ed40 7bbf 9865 02bf 8d3b c8bf
00000310: e2f4 913f fc5a 033f c220 c23e 358a 95bf
00000320: 4d4d 323f 54f2 c8bf bcf5 cebf c222 d23e
00000330: 16fc ee3e acf0 443f 537d 86bf 964d 37bf
00000340: 7bb1 273f b83c 1b3f 2dfe 6dbf 21e1 eb3e
00000350: 9f23 513f 701c 2f3f b0f8 a6bf 36b9 2f3f
00000360: 2ef0 273f ee70 673f c0d6 a8bf 9a69 73bf
00000370: 4745 bebf c95d acbf 0d57 733f e14a 803f
00000380: 1dee 523f 5519 323f eb1a a5bf 84b1 4abf
00000390: 194e 74bf 6366 98bf 768f 383f 7678 b3bf
000003a0: 850a 85bf 97de b8bf d3bb 88bf 5bec 223f
000003b0: fa2a 463f 0d56 5a3f 120e 40bf b4de ddbf
000003c0: 8aec 74bf 5760 f93e 31cb 6ebf 2811 70bf
000003d0: 7c81 873f f8c0 083f e66e 0d3f 4335 433f
000003e0: f552 c13f 02b6 62bf 8c13 773f b468 93bf
000003f0: cc79 0cc0 ce3a 75bf 3af5 e33e afe0 813f

l4.weight f4 [256, 32]
-0.21046501 -0.13007656 0.16019157 -0.35060486 0.15029484 -0.20383066 -0.14026722 -0.28648227
0.34089008 -0.24646816 0.17289078 -0.32188898 0.21330985 -0.058162987 -0.36698174 -0.13031456
-0.21556357 -0.23076752 0.12626164 -0.18038699 0.103987604 0.09687401 -0.21756025 -0.011196985
0.0053686956 -0.005001553 -0.033922765 0.14490135 0.12799397 -0.30074918 -0.12493148 -0.537297
-0.48190725 -0.1612663 -0.10929645 -0.3689555 0.008148208 -0.10288687 0.15130469 -0.6935109
0.30928385 0.2724504 0.63899785 -0.17798507 -0.0047872346 -0.18050791 -0.2163327 -0.13251688
-0.2480815 -0.21790954 0.0900214 0.16869833 -0.242261 0.018423883 -0.1817871 0.12030823
-0.39168537 0.008723467 0.24998708 -0.14406906 -0.48952916 -0.19338362 0.41394436 -0.1496775
0.1615879 0.08059672 -0.059497356 -0.07801823 0.12159909 -0.3851565 -0.13011502 -0.3100393
-0.495496 -0.15995874 -0.7050122 -0.15781212 -0.63296694 0.06567563 0.30057657 -0.2225118
-0.4049294 -0.08384032 -0.048778825 0.2756668 -0.06221577 0.0256245 0.33499432 -0.22673813
-0.3032218 -0.1441428 0.17730546 -0.14519392 -0.15409264 -0.51175034 0.29542992 -0.04109247
-0.7068171 0.11606049 0.047375184 0.52719074 0.11345942 0.34323806 0.0111356815 -0.26019713
0.035006948 -0.07267976 -0.20245424 0.21092553 0.93154263 0.040889114 0.8139117 0.20692064
-0.032716643 0.256908 -0.061275955 0.43683916 0.29642388 0.044917297 -0.014449781 0.14571384
0.12629697 -0.16421174 -0.26327753 -0.10911046 0.07458413 0.22470929 -0.4418021 -0.3280038
-0.096946314 -0.002588217 -0.012934931 -0.50265056 0.00058761134 -0.0841906 -0.15113883 0.35305873
0.19755916 0.11807494 0.2187537 -0.4434597 0.092466034 -0.06650879 -0.07323684 0.02383629
-0.7781358 -0.11777922 -0.946774 -0.63727254 0.41773805 -0.24043936 -0.36938986 -0.1462894
-0.18148421 0.048615426 -0.45809487 -0.06494868 0.26181337 -0.23685773 0.10445025 -0.05376986
0.15012299 0.14882155 -0.08793394 0.18076293 -0.07748761 0.25048503 -0.13417824 0.1407927
0.5206588 0.27200487 -0.0863221 0.5026784 -0.30719733 -0.8071578 -0.24779777 -0.054203156
-0.0628104 -0.20335522 0.27386028 -0.3913589 0.052800123 0.3668126 0.10383542 0.082410045
-0.17196967 0.08275349 -0.050367165 0.4421746 -0.36627045 -0.074539766 -0.058536395 -0.36628562
0.5724175 -0.13065499 -0.040515237 -0.41167587 -0.123710506 -0.11658338 0.12253262 0.08775798
0.024854569 -0.07947882 -0.25943226 0.058295865 0.13310847 -0.16941899 -0.31557474 -0.39649662
-0.28824466 0.22379814 0.18320742 -0.04890097 -0.030330466 0.34325975 0.23110601 -0.053938866
0.02812517 0.23257262 0.8211279 0.32399112 0.15540631 -0.09315362 -0.27575868 -0.34415805
0.5008836 -0.046044104 0.01805632 0.11806082 0.14722931 -0.16683112 0.15631497 0.00081826246
-0.13137801 -0.3467016 0.6516611 0.026295036 -0.011975146 -0.20395897 0.3651925 -0.081686504
0.1511261 0.060177278 0.4562524 -0.15249297 -0.38445583 -0.06749526 -0.08208479 0.25635347
-0.6082017 0.30311164 -0.5810711 0.18746546 -0.17930785 0.21332082 0.16131762 0.038228445
00000000: 2484 57be ca32 05be 4209 243e 7b82 b3be
00000010: e4e6 193e fcb8 50be 36a2 0fbe cead 92be
00000020: 2589 ae3e 2662 7cbe 480a 313e a2ce a4be
00000030: e66d 5a3e 503c 6ebd 08e5 bbbe 2e71 05be
00000040: b2bc 5cbe 524e 6cbe bb4a 013e 5eb7 38be
00000050: 74f7 d43d e265 c63d 1dc8 5ebe 8f73 37bc
00000060: e2eb af3b 11e4 a3bb 99f2 0abd 0561 143e
00000070: da10 033e ccfb 99be 13dc ffbd 4c8c 09bf
00000080: 8cbc f6be fe22 25be d1d6 dfbd bce7 bcbe
00000090: 1080 053c 5ab6 d2bd 9eef 1a3e ee89 31bf
000000a0: 745a 9e3e 9e7e 8b3e 5d95 233f b841 36be
000000b0: 3cde 9cbb 11d7 38be 5286 5dbe 81b2 07be
000000c0: 1409 7ebe ae23 5fbe 245d b83d 41bf 2c3e
000000d0: 4513 78be afed 963c 6626 3abe 2964 f63d
000000e0: fc8a c8be dfec 0e3c 9dfc 7f3e d786 13be
000000f0: 91a3 fabe 5b06 46be 84f0 d33e 0f45 19be
00000100: 4c77 253e e50f a53d 80b3 73bd 06c8 9fbd
00000110: f208 f93d 3c33 c5be df3c 05be 79bd 9ebe
00000120: a7b1 fdbe 39cc 23be ae7b 34bf 8099 21be
00000130: 1f0a 22bf f280 863d 2ce5 993e 22da 63be
00000140: e852 cfbe 79b4 abbd 4ecc 47bd 3324 8d3e
00000150: f7d5 7ebd 79ea d13c 6084 ab3e 0a2e 68be
00000160: e33f 9bbe 2c9a 13be 908f 353e b7ad 14be
00000170: 76ca 1dbe 1202 03bf 9742 973e 9450 28bd
00000180: f7f1 34bf 1fb1 ed3d 7b0c 423d f9f5 063f
00000190: 6a5d e83d e6bc af3e 6f72 363c 8f38 85be
000001a0: 7263 0f3d 20d9 94bd 2a50 4fbe ddfc 573e
000001b0: 9479 6e3f 587b 273d 845c 503f 01e3 533e
000001c0: e301 06bd 7289 833e 7ffc 7abd 62a9 df3e
000001d0: dfc4 973e 33fb 373d c6be 6cbc 0236 153e
000001e0: fe53 013e 1f27 28be 50cc 86be 4e75 dfbd
000001f0: 90bf 983d 311a 663e e333 e2be 1df0 a7be
00000200: ca8b c6bd 139f 29bb 08ed 53bc b5ad 00bf
00000210: ee09 1a3a 1f6c acbd 23c4 1abe 1dc4 b43e
00000220: f34c 4a3e 46d1 f13d f800 603e 260d e3be
00000230: d55e bd3d c335 88bd 32fd 95bd 5344 c33c
00000240: e833 47bf 3b36 f1bd c85f 72bf 4b24 23bf
00000250: c3e1 d53e bc35 76be ab20 bdbe e3cc 15be
00000260: ffd6 39be f820 473d 698b eabe d003 85bd
00000270: 670c 863e d58a 72be 03ea d53d c93d 5cbd
00000280: d7b9 193e ad64 183e b616 b4bd eb19 393e
00000290: d3b1 9ebd 933f 803e 0566 09be f62b 103e
000002a0: e549 053f 3944 8b3e a4c9 b0bd 88af 003f
000002b0: f848 9dbe e5a1 4ebf b3be 7dbe 2104 5ebd
000002c0: bda2 80bd 5a3c 50be 6a37 8c3e 3260 c8be
000002d0: f144 583d dcce bb3e aaa7 d43d 99c6 a83d
000002e0: d118 30be a97a a93d cd4d 4ebd b664 e23e
000002f0: cd87 bbbe 4ea8 98bd dcc3 6fbd ca89 bbbe
00000300: f489 123f 6cca 05be 4ef3 25bd 2ec7 d2be
00000310: ef5b fdbd 44c3 eebd 62f2 fa3d 75ba b33d
00000320: cf9b cb3c cbc5 a2bd 4ed4 84be a5c7 6e3d
00000330: 964d 083e 2c7c 2dbe 0393 a1be 9b01 cbbe
00000340: ce94 93be 572b 653e ba9a 3b3e 624c 48bd
00000350: 9977 f8bc bebf af3e 0ea7 6c3e 00ef 5cbd
00000360: c266 e63c 8427 6e3e 7035 523f 2ae2 a53e
00000370: d522 1f3e 53c7 bebd 3e30 8dbe 7c35 b0be
00000380: e839 003f be98 3cbd d9ea 933c dfc9 f13d
00000390: 48c3 163e c7d5 2abe 0811 203e aa80 563a
000003a0: f587 06be df82 b1be 43d3 263f b068 d73c
000003b0: 6733 44bc 9fda 50be 83fa ba3e 414b a7bd
000003c0: cdc0 1a3e 737c 763d ea99 e93e 1e27 1cbe
000003d0: 65d7 c4be f43a 8abd 121c a8bd c340 833e
000003e0: 1bb3 1bbf 7331 9b3e 13c1 14bf f2f6 3f3e
000003f0: 7a9c 37be c670 5a3e 7230 253e 6e95 1c3d

l4.bias f4 [256]
-0.7659102 -0.7246655 -0.13572168 -0.51571417 0.04527535 -0.80914474 -0.2828312 0.2848291
0.3254156 -0.27986956 0.18123864 -0.5812138 -0.49599758 -0.41381013 -0.7728839 -0.26012194
0.26684234 0.10980365 0.23324092 -0.59406775 -0.0951366 0.09527466 0.3368138 -0.042456605
0.21202387 -0.110156074 -0.39157897 -0.17877893 -0.102145545 -0.21526304 0.09741919 0.17511868
-0.6353557 -0.010923216 0.3314326 -0.63129425 -0.41402954 0.28422037 -0.1496796 -0.71494025
-0.08354996 -0.64418584 -0.28337368 -0.3947038 -0.25771177 0.42699948 0.13059181 -0.09875704
-0.50513625 -0.2069427 0.03151461 0.03441322 -0.95061696 -0.56518674 -0.052988946 -0.37097377
-0.185144 -0.23759107 -0.5556505 -0.14618264 -0.5059122 -0.41669127 -0.0167967 0.38815275
-0.4767901 -0.2982092 -0.66525 0.33577272 0.13028651 -0.7862166 -0.17880328 0.36159962
-0.21477237 -0.44885123 0.4417822 0.30153725 -0.055748567 0.03693776 0.2145901 0.20948917
-0.36812165 0.44567686 -0.15200086 -0.1985301 -0.031951897 -0.20362651 -0.2915421 -0.19174083
-0.08544812 -0.09022348 -0.49206725 -0.4462462 0.092928275 -0.22392744 -0.20419046 -0.14993264
-0.5328563 -0.25933856 -0.2635268 -0.46023047 -0.15151218 0.27177176 -0.12158277 0.2310115
-0.31014833 0.13787279 0.23101875 -0.4092607 0.26553947 -0.4124723 -0.3913743 -0.6223597
0.08452532 0.29653546 0.39217103 0.37533113 -0.42523617 -0.0065281694 -0.16448805 0.3806818
0.23042062 -0.38864413 -0.8482518 0.066603564 -0.31534234 0.32761768 -0.08258454 -0.14786978
-0.076659136 -0.37349093 -0.43964916 -0.41635525 -0.42290547 -0.3245946 -0.29716465 -0.1419354
-0.04636982 -0.6320485 0.29593483 -0.24760418 0.02953545 0.3433606 0.36773238 -0.16228096
0.2642909 0.26274735 -0.5018369 -0.14143217 -0.11678505 -0.12532085 -0.18299162 -0.26020843
-0.037534315 0.05011462 -0.32834026 -0.26683205 0.29384574 -0.34066594 0.40065253 0.26746732
0.159516 -0.70180494 -0.12727208 -0.24647307 -0.17195487 0.34698611 -0.52523726 -0.5366584
-0.027803522 -0.27362508 0.5411815 0.04110664 -0.48054978 0.18107449 -0.6172591 -0.5481245
-0.37267527 0.34207544 -0.031254303 -0.54349136 -0.17465605 -0.5695054 -0.05477492 0.12899008
-0.13866495 -0.2536688 -0.5581163 0.16582412 -0.21901488 0.026119944 -0.54944503 -0.15169977
0.58789533 -0.30084613 -0.6882772 -0.41134012 -0.867373 0.3238618 -0.8566865 -0.62195754
-0.65634143 -0.4892 0.225728 0.034757875 -0.7211529 0.19054364 -0.22378929 -0.101720765
0.34175742 -0.4681884 0.07810165 -0.44221467 -0.26930153 0.11239879 -0.0779408 -0.15013565
0.10461485 0.33573306 0.081116825 0.09796955 -0.7004335 -0.34880233 -0.72791433 0.19750723
0.2023359 -0.41543397 -0.30062848 0.14194822 -0.3496653 0.18600336 -0.50065666 -0.005095956
-0.2903537 -0.42771024 -0.2900834 -0.29583055 -0.037186153 -0.4478808 -0.19318356 -0.09127723
-0.07051813 -0.23465219 -0.032190632 -0.70751095 0.5765504 0.23606963 0.19855401 0.18602341
-0.5939062 0.26285264 -0.22748695 -0.064002946 -0.3249423 -0.28783688 -0.24021606 0.2506963
00000000: b112 44bf ae83 39bf a0fa 0abe d805 04bf
00000010: a572 393d 1c24 4fbf 40cf 90be 1fd5 913e
00000020: e09c a63e 104b 8fbe 9f96 393e 6dca 14bf
00000030: 65f3 fdbe ecde d3be b8db 45bf b42e 85be
00000040: 8f9f 883e bce0 e03d b5d6 6e3e d314 18bf
00000050: fad6 c2bd 5c1f c33d dc72 ac3e fae6 2dbd
00000060: c91c 593e 8299 e1bd 0a7d c8be d311 37be
00000070: af31 d1bd ea6d 5cbe b683 c73d 5052 333e
00000080: aca6 22bf 4af7 32bc 89b1 a93e 809c 21bf
00000090: aefb d3be 5585 913e 9c45 19be 5306 37bf
000000a0: 3e1c abbd 5de9 24bf 5b16 91be 9e16 cabe
000000b0: ccf2 83be ad9f da3e dcb9 053e 2241 cabd
000000c0: 9c50 01bf cae8 53be 7715 013d e0f4 0c3d
000000d0: a25b 73bf 14b0 10bf f00a 59bd 46f0 bdbe
000000e0: 6496 3dbe 134b 73be 1c3f 0ebf e7b0 15be
000000f0: 7683 01bf 8f58 d5be 3c99 89bc f5bb c63e
00000100: d51d f4be e0ae 98be d34d 2abf 67ea ab3e
00000110: d469 053e 7e45 49bf 3518 37be 9623 b93e
00000120: 4aed 5bbe d4cf e5be 4731 e23e 1763 9a3e
00000130: 9c58 64bd 0c4c 173d 82bd 5b3e 5484 563e
00000140: 717a bcbe c22f e43e 1da6 1bbe 794b 4bbe
00000150: fedf 02bd 7883 50be 0245 95be b557 44be
00000160: 6dff aebd 16c7 b8bd 3df0 fbbe 627a e4be
00000170: 2e51 be3d 3c4d 65be 4e17 51be f187 19be
00000180: 4569 08bf 06c8 84be fcec 86be 54a3 ebbe
00000190: 0226 1bbe ab25 8b3e 6300 f9bd 478e 6c3e
000001a0: c3cb 9ebe 862e 0d3e 2e90 6c3e 9e8a d1be
000001b0: caf4 873e 922f d3be 3662 c8be f752 1fbf
000001c0: 9c1b ad3d 7fd3 973e a4ca c83e 672b c03e
000001d0: 8eb8 d9be 41ea d5bb 8e6f 28be bae8 c23e
000001e0: 62f3 6b3e 5dfc c6be 0827 59bf 7367 883d
000001f0: 8d74 a1be 81bd a73e 1522 a9bd 2d6b 17be
00000200: 77ff 9cbd 343a bfbe b219 e1be 842c d5be
00000210: 1187 d8be 4331 a6be f725 98be 8357 11be
00000220: 48ee 3dbd eecd 21bf c584 973e f38b 7dbe
00000230: 54f4 f13c f6cc af3e 6b47 bc3e fb2c 26be
00000240: 2351 873e d286 863e 6278 00bf 98d3 10be
00000250: 002d efbd 1c54 00be 2862 3bbe 0a3a 85be
00000260: 95bd 19bd fd44 4d3d 371c a8be 369e 88be
00000270: f372 963e c46b aebe 5422 cd3e 7af1 883e
00000280: 2a58 233e 7da9 33bf 9d53 02be 7063 7cbe
00000290: f014 30be 2aa8 b13e f375 06bf 7262 09bf
000002a0: 36c4 e3bc 9618 8cbe df8a 0a3f 705f 283d
000002b0: 9f0a f6be 976b 393e b104 1ebf e351 0cbf
000002c0: 4bcf bebe 8324 af3e 8304 00bd 4022 0bbf
000002d0: 09d9 32be 1bcb 11bf ab5b 60bd fa15 043e
000002e0: 2ffe 0dbe e1e0 81be b6e0 0ebf cccd 293e
000002f0: 7045 60be 7ef9 d53c 6ea8 0cbf 2f57 1bbe
00000300: 4f80 163f 8108 9abe ef32 30bf 2c9b d2be
00000310: 280c 5ebf 37d1 a53e ce4f 5bbf 9c38 1fbf
00000320: fe05 28bf 6c78 fabe 3e25 673e 465e 0e3d
00000330: 7a9d 38bf df1d 433e 0529 65be fa52 d0bd
00000340: d4fa ae3e 64b6 efbe c2f3 9f3d f669 e2be
00000350: e4e1 89be 5631 e63d 6d9f 9fbd 29bd 19be
00000360: 4f40 d63d 34e5 ab3e 9420 a63d 42a4 c83d
00000370: 9c4f 33bf 3896 b2be 9858 3abf 563f 4a3e
00000380: 2431 4f3e c3b3 d4be faeb 99be e05a 113e
00000390: 5507 b3be aa77 3e3e 092b 00bf fafb a6bb
000003a0: 3da9 94be d6fc dabe d085 94be 1a77 97be
000003b0: 8250 18bd a250 e5be e9d1 45be 8eef babd
000003c0: cf6b 90bd aa48 70be 53da 03bd 701f 35bf
000003d0: cf98 133f 3dbc 713e be51 4b3e ec7c 3e3e
000003e0: 3d0a 18bf 9f94 863e 57f2 68be fa13 83bd
000003f0: d65e a6be 5b5f 93be 33fb 75be 445b 803e

l5.weight f4 [256, 256]
-0.10540814 0.16511716 -0.04903092 0.2339559 -0.084839955 0.36853877 0.3061777 -0.057183355
0.37322447 0.018169256 0.1575046 -0.111477725 -0.040065877 -0.26842293 0.04954593 0.008702169
-0.036806133 -0.21726498 0.01738099 0.38835514 -0.3124232 0.22471009 0.112785846 -0.072708026
-0.022044241 0.25049847 -0.06494743 -0.80429983 -0.049681716 0.0024154566 0.27559316 -0.04318119
-0.019731447 -0.16422999 0.090733424 -0.50564086 -0.04286593 0.45145807 0.024047008 0.6201203
-0.39146578 0.01997409 -0.07991295 0.03760706 0.09116422 0.15377042 0.2373536 0.11685898
-0.10742608 -0.018321713 -0.06812654 0.06937512 -1.0270977 -0.38359132 -0.35840145 0.2827906
0.04140209 0.12202816 0.35032627 -0.013184888 0.0143221365 -0.4021539 -0.12797347 0.104034655
0.11777381 -0.02714261 -0.34701842 -0.010830296 -0.11682877 -0.5159699 0.25610036 0.045651462
-0.15428375 -0.16676217 0.014547398 -0.15458344 -0.20136674 0.21508996 -0.051603124 0.13472877
-0.4311443 0.09358703 0.044621065 0.16346212 0.13911629 -0.05348662 -0.0022072447 0.10544928
-0.15916912 -0.12679894 -0.30057618 0.2936921 -0.30619076 0.13265848 0.1935361 0.033837054
-0.25883114 -0.102977075 0.27048567 0.20480357 0.21648587 -0.02682916 -0.047983162 0.23205465
-0.28638732 -0.15923777 0.18468492 -0.26478264 0.13906841 -0.0955331 0.25104287 -1.8139169
-0.27017486 -0.30102998 0.2387407 0.22308631 -0.23767062 0.05611974 -0.18675527 0.09171285
-0.3040733 0.15657665 0.5392074 0.05980774 0.05167811 0.24704067 0.12499615 0.29240993
0.14683549 -0.25610143 0.13507833 0.0033944908 0.010599293 -0.1979055 0.07576284 0.15752956
0.07303387 -0.027179249 -0.16881499 0.06588457 0.07349986 -0.018418124 0.025149345 0.22069071
0.027316254 0.120366044 -0.1361722 -0.07251228 -0.038157083 -0.054855656 0.2526773 0.1621767
-0.18180425 0.0919382 -0.07007082 0.25291118 0.20820403 -0.21396267 -0.028647747 0.34274745
-0.05842371 -0.34942043 -0.41879758 0.19292533 -0.03252822 -0.09344876 -0.15597957 0.16805384
0.16998324 0.14695188 0.103395656 0.22533496 -0.13721569 -0.11434252 0.0019612352 0.16723146
-0.065790944 0.3505174 -0.047527447 0.22698623 0.01176914 -0.1394006 0.02057516 0.08361046
-0.0055610673 -0.09452863 -0.16226125 -0.18591239 -0.18508999 0.15350252 -0.0814066 0.14945327
-0.17597854 0.09278437 0.032384615 0.068609916 0.26420346 0.15623216 -0.57781637 0.15443721
0.115539655 0.085716784 0.20637962 0.34793925 -0.47920534 0.021460539 -0.26393434 -0.23851907
-0.15902632 0.11368154 -0.11966576 -0.11992368 0.122866765 0.3762975 0.06332746 0.12608936
-0.051273827 -0.012996173 -0.034683242 0.24495208 0.32278305 -0.06633638 -0.6210722 -0.063859895
-0.13351959 -0.41740963 0.41714376 0.031746894 0.053333223 0.13853735 0.108172394 -0.080918975
0.10410464 -0.650809 0.30270877 0.116226375 0.16016239 -0.13991672 -0.07559098 0.16903663
0.14804114 -0.17138925 -0.013359382 -0.035674263 -0.065646626 -0.61939794 0.15293653 0.15278311
-0.13228257 0.16689484 -0.12887375 -0.11422002 0.0461882 0.30675873 -0.46327382 0.051766835
00000000: 39e0 d7bd 7914 293e a5d4 48bd 2392 6f3e
00000010: 92c0 adbd 1db1 bc3e 53c3 9c3e 1839 6abd
00000020: 4717 bf3e b1d7 943c e348 213e 6f4e e4bd
00000030: 1e1c 24bd bb6e 89be acf0 4a3d 8b93 0e3c
00000040: 07c2 16bd b67a 5ebe 9462 8e3c 7cd6 c63e
00000050: eff5 9fbe 671a 663e 44fc e63d f2e7 94bd
00000060: 2096 b4bc 5641 803e 2803 85bd 98e6 4dbf
00000070: 0e7f 4bbd a34c 1e3b 8c1a 8d3e c2de 30bd
00000080: d8a3 a1bc e82b 28be 72d2 b93d ae71 01bf
00000090: 2f94 2fbd 8325 e73e 3bfe c43c 34c0 1e3f
000000a0: 346e c8be b4a0 a33c 67a9 a3bd dc09 1a3d
000000b0: 4eb4 ba3d fe75 1d3e d20c 733e c353 ef3d
000000c0: 3402 dcbd 6b17 96bc ed85 8bbd 8b14 8e3d
000000d0: f077 83bf 1566 c4be 6580 b7be eec9 903e
000000e0: 3d95 293d e6e9 f93d f75d b33e 6e05 58bc
000000f0: 65a7 6a3c 1ee7 cdbe 7a0b 03be 1f10 d53d
00000100: 6533 f13d 2e5a debc 66ac b1be 8e71 31bc
00000110: ec43 efbd 9a16 04bf 961f 833e 07fd 3a3d
00000120: 8ffc 1dbe b4c3 2abe 3658 6e3c 1f4b 1ebe
00000130: 1533 4ebe 8b40 5c3e cc5d 53bd 57f6 093e
00000140: f2be dcbe 8faa bf3d 94c4 363d 9d62 273e
00000150: 8074 0e3e c914 5bbd 6ca7 10bb cbf5 d73d
00000160: 3bfd 22be 95d7 01be 1fe5 99be d05e 963e
00000170: 09c5 9cbe a0d7 073e 542e 463e b998 0a3d
00000180: 8485 84be a5e5 d2bd 197d 8a3e 07b8 513e
00000190: 79ae 5d3e d4c8 dbbc fe89 44bd bc9f 6d3e
000001a0: 5ca1 92be 3a0f 23be 0b1e 3d3e 9791 87be
000001b0: f367 0e3e dca6 c3bd b188 803e 6e2e e8bf
000001c0: 5c54 8abe 9a20 9abe 7178 743e bd70 643e
000001d0: ed5f 73be d0dd 653d c63c 3fbe f2d3 bb3d
000001e0: 7faf 9bbe a155 203e 7f09 0a3f f6f8 743d
000001f0: 6dac 533d 3bf8 7c3e fbfd ff3d c1b6 953e
00000200: 0b5c 163e ba1f 83be f951 0a3e 1b76 5e3b
00000210: a8a8 2d3c bda7 4abe 8c29 9b3d 6e4f 213e
00000220: c892 953d 04a7 debc d6dd 2cbe 7dee 863d
00000230: 1887 963d 9be1 96bc 0006 ce3c bffc 613e
00000240: 56c6 df3c 7982 f63d ba70 0bbe 5181 94bd
00000250: 9a4a 1cbd 53b0 60bd eb5e 813e a611 263e
00000260: e52a 3abe 184a bc3d 4a81 8fbd 937d 813e
00000270: 7033 553e 0819 5bbe aeae eabc 987c af3e
00000280: b34d 6fbd 3ce7 b2be a36c d6be 388e 453e
00000290: 503c 05bd 1062 bfbd 1cb9 1fbe 4e16 2c3e
000002a0: 1610 2e3e 8e7a 163e 1ac1 d33d 35be 663e
000002b0: 4582 0cbe 692c eabd 1188 003b b93e 2b3e
000002c0: 67bd 86bd 0477 b33e 24ac 42bd 146f 683e
000002d0: 5ad3 403c 08bf 0ebe 3d8d a83c f63b ab3d
000002e0: 9d39 b6bb 3a98 c1bd d027 26be d15f 3ebe
000002f0: 3b88 3dbe c42f 1d3e 81b8 a6bd 470a 193e
00000300: b833 34be bb05 be3d bba5 043d 5b83 8c3d
00000310: ad45 873e 53fb 1f3e c6eb 13bf ca24 1e3e
00000320: 0ea0 ec3d 488c af3d 2e55 533e 1825 b23e
00000330: 675a f5be 03ce af3c 6722 87be 583e 74be
00000340: ccd7 22be ded1 e83d 5213 f5bd 8c9a f5bd
00000350: 92a1 fb3d 11aa c03e d4b1 813d 921d 013e
00000360: 8104 52bd e7ed 54bc 0410 0ebd b8d4 7a3e
00000370: d243 a53e 5edb 87bd 96fe 1ebf fac8 82bd
00000380: 5cb9 08be b7b6 d5be de93 d53e 0809 023d
00000390: f073 5a3d bcdc 0d3e 7d89 dd3d d9b8 a5bd
000003a0: d034 d53d 6b9b 26bf a5fc 9a3e 1808 ee3d
000003b0: 9c01 243e 5446 0fbe 72cf 9abd f017 2d3e
000003c0: 1998 173e aa80 2fbe 4fe1 5abc 2d1f 12bd
000003d0: bd71 86bd dd90 1ebf 659b 1c3e 2d73 1c3e
000003e0: 1575 07be 7be6 2a3e 7bf7 03be 30ec e9bd
000003f0: d72f 3d3d 7b0f 9d3e 3a32 edbe 7609 543d
