Project/upload/part2_q1/HalfCheetahBulletEnv-v0_TD3_BC_11_1638392430_td3_bc.pth (torch, 898095 bytes, 16 tensors)

l1.weight f4 [256, 32]
0	0x3e5ac5ce	0.21364519
1	0x3dd6ef0d	0.10494814
2	0x3d2ede75	0.04269262
3	0xbda6ffc1	-0.0815425
4	0xbda8a0ec	-0.082338184
5	0x3e42d6b8	0.19027221
6	0xbeae0611	-0.33989003
7	0x3e66c736	0.2253693
8	0x3e18a462	0.14906457
9	0x3ea917c9	0.3302596
10	0x3e8a0e59	0.2696407
11	0x3e22fb41	0.15916158
12	0x3e4f0db5	0.20220073
13	0xbd7eadae	-0.062177353
14	0xbece4064	-0.402835
15	0xbec872c6	-0.39150065
16	0xbe3ac08a	-0.1823751
17	0xbe1d570d	-0.15365238
18	0x3ced979b	0.029002955
19	0x3ef89926	0.48554343
20	0xb97f272b	-0.00024333286
21	0xbd26befd	-0.040709484
22	0xbea5f9d8	-0.32417178
23	0xbd9982e7	-0.07495671
24	0x3d7a4217	0.061098184
25	0xbc55f3b0	-0.013058588
26	0x3eae5f10	0.34056902
27	0x3cae8e86	0.021308195
28	0x3d49f3a7	0.04930463
29	0xbd89c145	-0.06726316
30	0xbe97ac10	-0.2962346
31	0x3f06816c	0.5254123
32	0x3ebc74c3	0.36807832
33	0xbcf7a90d	-0.030231977
34	0xbdcec599	-0.100962825
35	0xbf99a97e	-1.200485
36	0xbe126b9f	-0.14298867
37	0x3ecb4b4e	0.3970589
38	0xbd710612	-0.05884368
39	0xbe318013	-0.17334013
40	0x3de3a619	0.11115665
41	0xbd93a505	-0.07209209
42	0x3e1a010d	0.15039463
43	0xbd95b5df	-0.0731008
44	0x3b05990a	0.0020385408
45	0xbc4b240b	-0.01239873
46	0xbcda7990	-0.026669294
47	0x3ef0a695	0.47002092
48	0x3e902b6d	0.2815813
49	0x3e232ba5	0.15934618
50	0xbeed236f	-0.46316096
51	0xbe7d218d	-0.2471983
52	0xbeea8d44	-0.45810902
53	0x3b256312	0.0025236052
54	0x3dfffc47	0.1249929
55	0x3d47c9dc	0.048776492
56	0xbd72d46b	-0.05928461
57	0x3cc6a0c8	0.024246588
58	0xbd12eaa6	-0.03586831
59	0xbd98a73b	-0.07453772
60	0x3b7ff9c1	0.0039058777
61	0x3c185f6c	0.009300094
62	0x3c127816	0.0089397635
63	0xbe29f50a	-0.16597381
64	0x3ebdec89	0.37094525
65	0x3dac1f5c	0.08404419
66	0x3e841d57	0.25803635
67	0x3d9d0a17	0.0766794
68	0xbddb7e5c	-0.107174605
69	0xbc5b3f51	-0.013381795
70	0xbec3aee3	-0.38219365
71	0x3dced9c4	0.10100129
72	0x3dbc3089	0.09188945
73	0xbd2bd45b	-0.041950565
74	0x3db848ed	0.089982845
75	0xbcbe9693	-0.023265159
76	0xbd3747c2	-0.044746168
77	0xbdb84f3f	-0.0899949
78	0xbe2d54cf	-0.16926883
79	0xbdd89859	-0.10575933
80	0xbe6f1571	-0.23348023
81	0xbe0431ca	-0.12909618
82	0xbebfa2f3	-0.37429008
83	0xbd3d06ac	-0.04614894
84	0xbebf45de	-0.37357992
85	0x3ddc8c6f	0.10768973
86	0x3c92041f	0.01782423
87	0xbd75f241	-0.060045484
88	0x3d8eb309	0.06967742
89	0x3de995d1	0.11405528
90	0x3cae4bd9	0.021276401
91	0xbd105f15	-0.035246927
92	0xbe253bac	-0.16136044
93	0xbd10fec7	-0.035399225
94	0x3d8f3a7d	0.06993578
95	0x3cdd3c3b	0.02700626
96	0xbe431cec	-0.19054002
97	0x3de04a4f	0.10951673
98	0x3d69255a	0.056920387
99	0x3eb6af81	0.35680774
100	0x3e186f06	0.14886102
101	0xbcf6d327	-0.030129982
102	0xbe81d048	-0.25354218
103	0x3df92315	0.121648945
104	0xbdcf65b5	-0.10126821
105	0x3d75c338	0.06000063
106	0xbee1d5f3	-0.44108543
107	0x3e18e9a7	0.14932881
108	0x3d6acf42	0.057326563
109	0x3d2a2235	0.04153653
110	0xbebcbc85	-0.3686258
111	0x3d9c8762	0.0764301
112	0x3d3facdf	0.046795722
113	0xbe15547b	-0.14583008
114	0x3dff5580	0.1246748
115	0xbe22aba8	-0.15885794
116	0xbf101a67	-0.56290287
117	0x3e39126c	0.18073434
118	0x3e12f00c	0.14349383
119	0xbe43e9b9	-0.19132127
120	0xbe946833	-0.28985748
121	0xbe90587d	-0.2819251
122	0x3c37fc6a	0.011229614
123	0x3e6f1d14	0.23350936
124	0xbde85090	-0.11343491
125	0xbe1ae8b0	-0.15127826
126	0x3e26e83b	0.16299526
127	0xbda7c03e	-0.08190964
128	0x3c723bdd	0.01478478
129	0x3d3d421e	0.046205632
130	0x3ee2cc97	0.44296715
131	0x3d8fb6e8	0.070173085
132	0xbe258315	-0.16163285
133	0x3d8c291d	0.06843779
134	0xbeb42af5	-0.35189024
135	0xbe7781ae	-0.24170563
136	0xbd385ba8	-0.045009285
137	0xbe4e6a35	-0.20157702
138	0x3dd4acd1	0.103845246
139	0xbd81dbc1	-0.06340743
140	0xbe3f01e1	-0.1865306
141	0x3cbc0f07	0.022956384
142	0x3df4a41c	0.11945364
143	0x3e5cce93	0.21563177
144	0x3d256eca	0.04038886
145	0x3e79241a	0.24330178
146	0x3e4b5ee4	0.19860417
147	0x3db797b4	0.08964482
148	0xbe8a5a06	-0.27021807
149	0x3de4c342	0.11170055
150	0xbe726a16	-0.23673281
151	0xbe018042	-0.12646583
152	0xbddaf20a	-0.106906965
153	0x3e0623d2	0.13099602
154	0x3dcbea72	0.09956826
155	0x3d9328de	0.07185529
156	0x3d6841d5	0.056703407
157	0xbc92cff9	-0.017921435
158	0xbdb95c51	-0.09050811
159	0x3d4a7bd1	0.049434487
160	0xbf60ac80	-0.87763214
161	0xbd15a163	-0.036530863
162	0xbdd6739a	-0.10471268
163	0x3edfa84d	0.4368309
164	0x3d3500c0	0.04419017
165	0xbe9e4924	-0.30915177
166	0x3dd23e20	0.10265756
167	0x3cef1f7d	0.02918982
168	0x3cb2af60	0.021812141
169	0xbe21c2ab	-0.15796916
170	0x3e3fa73c	0.18716139
171	0x3d86505e	0.065582976
172	0xbe9a877b	-0.30181488
173	0x3e58b87c	0.21164125
174	0xbdafebd2	-0.08589901
175	0xbd9c4f0e	-0.07632266
176	0x3dc0a6cf	0.09406816
177	0x3dd6232a	0.10455926
178	0xbe14fe31	-0.14550091
179	0x3ec1bf71	0.3784137
180	0xbce641cc	-0.028107546
181	0xbc3a7eb1	-0.011382745
182	0xbdd63ff7	-0.10461419
183	0xbdc9fa83	-0.098622344
184	0xbb3e6920	-0.0029054359
185	0x3bf60450	0.0075078383
186	0xbc8dcd85	-0.017309913
187	0x3ee59c85	0.44845977
188	0xbda24ea8	-0.07925159
189	0x3ed99f8b	0.42504534
190	0xbcfc0ae8	-0.03076692
191	0xbe113b04	-0.14182669
192	0xbe4ee445	-0.20204265
193	0x3cc06b50	0.02348867
194	0x3de8ee47	0.11373573
195	0xbeaf09c1	-0.3418713
196	0xbd665b1d	-0.056239236
197	0xbe861948	-0.26191163
198	0xbe6e155a	-0.23250332
199	0x3e12c6c2	0.14333633
200	0xbe26e9e4	-0.1630016
201	0xbdc6d56d	-0.097086765
202	0xbf026eb6	-0.5095018
203	0xbda23098	-0.07919425
204	0xbd0c02b9	-0.034182284
205	0x3c51464a	0.012773106
206	0xbeb160c7	-0.34644148
207	0xbec38e77	-0.3819463
208	0xbf300ed0	-0.687726
209	0xbb48a407	-0.0030615346
210	0x3ebd459c	0.3696717
211	0x3ebeb756	0.3724925
212	0x3d894630	0.0670284
213	0xbce2f405	-0.027704248
214	0x3e41e0e5	0.18933447
215	0xbdbd5654	-0.092449814
216	0x3df64b04	0.12026027
217	0xbd5f5cd5	-0.05453189
218	0xbe7f4bc3	-0.24931245
219	0x3e7fc563	0.24977641
220	0xbdfc3768	-0.123152554
221	0x3bb59182	0.0055410275
222	0x3cac6056	0.02104203
223	0x3ece772a	0.4032529
224	0x3e80e245	0.2517263
225	0xbd32fd89	-0.04369882
226	0xbe0483bd	-0.12940879
227	0xbee3b774	-0.444759
228	0x3da52bef	0.0806502
229	0x3e207fc6	0.15673742
230	0x3dc92f51	0.09823478
231	0xbde23c88	-0.11046702
232	0x3ed0a94a	0.40754157
233	0x3e80c63c	0.2515124
234	0xbe309549	-0.17244448
235	0x3ec6f5d1	0.38859418
236	0x3ea8e5cd	0.32987824
237	0x3eaa0cd3	0.3321291
238	0xbe4c50f8	-0.19952762
239	0x3e828d4a	0.2549842
240	0xbd88fa9c	-0.06688425
241	0x3da0aaba	0.078450635
242	0xbf107810	-0.564332
243	0xbf6009fe	-0.87515247
244	0x3dbba2ef	0.091619365
245	0xbd9036e1	-0.07041717
246	0xbdc6c41e	-0.09705375
247	0xbe102f58	-0.1408056
248	0x3b8c8a1a	0.004288924
249	0x3bcd89b0	0.006272517
250	0xbe94df25	-0.29076496
251	0x3f316c9d	0.69306356
252	0x3d9665cd	0.07343636
253	0xbe2a2b7d	-0.16618152
254	0x3eed954e	0.46402973
255	0xbf1d8f0e	-0.6154641

l1.bias f4 [256]
0	0xbed75db5	-0.4206368
1	0xbf2fad3a	-0.686237
2	0x3ef59fac	0.47973382
3	0x3e6b1caf	0.2296016
4	0x3f205441	0.6262856
5	0xbf5f6f92	-0.8727962
6	0xbf5daf88	-0.86595964
7	0xbfa098d2	-1.2546637
8	0x3ebaeea8	0.36510205
9	0x3eaa276e	0.33233207
10	0xbdefc11d	-0.11706755
11	0x3f091516	0.535478
12	0x3f035a9c	0.51310134
13	0xbf582ccf	-0.8444337
14	0x3df914c4	0.12162164
15	0x3eaa44a0	0.33255482
16	0xbf1c4d07	-0.61055034
17	0xbf15c275	-0.5849984
18	0x3d9a9389	0.07547671
19	0xbb997bd9	-0.0046839532
20	0xbe0a8bed	-0.1352994
21	0x3e9088c8	0.28229356
22	0x3f078261	0.5293332
23	0xbf6ff87e	-0.93738544
24	0x3f19c05a	0.6005913
25	0x3c1ce14e	0.009575201
26	0x3f052cea	0.5202166
27	0x3b9ae589	0.0047270698
28	0x3eb813b3	0.3595253
29	0xbf261a0e	-0.64883506
30	0xbe574cb9	-0.21025361
31	0xbeb62c94	-0.35580885
32	0x3eba2f6d	0.36364308
33	0x3ee46baf	0.44613406
34	0xbc59a9fa	-0.0132851545
35	0x3daa9821	0.083297975
36	0x3ede7dd0	0.43455362
37	0xbee22afa	-0.44173414
38	0x3da7aec8	0.08187634
39	0xbf42378c	-0.7586601
40	0x3dbd1b73	0.09233751
41	0xbf0b173b	-0.5433232
42	0x3e1c3fea	0.15258756
43	0xbeedba45	-0.46431175
44	0xbf1f6215	-0.62259036
45	0xbec24ba6	-0.3794834
46	0xbf051cfd	-0.5199736
47	0xbd3d47b4	-0.04621096
48	0xbf0b84ca	-0.54499495
49	0xbeae5302	-0.34047705
50	0xbdb70e48	-0.08938271
51	0xbf02da81	-0.5111466
52	0xbe9eb7bb	-0.3099955
53	0x3f2146ab	0.62998456
54	0x3ef2298e	0.4729733
55	0xbef558b9	-0.47919253
56	0xbf109ada	-0.56486285
57	0x3ee08c4f	0.43857047
58	0xbf737666	-0.95102537
59	0x3edcb117	0.4310386
60	0x3eaca1ff	0.33717343
61	0x3e1e0919	0.15433158
62	0x3eb109f9	0.3457792
63	0x3e15cdad	0.1462924
64	0xbf0f45a5	-0.55965644
65	0xbeeac0c2	-0.45850188
66	0xbe9ff1fb	-0.31239304
67	0xbd2800d9	-0.041016433
68	0xbe1370ee	-0.14398548
69	0xbee2c6eb	-0.44292387
70	0x3f1ea400	0.61968994
71	0x3dad5805	0.08464054
72	0x3f188994	0.5958493
73	0x3d77eab6	0.060526572
74	0x3eed5b00	0.4635849
75	0x3ec8ce48	0.3921988
76	0x3ed767f1	0.42071488
77	0xbf2641f2	-0.64944375
78	0x3f19d17b	0.60085267
79	0xbf129be9	-0.5726915
80	0x3e8da13f	0.27662084
81	0x3e829d86	0.25510806
82	0xbe06b19f	-0.13153695
83	0x3dda934f	0.10672628
84	0x3f032bd9	0.5123878
85	0x3ea66494	0.3249861
86	0x3f0a189d	0.53943807
87	0xbf01c2ef	-0.5068807
88	0x3ea0612a	0.3132413
89	0x3ddcaf12	0.107755795
90	0x3f0338d3	0.5125858
91	0xbeb10515	-0.3457419
92	0x3f1f9f36	0.6235231
93	0xbf5c2b7b	-0.86003846
94	0x3ba2bb4c	0.004966175
95	0x3efd232c	0.49440897
96	0xbed2f024	-0.41198838
97	0xbd818228	-0.063236535
98	0xbefc3802	-0.4926148
99	0xbeea9d08	-0.4582293
100	0x3eea391b	0.45746693
101	0xbe3d0d5e	-0.1846213
102	0xbf667213	-0.90017813
103	0x3e8175a3	0.25285062
104	0x3e045215	0.12921937
105	0xbf2c575a	-0.6732079
106	0x3e8dff1b	0.27733693
107	0xbede2469	-0.43387154
108	0xbec136d0	-0.3773713
109	0x3f14d3b5	0.5813554
110	0xbf2fa19b	-0.68605965
111	0xbf5d0a39	-0.86343724
112	0xbc93abbc	-0.018026225
113	0x3f1c6367	0.61089176
114	0x3f1774d7	0.5916266
115	0x3eefb702	0.4681931
116	0x3df81d1d	0.12114928
117	0x3c3336b9	0.01093834
118	0x3f192782	0.5982591
119	0xbe8ebb6a	-0.2787736
120	0xbd92be29	-0.071651764
121	0xbe0d96ff	-0.13827132
122	0x3ec7b5fb	0.39006028
123	0xbf716240	-0.9429054
124	0xbf0a5b8f	-0.5404596
125	0x3f06900e	0.5256356
126	0x3ee39561	0.44449905
127	0x3db4fddd	0.08837483
128	0xbe3401f1	-0.17578866
129	0xbf76d9c1	-0.96426016
130	0xbeddd991	-0.43330052
131	0x3e3dde07	0.18541728
132	0xbe828613	-0.25492916
133	0xbf05ffae	-0.5234326
134	0xbf902742	-1.126198
135	0x3e7e8e1a	0.24858895
136	0x3d0e3589	0.034719024
137	0xbe7164cc	-0.23573607
138	0xbf06ee2d	-0.5270718
139	0x3e110791	0.14163043
140	0xbf5c1fd2	-0.85986054
141	0xbd3f7a70	-0.046747625
142	0xbed3153e	-0.41227144
143	0x3ef2407b	0.4731482
144	0xbf3588a0	-0.709116
145	0xbf70fd31	-0.9413634
146	0x3e91479f	0.28374955
147	0xbdbd0d7e	-0.09231089
148	0x3efe4a02	0.49665838
149	0x3ed5ca10	0.41755724
150	0x3f044023	0.51660365
151	0xbecb3895	-0.39691606
152	0xbe99499d	-0.29938975
153	0xbf1a18c7	-0.6019406
154	0x3e8bc1fe	0.27296442
155	0xbef183e7	-0.47170946
156	0xbf437291	-0.7634669
157	0xbf183c29	-0.594668
158	0xbe41f2e6	-0.18940315
159	0x3f2b080e	0.66809165
160	0xbcc57ed7	-0.024108334
161	0x3e0d015d	0.13770051
162	0xbd5aacb2	-0.05338735
163	0x3f0b0685	0.54306823
164	0xbdba633b	-0.09100958
165	0xbe0e2357	-0.13880669
166	0x3f009282	0.50223553
167	0x3d199a7b	0.03750084
168	0x3e3548d7	0.17703567
169	0x3e48ebbe	0.19621179
170	0xbf0ab3a0	-0.54180336
171	0xbe94b50e	-0.29044384
172	0x3ef2264c	0.47294843
173	0xbee8a191	-0.45435765
174	0xbec64e61	-0.38731673
175	0xbf228064	-0.6347716
176	0xbf31c7f5	-0.69445735
177	0xbead061a	-0.33793718
178	0xbf039fff	-0.5141601
179	0xbe0c9ce2	-0.13731721
180	0xbe861ecc	-0.2619537
181	0xbe98f3cf	-0.2987351
182	0x3f085b2e	0.5326413
183	0xbe0bb893	-0.13644628
184	0xbead1d92	-0.33811623
185	0x3ef01e59	0.46898153
186	0xbe06334d	-0.13105507
187	0xbf0ed4e1	-0.5579358
188	0xbf37d6fd	-0.7181242
189	0xbf30dee7	-0.6909012
190	0xbe8a4a99	-0.27010038
191	0xbf4e5093	-0.80591697
192	0xbf101dbc	-0.5629537
193	0x3f0b5832	0.5443145
194	0x3e9f89d5	0.31159845
195	0xbf2bd78f	-0.6712579
196	0xbf23c050	-0.6396532
197	0x3eacc1a3	0.33741483
198	0xbd9ee1eb	-0.07757934
199	0x3f227f58	0.6347556
200	0xbe446e0e	-0.19182608
201	0xbf088f5c	-0.5334375
202	0x3e9916c8	0.29900193
203	0x3e0ddc0c	0.13853472
204	0x3f2fb181	0.68630224
205	0x3f2c0222	0.67190754
206	0xbf55d64e	-0.8353013
207	0x3ed6f53d	0.41983977
208	0xbdadb8e4	-0.08482531
209	0x3f25b02f	0.6472196
210	0x3ee18a76	0.4405095
211	0xbeb3501c	-0.35022056
212	0xbed6ccf4	-0.41953242
213	0x3f1eec4a	0.620793
214	0x3e6246b5	0.22097285
215	0x3f05b6d3	0.5223209
216	0x3e46e41d	0.19422956
217	0x3eaa1ae7	0.3322365
218	0x3e9d9cd7	0.30783722
219	0xbf3a87b9	-0.72863346
220	0xbe53fa7c	-0.20701021
221	0x3e9395b0	0.2882514
222	0x3e50453a	0.20338908
223	0x3f163f84	0.5869067
224	0xbec01d39	-0.37522295
225	0xbe86137d	-0.26186743
226	0x3ed73b77	0.42037556
227	0x3e9ac5c7	0.30229017
228	0xbb142bdf	-0.0022609157
229	0xbd65dfb6	-0.05612155
230	0x3e112967	0.1417595
231	0xbe5ec21a	-0.21753731
232	0x3d748e2b	0.059705894
233	0xbf05cfc6	-0.5227016
234	0x3efa0097	0.48828575
235	0x3f22c216	0.635774
236	0x3ecc3e45	0.39891258
237	0xbe9def55	-0.30846658
238	0xbde21e65	-0.110409535
239	0x3ed7377d	0.42034522
240	0x3ed2892e	0.41120285
241	0xbee96dd2	-0.455916
242	0xbf12fdbf	-0.57418436
243	0xbce39174	-0.027779318
244	0x3f3969d7	0.72427124
245	0xbf18be43	-0.59665316
246	0x3e8b9c08	0.2726748
247	0xbc741b5b	-0.0148991
248	0x3f17f304	0.5935519
249	0xbeb8f4ff	-0.36124417
250	0xbec8850f	-0.39164016
251	0xbea4f522	-0.32218271
252	0x3e00ac57	0.12565742
253	0xbf29c2ff	-0.66313165
254	0x3ebaf2b3	0.3651329
255	0x3ea5ddd1	0.32395795

l2.weight f4 [256, 256]
0	0x3e615c05	0.22007759
1	0xbecb06c8	-0.3965361
2	0x3db137f3	0.086532496
3	0x3d2746e6	0.0408391
4	0xbd7e4bd6	-0.06208404
5	0x3d52b8b3	0.051445674
6	0x3d420bec	0.04737465
7	0xbe07717e	-0.13226888
8	0x3e30d3cb	0.17268293
9	0xbe941755	-0.2892405
10	0x3d922351	0.07135642
11	0x3e2ecdd4	0.17070705
12	0x3e8f4896	0.27985066
13	0x3c7a103c	0.01526266
14	0x3d470cbc	0.04859613
15	0xbdfd0914	-0.12355247
16	0xbe81e91f	-0.2537317
17	0xbe71ed2d	-0.23625632
18	0x3e5a5b82	0.2132397
19	0xbdefb864	-0.117050916
20	0x3f0ef358	0.55840063
21	0x3d5a54cf	0.053303536
22	0xbeac0a2b	-0.33601508
23	0xbf0378ce	-0.5135621
24	0x3e5a5be6	0.21324119
25	0x3e8d57ee	0.27606148
26	0xbd900daa	-0.07033856
27	0x3d9148c2	0.070939556
28	0xbf5ab719	-0.85435635
29	0x3e649147	0.22321044
30	0x3c4ef549	0.012631723
31	0xbde167bb	-0.11006113
32	0x3e3e22ad	0.18567915
33	0xbdf4d830	-0.11955297
34	0xbeeba261	-0.46022323
35	0xbebd9199	-0.37025145
36	0x3d20ed21	0.039288644
37	0xbec35aea	-0.381553
38	0xbe4a36a9	-0.19747414
39	0x3e827ba4	0.25484955
40	0xbe8cc87b	-0.27496704
41	0xbe028350	-0.12745404
42	0xbe53fcf9	-0.2070197
43	0xbc8617c3	-0.016368752
44	0x3e1107ae	0.14163086
45	0xbde0c85b	-0.10975715
46	0xbb7740b4	-0.0037727775
47	0x3f1ad67b	0.6048352
48	0x3ec535df	0.38517663
49	0x3d9f8ad2	0.0779015
50	0x3e4fbab0	0.2028606
51	0x3e28f946	0.1650134
52	0xbe0064dc	-0.12538475
53	0x3e573e11	0.2101977
54	0x3e281ccf	0.1641724
55	0x3dcf99c8	0.10136753
56	0xbd640e46	-0.055677675
57	0x3d787e82	0.060667522
58	0xbec56127	-0.38550684
59	0x3e2583b1	0.16163518
60	0xbda86590	-0.082224965
61	0xbfe2e92e	-1.7727411
62	0xbc50626f	-0.012718781
63	0xbe3862f9	-0.18006505
64	0xbe3fe1ec	-0.18738526
65	0x3e88c36d	0.26711598
66	0xbf352e15	-0.7077344
67	0x3e3f15d6	0.18660673
68	0xbecfe0f6	-0.4060132
69	0x3f1347e1	0.57531554
70	0x3dfbe1d6	0.12298934
71	0xbd062d08	-0.03275779
72	0x3db6fd67	0.089350514
73	0x3ec3c8b8	0.38239074
74	0xbe9d1c17	-0.30685493
75	0x3e0b6045	0.13610943
76	0x3e3af16c	0.18256158
77	0x3d3fb672	0.046804853
78	0xbca2bbbe	-0.019864913
79	0x3ecaaa99	0.3958328
80	0x3e7d91d3	0.24762659
81	0xbca5c0b1	-0.020233484
82	0xbe7b3af9	-0.24534215
83	0x3e484313	0.19556837
84	0xbf560142	-0.8359567
85	0xbd221b88	-0.039577037
86	0xbdbd13f1	-0.09232319
87	0xbd13d93f	-0.036095854
88	0x3d952f63	0.07284429
89	0xbe0b4b92	-0.13603047
90	0x3e0eb450	0.13935971
91	0xbda4246e	-0.08014761
92	0x3c7ebfc2	0.015548648
93	0xbdf133cd	-0.11777458
94	0xbd62652e	-0.055272274
95	0x3d761aa0	0.060083985
96	0xbf5f2f9a	-0.8718201
97	0xbed7b496	-0.42129964
98	0x3ea6d669	0.32585457
99	0xbe952572	-0.2913013
100	0xbd88d7dd	-0.06681798
101	0x3e3d8ae5	0.18510015
102	0xbd581f7e	-0.05276441
103	0xbf91eada	-1.1399796
104	0x3db36969	0.0876034
105	0xbe90be7d	-0.2827033
106	0x3dc4cd35	0.09609453
107	0x3e9b8041	0.30371287
108	0xbf1f69e7	-0.6227097
109	0xbd9e7708	-0.07737547
110	0x3e4e5fb0	0.2015369
111	0x3ebc1a3e	0.3673877
112	0xbf123140	-0.571064
113	0xbeb5fca3	-0.3554431
114	0x3c532aa3	0.012888583
115	0x3e34ff05	0.17675407
116	0xbeaec776	-0.34136552
117	0x3d8841af	0.06653153
118	0x3e4a2187	0.19739352
119	0x3e06b8ca	0.13156429
120	0x3cd6d550	0.026224762
121	0x3d70c6c9	0.058783326
122	0xbe32ebe4	-0.17472798
123	0xbe90e679	-0.28300837
124	0xbf45512f	-0.77077
125	0x3e987618	0.29777598
126	0x3d5bfc55	0.05370744
127	0x3e6e6d63	0.23283915
128	0xbed0e189	-0.4079707
129	0xbd89f06c	-0.0673531
130	0x3ed68a6d	0.41902485
131	0x3e82aaca	0.25520927
132	0x3df7ffb6	0.1210932
133	0x3e2ac121	0.16675235
134	0xbd513480	-0.05107546
135	0x3d80e903	0.062944435
136	0x3eef2a05	0.46711746
137	0xbdabde5a	-0.083920196
138	0xbdb51dd5	-0.08843581
139	0x3dccea82	0.10005666
140	0x38605e11	5.3493368e-05
141	0xbcece28b	-0.028916618
142	0xbd48b699	-0.049002264
143	0x3e0f2590	0.13979173
144	0xbd4c5121	-0.049882058
145	0xbdef68d9	-0.1168992
146	0x3e5df712	0.21676281
147	0xbd56100d	-0.0522614
148	0x3eabb444	0.3353597
149	0xbd1641ba	-0.036683775
150	0xbd95f16a	-0.07321437
151	0xbde6c787	-0.112685256
152	0xbcfa9d46	-0.030592572
153	0xbe09af3a	-0.1344575
154	0xbd649dcc	-0.05581455
155	0x3d13b096	0.036057077
156	0xbf5cfacd	-0.8632019
157	0xbd7459b5	-0.059655864
158	0xbe109acc	-0.1412155
159	0xbd4392f5	-0.04774757
160	0xbe06c933	-0.13162689
161	0xbeaadd20	-0.3337183
162	0xbdc4820e	-0.095951185
163	0xbd8e6290	-0.06952393
164	0x3e973206	0.29530352
165	0x3e1305ce	0.14357683
166	0x3c8b0570	0.016970366
167	0x3d38e92d	0.04514425
168	0x3e80a6d3	0.25127277
169	0xbdf38d93	-0.118922375
170	0xbd366521	-0.044530038
171	0x3dac27c5	0.08406023
172	0x3e04fdaf	0.12987398
173	0x3dd6c141	0.10486079
174	0x3e5e0594	0.21681815
175	0x3e9bceb1	0.3043113
176	0xbd901b50	-0.070364594
177	0x3f0284d6	0.5098394
178	0xbe5f4b87	-0.21806155
179	0x3d9b03e6	0.07569103
180	0x3e0a37c1	0.13497831
181	0x3ed25ccb	0.4108642
182	0xbf0dbe03	-0.5536806
183	0x3ea5e0b8	0.3239801
184	0x3e8ed80b	0.27899203
185	0x3e93cd8e	0.28867763
186	0xbe13fcce	-0.14451906
187	0x3d2a79a4	0.04161991
188	0xbc94b9c4	-0.018154986
189	0xbd89e287	-0.0673266
190	0xbf19bfbb	-0.6005818
191	0xbe205f4d	-0.15661354
192	0xbe24b6bf	-0.16085337
193	0x3e1f2efc	0.15545267
194	0x3e92989b	0.28632054
195	0x3eaf4732	0.34234005
196	0xbd219ff7	-0.039459195
197	0xbe1d53fd	-0.1536407
198	0x3c7d3e17	0.015456698
199	0x3daf6703	0.0856457
200	0x3f010db2	0.5041152
201	0x3bb9e364	0.005672859
202	0xbf31872d	-0.69346887
203	0xbf9c6424	-1.221806
204	0xbe134950	-0.14383435
205	0x3c21c265	0.009873007
206	0xbe16be8d	-0.14721127
207	0xbe0028e1	-0.12515594
208	0x3d825859	0.06364507
209	0x3d7e52e4	0.06209077
210	0x3e8d666f	0.27617213
211	0xbe3dea65	-0.18546446
212	0x3f44d8da	0.7689339
213	0xbc8bc356	-0.017060917
214	0xbe97c0b4	-0.29639208
215	0xbdb285e6	-0.08716945
216	0xbdf6b932	-0.12047042
217	0xbf844ed3	-1.0336555
218	0xbe5ab170	-0.2135675
219	0x3eafff7e	0.34374613
220	0xbea520a5	-0.32251468
221	0x3e74a9fa	0.23892966
222	0xbd795fc4	-0.060882345
223	0xbe67b0a0	-0.22625971
224	0xbd24c9af	-0.040231403
225	0xbeb1ce78	-0.34727836
226	0x3eb19e9e	0.34691328
227	0xbc57f4df	-0.01318094
228	0xba96beea	-0.0011500989
229	0x3e6e7fe5	0.23290975
230	0xbf1286d7	-0.57237
231	0x3e0c4655	0.13698705
232	0xbe8442df	-0.2583227
233	0x3cccbcb9	0.024992334
234	0xbf82481c	-1.0178256
235	0xbe259f0c	-0.16173953
236	0xbe623144	-0.22089106
237	0x3d9d045a	0.076668456
238	0xbeb08ebe	-0.34483904
239	0x3e811109	0.2520831
240	0xbed095a8	-0.4073918
241	0x3e57b051	0.21063353
242	0xbc0eb434	-0.008709956
243	0xbeb8ddb2	-0.3610664
244	0xbf1468ba	-0.579723
245	0xbe698dee	-0.22808048
246	0xbe02e230	-0.12781596
247	0x3e6c3788	0.23068058
248	0x3defea3f	0.11714601
249	0xbcaa2643	-0.020770198
250	0x3dd251d8	0.10269517
251	0xbcbaa767	-0.022784902
252	0xbc7456ca	-0.01491327
253	0xbdaba605	-0.08381275
254	0xbd677524	-0.0565082
255	0x3e599806	0.21249399

l2.bias f4 [256]
0	0x3b095a7f	0.002095848
1	0x3f2c94cd	0.6741455
2	0x3f092551	0.53572565
3	0x3f0ee951	0.5582476
4	0xbf41c5e9	-0.7569261
5	0xbe3ca202	-0.18421176
6	0xbee5a23d	-0.4485034
7	0x3f1ad157	0.6047568
8	0xbee2c629	-0.4429181
9	0x3f070c96	0.5275358
10	0x3f19f120	0.6013355
11	0xbe7d4c1f	-0.24736069
12	0xbe57d71b	-0.2107815
13	0xbef4224a	-0.4768241
14	0xbea96bda	-0.33090097
15	0xbe8e1d26	-0.27756613
16	0xbe6dc35a	-0.23219052
17	0xbebe7135	-0.37195745
18	0x3f00cac0	0.5030937
19	0xbe328e45	-0.17437084
20	0xbec458f8	-0.38349128
21	0xbd857d82	-0.06518079
22	0xbe37bee4	-0.17943913
23	0xbea51cb7	-0.3224847
24	0x3f11475c	0.5674951
25	0x3f15f951	0.5858355
26	0x3f254b97	0.64568466
27	0x3f2ce6d9	0.67539746
28	0xbf1461d6	-0.57961786
29	0x3f15f438	0.58575773
30	0xbe93e50f	-0.28885695
31	0xbea3a674	-0.3196293
32	0xbf1e677b	-0.6187665
33	0x3f0f6b64	0.5602324
34	0xbd4c723a	-0.049913622
35	0xbde4cd9e	-0.11172031
36	0xbd9ef27d	-0.07761095
37	0x3f298ec7	0.66233486
38	0xbdeddea9	-0.11614735
39	0x3f0f2a90	0.5592432
40	0x3f0c7346	0.54863393
41	0x3f0ba5ea	0.5455004
42	0x3ca019ef	0.019543616
43	0xbf24698c	-0.6422355
44	0x3f21b0c4	0.6316035
45	0x3f375add	0.7162302
46	0xbea8543a	-0.3287676
47	0x3f203043	0.6257364
48	0x3f30cf6e	0.6906651
49	0xbe06dcd8	-0.13170183
50	0x3f26214b	0.6489455
51	0xbf0a1c08	-0.5394902
52	0x3f1c5112	0.61061203
53	0x3f0e83d2	0.5566989
54	0xbf0a11ec	-0.53933597
55	0x3f1273d1	0.5720797
56	0xbe880e0c	-0.26573217
57	0x3f19e5c8	0.60116243
58	0xbcca5ac4	-0.024701484
59	0xbef5e339	-0.4802492
60	0x3f14facf	0.58195204
61	0x3f37a934	0.7174256
62	0xbe9b2e45	-0.30308738
63	0xbed57208	-0.4168856
64	0xbf116668	-0.56796885
65	0x3f071dfc	0.5278013
66	0x3f0294fe	0.51008594
67	0x3f1d3758	0.6141257
68	0x3f0835e2	0.5320722
69	0x3f24fa85	0.6444476
70	0x3f2a96e5	0.66636497
71	0x3f14ea6d	0.58170205
72	0x3f289180	0.65847015
73	0x3f172a11	0.59048563
74	0x3f232f41	0.6374398
75	0x3f2c8cfc	0.67402625
76	0xbeb0f220	-0.34559727
77	0x3f29d15f	0.663351
78	0x3f0887cc	0.5333221
79	0xbec14a66	-0.37752074
80	0xbefaff8e	-0.49023098
81	0xbe997641	-0.29973033
82	0x3f2573f9	0.64630085
83	0xbe45ee79	-0.19329251
84	0x3f1517f3	0.5823967
85	0xbeb5778e	-0.35442775
86	0x3f3d6c2f	0.739932
87	0xbf02400e	-0.5087899
88	0x3f0aedef	0.5426931
89	0x3f33fe98	0.70310354
90	0x3f113a9d	0.5673006
91	0xbed1b530	-0.40958548
92	0xbd9c9fff	-0.07647704
93	0x3f2a8aa7	0.66617817
94	0x3f2956c0	0.66147995
95	0x3f1df04a	0.61694777
96	0x3f1a1841	0.6019326
97	0xbec0ccd0	-0.3765626
98	0xbe9085a3	-0.28226957
99	0xbeb9b032	-0.3626724
100	0x3f238d82	0.638878
101	0x3f18dc91	0.5971156
102	0x3f1f30ff	0.6218414
103	0x3f3524ec	0.70759463
104	0xbea457d9	-0.32098272
105	0xbee0142a	-0.43765384
106	0x3f0bb730	0.54576397
107	0xbec3402a	-0.3813489
108	0xbd0cc883	-0.03437091
109	0xbe92c828	-0.28668332
110	0xbed819a4	-0.42207062
111	0xbeed86a7	-0.46391794
112	0xbedda5a4	-0.43290436
113	0xbe82cba0	-0.2554598
114	0x3f15b749	0.58482796
115	0x3f1eac8f	0.61982054
116	0xbe8b70fb	-0.27234635
117	0xbe9dfdd5	-0.3085772
118	0xbf09c5d6	-0.538175
119	0x3f15a607	0.5845646
120	0xbec1ab17	-0.37825844
121	0x3f288398	0.65825796
122	0x3f0ccdfd	0.55001813
123	0xbf044d90	-0.5168085
124	0xbdba9815	-0.091110386
125	0x3f27a471	0.6548529
126	0xbe416a48	-0.188882
127	0xbd536353	-0.051608395
128	0xbe834c7e	-0.25644296
129	0xbead8998	-0.33894038
130	0xbd16380b	-0.03667454
131	0x3f3352c8	0.7004819
132	0xbec3cc2f	-0.38241717
133	0xbee9aa6f	-0.45637843
134	0x3f188b67	0.5958771
135	0xbdd3e157	-0.103457145
136	0x3f25f9d7	0.6483435
137	0x3f179802	0.5921632
138	0x3f1c9c9e	0.6117648
139	0x3d1737fb	0.03691862
140	0x3f275c29	0.65375
141	0xbe3a5535	-0.18196566
142	0x3f1dd879	0.61658436
143	0x3f1a8160	0.6035366
144	0xbe89a7a3	-0.2688571
145	0x3f24f27a	0.6443249
146	0x3f21275c	0.6295068
147	0x3f13a4ba	0.5767323
148	0x3f228a29	0.63492066
149	0x3f182f0b	0.5944678
150	0x3f1ee172	0.6206275
151	0x3f1ca4b9	0.61188847
152	0xbe1a66d8	-0.15078294
153	0xbeeb0031	-0.45898584
154	0xbeae6f18	-0.34069133
155	0xbe3eb283	-0.18622784
156	0xbca55321	-0.02018124
157	0xbe81aa5d	-0.2532529
158	0x3f21b04f	0.6315965
159	0x3f1a0f6a	0.6017977
160	0x3f1bb262	0.60819066
161	0xbf0bf155	-0.5466512
162	0x3f2000a1	0.6250096
163	0xbf2e07b6	-0.67980516
164	0x3f0e1431	0.5549956
165	0x3f3d5787	0.7396168
166	0xbdc72ac1	-0.097249515
167	0xbe97229f	-0.295186
168	0x3f1598b5	0.5843614
169	0x3f1627aa	0.5865427
170	0x3f24bdb0	0.6435194
171	0xbf04b06d	-0.51831704
172	0x3f1a0701	0.6016694
173	0x3f216180	0.630394
174	0x3f0f195e	0.5589808
175	0xbe6d5c87	-0.23179828
176	0xbe943a7e	-0.28950876
177	0x3f1ba816	0.60803354
178	0x3f2d2eb0	0.67649364
179	0xbe97e0f0	-0.296638
180	0xbe82fbbc	-0.25582683
181	0xbc0ee09d	-0.008720544
182	0xbd88705e	-0.06662057
183	0x3f0011f0	0.5002737
184	0x3f2cff04	0.6757662
185	0x3f1c756f	0.6111669
186	0x3f259ecf	0.6469545
187	0x3f25e63d	0.6480444
188	0xbe717b5c	-0.23582214
189	0x3f0e5b0a	0.55607665
190	0xbec180e7	-0.37793657
191	0x3f30a7bd	0.6900595
192	0xbf0538e7	-0.5203995
193	0xbe2c7753	-0.16842394
194	0xbea68db8	-0.32529998
195	0x3f3038b3	0.68836516
196	0x3f23335b	0.6375024
197	0x3f2dd671	0.67905337
198	0x3f1c1cf7	0.60981697
199	0x3f12ecbe	0.5739249
200	0x3f1adf0d	0.604966
201	0xbd7e53cb	-0.06209163
202	0x3f2471ce	0.6423615
203	0x3effe3a8	0.49978375
204	0xbf229a6b	-0.63516873
205	0x3eae47c3	0.34039125
206	0xbf256723	-0.646105
207	0xbd061be3	-0.03274144
208	0x3f165d42	0.5873605
209	0x3f4dec52	0.8043872
210	0x3f1eb9d2	0.6200229
211	0xbe34ec4a	-0.17668262
212	0x3f21df7b	0.6323163
213	0x3f1d2fbd	0.6140097
214	0xbec25cda	-0.37961465
215	0xbf20193d	-0.6253851
216	0x3edb10bb	0.42786202
217	0xbe92024e	-0.28517383
218	0x3f1aa045	0.604008
219	0xbeb13d5b	-0.34617123
220	0x3f18e817	0.5972914
221	0xbec48b1b	-0.3838738
222	0xbf0ac417	-0.5420546
223	0xbec65074	-0.38733256
224	0x3ea9fcd6	0.3320071
225	0xbece9909	-0.40351132
226	0x3f04abba	0.51824534
227	0x3f2992a5	0.66239387
228	0x3f14ba20	0.58096504
229	0x3f1a1975	0.60195094
230	0x3f229403	0.635071
231	0x3f1d2375	0.6138223
232	0xbeee58f5	-0.46552244
233	0xbec5550f	-0.38541457
234	0xbf1ee5d4	-0.6206944
235	0x3f1f0b11	0.6212626
236	0xbf18d188	-0.5969472
237	0x3f09eec3	0.53879946
238	0x3f2d6f0e	0.6774758
239	0x3f0cf653	0.5506336
240	0x3f2088d2	0.6270877
241	0x3f32fec3	0.69919986
242	0x3f1f7c47	0.6229901
243	0xbeceb31c	-0.40371025
244	0x3f1cc930	0.6124449
245	0xbeb9f30e	-0.3631825
246	0xbee06483	-0.43826684
247	0x3f239c94	0.63910794
248	0xbe0a5052	-0.13507202
249	0x3f19690a	0.599259
250	0x3f097125	0.5368827
251	0x3f1e5bf5	0.61859065
252	0x3f33b619	0.70199734
253	0xbeb8dc19	-0.3610542
254	0x3e996aba	0.29964238
255	0xbeb1633f	-0.3464603

l3.weight f4 [1, 256]
0	0xbf872761	-1.0558892
1	0x3e13b299	0.14423598
2	0x3eb093c4	0.34487736
3	0x3ed40428	0.4140942
4	0xbf73f797	-0.9529967
5	0xbf1ff158	-0.62477636
6	0xbfb09e95	-1.3798395
7	0x3df663f2	0.12030782
8	0xbf92bf91	-1.1464711
9	0x3e5916e7	0.21200143
10	0x3e2ad2d7	0.16681992
11	0xbf70b765	-0.9402984
12	0xbf39d99c	-0.7259767
13	0xbf801708	-1.0007029
14	0xbfafa5af	-1.3722438
15	0xbf8b41f5	-1.0879503
16	0xbf01e462	-0.5073911
17	0xbf2a3bf0	-0.6649771
18	0x3db45936	0.08806078
19	0xbf63090b	-0.88685673
20	0xbeecb46c	-0.462314
21	0xbfcbef3a	-1.5932381
22	0xbf50e417	-0.8159804
23	0xbf5df878	-0.8670726
24	0x3e8a2ace	0.26985782
25	0x3e99789e	0.29974836
26	0x3e0b6404	0.13612372
27	0x3e4b0781	0.19827081
28	0xbf0daa92	-0.55338395
29	0x3e07d0a7	0.13263188
30	0xbf004aab	-0.50113934
31	0xbf02e284	-0.51126885
32	0xbf483c85	-0.78217345
33	0x3e95a391	0.29226354
34	0xbf31efa4	-0.6950629
35	0xbf376ab1	-0.71647173
36	0xbfb34454	-1.4005227
37	0x3ea6aafb	0.32552323
38	0xbf29d8bc	-0.66346335
39	0x3eb6b602	0.35685736
40	0x3e1c19f9	0.15244283
41	0x3e932834	0.2874161
42	0xbfd4c955	-1.6623942
43	0xbf1112d4	-0.56669354
44	0x3f325425	0.69659644
45	0x3e151417	0.14558445
46	0xbfc051be	-1.5024946
47	0x3eaac843	0.33355913
48	0x3e243521	0.16035892
49	0xbfb845c6	-1.4396293
50	0x3e322a4c	0.17398947
51	0xbf7e5727	-0.99351734
52	0x3e3e92ee	0.18610737
53	0x3ea79a22	0.32734782
54	0xbf433e7e	-0.7626723
55	0x3e98c73a	0.29839498
56	0xbf33be42	-0.70212185
57	0x3edd7ff2	0.43261677
58	0xbf9d4269	-1.2285892
59	0xbf4cbdc5	-0.79977065
60	0x3e2868e4	0.16446263
61	0x3f0bd0fa	0.5461575
62	0xbf16f9b7	-0.58974785
63	0xbf676ccc	-0.90400386
64	0xbf82db01	-1.0223085
65	0x3ec3172d	0.3810362
66	0x3ea74d6b	0.32676253
67	0x3eb31810	0.34979296
68	0x3ea52941	0.32258037
69	0x3ebcac9e	0.36850446
70	0x3e3b2b7a	0.18278304
71	0x3e843115	0.25818697
72	0x3e29ad48	0.16570008
73	0x3eadd714	0.33953154
74	0x3e139360	0.14411688
75	0x3ec38313	0.3818594
76	0xbf5e7789	-0.86901146
77	0x3e34d3f8	0.17658985
78	0x3edc35d5	0.4300982
79	0xbf1adf63	-0.6049711
80	0xbf3531cc	-0.7077911
81	0xbf299ced	-0.66255075
82	0x3e5a5915	0.21323045
83	0xbf4a8172	-0.7910377
84	0x3e883a2d	0.26606885
85	0xbf5bfbe0	-0.85931206
86	0x3e45f51e	0.19331786
87	0xbf70f888	-0.9412923
88	0x3eb97cdd	0.36228076
89	0x3ef088e6	0.46979445
90	0x3e32ee2d	0.1747367
91	0xbf7c3fbc	-0.9853475
92	0xbf248335	-0.64262706
93	0x3e5e8216	0.21729311
94	0x3ec45a63	0.3835021
95	0x3e8cb9e7	0.27485582
96	0x3e9d5300	0.30727386
97	0xbf71892c	-0.9434993
98	0xbf47100d	-0.77758867
99	0xbf715dd9	-0.94283825
100	0x3e4dd0bc	0.20099157
101	0x3e0cd7f0	0.13754249
102	0x3eb559b8	0.35420012
103	0x3e5c10e1	0.21490814
104	0xbf652682	-0.89511883
105	0xbf5bac4a	-0.8580977
106	0x3e800611	0.25004628
107	0xbf87f42f	-1.0621394
108	0xbfba904f	-1.457529
109	0xbfb42a8d	-1.4075485
110	0xbf4cab15	-0.7994855
111	0xbec85eaf	-0.39134738
112	0xbf955c11	-1.1668721
113	0xbf56d96f	-0.8392553
114	0x3dd5d9e1	0.10441948
115	0x3e041b9b	0.12901156
116	0xbf8afdbc	-1.0858684
117	0xbf8e1cdd	-1.1102558
118	0xbf877a07	-1.0584115
119	0x3e7aca0f	0.24491142
120	0xbfb7d948	-1.4363184
121	0x3e68b903	0.22726826
122	0x3e5fc002	0.21850589
123	0xbf6c6ccb	-0.92353505
124	0xbf83b997	-1.0291013
125	0x3e1cdb00	0.15317917
126	0xbf21658c	-0.63045573
127	0xbf822a5d	-1.0169178
128	0xc0201fdf	-2.5019453
129	0xbf271117	-0.6526045
130	0xbf6842ce	-0.90726936
131	0x3e692506	0.2276803
132	0xbed87d75	-0.42283216
133	0xbf4f9796	-0.81090677
134	0x3eb61768	0.35564733
135	0xbf3495cc	-0.7054107
136	0x3e2193ce	0.1577904
137	0x3e94cb9b	0.2906159
138	0x3e3b6b7c	0.18302721
139	0xbd4e95e8	-0.05043593
140	0x3e9730c3	0.2952939
141	0xbf8278d9	-1.019313
142	0x3e2cd470	0.16877913
143	0x3e3a398e	0.18186018
144	0xbfc2b6b6	-1.5212009
145	0x3e16d74b	0.14730565
146	0x3e165e2e	0.14684364
147	0x3e9596f8	0.29216743
148	0x3e7918d3	0.24325876
149	0x3eb9d2be	0.36293596
150	0x3e3e328e	0.18573973
151	0x3e870852	0.26373535
152	0xbf52db1c	-0.82365584
153	0xbf837ab2	-1.0271819
154	0xbf0754be	-0.5286368
155	0xbf9af32c	-1.210546
156	0xbf6cf581	-0.9256211
157	0xbf840ae8	-1.0315828
158	0x3e44205e	0.19152972
159	0x3e4678be	0.19381997
160	0x3e0e0d7b	0.1387233
161	0xbfa973aa	-1.3238423
162	0x3e2ada96	0.16684946
163	0xbf125691	-0.5716334
164	0x3e726bd7	0.2367395
165	0x3e5037a7	0.2033373
166	0xbf8ab04f	-1.0835055
167	0xbf11a752	-0.56895936
168	0x3ea855e1	0.3287802
169	0x3e972b38	0.2952516
170	0x3e5f12e1	0.21784545
171	0xbf69bf89	-0.91307884
172	0x3e0e31c9	0.13886179
173	0x3e410de5	0.18852957
174	0x3e0e8c76	0.13920769
175	0xbf66e481	-0.9019242
176	0xbf52486e	-0.8214177
177	0x3e557b72	0.20847872
178	0x3e9acd9d	0.30234995
179	0xbf38d9c7	-0.722073
180	0xbf331c27	-0.6996483
181	0xbfd9d852	-1.7019141
182	0xbf47ca75	-0.780433
183	0x3e938006	0.28808612
184	0x3ecb2611	0.3967748
185	0x3e265fb5	0.16247447
186	0x3e859a6f	0.26094386
187	0x3e6ac1a5	0.22925432
188	0xbf474dc9	-0.77853066
189	0x3e0f6863	0.14004664
190	0xbfc4684b	-1.5344328
191	0x3ec1b9b0	0.3783698
192	0xbfa4a58b	-1.286302
193	0xbf499ba3	-0.7875311
194	0xbf1e17d4	-0.6175511
195	0x3e6061d5	0.2191232
196	0x3e33aa67	0.17545472
197	0x3ea9b15c	0.33143127
198	0x3f11bbca	0.5692717
199	0x3e4b77e1	0.19869949
200	0x3e33a308	0.1754266
201	0x3d02825e	0.03186261
202	0x3e4cfd8f	0.200186
203	0x3ea8bf01	0.32958224
204	0xbf901801	-1.1257325
205	0x3fb827e8	1.4387178
206	0xbf109409	-0.56475884
207	0xbfbf5ad9	-1.49496
208	0x3eb28767	0.3486893
209	0x3f0b2c01	0.5436402
210	0x3e9d7981	0.30756763
211	0xbf739cd6	-0.9516119
212	0x3ead056c	0.337932
213	0x3dd90451	0.105965264
214	0xbef4f636	-0.47844094
215	0xbf265c1c	-0.649843
216	0x3f35953b	0.7093083
217	0xbf846635	-1.0343691
218	0x3de0508c	0.10952863
219	0xbf3feee5	-0.749739
220	0x3e977b5e	0.2958631
221	0xbf26efda	-0.65209734
222	0xbf49d61a	-0.7884232
223	0xbf39be4e	-0.72556007
224	0x3f64829b	0.8926179
225	0xbf4ed9f1	-0.808013
226	0x3e4987d4	0.1968072
227	0x3e9c9272	0.3058048
228	0x3e55b3fe	0.20869443
229	0x3e5c4792	0.21511677
230	0x3e8664de	0.2624883
231	0x3e899cd5	0.26877466
232	0xbfa75cc5	-1.3075186
233	0xbf0c12d7	-0.5471625
234	0xbf6a3e30	-0.9150114
235	0x3e8994e4	0.26871407
236	0xbf7c3782	-0.985222
237	0x3eac624c	0.33668745
238	0x3e7de997	0.24796139
239	0x3da959df	0.08269095
240	0x3e513d3b	0.20433514
241	0x3e3cb579	0.18428601
242	0x3e36a882	0.17837718
243	0xbeaa72bd	-0.33290663
244	0x3e96375b	0.29339108
245	0xbf3a80f5	-0.7285302
246	0xbf228f23	-0.6349966
247	0x3ed81274	0.4220158
248	0xbf71bb43	-0.94426364
249	0x3e199427	0.14997922
250	0x3e79a268	0.2437836
251	0x3e4687eb	0.19387786
252	0x3e28a887	0.16470538
253	0xbf60a9d8	-0.8775916
254	0x3f9b7fe0	1.2148399
255	0xbfa1e790	-1.2648792

l4.weight f4 [256, 32]
0	0x3e0a4ba9	0.13505425
1	0x3d7a05c8	0.06104067
2	0x3de30802	0.11085512
3	0x3f65ccbb	0.8976552
4	0x3e2076e7	0.15670358
5	0x3df996d6	0.12186973
6	0xbd6dbf76	-0.05804392
7	0xbe83a551	-0.25712064
8	0x3ea3aedb	0.31969342
9	0xbde49f22	-0.11163165
10	0x3e633091	0.22186495
11	0xbedf15cb	-0.43571314
12	0xbea792bb	-0.32729134
13	0xbe74af72	-0.23895052
14	0xbe2a130f	-0.16608833
15	0x3d932357	0.07184475
16	0x3d8297f6	0.063766405
17	0x3c417cbf	0.011809527
18	0xbebbcdcf	-0.36680457
19	0x3d3d2038	0.046173304
20	0xbdcb8310	-0.099371076
21	0x3e059db7	0.13048445
22	0xbd9c5bb6	-0.0763468
23	0x3efb6bce	0.49105686
24	0xbde67919	-0.11253566
25	0x3dcfadbe	0.101405606
26	0x3ec20d48	0.37900758
27	0xbee5679a	-0.44805604
28	0xbdbc5877	-0.09196561
29	0xbd4e53bc	-0.050372824
30	0x3de9d658	0.11417836
31	0x3e0d767d	0.13814731
32	0x3e2d41a0	0.16919565
33	0xbe111fa1	-0.14172222
34	0x3df59947	0.11992126
35	0x3ecb0bc8	0.39657426
36	0x3e2182b7	0.1577252
37	0xbdcb0a21	-0.09914041
38	0xbe82ebf9	-0.25570658
39	0x3e356394	0.17713767
40	0xbdb6f841	-0.089340694
41	0x3daeaa5d	0.08528588
42	0xbc6a4a31	-0.014299915
43	0x3db123a2	0.086493745
44	0xbeca1c73	-0.3947483
45	0x3e8826f1	0.2659221
46	0xbee738da	-0.45160562
47	0xbdab2fdb	-0.08358737
48	0xbe752811	-0.23941065
49	0xbe70c6c8	-0.23513329
50	0x3f33a46b	0.70172757
51	0xbdbb5a3d	-0.09148071
52	0x3cb52a53	0.022114908
53	0x3d7dae3b	0.061933737
54	0xbe90534f	-0.2818856
55	0xbd63fd40	-0.05566144
56	0xbea68efa	-0.32530957
57	0xbe95ea74	-0.29280436
58	0xbda08fb5	-0.0783991
59	0xbcf62ebc	-0.030051582
60	0x3e69e074	0.22839528
61	0x3d1e68df	0.03867423
62	0x3c3087c6	0.010774558
63	0xbcee7371	-0.029107781
64	0xbe8691b7	-0.26283047
65	0xbdae77fb	-0.08518978
66	0x3e5e2ed9	0.21697558
67	0x3d3b9240	0.04579377
68	0xbe20a42b	-0.15687625
69	0xbdadff63	-0.08495977
70	0xbe41a053	-0.18908815
71	0xbe063690	-0.13106751
72	0xbdab3898	-0.08360404
73	0xbd45d866	-0.048302077
74	0x3c368a9a	0.011141444
75	0xbd3f16f0	-0.046652734
76	0xbbe19575	-0.0068842717
77	0xbd7af197	-0.061265554
78	0xbec02044	-0.37524617
79	0xbe212806	-0.15737924
80	0x3de9140f	0.11380779
81	0xbd25d1db	-0.040483337
82	0x3f074028	0.5283227
83	0x3e7b91ec	0.24567384
84	0xbead906e	-0.33899254
85	0x3da05158	0.07828015
86	0x3e4567bc	0.19277853
87	0xbea6818f	-0.3252072
88	0xbb9dae02	-0.004812003
89	0xbe859a31	-0.260942
90	0x3dee395a	0.11632033
91	0xbdfe9f9b	-0.12432786
92	0xbe358e03	-0.17729954
93	0xbd4b54a4	-0.049641266
94	0x3c887d91	0.016661437
95	0x3e108089	0.14111532
96	0x3ef0cbfa	0.47030622
97	0x3df53c8a	0.119744375
98	0x3d974734	0.07386628
99	0xbe901b81	-0.28145984
100	0xbcd1e242	-0.025620583
101	0x3f329e22	0.6977254
102	0xbdbc3f5d	-0.09191773
103	0xbe3c4c97	-0.18388592
104	0x3eb86445	0.36014
105	0x3ed15e36	0.4089219
106	0x3f0636d8	0.52427435
107	0x3eae21ec	0.34010255
108	0x3e12c495	0.14332803
109	0xbdaea77f	-0.08528041
110	0x3f3315e5	0.69955283
111	0x3d536872	0.05161328
112	0x3e6dd972	0.2322748
113	0xbe6e32eb	-0.23261611
114	0xbe68ef59	-0.22747554
115	0xbe91e29e	-0.28493208
116	0x3d180b6a	0.03712026
117	0xbd3d1851	-0.046165768
118	0x3d836e55	0.064175285
119	0xbd2b9474	-0.041889623
120	0x3c991a55	0.018689314
121	0xbc7d4827	-0.015459097
122	0x3d02a954	0.031899765
123	0x3ed85b20	0.42257023
124	0xbea76cec	-0.32700288
125	0xbef17f0e	-0.47167248
126	0xbd55b899	-0.052178
127	0x3dd110f6	0.10208313
128	0x3f2fbc1d	0.68646413
129	0x3de2f877	0.11082547
130	0x3e261022	0.16217092
131	0x3ee04d6b	0.43809065
132	0xbd1895f8	-0.037252396
133	0x3e8a8e46	0.2706167
134	0x3d33885b	0.04383121
135	0x3dff7cd7	0.12474983
136	0x3e3cba2d	0.18430395
137	0xbf4e324f	-0.80545515
138	0x3e1795e1	0.14803268
139	0xbee61342	-0.44936568
140	0x3ec7c9e9	0.39021233
141	0xbec68067	-0.38769838
142	0x3caaaa54	0.020833172
143	0x3dbc5db6	0.091975614
144	0x3e1f5439	0.15559472
145	0xbc543f89	-0.012954601
146	0xbd20727d	-0.039171685
147	0xbe404c6e	-0.18779156
148	0x3bf30e70	0.0074174926
149	0xbdca5468	-0.098793805
150	0x3dd16a2c	0.10225329
151	0xbcc1cc49	-0.023656981
152	0xbdcb2b74	-0.099203974
153	0x3c415b16	0.011801502
154	0xbe21b473	-0.15791492
155	0xbc3f204c	-0.011665415
156	0xbf910180	-1.1328583
157	0xbea033f6	-0.31289643
158	0xbe0da0e7	-0.1383091
159	0x3d340730	0.043952167
160	0xbe706ade	-0.23478267
161	0xbd3e9dd6	-0.046537243
162	0x3e41e2aa	0.18934122
163	0xbc6fc894	-0.014635224
164	0x3e347d9b	0.1762604
165	0xbe0d76ea	-0.13814893
166	0xbe54cd04	-0.20781332
167	0xbec149b6	-0.3775155
168	0xbcfb86e6	-0.030703973
169	0xbef5d921	-0.4801722
170	0xbdca3473	-0.09873285
171	0xbe40a6e2	-0.1881366
172	0x3f0e841a	0.5567032
173	0x3d6f60bf	0.058441874
174	0x3e520a4f	0.20511745
175	0xbe019bd2	-0.12657097
176	0x3e2a1aa2	0.16611722
177	0xbc1b6f85	-0.009487038
178	0x3dea151d	0.11429808
179	0x3e90265a	0.2815426
180	0x3db1db07	0.08684354
181	0xbb6d59e1	-0.0036216902
182	0x3d97e5d7	0.07416885
183	0xbe2b8b6c	-0.16752404
184	0xbe81b13a	-0.25330526
185	0xbeb4cd09	-0.3531268
186	0xbe976dbb	-0.29575905
187	0x3a9da6a6	0.0012027815
188	0x3ec27bd5	0.379851
189	0x3d85cb3b	0.06532904
190	0xbe948a4e	-0.29011768
191	0x3e51765f	0.20455311
192	0x3e39f9bd	0.18161674
193	0x3cbb541d	0.022867257
194	0x3dae26bd	0.085034825
195	0xbd3f3b57	-0.04668745
196	0x3d884b77	0.06655019
197	0x3e5eb742	0.21749595
198	0xbdce554c	-0.10074863
199	0xbeec36ad	-0.46135464
200	0x3e3b0f1a	0.1826748
201	0x3e8d75c9	0.27628925
202	0x3e7c5de9	0.24645199
203	0x3eba036c	0.36330736
204	0xbec97fc5	-0.39355293
205	0xbd3ad1df	-0.045610305
206	0x3e97cf3c	0.29650295
207	0x3d2a60f4	0.041596368
208	0xbe58e0a8	-0.2117945
209	0x3d067d11	0.032834116
210	0xbd950961	-0.072771795
211	0x3e9c7703	0.3055955
212	0x3e154608	0.14577496
213	0x3ae68961	0.001758855
214	0xbec93fb4	-0.39306414
215	0xbeed187a	-0.46307737
216	0xbe458384	-0.1928845
217	0xbde1f4b5	-0.11033002
218	0x3eda6704	0.4265672
219	0x3d672013	0.056427073
220	0x3e032d6a	0.12810293
221	0x3e2a4b30	0.16630244
222	0x3f19dee6	0.6010574
223	0xbe245aa5	-0.16050203
224	0x3ddbac49	0.1072622
225	0xbdf1ad50	-0.11800635
226	0x3dee8477	0.116463594
227	0xbe9b85d1	-0.3037553
228	0xbce3b3c3	-0.027795678
229	0x3e3e530a	0.18586364
230	0xbdf8df9a	-0.121520236
231	0xbcc1e179	-0.023667084
232	0xbd6f19e1	-0.05837429
233	0x3ef62af4	0.48079646
234	0x3cd7849a	0.026308347
235	0x3e9dfcb7	0.3085687
236	0xbe1c485c	-0.15261978
237	0xbed50543	-0.41605577
238	0xbe419163	-0.18903117
239	0xbcce0188	-0.025147215
240	0xbd994f42	-0.0748582
241	0x3e2332ca	0.15937343
242	0xbea69190	-0.3253293
243	0x3eb5408c	0.35400808
244	0x3db3e6a3	0.08784225
245	0x3c0e6929	0.008692064
246	0xbcfb65bf	-0.030688165
247	0xbedaa729	-0.42705658
248	0xbe41e46a	-0.1893479
249	0xbe2383c1	-0.15968229
250	0x3ed3f8ae	0.41400665
251	0xbe03ac25	-0.12858637
252	0xbec3089c	-0.38092506
253	0xbf37a476	-0.7173532
254	0x3e26a127	0.16272412
255	0x3e3df1e0	0.18549299

l4.bias f4 [256]
0	0xbf36f2a2	-0.7146398
1	0x3dd3dacf	0.10344469
2	0x3e1ca923	0.15298896
3	0xbebb0eb5	-0.36534658
4	0xbeeb7670	-0.45988798
5	0xbc8487e8	-0.016178086
6	0xbf15fc3c	-0.58588004
7	0xbd25ca0e	-0.040475897
8	0x3eee138a	0.46499282
9	0x3eb196f3	0.34685478
10	0x3f10d572	0.5657569
11	0x3e2b83ea	0.1674954
12	0x3f143449	0.5789228
13	0x3ee56ae8	0.44808125
14	0x3ef1e155	0.47242227
15	0xbe08092c	-0.13284749
16	0xbf356c26	-0.70868146
17	0xbe846ea4	-0.25865662
18	0x3e8dc478	0.27688956
19	0x3e08d460	0.13362265
20	0x3ece62b4	0.4030968
21	0x3f358c13	0.7091686
22	0x3d53e992	0.051736422
23	0xbf136d2e	-0.5758847
24	0xbf5b401e	-0.8564471
25	0xbed27b53	-0.41109714
26	0x3efdc78d	0.49566308
27	0xbf57a9a9	-0.84243256
28	0x3de3bc96	0.11119954
29	0x3e29d901	0.16586687
30	0x3ecdf23a	0.40223867
31	0x3f129ea0	0.5727329
32	0x3ef8ff58	0.48632312
33	0xbcf262ea	-0.029588182
34	0xbeb37930	-0.35053396
35	0xbe2a8690	-0.16652894
36	0x3eee86b5	0.46587148
37	0xbe9841a9	-0.29737595
38	0x3efb4d02	0.4908219
39	0x3ed3648b	0.41287646
40	0xbdaf684c	-0.08564815
41	0x3e1666f5	0.14687712
42	0xbea1fda9	-0.3163884
43	0xbed268df	-0.41095635
44	0x3e4ac0c9	0.19800104
45	0xbf2e8e4b	-0.6818587
46	0xbeba9645	-0.36442772
47	0x3c23af34	0.009990502
48	0x3ec07a7e	0.37593454
49	0x3f3bc581	0.7334824
50	0x3ec7fedc	0.3906163
51	0x3f121067	0.5705628
52	0x3e7e0856	0.24807867
53	0xbcc96612	-0.024584804
54	0xbf1f1a9c	-0.6214998
55	0x3ef625f7	0.4807584
56	0x3ee9fbc3	0.4569989
57	0x3f1e6f78	0.6188884
58	0x3eb653cc	0.35610807
59	0x3f0413f7	0.51592964
60	0xbe2bbd11	-0.16771342
61	0xbf3d27fd	-0.7388914
62	0xbe0c7b9e	-0.13719031
63	0x3e4333e8	0.1906277
64	0x3e6412f4	0.22272855
65	0x3f21f0e5	0.632582
66	0x3f1bf89e	0.60926235
67	0x3df33e83	0.118771575
68	0xbe727903	-0.23678975
69	0x3ef92131	0.48658136
70	0xbf346fef	-0.704833
71	0xbf434899	-0.7628265
72	0xbece44f1	-0.40286973
73	0xbed56674	-0.41679728
74	0xbf5e5806	-0.86853063
75	0xbf1aedb9	-0.60518986
76	0x3d6bd065	0.057571787
77	0x3ee552ac	0.44789636
78	0x3e7058b8	0.23471344
79	0x3e9fcc76	0.3121068
80	0x3eff9fac	0.49926507
81	0x3ed89a66	0.42305297
82	0xbf6be08e	-0.9213952
83	0xbee832f0	-0.45351362
84	0xbecdd176	-0.4019887
85	0x3f127e0f	0.572236
86	0xbe8d44e0	-0.2759161
87	0x3e1145f2	0.14186838
88	0x3ee164c8	0.44022202
89	0x3eadd7d8	0.33953738
90	0x3f1908bc	0.5977895
91	0x3d316987	0.04331353
92	0xbec9b497	-0.39395592
93	0xbdebf0e7	-0.11520558
94	0xbef15c4a	-0.47140723
95	0x3cffb5e2	0.031214658
96	0x3e76ebb5	0.24113353
97	0x3ec323e9	0.38113335
98	0xbeb47ef3	-0.35253105
99	0x3e92b2a2	0.2865191
100	0xbf81145a	-1.0084336
101	0x3dcd81e9	0.10034544
102	0x3d8e80f0	0.069581866
103	0xbf3a6704	-0.7281344
104	0xbf47f257	-0.78104156
105	0xbf61c08b	-0.8818442
106	0xbf530a59	-0.82437664
107	0xbf472c50	-0.7780199
108	0x3eab7969	0.33491066
109	0x3e0b2d89	0.13591589
110	0xbf0cb85b	-0.54968804
111	0xbef28aca	-0.47371513
112	0x3efeec67	0.49789736
113	0xbe1967dc	-0.14981025
114	0xbf1be56c	-0.60896945
115	0x3e1e34a2	0.15449765
116	0x3ea3889d	0.31940165
117	0x3f33e36b	0.7026889
118	0xbc17d901	-0.009268046
119	0xbf395f77	-0.7241129
120	0x3ece7f64	0.40331566
121	0x3e694e58	0.22783792
122	0xbf10bb0e	-0.5653542
123	0xbddadf2f	-0.106871
124	0xbf02d177	-0.5110087
125	0xbd701c90	-0.05862099
126	0x3ec2ce7b	0.38048157
127	0xbf238eff	-0.6389007
128	0xbe7918b6	-0.24325833
129	0x3e9861be	0.2976207
130	0xbeddf4bf	-0.4335079
131	0xbe8eae43	-0.27867326
132	0x3eac900a	0.33703643
133	0x3f0cfbd3	0.55071753
134	0xbef84b2e	-0.48494858
135	0xbef0d219	-0.47035292
136	0xbf1a4a45	-0.60269576
137	0xbf3b6caf	-0.73212713
138	0xbf20557f	-0.62630457
139	0xbefd2538	-0.49442458
140	0xbbfeffc6	-0.0077819554
141	0xbf85ebe6	-1.0462615
142	0xbf268c4b	-0.6505782
143	0xbed42acf	-0.4143891
144	0x3f09320c	0.5359199
145	0x3edfbba4	0.43697846
146	0x3ebce3b1	0.36892465
147	0xbf2db19b	-0.6784913
148	0xbe39fd31	-0.18162991
149	0xbf94f96b	-1.1638616
150	0xbed3bc8e	-0.41354793
151	0xbf09d7c6	-0.5384487
152	0xbe34179e	-0.17587134
153	0xbed54680	-0.4165535
154	0xbf062a5c	-0.52408385
155	0x3f13f321	0.5779286
156	0x3e795ea6	0.24352512
157	0x3f3ed3d1	0.74541956
158	0xbebf1721	-0.37322333
159	0x3e43a202	0.1910477
160	0xbe45dc3b	-0.19322293
161	0x3ea72ae3	0.32649907
162	0xbedd4b27	-0.432214
163	0x3ec12072	0.37720066
164	0xbd8254c5	-0.06363825
165	0x3eee8158	0.46583056
166	0x3e4ea3b0	0.2017963
167	0x3dd57a59	0.104237266
168	0xbf5b56c3	-0.8567926
169	0xbe4436a6	-0.19161472
170	0x3d1f5e51	0.038908307
171	0xbc8444fa	-0.016146172
172	0x3ea662fc	0.32497394
173	0xbdb2ae54	-0.08724657
174	0x3df09eaf	0.117490165
175	0xbe95057b	-0.29105744
176	0xbf04b490	-0.51838017
177	0xbed12b7d	-0.4085349
178	0xbe8c5f63	-0.27416524
179	0xbd6b56e2	-0.057455905
180	0xbe481f90	-0.1954329
181	0xbf4172a7	-0.7556557
182	0xbea5e1fc	-0.32398975
183	0x3f17538b	0.5911185
184	0x3f0be8a5	0.5465186
185	0xbe13fbf4	-0.14451581
186	0xbee9edb1	-0.45689157
187	0x3e1a4d5a	0.1506857
188	0xbf229b98	-0.6351867
189	0x3e46520b	0.19367234
190	0xbf774769	-0.9659334
191	0xbf09ff47	-0.5390515
192	0x3e2a34b2	0.16621664
193	0xbe201727	-0.15633832
194	0x3d21ea06	0.039529823
195	0xbe889f5f	-0.2668409
196	0xbebfae80	-0.3743782
197	0xbeb93637	-0.36174175
198	0xbea48b16	-0.32137364
199	0xbeceab4a	-0.40365058
200	0x3eb91a14	0.3615271
201	0x3db29e7a	0.08721633
202	0x3f20d935	0.6283143
203	0xbe8e45a7	-0.27787516
204	0x3f007a4a	0.501866
205	0xbe9b4ed0	-0.30333567
206	0xbd8034db	-0.062600814
207	0x3ee73bc2	0.4516278
208	0x3e8c88db	0.27448162
209	0x3f14afa0	0.5808048
210	0x3e120818	0.142609
211	0x3ed00345	0.40627494
212	0x3ea4b9d8	0.32173038
213	0x3db64757	0.08900326
214	0xbf2259ca	-0.6341826
215	0xbef22411	-0.4729314
216	0x3ec38d11	0.38193563
217	0xbd177701	-0.036978725
218	0xbe0be683	-0.13662152
219	0x3e871c74	0.26388896
220	0xbf634c78	-0.8878856
221	0xbecb0c72	-0.39657933
222	0xbe5ee9b2	-0.21768835
223	0xbee77d54	-0.45212805
224	0x3df7ebcb	0.12105521
225	0x3e53f228	0.20697844
226	0xbee36137	-0.44410107
227	0xbefbff8d	-0.49218407
228	0x3e341939	0.17587747
229	0x3eaf199f	0.34199235
230	0x3ee86663	0.45390615
231	0x3f1443f0	0.57916164
232	0xbdd3a9b7	-0.10335105
233	0x3e481cfe	0.1954231
234	0x3eaa4ef8	0.33263373
235	0x3f1d5f07	0.61473125
236	0xbef4ce1d	-0.47813502
237	0xbf2da91f	-0.67836183
238	0x3efdbbc6	0.49557322
239	0xbe9c5ab0	-0.3053794
240	0x3e6a6c0c	0.22892779
241	0x3eaa5fed	0.3327631
242	0xbea1ae6b	-0.31578383
243	0x3e132837	0.1437081
244	0x3e8b50c0	0.27210045
245	0xbf314a17	-0.6925368
246	0xbe46daa0	-0.19419336
247	0x3ec0961f	0.37614533
248	0x3f0a4dcf	0.54024976
249	0x3f23c35c	0.6396997
250	0xbf682fb7	-0.9069781
251	0x3f118712	0.56846726
252	0xbf05f6db	-0.52329797
253	0x3e6e1e1b	0.23253672
254	0xbe834873	-0.25641212
255	0xbf4c2625	-0.79745704
