Project/upload/part2_q1/HalfCheetahBulletEnv-v0_TD3_BC_12_1638392460_td3_bc.pth (torch, 898095 bytes, 16 tensors)

l1.weight f4 [256, 32]
-0.2206777 0.13126656 0.13383211 0.04543864 0.1701567 0.008805542 -0.0066589974 1.008998
0.4311469 0.21728577 0.033377904 0.2560865 -0.38483307 0.15600173 -0.060261484 0.004737392
-0.2669475 -0.11176159 -0.04540173 0.15620768 0.019880278 -0.21275474 -0.08971075 0.059243165
-0.13603808 -0.07548639 0.030769799 0.0036362568 0.18404286 0.0894227 0.056116443 0.07992815
0.063502535 -0.16815855 0.3350077 0.07991112 0.13200088 0.16017562 -0.23733175 -0.53567636
-0.28075412 0.08303607 0.25498164 0.18571551 0.06216361 0.15010576 -0.00538923 0.11190247
-0.030818516 -0.06778228 0.12716338 -0.12751062 -0.0052516996 -0.19033971 -0.025615562 -0.080040336
-0.12228284 -0.040103182 -0.018345717 -0.015534469 0.26036143 0.28547403 -0.014325238 0.02420244
0.01783975 0.04726512 0.48131213 -0.04150274 -0.016347561 -0.07151156 -0.4766456 -0.05431778
0.2087758 0.18996425 0.32628697 0.09923923 0.04943367 0.1673333 0.23482482 0.09193407
0.33756414 0.119083956 0.34729353 0.13961767 -0.013138951 0.058755968 0.09709695 -0.56772953
-0.0431022 0.006365706 -0.01135534 0.0213149 0.31032658 -0.014265283 0.06420992 -0.0073712845
-0.60112774 -0.15720382 0.14333121 -0.2089768 -0.05795493 0.12969327 0.05901067 0.57663584
-0.10862662 0.22930259 -0.08877213 0.06364291 0.5323982 -0.14434776 0.17992325 -0.09965758
0.16790678 -0.15526706 -0.41922048 0.06302356 0.1167499 0.12840016 -0.07019347 0.16080968
-0.2233982 0.076315746 -0.03641638 -0.20440573 0.30997628 0.058829743 -0.05759505 0.2069083
0.0039204257 -0.0042432602 0.010105438 0.050280835 -0.072239846 0.11235151 0.010622293 -0.44011453
-0.032370668 -0.15148737 -0.39598292 -0.039493743 0.007554569 -0.024809713 0.23197143 0.17411692
-0.34508717 0.06622812 0.5254949 0.35598958 0.30051225 -0.085389316 0.023829747 -0.23301905
-0.09352808 0.12642954 -0.10279498 0.032193445 -0.0546083 0.3411802 -0.29320657 0.034512248
-0.2048055 0.04860286 0.12413213 0.1444442 0.17527565 -0.27424175 -0.020995796 -0.101290844
-0.21856205 -0.22670278 -0.7192891 -0.15306546 -0.023676127 -0.10138939 -0.1846499 -0.2191268
-0.19567208 -0.31347105 -0.05644193 -0.14486477 0.30143586 -0.021564895 0.09709647 -0.49715608
-0.2817494 -0.16602911 0.047699496 0.022897942 -0.17634125 0.08021192 0.06648254 -0.014945007
0.017606564 0.07151939 0.31843218 0.79396015 -0.070753306 0.23098153 -0.2772106 -0.083148755
-0.18766947 -0.4812935 -0.6462764 -0.20044215 -0.02751782 -0.054472852 0.5440389 0.02263461
0.19683574 -0.1799021 0.41616789 -0.12764929 -0.11327224 -0.06269306 -0.3430437 0.31223872
-0.081836 0.17708844 0.07393443 -0.19450435 -0.03883493 -0.09098866 0.04438422 -0.044071127
0.102811806 0.05316515 0.19380751 0.17218176 -0.09294282 0.09731953 -0.069722496 -0.21890652
-0.20376003 -0.08114349 -0.26725137 -0.0031324837 -0.11558298 -0.06012425 -0.31031042 0.055704225
-0.1798967 -0.05533602 -0.24256864 -0.1396807 -0.3575491 0.17997472 0.010291267 0.30335486
-0.050741196 -0.47586572 -0.000670956 -0.009085264 -0.20517752 0.032892548 0.03524437 -0.039565455
00000000: 56f9 61be be6a 063e 490b 093e de1d 3a3d
00000010: 8f3d 2e3e 1f45 103c b833 dabb d926 813f
00000020: 49bf dc3e 2980 5e3e 45b7 083d c51d 833e
00000030: d708 c5be ebbe 1f3e bfd4 76bd 203c 9b3b
00000040: 58ad 88be 43e3 e4bd 2af7 39bd e8f4 1f3e
00000050: f7db a23c 61dc 59be 45ba b7bd f6a8 723d
00000060: 914d 0bbe 9c98 9abd f210 fc3c 444e 6e3b
00000070: bb75 3c3e 4023 b73d 5bda 653d 5fb1 a33d
00000080: 9e0d 823d c131 2cbe 2186 ab3e 71a8 a33d
00000090: 3d2b 073e 1405 243e 1807 73be 1622 09bf
000000a0: 01bf 8fbe d10e aa3d f48c 823e 352c 3e3e
000000b0: 459f 7e3d 53b5 193e 2398 b0bb 1f2d e53d
000000c0: 1d77 fcbc 70d1 8abd 1e37 023e 2592 02be
000000d0: 7316 acbb 6ae8 42be bad7 d1bc 30ec a3bd
000000e0: 6d6f fabd 3c43 24bd c249 96bc 4984 7ebc
000000f0: 184e 853e a729 923e 67b4 6abc 3244 c63c
00000100: ab24 923c 1299 413d 8b6e f63e c7fe 29bd
00000110: 52eb 85bc a774 92bd e40a f4be 527c 5ebd
00000120: 53c9 553e fd85 423e 160f a73e f03d cb3d
00000130: f67a 4a3d 6c59 2b3e eb75 703e ee47 bc3d
00000140: 35d5 ac3e 4ae2 f33d 75d0 b13e eff7 0e3e
00000150: c144 57bc 19aa 703d c4da c63d b956 11bf
00000160: ef8b 30bd 6a97 d03b bf0b 3abc 969c ae3c
00000170: 20e3 9e3e efb8 69bc 7e80 833d d18a f1bb
00000180: 82e3 19bf 0afa 20be 6bc5 123e 04fe 55be
00000190: 2662 6dbd 50ce 043e 2cb5 713d 689e 133f
000001a0: a277 debd 4cce 6a3e 2ace b5bd 3757 823d
000001b0: 404b 083f e6cf 13be cd3d 383e 4619 ccbd
000001c0: c1ef 2b3e 54fe 1ebe 11a4 d6be 7f12 813d
000001d0: 921a ef3d 557b 033e 98c1 8fbd 4bab 243e
000001e0: 7fc2 64be 6e4b 9c3d 5829 15bd bc4f 51be
000001f0: 36b5 9e3e 75f7 703d cae8 6bbd c5df 533e
00000200: ea76 803b 0c0b 8bbb 4791 253c 47f3 4d3d
00000210: 7cf2 93bd 8c18 e63d 2009 2e3c b156 e1be
00000220: 1b97 04bd 811f 1bbe 46be cabe 31c4 21bd
00000230: 518c f73b bd3d cbbc eb89 6d3e b54b 323e
00000240: 44af b0be 9ca2 873d d586 063f 4444 b63e
00000250: bedc 993e 98e0 aebd 9a36 c33c 8c9c 6ebe
00000260: a68b bfbd bf76 013e 2d86 d2bd 46dd 033d
00000270: f4ac 5fbd 2caf ae3e 2c1f 96be b75c 0d3d
00000280: 88b8 51be cb13 473d fc38 fe3d 2ee9 133e
00000290: 767b 333e 6a69 8cbe 60ff abbc 9371 cfbd
000002a0: bbce 5fbe c624 68be 5523 38bf 31bd 1cbe
000002b0: 70f4 c1bc 3ea5 cfbd dd14 3dbe c762 60be
000002c0: 435e 48be 477f a0be a72f 67bd 6e57 14be
000002d0: cd55 9a3e dda8 b0bc 84da c63d 3e8b febe
000002e0: 7541 90be 8903 2abe 8c60 433d 7794 bb3c
000002f0: cd92 34be 2646 a43d ff27 883d e7db 74bc
00000300: a43b 903c c278 923d 8b09 a33e f940 4b3f
00000310: 1ce7 90bd 6c86 6c3e 8cee 8dbe e549 aabd
00000320: 6d2c 40be 1a6c f6be 5f72 25bf b540 4dbe
00000330: 0d6d e1bc ed1e 5fbd 2246 0b3f 386c b93c
00000340: 4f8f 493e 4238 38be f513 d53e 7fb6 02be
00000350: 47fb e7bd 3865 80bd 6da3 afbe c1dd 9f3e
00000360: a299 a7bd ac56 353e ef6a 973d 262c 47be
00000370: 6011 1fbd 4358 babd 3acc 353d ed83 34bd
00000380: ff8e d23d b3c3 593d 7a75 463e 6a50 303e
00000390: ce58 bebd 764f c73d abca 8ebd 0829 60be
000003a0: 78a6 50be 8f2e a6bd 2cd5 88be 5b4a 4dbb
000003b0: c5b6 ecbd d844 76bd 02e1 9ebe 1d2a 643d
000003c0: d736 38be 06a8 62bd ea63 78be 7508 0fbe
000003d0: ad10 b7be 4b4b 383e b49c 283c 5451 9b3e
000003e0: 00d6 4fbd aca4 f3be 18e3 2fba 5cda 14bc
000003f0: 0e1a 52be 56ba 063d 675c 103d 630f 22bd

l1.bias f4 [256]
-0.08504025 0.24262781 0.42397213 -0.78499675 -0.70844525 0.026312225 0.29870075 0.5268789
0.48098356 -1.1054684 0.11825529 -0.61958027 -0.50811046 0.6919178 0.10050772 -0.28308085
-0.1377107 0.5914048 0.24613093 0.34495625 0.20040406 -0.35055387 0.3695809 -0.082509995
0.2410901 -0.70549 -0.5904852 -0.14471975 0.28313676 -0.42890483 -0.43067256 0.5339702
-0.25538328 -0.7796726 -0.16117303 -0.27778742 -0.42357907 -0.5353981 -0.52355325 -0.09739496
-0.16732205 0.07417178 -0.7696928 0.64290667 0.27659878 0.03352985 0.1541142 0.80226743
-0.4982004 -0.03954428 0.1276456 -0.49003357 -0.6421999 -0.16546802 -0.81608063 0.2652027
0.5592639 0.34940845 -0.4877757 0.069631696 0.1895275 0.50745475 -0.46337503 0.7231601
0.62895805 0.2838904 -0.011789153 0.192535 0.47893637 -0.52213633 -0.33977932 -0.21808791
-1.1527658 0.3183388 0.08607299 -0.46032676 0.5367174 -0.303827 0.54459745 -0.40243727
0.7104926 0.51337695 -1.0036879 -0.21127981 0.39997625 -0.019964771 0.63783187 -0.17620748
-0.6525525 0.43271166 -0.98297966 -0.1411248 0.30907032 0.14906451 -0.18295754 0.3824714
0.36498868 -0.5068279 0.70972085 0.16951372 0.26558974 -0.32294092 -0.8033777 0.062103312
-1.0218301 -0.7035915 -0.6159902 0.34846315 -0.3739205 0.4807044 0.17385586 -0.4378543
0.4300008 -0.4667496 0.5869743 0.62613744 0.24839802 0.22832339 0.72990745 -0.53339
-0.06680706 0.29818076 0.40000418 -0.44646224 0.40614843 0.033214856 -0.5095217 -0.39861286
-0.47061235 -1.0453669 0.045379218 0.3119701 0.3179775 0.32735312 0.096677646 0.39123476
0.6675542 -0.36502784 -0.12601456 -0.13269047 -0.6867996 0.102103725 0.26479134 0.07620275
-0.5348481 -0.3516305 -0.25329316 -0.86455715 0.021305334 0.556413 -0.7339013 -0.23400016
0.15336508 -0.48213747 -0.84310526 -0.06945187 -0.5600795 0.34649563 0.21072972 -0.5147539
0.23247428 0.2549878 0.40431955 0.63270783 -0.39938524 -0.030978773 0.3118568 -0.031837493
0.2307883 -0.12933618 -0.13565604 0.49272063 -0.7487745 -0.28928274 -0.40525976 0.016013322
0.54378825 0.4420976 -0.053294823 0.064214304 -0.10828568 -0.44658232 -0.18812011 -0.85329145
0.048999593 -0.4469873 0.25276208 -0.13962771 0.45752224 -0.053749513 -0.19327095 -0.19254652
0.3723635 0.010615518 0.5703621 -0.72353023 -0.43851683 -0.43847144 -0.41372433 -0.38600728
-0.3387479 0.5132056 0.08721979 -0.59678996 -0.5738491 0.051597033 0.12893702 -0.09164628
0.5650628 -0.11039331 -0.19760409 0.61486894 -0.43151844 0.74978906 0.26714838 -0.07239068
-0.268887 -0.22318576 0.5059108 -0.47670552 0.6211605 0.007836236 -0.3216267 0.22957271
-0.56429386 0.012729885 -0.17441002 -1.0332727 0.39773044 -0.7852642 -0.27017283 -0.42641124
-0.1304708 0.12933144 0.7871686 -0.49682692 0.7179326 0.5764978 0.28177366 -0.2005668
-0.8533879 0.47355044 0.099425554 -0.21116157 0.5244812 -0.123189524 0.062850505 -0.42256188
-0.28356463 -0.626626 -0.7107913 -0.42258376 -0.3166108 0.25553277 -0.77680993 -0.561375
00000000: 9529 aebd 6d73 783e e012 d93e 8cf5 48bf
00000010: ab5c 35bf bc8c d73c 4eef 983e 89e1 063f
00000020: 7a43 f63e fd7f 8dbf d42f f23d d09c 1ebf
00000030: 8713 02bf 8621 313f fed6 cd3d f9ef 90be
00000040: 0904 0dbe 4e66 173f bf09 7c3e 1b9e b03e
00000050: b936 4d3e cc7b b3be b539 bd3e 00fb a8bd
00000060: 53e0 763e fe9a 34bf 0a2a 17bf 6a31 14be
00000070: 4df7 903e 6a99 dbbe 1d81 dcbe 45b2 083f
00000080: 99c1 82be a098 47bf 8b0a 25be 273a 8ebe
00000090: 5bdf d8be da0f 09bf 9607 06bf 0277 c7bd
000000a0: 7956 2bbe 60e7 973d 960a 45bf 8895 243f
000000b0: 5b9e 8d3e 9956 093d 1dd0 1d3e 6661 4d3f
000000c0: 1f14 ffbe 2ff9 21bd 87b5 023e aee5 fabe
000000d0: 3667 24bf 7370 29be a9ea 50bf a6c8 873e
000000e0: eb2b 0f3f aae5 b23e bdbd f9be 109b 8e3d
000000f0: 7f13 423e 8ee8 013f 7e3f edbe 0521 393f
00000100: 6503 213f 155a 913e 4b27 41bc e527 453e
00000110: 2637 f53e baaa 05bf 8ef7 adbe 7052 5fbe
00000120: d48d 93bf 4efd a23e 0947 b03d f3af ebbe
00000130: 5066 093f 368f 9bbe bd6a 0b3f 420c cebe
00000140: d8e2 353f ac6c 033f d878 80bf bc59 58be
00000150: b0c9 cc3e 298d a3bc f348 233f bc6f 34be
00000160: ae0d 27bf 628c dd3e 8ea4 7bbf 0583 10be
00000170: 773e 9e3e 5ea4 183e 3959 3bbe 4bd3 c33e
00000180: ccdf ba3e 79bf 01bf 44b0 353f 0195 2d3e
00000190: 61fb 873e 8358 a5be 29aa 4dbf 0b60 7e3d
000001a0: 54cb 82bf 931e 34bf 89b1 1dbf c369 b23e
000001b0: 8272 bfbe e31e f63e 4507 323e 702e e0be
000001c0: 1129 dc3e cef9 eebe f343 163f 8b4a 203f
000001d0: 0d5c 7e3e 9bcd 693e 37db 3a3f 3f8c 08bf
000001e0: 24d2 88bd 26ab 983e 59cd cc3e b396 e4be
000001f0: b0f2 cf3e 4d0c 083d 0470 02bf fc16 ccbe
00000200: 1af4 f0be 95ce 85bf 8fdf 393d 8cba 9f3e
00000210: f2cd a23e d49a a73e eefe c53d ec4f c83e
00000220: d5e4 2a3f eee4 babe f609 01be 03e0 07be
00000230: 19d2 2fbf c21b d13d bb92 873e 3010 9c3d
00000240: ceeb 08bf ea08 b4be a4af 81be 9e53 5dbf
00000250: 8688 ae3c 1571 0e3f f5e0 3bbf bd9d 6fbe
00000260: bc0b 1d3e b9da f6be bfd5 57bf c83c 8ebd
00000270: 5f61 0fbf e067 b13e 88c9 573e e9c6 03bf
00000280: bd0d 6e3e c38d 823e f902 cf3e 24f9 213f
00000290: 397c ccbe 32c7 fdbc b2ab 9f3e 0868 02bd
000002a0: c553 6c3e b470 04be 6be9 0abe e145 fc3e
000002b0: b0af 3fbf de1c 94be 357e cfbe 5f2e 833c
000002c0: b535 0b3f 9e5a e23e ac4b 5abd ca82 833d
000002d0: e2c4 ddbd 70a6 e4be 8fa2 40be 4f71 5abf
000002e0: ccb3 483d 85db e4be 086a 813e 91fa 0ebe
000002f0: 5b40 ea3e 7328 5cbd d2e8 45be ea2a 45be
00000300: 6ea6 be3e b6ec 2d3c 4003 123f 4739 39bf
00000310: 4785 e0be 547f e0be add3 d3be bfa2 c5be
00000320: 5d70 adbe 7161 033f 4aa0 b23d 3ac7 18bf
00000330: c6e7 12bf 6957 533d 1108 043e 0bb1 bbbd
00000340: f5a7 103f e315 e2bd ba58 4abe 0d68 1d3f
00000350: fcef dcbe 2df2 3f3f acc7 883e 9141 94bd
00000360: 8fab 89be cf8a 64be 5f83 013f bf12 f4be
00000370: 6004 1f3f 8e63 003c 41ac a4be 1c15 6b3e
00000380: 9075 10bf 0291 503c 8a98 32be 4842 84bf
00000390: 53a3 cb3e 1307 49bf 1854 8abe 9352 dabe
000003a0: 239a 05be 766f 043e e283 493f 1960 febe
000003b0: 6eca 373f 5c95 133f a344 903e 6261 4dbe
000003c0: a177 5abf 3475 f23e a09f cb3d bd3a 58be
000003d0: 6644 063f ca4a fcbd c4b7 803d 085a d8be
000003e0: 622f 91be 906a 20bf 6bf6 35bf e65c d8be
000003f0: d01a a2be 31d5 823e 04dd 46bf 46b6 0fbf

l2.weight f4 [256, 256]
0.2293825 0.17308834 -0.007869142 -0.1284912 0.14284383 -0.0062777563 -0.11079214 0.21482885
0.086033985 0.12992246 0.18572375 0.12632944 0.22877477 0.1500661 0.14312916 -0.11726932
-0.025937483 0.116399884 -0.05640957 0.09312329 0.02749294 0.26671264 0.026295625 0.15227744
0.03179744 0.11888098 -0.11419859 -0.004328294 0.12766245 0.12550236 -0.1229733 0.11246348
0.06125503 0.3259756 0.014227415 0.1297273 -0.006516351 -0.23747267 0.0013614871 -0.058672078
-0.13872595 0.026644934 0.1794544 0.08548397 0.042183954 0.04720458 0.12670659 0.15497412
0.034125246 -0.13121976 0.043455873 0.23207746 -0.032091517 0.006629161 -0.01741138 0.0062078526
0.09397071 0.109856986 -0.173193 -0.10016603 -0.24391082 0.13438243 0.1420925 0.13997838
0.17108484 0.15766111 -0.13420388 0.26033676 -0.015196576 -0.20506936 -0.048836455 0.21211669
-0.045141745 3.1593492e-05 0.0716763 -0.21390565 0.044106346 0.296329 0.08318108 0.11236404
0.057675183 -0.049607 0.35255376 -0.34934294 -0.012038571 0.09455656 0.30246237 0.12519844
0.13224155 0.10250858 -0.24785604 -0.07464768 -0.19828495 0.09436469 -0.106999815 -0.031886414
-0.021792928 0.030792799 0.21827294 0.090285376 0.063139044 0.02565896 0.11954381 -0.40281197
0.094117105 -0.11776616 0.15787658 0.0206216 -0.26115042 0.06978427 0.069258876 -0.123554386
0.07019318 0.17486532 0.13726419 0.1672392 -0.012445732 -0.0729451 0.09400167 -0.01985609
0.011203135 0.19092813 0.0026466134 -0.054276083 0.03346182 -0.256261 -0.45168224 0.10548951
-0.4667071 0.33015943 0.011824497 0.06443006 0.07280889 0.102860585 0.13895378 0.10728969
0.07597653 -0.08589759 -0.20056772 -0.09700132 0.23187643 -0.11492513 0.028228285 0.049239166
0.37126493 0.31487727 0.3095737 0.0052892575 0.15468481 -0.05351219 0.1330423 0.07218691
0.03999203 0.04300134 -0.14625786 -0.3293804 0.10781409 0.13351539 0.19019106 0.16790135
-0.06756554 0.027489295 -0.35801825 0.2729592 0.009472252 -0.15185809 -0.12503175 0.005960631
0.19412184 0.06473922 -0.0061026635 0.0059522507 0.20034206 -0.0054643755 -0.14045192 -0.21209526
0.10109405 0.16905592 -0.4272249 -0.096423656 -0.013147673 -0.28821307 -0.09463332 0.15406998
-0.14621527 0.26333284 0.12549928 0.021734843 0.09478788 0.30361152 0.11625307 -0.26940742
-0.14327002 0.024866555 0.0017092036 -0.09068588 -0.17603861 0.121920496 -0.11816819 -0.033239458
0.04557884 0.10049008 -0.08138247 -0.11131366 0.028566448 0.077128 0.18043408 0.06779407
-0.01745693 0.16287561 -0.019389443 0.10985532 -0.59466374 -0.0014874593 0.008897438 0.08028768
0.0117290225 0.09743007 0.015376065 0.009045892 0.03861468 0.09798425 0.020235188 -0.020119391
-0.03509944 -0.07193607 0.26782033 -0.3069166 -0.075945266 -0.5342254 0.039352175 0.18727781
-0.31188208 0.13523537 0.24690795 0.06105503 0.19526847 -0.05790771 0.06421989 -0.2024427
-0.008357782 0.16973653 -0.053096548 -0.33227837 0.08549572 0.20028755 0.2687036 0.49606782
0.25465026 0.22014219 -0.18135577 0.2405347 -0.08397989 -0.045310948 -0.14339384 0.119460896
00000000: 3fe3 6a3e 123e 313e 93ed 00bc 3293 03be
00000010: a745 123e a3b5 cdbb fde6 e2bd 18fc 5b3e
00000020: 9632 b03d 650a 053e 5e2e 3e3e 815c 013e
00000030: ef43 6a3e edaa 193e 7390 123e e62a f0bd
00000040: d87a d4bc 1063 ee3d b90d 67bd 6cb7 be3d
00000050: e038 e13c 8f8e 883e ec69 d73c 9eee 1b3e
00000060: 083e 023d df77 f33d f3e0 e9bd 5dd4 8dbb
00000070: f2b9 023e b183 003e 6dd9 fbbd 4153 e63d
00000080: 8ee6 7a3d 46e6 a63e 1b1a 693c 3cd7 043e
00000090: 1d87 d5bb 092c 73be ed73 b23a 2252 70bd
000000a0: 2d0e 0ebe 7a46 da3c e5c2 373e 3812 af3d
000000b0: 15c9 2c3d 9759 413d 5fbf 013e 89b1 1e3e
000000c0: eac6 0b3d 795e 06be c9fe 313d b7a5 6d3e
000000d0: 6572 03bd 6f39 d93b 4fa2 8ebc 3e6b cb3b
000000e0: b773 c03d b3fc e03d 8159 31be d923 cdbd
000000f0: c2c3 79be 8c9b 093e b280 113e 7e56 0f3e
00000100: dd30 2f3e ea71 213e be6c 09be dc4a 853e
00000110: 0ffb 78bc b4fd 51be bc08 48bd 1e35 593e
00000120: 8de6 38bd 4183 0438 06cb 923d 150a 5bbe
00000130: dba8 343d 6fb8 973e d85a aa3d 1e1f e63d
00000140: d03c 6c3d b630 4bbd ed81 b43e 14dd b2be
00000150: 6d3d 45bc dfa6 c13d 59dc 9a3e 0534 003e
00000160: 546a 073e 05f0 d13d f9cd 7dbe e2e0 98bd
00000170: 360b 4bbe 4642 c13d b822 dbbd 549b 02bd
00000180: 1587 b2bc 2e41 fc3c f182 5f3e 8ae7 b83d
00000190: 0b4f 813d bd32 d23c 63d3 f43d 5f3d cebe
000001a0: 78c0 c03d 622f f1bd 66aa 213e a1ee a83c
000001b0: 82b5 85be 0eeb 8e3d 99d7 8d3d 150a fdbd
000001c0: 71c1 8f3d e50f 333e fc8e 0c3e c140 2b3e
000001d0: 2fe9 4bbc 3e64 95bd f383 c03d 3da9 a2bc
000001e0: 5b8d 373c aa82 433e ce72 2d3b 9950 5ebd
000001f0: 430f 093d a434 83be e542 e7be e20a d83d
00000200: 3cf4 eebe a80a a93e 89bb 413c e8f3 833d
00000210: d41c 953d 92a8 d23d e649 0e3e b2ba db3d
00000220: 9599 9b3d 13eb afbd a061 4dbe a1a8 c6bd
00000230: 0471 6d3e de5d ebbd 013f e73c 02af 493d
00000240: 7016 be3e 9837 a13e 7280 9e3e 8251 ad3b
00000250: b265 1e3e 992f 5bbd 3e3c 083e bbd6 933d
00000260: afce 233d 2c22 303d 9fc4 15be 8ca4 a8be
00000270: a2cd dc3d 42b8 083e 72c1 423e 55ee 2b3e
00000280: cd5f 8abd 3b31 e13c 2b4e b7be 4fc1 8b3e
00000290: 8131 1b3c b080 1bbe 5308 00be 6651 c33b
000002a0: e0c7 463e ff95 843d daf8 c7bb 190b c33b
000002b0: 7826 4d3e 810e b3bb a1d2 0fbe 802f 59be
000002c0: 660a cf3d ff1c 2d3e 39bd dabe c479 c5bd
000002d0: 5669 57bc aa90 93be 1dcf c1bd 85c4 1d3e
000002e0: 75b9 15be 90d3 863e e282 003e 450d b23c
000002f0: 2620 c23d f872 9b3e 1716 ee3d c5ef 89be
00000300: 60b5 12be f2b4 cb3c 5b07 e03a 85b9 b9bd
00000310: 7743 34be 74b1 f93d 2a02 f2bd 1926 08bd
00000320: e1b0 3a3d becd cd3d daab a6bd 6bf8 e3bd
00000330: 2f04 ea3c 49f5 9d3d b6c3 383e 9ed7 8a3d
00000340: d601 8fbc ddc8 263e 9cd6 9ebc d3fb e03d
00000350: e23b 18bf daf6 c2ba 8fc6 113c de6d a43d
00000360: 162b 403c 6b89 c73d e4eb 7b3c 3935 143c
00000370: 6d2a 1e3d f7ab c83d 44c4 a53c 6cd1 a4bc
00000380: 6ec4 0fbd 3853 93bd bf1f 893e 2c24 9dbe
00000390: 3189 9bbd ffc2 08bf bf2f 213d c1c5 3f3e
000003a0: 02af 9fbe 247b 0a3e 70d5 7c3e d714 7a3d
000003b0: 75f4 473e a330 6dbd b885 833d 244d 4fbe
000003c0: 14ef 08bc 6acf 2d3e c47b 59bd 6420 aabe
000003d0: 6118 af3d 2e18 4d3e 8593 893e 9afc fd3e
000003e0: 8561 823e f46c 613e 54b5 39be ba4e 763e
000003f0: a6fd abbd f997 39bd d6d5 12be eaa7 f43d

l2.bias f4 [256]
0.676652 0.5477278 0.68952906 0.6011411 0.63680106 0.53340316 0.56990236 0.5644782
0.49385104 -0.06585331 0.7263184 0.70118463 -0.34903473 -0.04009378 0.60539997 -0.5302068
-0.17490542 -0.05369259 0.503187 -0.28775114 0.02028385 -0.37011293 0.007822028 -0.42128843
0.000625316 -0.044871725 -0.17903017 -0.67410463 -0.4083 0.69852024 0.6264633 0.7081334
-0.573497 -0.5212177 -0.45952117 -0.05478836 -0.6474042 0.614433 0.6079665 -0.25000253
0.59171885 -0.09843911 0.6833394 -0.03976773 0.53024983 0.5994282 0.51556104 0.53439456
-0.37656757 0.55907893 0.72906375 -0.25953838 -0.32228383 -0.06966108 0.6985038 0.6032462
0.52561706 -0.36117804 0.008132227 0.6014225 -0.3259137 -0.48918566 -0.36167938 0.71803206
-0.39360845 0.652691 -0.10872561 -0.41009656 -0.27135202 -0.38835046 -0.4787562 0.6684246
0.73418134 0.6905388 0.6491384 -0.44327894 0.66953003 -0.31226057 -0.45761463 0.69166183
-0.23507664 -0.4142374 0.66340315 0.67655313 0.5945665 0.6293788 0.51500034 0.7038945
0.56334513 0.66185313 -0.21330783 0.68599385 0.65042424 -0.2868804 -0.2453759 0.58278704
-0.5197073 -0.41490832 -0.24606879 0.62876743 -0.36918032 0.7584339 -0.37856448 -0.16150473
0.6691303 -0.033685137 0.6636591 -0.21401659 -0.30082712 -0.2513774 0.60159063 -0.0084827095
0.53666806 -0.26153368 0.7242467 -0.07061782 0.45685172 -0.38144922 -0.5123031 0.6500243
-0.21441987 -0.106486365 0.6419141 0.56038475 0.6402311 0.58582664 0.6152708 0.5458393
0.008761174 0.6117274 -0.42531568 -0.40353778 -0.32027224 0.6200139 0.6731311 0.62341964
-0.52951556 -0.42489097 0.61493486 -0.6104622 0.62187374 -0.3249899 0.6526645 -0.25657514
-0.32811084 -0.06853083 0.5980088 -0.37400082 0.7108134 0.5412213 -0.21609096 -0.27699074
0.6319484 0.6621817 0.2229129 -0.057575468 -0.30836657 0.5702749 0.51056457 0.5554988
0.6794934 0.5867529 -0.018016372 0.013653841 -0.32913652 -0.32562757 0.6225096 -0.44224346
0.692146 0.61336094 0.64362735 -0.1928802 -0.44993022 0.5770625 0.53607196 0.67984736
-0.5363172 0.61258185 0.69081426 -0.3311141 0.7070233 -0.4161465 0.7013234 0.6724183
-0.4737364 0.6530485 0.7174547 0.5442009 0.67159003 0.6145895 0.59845537 -0.36722654
-0.043444633 0.64363116 -0.45755678 0.6309262 0.67527467 -0.013051363 0.6548465 -0.24157019
0.5903591 -0.35803092 0.54327923 0.61353314 -0.37083468 0.7155141 -0.54642737 -0.35343283
-0.19205002 0.61693364 -0.19510421 0.6422114 0.7071022 0.5867827 -0.029593715 0.6251412
-0.41817802 0.72545713 0.6070584 -0.56232136 -0.23574187 0.69862944 -0.417257 -0.06134227
0.39228824 -0.16011259 0.5439685 0.6873513 0.2355087 -0.15169571 -0.59905005 -0.050885756
0.55420995 0.6199508 0.7020579 -0.25903022 -0.18083371 0.6875139 0.7054376 0.5980469
0.5973545 -0.48884752 0.6209348 0.5422159 0.6328321 0.56605893 0.6309539 0.33137462
-0.50303733 -0.47074783 0.6045857 0.59003735 -0.351351 0.5790047 -0.3237899 -0.4539375
00000000: 1139 2d3f e437 0c3f fa84 303f 62e4 193f
00000010: 6505 233f 1c8d 083f 1fe5 113f a581 103f
00000020: 0bda fc3e 1ade 86bd 01f0 393f d680 333f
00000030: aeb4 b2be 6039 24bd 7efb 1a3f a2bb 07bf
00000040: 681a 33be c3ec 5bbd ddd0 003f 1e54 93be
00000050: 512a a63c 717f bdbe f727 003c 1eb3 d7be
00000060: 3fec 233a 6acb 37bd af53 37be 1f92 2cbf
00000070: b30c d1be 39d2 323f e65f 203f 3b48 353f
00000080: b3d0 12bf 866e 05bf 5c46 ebbe c269 60bd
00000090: 48bc 25bf 7b4b 1d3f b1a3 1b3f 5500 80be
000000a0: e37a 173f 729a c9bd 55ef 2e3f 7de3 22bd
000000b0: 74be 073f 2074 193f cffb 033f 15ce 083f
000000c0: 77cd c0be cc1f 0f3f eca3 3a3f 37e2 84be
000000d0: 6302 a5be 78aa 8ebd 25d1 323f 586e 1a3f
000000e0: d78e 063f 54ec b8be 083d 053c d3f6 193f
000000f0: 29de a6be 8b76 fabe 0a2e b9be f3d0 373f
00000100: 0c87 c9be c216 273f 88ab debd 2df8 d1be
00000110: a7ee 8abe dfd5 c6be 881f f5be e01d 2b3f
00000120: 4ff3 3b3f 27c7 303f ef2d 263f 75f5 e2be
00000130: 5266 2b3f 9ee0 9fbe 774c eabe c010 313f
00000140: eeb7 70be ed16 d4be cad4 293f 9632 2d3f
00000150: 8335 183f f81e 213f 10d7 033f 6e32 343f
00000160: 6337 103f 356f 293f 5e6d 5abe 4b9d 2f3f
00000170: 3482 263f fde1 92be d243 7bbe 8831 153f
00000180: 8a0b 05bf dd6e d4be 75f9 7bbe e7f6 203f
00000190: 3405 bdbe b928 423f 34d3 c1be 7f61 25be
000001a0: 204c 2b3f 6df9 09bd 90e5 293f 2a27 5bbe
000001b0: 0306 9abe 8ab4 80be d801 1a3f 10fb 0abc
000001c0: 1463 093f bee7 85be 3b68 393f 13a0 90bd
000001d0: 78e8 e93e 504d c3be 4c26 03bf fe67 263f
000001e0: e290 5bbe 8615 dabd 7c54 243f 6075 0f3f
000001f0: 2fe6 233f bcf8 153f 6382 1d3f 20bc 0b3f
00000200: 078b 0f3c 2b9a 1c3f fac2 d9be 819c cebe
00000210: b9fa a3be 3bb9 1e3f 5252 2c3f 6e98 1f3f
00000220: 558e 07bf 4f8b d9be 5f6c 1d3f 4047 1cbf
00000230: 1e33 1f3f 1465 a6be 0515 273f d15d 83be
00000240: 25fe a7be e459 8cbd 1b17 193f 097d bfbe
00000250: def7 353f 7b8d 0a3f f346 5dbe bbd1 8dbe
00000260: 5fc7 213f bd84 293f 4743 643e 41d4 6bbd
00000270: 39e2 9dbe 89fd 113f 5cb4 023f 2b35 0e3f
00000280: 48f3 2d3f 7035 163f 1297 93bc 5cb4 5f3c
00000290: 9584 a8be a8b8 a6be ca5c 1f3f bc6d e2be
000002a0: 7b30 313f 3905 1d3f c3c4 243f 6382 45be
000002b0: 415d e6be 5eba 133f 033c 093f 7a0a 2e3f
000002c0: 164c 09bf 2ad2 1c3f 34d9 303f ca87 a9be
000002d0: 7bff 343f 2711 d5be ee89 333f 9b23 2c3f
000002e0: 948d f2be 302e 273f 1cab 373f c050 0b3f
000002f0: 53ed 2b3f bd55 1d3f 5f34 193f 1e05 bcbe
00000300: 00f3 31bd 03c5 243f e244 eabe 6184 213f
00000310: cdde 2c3f 62d5 55bc 05a4 273f 2d5e 77be
00000320: c621 173f d44f b7be 5914 0b3f 8210 1d3f
00000330: 0bde bdbe ef2b 373f aae2 0bbf 26f5 b4be
00000340: c3a8 44be 5def 1d3f 66c9 47be f767 243f
00000350: a604 353f 6437 163f 856e f2bc 4109 203f
00000360: 6e1b d6be 8fb7 393f 2e68 1b3f 4bf4 0fbf
00000370: 5166 71be 61d9 323f b6a2 d5be 0842 7bbd
00000380: 01da c83e 8ef4 23be 8541 0b3f 41f6 2f3f
00000390: 3129 713e 1f56 1bbe 585b 19bf 956d 50bd
000003a0: b4e0 0d3f 18b5 1e3f 11ba 333f 9c9f 84be
000003b0: 792c 39be e900 303f 8f97 343f 9a19 193f
000003c0: 39ec 183f 394a fabe 95f5 1e3f a9ce 0a3f
000003d0: 4901 223f 3de9 103f 3286 213f efa9 a93e
000003e0: 0ec7 00bf dc05 f1be 21c6 1a3f b00c 173f
000003f0: 47e4 b3be a739 143f cac7 a5be 7f6a e8be

l3.weight f4 [1, 256]
0.15859255 0.16326517 0.2274309 0.2676361 0.13663374 0.2757784 0.28404272 0.24860118
0.3015821 -0.80699694 0.29973423 0.29413337 -0.8340006 -0.97840047 0.24414377 -0.6759459
-0.46934924 0.02537837 0.435777 -0.8830901 -0.02020463 -0.6828906 0.00901475 -0.66245073
-0.00211011 -0.73790455 -0.921751 -0.8209921 -1.7013619 0.219503 0.21739951 0.19182855
-0.5818914 -1.1033443 -0.7371618 -1.7520379 -0.633567 0.6688865 0.14012654 -1.5764217
0.19543941 -1.161136 0.08584026 -2.0982172 0.3397619 0.06025284 0.32849038 0.19753504
-0.9743921 0.122480676 0.2815212 -0.8952534 -0.6998492 -1.5560161 0.1386589 0.30421725
0.2433786 -1.0418956 -0.011361189 0.22468978 -0.32436043 -0.4371172 -0.33752832 0.2096971
-0.9627629 0.13198213 -0.7429184 -1.0215133 -1.1574697 -1.1171638 -0.49383703 0.14069387
0.1739152 0.1572816 0.32462433 -1.0408897 0.22684366 -1.0358492 -0.7657837 0.35765094
-0.6947411 -1.181092 0.19132791 0.29645097 0.14760564 0.35064018 0.20569713 0.3663519
0.2206615 0.18895152 -1.5736264 0.2578006 0.35391596 -1.0863887 -1.5004296 0.12513103
-0.9592571 -0.41618723 -0.71907455 0.26711807 -0.30221212 0.31365588 -1.3195546 -0.8573945
0.29808578 -0.9346928 0.15492682 -0.59876597 -1.015947 -0.86295056 0.36557508 0.008500616
0.28715885 -0.6946272 0.18395877 -1.0929856 0.7869001 -1.2743052 -1.0635221 0.26367164
-0.5559467 -0.44104683 0.4659493 0.11704361 0.2029718 0.3994969 0.26817942 0.245824
-0.65505224 0.11569224 -0.8902348 -0.65715814 -0.6125717 0.20950468 0.18321554 0.14317247
-0.80292153 -0.804268 0.0950083 -0.79787636 0.21856846 -0.5629626 0.3089297 -1.5678757
-0.4718299 -1.3981603 0.2688506 -1.6007202 0.1880863 0.26515818 -0.7442908 -1.139846
0.3023706 0.30886737 1.4455528 -0.047547463 -0.62721246 0.3966147 0.47503787 0.3118586
0.5075208 0.09651417 -0.030510249 -1.0516465 -0.559658 -0.43740636 0.10584725 -0.5163099
0.21695083 0.53718483 0.22606274 -0.56083935 -0.9865888 0.41992572 0.31819052 0.22380067
-1.0968778 0.27638584 0.20617463 -1.0756931 0.20875967 -0.7741415 0.5701716 0.27989516
-0.5302743 0.24863695 0.18711069 0.17475043 0.17298613 0.16419154 0.2550353 -0.57137734
-0.84372205 0.17305773 -0.84450364 0.15103768 0.25606892 -0.022904383 0.22782682 -0.9278161
0.42969805 -0.32467264 0.34360984 0.31333697 -0.8355421 0.20640554 -0.9219586 -0.42650154
-1.2147201 0.10218937 -0.63573617 0.16108307 0.20175315 0.31914178 0.020201782 0.23282757
-1.0512266 0.22225377 0.44419175 -0.8801116 -1.1489347 0.1723481 -0.8211237 -1.2054851
0.68514156 -0.8331469 0.31454352 0.15614931 1.1345404 -3.2639372 -0.7985017 -1.0311531
0.27149943 0.18310353 0.18076181 -0.844141 -0.5684769 0.22439104 0.24774033 0.19968636
0.08481325 -0.7766109 0.16915503 0.2641927 0.20251217 0.12133416 0.16485468 0.65498996
-1.2430726 -0.5004976 0.24508859 0.38538355 -0.5752973 0.20528433 -0.88576764 -0.53280544
00000000: 1666 223e fc2e 273e a5e3 683e 9907 893e
00000010: b7e9 0b3e d432 8d3e 0c6e 913e 4f91 7e3e
00000020: f868 9a3e 5a97 4ebf c476 993e a698 963e
00000030: 1081 55bf 7478 7abf d300 7a3e ca0a 2dbf
00000040: 8b4e f0be 4de6 cf3c 2a1e df3e 3112 62bf
00000050: 2e84 a5bc ebd1 2ebf 9ab2 133c 5f96 29bf
00000060: c549 0abb 50e7 3cbf e0f7 6bbf 8a2c 52bf
00000070: 3ac6 d9bf 65c5 603e fa9d 5e3e b46e 443e
00000080: d6f6 14bf 633a 8dbf a3b6 3cbf c742 e0bf
00000090: 7231 22bf 253c 2b3f 557d 0f3e 30c8 c9bf
000000a0: 4521 483e 1ba0 94bf 05cd af3d 3149 06c0
000000b0: 46f5 ad3e afcb 763d e42f a83e a046 4a3e
000000c0: c371 79bf 26d7 fa3d 8c23 903e 542f 65bf
000000d0: 5129 33bf 892b c7bf 99fc 0d3e 5dc2 9b3e
000000e0: 3d38 793e d65c 85bf 4824 3abc 1415 663e
000000f0: 9212 a6be d3cd dfbe 83d0 acbe d6ba 563e
00000100: a177 76bf 5326 073e e62f 3ebf f3c0 82bf
00000110: f827 94bf 39ff 8ebf 35d8 fcbe 0e12 103e
00000120: d416 323e 6e0e 213e 2935 a63e e03b 85bf
00000130: b449 683e b596 84bf 670a 44bf 061e b73e
00000140: 8dda 31bf 062e 97bf 77eb 433e 6cc8 973e
00000150: ef25 173e 1c87 b33e 45a2 523e 7a92 bb3e
00000160: 17f5 613e 827c 413e 976c c9bf 71fe 833e
00000170: 7934 b53e c90e 8bbf 140e c0bf 5922 003e
00000180: e091 75bf 7e16 d5be 4515 38bf b3c3 883e
00000190: 8cbb 9abe 8197 a03e 2ae7 a8bf 357e 5bbf
000001a0: b39e 983e 0748 6fbf 23a5 1e3e ba48 19bf
000001b0: 8d0a 82bf 54ea 5cbf a82c bb3e 2b46 0b3c
000001c0: 7c06 933e 17d3 31bf b05f 3c3e f4e6 8bbf
000001d0: 4972 493f 6f1c a3bf 7e21 88bf f8ff 863e
000001e0: 8652 0ebf e4d0 e1be e890 ee3e 8fb4 ef3d
000001f0: d7d7 4f3e dc8a cc3e d04e 893e 49b9 7b3e
00000200: 81b1 27bf 0ef0 ec3d 6ee6 63bf 843b 28bf
00000210: 80d1 1cbf 6588 563e db9c 3b3e ce9b 123e
00000220: 448c 4dbf 82e4 4dbf b693 c23d a041 4cbf
00000230: 69d0 5f3e 511e 10bf 092c 9e3e 27b0 c8bf
00000240: b093 f1be ebf6 b2bf c9a6 893e 66e4 ccbf
00000250: b299 403e d0c2 873e d889 3ebf 79e6 91bf
00000260: 52d0 9a3e dd23 9e3e e007 b93f 21c1 42bd
00000270: ff90 20bf 1511 cb3e 2a38 f33e eeab 9f3e
00000280: e2ec 013f 39a9 c53d a1f0 f9bc 5a9c 86bf
00000290: bf45 0fbf baf3 dfbe 71c6 d83d e32c 04bf
000002a0: 5c28 5e3e f284 093f fe7c 673e 2b93 0fbf
000002b0: 1591 7cbf 8100 d73e dee9 a23e 012c 653e
000002c0: 7e66 8cbf 7282 8d3e 711f 533e 50b0 89bf
000002d0: 18c5 553e 232e 46bf c4f6 113f 6b4e 8f3e
000002e0: 0ec0 07bf af9a 7e3e f299 3f3e c7f1 323e
000002f0: 4723 313e d421 283e fd93 823e c945 12bf
00000300: 2bfe 57bf 0c36 313e 6431 58bf 9fa9 1a3e
00000310: 771b 833e f9a1 bbbc 6f4b 693e 5b85 6dbf
00000320: 6201 dc3e 7e3b a6be a1ed af3e b46d a03e
00000330: 16e6 55bf f95b 533e 7b05 6cbf 695e dabe
00000340: f37b 9bbf a948 d13d 9bbf 22bf f6f2 243e
00000350: 6198 4e3e 8d66 a33e 357e a53c 5a6a 6e3e
00000360: 988e 86bf 7e96 633e 1a6d e33e fe4e 61bf
00000370: 4b10 93bf 057c 303e 2a35 52bf 564d 9abf
00000380: 7065 2f3f 1e49 55bf d90b a13e 9be5 1f3e
00000390: 9f38 913f 59e4 50c0 9b6a 4cbf d3fc 83bf
000003a0: f901 8b3e 7e7f 3b3e a019 393e a019 58bf
000003b0: b487 11bf c4c6 653e a4af 7d3e 957a 4c3e
000003c0: 92b2 ad3d f9cf 46bf fa36 2d3e 4444 873e
000003d0: 5a5f 4f3e 0b7e f83d aacf 283e 6cad 273f
000003e0: 011d 9fbf 9c20 00bf 81f8 7a3e fe50 c53e
000003f0: af46 13bf 0e36 523e abc1 62bf f065 08bf

l4.weight f4 [256, 32]
-0.025209311 -0.008412047 0.36215326 0.057780568 -0.14720772 0.008330776 -0.27206275 0.1968537
0.060364064 -0.04047613 -0.44796667 -0.3150305 -0.4166351 -0.36537093 -0.49366277 -0.10113417
-0.3689514 -0.050646134 -0.14376476 0.12305646 -0.046076007 0.05727177 0.022269178 0.30255523
-0.32638398 -0.42667428 0.1749792 -0.3370357 -0.07493873 -0.12628902 -0.1768406 0.038414948
0.44996893 -0.1213669 -0.048374545 0.12593748 0.02715829 -0.10699627 0.19720069 0.47610062
0.20917818 -0.19259499 0.18140386 -0.19078982 -0.19868684 -0.08786744 0.32142237 0.28574744
-0.03618435 0.10193694 -0.44937676 -0.9051713 -0.06787826 -0.3511421 -0.24861929 0.12850182
0.08502428 0.0819665 0.10001124 -0.11028935 -0.05145229 0.06315598 0.4588212 -0.5503927
-0.2663046 -0.021483723 -0.015962658 0.28404957 0.17334402 -0.03196057 -0.1942886 -0.25464967
-0.22617236 -0.061373897 -0.071212426 -0.18060401 -0.2862101 -0.17025702 0.039988417 0.28337035
0.3366388 0.037231028 0.7117608 -0.2008475 -0.26492366 -0.1332647 -0.2813102 -0.17198841
-0.12037167 0.18923956 0.13149844 0.1566521 0.25314847 0.084491 0.52397346 0.017845908
-0.04160789 -0.03137852 0.13604443 -0.44988272 0.14390963 -0.1602318 -0.10131053 -0.42565683
-0.024663467 0.35373703 -0.43423548 0.19062139 0.6769924 0.029374802 0.086234175 -0.107699886
0.16922472 0.06961869 -0.1344209 -0.1942149 0.03228263 -0.02071921 0.0009921085 0.048927084
0.023535598 0.008588785 -0.16615379 0.25941634 0.019029852 -0.13458985 0.2878025 -0.06728064
-0.66637677 -0.17404358 0.103947386 -0.13051467 0.17595829 -0.14784 -0.15935336 0.22106017
0.2807586 0.1537347 0.34125167 0.085465595 0.29117793 0.22098136 0.10135208 -0.022705322
0.1048042 0.079246834 0.27514273 0.013747464 -0.0548084 -0.029656002 -0.070988 0.060099456
-0.06330381 -0.07134298 0.03548629 0.065407775 0.3288369 -0.006722739 -0.035465788 -0.08670238
0.09105352 0.023167215 0.14067654 -0.20142935 0.09808056 -0.033449866 0.19716778 -0.05839798
-0.26638487 -0.18762952 0.23760368 -0.10354077 -0.051916976 0.051542692 -0.04195563 -0.023234207
-0.085807614 -0.014168066 0.049137864 -0.018292816 0.18751957 -0.001065066 -0.1565864 -0.26030132
-0.12804197 0.067177154 -0.10453152 -0.117261656 0.08691736 -0.048817217 0.005437204 -0.03281708
0.41765335 -0.033836775 -0.28407156 -0.2100898 -0.007906664 -0.08268903 0.033915903 0.35616305
0.23999344 0.11121184 0.106343016 0.079192236 0.24954346 0.053936545 1.2122104 0.054893274
-0.029595334 -0.119357444 -0.7455914 -0.35416237 0.048594944 -0.19760957 0.033874653 -0.11924908
-0.24895479 -0.040304385 -0.15415074 0.10123098 -0.018043663 -0.1253953 0.01311391 -0.085330926
-0.13289513 0.048559047 0.021328792 -0.21761742 0.15668015 0.13520695 -0.13305338 -0.38701782
0.0293138 0.11332746 0.26538476 0.14686956 0.51108575 0.13060321 -0.052504655 0.34267536
0.31548354 -0.13550228 -0.021680988 -0.2049133 0.053238727 -0.036801193 -0.032509916 -0.06151581
0.03324815 -0.24044836 -0.0137968175 -0.17325471 -0.036328897 0.44233346 -0.36037862 -0.10901323
00000000: c283 cebc afd2 09bc 276c b93e 51ab 6c3d
00000010: 9fbd 16be cf7d 083c cf4b 8bbe 0494 493e
00000020: 4f40 773d 4cca 25bd e35b e5be ad4b a1be
00000030: 3251 d5be e611 bbbe 5ec1 fcbe 6f1f cfbd
00000040: 33e7 bcbe 5272 4fbd 1237 13be 0605 fc3d
00000050: 32ba 3cbd ce95 6a3d da6d b63c 85e8 9a3e
00000060: cd1b a7be 0d75 dabe bf2d 333e f18f acbe
00000070: 7a79 99bd e951 01be b415 35be fe58 1d3d
00000080: 5462 e63e 368f f8bd 6324 46bd c1f5 003e
00000090: 107b de3c dc20 dbbd faee 493e 76c3 f33e
000000a0: ce32 563e 9f37 45be efc1 393e 685e 43be
000000b0: 9074 4bbe d8f3 b3bd 7991 a43e 7d4d 923e
000000c0: 0a36 14bd 50c4 d03d b614 e6be 4eb9 67bf
000000d0: c203 8bbd e6c8 b3be 0e96 7ebe fb95 033e
000000e0: 3621 ae3d 0dde a73d b1d2 cc3d 62df e1bd
000000f0: a3bf 52bd ec57 813d 9dea ea3e 89e6 0cbf
00000100: 1459 88be a2fe afbc 1fc4 82bc f26e 913e
00000110: 1881 313e 16e9 02bd 97f3 46be 7161 82be
00000120: ba99 67be 3263 7bbd d2d7 91bd 42f0 38be
00000130: 218a 92be db57 2ebe e5ca 233d eb15 913e
00000140: ec5b ac3e 907f 183d f535 363f f8aa 4dbe
00000150: 13a4 87be 8b76 08be e407 90be bb1d 30be
00000160: 6c85 f6bd 04c8 413e 87a7 063e 6869 203e
00000170: ad9c 813e 9e09 ad3d 2023 063f 9531 923c
00000180: 096d 2abd c386 00bd 3b4f 0b3e 0757 e6be
00000190: 0c5d 133e ce13 24be e57b cfbd b1ef d9be
000001a0: 0a0b cabc 051d b53e 1d54 debe 4132 433e
000001b0: 604f 2d3f 6da3 f03c 8b9b b03d c291 dcbd
000001c0: 3f49 2d3e 3e94 8e3d a2a5 09be 45e0 46be
000001d0: cb3a 043d 55bb a9bc a309 823a c467 483d
000001e0: bacd c03c fab7 0c3c 3824 2abe 38d2 843e
000001f0: 7ee4 9b3c ecd1 09be d95a 933e 6fca 89bd
00000200: ab97 2abf 7b38 32be 5ee2 d43d a3a5 05be
00000210: 692e 343e 5e63 17be 872d 23be 995d 623e
00000220: 97bf 8f3e a16c 1d3e 8ab8 ae3e 9608 af3d
00000230: 4615 953e f048 623e ae91 cf3d 8300 babc
00000240: 96a3 d63d 2a4c a23d 82df 8c3e 0b3d 613c
00000250: c67e 60bd 25f1 f2bc 2862 91bd d92a 763d
00000260: 6ea5 81bd 451c 92bd 125a 113d 83f4 853d
00000270: 4f5d a83e 6c4a dcbb 9344 11bd 0491 b1bd
00000280: 457a ba3d 2cc9 bd3c 830d 103e 7f43 4ebe
00000290: 76de c83d ba02 09bd 5ae6 493e b832 6fbd
000002a0: 9963 88be f421 40be 614e 733e 2f0d d4bd
000002b0: e5a6 54bd 6e1e 533d abd9 2bbd aa55 bebc
000002c0: e7bb afbd 2d21 68bc c944 493d d1da 95bc
000002d0: 2105 403e af99 8bba 2f58 20be 3746 85be
000002e0: 6f1d 03be 2d94 893d 9f14 d6bd e126 f0bd
000002f0: bb01 b23d 90f4 47bd 932a b23b 346b 06bd
00000300: a9d6 d53e 6e98 0abd d471 91be c821 57be
00000310: f48a 01bc de58 a9bd 67eb 0a3d 015b b63e
00000320: d7c0 753e 08c3 e33d 5eca d93d 8a2f a23d
00000330: 5288 7f3e 91ec 5c3d b629 9b3f c5d7 603d
00000340: ea71 f2bc ad71 f4bd 14df 3ebf c554 b5be
00000350: 7e0b 473d 2a5a 4abe 26c0 0a3d dd38 f4bd
00000360: 01ee 7ebe 3616 25bd b1d9 1dbe 3052 cf3d
00000370: 4ed0 93bc a067 00be badb 563c fbc1 aebd
00000380: a915 08be dae5 463d b8b9 ae3c 1ad7 5ebe
00000390: c370 203e b173 0a3e 253f 08be 3327 c6be
000003a0: 7f23 f03c 3a18 e83d 83e0 873e f964 163e
000003b0: 84d6 023f d9bc 053e 1f0f 57bd 2573 af3e
000003c0: 0f87 a13e 1cc1 0abe 549c b1bc cbd4 51be
000003d0: da10 5a3d d9bc 16bd 1e29 05bd 01f8 7bbd
000003e0: 362f 083d 1838 76be 0c0c 62bc af69 31be
000003f0: 9ccd 14bd 8879 e23e 8c83 b8be 5442 dfbd

l4.bias f4 [256]
0.28056726 -0.34936634 -0.3814071 -0.8748278 -0.1211964 0.8005823 0.041009784 -0.5026106
-0.054323204 -0.17781518 0.47709838 -0.5948572 0.74373144 -0.67998797 -0.50707614 0.39790207
0.6001968 -0.7220961 -0.5996839 0.42642486 -0.48913902 0.61523855 -0.38135797 0.69013035
-0.5158821 0.21509343 0.22093835 0.4529462 0.39782324 -0.6758332 -0.96263283 -0.30845302
-0.3887933 -0.7887024 -0.6481559 -0.3277328 0.05213301 0.656596 -0.61808467 0.358353
0.5535318 0.44424674 0.0037026117 -0.57148165 -0.15594476 -0.57574475 -0.30390474 0.15539277
-0.080616154 0.3476757 0.54027444 0.024729759 -0.6218779 0.4393262 0.34613404 -0.95196277
0.5014366 0.4952577 0.3186002 -0.3353522 -0.21241954 -0.42730528 -0.5232585 0.48071176
0.113225214 0.40012395 -0.0065647895 0.15675768 0.40227523 -0.42279136 0.2670918 0.18102227
0.072449125 -0.06850198 -0.1382757 -0.8731693 0.4167851 -0.31989095 -0.61887014 -0.039914187
0.5606235 -0.9725587 0.1462997 0.46641022 0.07307866 0.41893065 -0.7313451 -0.35298407
-0.21277325 0.3286994 -0.34175563 -0.53144485 0.14810677 0.20570552 0.25634667 0.19486773
-0.48626065 -0.78983486 -0.1918669 -0.6513701 -0.050978176 -0.72394687 -0.44087264 0.48570123
0.5418061 0.51163393 0.5990324 -0.5004259 0.2242681 -0.18041453 -0.056915365 0.5849892
0.16978507 -0.078701824 -0.15638669 0.020372616 0.4362388 0.4814484 -0.7847307 0.08416709
-0.9150138 -0.23685886 -0.4144057 0.48172152 0.031732455 0.6710566 -0.13776733 -0.08874654
-0.7987426 -0.22163367 -0.2867449 0.4566308 -0.36693946 -0.1787885 0.15308037 -0.4651617
-1.4819012 -1.2457494 0.6131928 0.3996146 -0.022020247 -0.38034114 0.24924122 0.53748894
0.50549734 -0.06646011 0.4268357 -0.07493071 0.42285177 0.7129166 0.40809914 -1.2417926
0.3913271 -0.5447078 -0.35335615 -1.0035008 -0.25438565 0.2795774 -0.27948055 -0.65830415
0.23503229 0.5981994 -0.37039503 0.27463666 -0.57650506 -0.57539266 0.415531 0.51575017
0.3850582 -0.5710733 0.56688046 -0.55153435 0.5036501 0.2267999 -0.327216 0.5639949
-0.1312782 0.34235683 0.23756486 -0.29564008 -0.4208453 0.50448 0.11328468 0.21188809
-0.25089115 -0.48097607 0.34700805 -0.72905284 -0.18987475 -0.33833328 0.18141407 -0.25440857
0.7569288 -0.29812005 -0.6071486 0.31955895 0.45165443 -0.05535873 -0.4991444 0.36808255
-0.008541379 0.3729753 0.61482394 0.3501057 0.25284067 -0.46513098 -0.62468284 0.20097327
-0.8567407 -0.05683004 -0.4892835 -0.27155668 0.38511315 -0.21660843 -1.2479275 -0.7359559
0.21730378 -0.102328315 -0.597468 0.4888913 0.56921905 -1.0436548 -0.4821141 -0.19153735
-0.6184101 -0.39574602 -0.54943526 0.40278918 0.68199456 -0.68107796 0.5455043 -0.038107514
0.10001385 0.5315446 -0.1635327 -0.12609458 -0.15121947 -0.13977551 -0.22717221 0.53632396
0.51779085 -0.4075273 -0.42755154 0.66742265 -0.3201119 -0.18444425 -0.24371251 -0.46406358
-0.056085084 -0.33316842 -0.5618282 0.5033503 -0.6366462 0.51413274 0.10367827 0.5165104
00000000: 83a6 8f3e 25e0 b2be cb47 c3be b7f4 5fbf
00000010: d135 f8bd f6f2 4c3f e0f9 273d 17ab 00bf
00000020: 0282 5ebd 2f15 36be 3d46 f43e 9048 18bf
00000030: 2f65 3e3f b113 2ebf becf 01bf d2b9 cb3e
00000040: 7fa6 193f 4adb 38bf e284 19bf 5c54 da3e
00000050: 6e70 fabe 4680 1d3f 5a41 c3be 62ac 303f
00000060: d910 04bf 7441 5c3e aa3d 623e 90e8 e73e
00000070: 7daf cb3e 6803 2dbf 1b6f 76bf 8eed 9dbe
00000080: ea0f c7be 67e8 49bf 8ced 25bf 98cc a7be
00000090: 6c89 553d ad16 283f cc3a 1ebf 0b7a b73e
000000a0: 43b4 0d3f 4f74 e33e 84a7 723b 9f4c 12bf
000000b0: fcaf 1fbe 0264 13bf 6799 9bbe 481f 1f3e
000000c0: 151a a5bd 8d02 b23e 6d4f 0a3f 1096 ca3c
000000d0: 6433 1fbf 5def e03e 7b38 b13e d5b3 73bf
000000e0: 265e 003f 6b92 fd3e 911f a33e 49b3 abbe
000000f0: 8284 59be c2c7 dabe 45f4 05bf da1f f63e
00000100: 9fe2 e73d 0cdd cc3e 721d d7bb 1685 203e
00000110: 05f7 cd3e 1c78 d8be 42c0 883e e75d 393e
00000120: 3560 943d c44a 8cbd 2598 0dbe 0688 5fbf
00000130: db64 d53e bfc8 a3be 466e 1ebf 0f7d 23bd
00000140: 0685 0f3f 9bf9 78bf 97cf 153e 52cd ee3e
00000150: 44aa 953d 147e d63e 6f39 3bbf 54ba b4be
00000160: 3be1 59be 4a4b a83e 98fa aebe c50c 08bf
00000170: 4da9 173e 78a4 523e df3f 833e 688b 473e
00000180: 28f7 f8be 9e32 4abf c278 44be 31c0 26bf
00000190: 7ece 50bd 9554 39bf 0fba e1be d5ad f83e
000001a0: ceb3 0a3f 71fa 023f 305a 193f e91b 00bf
000001b0: 89a6 653e 96be 38be 1620 69bd dac1 153f
000001c0: 23dc 2d3e 6c2e a1bd d523 20be 79e4 a63c
000001d0: b15a df3e 6880 f63e 1ce4 48bf cc5f ac3d
000001e0: 583e 6abf 218b 72be fc2c d4be 34a4 f63e
000001f0: e4f9 013d 5eca 2b3f e112 0dbe bfc0 b5bd
00000200: 657a 4cbf f0f3 62be 3ad0 92be 83cb e93e
00000210: 7ddf bbbe 5514 37be 1ac1 1c3e ad29 eebe
00000220: f0ae bdbf b774 9fbf 34fa 1c3f 499a cc3e
00000230: ce63 b4bc 13bc c2be 1739 7f3e e098 093f
00000240: 4668 013f 3d1c 88bd 358a da3e 4675 99bd
00000250: 0780 d83e b481 363f 5ff2 d03e 0ff3 9ebf
00000260: 075c c83e f871 0bbf 19eb b4be b772 80bf
00000270: d63e 82be c524 8f3e 1318 8fbe 9f86 28bf
00000280: 4eac 703e 9923 193f 6ba4 bdbe 2d9d 8c3e
00000290: d695 13bf ef4c 13bf 7bc0 d43e 3408 043f
000002a0: 5926 c53e dc31 12bf 141f 113f 5b31 0dbf
000002b0: 37ef 003f 3c3e 683e db88 a7be f861 103f
000002c0: cb6d 06be 6549 af3e 3444 733e 235e 97be
000002d0: 0979 d7be 9a25 013f cc01 e83d 31f9 583e
000002e0: ce74 80be 7f42 f6be 0aab b13e 35a3 3abf
000002f0: 876e 42be 053a adbe 9cc4 393e d741 82be
00000300: 16c6 413f 31a3 98be 176e 1bbf 3b9d a33e
00000310: 403f e73e d6bf 62bd db8f ffbe 5175 bc3e
00000320: 24f1 0bbc 9ef6 be3e 1a65 1d3f 0e41 b33e
00000330: 5574 813e a625 eebe 37eb 1fbf f0cb 4d3e
00000340: 5c53 5bbf 9ec6 68bd 5e83 fabe 7a09 8bbe
00000350: 8d2d c53e 9ace 5dbe 17bc 9fbf 9b67 3cbf
00000360: e284 5e3e 8291 d1bd aaf3 18bf f64f fa3e
00000370: 57b8 113f 7b96 85bf a9d7 f6be 5e22 44be
00000380: 2050 1ebf 399f cabe caa7 0cbf 623a ce3e
00000390: 3297 2e3f 205b 2ebf 2ba6 0b3f a016 1cbd
000003a0: 10d4 cc3d 4f13 083f 1e75 27be f01e 01be
000003b0: 47d9 1abe 5021 0fbe d59f 68be 874c 093f
000003c0: f18d 043f 6ba7 d0be 09e8 dabe 36dc 2a3f
000003d0: b5e5 a3be f4de 3cbe c68f 79be be99 edbe
000003e0: 79b9 65bd 0d95 aabe f9d3 0fbf 91db 003f
000003f0: 3ffb 22bf 349e 033f 4655 d43d 073a 043f

l5.weight f4 [256, 256]
0.050835364 -0.04500552 0.028280925 -0.17688511 -0.22019202 0.13803412 0.16680035 0.042140882
0.07344525 -0.24886194 0.1273732 -0.23064633 0.017818663 -0.3949338 0.4049114 -0.19215487
0.18523692 0.1307182 0.09456822 0.052824233 -0.19804524 0.13105512 -0.011101037 0.14469603
-0.076480575 0.22753283 0.09661316 0.20266876 0.0647451 -0.13643631 -0.736426 0.07418204
0.19464839 0.19455113 0.10288711 0.11210619 -0.13182017 0.24868008 0.05388901 -0.06329077
0.19128479 0.15683632 0.12831503 0.2388248 -0.16915996 0.286541 0.1214092 0.07428876
-0.113813244 -0.008202592 0.1726555 0.12443139 -0.14745484 -0.17936806 0.18103476 0.077812426
0.05840805 0.042244263 0.14428252 -0.16550492 0.13975863 0.22156307 0.37002304 0.14536537
-0.06839071 -0.053335484 0.13951206 0.09320819 -0.1533809 0.09710783 -0.15632223 -0.05196823
0.03659048 -0.003455246 0.037044715 -0.3750926 0.26591584 -0.40493265 -0.14171903 0.027570838
0.017831223 -0.03525971 0.039530307 0.020850472 0.29564798 0.1968461 -0.05681173 0.03345776
-0.013844789 0.041736204 -0.2538241 0.02960431 0.15383579 0.016761208 -0.24285804 -0.04885134
0.2130039 -0.16109551 0.1809091 -0.15272999 -0.04610221 -0.23131545 -0.08552837 0.0026586347
0.22953366 0.09318368 0.04324918 -0.0821214 0.0039044989 -0.27143815 -0.28257465 0.11661038
-0.06386947 -0.18121481 -0.04503819 0.0027881323 -0.057957526 0.13902843 0.009882282 -0.03365207
-0.14474745 -0.04882407 0.09360098 0.06172606 -0.00804231 0.17388295 0.08696224 0.00987062
-0.029470783 0.28438178 0.21036422 0.050911237 0.049321268 0.030042179 0.15770243 -0.12338465
-0.34543368 0.21762647 0.06956726 0.09702996 0.053586867 -0.18019618 -0.041302342 0.06184891
-0.14869814 -0.09507766 0.061953712 0.10076051 -0.023698812 0.20970438 -0.058946483 0.1820701
0.015512713 -0.39671832 -0.052625477 0.09586982 0.05632639 0.006486183 -0.20353658 0.10464568
0.06340106 0.11132891 -0.18313478 0.18492858 -0.010377295 0.094777845 0.16070777 0.08537952
0.24958736 -0.47395685 0.08415679 -0.08466418 -0.038808845 0.050805785 0.09291568 0.1282732
0.11034386 0.13618506 0.04110574 0.09567232 0.067637436 0.029192183 0.07574881 0.23829532
0.07463808 -0.0034055319 0.1195626 -0.5609282 -0.08923407 0.35900503 0.056919158 -0.41025957
0.10480583 -0.004041052 -0.14305586 0.084098846 0.06426521 0.15727316 -0.1105022 0.16727959
0.118111685 -0.095742814 0.04550398 -0.022668723 -0.055021547 -0.1258386 -0.08625281 0.15621428
0.038159095 0.19135292 0.07111231 0.1308637 0.17998995 -0.20118229 0.16404998 -0.27024162
-0.07343075 0.114171825 0.01461315 0.05227287 0.14321138 -0.07361003 0.17471157 0.11564651
-0.021964902 0.0063392743 -0.015896823 0.06355642 0.14798968 0.1341795 0.20016436 0.06711055
-0.17507015 0.22677377 0.47092396 0.095436215 0.42284986 0.08014998 -0.08264808 0.03406429
0.21537805 0.13825001 -0.09783867 0.088709876 -0.3349353 0.21458936 0.029249506 -0.19833137
0.07320059 -0.26747778 0.14545456 0.06387701 0.32802016 0.011453182 0.05522618 -0.124169216
00000000: be38 503d b557 38bd 66ad e73c 5f21 35be
00000010: 047a 61be d158 0d3e b6cd 2a3e eb9b 2c3d
00000020: 776a 963d aad5 7ebe 1f6e 023e 8d2e 6cbe
00000030: 72f8 913c c334 cabe 8c50 cf3e 3fc4 44be
00000040: bfae 3d3e feda 053e fcac c13d 395e 583d
00000050: 5fcc 4abe 5033 063e 20e1 35bc 322b 143e
00000060: d9a1 9cbd 5efe 683e 1fdd c53d 6688 4f3e
00000070: 1499 843d f6b5 0bbe 6a86 3cbf c1ec 973d
00000080: e851 473e 6938 473e 7ab6 d23d ee97 e53d
00000090: defb 06be fea5 7e3e b9ba 5c3d 979e 81bd
000000a0: 29e0 433e b399 203e 0465 033e 7d8e 743e
000000b0: 4538 2dbe 80b5 923e 63a5 f83d b524 983d
000000c0: eb16 e9bd 2a64 06bc 9acc 303e e2d5 fe3d
000000d0: 67fe 16be 43ac 37be 2d61 393e 1f5c 9f3d
000000e0: 483d 6f3d 5208 2d3d ccbe 133e 1f7a 29be
000000f0: e31c 0f3e 6ee1 623e a973 bd3e a9da 143e
00000100: 6e10 8cbd 4f76 5abd 40dc 0e3e efe3 be3d
00000110: e20f 1dbe 78e0 c63d ef12 20be a4dc 54bd
00000120: e6df 153d 6971 62bb 33bc 173d 230c c0be
00000130: 1f26 883e 5553 cfbe cb1e 11be 3ddc e13c
00000140: c912 923c 7c6c 10bd 88ea 213d 9cce aa3c
00000150: 2c5f 973e 0692 493e 6bb3 68bd 010b 093d
00000160: 41d5 62bc 95f3 2a3d 3cf5 81be bd84 f23c
00000170: 2187 1d3e cd4e 893c c7af 78be 5818 48bd
00000180: b21d 5a3e 39f6 24be 3c40 393e 4065 1cbe
00000190: acd5 3cbd f5dd 6cbe 8029 afbd 7d3c 2e3b
000001a0: df0a 6b3e 16d7 be3d 0d26 313d 442f a8bd
000001b0: 9fe2 7f3b f1f9 8abe a0ad 90be 6cd1 ee3d
000001c0: ffcd 82bd 6090 39be f779 38bd 19b9 363b
000001d0: df64 6dbd 785d 0e3e 4be9 213c c1d6 09bd
000001e0: ad38 14be bffb 47bd dfb1 bf3d 77d4 7c3d
000001f0: e5c3 03bc 5f0e 323e 4219 b23d 62b8 213c
00000200: b66c f1bc 7d9a 913e b869 573e 4d88 503d
00000210: 1905 4a3d 041b f63c bf7c 213e 17b1 fcbd
00000220: afdc b0be 79d9 5e3e 4879 8e3d a5b7 c63d
00000230: e77d 5b3d 5985 38be a52c 29bd 4855 7d3d
00000240: 5344 18be 14b8 c2bd 2dc3 7d3d 875b ce3d
00000250: 0324 c2bc bfbc 563e de71 71bd 9670 3a3e
00000260: 0929 7e3c aa1e cbbe d08d 57bd 6557 c43d
00000270: 80b6 663d 0c8a d43b e56b 50be 7950 d63d
00000280: 6ad8 813d 6900 e43d af87 3bbe eb5d 3d3e
00000290: 8805 2abc e31a c23d 9490 243e 75db ae3d
000002a0: d493 7f3e 79aa f2be 655a ac3d 6a64 adbd
000002b0: 06f6 1ebd ba19 503d 934a be3d 0d5a 033e
000002c0: f6fb e13d 1974 0b3e 7e5e 283d d9ef c33d
000002d0: 7f85 8a3d 7224 ef3c 3122 9b3d b003 743e
000002e0: dadb 983d 582f 5fbb 3ddd f43d fe98 0fbf
000002f0: 5ac0 b6bd 82cf b73e 1024 693d 8b0d d2be
00000300: 70a4 d63d cd6a 84bb 3c7d 12be 043c ac3d
00000310: 7a9d 833d 370c 213e fa4e e2bd 574b 2b3e
00000320: 8ae4 f13d cf14 c4bd 6262 3a3d c2b3 b9bc
00000330: 465e 61bd d5db 00be 50a5 b0bd a3f6 1f3e
00000340: b64c 1c3d 05f2 433e 55a3 913d 2201 063e
00000350: 494f 383e bb02 4ebe b8fc 273e 1c5d 8abe
00000360: dc62 96bd ebd2 e93d fe6b 6f3c 141c 563d
00000370: 01a6 123e dbc0 96bd 97e7 323e 14d8 ec3d
00000380: bdef b3bc b0b9 cf3b 0e3a 82bc de29 823d
00000390: 9b8a 173e 5a66 093e e3f7 4c3e 4271 893d
000003a0: 9745 33be 6237 683e f21c f13e 1074 c33d
000003b0: c77f d83e ac25 a43d 6643 a9bd ff86 0b3d
000003c0: 108c 5c3e 6991 0d3e a45f c8bd 86ad b53d
000003d0: a47c abbe 50bd 5b3e a99c ef3c 6117 4bbe
000003e0: 31ea 953d d9f2 88be 0af2 143e f3d1 823d
000003f0: 42f2 a73e 21a6 3b3c d934 623d 6e4c febd
