Project/upload/part2_q1/HalfCheetahBulletEnv-v0_TD3_BC_3_1638386680_td3_bc.pth (torch, 898095 bytes, 16 tensors)

l1.weight f4 [256, 32]
000000 99 d8 49 3e a3 05 ae bd f5 db e5 3d 68 80 2b bf
       0.19711532 -0.08497169 0.11223594 -0.6699281
000010 68 1c b7 bc ab aa 1c be 49 a9 b5 bd 4c f8 67 3f
       -0.022352412 -0.1529948 -0.08870179 0.90613246
000020 c8 6a 88 be fe 84 1b 3d 91 77 63 be b0 55 72 bc
       -0.26643968 0.037968628 -0.2221358 -0.014790937
000030 b2 7b cc 3d c7 17 ac 3d 09 88 4b be d8 2f ad be
       0.099845305 0.08402973 -0.19876112 -0.33825564
000040 18 77 32 be f8 24 e3 3d db 83 1c be de f9 9e 3e
       -0.17428243 0.110910356 -0.15284674 0.3105001
000050 6c ac 74 be 52 d0 46 3e 96 44 54 3d 26 27 3f bd
       -0.23893899 0.19415405 0.05182322 -0.046668194
000060 e4 28 a6 bd 95 b5 04 be 86 81 09 3e 01 bf 21 bd
       -0.08113268 -0.12959893 0.13428316 -0.039488796
000070 85 ff 28 3e 37 20 94 3b fd bb 9f 3e f4 e5 2c 3e
       0.16503723 0.004520442 0.3119811 0.16884595
000080 53 03 08 3d f9 00 a0 3d f0 21 10 3d 67 00 00 be
       0.033206295 0.078126855 0.035188615 -0.12500153
000090 45 60 17 be 94 a5 7b 3d 64 c6 0a 3d bc 27 38 be
       -0.14782818 0.061437204 0.033880606 -0.17983907
0000a0 52 ea 54 3e a8 8f 9b 3e 7e 64 b5 bd 5e 69 37 3e
       0.20792511 0.3038304 -0.08857058 0.17911288
0000b0 4a c9 2f 3f 3c e5 09 3e 81 d5 b1 be 25 b2 cd 3e
       0.6866652 0.13466352 -0.34733203 0.40174976
0000c0 0b f6 90 be 9f d9 8b 3d 36 f4 8c 3e 28 ba 90 be
       -0.28312716 0.06828617 0.27530068 -0.28267026
0000d0 74 6e 08 3f 05 79 e4 be 17 d1 8d bd 4e 16 53 3e
       0.5329354 -0.4462358 -0.06924646 0.20613977
0000e0 71 ee 9a 3d c6 4f cb bd 4e b9 8a 3e 9d 1b 09 bf
       0.0756501 -0.09927325 0.270945 -0.5355776
0000f0 94 e0 5d be 86 5c 9d 3e aa eb 27 bf 5a fc 93 3c
       -0.21667701 0.30734652 -0.6559397 0.018064667
000100 91 d3 a9 3c 8b 6e e5 3d 0e ec c3 bc 56 a5 19 bf
       0.020730766 0.11202725 -0.02391627 -0.6001791
000110 a3 b4 ae bc ca 83 c2 3e 7f c0 1b 3e a0 21 84 3e
       -0.021326369 0.37991172 0.1521015 0.25806904
000120 41 c9 ae 3e 29 86 c3 3e d0 77 84 3e b8 d7 c8 3d
       0.3413792 0.38188294 0.2587266 0.0980677
000130 ac 1c 17 be d8 29 97 be 88 67 2c 3e 6a e6 3b 3e
       -0.14757031 -0.29524112 0.16836369 0.18349615
000140 c8 98 5e 3e da 0a 08 3e 7a b0 d4 bd 6b 6c d0 3d
       0.21737969 0.1328539 -0.10385223 0.10176929
000150 68 84 9e be 7d 7e 59 3d d8 16 2c bf bd 31 97 3e
       -0.30960393 0.053099144 -0.67222357 0.29530135
000160 87 e5 13 ba f4 1a 15 bf 2b 5a b5 3e 3d 4d ac bd
       -0.0005641807 -0.5824425 0.35420355 -0.084131695
000170 41 ee dc 3d 69 97 4a be 70 f5 b9 3e 61 4a bf bd
       0.10787631 -0.19784321 0.36320066 -0.093403585
000180 1b 76 8f bd a6 91 0c be dc 30 ef 3d 81 92 70 be
       -0.07004949 -0.13727435 0.11679241 -0.23493387
000190 d9 4c 8c 3d 09 aa 61 be 42 49 b4 3d 3e cf 1f bf
       0.06850595 -0.2203752 0.08803035 -0.624256
0001a0 fa 06 5b 3e 6b 99 39 3d dc d2 0d 3c dd 77 d7 bd
       0.2138938 0.045312326 0.00865623 -0.10520909
0001b0 1a a4 98 be aa 59 fd bc de 1b b8 be 0b 62 f7 bd
       -0.298127 -0.030926544 -0.3595876 -0.12079247
0001c0 e4 71 5c bd 77 98 43 3e 0c 24 da 3d ad d6 c7 3e
       -0.053819552 0.1910113 0.10651407 0.39030972
0001d0 70 69 a3 3e bf a3 d6 be ec f5 02 bd 00 c7 b7 3d
       0.3191638 -0.41921803 -0.03197281 0.08973503
0001e0 e0 92 4d 3e b9 00 4c be 45 27 a6 bd a6 b5 a9 3e
       0.2007556 -0.1992215 -0.08112959 0.331464
0001f0 bf d6 10 be d9 6e d9 be 31 6c c7 3e b9 8e 2f 3e
       -0.14144419 -0.42467383 0.3894973 0.17144288
000200 45 88 8a 3e e9 bb 81 bd 80 f6 bc bd 40 bc fd be
       0.2705709 -0.06334669 -0.09226704 -0.49557686
000210 24 a0 aa bd 7b 62 eb 3d 9c fe e8 bd d5 a1 19 3e
       -0.08331326 0.11493393 -0.11376688 0.1500314
000220 92 c5 87 be 33 0e 85 bd 56 32 0f 3e 74 09 63 bd
       -0.26517922 -0.06496849 0.13984045 -0.055428937
000230 66 d3 ba 3e 40 8b c9 3e bc c0 48 3b af 84 01 3f
       0.3648941 0.39364052 0.0030632457 0.50593084
000240 98 c4 03 be ec 75 1f 3e d0 a5 60 3e 2b a7 9e 3d
       -0.12867963 0.15572327 0.21938252 0.077467285
000250 d4 97 21 be 2a 1c af 3e 94 6d 99 3d d0 1a 1f 3f
       -0.15780574 0.34201175 0.074916035 0.6215029
000260 d9 90 9b bd dd 72 37 bd b0 e6 f6 bd fc 57 58 be
       -0.07595987 -0.044787277 -0.12055719 -0.21127313
000270 af 2e 2e 3f e1 90 d6 3d d4 87 96 3e 76 48 a9 be
       0.68039984 0.10476852 0.29400504 -0.33063096
000280 70 36 20 3e bd c1 17 be 05 01 06 bc da 9b ee 3e
       0.15645766 -0.14819999 -0.008178954 0.4660328
000290 24 23 2b 3d 93 11 26 3e fe 28 11 be 58 4c 64 be
       0.04178156 0.16217642 -0.14175794 -0.22294748
0002a0 ca 9c 6f 3e 63 c9 b4 bd d8 66 5e be 08 78 11 3e
       0.23399654 -0.08827474 -0.2171892 0.14205945
0002b0 de d8 f4 3e 34 d4 16 3d 36 c8 58 be d8 9b aa bd
       0.47821707 0.036823466 -0.21170124 -0.08330506
0002c0 c4 ce cf 3e 3d 12 0b 3e dc 8b 8d bd b2 7f 98 3e
       0.40587437 0.13581176 -0.06911442 0.29784924
0002d0 b0 c6 a3 be 20 cb de be e8 a6 08 3e b1 82 fd be
       -0.31987524 -0.43514347 0.1334492 -0.49513772
0002e0 a2 4a fb bd 63 2d 87 be 13 7f 83 3d c7 99 77 3d
       -0.122700945 -0.26401815 0.06420722 0.060449388
0002f0 e6 44 c9 3d 48 55 c9 bd d8 99 02 3f 41 b2 95 be
       0.098275945 -0.09830719 0.51015997 -0.2923756
000300 e3 25 60 3e 33 db e6 bd 0e 98 cb 3d e9 f0 83 bf
       0.21889453 -0.11272278 0.099411115 -1.0307895
000310 8d b2 e0 bd 48 6d 7b bd 36 4d 2f 3e 92 bc 20 be
       -0.10971556 -0.061383516 0.17119297 -0.15696934
000320 4b 38 13 3f f5 1c 88 3e a0 65 9b 3e 48 7b 92 3e
       0.5750777 0.26584592 0.3035097 0.2860968
000330 0c 16 03 3f 62 9d b3 3e 0a 57 7e 3e 24 25 40 be
       0.51205516 0.3508101 0.2483789 -0.18764168
000340 cc 33 17 3c c9 f1 90 3e 8e 4a 60 3e 7e be d4 3e
       0.009228658 0.28309467 0.2190344 0.41551584
000350 af f2 7c 3c 05 8e b5 3e 8a 7b 7b 3e b2 db 9e 3e
       0.01543872 0.35459915 0.24558845 0.3102699
000360 93 81 85 bd f3 5e 84 bd 57 82 43 be 9d 77 c6 3e
       -0.06518855 -0.064634226 -0.1909269 0.38763133
000370 cd 28 b5 3e 84 be fa be bd 7d 99 3e 66 b6 14 3d
       0.3538269 -0.48973477 0.29978743 0.03630676
000380 cf 22 87 3e 58 47 fa 3c 19 15 a1 bd 93 46 86 be
       0.26393744 0.030551597 -0.07865352 -0.2622572
000390 45 14 f3 bc fb fb ac 3e ab a6 f0 bd 10 58 32 3e
       -0.029672751 0.33785996 -0.117505394 0.17416406
0003a0 3c 00 4a 3e d0 ed e3 3e fe ad 13 3f d3 0f 9f bd
       0.19726652 0.44517374 0.57687366 -0.0776669
0003b0 d7 34 93 bd 15 51 be 3c a6 2d 76 be 76 90 71 be
       -0.07187813 0.023232022 -0.24040851 -0.23590264
0003c0 13 5e 12 bd 05 53 b6 be ad d6 74 bd a0 d6 3d bf
       -0.035734247 -0.35610214 -0.059775043 -0.74155617
0003d0 06 cd 42 3c 97 c1 e0 bd 11 94 43 3e 12 7d cb be
       0.011889702 -0.10974424 0.19099452 -0.3974386
0003e0 05 1c 6b 3d 5b 1f 80 be 7b 46 ef 3d b9 38 c7 3d
       0.05739977 -0.25023922 0.11683365 0.09727616
0003f0 5f 39 5a 3e 83 7d 0d be 1d 2a 0d bf 8e ab 19 bd
       0.21310948 -0.1381741 -0.55142385 -0.037517123

l1.bias f4 [256]
000000 ab d0 83 3d 6b 24 01 be ad 59 e7 3e 1b 43 72 bc
       0.06436285 -0.12611549 0.45185605 -0.014786507
000010 47 f2 fd bd 89 0b 41 be b0 0e d9 bd 9d 33 25 bf
       -0.12399726 -0.18852057 -0.105985045 -0.6453188
000020 91 f4 30 be fc 78 ca be bc 7d 9a be 95 36 11 bf
       -0.17280795 -0.3954543 -0.30174053 -0.5672391
000030 70 81 61 3e a6 64 ff 3e 6b 6c aa bc 48 29 8e 3e
       0.22022033 0.49881476 -0.02080365 0.2776587
000040 a7 75 8f be 1b 4d 32 be 11 de 13 be d3 23 d6 3e
       -0.2801945 -0.17412226 -0.1444018 0.41824207
000050 50 16 aa 3e 86 a7 f9 be 18 56 bd 3d e2 f9 e9 3e
       0.33220148 -0.48760623 0.09244937 0.45698458
000060 8f e4 80 be 4e 77 04 be 0d ab 10 bf de 9b 97 be
       -0.25174376 -0.12936136 -0.56511 -0.29611105
000070 0b 00 c5 be 1f 72 3a 3e 73 18 bc 3e 2e 2b df 3e
       -0.38476595 0.18207596 0.36737403 0.4358763
000080 40 79 35 be d0 82 43 3e c8 01 1c 3d 58 e7 a2 bd
       -0.17722034 0.1909287 0.038087636 -0.079542816
000090 25 ec a8 3d e0 dc 71 be a2 43 ab be b5 93 64 bb
       0.08248166 -0.23619413 -0.33450037 -0.003487808
0000a0 ae 4b 8f 3e 49 49 cf be 85 c0 c6 3e 59 3b 10 be
       0.27987427 -0.404856 0.38818756 -0.1408514
0000b0 21 75 90 bd 19 92 62 be 2c 94 c6 be 51 e5 62 3d
       -0.070535906 -0.22126044 -0.3878492 0.055394474
0000c0 e8 4f da be 88 07 5f 3e fb c4 85 be ab 45 a9 be
       -0.4263909 0.21780217 -0.26126847 -0.33060965
0000d0 2c d9 81 be 30 31 1a bf 15 7b 00 3f 2f 62 b6 bd
       -0.25361001 -0.60231304 0.5018781 -0.08905446
0000e0 c7 ed ee bb 54 95 68 3e e2 81 1f 3d 99 95 1a bf
       -0.007291529 0.22713214 0.038942225 -0.6038452
0000f0 4a 86 79 3e bc 65 52 be 95 c1 92 be 2f 5f 70 be
       0.24367633 -0.20546621 -0.28663316 -0.2347381
000100 d4 8d 1d 3e 1f 68 0c bf 4a 04 11 bf 48 cc d8 3d
       0.15386134 -0.54846376 -0.5664717 0.105858386
000110 24 6e 2e be c2 2f 9d be 41 54 13 3f 9d b9 35 bf
       -0.17034203 -0.307005 0.57550436 -0.7098635
000120 4a 3b 94 3e b8 77 00 3e 00 24 40 3e 94 87 0c bf
       0.28951484 0.12545669 0.18763733 -0.54894376
000130 d6 0f bf 3e 2f 7e 7d 3e 5e ea 1c be 82 ea 9f 3d
       0.3731677 0.24755166 -0.15323779 0.07808401
000140 45 f8 7f be b1 44 ea bc 0e d7 0c 3e d1 13 ce be
       -0.24997051 -0.028597208 0.13753912 -0.40249494
000150 48 02 d6 be 48 8b fd be 48 36 5b bd 2b aa 5b be
       -0.41798615 -0.49520326 -0.053518564 -0.21451633
000160 7f 1c 92 3e 05 ab 4e 3e b1 d5 3a be a1 78 f1 3c
       0.28537366 0.20182426 -0.1824558 0.029476466
000170 1c ea 95 3c 6e 09 fe be 87 a2 b8 3d cc 4b 0d bf
       0.018300109 -0.4961657 0.09015375 -0.5519378
000180 b8 7f 7f 3e 66 e7 25 bf b7 de 26 be 17 97 e2 bd
       0.24951065 -0.6480621 -0.16295896 -0.11063974
000190 6b 05 d4 be f6 39 49 bc 8b 9f 98 3d 93 1d 17 bf
       -0.41410384 -0.012281885 0.074523054 -0.590295
0001a0 c6 46 16 bf a7 1a 25 be 41 9d 38 bf c4 e2 30 3e
       -0.5870174 -0.16123448 -0.7211495 0.17274004
0001b0 87 d8 bd be 25 ab 9d bd fe 22 e0 3e d7 eb ec bd
       -0.3707926 -0.07698659 0.43776697 -0.115684204
0001c0 ab bb 22 bf e8 16 d0 bd 93 83 25 3e 64 30 88 3d
       -0.6356761 -0.10160619 0.16163473 0.06649855
0001d0 a5 f9 03 3f 07 95 c7 be 11 4f 33 bf bc 8b a7 3e
       0.515528 -0.38980886 -0.7004252 0.32723796
0001e0 bc dd 6b be c8 64 8f be 35 96 e3 3c d1 b1 cc be
       -0.23033804 -0.28006577 0.027781585 -0.39979413
0001f0 ba c6 8b 3e 3c 51 4a be 84 ab aa be 67 68 53 3d
       0.27300054 -0.19757551 -0.3333398 0.051613238
000200 58 e9 43 3e 09 f4 00 bf c6 4b 2b 3e 35 0f df bd
       0.19131982 -0.5037237 0.16728124 -0.108915724
000210 85 99 ab be b4 2c 17 be 97 79 87 be dd d1 3f be
       -0.33515564 -0.14763147 -0.26459953 -0.187324
000220 b1 e8 84 be a8 d7 09 bf 35 92 7d be 38 bf ab 3e
       -0.2595878 -0.5384469 -0.24762805 0.33544326
000230 5e 39 57 be 33 bc e1 be 10 3d 00 bf 25 62 d6 3e
       -0.21017978 -0.44088897 -0.50093174 0.41871753
000240 a6 01 e7 be 39 77 e3 3d 08 d7 b9 bc 52 40 c3 3c
       -0.45118445 0.11106724 -0.022685543 0.023834381
000250 da 7a 5b be d7 eb cf be de ba 02 be bd ad 70 bc
       -0.21433583 -0.4060962 -0.12766597 -0.01468986
000260 88 47 6a be 55 f1 15 bf a9 3a 12 bf ea 63 44 3e
       -0.2287885 -0.5857137 -0.5712076 0.19178739
000270 3f 1c 29 bd 34 ac 80 3d e9 ad 51 bf 2c ca e2 be
       -0.041286703 0.06282845 -0.8190599 -0.4429487
000280 7f 9e bf be 55 6e d9 3e 5c 67 75 be c7 c7 81 3c
       -0.3742561 0.4246699 -0.2396521 0.015842332
000290 e7 dc 05 3f da 27 e1 3e f3 45 52 3e 98 b3 f7 ba
       0.52290195 0.43975717 0.20534496 -0.0018898128
0002a0 33 3d 24 bf 9b ca cf bc 6e dc 47 3e fe bb 77 be
       -0.6415588 -0.025365165 0.19517681 -0.24192807
0002b0 81 cb 6f 3e 92 96 b2 bd 48 46 ca be 83 a4 39 3d
       0.23417474 -0.08720125 -0.39506745 0.045322906
0002c0 25 60 ba bd 3f 39 58 be 1f bb 97 be d5 68 e1 be
       -0.09100369 -0.21115588 -0.2963495 -0.44025293
0002d0 5d 28 e8 be 58 4d 91 be db 34 3e 3e 7f 1a 01 bf
       -0.45343295 -0.2837932 0.1857485 -0.50431055
0002e0 7c b2 7f 3e f4 4a e4 bd 9e 56 3f be 8c 0c 1c 3e
       0.2497043 -0.11147109 -0.18685386 0.15239161
0002f0 97 cf 28 bf 63 35 ee be 77 89 8f 3e a0 f0 e6 3d
       -0.65941757 -0.46525106 0.28034565 0.11276364
000300 82 54 1f 3e dc 26 87 3e e1 58 0b bb e4 64 db bd
       0.15559581 0.26396835 -0.0021262693 -0.10712603
000310 d4 70 21 3d e9 df ed 3e e0 de 96 be bf b9 be be
       0.039414242 0.46459892 -0.29466915 -0.37251088
000320 9f 6b 20 be e1 52 fc 3d d4 94 02 bf cb bf e6 be
       -0.15666054 0.123204954 -0.51008344 -0.450682
000330 95 ba 5c 3c 88 8c 24 bf 40 c7 ef be 1e 82 16 bf
       0.013472219 -0.64276934 -0.46831703 -0.58792293
000340 41 a4 58 bf f0 67 bb be f2 55 08 be 8a 63 a9 be
       -0.8462563 -0.36602736 -0.13314036 -0.33083755
000350 4a e9 27 be 65 61 a4 bd 19 f3 29 3f 11 6b b5 be
       -0.16397586 -0.08026389 0.6638656 -0.35433248
000360 37 38 e8 be 90 ab 86 3e 25 5d 4d bf 6e 8b d3 be
       -0.4535539 0.26302767 -0.8022025 -0.41317314
000370 cd 0d 1e be 9d 78 6f be de 47 aa 3e 50 8f a7 be
       -0.15434952 -0.23385854 0.33257955 -0.32726526
000380 8c 04 18 bf 09 0b df 3d 7d be 43 be db 8c 1d bf
       -0.5938194 0.10890777 -0.19115634 -0.61543053
000390 98 04 4d bd 41 70 4c be 3f 33 15 3f f9 55 7d be
       -0.05005321 -0.19964696 0.5828132 -0.24739827
0003a0 72 25 9b 3e 33 39 db 3e 7a 79 96 be 3b 8e 2b 3e
       0.30302006 0.42817077 -0.29389554 0.16753475
0003b0 50 1f 95 3e a4 b9 55 bf a3 eb a2 be 3d 84 9d 3e
       0.29125452 -0.8348639 -0.31820402 0.30764952
0003c0 28 07 fc be de 03 53 3e f0 a5 da 3e af 97 08 3f
       -0.4922421 0.20606944 0.42704725 0.5335645
0003d0 e0 5c 58 bf 0b 21 af be c5 9b bf be 8e f9 ee 3e
       -0.84516716 -0.34204897 -0.3742353 0.4667477
0003e0 1d 10 f7 be b2 27 56 3e 77 43 9f be 3f 15 5c 3d
       -0.4825448 0.2091358 -0.3110616 0.0537312
0003f0 5e 09 4d be 3c 2c e6 be e0 6a 44 be 26 8e bb bd
       -0.20023105 -0.44955623 -0.19181395 -0.09157972

l2.weight f4 [256, 256]
000000 9c 67 0a bf 6f 31 ff 3e f9 57 03 3e 3f 4c ec 3d
       -0.54064345 0.49842402 0.12826528 0.1153798
000010 2c 06 b1 3e 97 f0 b6 be 7e 4c c8 3d ac 9c af bd
       0.3457502 -0.3573043 0.09780215 -0.08574805
000020 b9 fc 78 bc e1 f8 b9 be 29 9f 45 3e cb 52 b1 3e
       -0.0151969725 -0.36322692 0.19298996 0.3463348
000030 fe 4f 90 3e f7 97 ed 3d a0 d6 98 be 89 88 e5 be
       0.2818603 0.116012506 -0.29851246 -0.4483073
000040 cd 74 50 3e 4f 4c fb be 6f a9 42 be cd 4f 24 3d
       0.20357056 -0.49081656 -0.19009946 0.040115166
000050 69 49 08 3d f0 cb 3a bd b1 5a 9f 3d e8 fc 2b be
       0.033273134 -0.045604646 0.0778097 -0.16795695
000060 90 8d 6a 3e 3f d8 c8 3e 0d 71 d7 be 88 9b b7 3e
       0.22905564 0.39227483 -0.42078438 0.35860848
000070 67 fe b8 be df dd 4f 3a 74 aa f6 bd fd 4e 5a 3e
       -0.36131594 0.0007929485 -0.1204423 0.21319194
000080 79 16 89 3e 8b 19 24 3c e8 67 19 3e ef cc be 3e
       0.26774958 0.010015856 0.14981043 0.37265727
000090 05 52 25 3d 9b 92 2b 3e 92 a0 05 be f5 bf 50 bc
       0.040361423 0.16755144 -0.13049534 -0.012741079
0000a0 b7 f6 6f 3c 7e be ed be c7 87 a8 3c 6c 10 5c bd
       0.014646224 -0.46434397 0.020572556 -0.0537266
0000b0 36 62 f6 bd 12 87 e1 3d d0 d5 8f bd 30 05 67 be
       -0.12030451 0.11012091 -0.070232034 -0.22560573
0000c0 ff 07 6c be 88 8e cb 3e 2e 21 c5 3c 51 41 a1 bd
       -0.23049925 0.3975718 0.024063673 -0.07873786
0000d0 7d 34 02 3e d4 d3 38 bf d3 cc 70 bd 0b 3e 96 3d
       0.12715335 -0.72198224 -0.058789086 0.073360525
0000e0 61 bf c4 bc bc 9a e3 3e 2d 85 90 3e 9c ca ef bd
       -0.024017038 0.4445399 0.28226605 -0.117085665
0000f0 7b 70 f6 be 7e 1b a2 be 3f b5 9f 3e 15 ab 38 bd
       -0.4813269 -0.316616 0.31192967 -0.04508503
000100 0e 1a 26 bd 8c 41 79 3b 0a 4c 45 be 2c 1d c4 3d
       -0.04055219 0.0038033454 -0.19267288 0.095758766
000110 7c 14 5e bf 14 b2 7a 3e d5 86 0a be 3d 1e 2c be
       -0.86750007 0.24481994 -0.13527997 -0.1680841
000120 bf 3d 80 3e ef 56 c3 bd d4 a2 93 bd dd 67 35 be
       0.2504711 -0.09538066 -0.072087914 -0.17715402
000130 28 6b 87 bc 56 d5 91 bd 92 f6 4b 3d 34 61 64 3e
       -0.016530588 -0.07120769 0.049795695 0.22302705
000140 04 33 81 3e 2d 33 89 be 5e c9 18 be cd 4c b5 3d
       0.25234234 -0.26796857 -0.14920565 0.08852539
000150 8c 8c 8e 3d 07 b5 d2 be d8 63 1e bd fe b8 31 3e
       0.06960401 -0.41153738 -0.038669437 0.17355725
000160 d4 30 c8 3e 63 62 9f bd 5f 04 31 3e 1f 7f 7f bd
       0.39099753 -0.07782438 0.17286824 -0.06237709
000170 7e 95 17 3e ae 7b c6 bb 34 ec 2b bc 5c 3a 12 bf
       0.1480312 -0.0060572242 -0.010493327 -0.571203
000180 d8 f1 32 3e 47 27 36 bd 84 10 9e bd 2b 01 64 3d
       0.17475069 -0.04447105 -0.07717994 0.055665176
000190 12 30 12 3e 8d d7 69 3b 09 a3 57 be 44 da 3d 3b
       0.1427615 0.0035681457 -0.21058287 0.0028969208
0001a0 6e 47 28 be 06 b2 d2 3d c5 68 15 3e 08 c0 3d be
       -0.16433498 0.102878615 0.14590748 -0.18530285
0001b0 8f 28 2b be 2e 5e 83 ba 10 8f 24 3e bb 71 d5 be
       -0.1671469 -0.0010022575 0.16070199 -0.41688332
0001c0 64 70 7e 3c 2a af 3c be 72 71 8a bd ff 4a 0c 3e
       0.015529726 -0.18426195 -0.06759919 0.13700484
0001d0 12 64 dc bd 06 45 a7 bd 53 1f 2a bd 7c 47 b0 3d
       -0.107612744 -0.08167462 -0.04153378 0.086073846
0001e0 60 87 85 3e b8 58 de be ca 6d 42 3e 93 91 d1 bd
       0.26079845 -0.43427062 0.18987194 -0.10232844
0001f0 0c a6 8e 3b 74 16 ca 3e 36 c1 99 bd bf 07 8a be
       0.0043532904 0.39470255 -0.07507555 -0.26959035
000200 4a a4 60 bc 3f f5 01 be f5 dc e6 3c 38 28 f2 bd
       -0.013711045 -0.1269121 0.028181532 -0.11824077
000210 d0 da 7a 3d 73 85 8e be 5d cb 57 bf 56 35 d0 bc
       0.061243832 -0.2783619 -0.8429468 -0.025416058
000220 20 98 1a 3e 6e 53 7d 3e 99 38 d4 bb 89 82 61 be
       0.15097094 0.24738857 -0.0064764735 -0.22022451
000230 7b 26 16 bd 79 06 37 bd 94 1b 09 3e 8d 93 8e 3e
       -0.03665779 -0.044683907 0.13389426 0.27846947
000240 61 f6 2d 3e 2f e1 b1 3e 21 b0 f5 3b 20 1e 33 bc
       0.16988517 0.34742114 0.007497803 -0.010932475
000250 84 e7 20 be 18 a7 ad bd 30 49 d6 bc c6 cb a1 3e
       -0.15713316 -0.08479136 -0.026157945 0.3160078
000260 88 1b be 3c 2d 2d cc 3e cd 57 57 3e ec ad ef bc
       0.023206487 0.39878216 0.21029587 -0.029257737
000270 e0 55 a3 be b3 c0 7b be 07 c1 28 3f 59 b7 ac bd
       -0.31901455 -0.24585228 0.65919536 -0.08433408
000280 9a 28 f1 bd 44 91 59 3d 0a 4f d9 bb 3a 2c da be
       -0.11775322 0.05311705 -0.0066317366 -0.42611867
000290 4d d2 e0 bd 88 10 d5 3e 8f 10 ff 3d 35 8d 6c 3d
       -0.10977612 0.41614175 0.1245433 0.057751853
0002a0 74 31 91 3d c6 f9 10 3e c7 1d f2 bd c9 7d 85 3d
       0.070895106 0.14157781 -0.11822086 0.06518132
0002b0 0f ed e9 bd 58 cc 2f bd 2a e1 b7 3e a3 c1 63 be
       -0.114221685 -0.042919487 0.35913974 -0.22241835
0002c0 25 ff 71 be e2 8f d7 be 81 8a 75 3e 3e 33 61 3e
       -0.23632486 -0.4210196 0.23978616 0.21992204
0002d0 b1 ed 33 3e c3 15 91 3e da 4f f2 bd 50 a2 cc 3d
       0.17571141 0.28336915 -0.11831637 0.09991896
0002e0 88 06 96 bb 9d 18 a8 bd d2 ee 32 3c db 22 2b 3e
       -0.0045784153 -0.082078196 0.010921197 0.16712515
0002f0 96 fb cc 3d 9c 79 30 bd 82 ce 76 be 1e 9a 91 be
       0.10008924 -0.043084726 -0.24102214 -0.28437895
000300 63 7e f8 bd 4e c6 1b 3e 7f 40 35 3e 0e b1 28 be
       -0.12133481 0.15212366 0.17700385 -0.16473791
000310 d4 61 bc bd 63 d1 87 3d ba 8f 9e 3b e5 fc c5 bd
       -0.09198347 0.06631734 0.004838911 -0.096673764
000320 6a 2c 49 3e 1a a3 cd 3d e8 a7 28 3e c7 97 b0 3d
       0.19645849 0.10040875 0.16470301 0.08622699
000330 50 8e f0 3e 96 e1 1b bf d3 14 06 3e e9 1a 87 3d
       0.46983576 -0.6089109 0.13093881 0.065969296
000340 9c 34 ed 3d 7f 64 fe bd 40 5a e7 bd 28 07 64 be
       0.115823 -0.12421512 -0.11296511 -0.22268355
000350 e0 b5 b9 3e 5f cc 9c bd 59 98 ba bd 59 d8 03 bf
       0.36271572 -0.07656168 -0.09111089 -0.51501995
000360 f6 9c 48 3d 50 80 dc 3d 11 2b a8 bd a1 29 85 bd
       0.048977815 0.10766661 -0.08211339 -0.06502081
000370 4f c1 86 be 9e fe b4 3d f4 7f 5a be 1a 0a c5 be
       -0.26319358 0.08837627 -0.21337873 -0.3848427
000380 02 20 ee bd f0 e9 7f 3e 1f d0 53 be b6 19 61 3e
       -0.11627199 0.24991584 -0.2068486 0.21982464
000390 06 8e 76 3d 95 5c a2 3e f8 f5 ec 3d 0e 2f 2b 3e
       0.060194038 0.3171126 0.11570352 0.16717169
0003a0 ec 59 b8 3c 7e 70 4b 3e 27 e0 54 bd 30 5f 68 3e
       0.022503816 0.19867131 -0.05197158 0.22692561
0003b0 c2 0d 93 bc 1a 67 01 3e 75 aa b2 be 68 6b c8 3d
       -0.017950896 0.12636986 -0.34895673 0.09786111
0003c0 cf 27 29 3e ad 94 cb be 94 ab 1b bf 2d 1d 4f be
       0.16519092 -0.39761868 -0.6080868 -0.20225973
0003d0 12 17 5a be d9 eb 2d bb 43 97 c8 bd e0 ef 13 be
       -0.21297863 -0.0026538281 -0.09794476 -0.14446974
0003e0 ce 68 7d be 9e 49 9a 3d 19 ea 29 be 6b 85 f5 bd
       -0.24747011 0.075335726 -0.16593207 -0.11988338
0003f0 e6 51 f9 3c 91 d3 a9 be 46 fd 85 3e 26 b9 8d 3e
       0.03043456 -0.33169225 0.26169795 0.2768032

l2.bias f4 [256]
000000 70 5c 78 be 83 b6 2e be 4a 33 f7 bd 8b a3 00 be
       -0.24254012 -0.1706181 -0.120703295 -0.12562387
000010 c2 79 06 3f 33 30 a9 be 52 06 e9 3e b2 57 7c bd
       0.5252954 -0.33044586 0.45512635 -0.06160707
000020 ee 77 9f 3e 77 32 21 3f 18 26 8f be be 93 9f be
       0.31146187 0.6296763 -0.2795875 -0.31167406
000030 26 aa 46 be 3c 50 c6 be c5 41 38 be bb 0f d5 3e
       -0.19400844 -0.3873309 -0.17993839 0.41613564
000040 41 25 e6 3e e0 bd 15 3f fc f4 a3 3e bf 70 66 be
       0.44950297 0.5849285 0.32022846 -0.22503947
000050 cb b3 61 be b8 b1 a9 bd 28 2e a3 be 63 8b 16 3f
       -0.22041242 -0.0828585 -0.31871152 0.5880644
000060 9b 16 b6 be d8 b3 10 3f f5 58 80 3e f1 81 11 3f
       -0.35564122 0.5652442 0.2506787 0.568389
000070 9b 34 e5 3e 3c 7c a8 be 4e 44 f7 3e 17 5a e9 3e
       0.44766697 -0.32907283 0.482943 0.45576546
000080 47 0e ac be 26 4c 95 be 57 d8 ae 3e 3d cd dd 3e
       -0.33604643 -0.2915966 0.3414943 0.43320647
000090 a4 a8 96 be 73 be 15 3f 40 6e cc be 71 6d 13 3f
       -0.29425538 0.5849373 -0.39927864 0.5758887
0000a0 fd 6c 09 be 1d 21 d4 be 9d 8d d6 3e 6f 03 df 3e
       -0.13420482 -0.41431513 0.41904917 0.43557307
0000b0 c0 5e 9c 3e 87 93 b4 be 18 2a ab be 8c 5d 01 3f
       0.3054104 -0.35268804 -0.33430552 0.50533366
0000c0 36 05 72 3e d7 9d fd 3e bd 20 04 3f bd 3d a8 be
       0.236348 0.49534485 0.51612455 -0.32859603
0000d0 50 5a 3e be 56 32 47 be e3 0d 96 be 6b 2f fd 3e
       -0.18589139 -0.19452795 -0.2930747 0.4945024
0000e0 a9 7c b2 3e b5 c7 2f 3f a3 54 ea 3e bb 46 6e be
       0.34860733 0.68664104 0.45767698 -0.23269169
0000f0 ba d9 ac 3e d0 0c d7 bd 27 ae 02 3f f8 28 81 be
       0.33759862 -0.10500491 0.51046985 -0.2522657
000100 b6 8e 80 be 03 bf 00 3f 3c 15 a5 3e 2a df e9 3e
       -0.2510888 0.5029146 0.32242763 0.45678073
000110 de 4a bd be 2e 74 a9 be ae cb ce 3e 5f 6e ad 3e
       -0.36971182 -0.3309645 0.4038977 0.3387327
000120 e3 de c2 3e c8 1d e3 be 14 db d9 3e 65 52 f7 be
       0.38060674 -0.4435866 0.42549956 -0.4830505
000130 1c 56 b7 be 27 3e d5 bd 78 f3 cf 3e 0c 1e 51 be
       -0.35807884 -0.10412245 0.4061544 -0.20421618
000140 de cf 61 be 40 e8 e1 3e b2 d0 88 3e 98 80 01 3f
       -0.22051951 0.44122505 0.26721722 0.50586843
000150 35 cb 13 be 07 d8 b2 be f4 6b 12 3e 4b a1 5a be
       -0.14432986 -0.3493044 0.14298993 -0.21350591
000160 36 73 bb 3e 5d 8f d5 3e 65 55 ef 3e e8 5b 01 3f
       0.36611336 0.4171094 0.46744838 0.5053086
000170 16 7c a8 be 5b 1f c6 3e e4 2b 18 3f 26 4f 75 be
       -0.3290717 0.38695797 0.5944197 -0.23955974
000180 75 8a 5e bd 6a f8 ad be 20 06 bc be e3 9b c0 3e
       -0.05433126 -0.33978587 -0.36723423 0.37618932
000190 ba 6f dd 3e a1 39 e0 be c4 f7 b2 be 50 06 f6 be
       0.43249303 -0.43793967 -0.34954655 -0.4805169
0001a0 91 d6 97 be 83 91 e0 3e ff 56 ac be 53 97 9a 3e
       -0.2965589 0.43861017 -0.33660123 0.30193576
0001b0 b6 b6 aa be 29 3c d2 3e 3f 14 b1 3e 33 7d 01 3f
       -0.33342522 0.41061524 0.3458576 0.50581664
0001c0 9f 62 04 3f 80 50 35 be 90 94 62 be 08 83 e1 be
       0.51712984 -0.1770649 -0.22126985 -0.4404528
0001d0 de 82 cd be a9 d7 7c be 60 66 ae be 3d 37 47 be
       -0.40138906 -0.24691643 -0.3406248 -0.19454665
0001e0 7b 81 b7 3e 47 36 ad be 51 fc 16 3f 79 66 bb be
       0.35840973 -0.33830473 0.58978754 -0.36601618
0001f0 eb 6f 09 3f 77 ef b7 be e7 a5 a4 3e 77 34 b5 3e
       0.536864 -0.35924885 0.32157823 0.3539159
000200 a9 8a cd 3e b8 de 0a 3f 83 73 84 be 7e a3 2e be
       0.40144852 0.5424609 -0.25869378 -0.17054555
000210 2c ef 99 be 70 a4 0e 3f 29 3c 34 bd b3 db a6 3e
       -0.30065286 0.5571966 -0.044002686 0.32589492
000220 4b 50 e5 3e d1 b8 e1 3e 31 4c 31 bd 7d 8e 0e 3f
       0.4478782 0.44086316 -0.043285552 0.5568617
000230 4c 2b f5 3e fc 44 87 be 85 a9 00 3f af a5 05 3f
       0.47884595 -0.26419818 0.50258666 0.5220594
000240 00 0c da 3e 97 00 12 3f 86 9a de 3e db 3e 66 be
       0.4258728 0.5703215 0.43477267 -0.22484915
000250 83 0e d3 3e 72 f0 19 3f 69 98 fc bd d1 6d 12 bf
       0.4122201 0.60132515 -0.123337574 -0.57198817
000260 53 e2 83 be cc 32 89 be c3 02 16 be 4d 55 da 3e
       -0.2575861 -0.26796567 -0.14649491 0.42643204
000270 bc 03 17 be 65 67 66 be a3 a5 19 3f 04 16 98 3e
       -0.14747518 -0.2250038 0.60018367 0.29704297
000280 5e e6 ea 3e b7 cd 6d be 94 d0 0c 3f e1 a0 94 be
       0.4587888 -0.23223005 0.55005765 -0.2902899
000290 ea 20 1b 3f 80 a3 ca 3e ff 56 a9 be 64 4e 05 3f
       0.605971 0.39577866 -0.33074185 0.5207274
0002a0 74 2b 04 3f f8 3d 51 be df a3 08 3f 18 32 b9 3e
       0.51628804 -0.20433795 0.5337505 0.3617103
0002b0 de 30 1f bd 48 be c0 be 2b f2 48 be b7 3c dc 3e
       -0.038864963 -0.37645173 -0.1962363 0.43015072
0002c0 f4 46 b1 3e d3 6f cd 3e 8b 2c 4b be 79 14 e0 be
       0.34624445 0.40124378 -0.1984121 -0.4376562
0002d0 51 a7 d8 3e b2 50 6d be fc e8 fa 3e 0c ad 04 3f
       0.42315152 -0.23175314 0.49005878 0.5182655
0002e0 54 e8 6f be 41 58 f7 3e 9d 82 ee bd 32 f7 7a be
       -0.2342847 0.4830952 -0.11646006 -0.2450836
0002f0 56 ed 83 be 41 6f 0f 3f 6c a7 ea 3e 42 c7 b6 3e
       -0.2576701 0.56029135 0.45830858 0.35698897
000300 bc c2 aa be 94 66 43 be 1e a8 89 be 99 66 db 3e
       -0.33351696 -0.19082099 -0.26886076 0.42851713
000310 40 fc fe 3e 42 96 be bd e1 c9 8f 3e 35 78 b2 be
       0.49801826 -0.09306003 0.2808371 -0.34857336
000320 93 4b 99 be 8a 65 a0 3e 4b 02 10 3e fe ad f2 3e
       -0.2994047 0.31327468 0.14063375 0.4739837
000330 db 37 f7 3e 5b 3f 10 3f 4a bc 87 be de db bf be
       0.48284802 0.5634667 -0.2651084 -0.37472433
000340 ab 51 e5 bd 65 95 b7 3e 0c 47 57 be ea 4a 01 3f
       -0.111972176 0.35856166 -0.21023196 0.50504935
000350 be 56 7e be b4 1a 06 3f 09 7d da 3e e7 73 58 be
       -0.24837777 0.52384496 0.4267352 -0.21137963
000360 c3 1f 6d be a5 f8 83 be 34 10 93 be e1 82 a6 be
       -0.23156647 -0.25775638 -0.287233 -0.32521728
000370 de 17 df 3e d9 dc 9d be 7c 1e 32 be 57 1c e3 3e
       0.43572897 -0.30832556 -0.17394441 0.4435756
000380 35 9b 82 be a0 f3 e4 3e 42 7d b6 bd b2 a4 c3 bd
       -0.2550904 0.4471712 -0.0891061 -0.095528975
000390 02 e5 0e 3f 8d 52 cb 3e 70 2f 82 be c2 e9 f2 3e
       0.5581819 0.3971142 -0.25426817 0.47443968
0003a0 58 ce f7 3e f9 9c f4 be 37 af df be 59 05 91 3e
       0.48399615 -0.4777601 -0.43688366 0.28324392
0003b0 62 39 ec 3e f7 df 3c bc 84 72 47 be 86 c5 c1 3c
       0.4613753 -0.011528007 -0.19477278 0.023653757
0003c0 62 b5 aa be 88 86 d4 3e 71 ca 6d be f4 9a a6 be
       -0.3334151 0.4150889 -0.23221757 -0.32540095
0003d0 c6 34 fc be 1c 8f 18 3f 00 e9 a1 3e 99 0b a4 be
       -0.49259013 0.5959337 0.31623077 -0.32040098
0003e0 72 6b e5 be 9d 4d ce 3e aa 61 8d be 9b 8a d9 bd
       -0.44808537 0.4029359 -0.27613574 -0.1062214
0003f0 e0 6d 0b 3d dd 06 04 3f 13 02 a0 be a5 58 f8 3e
       0.03404033 0.5157297 -0.31251583 0.4850513

l3.weight f4 [1, 256]
000000 8b 06 84 bf 88 df 5d bf 75 47 91 bf f5 a6 9d bf
       -1.0314497 -0.86669207 -1.1349932 -1.2316576
000010 42 f3 01 3f ff 52 8b bf ab 3b 1c 3f df 96 e4 bf
       0.50761807 -1.0884703 0.61028546 -1.7858542
000020 42 9c 48 3f f4 4d 2f 3f 78 ad 06 c0 c4 f2 99 bf
       0.7836343 0.6847832 -2.1043377 -1.2027211
000030 d0 e8 69 bf bb ce 7a bf 50 5c 8e bf 89 92 2a 3f
       -0.9137087 -0.97971696 -1.1121922 0.66629845
000040 15 9c 3e 3f b7 61 08 3f 75 f8 31 3f 10 9b 54 bf
       0.7445691 0.532741 0.6951974 -0.83049107
000050 0c ac 4a bf fb aa 7a bf b8 f9 77 bf cc 1d 1b 3f
       -0.7916877 -0.97917145 -0.96865416 0.6059234
000060 9c 02 3b bf c2 44 9d 3e 93 a4 30 3f 8b 17 ad 3e
       -0.73050857 0.3071652 0.6900112 0.33807024
000070 6f 7a a8 3f a5 b0 d0 bf cf 74 41 3f 8c e2 40 3f
       1.3162364 -1.6303908 0.7556886 0.75345683
000080 0c 87 4d bf ab 41 47 bf cd 71 8b 3f ff bc 06 3f
       -0.8028419 -0.77834576 1.0894104 0.52632135
000090 5e b3 38 bf 80 ab 9c 3f 6f 4a 98 bf 05 ea 08 3f
       -0.7214869 1.2239838 -1.1897715 0.53482085
0000a0 fc e3 df bf 4d 87 e8 bf 19 2b 57 3f 36 5e 87 3f
       -1.749145 -1.816629 0.84050137 1.0575626
0000b0 c0 10 e7 3f 2a c2 f5 bf e6 ff 3f bf e5 81 de 3e
       1.8051987 -1.9199879 -0.74999845 0.43458477
0000c0 e8 03 28 3f 37 1b 01 3f a7 f6 1c 3f 51 95 b4 bf
       0.6563096 0.5043215 0.6131386 -1.4108068
0000d0 85 30 77 bf dd cc 46 bf 35 44 2a bf 7a 09 47 3f
       -0.9655841 -0.77656347 -0.66510326 0.77748835
0000e0 34 a1 a0 3f f4 37 58 3f 55 9f 14 3f 39 cb 62 bf
       1.2549195 0.8446038 0.5805562 -0.88591343
0000f0 a9 6d 1a 3f a2 9d cb bf d5 a0 0c 3f 49 17 5c bf
       0.6032358 -1.5907481 0.5493291 -0.8597303
000100 0e fa 90 bf ce fe 0a 3f b7 76 0d 3f 1b b7 30 3f
       -1.1326311 0.5429505 0.5525927 0.69029397
000110 4f f2 d2 bf 8b f3 b8 bf c7 85 1e 3f d7 b6 6e 3f
       -1.6480197 -1.4449323 0.6192288 0.9324774
000120 6c f9 10 3f ab 4f 62 bf c4 bf ff 3e fb c0 91 bf
       0.5663059 -0.88402814 0.49950993 -1.1387018
000130 d0 45 d1 bf fd fc 84 bf ee 13 f4 3e 8d ad 92 bf
       -1.634943 -1.0389706 0.47671455 -1.1459213
000140 87 0a d7 bf 70 2a fb 3e 03 a4 58 3f 43 08 06 3f
       -1.6800088 0.49055815 0.8462526 0.52356356
000150 c1 cf 97 bf 4b 9a a3 bf 11 d0 47 3f 41 39 64 bf
       -1.1860276 -1.2781461 0.7805186 -0.8914986
000160 50 62 64 3f d2 30 08 3f ff 70 33 3f e8 66 ff 3e
       0.8921251 0.53199494 0.70094293 0.498832
000170 8a d6 91 bf 00 70 21 3f 83 b8 18 3f d2 4e d8 be
       -1.1393597 0.63061523 0.5965654 -0.42247635
000180 d1 f1 aa bf 89 a5 3b bf cc 79 e7 bf 2e b2 95 3f
       -1.3355047 -0.7329946 -1.8084044 1.1695001
000190 a2 56 52 3f a2 f9 b4 bf 08 c9 b9 bf ca 3f 9c bf
       0.8216344 -1.4138682 -1.4514475 -1.2206967
0001a0 c2 63 45 bf da 14 7e 3f 83 57 b6 bf 20 31 ba 3f
       -0.77105343 0.99250567 -1.4245456 1.4546242
0001b0 f4 ec d8 bf 6b f0 78 3f b2 c8 6f 3f ed 35 fd 3e
       -1.6947312 0.9724185 0.9366561 0.49455205
0001c0 76 12 16 3f 20 20 6b bf bc c1 30 bf 73 9a 85 bf
       0.5862192 -0.91845894 -0.69045615 -1.0437759
0001d0 65 01 4e bf 72 e0 47 bf f9 d9 3a bf cf 84 a5 bf
       -0.8047088 -0.7807685 -0.7298885 -1.2931155
0001e0 1a 18 48 3f c0 df 85 bf d4 c2 08 3f 7c d9 80 bf
       0.78161776 -1.0458908 0.53422284 -1.0066371
0001f0 01 e3 c1 3e f6 b6 9f bf 5e 61 86 3f 46 a4 58 3f
       0.37868503 -1.247771 1.0498464 0.8462566
000200 51 47 32 3f 17 54 02 3f a8 93 55 bf 35 7f df bf
       0.6964007 0.5090956 -0.8342843 -1.7460696
000210 d6 7b 4b bf 98 42 2d 3f 8a d1 f3 bf 39 df 7e 3f
       -0.79485834 0.6767974 -1.9048321 0.9955936
000220 95 21 36 3f 4a 93 f7 3e 81 87 d2 bf c9 9b 43 3f
       0.7114499 0.4835456 -1.6447603 0.76409584
000230 4c 02 46 3f 32 ce f1 bf 78 cb 57 3f 57 42 3b 3f
       0.77347255 -1.8891051 0.84294844 0.731481
000240 80 dc 28 3f 2c 72 b1 3e 71 30 08 3f 79 1f 9b bf
       0.65961456 0.3465742 0.53198916 -1.211898
000250 5c c5 bf 3f 4f bb 8d 3f fc 43 93 bf 62 89 a1 bf
       1.4982104 1.1072787 -1.1505122 -1.2620051
000260 0c 4e 48 bf 96 14 b5 bf 01 ab 12 c0 b8 bb 0c 3f
       -0.7824409 -1.4146907 -2.2916873 0.54973936
000270 bb 2f 9d bf 37 48 46 bf a0 d1 01 3f 06 b7 2a 3f
       -1.2280191 -0.7745394 0.5071049 0.6668552
000280 dc 6d 0e 3f b4 df f6 bf 12 8d be 3e fb 86 a1 bf
       0.5563638 -1.9287019 0.37217003 -1.2619318
000290 25 a0 d2 3e 88 38 4b 3f 35 cf 93 bf 6d 90 43 3f
       0.41137806 0.79383135 -1.154761 0.7639225
0002a0 ac 19 14 3f ec 94 ad bf f0 27 68 3f 8e 5a 3a 3f
       0.5785167 -1.3561072 0.9068594 0.72794425
0002b0 68 b8 36 bf f1 39 5b bf a7 c4 48 bf 9d 9d fd 3e
       -0.7137513 -0.85635287 -0.7842507 0.49534312
0002c0 ac e2 4b 3f c4 53 e4 3e 81 f8 7c bf ce 98 b4 bf
       0.7964275 0.44595158 -0.98816687 -1.4109132
0002d0 ae dd 84 3f 07 2e c2 bf b2 a8 06 3f c0 23 15 3f
       1.0380151 -1.5170296 0.5260116 0.58257675
0002e0 20 52 c9 bf fc a5 71 3f 1d 22 9f bf 68 45 83 bf
       -1.5728188 0.943939 -1.2432286 -1.0255556
0002f0 d6 df a0 bf 0e e2 24 3f 79 87 3b 3f c5 a5 2d 3f
       -1.2568309 0.6440743 0.7325359 0.6783107
000300 a6 6c 42 bf ef a0 5a bf 06 d1 98 bf 26 e4 6b 3f
       -0.75947034 -0.85401815 -1.1938789 0.92145
000310 2d 12 0e 3f 82 6d 82 bf 60 51 6a 3f c6 40 4f bf
       0.55496484 -1.0189669 0.9153042 -0.8095821
000320 36 1b 5c bf ef 6a 62 3f b3 34 7c 3f 7b 44 05 3f
       -0.8597902 0.8844442 0.9851791 0.5205762
000330 ec d2 14 3f cc 5f 54 3f c2 f3 32 bf 7b 5f 98 bf
       0.5813434 0.82958674 -0.69903195 -1.1904138
000340 5b ba 8c bf 55 94 2a 3f ad f6 f4 bf 3d 9b fb 3e
       -1.0994371 0.66632587 -1.913778 0.49141875
000350 0d 64 4c bf e8 c0 02 3f 98 e8 3a 3f 23 af b4 bf
       -0.79840165 0.510756 0.7301116 -1.4115947
000360 aa 95 42 bf f0 1b 75 bf 65 71 68 bf 97 5d 9a bf
       -0.7600962 -0.95745754 -0.90798026 -1.2059811
000370 31 bc 1b 3f 68 e6 98 bf a5 fd 8b bf 98 11 92 3f
       0.6083403 -1.1945314 -1.0936781 1.1411619
000380 07 01 a8 bf d8 ef 16 3f 65 f8 c1 bf f2 a3 7f bf
       -1.3125314 0.5895972 -1.5153929 -0.99859536
000390 c0 33 01 3f 49 c9 15 3f 93 c8 34 bf b3 0f 30 3f
       0.5046959 0.5851026 -0.7061855 0.68773955
0003a0 68 5f 61 3f 02 d8 ae bf d2 60 96 bf 87 84 5c 3f
       0.88036203 -1.365967 -1.1748297 0.8613972
0003b0 46 f0 0b 3f 1c 50 b4 bb 3a 3d 4d bf a2 c7 be bf
       0.54663503 -0.005502714 -0.8017155 -1.4904673
0003c0 0b 99 9e bf c9 68 8d 3f ff b0 9d bf a8 d5 3f bf
       -1.2390455 1.1047603 -1.231964 -0.7493539
0003d0 c8 02 ca bf 02 57 53 3f fd 92 52 3f 44 d6 8d bf
       -1.5782099 0.8255464 0.82255536 -1.1081014
0003e0 2f a6 ce bf 25 b4 ab 3f ac ae 62 bf 16 99 98 bf
       -1.6144465 1.3414351 -0.8854778 -1.1921718
0003f0 5f b7 69 bf 3a 46 6b 3f 25 5f db bf 5e dd 50 3f
       -0.9129543 0.9190403 -1.7138411 0.8158778

l4.weight f4 [256, 32]
000000 94 36 2e bf 64 0e 0e bd a5 b0 02 bd 03 79 81 bf
       -0.6805203 -0.034681693 -0.031906743 -1.0115055
000010 0e 7a 06 3e 19 28 ff be e6 37 d4 3c b6 77 23 3f
       0.13132498 -0.4983528 0.02590556 0.6385454
000020 9b cb 27 3c 41 23 3b bc 65 05 fa be f4 a3 5c be
       0.010241414 -0.011421979 -0.4883224 -0.21546918
000030 dd ce 1d 3e 1e 03 fc 3d 84 8e 91 be b2 00 23 bf
       0.15410943 0.12305282 -0.28429043 -0.63672936
000040 1c b5 54 be 97 82 ed be d3 74 94 3e d7 df fa be
       -0.20772213 -0.46388695 0.2899538 -0.489989
000050 80 c4 cf 3c 47 45 8d 3d 45 ea 32 bd a2 cb ba 3d
       0.025362253 0.06897979 -0.043680448 0.09120871
000060 01 52 0f 3e 90 b6 99 3d a8 6b bd be c8 e6 d1 3e
       0.13996126 0.07505524 -0.36996198 0.40996385
000070 7d 74 7f 3e 5d d5 96 3d 11 c3 f0 be 2c 70 eb bd
       0.2494678 0.073649146 -0.47023824 -0.114960045
000080 5f a4 1b be 01 23 02 bd 82 0f d1 bd bb 41 0b be
       -0.15199421 -0.031771664 -0.10208036 -0.13599293
000090 1e de 92 3d 73 ff f4 be 3b c1 19 3e e3 fc e4 3e
       0.07171272 -0.47851142 0.15015118 0.44724187
0000a0 f8 5a 0f 3f d8 21 47 3e f5 f7 bd 3e 47 e1 c6 be
       0.5599818 0.19446504 0.3710324 -0.38843748
0000b0 c1 49 b5 bc 4a a0 1c 3e fd f8 10 bf 30 64 3a 3e
       -0.022129895 0.1529552 -0.56629926 0.18202281
0000c0 06 e2 61 be c2 97 80 be a6 0b 07 3f bf 81 9a 3e
       -0.22058877 -0.25115782 0.5275215 0.30177113
0000d0 5c cb cf 3e 43 b9 61 3e 3c 07 f2 3e ca 1c 1c be
       0.40584838 0.22043328 0.47271144 -0.15245357
0000e0 9b 42 9a bc 0b 94 00 3e 23 ad d0 bd 73 6a 47 3f
       -0.018830588 0.12556474 -0.10189273 0.77896804
0000f0 ab 17 00 bf 67 f5 7f be 40 ad a2 3e 56 42 1b bf
       -0.50036114 -0.24995957 0.31772804 -0.60648096
000100 cd 18 6a bd 3b 1e 86 3d 66 3d 11 3d aa 4e 2a 3d
       -0.057152558 0.06548735 0.035458945 0.041578926
000110 bd 8c 02 3e 78 33 58 be db 1e 15 be e9 a7 96 bd
       0.12749 -0.21113384 -0.14562552 -0.07356245
000120 98 33 10 be 40 a5 49 3e 64 80 08 3e a3 c7 21 bd
       -0.14082181 0.19691944 0.13330227 -0.03949703
000130 29 89 a8 be 2b ed a9 bc 1d 2e eb 3c ad 59 c8 3b
       -0.32917145 -0.020742973 0.028708512 0.006114206
000140 df ab a3 3e 09 c4 fb 3d 9e 69 dc bb d7 f0 57 bd
       0.31967065 0.1229325 -0.0067264577 -0.052719917
000150 6d 64 4d 3d 3b 9e 85 bd bb 05 ed 3d 68 23 01 3f
       0.0501446 -0.06524321 0.115733586 0.5044465
000160 27 9e b0 be 97 46 34 be d2 17 b1 3e 9e f7 82 bd
       -0.3449566 -0.17605053 0.34588486 -0.063948855
000170 a5 1f 2f be e3 c0 84 bd f7 5d 08 bf 7c ef a4 3d
       -0.17101915 -0.06482103 -0.5326838 0.080534905
000180 41 df db 3d f0 30 82 3d e0 3a 98 bd 9c 2e de be
       0.10735942 0.0635699 -0.074331045 -0.43394935
000190 bd 8f 2b be 5f c9 01 3e f6 44 53 bd 9f 0f 39 3e
       -0.1675405 0.12674473 -0.05157944 0.18072365
0001a0 ce d3 1b 3e 80 0f 3b 3c 31 c5 c0 be 90 d9 00 bf
       0.15217516 0.01141727 -0.37650445 -0.50331974
0001b0 a9 91 23 3e 7e a7 43 bd 28 87 34 be 1f c3 96 bd
       0.15973534 -0.047767155 -0.17629683 -0.07361435
0001c0 73 ce 1d 3f 66 ec ea be cf 79 97 3e f0 ae 4e 3d
       0.6164314 -0.45883483 0.2958512 0.050459802
0001d0 24 be 81 3e a3 c9 bf be 71 f5 57 be 13 70 d8 3d
       0.25340378 -0.37458524 -0.21089722 0.105682515
0001e0 7c 23 ec 3c 3c 79 81 3d 73 42 a1 be 65 2a 2a 3e
       0.028825514 0.06321952 -0.3149601 0.16617735
0001f0 dd 8b b2 3e a6 e1 63 3e fa 0c 8a 3e c6 23 35 3e
       0.34872332 0.22254047 0.26963025 0.17689428
000200 f1 82 dd 3e 4b f8 1f 3e 14 0f 2f 3e 5d 8c 15 3d
       0.43263963 0.1562206 0.17095596 0.036510814
000210 1d 72 9b bd 54 3f 22 be 92 60 77 3d 9d f4 16 3e
       -0.07590125 -0.1584447 0.06039483 0.1474175
000220 a9 30 a5 3e 44 f5 a9 3e a2 72 b2 be 3a bf 0a 3e
       0.32263687 0.33194935 -0.34853083 0.1354951
000230 75 50 8f be 49 24 cc 3e b1 3b a2 be 35 31 79 3c
       -0.2799107 0.39871433 -0.31686166 0.015209486
000240 cc 49 d2 be 96 fa 95 bd e4 9a 29 bf fa c4 66 3e
       -0.41071928 -0.07323186 -0.6625197 0.22536078
000250 82 9f d2 3d 98 f1 d6 3d f2 4e 02 bd 76 ae 70 3e
       0.1028433 0.10495299 -0.03181357 0.23504052
000260 50 09 ab be d6 4b d6 3d 6c c0 61 bd 90 3d e2 bd
       -0.33405542 0.10463683 -0.05511515 -0.11046898
000270 5d 21 9b 3d be 3c 1d 3f 53 84 d0 be 99 ec 86 3e
       0.07574723 0.6142081 -0.40725955 0.26352385
000280 63 8c 5b 3e e2 83 26 3e 99 fb e3 3d a1 ed ef be
       0.21440272 0.16261247 0.11131973 -0.46860984
000290 ea 1f f5 bd de 10 18 3e a1 57 86 bd 0a e4 8c 3e
       -0.11968978 0.14850184 -0.06559683 0.2751773
0002a0 d2 4b 37 bf 55 b4 5b bd 14 e0 f6 be 70 20 f6 bc
       -0.7160007 -0.053638775 -0.48217833 -0.030044764
0002b0 1c 03 e8 3e 9e 68 e0 bd e1 f4 88 3f 46 b4 4f 3e
       0.45314872 -0.10957454 1.0699731 0.20283613
0002c0 09 71 97 be 63 c9 70 3e 4a 9c b7 be d1 b9 c0 bd
       -0.29578426 0.23514323 -0.35861427 -0.09410442
0002d0 8d d7 4e bd c4 61 42 be 60 d3 a0 3e 82 c0 34 3e
       -0.050498534 -0.18982607 0.31411266 0.17651561
0002e0 28 44 3c be b9 d9 07 bd 2c 42 57 3b 59 97 5c 3e
       -0.18385375 -0.03316662 0.0032845838 0.2154211
0002f0 3a 8f 6e bd c0 63 2b 3e 68 d5 81 3e 74 30 28 3e
       -0.05824206 0.1673727 0.2535813 0.16424733
000300 66 d5 00 3f fe 3b 08 3e 2d c6 dd 3d c2 10 fc be
       0.5032562 0.13304135 0.10828815 -0.49231535
000310 07 f1 14 be 32 a1 77 bd 53 ee fb 3d 89 43 16 3e
       -0.1454507 -0.060456462 0.12301316 0.146742
000320 eb b4 98 3d 52 e1 61 3c 26 65 83 3e d3 70 96 be
       0.07456382 0.013786631 0.25663108 -0.29382953
000330 76 d1 0c be 0d 8a 76 bb 13 d6 b1 be e0 fe 0d bf
       -0.13751778 -0.0037618906 -0.34733638 -0.55467033
000340 a6 74 84 be 54 39 a0 bc e5 3a 8a 3e 63 42 46 bf
       -0.25870246 -0.019558586 0.26998058 -0.7744505
000350 1b e4 11 3e ad 52 3e be ca 3a 2f 3e 3c 56 59 3e
       0.14247172 -0.18586226 0.1711227 0.21224302
000360 1a d4 59 3e ad 26 e5 bd 5c 39 be 3e cc f4 d3 be
       0.21272317 -0.111890174 0.37153137 -0.41397703
000370 2b 8c eb be 7e f3 bf 3e 2d a7 0a bf 0b 55 26 bf
       -0.46005377 0.37490457 -0.5416134 -0.64973515
000380 d0 d6 49 be 5a fe 5c 3d 25 59 30 3d 11 1e 5f 3e
       -0.1971085 0.053953506 0.043053765 0.21788813
000390 75 b5 25 bd 42 81 9b 3e 90 7b 53 bd 6e 71 07 3c
       -0.040456254 0.30372053 -0.05163151 0.00826679
0003a0 a5 75 7f 3e 2b 4e 9b 3d 9a 08 d4 3e be ef ff bc
       0.24947222 0.07583269 0.41412812 -0.031242248
0003b0 80 45 ad bd 35 8e 8c be c6 d4 f5 3e aa 21 36 3e
       -0.08460522 -0.27452245 0.48013896 0.1778628
0003c0 e5 54 0c 3f 1a 24 1f 3d a3 c4 d9 3e c9 e2 3e 3e
       0.5481704 0.03885279 0.42532834 0.18641199
0003d0 9b be b9 39 9a 82 0c be 24 08 b6 be 30 0c 7b 3d
       0.00035427962 -0.13721696 -0.35553086 0.06129092
0003e0 05 0c 48 3e 7e 3f d8 bc 29 15 70 3e 0e 59 28 bd
       0.19535835 -0.026397463 0.23445572 -0.041100554
0003f0 2e 1e dd bc 24 0f c0 bc f0 a3 2d be e8 d6 58 3e
       -0.02699193 -0.02344472 -0.16957068 0.2117573

l4.bias f4 [256]
000000 db 93 14 bd c6 44 33 bf 37 0d 1f 3f bd 07 ca bd
       -0.03627382 -0.70026815 0.6212954 -0.09864757
000010 1d 45 b6 be 55 0c ed bc 16 d1 fb bd 7a 96 f5 3e
       -0.35599604 -0.028936544 -0.12295739 0.47966367
000020 56 19 11 bf 9e 3f b9 be 10 d2 9e be cc 46 4e ba
       -0.56679285 -0.3618135 -0.3101964 -0.0007868826
000030 d6 e5 6a 3e 8a 5d 0c 3f 26 66 cc 3e 90 d9 3c be
       0.22939238 0.5483023 0.39921683 -0.18442369
000040 64 e3 ec be 96 07 ac be 3c 5d 9b be 08 2b c4 3e
       -0.46267235 -0.33599538 -0.3034457 0.3831408
000050 8d 17 f0 3e 79 1a 1d 3f 7a a8 bf be d7 28 c8 be
       0.46892968 0.6136852 -0.37433225 -0.39093658
000060 69 88 cd 3e d7 3d e1 3e 13 52 09 be 75 7f 89 bd
       0.40143135 0.43992493 -0.13410215 -0.067137636
000070 fa e7 df 3e ef fe 65 be 8e 1e 80 bc f3 7a b6 3d
       0.43731672 -0.2246053 -0.01563957 0.089101695
000080 84 66 12 bc 06 a0 b4 be 5c 7a 11 be d2 55 10 3e
       -0.008935574 -0.35278338 -0.14206833 0.14095238
000090 a2 16 ab be 41 3a 58 bf bf 94 df ba bb 69 92 3e
       -0.33415705 -0.8446389 -0.001705788 0.2859629
0000a0 a6 8a dd be dd 6e a3 be f4 0f 93 be 1c 37 c5 be
       -0.43269843 -0.3192052 -0.2872311 -0.38518608
0000b0 52 58 e7 3d b9 5c 53 3d 27 35 03 bf 8d 5b 3a bc
       0.11296143 0.0516021 -0.5125298 -0.0113743665
0000c0 e8 77 ca 3e 53 3f 20 bd 2c 0e 04 bf 29 a5 d3 bd
       0.39544606 -0.03912289 -0.51584125 -0.10334236
0000d0 b3 48 05 be f2 12 a2 be 7c f9 61 be 1e a6 a7 3d
       -0.13016014 -0.3165508 -0.22067827 0.08185981
0000e0 9c 12 a9 3e dd 4e 27 3d 24 f3 48 3e ca 00 20 3e
       0.3302201 0.040846694 0.19624001 0.15625301
0000f0 f2 4f 03 3f 1c a3 ca be 44 ae 4a 3b 2b a9 f4 be
       0.5129386 -0.39577568 0.0030926624 -0.47785315
000100 07 98 2e bd 22 92 65 be 53 c2 1c 3f 1a 05 88 3c
       -0.042625453 -0.22419026 0.61234015 0.016603995
000110 75 ec 54 bf 13 1b a0 3e 8a d8 8b 3e ae da 43 be
       -0.83173305 0.31270656 0.27313644 -0.19126388
000120 4e 75 89 be be e9 40 be 96 e4 40 bc c3 9b 58 3e
       -0.2684731 -0.18839166 -0.011773249 0.21153168
000130 58 ae 10 bf fb 9e 9b 3e 1c 2d a9 3c e5 9f d2 be
       -0.5651603 0.3039473 0.020651393 -0.41137615
000140 19 ee fc be 52 0f e8 be 02 06 15 bf 98 bc b7 3e
       -0.49400404 -0.45324188 -0.5821229 0.35886073
000150 80 9c 1a bf c0 65 06 bf aa 27 4a be fc e4 c3 be
       -0.6039505 -0.5249901 -0.19741693 -0.3826064
000160 a8 7b a8 be f4 79 1c 3e a3 db 2c bd c8 cd 07 bf
       -0.32906842 0.15280896 -0.04220165 -0.5304837
000170 2f 09 e5 3e 62 dd e4 3d eb d2 da be 1c ed 85 3e
       0.4473357 0.11175038 -0.42739043 0.26157463
000180 20 88 5f 3c 17 24 3a bf 72 c5 7d be 91 ad b8 be
       0.013643295 -0.7271132 -0.2478235 -0.3606992
000190 c2 a6 18 3f d7 4c 15 bf 14 aa ba 3e ee f6 13 be
       0.5962945 -0.58320373 0.36457884 -0.14449665
0001a0 27 51 41 3d bc 53 12 3e f6 84 b5 3e 43 07 a3 3d
       0.047196534 0.14289755 0.35453004 0.079603694
0001b0 2d a2 cd be fd 1f af bd 44 15 6f be 73 fd e8 be
       -0.40162793 -0.08551023 -0.23347956 -0.45505866
0001c0 55 c3 c9 be 12 92 19 be 7a 52 25 bf 0b 96 4c be
       -0.3940684 -0.14997128 -0.64578974 -0.19979112
0001d0 ec 05 8c bd 87 4f 16 3e 76 6d 12 bd b6 82 cf 3e
       -0.06837067 0.14678775 -0.03574892 0.40529412
0001e0 3a 57 8a be ea f5 a6 3d 3b 12 42 3e 9e 2d 19 be
       -0.27019674 0.08152373 0.18952267 -0.14958808
0001f0 5e 32 ba 3e cd 15 5d 3e 0b 4a 84 be aa a0 7c 3e
       0.36366552 0.21590348 -0.2583774 0.24670663
000200 39 a8 59 bd 1f bf 39 be d5 f6 1b 3e 7e 73 ae be
       -0.053138945 -0.18139313 0.15230878 -0.3407249
000210 07 58 1d bf 1c 21 dd 3d 67 4f 14 3e 2e 2c 41 be
       -0.61462444 0.10797331 0.14483415 -0.1886451
000220 a6 d2 cd 3c f0 1f ae be 3b a6 f5 be 4c 35 98 be
       0.025124859 -0.3400874 -0.47978386 -0.29728162
000230 c7 e5 0d 3e d9 c4 0f bf 66 84 c2 bd 5f ca 25 3d
       0.13857184 -0.5615974 -0.09497909 0.0404762
000240 54 cf 5d 3e 10 9b 28 bf d9 85 19 3c cd 55 8c 3e
       0.2166112 -0.65861607 0.009370291 0.2740921
000250 7e eb e8 be a8 c9 ef bc e9 22 1c be c9 f9 bc 3e
       -0.45492166 -0.029270962 -0.15247692 0.3690932
000260 c5 2a c2 bd 0f 9b 7a be 7e 3f e4 3e a6 6b 01 be
       -0.09480814 -0.24473213 0.4457969 -0.12638721
000270 cb cf 3d be 94 0f 11 bf 2d 92 1e be 2f c9 6e 3e
       -0.18536298 -0.56664395 -0.15485449 0.23318933
000280 60 d1 13 3e 05 c8 0d bf 46 f4 8f be a2 fc 26 bd
       0.14435339 -0.5538333 -0.28116053 -0.040768273
000290 22 12 07 bf e6 76 a0 be ec 55 05 bf 1b 22 c9 3e
       -0.52762043 -0.31340712 -0.5208423 0.39283833
0002a0 cf 56 e8 be b5 99 86 3e 86 9e 22 be 78 2f 21 3d
       -0.4537873 0.26289144 -0.15880784 0.03935191
0002b0 f0 92 80 be e4 1e 03 3c 91 7d c0 3e 51 2a c4 be
       -0.25112104 0.00800297 0.375958 -0.38313535
0002c0 85 c0 f5 bd 5e 0a 2e be 42 7c c0 3d 15 e9 fc 3d
       -0.11999611 -0.16996142 0.093987 0.12349144
0002d0 f7 54 5e bf 30 0e 3a 3e c0 4f e0 3e a9 1a 43 be
       -0.86848396 0.18169475 0.43810844 -0.19053139
0002e0 80 65 64 bd ff bc db bd 8e bc 46 bf ce 56 c5 3e
       -0.05576086 -0.107294075 -0.7763146 0.3854279
0002f0 f0 fe af be 13 a1 4d bf 3c a4 b8 be b4 c8 ac be
       -0.3437419 -0.80323905 -0.360628 -0.33746874
000300 06 69 f7 3d 8c cc a5 be 86 e4 33 bf ac 53 4c 3d
       0.120805785 -0.3238262 -0.70270574 0.049884483
000310 f1 e9 15 3d c9 4a 8f be 8c a0 6d bc dc c3 89 be
       0.036600057 -0.27986744 -0.014503609 -0.2690724
000320 59 00 95 be d0 6f 8f be 1e 35 6d 3e 87 dc b8 3c
       -0.29101828 -0.28014994 0.23164794 0.022566093
000330 ba c7 04 bd a4 62 48 be 21 70 c4 be ba ad 5f 3e
       -0.032417037 -0.19568878 -0.38366798 0.21843615
000340 d3 04 0f be fd a4 b1 3e a9 e2 99 3d 2f bb 6b 3e
       -0.13966684 0.3469619 0.07513935 0.23020624
000350 ea d5 42 be 1c a8 d4 be fa 19 89 be d3 e2 4c bd
       -0.19026914 -0.41534507 -0.2677763 -0.050021004
000360 79 2a f1 3d 67 ac 51 be 08 85 a6 3e 73 82 00 bf
       0.11775679 -0.20475923 0.3252337 -0.5019905
000370 1f f6 0a bf 67 b4 27 be 9d 80 66 be 85 e4 e3 bd
       -0.542818 -0.16377412 -0.2251 -0.11127571
000380 86 16 f5 3d 6a a7 04 bf 58 b5 7d 3e 05 b3 36 bd
       0.11967187 -0.51817954 0.24776208 -0.04460432
000390 dc df ec be 75 55 91 bd fd 3d a0 3c 72 89 6c 3e
       -0.4626454 -0.07096378 0.019560808 0.23099306
0003a0 41 ba a0 be 5f 4e 5b 3e 31 26 59 bf f1 ff 47 be
       -0.313921 0.21416615 -0.848239 -0.19531228
0003b0 0d ee c4 3e b2 2e 92 bd a8 41 2e 3e ca ba 36 be
       0.38462868 -0.07137813 0.17017233 -0.17844692
0003c0 5f 40 c1 3e ab ed c3 3d 4d 19 ca bd 06 b2 1d bf
       0.37744424 0.09566816 -0.09868107 -0.6159977
0003d0 c8 5f b0 3e f7 97 ed 3c ff f7 a6 3e cc 65 99 bd
       0.34448075 0.029003127 0.3261108 -0.07490119
0003e0 71 cc 27 3e 10 ce 6a be f2 79 01 bf b5 c8 8c be
       0.16386582 -0.22930169 -0.505767 -0.27496877
0003f0 a2 db 56 3e 40 f1 53 bc ea 78 f3 3e 00 69 ae be
       0.20982221 -0.012935936 0.47553188 -0.34064484
