Project/upload/part2_q1/HalfCheetahBulletEnv-v0_TD3_BC_7_1638388510_td3_bc.pth (torch, 898095 bytes, 16 tensors)

l1.weight f4 [256, 32]
000000 47 be 75 be da 06 e1 3d 24 d8 df 3d 9d c3 10 3e
       -0.23998366 0.10987635 0.109298974 0.1413712
000010 29 05 97 3d ee dd 8e bd 9c 77 35 be 7f 02 5c 3d
       0.07374031 -0.069759235 -0.17721409 0.053713318
000020 a3 2d 70 be 54 26 b0 3e 84 b0 03 3d 2b fa 1e 3e
       -0.23454909 0.34404242 0.03215076 0.15525119
000030 7c 5c ad 3e 07 fd dc 3d 19 af ea 3d 50 bd a8 3e
       0.33859622 0.10790449 0.114591785 0.32956934
000040 f6 b7 99 3e a5 4c 50 3e fa 31 15 3d 1a a2 8c 3d
       0.30023164 0.20341738 0.036424614 0.06866856
000050 04 d4 a2 3e 9d ad 53 3e 70 97 2c 3e 98 54 98 3e
       0.3180238 0.20671697 0.16854644 0.2975204
000060 84 aa 18 3c 2d ce cd be 1f 8d 3e 3c 3f f9 6e bc
       0.009317998 -0.40196362 0.011630326 -0.014585792
000070 ff ca 08 be d2 f5 60 3d 92 f3 e5 bd 1e b5 73 bd
       -0.13358687 0.054921933 -0.11228098 -0.0594989
000080 34 00 90 3e 51 dd bb bd ce a7 a8 3e 79 64 a8 3e
       0.28125155 -0.09173072 0.32940525 0.32889155
000090 b6 5d c0 bd 85 cb 9c 3c 82 f2 16 bb 67 cb 6e be
       -0.09392874 0.019140014 -0.002303273 -0.2331978
0000a0 55 0e 39 3e e0 05 e3 bc 6a fb 7e 3e a8 0e 7d bd
       0.18071873 -0.027712762 0.24900594 -0.061781555
0000b0 4c 2b b4 3d c0 67 5b 3d 31 ca 30 be c1 f2 a3 3e
       0.08797321 0.05356574 -0.1726463 0.32021144
0000c0 7c ec 0c bd b2 1a 81 3d 56 91 2b 3e 6e ac cd b9
       -0.034405217 0.0630392 0.1675466 -0.00039229117
0000d0 fd 86 dd bd 1e 97 7a 3d fb 9c 84 3c b9 c1 14 bd
       -0.108167626 0.061179273 0.016188135 -0.03631756
0000e0 55 d1 a8 be a4 a1 07 be 01 17 ed 3d 22 ed 86 bd
       -0.32972208 -0.13245255 0.11576653 -0.06588198
0000f0 2b d2 f0 3d 6a 7b 11 3f 92 dc fd bd d7 8b 98 bc
       0.11758836 0.5682894 -0.12395586 -0.018621368
000100 7d ae 19 3f dc f2 bd 3d c8 7a 2d bd e4 53 8c 3e
       0.60031873 0.092748374 -0.04235342 0.27407753
000110 83 ee 2b 3e be 74 3e bc 7b 3e 87 3d f0 3b ab 3d
       0.16790204 -0.011624513 0.06603714 0.083610415
000120 d3 ab c4 3d f4 3a 8e 3d 95 18 96 3e cf 1a d1 3c
       0.09603085 0.06944838 0.2931563 0.025525479
000130 b8 27 0d bd 6a 7f 5c 3d f4 cd 8f be e7 30 a0 be
       -0.034461707 0.05383245 -0.28086817 -0.3128731
000140 2f f3 17 3e ad 5b e7 3d 1c 23 14 3f a0 0f 56 3e
       0.14838861 0.11296783 0.5786607 0.20904398
000150 43 d8 4b be 44 9a 69 bf 5a 05 f2 3d 42 58 d5 3d
       -0.19906716 -0.91251016 0.11817427 0.104172245
000160 cc a3 83 be f3 f8 82 be b2 78 2d 3e 20 4c a6 bd
       -0.25710905 -0.25580558 0.16940573 -0.081199884
000170 57 58 1c be 2b 80 4d bf 74 44 9e 3e 49 ee 2d 3c
       -0.15268074 -0.80273694 0.309116 0.010615894
000180 f4 81 7a 3e 3a bd d5 bd bf 8b e4 3d ef 18 e4 be
       0.24463636 -0.10436483 0.11159467 -0.44550273
000190 29 28 0c be 7e 0a b2 3e 2f c1 70 3d ce 74 e8 be
       -0.13687195 0.3477363 0.058777984 -0.45401615
0001a0 5a 2e ec be a6 fe d1 3d 3f 5e c9 bb f5 76 04 3e
       -0.46129113 0.102536485 -0.006145268 0.12936004
0001b0 d6 02 9d 3b 8b 8d 53 be 50 1b 45 3d 3d f5 d3 bc
       0.004791598 -0.20659463 0.04812175 -0.025873775
0001c0 eb 93 c9 be 9f 65 a4 bd 11 5b 85 bd d2 52 67 3c
       -0.39370665 -0.08027195 -0.0651151 0.014118867
0001d0 2b 8e 72 bb 67 c3 1b 3e 14 a6 a3 be ac 18 22 be
       -0.0037011008 0.15211259 -0.31962645 -0.15829724
0001e0 8c 99 07 3d e1 61 ec 3d 99 52 5c bd 06 e2 0a be
       0.033105418 0.115421064 -0.05378971 -0.13562784
0001f0 12 38 98 be be 55 3f 3e 8b c9 d3 be ae c8 33 3e
       -0.29730278 0.18685052 -0.41364703 0.17557022
000200 66 7d 1a bd 1c d0 25 be 0d bd 96 3b 3f 4f 1d bd
       -0.037717246 -0.16192669 0.0046001733 -0.038405653
000210 24 db fc 3d 46 91 f9 be 5d 9b 25 bd 84 91 c3 be
       0.12346485 -0.48743647 -0.04043137 -0.38196957
000220 04 55 41 bd 59 da e1 3e c3 e4 81 3d b9 96 d3 3d
       -0.047200218 0.441119 0.06342461 0.103314824
000230 ca 39 35 3e e2 82 26 3f dc 5a 29 3e 79 17 ed 3d
       0.17697826 0.6504346 0.16538566 0.11576743
000240 a1 8f e5 3e 50 fd 95 3d 5f 36 c3 bd 37 5e 35 bd
       0.44836143 0.07323706 -0.09531855 -0.044279303
000250 ad cd 3a bd d9 72 03 bd 83 c5 90 bd 29 65 05 3d
       -0.045606304 -0.03209195 -0.07068922 0.032567177
000260 47 94 b2 bd a4 2e 17 bc 25 b7 0c 3e 92 69 0c 3d
       -0.08719688 -0.009227429 0.13741739 0.034280367
000270 2e fc a6 3e 5d ef 6e bd c4 d3 86 bc 1f 96 44 3d
       0.32614273 -0.058333743 -0.0164584 0.04799473
000280 0c 83 03 bf ba 56 be 3a 2e bd fc 3d e6 b7 f0 be
       -0.51371837 0.0014521696 0.12340771 -0.47015303
000290 be 6e 9f bd f0 ba 89 be bd fc 9c be 4a 8c bf bd
       -0.07784794 -0.26900434 -0.30661574 -0.0935293
0002a0 cf b0 db 3e 4b 00 3f 3e 95 1e 59 bd ae 1e 37 3d
       0.42908332 0.18652456 -0.05300768 0.044706993
0002b0 b3 d1 ac 3d 07 6b 80 3e cc 96 25 3f 66 05 11 be
       0.084384345 0.25081655 0.6468322 -0.14162216
0002c0 08 45 4b be ec e8 0f bf e9 22 53 3f f2 a1 8f be
       -0.19850552 -0.56214786 0.82475144 -0.28053242
0002d0 7b f1 84 3c b2 8f eb b9 27 1a 2e be ab 75 a3 bd
       0.016228428 -0.00044929754 -0.17002164 -0.07981428
0002e0 fb 3a 35 3e 3c aa 43 be 38 21 a9 bd 08 3d 49 3e
       0.1769828 -0.19107908 -0.08258289 0.19652188
0002f0 c4 bc 8e 3e 9c eb 2d 3e 57 a8 3a be c0 cd dc 3d
       0.27878392 0.16984409 -0.18228279 0.10781431
000300 5b 5b a8 3e 6e 6b 34 be 06 6d 71 3e 77 3c cb 3e
       0.328822 -0.17619106 0.23576745 0.3969457
000310 57 3d 0f 3d ff f8 9a 3d ec d9 c9 be 87 ca 99 be
       0.034970608 0.075670235 -0.39424074 -0.3003733
000320 e8 22 a1 bb d7 91 24 3e e3 78 69 3d 0b bc 86 3d
       -0.004917491 0.16071258 0.057000052 0.06578835
000330 c8 24 f0 3e f0 76 08 be 6a ae 94 be 20 09 65 bd
       0.46903062 -0.13326621 -0.29039317 -0.055916905
000340 42 b2 8c be f6 c1 97 bd b2 b0 35 bf 31 7d 40 3e
       -0.2747975 -0.07410042 -0.7097274 0.18797757
000350 ed 9c 05 bf 68 9d f9 3b 33 32 2b bd 3e 85 bb bd
       -0.52192575 0.0076176412 -0.04179592 -0.09156273
000360 3d 61 0d bc 51 e1 76 bd dc 3b 24 3f 55 17 dc 3d
       -0.00862914 -0.060273472 0.6415384 0.10746638
000370 2c ca d5 be bf 2c 7b 3d ba a6 9e 3e f1 c8 30 3e
       -0.41755807 0.06132197 0.30986577 0.17264153
000380 d8 85 67 be 3e 4b 78 bd dd 9e c9 bd 7f 54 e0 bd
       -0.22609651 -0.06061863 -0.09844754 -0.10953616
000390 1b 84 a9 3d 49 ef 41 be df 8f 43 bd 2a 11 ed 3d
       0.0827715 -0.18938936 -0.047744628 0.115755394
0003a0 b5 17 12 3d 90 a9 9f 3e bc 44 b5 3d db b8 88 3e
       0.03566714 0.31184053 0.08851001 0.26703534
0003b0 dc 6f 11 3e 50 7d 2b be 48 81 5a 3c 96 d9 c0 bd
       0.14202827 -0.16747022 0.013336487 -0.09416501
0003c0 ab 52 1d 3b f0 43 ac bd 6c 57 12 bd 29 31 05 be
       0.0024005573 -0.084113955 -0.035727903 -0.13007034
0003d0 54 8c e0 be 31 8c 53 bd 78 f8 80 3d 37 08 c6 be
       -0.43857062 -0.05164737 0.06297392 -0.38678142
0003e0 76 87 72 be 52 0f 40 be 6a 80 ad 3e 63 8b d0 bc
       -0.23684487 -0.18755844 0.33887035 -0.02545709
0003f0 c7 91 d0 be eb c2 58 3d c5 2a 06 bd 2a fa 7a bd
       -0.4073622 0.052920263 -0.032755632 -0.06127373

l1.bias f4 [256]
000000 86 fd 8d 3e 83 4d 82 3e ce b9 cc 3c c6 31 13 bf
       0.27732486 0.25449762 0.024990942 -0.57497823
000010 b7 ba 04 bf d2 45 49 bf 41 38 86 bd 53 13 97 3e
       -0.51847404 -0.7862216 -0.06553698 0.2950693
000020 f6 ac e9 be a6 f7 e5 be 30 18 5e bf 08 93 8a be
       -0.4563977 -0.44915503 -0.8675566 -0.270653
000030 f5 63 9c 3d e9 10 d3 be 4e 4d c4 be c8 60 46 bd
       0.07636253 -0.4122384 -0.3834023 -0.04843214
000040 9a 1d 3b bf 80 ce b7 be fd 1b 39 be 90 b0 75 bd
       -0.73092043 -0.35899734 -0.18077083 -0.059982836
000050 ec d9 a6 be 8d 4d e8 3e a7 e5 4b bf da dc 82 bd
       -0.32588136 0.45371667 -0.79647297 -0.0638978
000060 07 66 cc be 83 05 88 3e 15 7f 8e be c0 8c 85 3e
       -0.3992159 0.26566705 -0.2783133 0.26083946
000070 65 ec 18 3c e5 6f e8 be fe 54 06 be 10 ca 0f bf
       0.009333705 -0.4539787 -0.1311836 -0.561677
000080 dc 7b 8d be ce 57 8d bc 07 84 a8 3e bb ce 20 bf
       -0.2763356 -0.017253783 0.3291323 -0.62815446
000090 36 33 8c be 31 fc 78 3e 32 72 18 3e c6 34 de bd
       -0.2738282 0.24314953 0.14887312 -0.108499095
0000a0 a7 e9 35 be 3e fe 39 3e f1 91 0f bf 7e e3 98 3e
       -0.17764913 0.18163392 -0.56082064 0.29861063
0000b0 b7 fb 55 bf ed 78 b6 3e a4 95 2a bf 7e 28 9d 3e
       -0.8358721 0.35639134 -0.66634583 0.30694956
0000c0 40 c0 a1 3e 9f f7 5f 3e 21 2e 5a be 3a ac f6 3e
       0.31591988 0.21871804 -0.2130666 0.48178273
0000d0 b1 59 5a bf 70 90 ca 3e af 38 21 bf 10 17 1b 3f
       -0.8529311 0.39563322 -0.6297712 0.60582066
0000e0 27 bc 0b bf 95 45 c5 be 70 bb e8 bd 65 8e 33 bf
       -0.5458397 -0.3852965 -0.11363876 -0.7013915
0000f0 1d 35 28 3f bb 3c 25 3b c6 95 86 3e f2 81 cb be
       0.65706044 0.00252132 0.26286143 -0.39747578
000100 c8 c4 89 bd 9e f1 7c 3e 13 f6 9a be b4 ec 4e 3e
       -0.06726986 0.24701545 -0.30265865 0.20207483
000110 f3 3f c4 3d 81 9c 57 bf 57 c4 e1 3d e7 4a 21 bf
       0.0958251 -0.8422318 0.11023777 -0.63004917
000120 14 66 d1 be 48 9e a2 3e b6 55 8f bb 0e 8e 59 bd
       -0.40898192 0.31761384 -0.004374231 -0.05311399
000130 4d 05 e4 be 4e 38 0d bf cd f5 10 bf eb 6e 20 bf
       -0.44535294 -0.5516404 -0.5662506 -0.6266925
000140 b4 70 1b bf 37 fb 22 bf 04 c4 14 3f b2 ff f7 be
       -0.60718846 -0.63664573 0.58111596 -0.48437268
000150 ca 77 b1 3d 18 35 d9 be dd b4 b7 be 74 41 f3 be
       0.08665426 -0.4242332 -0.35880175 -0.47510874
000160 0f e3 a8 3e a0 df c2 3e 94 5a fa be 1e 81 c7 3e
       0.32985732 0.38061237 -0.4889723 0.38965696
000170 30 7e bd 3e eb 96 5f 3e a2 ea 13 bf d5 31 22 3c
       0.37010336 0.21834914 -0.57779896 0.009899576
000180 32 63 f1 be df 4c b8 bd 43 51 98 be 07 70 17 bf
       -0.47145993 -0.08999037 -0.29749498 -0.59155315
000190 9c fe 88 bd 1d 0b 17 be d2 64 bd be fe be 95 bf
       -0.06689188 -0.14750333 -0.36990982 -1.1698911
0001a0 04 56 11 bf d4 4a e4 3e e1 df ea 3e 25 62 06 bf
       -0.56771874 0.4458834 0.4587393 -0.52493507
0001b0 94 88 7a be b9 24 84 3e c8 e1 ea be a6 79 93 be
       -0.24466163 0.25809267 -0.45875382 -0.28803748
0001c0 45 2f 87 be 7b 2f 1a 3f 9c 00 0a be 01 d1 00 3e
       -0.2640325 0.602287 -0.13476795 0.12579729
0001d0 18 a4 9f be 98 bc 27 bf 6e a4 11 3f 32 48 bf be
       -0.3117988 -0.65522146 0.56891525 -0.37359768
0001e0 ad 0a 87 bf d0 fd 35 3e 2c c7 ea be e6 39 94 3e
       -1.0550133 0.17772603 -0.4585508 0.28950423
0001f0 9e e0 71 be 50 0c 13 bf aa 07 db bc 62 86 9d 3e
       -0.23620841 -0.5744066 -0.026737053 0.30766588
000200 90 49 35 bd c0 1f dd bd a7 5b ac be f9 f4 0e 3e
       -0.044259608 -0.107970715 -0.33663675 0.13960637
000210 e5 42 e4 3e 49 93 92 3e 3d 95 eb 3e 32 5f 4c bf
       0.44582286 0.28627995 0.46012297 -0.79832757
000220 c2 c4 36 bf a0 72 ed bc 0b 9c 7c 3e 20 4e 81 be
       -0.7139398 -0.028985322 0.246689 -0.25254917
000230 91 1b 87 3e f9 73 80 3e 73 dd de 3e 49 cf 3a bf
       0.2638822 0.2508848 0.43528327 -0.7297254
000240 a8 88 93 be ab a6 0c 3f 96 ec 00 bf 0c 37 25 bf
       -0.28815198 0.54941815 -0.50361 -0.6453712
000250 b0 6c ce 3e bb 64 0c 3f 86 90 07 3f 6f 03 ba 3e
       0.40317297 0.548412 0.529549 0.36330745
000260 86 46 e1 3e 86 0d 1d 3e 0c e5 87 be f1 b6 db 3e
       0.43999118 0.1533719 -0.26541936 0.4291301
000270 95 f1 cb 3e 4a 5f e9 be ea 38 13 be da 08 86 bc
       0.3983275 -0.45580512 -0.1437718 -0.016361643
000280 a8 eb 1c bd 03 84 e0 be 93 09 35 bf 2a 46 35 bf
       -0.038310677 -0.43850717 -0.70717734 -0.70810187
000290 45 cc bb 3e e7 53 79 be 1d e0 1b be 55 56 4f bf
       0.36679283 -0.24348412 -0.15222211 -0.8099111
0002a0 ed ad 19 be 4a 23 10 3f eb 6b 97 be 3a 3c 0b bf
       -0.15007754 0.56303847 -0.29574522 -0.54388773
0002b0 e0 31 c0 3e 4b 63 17 3f 96 e2 cb be 8b db e3 3d
       0.37538052 0.59135884 -0.3982131 0.11125859
0002c0 0b d1 b7 be fe 5d a1 be b8 dd 87 be 33 0c 68 bc
       -0.35901675 -0.31517023 -0.26536345 -0.014163065
0002d0 45 bd f5 3e f9 85 2a bf f4 a2 4d bf 8a eb 9e 3d
       0.47995964 -0.66610676 -0.8032677 0.07759769
0002e0 f4 49 ba be f6 61 eb 3d ff 43 4b be 2f 9c 85 3e
       -0.36384547 0.11493294 -0.19850157 0.2609572
0002f0 ea 7e e7 3e 55 41 8a 3e 88 29 9d 3e ec ff 3a bf
       0.45214015 0.2700297 0.30695748 -0.73046756
000300 90 86 8d be 90 81 23 3f 26 41 31 bf 6e be 04 be
       -0.27641726 0.6386957 -0.69240034 -0.12963268
000310 35 27 83 3e 7b 9f 9c 3e c2 1b 86 bf b0 3e 8b 3e
       0.2561585 0.30590424 -1.0477221 0.27196264
000320 12 10 a0 be 39 97 ca 3e 3f 17 4f bf 72 7b 2c be
       -0.3126226 0.395685 -0.80894846 -0.16843966
000330 22 e3 0d 3f 56 9e 2e 3e 50 f2 01 bf d0 63 06 bf
       0.554247 0.17052588 -0.50760365 -0.5249605
000340 f1 b4 58 be b3 19 9a be 0f 99 ae 3e 27 b4 59 be
       -0.21162774 -0.30097732 0.3410115 -0.21260129
000350 53 85 3a 3e f3 14 84 be 58 9c f9 be 7a f4 59 3e
       0.18214922 -0.25797233 -0.48752093 0.21284667
000360 db 4c 41 bf c0 bc 64 bd 7b f7 0f be 38 6f 60 be
       -0.755079 -0.05584407 -0.1405925 -0.21917427
000370 bf e5 5c bf 2f 4f ff be cc 76 15 bd db b2 6a bf
       -0.86288065 -0.498651 -0.036490247 -0.9167916
000380 a5 b8 e1 bd ab 04 0f bf ec 09 e2 3e 81 1f 0b bf
       -0.11021546 -0.558665 0.44148195 -0.54344946
000390 cb a5 16 bf 36 b6 f8 3e 39 0f ec 3d a1 62 e1 be
       -0.5884673 0.48576516 0.11526341 -0.4402056
0003a0 c7 8e 49 bf 98 b3 1c bf 15 22 7c 3e 0a 9f 9f be
       -0.78733486 -0.6121154 0.24622376 -0.31176025
0003b0 30 8b 06 3e 3a fa f5 be 56 12 21 bf 3e fa b6 be
       0.13139033 -0.4804247 -0.62918603 -0.35737795
0003c0 ef ec 2f 3e f5 c2 db 3d 01 46 25 bf 81 53 04 3f
       0.17180227 0.107305445 -0.6455994 0.51689917
0003d0 c8 14 07 3f b6 0d 6d bf 7b 68 33 bf b3 5e 58 be
       0.52766085 -0.92599046 -0.700813 -0.21129875
0003e0 d6 37 38 3e bf 2f c6 3e 39 61 68 be b4 53 be be
       0.1799005 0.38708302 -0.22693338 -0.37173235
0003f0 c0 18 a3 be 66 4b e2 3e dd 61 74 3e d0 9c a8 be
       -0.3185482 0.4419815 0.23865457 -0.32932138

l2.weight f4 [256, 256]
000000 b8 09 c5 3c df ff a5 3d b2 f1 27 3b aa d8 62 bc
       0.024052486 0.08105444 0.002562624 -0.013845602
000010 3c 25 2c be 92 24 a2 be 4f 28 b3 3e 5b 32 49 3d
       -0.16811079 -0.31668526 0.3499169 0.04912029
000020 67 47 85 be 71 95 40 be 91 62 b3 3e fe 90 2a bd
       -0.26031038 -0.18807007 0.35036138 -0.04164218
000030 88 60 1f 39 62 67 f8 3d 5e 34 16 be 7e b1 0c 3e
       0.00015199382 0.12129094 -0.14668414 0.13739583
000040 d4 fd 77 bc 09 15 35 be 13 e5 b7 3b 27 26 80 3d
       -0.015136201 -0.17683806 0.0056120246 0.06257277
000050 17 74 93 3d 00 75 b3 3d 47 27 cc bd 53 bf 8f bd
       0.07199877 0.0876255 -0.09968429 -0.07018914
000060 4a 49 50 3e b9 e5 99 3d ac 58 d1 bd fb dd 34 3d
       0.20340458 0.07514519 -0.10221991 0.04415701
000070 04 f4 3c bb 95 11 27 bf 96 a5 ef bd 43 09 e7 3d
       -0.0028831968 -0.65261203 -0.11701505 0.112810634
000080 ed 74 58 3e c0 17 bb bc e5 7e 32 bb 7a ce 4f be
       0.21138354 -0.022838473 -0.002723628 -0.20293608
000090 0a f2 a5 bd 17 2a 82 3c 49 20 58 bd c8 e9 49 bd
       -0.08102806 0.01588921 -0.052765165 -0.049295217
0000a0 83 19 c8 3a 7e 7a c3 3b ca 0b d5 3d 26 42 0d 3e
       0.0015266392 0.00596553 0.10402639 0.13794765
0000b0 3d f0 6d 3e 37 9e 11 3e f5 d2 00 be 54 2a e7 3c
       0.23236175 0.1422051 -0.12580474 0.028218426
0000c0 e8 c8 52 3b 57 1a 08 3e 52 b8 7b be 20 c7 2f 3d
       0.0032163206 0.13291298 -0.24582031 0.04291451
0000d0 0b 3c 98 3e 8a 1d 26 3d 54 72 92 bc e3 19 c6 3d
       0.2973331 0.040555514 -0.017876782 0.09672906
0000e0 89 59 e8 be f3 bd ad be 6a e8 1b be c6 13 8d bd
       -0.4538081 -0.33933982 -0.15225378 -0.06888537
0000f0 55 98 84 3e 05 6e e6 3d ae f4 a4 39 9a 6e 63 bd
       0.2589747 0.11251453 0.00031462818 -0.0555254
000100 9a d5 17 bd 2d 1b 9a 3d 55 bb 14 3e 14 ac 2c bd
       -0.03706894 0.075247146 0.14524586 -0.042156294
000110 ed 9d da 3d 24 4f 1b be 6b 69 5c bd fb 81 bc 3d
       0.10674653 -0.15166909 -0.053811472 0.09204479
000120 87 ee 02 be 59 66 e3 bb d2 9e d3 3d 7b b0 ac 3d
       -0.12786303 -0.006939691 0.10333027 0.084320985
000130 ce 74 6c 3e 5f 3f e0 bd 5b 3b a2 bb 1a 4d f1 be
       0.23091432 -0.10949587 -0.0049509234 -0.47129136
000140 b8 99 e4 bd 08 c7 5c be 33 67 d6 3d c1 c0 17 3c
       -0.11162132 -0.215603 0.104689024 0.009262265
000150 15 d7 c6 3d a1 51 bd be 10 8e cb 3d f1 28 93 bd
       0.097089924 -0.3697634 0.09939206 -0.07185543
000160 86 82 ae 3d 17 d0 b8 3d 22 04 e0 3d ca 69 0d 3c
       0.08520989 0.09024065 0.10938288 0.008631179
000170 96 bf c3 3d a0 38 4b 3e 7e 0c 88 3d cc 2e a1 bd
       0.095580265 0.1984582 0.06643008 -0.07870254
000180 9c e0 8a 3e 5d 97 fe 3d cc 22 cf be 48 4e 3e be
       0.27124488 0.12431214 -0.40456235 -0.1858455
000190 c7 c0 80 3e 66 d8 52 3e 39 e7 5e 3d ad 7c 8a be
       0.25147077 0.20590362 0.05441973 -0.27048245
0001a0 cf 89 9e 3d b0 7f 72 3e 23 c4 ad 3d 11 99 2a be
       0.07741129 0.23681521 0.08484676 -0.16659953
0001b0 32 e0 99 3a c4 5a 8b 3c 5f 5e 59 be 55 f9 bd 3e
       0.0011739789 0.017011054 -0.21227406 0.37104288
0001c0 3d 63 1e be e4 8d 29 3e 1d 07 02 be bf d6 82 3e
       -0.15467544 0.16558033 -0.12698026 0.25554463
0001d0 03 2b 8b 3d 54 c2 e3 be c0 d9 ef 3d 3e 97 ee bc
       0.06795313 -0.44484198 0.117114544 -0.029124852
0001e0 25 7b 06 bf ef 83 39 3d 18 50 ee be 21 c9 d6 bc
       -0.52531654 0.045291837 -0.46545482 -0.026218953
0001f0 29 20 80 3d 03 26 03 3c 53 cc 39 3d 56 78 7e 3e
       0.06256134 0.008004668 0.045360874 0.24850592
000200 b6 63 54 bd 69 42 5e 3d 8e a6 6c be 84 69 79 bd
       -0.051852904 0.054262552 -0.2311041 -0.060891643
000210 b6 2f 72 bd 64 c7 ef 3d cd 57 82 bd bb c5 ac bd
       -0.059127532 0.117079526 -0.06364403 -0.084361516
000220 fc e9 3c 3e e3 90 57 bd bc 50 ce bc d8 c9 b7 3e
       0.18448633 -0.05262841 -0.025184982 0.35896182
000230 4e de 0b 3e 2a b7 26 3e 21 1a f6 3c f0 2b a3 be
       0.13659021 0.16280809 0.030041756 -0.3186946
000240 14 b1 e5 bb 3f 91 b9 3d 9d 43 8c 3b 1f 02 f7 bb
       -0.0070096347 0.090609066 0.004280521 -0.0075380947
000250 2e 4a 90 3c 17 3e 37 3e 0e c0 4d 3e 95 79 a3 3d
       0.017613497 0.17894779 0.20092794 0.07982174
000260 fc cb a7 3d c7 94 8e bc d3 d2 d3 3b 2f 4b 2a 3e
       0.08193204 -0.017404927 0.006464341 0.16630243
000270 cc c9 39 3c 53 74 37 be 3d be 83 3e 75 54 ce 3d
       0.011339616 -0.17915468 0.25731078 0.10074703
000280 da 56 d6 3c 4c b0 21 be 9e d3 f0 be 9a 85 de be
       0.02616446 -0.15789908 -0.4703645 -0.43461305
000290 56 fb 9c bd af bb f6 ba 7e 45 ee 3b 71 2e 4c 3e
       -0.07665126 -0.0018824245 0.0072714677 0.19939591
0002a0 c9 41 39 3e c6 d6 9a 3e fc f3 37 bd 83 84 d9 3c
       0.18091501 0.30241984 -0.044910416 0.026552444
0002b0 49 39 89 3d 16 c0 24 3e 69 90 b3 bd c9 d5 d2 3b
       0.067003794 0.160889 -0.087677784 0.0064341766
0002c0 ec fd 70 3e 55 57 2c 3e 5c 6d ee 3d b4 c4 d7 bd
       0.23534364 0.1683019 0.116419524 -0.10535565
0002d0 73 fa 1d 3d 4f da 50 be 90 c5 88 3d 4e 6a 28 3d
       0.038568925 -0.20395778 0.06678307 0.041117005
0002e0 a3 d1 9b be b0 f1 a3 3b 28 99 c6 be 6a f9 ea bc
       -0.30433378 0.0050031766 -0.38788724 -0.028683383
0002f0 04 36 e7 3d 32 bc 1c 3e 40 28 5b bc f0 8b 69 be
       0.112895995 0.15306166 -0.013376296 -0.22807288
000300 f5 72 4e bc d5 2c 43 3d 62 2a 83 3e c5 90 3a bd
       -0.01260065 0.047650177 0.25618273 -0.04554822
000310 9d 7e 21 bd c0 d7 51 3d 3e 83 da 3d 1f b7 dc 3d
       -0.03942739 0.051231146 0.10669564 0.10777115
000320 19 23 0b 3e 9d 2e 70 3d e7 88 af be 46 29 4c bd
       0.13587607 0.058638204 -0.34284136 -0.04984405
000330 10 d6 46 3e 40 50 96 bd 7a 1b 37 be eb 12 31 be
       0.19417596 -0.07339525 -0.17881575 -0.17292373
000340 2d d3 25 bd 3a 76 85 bd b9 3f 07 3e 94 0e 03 be
       -0.040484596 -0.065166906 0.13207902 -0.1279853
000350 b4 b0 a5 bd bd 63 c1 be 7c 30 5f 3e 15 b1 ce bd
       -0.08090344 -0.37771407 0.21795839 -0.100923695
000360 46 ab 73 3e 0a 69 7a 3d 9e 28 76 3e 63 62 b8 3a
       0.23795804 0.06113533 0.24038932 0.0014067407
000370 1a 22 0f bd 3c b9 a8 be 15 5d 27 3e 6e 40 4d 3d
       -0.03494463 -0.32953823 0.16344102 0.050110273
000380 87 19 a2 bd 5d df 5a be 8a 12 1e bc 36 e3 24 be
       -0.07915025 -0.21374269 -0.009647975 -0.16102299
000390 ec 07 2f 3e e6 c5 3c 3d b6 cf 7c bd ec d6 fb 3d
       0.17092866 0.04608717 -0.061721526 0.122968525
0003a0 43 6d a7 be 98 18 b5 be 00 89 1d 3d a0 53 07 bd
       -0.32700548 -0.35370326 0.03846073 -0.033038735
0003b0 f9 21 17 bd c4 53 48 be d1 0a 6e be 5d 6b 99 be
       -0.036897633 -0.19563204 -0.23246314 -0.29964724
0003c0 2b dc d5 3d 91 13 87 3e 42 9f 26 be 38 4c a0 3e
       0.10442384 0.26382115 -0.1627169 0.3130815
0003d0 5a 16 05 3e 7e b9 40 be f0 8a 0c bf ea 38 31 3e
       0.12996808 -0.1882076 -0.548995 0.17306867
0003e0 d3 4e 80 3c 3c df 4f 3e 52 08 c9 3d 08 d8 20 be
       0.015662586 0.20300001 0.0981604 -0.1570741
0003f0 a4 df 0c 3e e7 fc f2 3d 24 32 d2 bd aa 9f 52 3e
       0.13757187 0.118646435 -0.1026347 0.2056872

l2.bias f4 [256]
000000 3c 76 40 3f dc 76 29 3f 91 0e 01 3f 1a 63 06 3f
       0.7518041 0.6619699 0.5041285 0.52494967
000010 ef 24 d6 be cd 03 30 3f 31 f4 35 3f 9e bb 23 3f
       -0.41825053 0.687558 0.7107573 0.63958156
000020 ee 70 07 be ea a6 09 3f 98 62 3c be f8 ef 2e 3f
       -0.13226673 0.53770316 -0.18396986 0.68334913
000030 a8 37 27 3f 66 1e 19 be 74 c1 97 3e 4f f8 9d be
       0.653193 -0.14953002 0.2963978 -0.30853507
000040 c6 d5 d7 3e 02 c0 32 bf fc 38 cb 3e e4 14 3e 3f
       0.42155284 -0.6982423 0.39691913 0.74250627
000050 e9 37 2f 3f 28 2c d8 be 42 71 18 3f f4 81 fb be
       0.6844469 -0.4222119 0.5954782 -0.49122584
000060 9c 5c 8e be df 55 25 3f b0 4f 6e be 0c a6 91 be
       -0.2780503 0.64584154 -0.23272586 -0.28446996
000070 70 37 15 3f df 35 af be f7 19 2c 3f eb 47 2c 3f
       0.58287716 -0.34220788 0.6722712 0.6729724
000080 f9 45 26 3f 22 78 24 3f 4c 9d 1b 3f 5a 7f 7d be
       0.6495052 0.6424581 0.6078689 -0.24755612
000090 7e 01 01 3f 4b 25 a3 be c8 73 02 bf 76 97 32 3f
       0.503929 -0.3186439 -0.5095792 0.6976236
0000a0 ed f1 35 3f 00 75 23 3f 85 6b 36 3f 99 b2 ff 3e
       0.71072274 0.638504 0.7125781 0.49940947
0000b0 dd 4c aa be f1 83 af be 1f 7f 96 bd 06 6b 12 3f
       -0.33261767 -0.3428035 -0.07348465 0.57194555
0000c0 34 14 ea 3e 46 fa 1b 3f c2 ed 2a 3f a8 15 28 3f
       0.4571854 0.6092876 0.6676904 0.65658045
0000d0 ec d5 03 3f 4b 28 11 3f f1 45 a4 be 8f 57 26 3f
       0.51498294 0.5670211 -0.3208461 0.64977354
0000e0 34 00 fc 3e 3d d8 9b be 4a 40 68 be 5c d1 1e 3f
       0.49218905 -0.30438414 -0.22680774 0.6203821
0000f0 de 5e d1 be 93 2c 0f 3f 46 8c 31 3f 16 69 d7 3e
       -0.4089269 0.5592739 0.69354665 0.42072362
000100 3a cf 89 be 1a e2 c1 be 88 ac 31 3f 99 99 60 be
       -0.26915914 -0.37867814 0.69403887 -0.21933593
000110 43 2e 1c 3f ed 0c 0c 3f 57 f8 6e be c4 41 2d 3f
       0.6100809 0.54707223 -0.23336922 0.67678475
000120 53 3f 0f 3f 41 ee bb be ee 7a 2c 3f 01 25 c9 be
       0.55956 -0.3670521 0.67375076 -0.39286044
000130 9b 04 6a be d9 9f 4d be 61 4e 34 bf ef 2f 08 3f
       -0.2285332 -0.20080508 -0.70432097 0.5319814
000140 5c 24 2e 3f 4f 2e 11 bf ea a2 0f 3f e2 74 11 be
       0.6802423 -0.56711286 0.5610796 -0.14204744
000150 82 69 f1 3b 99 61 16 3f 7b c0 26 bf 7b 65 be be
       0.007367314 0.5874267 -0.6513745 -0.37186798
000160 43 d2 1e 3f 7a fb c1 be 7b f2 34 3f 68 69 2d 3f
       0.62039584 -0.37887174 0.70682496 0.6773896
000170 96 c1 d7 be 58 3f d3 be 0c f8 26 3f 21 02 1e 3f
       -0.42139882 -0.41259265 0.6522224 0.61722
000180 fd c9 05 3f 69 58 11 3f f1 29 1c 3f 1e 7c 45 be
       0.52261335 0.5677553 0.610015 -0.19285628
000190 5f ad d6 3a 03 2c 28 3f 98 11 a9 be 6f 2e 20 3f
       0.0016378573 0.65692157 -0.33021235 0.6257085
0001a0 5b a8 3b 3f cc 1b 2b 3f 73 96 2a 3f 61 e7 08 3f
       0.73303765 0.6683929 0.6663582 0.53478056
0001b0 6e a2 cc be ae cc 01 3f 15 6f ca be 98 ef 33 3f
       -0.39967674 0.5070294 -0.39537874 0.70287466
0001c0 79 77 29 3f d9 64 2f 3f 02 d6 b2 be 5f ff 22 3f
       0.66197926 0.68513256 -0.349289 0.63670915
0001d0 24 6e ee be 8a ab 14 3f 9a ba eb be 52 17 1d 3f
       -0.46568406 0.5807425 -0.46040803 0.6136371
0001e0 e0 1f 14 3f 9a ec de be 70 f2 bb be 7b c2 2d 3f
       0.5786114 -0.43539888 -0.36708403 0.6787488
0001f0 66 d2 2c be 1f 5f ae be e4 29 2b 3f ef 7e cd be
       -0.16877136 -0.34056947 0.66860795 -0.40135905
000200 4d 53 31 3f 2e a1 f0 3e 37 df 1e 3f bc de fc bd
       0.6926773 0.4699797 0.6205935 -0.12347171
000210 3d 1b a5 be 39 c2 f4 be 03 58 d0 be 0a 3f 1b 3f
       -0.32247344 -0.4780443 -0.40692148 0.60643065
000220 82 96 1d 3f 7b af 3a bf 00 0c 14 bf 4b 4a be be
       0.6155778 -0.7292401 -0.5783081 -0.37166056
000230 d8 c3 39 3f fe 52 b7 be 91 1b 1c 3f 28 e6 e0 bd
       0.7256446 -0.35805506 0.60979563 -0.10981399
000240 30 72 45 be d8 50 2c 3f 25 47 2d 3f 1b a8 27 bf
       -0.1928184 0.6731086 0.6768668 -0.65490884
000250 3a 4b d8 be 72 43 01 3f 55 48 21 3f 1e 29 30 3f
       -0.42244893 0.5049354 0.63000995 0.6881274
000260 bb 67 e6 be 05 bd 22 3f a0 52 1d 3f ef 8e 1f 3f
       -0.45001015 0.6356967 0.614542 0.62327474
000270 f2 68 7e be 11 0e 1f 3f ad 01 22 3f 72 0a 26 3f
       -0.24844721 0.6213084 0.6328381 0.6485969
000280 52 56 a5 be 73 1f 3a 3f 5a bb ef be ca 26 52 bd
       -0.3229242 0.7270424 -0.46822625 -0.051306523
000290 5d a6 36 3f b6 ec e6 be 4a ef 38 bd 24 10 24 3f
       0.713476 -0.4510247 -0.04515008 0.6408713
0002a0 05 31 34 3f 7c 20 25 3f 54 4c 21 3f b9 fc aa be
       0.703873 0.6450269 0.6300709 -0.33395937
0002b0 9f 4c 8b be 17 09 e1 be d3 e4 b8 be c4 4f b9 be
       -0.27206895 -0.43952248 -0.3611208 -0.3619367
0002c0 48 a6 20 3f 3f 1e 79 be bc bf 8e be ab f1 40 3f
       0.62753725 -0.24327944 -0.27880657 0.75368756
0002d0 91 27 b0 be bb 7b 2b bf 4f 98 39 3f f2 45 ae be
       -0.34405187 -0.6698567 0.7249803 -0.3403774
0002e0 9a 4a e2 be b9 cb 3c 3f 6c 60 ac bd 54 a8 9e be
       -0.4419754 0.73748356 -0.084168285 -0.309878
0002f0 7e e1 39 3f b9 66 f7 be 64 58 24 3f bc 96 15 3f
       0.726097 -0.4832056 0.64197373 0.5843313
000300 86 bd 13 3f de 45 07 3f 57 10 4d be a3 44 4b be
       0.57711065 0.52840984 -0.20025764 -0.19850402
000310 29 d5 90 be 17 7b 1f bf ee d4 0f 3f c3 03 24 be
       -0.28287628 -0.62297195 0.5618428 -0.1601706
000320 a8 8e 21 3f fc e6 05 3f b9 b6 73 be 9c 39 81 be
       0.631083 0.5230558 -0.23800172 -0.25239265
000330 48 97 09 3f 57 ac 2d 3f c5 08 72 be e1 43 28 3f
       0.5374646 0.67841095 -0.23636158 0.65728575
000340 29 6e b8 be d6 69 52 be c2 ee c0 be 6a 5b 13 3f
       -0.36021546 -0.20548186 -0.37682158 0.5756136
000350 71 b7 22 3f 7b ea bc be e9 f0 2f 3f 84 47 f0 be
       0.6356116 -0.36897644 0.68726975 -0.46929562
000360 9a 6e c7 be 36 5e 10 3f 82 c5 96 be 5d 51 20 3f
       -0.3895157 0.56393754 -0.29447562 0.6262415
000370 27 98 26 3f 67 b5 7e be 7e 8d 02 be 3a 8e 2e 3f
       0.65075916 -0.24873887 -0.12749287 0.6818577
000380 3f a7 3d 3f 8e 60 fb 3e ff 59 35 3f f4 d1 92 be
       0.7408332 0.49097103 0.7084045 -0.28675807
000390 b3 df 2b 3f d1 b1 f4 3e a6 c9 a5 be 5e 92 19 3f
       0.6713821 0.47791913 -0.32380408 0.59988964
0003a0 ab be 20 be be de 1f 3f b1 31 3b 3f 75 63 31 3f
       -0.15697734 0.6244925 0.731227 0.69292384
0003b0 29 6b 39 3f da 38 cb be bf b4 75 be 89 82 28 be
       0.7242914 -0.39691812 -0.2399473 -0.16456045
0003c0 c0 35 25 3f a7 61 d8 be dd 74 be be 22 56 f3 3e
       0.6453514 -0.42262003 -0.37198535 0.47526652
0003d0 cc fc b4 be 3f 63 f2 be f4 fd 38 3f ab ee ad be
       -0.3534912 -0.47341344 0.722625 -0.33971152
0003e0 12 48 27 3f d2 cb aa be c3 d6 28 3f db a3 29 3f
       0.65344346 -0.33358628 0.659527 0.6626565
0003f0 6a 95 3b be 90 1e 16 3f a1 85 22 3f 45 b3 bb be
       -0.18318716 0.58640385 0.6348515 -0.3666021

l3.weight f4 [1, 256]
000000 e3 c0 5a 3e e3 bb 82 3e c2 2d f5 3e a9 7a c8 3e
       0.21362643 0.2553397 0.47886473 0.39156082
000010 c9 14 41 bf cd 4b ce 3e aa a2 c6 3e c4 d3 95 3d
       -0.7542234 0.40292206 0.38795978 0.07315782
000020 93 30 7f bf 51 7d ff 3e 52 78 9b bf 76 eb 65 3e
       -0.99683493 0.49900296 -1.2146094 0.22453102
000030 84 38 a8 3e 51 58 de bf a6 8f 93 3f ac f5 ad bf
       0.32855618 -1.7370702 1.1528213 -1.3590598
000040 cf d6 8e 3f 2a 26 c1 bf 24 5c 2a 3f f3 ad c9 3e
       1.1159304 -1.5089772 0.66546845 0.39390525
000050 fe 73 9f 3e d5 14 dd bf 8c 48 a2 3e c1 72 21 bf
       0.31143183 -1.7271982 0.31695974 -0.63065726
000060 da 16 2c bf 01 da a4 3e f7 3d 9e bf ab e6 89 bf
       -0.6722237 0.32197574 -1.236266 -1.0773519
000070 7c 75 99 3e fb 98 29 bf 30 41 3e 3e 64 ec 95 3e
       0.29972446 -0.66249055 0.18579555 0.29281914
000080 4c 0c 21 3e db c6 20 3e c8 af cb 3e 2e af 5b bf
       0.15727347 0.15700857 0.39782548 -0.8581418
000090 e1 81 c9 3e 34 67 8f bf e7 81 35 bf 81 50 48 3e
       0.39356902 -1.120337 -0.7090134 0.1956196
0000a0 ce da b6 3e 24 49 ba 3d e2 87 9d 3e 8b 68 d0 3e
       0.3571381 0.09095982 0.30767733 0.4070476
0000b0 c4 9e 10 bf bf cb 80 bf a8 15 5c bf 05 ab 77 3f
       -0.5649226 -1.0062178 -0.85970545 0.9674533
0000c0 b4 95 0a 3f dc 5c 72 3e 55 5b e2 3e 33 a4 b0 3e
       0.5413468 0.23668236 0.44210306 0.34500274
0000d0 a6 e9 f6 3e bf 18 24 3e da 36 c5 be 16 f7 3f 3e
       0.48225135 0.16025065 -0.3851841 0.187466
0000e0 75 57 f1 3e db 33 2d bf ac b6 ee be e3 2e 2e 3e
       0.47137037 -0.6765725 -0.46623743 0.17010073
0000f0 60 c8 34 bf 94 40 32 3e 14 75 8b 3e 5e cf c8 3e
       -0.7061825 0.17407447 0.2723776 0.3922071
000100 b8 1d 01 bf 27 d1 31 bf 7e 2e e1 3e 01 35 41 bf
       -0.5043597 -0.69459766 0.43980783 -0.754715
000110 d7 10 55 3e 6b 9e 92 3f db b8 86 bf 14 38 38 3e
       0.20807205 1.1454595 -1.0525163 0.17990142
000120 b6 da bb 3e f1 3d 0f bf 98 3a 83 3e bb a4 55 bf
       0.366903 -0.5595389 0.2563064 -0.83454484
000130 38 14 aa bf 19 96 13 bf dd a0 7d bf 38 85 50 3f
       -1.328742 -0.57650906 -0.9907358 0.81453276
000140 c5 0a 4e 3e 2a 63 73 bf a7 c3 65 3e 59 d3 37 bf
       0.20121296 -0.9507319 0.22437917 -0.71806866
000150 3d 75 bf bc 8d f0 5d 3e 5b 30 43 bf 3b 59 7a bf
       -0.023371333 0.21673794 -0.7624566 -0.97792405
000160 5f 7e 87 3e fb d0 89 bf 54 9e 86 3e 5a 8b 26 3f
       0.264636 -1.0766901 0.2629267 0.65056384
000170 4a 65 e4 be 6f cb 90 bf 55 4b 6f 3e 86 38 da 3e
       -0.44608527 -1.1312083 0.2336858 0.4262125
000180 54 92 c3 3e 3b 7c fd 3e 6f ca c5 3e c4 30 e1 be
       0.38197577 0.49508843 0.38631007 -0.43982518
000190 0f 7d a7 3b 13 cc 5c 3e 58 3b 22 bf dd 10 57 3e
       0.0051113437 0.21562223 -0.633718 0.21002527
0001a0 47 c2 80 3e 0e bb 67 3e ba 5f 38 3e 27 e6 5e 3e
       0.25148222 0.2262995 0.18005267 0.21767484
0001b0 fe 6c 09 bf 39 c5 f3 3e 86 0a 1a bf f2 e6 d3 3e
       -0.53681934 0.47611406 -0.6017231 0.41387135
0001c0 40 e4 9d 3e a0 34 99 3e 64 aa 51 bf 9f 95 4a 3e
       0.30838203 0.29922962 -0.8190062 0.19783638
0001d0 b7 3a 52 bf ca 4c d4 3e d1 4b 88 bf c2 68 48 3e
       -0.8212084 0.41464835 -1.0648137 0.19571212
0001e0 38 bd 8e 3e eb ed 50 bf 28 40 1b bf bf bb 57 3e
       0.27878737 -0.81613034 -0.6064477 0.21067713
0001f0 a0 19 54 bf 45 58 20 bf 25 e2 89 3e a6 46 41 bf
       -0.828516 -0.6263469 0.26930347 -0.75498426
000200 5a 53 57 3e 9e c6 20 3f 46 73 17 3e 9d 21 95 bf
       0.2102789 0.62803066 0.14790067 -1.1650883
000210 3b 41 6c bf 4d 07 af bf 6d 22 9a bf ce da 9b 3f
       -0.92287034 -1.3674103 -1.2041756 1.2176149
000220 e6 29 eb 3e 09 5f 8d bf 26 ed ae bf 81 3f 19 bf
       0.45930403 -1.1044627 -1.3666122 -0.59862524
000230 ef 26 ac 3e 68 d6 59 bf 48 4a 88 3e 3e e4 98 bf
       0.33623454 -0.8509278 0.26619172 -1.1944654
000240 9c 82 9c bf 48 5a 1b 3f 19 00 c6 3e 49 be 75 bf
       -1.2227359 0.60684633 0.3867195 -0.9599348
000250 d1 3e 9d bf d2 48 3e 3e 84 91 92 3e 61 29 35 3e
       -1.2284795 0.18582466 0.28626645 0.17691566
000260 da 83 14 bf c1 74 6c 3e b5 71 62 3e 09 af 83 3e
       -0.5801369 0.23091413 0.22113688 0.2571948
000270 b0 84 b0 bf ea 19 94 3e 12 cc 84 3e 5e 46 6b 3e
       -1.3790493 0.2892602 0.25936943 0.22976062
000280 d1 e9 46 bf 23 33 82 3e d4 1e 80 bf 23 e7 89 bf
       -0.77700526 0.2542964 -1.0009408 -1.0773662
000290 ed 35 49 3f 1f 24 81 bf 26 3b f9 bf 24 9f 82 3e
       0.7859791 -1.0089148 -1.9471176 0.2551204
0002a0 66 c0 1b 3f 33 b7 12 3f df 8e b3 3d ff 2d 8a bf
       0.6084045 0.5731079 0.08767485 -1.0795287
0002b0 68 18 95 bf 78 c6 63 bf 70 62 21 bf 7e 7f 6c bf
       -1.1648073 -0.88974714 -0.6304083 -0.9238204
0002c0 1f 6c f8 3e 60 53 9c bf 1f 05 0a bf 98 53 02 3f
       0.4851999 -1.2212944 -0.53914064 0.50908804
0002d0 c8 00 a2 bf 04 b3 45 bf d8 0f 49 3e 68 cf 66 bf
       -1.2656488 -0.7722628 0.1963495 -0.90160227
0002e0 8c c8 a1 bf 41 a4 ab 3e 5c b7 46 bf 85 95 6a bf
       -1.2639327 0.33523753 -0.77623534 -0.916344
0002f0 89 91 46 3e 4e f5 2f bf 43 f8 ec 3e ab b0 31 3e
       0.19391455 -0.6873368 0.4628316 0.1735255
000300 d6 6b 02 3f 53 98 da 3e 63 ba 32 bf 5c b9 c5 bf
       0.50945795 0.4269434 -0.69815654 -1.5447192
000310 2b 2c e7 bf b3 71 bd bf 49 b9 33 3e 84 37 3c bf
       -1.8060354 -1.4800323 0.1755115 -0.7352221
000320 b8 11 7c 3e 79 91 21 3f eb 8a 49 bf 03 73 9f bf
       0.24616134 0.631126 -0.78727597 -1.2456974
000330 20 d0 15 3f 9e 20 34 3e 44 4d c4 bf 81 ab 91 3e
       0.585207 0.17590567 -1.533608 0.2845116
000340 c7 d5 f1 be 3c b1 4f bf 22 ff 15 bf 42 b9 f9 3e
       -0.47233412 -0.81129813 -0.58592427 0.48774153
000350 9b 4f 14 3f 55 b9 97 bf f0 67 3a 3e 82 85 c0 be
       0.5793397 -1.1853434 0.18203712 -0.37601858
000360 e0 f2 25 bf 4b f2 fa 3e 30 73 1b bf b1 54 47 3e
       -0.6482372 0.4901298 -0.6072264 0.19465901
000370 05 23 68 3e df bd a4 bf e2 5e 4e bf 1b 79 a7 3e
       0.22669609 -1.2870444 -0.8061353 0.32709584
000380 c6 20 bd 3e cf 84 b8 3e f6 b7 ba 3e 1c 92 3b bf
       0.36939067 0.36038825 0.36468476 -0.7326982
000390 49 23 19 3e 27 bc cb 3e 89 55 57 bf dc 82 44 3e
       0.14954866 0.39791986 -0.8411489 0.19190544
0003a0 dd 82 21 bf b2 f3 05 3f 2f d6 5c 3e c7 bb ad 3e
       -0.63090307 0.52324975 0.2156608 0.33932325
0003b0 e5 15 0f 3e 02 6e b7 bf 3e 5a 72 bf 1e 4c 39 bf
       0.13973196 -1.4330447 -0.9466895 -0.7238177
0003c0 18 d6 18 3e 36 b1 9d bf 5e f7 dc bf 43 cc b3 3e
       0.1492542 -1.2319705 -1.726299 0.35116777
0003d0 f9 7f 29 bf d0 a1 8e bf 67 8f c6 3e 8f 1c 9e bf
       -0.66210896 -1.1143131 0.38781282 -1.2352465
0003e0 53 2f 65 3e 16 69 05 bf 02 27 15 3e 9a 31 a6 3e
       0.22381334 -0.52113473 0.14565662 0.32459718
0003f0 07 91 56 bf e1 a3 d8 3e 0b 1c ff 3e 53 77 59 bf
       -0.83815044 0.4231253 0.49826083 -0.849477

l4.weight f4 [256, 32]
000000 35 2b 32 3e 17 b2 0d bd e8 a2 0e 3f fa e0 11 bd
       0.17399295 -0.034593668 0.55717325 -0.035614945
000010 65 ac 31 be 2b c0 b0 bd 8d 48 9f be 66 03 b6 3d
       -0.1735092 -0.08630403 -0.3111004 0.08887367
000020 e2 d5 b9 bd 17 a3 de bc 90 e1 59 be 9d d3 f9 3c
       -0.09073998 -0.027177377 -0.21277452 0.030496413
000030 ee af 03 bf 43 25 53 be 83 5f f5 3d 70 3a aa bd
       -0.5144032 -0.20619683 0.11981108 -0.08311927
000040 51 ef 64 3d 90 4a 93 bd 62 cf f8 bd 3c 53 6f bd
       0.055892292 -0.07191956 -0.1214893 -0.058428988
000050 76 5f 2e 3d f6 79 a9 3d c5 19 83 3e 74 44 bc bd
       0.042571507 0.08275215 0.25605598 -0.09192744
000060 52 8e 1f 3e 7c 86 91 3c 11 f7 a3 bd c1 84 6d 3d
       0.15581635 0.017764322 -0.080061086 0.057987932
000070 06 18 5d bd 4c 78 a2 3d fc 1d 1b 3d a9 d4 85 3b
       -0.05397799 0.07933101 0.037870392 0.004084189
000080 c8 97 c5 bd b1 6e 13 be 65 da af 3d 79 9f 85 be
       -0.096480906 -0.14397694 0.08586577 -0.2609823
000090 40 34 7e 3d 4e 23 da 3e 67 13 5d be 28 0a 59 bd
       0.06206155 0.4260506 -0.21589433 -0.0529882
0000a0 a7 c9 97 3c 6c 71 11 3e 4b 2a db 3e 52 27 16 3e
       0.018528773 0.14203423 0.42805704 0.14663437
0000b0 35 af 95 be bb 93 1f bd bc 9b 0c be ad 88 2d 3d
       -0.29235235 -0.038959246 -0.13731283 0.042366672
0000c0 27 1c b6 3d 90 70 56 bd 34 70 99 be 8e f0 cd ba
       0.088920884 -0.05235344 -0.29968417 -0.001571195
0000d0 10 c0 78 be dc e1 7e be 24 8e 84 be cb 85 fc bd
       -0.24292016 -0.24890846 -0.25889695 -0.123302065
0000e0 4e d0 83 3d e0 3b f1 bd b6 1e e2 3e 58 78 e8 be
       0.06436215 -0.117789984 0.44164056 -0.45404315
0000f0 58 2d 3c 3e 3e 2e 52 bd 37 c1 a2 be 5b 64 d8 3d
       0.18376672 -0.05131363 -0.31788036 0.10566016
000100 ae 05 11 bf d5 a0 2f be 61 79 6a 3d 57 3d 87 be
       -0.5664929 -0.17151196 0.057244662 -0.26413986
000110 72 f3 5f bd 5d 43 e3 bd 6a 24 3e be 67 da 1a 3e
       -0.054675527 -0.11096833 -0.18568578 0.15122376
000120 14 33 0c 3e 09 c2 35 3e cf 6e 5a 3d 33 b6 13 3d
       0.1369136 0.177498 0.05332833 0.03606243
000130 cc 53 69 3e 07 0f c8 bc 48 da ba be 7b 91 2c 3e
       0.22785872 -0.024421228 -0.3649466 0.16852371
000140 ca fc c6 be 1d 95 96 3e 9a e3 4d 3e a3 c2 06 3e
       -0.38864738 0.2941064 0.20106354 0.13160186
000150 b0 c7 80 3e 65 a9 4b bd 38 2a bc bc 7d a9 ca 3c
       0.2515235 -0.049722094 -0.02296935 0.024739021
000160 cd 49 4a bd 37 fd 6e be 05 4c 03 3d db ec 05 3d
       -0.04938679 -0.23338781 0.03205492 0.032696586
000170 68 d2 25 bd 68 e8 32 bd 9b 3e 99 bd 96 f7 e7 3c
       -0.040483862 -0.04367867 -0.07482644 0.0283163
000180 e4 79 35 be 1b dd f8 bd 99 14 6c bc 3d b4 65 3c
       -0.17722279 -0.121515475 -0.014409208 0.014020023
000190 aa a3 7e bd 22 36 7b bc 18 59 c1 3d 5a 65 28 3f
       -0.0621678 -0.0153327305 0.094408214 0.6577965
0001a0 40 58 99 bd ef 8f ca bd 01 f6 b1 3e da 95 39 bd
       -0.074875355 -0.098907344 0.34758 -0.045308925
0001b0 49 63 a4 be 77 2a 19 3c 5d 5d 22 be e5 f8 65 be
       -0.32107 0.009348503 -0.15855928 -0.22458227
0001c0 a3 9d 0f 3f 9a 26 3d 3e 22 e8 5b 3f da 9d 72 3e
       0.5609991 0.18471757 0.8590108 0.23693028
0001d0 29 65 6e 3d f1 4f 65 be 5d b0 df bd 72 b3 69 3d
       0.058201943 -0.22393776 -0.109223105 0.057055898
0001e0 03 ef bd ba 3a 69 05 3e 0d 48 23 3d 68 97 91 bb
       -0.0014490787 0.13028422 0.039863635 -0.004443098
0001f0 26 3c 98 bb ec ab 44 bf 4b 22 41 3f 2a bd 9f bd
       -0.004645842 -0.7682483 0.7544295 -0.07799752
000200 57 23 88 3d e9 80 d3 bd 4c 45 dc 3e de de 13 bd
       0.066473655 -0.10327322 0.4302162 -0.036101215
000210 ab 47 7b bd ef 8c 35 3d f0 0c 4e be 50 04 37 3e
       -0.061347645 0.044323858 -0.20122123 0.17872739
000220 d4 03 c4 3d b0 1b 50 3e 26 01 63 be 4b 1c 32 bd
       0.09571043 0.20323062 -0.22168407 -0.043484014
000230 3d 63 0e 3d 40 b1 92 3d 90 58 7b 3c d8 85 8b 3e
       0.03476261 0.07162714 0.015340939 0.27250552
000240 5d b3 8b 3e 77 01 8a 3e df 35 81 bd 04 94 e4 3d
       0.2728528 0.26954243 -0.06309103 0.11161044
000250 bc 3e 08 3f aa 1f 93 bd 6e 67 c0 3d 43 15 cc 3e
       0.53220725 -0.07183774 0.09394728 0.3985997
000260 c4 dc 31 3c 49 33 c2 bd 99 ea 84 3d 44 b3 35 be
       0.010855857 -0.09482438 0.064900585 -0.17744166
000270 34 ff fa 3c 7a 85 a9 bc 87 32 b0 3d a2 e9 ab 3d
       0.030639268 -0.02069353 0.08603387 0.08394171
000280 19 82 ad 3e 96 ab 16 be 9b f7 20 3e 96 6d 48 3e
       0.3388832 -0.14713892 0.15719454 0.19573054
000290 89 ab c9 bd 8e a5 30 3d 58 76 9c bd cb d8 7c 3e
       -0.09847171 0.043126635 -0.0763976 0.24692075
0002a0 ee c8 48 3e 1b 7e 67 3d 63 97 08 3f 55 31 7a 3c
       0.19607899 0.056516748 0.53356 0.015270551
0002b0 72 e3 0c bf f8 be 99 3e 2e eb ec be 80 6d 34 3e
       -0.55034554 0.3002851 -0.46273178 0.17619896
0002c0 e3 57 98 be a0 52 a0 bd 81 de a3 bd cd 65 c8 be
       -0.29754552 -0.078282595 -0.080014236 -0.39140168
0002d0 43 f5 55 3e 5d 09 c7 3d 55 59 54 be 51 ae 00 be
       0.20894341 0.09718583 -0.20737202 -0.12566496
0002e0 2e c0 9d bb 80 65 e7 3d a7 fb d9 bd 14 35 ad be
       -0.0048141694 0.112986565 -0.10643702 -0.33829558
0002f0 24 6a f4 3d df 59 8b bd c6 d8 17 3e 22 d8 83 be
       0.11934307 -0.06804251 0.14828786 -0.25750834
000300 2e 2b 44 3e c8 fc ae 3d 88 f8 dc bc a3 7b c3 be
       0.19157097 0.08544308 -0.026973978 -0.38180265
000310 be 62 eb 3d 49 7b 65 be 2a 24 01 be 3b 96 ee 3c
       0.11493443 -0.22410311 -0.12611452 0.02912437
000320 cd 2b a2 3d 03 a4 81 be cc c6 2a 3e 9a 21 f6 be
       0.079185106 -0.25320444 0.16677397 -0.4807251
000330 2b 7a 39 bd 28 34 6c be e2 e5 90 3d 38 ef 35 3f
       -0.045282524 -0.23066771 0.07075097 0.71068144
000340 fb 29 11 be 05 2f 8f 3e cf aa df 3d a4 f3 ab be
       -0.1417617 0.2796556 0.10921251 -0.3358432
000350 3b 77 39 be 1b 0f 7c be 3a 73 aa 3e 8d 05 c9 3e
       -0.18111889 -0.24615137 0.33291036 0.39262047
000360 9d a8 58 3d 37 d1 62 bd 9e ce 2d be 17 b5 01 be
       0.052895177 -0.055375304 -0.1697335 -0.12666737
000370 b7 2d 76 3e c3 eb 83 3e 52 a6 80 3e 1e ee 9c 3e
       0.24040876 0.2576581 0.25126892 0.3065042
000380 3d b7 76 3d c9 a7 28 bd cd 30 5d bd 6c 01 1b 3e
       0.060233343 -0.041175637 -0.05400162 0.15137261
000390 3a 5d 8d bd dc 2b 20 3d 91 b7 47 3d ac ca f0 3d
       -0.06902547 0.039104328 0.048759047 0.117574066
0003a0 22 0c 95 3e 0f 6b 87 3e a7 18 ba 3e 74 69 5a 3e
       0.2911082 0.26448867 0.36346933 0.2132929
0003b0 99 f3 92 3e 6c f8 ca 3d ca 87 11 bf de ed bd be
       0.28701475 0.09910664 -0.5684782 -0.3709554
0003c0 80 cb e9 3a 57 d2 35 3e a1 49 aa 3d 16 c1 14 3e
       0.0017837137 0.1775602 0.08314825 0.14526781
0003d0 bb e9 3d 3d f1 af d5 bd fe dd 01 bf d8 57 b5 bd
       0.04636548 -0.10433949 -0.5072936 -0.088546455
0003e0 17 9c 59 3e 35 d4 41 3c cb 4d a7 3e 90 29 11 be
       0.2125095 0.011830379 0.3267654 -0.14176011
0003f0 81 2c 35 3d 47 2a a8 bf 8b a4 64 3f 73 c3 3d be
       0.044231895 -1.3137902 0.8931357 -0.18531589

l4.bias f4 [256]
000000 ba 5a 16 3f cb 2f 7c be 8f 7d b5 3e df 56 b3 be
       0.5873219 -0.24627607 0.35447356 -0.35027215
000010 9f 18 dc 3e 83 4e 98 be 00 2a 17 bf d1 c4 b2 be
       0.42987534 -0.297474 -0.5904846 -0.34915784
000020 88 8b 95 bb 75 c9 d0 be e5 10 4c 3e 0a 91 90 3e
       -0.0045637526 -0.407787 0.1992832 0.28235656
000030 4d b4 78 bf 5d ec fc 3e 2a 78 84 3c 02 b2 d2 3e
       -0.9715012 0.4939908 0.01617058 0.41151434
000040 71 5d d5 be f7 12 0c 3d 70 0e 01 bf 48 f3 f4 bd
       -0.41672853 0.034197774 -0.50412655 -0.11960465
000050 e9 7c cb 3e 60 9e d9 bd 46 0a 00 3f eb 6d 4d bf
       0.39743736 -0.10625911 0.50015676 -0.80245847
000060 1b a1 2b be 3e 3e de be ee 45 df be a6 e6 0c 3f
       -0.16760676 -0.43406862 -0.4360804 0.5503944
000070 df b8 01 be 5c 95 74 be 3b 54 c6 3e bf fe 54 bf
       -0.12668179 -0.23885101 0.38736138 -0.8320121
000080 72 41 04 3f e7 90 f7 be 91 a9 f9 3c 43 e1 95 3e
       0.5166236 -0.4835274 0.030476363 0.29273424
000090 32 c3 aa be 81 e7 03 3f 9e d7 42 bf 83 6f 8c 3e
       -0.33352047 0.5152512 -0.76110256 0.27428827
0000a0 f7 68 ec be 02 77 08 3d 09 ec 31 bf 54 f5 ba 3e
       -0.46173832 0.03331662 -0.69500786 0.36515296
0000b0 38 14 17 bf d9 eb 0b 3d e8 06 93 be bb a5 a0 be
       -0.59015226 0.03416047 -0.28716207 -0.31376442
0000c0 94 55 0c 3d 00 5a 08 3e 28 1d 42 bf 63 6a a3 3d
       0.0342613 0.13315582 -0.7582574 0.07979276
0000d0 0e 3a 11 be 3f 84 9c bf 58 ff ee 3e d8 61 dd be
       -0.14182302 -1.2227858 0.46679187 -0.4323871
0000e0 75 48 04 bf 0c 6e 40 3e f4 53 cd be b0 3c 03 bf
       -0.5167306 0.1879198 -0.40103114 -0.51264477
0000f0 cc 4a 8a bf 0c db 39 bf 90 0b 40 bf 47 76 fb 3e
       -1.0804076 -0.72599864 -0.7501764 0.49113676
000100 58 63 1d bf 50 10 93 be ec 1d 0b bc 03 b9 dd be
       -0.6147971 -0.28723383 -0.008491021 -0.43305215
000110 46 33 6d 3d d0 be 44 bf 30 c7 bd bc 09 3b c0 3e
       0.057910226 -0.76853657 -0.023166269 0.3754504
000120 6a f4 14 3c f1 fc 3e bf e6 74 eb be 24 dd cc bd
       0.009091476 -0.7460471 -0.45987624 -0.10003117
000130 35 4d 2d be 57 7b 96 be eb b4 06 bf 21 d5 64 3e
       -0.16923983 -0.29390976 -0.5261981 0.22346927
000140 74 71 ba be 39 72 04 3f 9d b2 9f be 72 32 69 3e
       -0.36414683 0.5173679 -0.3119096 0.2277315
000150 95 24 cb be 30 8c 2c bf b0 4e 4b 3e d3 23 22 3e
       -0.39676347 -0.6740141 0.19854236 0.15833978
000160 32 6d 76 be 7a b4 e0 3d 9d dd bb be dc 8d 7d 3e
       -0.24065092 0.10971923 -0.36692515 0.24761146
000170 47 10 94 be e8 90 2d bf 5c b3 83 be e9 50 82 be
       -0.2891867 -0.67799234 -0.25722778 -0.25452355
000180 7f b4 fb be 96 71 fd be e2 b2 12 bf 2d 47 8b be
       -0.49161145 -0.49500722 -0.57304204 -0.2720274
000190 cf 6a 90 be be 54 a5 be 7f 50 5d bf 14 14 e5 3e
       -0.28206488 -0.32291216 -0.8645095 0.4474188
0001a0 b2 fd 50 bd 0c b7 ca 3d 31 73 01 3f a2 31 9b be
       -0.051023193 0.09898195 0.50566393 -0.30311304
0001b0 76 11 c6 be dc 43 15 bf f7 5a f2 be 15 f6 71 3e
       -0.38685197 -0.5830667 -0.47335026 0.23629029
0001c0 85 9b 6f 3e d9 4c 43 3e 1b 95 30 3f 8d 15 59 bc
       0.2339917 0.19072284 0.68977517 -0.013249767
0001d0 f4 36 22 bf 3f d1 f4 3d 94 68 83 3e 07 d0 32 be
       -0.633651 0.11953973 0.25665724 -0.17462169
0001e0 e7 04 07 bd d5 18 e5 be e6 29 75 3e 09 68 ae 3e
       -0.03296366 -0.44745508 0.23941764 0.34063748
0001f0 75 66 a9 3e b4 59 17 3f 12 53 12 be fa 79 22 3d
       0.3308598 0.5912125 -0.14289501 0.039667107
000200 2c 4d e8 3d 80 ec 95 3e d3 7b c7 be 72 53 10 bf
       0.11342844 0.29281998 -0.38961658 -0.5637733
000210 fd 96 12 3f 18 05 e0 3e 1b c2 2e bf 75 bc 9d bd
       0.5726164 0.43753886 -0.6826493 -0.07701961
000220 59 55 c6 3d 43 6f 2a bf 3f e8 9f be 59 98 ad 3e
       0.096842475 -0.6657602 -0.31231877 0.33905295
000230 2e ec c8 be 35 07 8e bd 14 33 d6 be 2c 07 ba 3e
       -0.3924269 -0.069349684 -0.41835845 0.36333597
000240 cb 26 a4 3e 4b 0c 12 3f 2d 71 fd be ae 24 60 3e
       0.32060847 0.5705001 -0.4950041 0.21888992
000250 b5 1f a7 be 98 9d 03 3e 3c 3d 19 bf b1 98 0b be
       -0.32641378 0.12853086 -0.5985906 -0.13632466
000260 ae 53 c6 be b9 45 e1 3d f6 24 26 3f 2d 50 1b bf
       -0.38735718 0.10999627 0.6490015 -0.60669214
000270 8e 45 1e 3e a9 24 b2 3e f2 0f 63 be 03 1a e0 be
       0.1545622 0.34793594 -0.22174051 -0.43769845
000280 fe 94 11 3f 12 be e6 bd d7 08 91 3e 57 ff 3b 3c
       0.5686797 -0.11266722 0.28327057 0.011474452
000290 4b fc 8a 3e d4 6f bf 3e e1 27 16 be 59 3e 0a 3d
       0.2714561 0.37390006 -0.1466365 0.033750866
0002a0 91 62 2a 3d cf a0 aa be 5b fa b1 3c 1e 4d 30 be
       0.041597907 -0.33325812 0.021725824 -0.17216918
0002b0 aa 44 04 3f 81 25 e9 3e 34 b5 a8 be 42 1a 3c bc
       0.51667273 0.45536426 -0.32950747 -0.01148087
0002c0 dc 32 36 3e cf fa b9 bc 63 bd 19 bf 43 ae 34 3e
       0.17792839 -0.022702603 -0.60054606 0.176446
0002d0 c0 52 80 be 1f 52 34 bd ec 25 9c 3d 10 35 3d bf
       -0.25063133 -0.04402363 0.076244205 -0.7390909
0002e0 9e 14 74 3e fe 03 21 3f e1 1f e3 3e 03 7c 8f 3e
       0.2383599 0.62896717 0.4436026 0.280243
0002f0 9c 61 c4 be 28 ff 1b bd 83 38 59 bf c9 40 f7 3d
       -0.3835572 -0.038085133 -0.84851855 0.12072904
000300 cf 9b 23 3f 6a 9e 39 be 9d 61 10 bf 28 e0 72 3e
       0.6390962 -0.18126836 -0.56398946 0.23718321
000310 cf db d6 be f6 99 75 3e 14 46 b0 be 1b 73 79 3e
       -0.41964576 0.23984513 -0.34428465 0.24360316
000320 0b 4c a0 be 32 01 b0 3e 9e 8f 9a bd a5 8b aa bd
       -0.31308016 0.34375912 -0.07546924 -0.08327416
000330 c0 9b e0 3c d7 1f 90 be 0b 5f 05 3d d3 6d ce bd
       0.027418017 -0.28149292 0.032561343 -0.10079541
000340 da df 22 3e 11 8f c3 be af f7 aa 3e 4c c2 c1 be
       0.15905705 -0.38195089 0.33392093 -0.3784355
000350 1c ce 0f 3f 06 ac 3d be bf 1c 8f bf 67 5a 9e 3d
       0.5617387 -0.18522653 -1.1180648 0.07732087
000360 3e 24 3b 3e 90 20 9f 3e 15 1c d8 3e 0a 58 58 bd
       0.18275544 0.3107953 0.42208925 -0.052818336
000370 8a a3 23 bf 7c 33 7a be 4f ab b9 be bf 3a 36 3e
       -0.63921416 -0.24433702 -0.3626351 0.17795847
000380 d0 a4 c6 be 75 16 01 bf 14 55 fd be ba 28 c7 be
       -0.38797617 -0.5042489 -0.49478972 -0.3889826
000390 f4 c1 12 3f 6c 87 e0 be c5 f4 d8 3e 8b 98 6f 3e
       0.573272 -0.4385332 0.42374244 0.23398034
0003a0 75 0e 8b 3e cd cd e1 be 89 4e 04 bf f7 38 eb 3e
       0.27159467 -0.44102326 -0.51682335 0.45941898
0003b0 88 63 f8 be 16 dc 93 3e 3b 55 3b 3d b4 f4 8f 3e
       -0.48513436 0.2887885 0.04573558 0.2811638
0003c0 01 55 5f bf 7c 38 b9 3e d4 72 92 3e 13 6d 86 3e
       -0.8723908 0.36175907 0.28603232 0.26255092
0003d0 3d 00 c7 be 02 55 10 3f ee 06 21 bf 68 d7 d2 bd
       -0.3886737 0.5637971 -0.629012 -0.10294992
0003e0 11 92 18 be 83 65 7c be 72 3b 48 be ae f5 0e bf
       -0.1489947 -0.24648099 -0.19553927 -0.5584363
0003f0 72 c0 84 3e 21 eb 86 be 12 ac be be 7b 49 dd 3e
       0.25928074 -0.26351264 -0.37240654 0.43220124
