Project/upload/part2_q1/HalfCheetahBulletEnv-v0_TD3_BC_6_1638388317_td3_bc.pth (torch, 898095 bytes, 16 tensors)

l1.weight f4 [256, 32]
000000 e6 47 c2 be 7e e4 bc bd 0f 67 e1 bb 38 18 16 3e
       -0.3794548 -0.09223269 -0.0068787406 0.14657676
000010 eb 3c cb 3b 51 5a f9 bc 1e 86 c3 bd 8c 13 46 be
       0.0062023303 -0.030438574 -0.09547065 -0.19343394
000020 38 6d 19 bf 3b 6e 7e bd 0b 21 52 be b7 22 20 be
       -0.5993228 -0.062116843 -0.20520417 -0.15638243
000030 fe 31 82 3e 7c b9 86 bc e9 d4 90 bd b8 8d 20 3e
       0.25428766 -0.016445868 -0.070718594 0.15679061
000040 fe de f2 bd 13 22 96 3e 2c f8 47 bc 76 6f 72 3e
       -0.11858939 0.29322872 -0.012205165 0.23675331
000050 23 1e c1 3e a4 09 bc bd 7c d7 e7 be a4 5f 85 be
       0.37718305 -0.09181526 -0.4528159 -0.2604953
000060 0b 4b 26 bd fb 99 90 be 4d 13 81 3d d4 25 ca bd
       -0.04059891 -0.28242478 0.063025095 -0.098704964
000070 05 55 03 bc 68 c5 29 bd e1 0f d3 3c 23 12 0c 3d
       -0.008015876 -0.041448027 0.025764408 0.034196984
000080 04 42 05 3f 3a ea 29 be 2e 79 25 3e 05 b6 93 3d
       0.52053857 -0.16593257 0.16159508 0.07212452
000090 fa ac 8f 3d cd 08 c4 3e 99 95 95 3b ba 87 1d bd
       0.070154145 0.38287964 0.0045649526 -0.038459517
0000a0 2b 15 28 3e 4b 4d 5e bd 2c b7 23 be 77 20 d8 3c
       0.16414325 -0.05427293 -0.15987843 0.026382668
0000b0 c1 fa 24 3c ac af 1d be 80 52 f4 3e 25 0b 97 be
       0.01006955 -0.15399045 0.47719193 -0.2950069
0000c0 d3 7f c0 3b 55 9d 13 3e 34 fc ad be 23 1f 46 be
       0.005874613 0.14415486 -0.33981478 -0.19347815
0000d0 20 0d 65 bd 4a 1a 37 bd 4d bd 2a 3e 1e ca 23 be
       -0.05592072 -0.044702806 0.16673775 -0.1599507
0000e0 e3 1f 52 bd 16 2d 1c 3d d4 0c 6c bd 1d 2a 8d be
       -0.05129994 0.038128935 -0.05762942 -0.27571192
0000f0 ff 4f e1 bc a4 bf 85 be b4 95 4b bd f2 be 00 3e
       -0.027503965 -0.26122773 -0.049703315 0.1257284
000100 90 e7 12 bf f3 35 a0 bd 3f f4 f8 3d c0 36 69 3e
       -0.57384586 -0.0782279 0.12155961 0.22774792
000110 f4 a6 1f be c3 8e 98 3c ac 74 48 bd 00 56 05 bf
       -0.15591031 0.018622762 -0.048939392 -0.5208435
000120 59 e4 fd 3e d6 18 55 be 58 1e da 3d 99 df 12 be
       0.49588278 -0.20810255 0.10650319 -0.14343108
000130 be 93 6a be ff 52 ee 3d 13 c1 24 be f5 6f af be
       -0.22907922 0.11636924 -0.16089277 -0.34265104
000140 d3 67 a0 be 13 b0 3a be fe 10 dd 3e bb d9 dc bc
       -0.31329212 -0.1823123 0.43177027 -0.02695929
000150 5e e1 38 3e 61 9c a9 be 54 20 6b 3c 77 0c 9b be
       0.18054721 -0.3312712 0.014350969 -0.30282947
000160 88 2c 93 bd 59 75 cb bd 07 0c dc 3e dd ce 41 3e
       -0.07186228 -0.09934492 0.42977926 0.18926568
000170 55 91 1b be d7 92 c1 bd 4a dd 98 3e 61 ab 71 3e
       -0.15192159 -0.094518356 0.2985633 0.23600532
000180 2d a7 be be 4e ea 8b 3d a2 23 8b bd c8 f6 1e bb
       -0.3723692 0.068317994 -0.06793906 -0.002425598
000190 37 aa 02 3e 21 32 bf bc 16 32 9a 3e 9e fc 59 3e
       0.12760244 -0.023339333 0.30116338 0.21287772
0001a0 80 94 b9 3c ff b4 8d 3d 90 07 cd be cd 93 b0 3d
       0.022653818 0.06919288 -0.40044832 0.08621941
0001b0 cb bd cc be b3 67 7d 3d 1a 89 e9 3e db 73 95 3e
       -0.3998855 0.061866473 0.45612413 0.29189953
0001c0 71 01 e5 3e 96 e2 4d 3e fd d8 aa 3e 88 8b 35 3d
       0.44727662 0.20105967 0.33368674 0.04432252
0001d0 ca d8 61 3e ad e0 ce 3e 32 f5 da be 82 7e ae bd
       0.22055355 0.4040579 -0.42765194 -0.08520223
0001e0 f8 56 ad 3d 1c f4 cb be 51 e1 9f bd ac 78 23 3e
       0.084638536 -0.39834678 -0.078066476 0.15964001
0001f0 b1 7f 0a 3e 40 93 39 3e 65 9a 7c 3d 4e ff 2a 3d
       0.13525273 0.18122578 0.06167068 0.041747384
000200 7e a7 d6 be 5d 43 27 be 0e 93 d9 bc 5d 81 36 3e
       -0.4192466 -0.16334291 -0.026559379 0.17822786
000210 93 1a 02 be a7 06 a6 bd 82 0f 36 be 4e 53 55 be
       -0.1270545 -0.081067376 -0.17779353 -0.2083256
000220 19 ef 92 be c4 de 63 be 2b 0e 85 3e 18 a2 92 3d
       -0.28698042 -0.22252947 0.25987372 0.07159823
000230 e5 10 5d bd 08 a7 20 be a7 d4 3b bd 5c 48 ca 3d
       -0.05397119 -0.15688717 -0.045857098 0.09877083
000240 d0 cc aa 3e 8f ac 89 3e f2 61 da 3d 37 22 1c 3d
       0.33359385 0.26889464 0.10663213 0.038118567
000250 bb 09 16 bb 26 07 46 bc 76 1b 1f be 5b ae 35 bb
       -0.0022893983 -0.012086665 -0.1553782 -0.0027722332
000260 51 ea 1d bd a8 c1 9f bd 17 a3 2a 3e f8 0f 96 be
       -0.03855354 -0.07800609 0.16663776 -0.29309058
000270 18 cd 17 3e e8 6c 06 3e fd 6a 8b be 3b 46 4a be
       0.14824331 0.13127482 -0.27230063 -0.19753353
000280 79 6e b1 3e e3 d7 c2 3d c8 3e 05 3e 16 f6 5f be
       0.34654596 0.095138334 0.1301223 -0.21871218
000290 8c 60 2e be 43 4f 14 be da 18 82 be d9 cf 62 be
       -0.17029017 -0.14483361 -0.25409585 -0.221496
0002a0 59 6c 25 bd 0c b4 ad bd e3 68 7c bd be d2 28 3d
       -0.04038653 -0.08481607 -0.061623465 0.041216604
0002b0 b6 fb 93 3e 77 af 1a 3e 3a 8e 08 be ae 3c 8b bd
       0.28902978 0.15105997 -0.13335505 -0.06798683
0002c0 05 f0 4b 3e 3b ee 73 3d 53 9e 32 3f 6a 6f e6 3e
       0.19915779 0.059553366 0.69772834 0.45006877
0002d0 16 de 24 bd bd 9c 7f 3e 96 a8 62 3e a8 a4 36 3e
       -0.04025086 0.24962135 0.22134623 0.17836249
0002e0 9e cd a6 be c0 9f 05 3e 91 41 0a be 00 1a f7 3e
       -0.32578748 0.13049221 -0.13501574 0.48262024
0002f0 50 02 fd 3d 12 af b5 3e 8e 2d 4c 3e dd dc 3c 3e
       0.12353957 0.3548513 0.19939253 0.18443628
000300 38 61 4a 3f d7 5e c2 bc eb d9 36 bd 6c ad dc 3e
       0.79054594 -0.023726864 -0.044641417 0.4310106
000310 88 fc 26 be 9e f1 aa bd c1 3c 04 3d be 41 05 3f
       -0.1630727 -0.08346866 0.032284502 0.5205344
000320 56 ff 2f bf 0b 51 01 be 35 b0 96 be f5 27 15 bd
       -0.68748987 -0.12628572 -0.2943131 -0.03641506
000330 4c 16 30 bf 7a 45 64 3d 25 30 1e 3e 22 94 c1 3d
       -0.6878402 0.05573032 0.15448053 0.09452082
000340 2a 7d 86 3e 3b ca e0 3b 1d f4 c4 3e cc e0 17 3e
       0.26267368 0.0068600453 0.38467494 0.14831847
000350 88 52 dd 3e 5e 32 e7 3e 6d 4c ca 3d a9 c9 61 be
       0.4322703 0.45155615 0.09877858 -0.22049583
000360 e8 fc be be fd 93 8e 3e e9 67 bd 3d cb 3f e7 3a
       -0.37302327 0.2784728 0.09248335 0.0017642913
000370 64 a7 7d 3e f5 89 5e 3e d0 bf 38 3e bb 5a 3f bc
       0.24770886 0.21732314 0.1804192 -0.011679347
000380 46 ea ce be 7d 6b 89 bc a7 29 4d 3e 5f 0b ab bd
       -0.4041311 -0.016774887 0.2003542 -0.08351778
000390 4e 9e d2 3c b0 16 92 3b 50 13 04 be f7 e6 8c 3d
       0.025710251 0.004458271 -0.12897992 0.068799905
0003a0 d3 ce 09 bf 73 7f f7 3c bd 08 d0 be 28 55 2a bd
       -0.53831214 0.03021214 -0.40631667 -0.041585118
0003b0 3e 40 f6 be 59 27 81 bd 8f fb 0b bf d3 6b 2c 3e
       -0.48095888 -0.06306333 -0.5468072 0.16838007
0003c0 6f 09 dd 3e 25 71 58 3e 03 39 fa 3d a5 00 e2 3c
       0.4317126 0.21136911 0.12217905 0.027588198
0003d0 47 fa 23 bc 28 5c a9 3e 67 3c 27 bf 9d 89 3c 3e
       -0.010008401 0.33078122 -0.6532654 0.1841187
0003e0 92 7e 7b be 36 2f 7a 3c 85 40 37 3d 99 15 80 bd
       -0.24560001 0.015270045 0.044739265 -0.062541194
0003f0 88 f9 73 bd ce 66 10 3d ae af 52 3d 97 dd 07 bb
       -0.059564143 0.035254292 0.051437072 -0.0020731443

l1.bias f4 [256]
000000 11 01 92 3e 9e f1 a6 3d 38 59 06 bf d9 33 29 be
       0.2851644 0.081515536 -0.52479887 -0.16523685
000010 21 87 cc 3e a5 00 bb be 29 42 a1 be 50 be 28 be
       0.39946845 -0.3652393 -0.3149579 -0.16478848
000020 5e 80 69 be 59 6e a8 3d 81 bd d2 be 5b 56 9b 3e
       -0.22802874 0.08224172 -0.41160205 0.30339321
000030 0a dd f4 3e 70 5a 9e 3e 8e c8 3f 3e e4 a9 c5 3e
       0.4782489 0.30928373 0.1872885 0.3860618
000040 ed 03 a6 be df f9 f5 be 6c a4 49 bf a1 29 e8 be
       -0.3242487 -0.480422 -0.7876651 -0.4534426
000050 36 de c8 be 76 ac 13 bf 1f aa 8d be 42 99 13 bf
       -0.39232033 -0.5768503 -0.27668855 -0.5765573
000060 b6 f0 b0 be 62 68 c7 be 1f e6 95 bd a7 cf bc be
       -0.34558648 -0.38946825 -0.07319283 -0.36877176
000070 ef fa 3c be fc 35 35 3e 65 2a 54 be 6f 03 64 be
       -0.18455099 0.17696375 -0.20719297 -0.22266935
000080 86 38 0f 3e a8 31 30 bf 40 7a 03 be 46 24 9a be
       0.13986406 -0.6882577 -0.12839603 -0.301058
000090 3c 01 08 3f dd b7 de 3d cc 76 7b be 2f a1 14 bf
       0.53126884 0.10874913 -0.24557036 -0.58058447
0000a0 2a 09 bf be 07 e6 db bd 09 f3 66 3e 89 40 22 3d
       -0.3731168 -0.107372336 0.22553648 0.039612327
0000b0 b9 ff 55 3e 0a 77 0f bf f5 b8 05 be a7 ec 4d bf
       0.20898332 -0.56041014 -0.13058837 -0.8043923
0000c0 03 a2 ec bd cc 83 be bd 55 f8 58 bd 45 bc 00 be
       -0.11554339 -0.09302482 -0.052971203 -0.12571819
0000d0 aa 90 bc be c1 b9 0f bf b6 a4 df 3e 40 c0 f8 3e
       -0.3682912 -0.5614281 0.43680352 0.48584175
0000e0 9d 71 b9 3d b0 6a 10 bf e1 10 4b 3e 3a 37 fa bd
       0.09054873 -0.5641279 0.19830658 -0.12217565
0000f0 74 1f b2 3e ba 6a e8 be 5a 4e 75 3e 56 f8 2c 3e
       0.34789622 -0.45393926 0.2395567 0.16891608
000100 a5 e4 dd 3e da 57 75 bd a9 49 64 bf 66 ed 9c be
       0.43338504 -0.059898235 -0.89174896 -0.3064987
000110 a4 3a fc be 6a 78 10 bd 6b 61 ba 3e bb 1d a5 bd
       -0.4926349 -0.035271086 0.3640245 -0.08062311
000120 f5 4b 91 be 54 f7 2b bf 5d 40 70 be 4e 16 9f 3d
       -0.28378263 -0.6717427 -0.23462053 0.07767926
000130 d5 41 e4 bb 8f 01 86 3e de 95 a5 bd ae a4 b4 be
       -0.0069658556 0.26173064 -0.080852255 -0.3528189
000140 df 9e be be 5b 98 87 be ef 08 c1 3e 7a 15 e3 be
       -0.37230584 -0.26483425 0.37702128 -0.44352323
000150 c4 82 cb be 61 57 14 be 3c 6b d1 bd 29 cf 0c bf
       -0.39748204 -0.14486457 -0.102255315 -0.550036
000160 11 71 d2 bd 10 66 df 3d 51 dd 46 be 7f 48 96 be
       -0.10275472 0.10908139 -0.19420363 -0.29352185
000170 39 b8 95 be 94 81 c7 bd fc 8c 37 3e 28 c9 1f 3d
       -0.29242113 -0.09741512 0.17924875 0.039010197
000180 db af 41 3e 70 05 23 bf 61 aa 91 3e 1e ec 45 bf
       0.1891474 -0.6368017 0.284503 -0.7731341
000190 5c b9 26 3e 87 c3 a1 be 46 db 06 3e 90 fe d1 be
       0.16281646 -0.31594488 0.13169584 -0.41014528
0001a0 cf 5f 13 3f 62 7c be be d8 e2 7e be a8 9e 5a bd
       0.5756807 -0.37204272 -0.24891222 -0.053373963
0001b0 bf 85 8f 3d 50 44 0a bd 1a 53 53 3d 02 36 89 3e
       0.07007932 -0.033756554 0.051592924 0.26799017
0001c0 af 7e 3b bf d1 6e 2d 3e f5 b4 bb be 12 1c 95 3d
       -0.7324018 0.16936804 -0.36661497 0.072807446
0001d0 8a 55 35 3e 18 0d cf 3e 0b b4 04 3f b1 d9 06 3f
       0.17708412 0.40439677 0.51837224 0.5267592
0001e0 b6 fc 13 bf 7a 7e 14 bf 41 76 be 3e a2 31 b8 3e
       -0.5780748 -0.5800549 0.37199596 0.35975367
0001f0 59 38 81 be c4 7b 5e 3e 20 c5 67 3e 03 09 52 be
       -0.25238302 0.217269 0.22633791 -0.2051125
000200 01 90 31 3e 4d a9 fe 3d a2 d1 54 be 71 45 9f be
       0.1734009 0.12434635 -0.20783094 -0.31107667
000210 5f 5b 91 be 07 15 ac be e3 28 a9 be b7 b1 90 bd
       -0.28390023 -0.33609793 -0.33039007 -0.070651464
000220 c2 26 03 bf d2 8f 49 3e 4a 4a 0d be 93 83 cd be
       -0.51231015 0.1968377 -0.1379787 -0.40139446
000230 5e d8 85 3e 41 0c 17 bf 91 3c fe 3e e1 2e db be
       0.26141638 -0.5900307 0.49655584 -0.42809203
000240 9a 0e ac 3e ef 96 bb be 5c 5e 70 be fb a3 48 be
       0.3360489 -0.3663859 -0.23473495 -0.19593804
000250 ca 35 60 be 06 1e b6 be 93 91 fc be 59 4c e1 be
       -0.21895519 -0.3556978 -0.49329814 -0.4400356
000260 11 89 9d be 70 22 f9 be 2a b4 11 3e 87 e4 21 bf
       -0.30768636 -0.48659086 0.14228883 -0.6323933
000270 7c 40 27 bd a9 8c 2c 3e 1a 2e 3f 3c a1 ee b9 3e
       -0.04083298 0.16850533 0.011668706 0.36314872
000280 52 16 30 bf ee a1 d3 be d1 b5 50 bd 13 1e 37 3e
       -0.6878406 -0.4133448 -0.050954644 0.17882566
000290 46 a9 95 be e7 79 01 bf 2b 8f 39 bf 34 95 a8 3e
       -0.29230708 -0.50576633 -0.7248408 0.32926333
0002a0 c5 44 98 be 72 e9 1a bf 07 3a 14 3f 23 ee 98 be
       -0.29739967 -0.6051246 0.5790104 -0.29869184
0002b0 31 74 b3 be 43 e2 c7 bd 3f 36 22 be 54 52 8a be
       -0.35049585 -0.09759953 -0.15841006 -0.27015936
0002c0 fe cb 6e be f7 f0 42 bd d3 5d 1a bf 0e 5a 21 bf
       -0.23320004 -0.047593083 -0.60299414 -0.6302804
0002d0 db 78 ef 3e 95 b7 48 be 8d a5 50 be 4d 93 d3 be
       0.46771893 -0.19601281 -0.20375653 -0.4132332
0002e0 3b 8e e2 3e 16 0d 7b 3e 23 b2 9e 3e bb 90 41 3c
       0.44249138 0.2451671 0.30995283 0.011814292
0002f0 21 d6 1b bf 03 c8 47 bf 97 11 ca 3e 09 20 88 bd
       -0.6087361 -0.7803957 0.39466545 -0.06646735
000300 06 0b 7a be fb b4 18 be 38 e2 cb 3e b5 26 95 3e
       -0.24418268 -0.14912789 0.3982103 0.29131094
000310 43 12 10 be d3 58 c2 be a3 35 3d bf 43 e5 14 bf
       -0.14069466 -0.37958393 -0.7390997 -0.58162326
000320 ce 48 85 bc e2 79 38 bf cc f4 1c bf 9a 6a 55 bf
       -0.016270068 -0.7206098 -0.6131103 -0.83365786
000330 e7 10 28 3e 2f 45 a2 3d 95 42 df be c2 c3 9e be
       0.16412698 0.07923352 -0.43605486 -0.31008726
000340 c6 be 0c bf 21 cc b5 be 5a 2e 86 be 9e fe 0b bf
       -0.549786 -0.355073 -0.26207238 -0.5468539
000350 61 c8 04 3e 7a 02 b4 be 67 67 43 be 48 31 ea bd
       0.12967063 -0.3515814 -0.19082414 -0.11435181
000360 10 50 af 3e fb 67 13 be 04 6e 1a bf 36 6c 77 bd
       0.3424077 -0.14395134 -0.6032412 -0.060405932
000370 55 78 90 3e 24 b1 b4 3e 00 7c 83 be 16 9b 97 be
       0.28216806 0.35291398 -0.25680542 -0.2961051
000380 1d 55 67 3c a1 ed 92 be 4a b3 4b 3e dd 66 0b bf
       0.014119414 -0.2869692 0.19892612 -0.5445383
000390 fd d2 86 3e 7e 44 4e be dd ed de be c8 46 87 3e
       0.26332846 -0.20143315 -0.4354085 0.2642119
0003a0 d9 78 57 be c1 b7 17 be b2 9a ef 3e 59 2a 4f be
       -0.21042193 -0.1481619 0.4679771 -0.20230998
0003b0 ec a7 6c be 07 93 17 bf 25 bb 70 3b a4 bd c6 3e
       -0.23110932 -0.5920872 0.003673264 0.3881656
0003c0 3a 15 b2 3e 09 43 c4 be 7f b8 0f 3f eb 9b d6 be
       0.3478182 -0.38332394 0.56140894 -0.4191583
0003d0 ab 33 4c 3e 25 31 8d 3e ac da 41 3e 15 2d 03 3f
       0.19941585 0.27576557 0.18931073 0.51240665
0003e0 30 b3 da 3e 2e 4d 04 bf 8a ba 11 be 54 e9 8c be
       0.42714834 -0.51680267 -0.14231315 -0.27521765
0003f0 f3 a4 99 be 1e 6e 86 be 63 77 f2 bd 3e e3 52 bc
       -0.3000866 -0.26255888 -0.118391775 -0.012871562

l2.weight f4 [256, 256]
000000 3c fc 60 3e fa 2f 68 3e a1 e2 17 3e ba 89 84 bd
       0.2197122 0.22674552 0.14832546 -0.06471582
000010 86 27 e5 bd e5 09 9a 3e c2 99 88 3d 8e 72 fe 3d
       -0.11189179 0.30085674 0.06669952 0.12424193
000020 31 f2 d7 3d 06 8b 20 bd e8 8c 86 be fb 56 3f bd
       0.10544241 -0.039195083 -0.26279378 -0.04671381
000030 eb 07 1f bd ee 25 cd 3d 35 d3 e0 3d 2c 94 43 3d
       -0.03882591 0.10017 0.109777845 0.04774873
000040 e9 8d 1f be b7 b6 68 3e 02 e9 0c 3f ce c9 81 bd
       -0.15581478 0.2272595 0.5504304 -0.06337319
000050 8c e7 8c bd 4e f2 95 be ff ec a4 3d 02 12 1e be
       -0.068801016 -0.29286426 0.08053016 -0.15436557
000060 43 8f bb bd 58 f4 ae bb 49 b6 3a be e8 fd 6b bd
       -0.091581844 -0.0053391866 -0.18233599 -0.05761519
000070 3b c1 a3 bd b2 f2 61 3c 59 76 88 3e 70 50 8b 3d
       -0.0799584 0.013790773 0.26652792 0.068024516
000080 04 a4 ab 3d ce eb b5 bd 6c 02 91 bb bc dc 74 3b
       0.08380893 -0.08882867 -0.0044253375 0.0037363013
000090 23 0d 66 3e ea f3 a6 3c 0c 95 99 bd 14 d2 05 bc
       0.22465949 0.02037998 -0.074991316 -0.008167762
0000a0 d3 3a b7 bd 9b fe 1d be ed fe 93 be 54 f7 43 3d
       -0.08946767 -0.15429156 -0.2890543 0.047843292
0000b0 fd 4c 03 3e 0d b6 28 bf 5b bc cb 3c 13 19 c7 3e
       0.12822337 -0.6590279 0.024870088 0.38886318
0000c0 bc 68 54 3d 76 0b 9a 3a f5 00 6d 3e 9d f9 8a 3d
       0.051857695 0.0011752683 0.23144896 0.06785891
0000d0 a7 f5 b2 3d 80 32 fd bc 9a ac 21 3d ff 5a a0 3d
       0.08738261 -0.03090787 0.039471246 0.07829856
0000e0 7e 57 1d 3d 30 fd 1f be eb dd 19 bd 2c 86 16 3e
       0.038413517 -0.15623927 -0.037565153 0.1469962
0000f0 a1 9a d5 bd 35 25 6a 3e e0 25 68 3c c6 d5 b7 bd
       -0.10429884 0.22865756 0.014169186 -0.08976321
000100 5b 1b 2d 3e 30 25 c6 bd ab 09 64 bf 89 f2 0b 3b
       0.16904967 -0.09675062 -0.8907725 0.002135428
000110 ee 14 8c 3e 4f a3 88 3d d8 6c 37 3e 58 f7 62 3c
       0.27359718 0.06671774 0.17912614 0.013852917
000120 70 28 c8 bd 6c bb 1e 3d 85 e8 02 be 54 e7 a3 bb
       -0.09773338 0.03875296 -0.12784012 -0.0050019417
000130 c3 31 bb 3c 18 ce b3 3d 05 c1 5f 3d 41 c0 c8 3c
       0.022850877 0.08779544 0.054627437 0.024505736
000140 74 99 9b bc b9 c7 4b be fc b6 ca 3c 61 db 90 bd
       -0.01899407 -0.19900407 0.024745457 -0.07073093
000150 20 05 c0 3e 83 69 df 3d d3 95 3b 3c 0a 46 67 bd
       0.3750391 0.10908797 0.011449295 -0.05646328
000160 59 ad 95 be 84 c3 af bc 14 57 87 be a0 4e c2 3e
       -0.29233816 -0.021455534 -0.26433623 0.3795061
000170 77 f8 8f 3d 82 fe c8 ba ee d9 c7 3c 94 7d 5b be
       0.07029813 -0.0015334638 0.02439591 -0.21434623
000180 07 c4 9a 3e ab ab 89 3e 78 ed 6d bd ad 97 b3 3e
       0.30227682 0.26888785 -0.058087796 0.35076657
000190 a2 b3 e9 3c 40 cc 0c bb e6 31 97 3d e0 3d 83 bd
       0.028528038 -0.0021484047 0.07382564 -0.06408286
0001a0 a3 40 67 bd 98 7e 4d bd d4 7a 79 3e fb bc 4f 3a
       -0.056458127 -0.050169557 0.24363261 0.00079245836
0001b0 32 e7 7c 3d e6 84 1b be 93 77 4b be f1 ea d2 3b
       0.061743923 -0.15187415 -0.19869833 0.0064366986
0001c0 37 8a 17 3e 1e 1d e3 bd f2 af 49 bd 60 ae 77 3a
       0.14798819 -0.11089538 -0.04924006 0.0009448286
0001d0 23 d3 7e 3d 72 90 0e be 5c ad 06 3e d1 7d 73 3d
       0.062213074 -0.13922289 0.13152069 0.05944616
0001e0 7c 7a 14 3e 50 87 a8 bd de 3f 4e bd 31 e8 b4 bc
       0.14499849 -0.08228934 -0.050353877 -0.022083374
0001f0 c4 2c 8b bc b1 cf a5 3d 4d 77 49 3d 74 50 75 be
       -0.01698912 0.080962546 0.04918604 -0.23956472
000200 ad 05 49 3e a2 dd cf bc 26 50 4e be e1 1f 82 3e
       0.19631071 -0.025374237 -0.20147762 0.25414947
000210 d7 7d c6 bd 39 15 61 3c 75 b4 0c bc 47 f2 2d 3e
       -0.09691971 0.01373797 -0.008587946 0.16986953
000220 7b 4e b5 be 2e 9c b1 3d de 06 5b be 80 ab 43 be
       -0.35411438 0.08672367 -0.21389338 -0.19108391
000230 7d 46 01 3e 0c 4b 2c bf 2f dd 44 3e 8f 01 0c bf
       0.12624545 -0.6730201 0.19225 -0.5468988
000240 b8 1a 79 bd 19 39 1a bd 8f ea 96 3e 8d 4b 39 3d
       -0.060816497 -0.03765211 0.2947583 0.045238066
000250 f0 c0 64 3e 8f c7 de 3e bd 4f 90 3e 5d 63 4e 3e
       0.22339225 0.43511626 0.28185835 0.20155092
000260 e7 06 1c be 5c 6d 74 3d 14 0f db 3d 1f 3b a2 3c
       -0.15237008 0.059674606 0.10696235 0.019803582
000270 1d 20 ad 3d 47 eb 70 bd d1 e5 bb 3d 7e ed 5b 3e
       0.08453391 -0.058818128 0.091746934 0.21477315
000280 d1 07 0c 3e ca 09 76 3e 12 01 08 3e 5f 18 68 b9
       0.13674857 0.24027172 0.13281658 -0.00022134323
000290 1d f0 4d 3d 5c 8a 18 bf fe 53 9e be c8 cc 2a 3e
       0.050277818 -0.5958612 -0.30923456 0.1667968
0002a0 d7 1e 06 bd 9d 47 08 3d ae db c1 3d 9a d8 32 3d
       -0.032744255 0.03327142 0.09465729 0.0436636
0002b0 8c e0 84 bd f5 94 d6 bd 7c 52 d6 bd fe 11 af 3d
       -0.064881414 -0.1047763 -0.104649514 0.085483536
0002c0 c5 b2 5e 3d 0d da d0 b9 a9 15 74 3a ab 5f 30 3e
       0.054369707 -0.00039835312 0.0009311089 0.17223994
0002d0 95 eb 27 3e 7d bc 7d 3d 1f dd a3 be 92 c0 7d 3e
       0.16398461 0.061947335 -0.3200464 0.24780491
0002e0 53 ad e6 3d 71 a0 71 bd f5 35 56 3b 2b 6a 99 bd
       0.11263528 -0.0589909 0.003268597 -0.07490953
0002f0 21 ab 0f be 8a 7d d2 bc 50 58 14 be 78 f6 d5 bd
       -0.14030124 -0.025694627 -0.14486814 -0.10447401
000300 2b e4 12 3e 2a d1 11 be 0a f1 17 3d a8 70 7b ba
       0.14344852 -0.14239946 0.037095107 -0.0009591677
000310 ba b8 2a 3d 2c 09 be bd 92 2b 82 bc 1d 98 7f 3e
       0.041680075 -0.09279093 -0.015889917 0.2496037
000320 c5 d5 5d 3e 38 71 7d be 1b a0 86 be 4f 64 19 be
       0.21663578 -0.24750221 -0.26294026 -0.14979671
000330 99 5a a8 bd 56 3f d4 bb eb 01 05 be 4b 21 79 be
       -0.08220405 -0.006477277 -0.12989013 -0.24329107
000340 c8 77 86 be 3e e4 09 3d 9d 55 d7 3b a6 c7 bb bc
       -0.2626326 0.033664934 0.006571485 -0.022922348
000350 1a cc 9b 3d 02 58 75 3e 26 5d 4f 3e 10 bf 5d 3e
       0.07607289 0.23959354 0.20250377 0.21654916
000360 49 e1 d0 3d 69 d1 e7 bd 59 96 92 bd ec 0b 26 3d
       0.1019922 -0.11319239 -0.07157583 0.040538713
000370 77 5c 98 3d dd af 61 3e 3e f0 a6 3d 13 f6 6a bd
       0.07439511 0.22039743 0.08151291 -0.05736358
000380 1a 3a c5 bd e1 5e 6a 3d c4 32 5d bd 17 9d 82 3e
       -0.096302226 0.05721939 -0.054003492 0.25510475
000390 df ae ed bc 57 4f 26 be 4e 16 61 bd 31 1f 59 3d
       -0.02901405 -0.16241203 -0.054952912 0.053008262
0003a0 12 20 34 3e 34 c6 14 3d 9c 0a 97 3e e0 05 29 3d
       0.17590359 0.036321834 0.29500282 0.04126537
0003b0 9d fd cf 3d 33 29 ef bd 3a 65 9c bd e0 1b 75 bc
       0.10155795 -0.1167778 -0.07636495 -0.014960259
0003c0 f7 ec 43 3e 85 4f 4c bd 92 39 bf 3d e0 ed 1c be
       0.19133364 -0.049880523 0.093371525 -0.15325117
0003d0 d9 5c d8 3c 23 9b 60 3d 93 b0 86 be db 49 f2 3c
       0.02641146 0.05483545 -0.2630659 0.029576233
0003e0 33 57 ad 3c ae f2 e8 bb 6e 8a 2b be df 20 0f bc
       0.021159744 -0.007109008 -0.16752025 -0.008735864
0003f0 6a 27 16 be 3e 6c 71 bc 2e 91 70 be 5d 77 9b bd
       -0.14663473 -0.01473528 -0.23492882 -0.07591126

l2.bias f4 [256]
000000 25 ae 06 3f 56 88 07 3f 97 f4 03 bf 72 12 1b 3f
       0.52609473 0.5294241 -0.5154509 0.6057502
000010 33 c7 2d be eb 0f 7e be 67 ac 71 be 6d b8 58 be
       -0.1697052 -0.2481076 -0.23600923 -0.21164103
000020 3f 7e ac be ac 9a 05 bf 96 c4 a5 be 3e e9 00 3f
       -0.33690068 -0.52189136 -0.32376546 0.503559
000030 94 9d f2 be b6 0b cf be 6d c9 ec bd 09 3f 25 3f
       -0.47385848 -0.40438622 -0.115618564 0.6454931
000040 4f c8 cc be 4d 6e 5f be 83 84 68 be 22 62 e1 be
       -0.39996573 -0.2181942 -0.22706799 -0.44020182
000050 86 d5 12 3f 87 6b 0b be dd 51 28 3f 7d 99 fe 3e
       0.5735706 -0.13615237 0.65749913 0.49726477
000060 a9 c2 e3 be e3 3c 03 3f da 1c 0c 3f 9c 54 f8 be
       -0.4448445 0.5126478 0.54731524 -0.48502052
000070 12 24 f4 3e d0 84 c6 be 87 6e 0d 3f 82 7f 12 3f
       0.4768377 -0.38773203 0.55246776 0.5722581
000080 48 42 17 3f 70 1c d6 be 97 2a 18 3f 19 0b da be
       0.5908551 -0.4181857 0.59439987 -0.42586592
000090 8d a3 f9 be c1 d8 c3 3e e8 ac 96 be 0b af f7 3e
       -0.48757592 0.38251308 -0.29428792 0.48375735
0000a0 fb b6 0f 3f e3 9e 17 3f b3 bd 0c 3f 3d 80 3a be
       0.5613858 0.59226817 0.5497696 -0.18212982
0000b0 97 dd 0b bf 6f 79 8f be c0 24 b9 be e8 c6 75 be
       -0.54634994 -0.28022334 -0.3616085 -0.24001658
0000c0 d1 eb 13 3f 56 08 02 3f 53 95 11 3f 1c 43 f0 3e
       0.577817 0.5079397 0.56868476 0.469262
0000d0 88 30 28 3f d6 0c 1d be 6d 2a 75 be 65 11 ef 3e
       0.6569905 -0.15336928 -0.23941965 0.46692958
0000e0 ed 90 12 3f 3d 69 f2 bd 04 ad 0a 3f e1 bf 0a 3f
       0.5725239 -0.11836479 0.5417025 0.54199034
0000f0 1e 05 04 3f a3 52 c3 be 61 3a a9 be 6b e0 1f 3f
       0.5157031 -0.38148984 -0.33052352 0.6245181
000100 2d 72 b5 be 76 e2 a9 be 8c 40 1b 3f 3f 69 0b 3f
       -0.35438672 -0.33180588 0.60645366 0.5445747
000110 e4 8c a6 be a2 3d 11 bf 36 71 1a be 6e 3c 2a 3f
       -0.32529366 -0.5673467 -0.15082249 0.6649846
000120 b6 4c 9a be e2 ef ea be 63 dd 31 be 69 e3 77 be
       -0.3013665 -0.4588614 -0.17369609 -0.24207844
000130 b6 eb 4c bd da 07 1c 3f 18 d9 b6 be a1 71 f9 3e
       -0.05002948 0.6094948 -0.35712504 0.48719504
000140 08 4b e7 be 08 5c 20 3f c4 e0 13 3f 43 37 1f 3f
       -0.45174432 0.6264043 0.5776484 0.621937
000150 63 15 9a be 39 cf 0a be 67 a6 c2 be 68 bb 7d be
       -0.30094442 -0.13555612 -0.3801758 -0.24778521
000160 5a 2c cc be 6f cf b8 be f5 c1 74 be 40 e3 13 3f
       -0.39877588 -0.3609576 -0.23902114 0.5776863
000170 57 3c ce be 44 07 20 3f 92 6d fa be c8 1c 3a 3f
       -0.4028041 0.62511086 -0.4891172 0.72700167
000180 1a 98 ff 3e 75 59 89 be 53 33 b0 be 0a 1f af be
       0.49920732 -0.26826063 -0.34414157 -0.34203368
000190 61 a3 1d 3f b1 b2 07 be 9a 04 a2 be 6a 00 bf be
       0.6157742 -0.13251759 -0.31644136 -0.37305003
0001a0 33 39 32 3f bf fa 9e be 80 d4 da 3e 74 be 16 3f
       0.6961853 -0.3105068 0.4274025 0.5888436
0001b0 e9 41 ef bd 52 e6 86 be 78 89 89 3e 7a c7 03 bf
       -0.11682493 -0.26347595 0.26862693 -0.5147625
0001c0 fb 11 29 3f 67 02 a6 be 57 f7 82 be 11 ca 1b 3f
       0.6604306 -0.32423708 -0.2557933 0.60855204
0001d0 79 74 9f be 43 29 c1 be 3f 4a f4 be 23 99 f9 be
       -0.3114355 -0.37726793 -0.47712895 -0.48749647
0001e0 28 c1 ee 3e 20 c8 e6 3e ae 84 b7 be 1f f0 c5 be
       0.46631742 0.45074558 -0.35843414 -0.3865976
0001f0 8c 4d 28 3f 9d 01 ec be 7c fe 0f 3f 54 c6 29 3f
       0.6574333 -0.4609498 0.5624769 0.6631825
000200 e6 e9 e9 be 11 16 ad be 66 49 07 3f 2a 94 81 be
       -0.45686263 -0.33805898 0.5284637 -0.25308353
000210 33 ce d8 be a5 75 fa 3e e2 44 1f 3f 75 76 11 3f
       -0.42344818 0.4891788 0.6221448 0.56821376
000220 64 a9 0a 3f 02 56 1a bf 7a 77 d7 be 7c 03 fd be
       0.5416472 -0.6028749 -0.4208334 -0.4941672
000230 9f 34 aa be 00 45 00 3f 7c 51 c5 be 64 b8 f7 3e
       -0.33243272 0.50105286 -0.3853873 0.48382866
000240 d8 67 00 3f ce 8c 0a 3f dc 5f 05 be 88 21 af be
       0.50158453 0.541211 -0.13024849 -0.3420527
000250 68 0c 53 3c 8a d2 75 be 26 17 1b 3f 76 8e de be
       0.012881376 -0.24006096 0.60582197 -0.43468064
000260 18 03 12 3f 30 19 1d 3f 4f 6c 91 be 11 cc f5 be
       0.5703597 0.6136656 -0.28402945 -0.48007253
000270 65 c0 e6 be f4 c9 98 be 24 a6 c4 be 1d fe 21 be
       -0.4506866 -0.29841578 -0.38408005 -0.15819593
000280 0e 6e 5e bd 9d 99 87 be 9b 93 37 3f ee 13 d1 be
       -0.054304175 -0.26484385 0.71709603 -0.40835518
000290 12 f2 16 3f de 72 2c 3f e6 96 f9 be 9d 06 03 3f
       0.5896312 0.67362773 -0.4874794 0.51181966
0002a0 0f 95 f3 be b2 33 08 bf 26 5d 9e be 22 91 2e 3f
       -0.4757466 -0.5320388 -0.30930442 0.68190205
0002b0 7c 54 1d 3f 7c 1d cd be 5c 12 eb be c1 fc da 3e
       0.6145704 -0.40061557 -0.45912445 0.4277096
0002c0 ee 8e e4 be 47 33 12 3f 74 80 0c 3f 95 d5 c5 be
       -0.44640297 0.57109493 0.54883504 -0.38639513
0002d0 fc b1 15 3f e8 3f e3 be 6e 89 ad be 6c 60 87 be
       0.5847471 -0.44384694 -0.33893913 -0.26440752
0002e0 7f 5c 06 3f 21 a2 55 be 16 38 ef 3e 56 ee 1a 3f
       0.5248489 -0.20862629 0.46722478 0.6051992
0002f0 e7 71 a8 be 9a 91 27 3f 72 ec 26 3f 8a 15 f3 3e
       -0.328994 0.65456545 0.65204537 0.4747737
000300 be 04 bf 3e 6d 82 03 3f 75 b1 a9 be 1e f4 0b 3f
       0.37308306 0.5137089 -0.331432 0.5466937
000310 a4 48 c1 be ee 27 21 3f 94 fe ed be 43 7f 11 3f
       -0.37750733 0.6295155 -0.4648329 0.5683481
000320 83 b2 ff bd ea 37 6f be 60 e1 b2 be 6d 2b ce be
       -0.1248522 -0.23361173 -0.34937572 -0.40267506
000330 13 7f a5 be ce a5 18 3f a5 33 26 3f eb ae 19 3f
       -0.32323512 0.59628 0.64922553 0.6003253
000340 6c a5 8d bd 71 e8 a9 bd 50 6e 86 be 37 bd ed 3e
       -0.06916317 -0.08296288 -0.26256037 0.46433422
000350 b5 4b 83 be c2 f3 b7 bd 83 f8 af 3e e6 e0 9f be
       -0.25643697 -0.0898204 0.34369287 -0.3122627
000360 75 86 e3 3e ca b4 e0 be 2c 28 1d 3f b4 c2 ef be
       0.4443852 -0.4388793 0.6138942 -0.46828234
000370 bb 30 10 3f 9f c4 88 be c0 87 d0 be a8 8c 7b be
       0.56324357 -0.2671251 -0.4072857 -0.24565375
000380 75 0f 11 3f 5f ea 3a be a6 c3 b8 be 25 7c 23 3f
       0.5666421 -0.18253468 -0.36086768 0.63861305
000390 97 11 13 3f c4 dd 22 3f 05 eb 08 bf c9 60 5b be
       0.57448715 0.6361964 -0.5348361 -0.2142364
0003a0 0c 6f 11 3f 67 c0 1b 3f 27 40 11 3f ff ac 21 3f
       0.5681007 0.6084046 0.56738514 0.63154596
0003b0 80 7b 09 bf c1 e3 8d be 13 de a7 be 3e 95 a2 be
       -0.5370407 -0.27712825 -0.32786617 -0.31754488
0003c0 43 59 cf be de 7a 1a 3f f6 c1 bd 3e 42 b4 e1 be
       -0.4049779 0.6034373 0.37062043 -0.44082838
0003d0 21 38 a2 3e 6b 22 8a be b8 d0 f2 3e 16 03 b5 be
       0.31683448 -0.26979384 0.47424865 -0.35353917
0003e0 91 06 0f 3f eb ff 07 3f 55 c2 06 bf 01 aa 19 3f
       0.55869395 0.53124875 -0.5264028 0.6002503
0003f0 62 b3 0e 3f 8b fc 0a 3f 2f 42 e5 3e 07 78 e7 be
       0.55742466 0.542916 0.44777057 -0.4520876

l3.weight f4 [1, 256]
000000 e9 e3 3f 3e e5 fe 26 3f 0f f1 b7 bf fa 4e 98 3e
       0.18739285 0.6523269 -1.437044 0.29747754
000010 7d 00 7a bf 7a 16 23 bf a8 dc 97 bf 54 74 5e bf
       -0.97656995 -0.6370617 -1.1864214 -0.8689625
000020 9f 74 a9 bf 94 a3 67 bf 85 0f d0 bf 9a 86 0f 3f
       -1.3238715 -0.90483975 -1.6254736 0.5606476
000030 46 da 67 bf 09 e1 72 bf e5 0a 99 bf c1 e2 9e 3e
       -0.90567434 -0.94874626 -1.195645 0.31032375
000040 e2 5c ab bf 2f 7d 7c bf e2 2b 84 bf d3 f4 65 bf
       -1.338772 -0.98628515 -1.0325892 -0.898267
000050 cd 0d 85 3e 62 68 c2 bf 72 ed ea 3e 9e e1 9a 3e
       0.25987092 -1.5188105 0.4588428 0.30250257
000060 d4 8e 3c bf b4 fa 4a 3e 82 fd 94 3e b4 a8 34 bf
       -0.7365544 0.19822198 0.2909966 -0.7056992
000070 3e 07 ea 3e 6e ab 83 bf 15 de 0e 3f 3f 9d a0 3e
       0.4570865 -1.0286691 0.5580762 0.3136997
000080 c5 2d e0 3e 8a 2e ca bf 03 50 85 3e 93 53 92 bf
       0.4378492 -1.5795453 0.26037607 -1.1431755
000090 57 6c 98 bf c9 d7 24 3f 38 0d b7 bf 3a e0 2b 3f
       -1.1908063 0.6439176 -1.4300909 0.6713902
0000a0 7a f3 a8 3e 6f f1 2c 3f ca 05 7b 3f 8f ae 36 bf
       0.32998258 0.675559 0.9805571 -0.71360105
0000b0 bd 18 40 bf b0 66 5a bf 2c 30 47 bf 7e 1e 7e bf
       -0.7503775 -0.8531294 -0.7780788 -0.9926528
0000c0 a8 a1 ac 3e 35 19 ea 3e ca 3e d1 3e 8b 04 48 3f
       0.33717084 0.45722356 0.40868217 0.7813193
0000d0 50 e9 03 3f c3 d9 a0 bf db e0 31 bf 91 84 73 3e
       0.5152788 -1.2566456 -0.6948373 0.23781039
0000e0 d9 13 15 3f 99 1f 7b bf 97 a0 5a 3e 49 0d ea 3e
       0.5823341 -0.9809509 0.21350323 0.4571326
0000f0 48 90 c4 3e 1f e9 a1 bf 8e 45 93 bf ca 0c e9 3e
       0.38391328 -1.2649268 -1.1505601 0.4551757
000100 95 67 80 bf 25 80 27 bf 40 4c b3 3e 09 9a 97 3e
       -1.0031611 -0.6542991 0.35019112 0.29609707
000110 13 3a 8b bf 2d 11 36 bf e8 fd 5c bf 9f 26 b4 3e
       -1.0877098 -0.7111996 -0.8632493 0.35185716
000120 a4 56 77 bf cd e7 30 bf 41 e6 49 bf 4b 68 33 bf
       -0.9661658 -0.691037 -0.78866965 -0.70081013
000130 1a 3e 58 bc 9e f7 9f 3e a3 04 e3 bf 6e 06 0d 3f
       -0.0131984 0.31243604 -1.773579 0.55087936
000140 85 c6 aa bf e2 ef c5 3e 6c 5c 67 3e 71 a6 45 3e
       -1.3341833 0.3865958 0.2259385 0.19301774
000150 bc 31 8f bf 04 f7 0b bf 09 24 cc bf c9 7f 92 bf
       -1.1187053 -0.5467379 -1.5948497 -1.1445247
000160 aa e8 13 bf 1a 39 83 bf aa 96 8c bf 82 20 ab 3e
       -0.5777689 -1.0251801 -1.0983479 0.3342324
000170 74 f4 86 bf ff 36 a8 3e 2a 4b 84 bf aa 4f 89 3e
       -1.0543351 0.3285446 -1.0335438 0.2681859
000180 79 dd 06 3f e0 40 a0 bf ca c5 83 bf 83 9f c3 bf
       0.5268169 -1.2519798 -1.0294735 -1.5283054
000190 85 3a 83 3f 82 b7 a0 bf f8 33 bb bf 4a c9 59 bf
       1.0252234 -1.2556002 -1.4625235 -0.8507277
0001a0 9a 78 c4 3e 5a 6e 5e bf cd 33 8f 3f 50 3e 35 3f
       0.38373262 -0.86887133 1.1187683 0.70798206
0001b0 56 68 a1 bf 9f 5d 73 bf aa ea a5 3f 7f f7 bd bf
       -1.2609966 -0.9506473 1.2962239 -1.4841155
0001c0 ba 66 da 3e b8 28 4b bf c3 72 54 bf fd a9 6f 3e
       0.426565 -0.79359007 -0.8298761 0.23404689
0001d0 4c 3a 1e bf 44 89 9f bf 57 72 62 bf fe be 80 bf
       -0.61807704 -1.2463765 -0.8845572 -1.0058286
0001e0 6e c5 13 3f 79 a8 0e 3f 1c cf 83 bf 84 30 88 bf
       0.5772313 0.5572582 -1.029758 -1.0639806
0001f0 e2 fb 93 3e 73 3a ab bf ec 3a ac 3e 2e d2 ec 3e
       0.2890311 -1.3377212 0.33638704 0.46254104
000200 e3 4d 8a bf bc 03 ae bf 1e e9 b5 3e 50 dc 95 bf
       -1.0805019 -1.359489 0.35529417 -1.1707859
000210 11 a3 2c bf 0b 84 15 3f c1 24 b7 3e 52 bc b9 3f
       -0.6743632 0.58404607 0.35770229 1.4510596
000220 6e e6 70 3e dc 63 b9 bf 54 b5 7d bf d3 a1 11 bf
       0.23525402 -1.44836 -0.9910481 -0.5688755
000230 48 ff 63 bf 14 1f 09 3f 53 73 75 bf 39 2e 01 3f
       -0.89061403 0.53563046 -0.95879096 0.50461155
000240 7e c2 b2 3e cf e3 88 3e d1 69 5f bf 1c b0 98 bf
       0.3491401 0.26736304 -0.8727084 -1.1928744
000250 41 3d 20 bd 90 21 f5 be 39 f4 d1 3e 91 82 a7 bf
       -0.039120916 -0.4787717 0.4100664 -1.3086721
000260 66 01 ef 3e 18 a4 a8 3e e2 15 a2 bf d5 64 9e bf
       0.46680754 0.32937694 -1.2662928 -1.2374521
000270 07 5b 65 bf c6 b2 b9 bf ef 74 58 bf e4 58 8c bf
       -0.8959202 -1.4507682 -0.84553427 -1.0964627
000280 57 a3 c5 bf df 67 4b bf 9e 6a fd 3e d3 90 a6 bf
       -1.5440472 -0.7945537 0.49495405 -1.3012947
000290 93 80 c5 3e 76 92 67 3e 83 24 56 bf 9c a9 8e 3e
       0.38574657 0.22614464 -0.8364946 0.27863777
0002a0 8d 26 51 bf 8c 51 60 bf c4 6a f0 bf 6b 5d 86 3e
       -0.8169945 -0.8762443 -1.8782582 0.26243147
0002b0 3a 13 7d 3e 66 7a 86 bf f4 61 bc bf 13 d0 fa 3e
       0.24714366 -1.0506103 -1.4717393 0.48986873
0002c0 d8 90 64 bf 74 b5 df 3e a7 74 84 3e 43 94 30 bf
       -0.89283514 0.43693125 0.2587025 -0.6897623
0002d0 fb c9 da 3e 1d 45 83 bf 32 e0 97 bf b6 38 1c bf
       0.42732224 -1.0255467 -1.1865294 -0.61024034
0002e0 aa 9d a8 3e c0 c0 ff be 6e 70 39 3f ad 4f c5 3e
       0.32932788 -0.49951744 0.7243718 0.3853735
0002f0 d7 26 ac bf 0d af 5e 3e 5a 69 c7 3e 7b 55 ef 3e
       -1.3449353 0.21746464 0.38947564 0.46744904
000300 57 6b 82 3f 86 54 0c 3f 9c ef 3f bf 0a 2f 31 3f
       1.0189008 0.5481647 -0.7497499 0.692124
000310 83 88 64 bf c6 ce d3 3e 8c 2e 7e bf c1 76 2b 3f
       -0.892708 0.41368693 -0.99289775 0.6697808
000320 83 67 e3 bf c8 5b 9a bf 27 c9 85 bf 5e e2 85 bf
       -1.7765964 -1.205926 -1.0452012 -1.0459707
000330 10 64 51 bf 97 c7 6b 3f e8 65 00 3f 34 66 a4 3e
       -0.8179331 0.92101425 0.50155497 0.32109225
000340 6f 4e ec be de f5 9f bf dd 9c 60 bf e1 95 24 3f
       -0.4615359 -1.2496908 -0.87739354 0.642912
000350 92 e5 48 bf 81 f6 86 bf 60 6c 41 3f 42 8a f9 be
       -0.78475296 -1.0543977 0.7555599 -0.48738295
000360 d6 dc 25 3f ec e9 36 bf f6 a0 e0 3e c1 96 76 bf
       0.64790094 -0.71450686 0.43872803 -0.9632378
000370 64 b3 9b 3e cd 81 79 bf f3 ee 35 bf 36 58 a4 bf
       0.30410302 -0.97463685 -0.7106773 -1.283942
000380 d2 59 88 3e 35 26 8e bf 7d 9e 82 bf 37 c1 94 3e
       0.26631027 -1.110541 -1.0204617 0.2905366
000390 ed 9a 49 3f 4e 48 8d 3e d4 61 bf bf df 90 9f bf
       0.78752023 0.27594227 -1.495173 -1.2466086
0003a0 c2 cf 93 3e 1e 87 a9 3e 71 c8 43 3e 6f af 91 3e
       0.28869444 0.331109 0.19119431 0.28454158
0003b0 38 bf 1c bf 74 2b 29 bf 0e 99 9a bf b7 db a9 bf
       -0.61229277 -0.6608193 -1.2077959 -1.3270177
0003c0 43 30 39 bf 26 41 48 3f 75 e4 46 3f da 7f 45 bf
       -0.72339267 0.7822441 0.7769235 -0.7714821
0003d0 36 80 22 3f 03 0a a3 bf 10 cd e8 3e 6f a4 b3 bf
       0.63476884 -1.273743 0.4546895 -1.4034556
0003e0 86 dd 98 3e 8c 34 69 3e 94 c1 a6 bf ee 22 aa 3e
       0.2985651 0.22773951 -1.3027825 0.33229774
0003f0 93 9e d7 3e 6f 4e 13 3f d4 71 e2 3e 9b a7 8e bf
       0.4211317 0.57541555 0.4422747 -1.1144899

l4.weight f4 [256, 32]
000000 59 b2 1a be a3 77 30 bc 03 cf 8f 3e 63 35 39 3e
       -0.15107097 -0.010770711 0.28087625 0.18086772
000010 e0 e0 09 3e 4a 57 42 3d fe c1 93 be 7c 5f 0d 3e
       0.13464689 0.047446527 -0.28858942 0.13805956
000020 10 ab 2b 3e 45 41 ae be d7 f7 8a 3d c5 77 03 be
       0.16764474 -0.34034172 0.06785553 -0.12838657
000030 17 d9 a7 3e 4a fc 62 be b8 d7 21 3d 84 aa 97 bd
       0.32782814 -0.22166553 0.039512366 -0.0740557
000040 a7 8d 9e 3d d9 79 29 bc 71 4e 5e 3e 51 3e 13 3e
       0.07741862 -0.010343992 0.2170961 0.1437924
000050 3f fe 6a 3d a0 d5 9d 3d 73 a7 c0 3d ab bc 4a be
       0.057371374 0.07706761 0.094069384 -0.19798534
000060 ae 23 26 3e 6f ca cd bc 13 cc b5 be 8b 7c 6f 3e
       0.16224548 -0.025120942 -0.3550726 0.23387353
000070 c1 fd c6 3d e0 77 5e 3d 18 55 a3 bb 3e 7e 4e 3e
       0.097163685 0.05431354 -0.004984509 0.20165345
000080 3d 63 9f 3e b8 60 30 be 2f ba 23 3e 77 d0 f3 3e
       0.311304 -0.17224395 0.15988992 0.47619984
000090 d8 6a c5 bd b2 b8 6e bd 54 c8 93 be 69 f5 08 3e
       -0.096395195 -0.058281608 -0.28863776 0.13374867
0000a0 88 67 b8 3e 2c 48 97 bd 11 6d 38 be 51 95 c4 bd
       0.36016488 -0.073868126 -0.18010356 -0.09598792
0000b0 be 01 90 be 70 f0 7e bd 61 20 8e 3f 60 0f e7 3b
       -0.2812633 -0.062241018 1.1103631 0.0070513934
0000c0 db e2 8a 3e a5 1e 9a 3e 89 6d 9b be 53 27 a7 3e
       0.27126202 0.30101505 -0.30357006 0.3264719
0000d0 dc e6 08 bb 5c 0f d0 be 93 83 aa bb 12 b7 bc 3c
       -0.0020889556 -0.40636718 -0.005203673 0.023036513
0000e0 a4 8e 2c 3e 8b 62 94 3d 12 77 5b bc ab e9 94 3b
       0.16851288 0.07245358 -0.013395088 0.004544457
0000f0 af c8 c5 bc 3c 34 a3 bb 0d 8f 8e bc 37 10 99 3c
       -0.024143545 -0.004980592 -0.017402196 0.01868449
000100 8e 2e c4 be 09 34 13 be cc 38 70 3e 1c 0f fa bd
       -0.38316768 -0.14375319 0.23459166 -0.12209913
000110 2f 0a 15 be e9 e4 d3 be a3 39 df bd 8b b3 64 3c
       -0.14554666 -0.41385582 -0.10899665 0.013958822
000120 19 05 5a 3e ff b6 9a bd 27 fd c2 3a a2 52 b9 be
       0.21291007 -0.07554435 0.0014876471 -0.36195856
000130 7d bb 35 be 2d a5 dd bd 6c 45 5b bd ff 43 51 be
       -0.17747302 -0.108225204 -0.053533003 -0.20436095
000140 b4 b9 9a be 95 cf 0d be ac 28 bb be 1d ad b5 be
       -0.30219805 -0.13848718 -0.36554468 -0.35483637
000150 b8 2c 17 3e 83 71 86 3c 11 d8 93 3e 8e ff b7 3e
       0.14763153 0.016411548 0.28875783 0.3593716
000160 b5 bc b5 3d cb 3c 17 be af 39 fa 3d b9 41 ea be
       0.08873884 -0.14769284 0.122180335 -0.45753267
000170 e9 cd 96 bd 56 e4 d9 be 23 68 9b 3d 2f 23 a4 be
       -0.07363493 -0.4255702 0.07588222 -0.32058093
000180 f8 63 b8 3e fe 46 9b 3d 58 37 a4 3d 98 c9 d3 bd
       0.3601377 0.075819 0.080183685 -0.10341185
000190 d3 1f a3 3d e1 32 13 be 87 a4 20 be f5 3b f4 3d
       0.07965054 -0.14374878 -0.15687762 0.119254984
0001a0 81 07 2a be b2 c8 fa 3d 0d 9f 38 3e f6 8d 01 3d
       -0.16604425 0.12245311 0.18029423 0.031629525
0001b0 4a 5b 4a 3e f3 2d 09 bf d0 0a de be fa bc 20 bf
       0.19761387 -0.5358574 -0.43367624 -0.62788355
0001c0 ff 9f 7a be c3 6e 8b be f0 4a 4b be 8e 11 4b 3c
       -0.24475096 -0.27232942 -0.19852805 0.012394322
0001d0 3d 4b 30 3e 47 92 d7 be 19 cc c5 3d 5a 6d 81 be
       0.17216201 -0.42103788 0.09658069 -0.2527874
0001e0 2f f5 c8 bd e1 06 40 bc 21 f6 b8 3c 26 b3 ca 3e
       -0.0981239 -0.01172039 0.0225783 0.39589804
0001f0 ad 3c e9 be 9e 06 00 be 1b 25 25 bd 97 bf dd 3d
       -0.45554104 -0.12502524 -0.04031859 0.108275585
000200 7a 68 0b 3e e1 a1 14 bd 1e 0d 39 bd 39 ad cc bc
       0.13614073 -0.036287192 -0.045178525 -0.024984943
000210 66 ee 1d be f0 7e 96 3e aa d9 2c 3c ca bb ed 3e
       -0.15422973 0.2939372 0.010549942 0.46432334
000220 e5 82 06 bc 95 65 e7 3c 3b bb e4 bd a7 96 55 bc
       -0.008209919 0.02824668 -0.11168524 -0.013036407
000230 14 83 dc be 81 b6 2b be ac 89 09 3f 48 a1 2e 3e
       -0.43068755 -0.16768838 0.53725696 0.17053711
000240 cd 37 c3 3e af 6b 47 3d 42 15 3f bd 4d 9a 9a bd
       0.3812851 0.04868668 -0.046651132 -0.07548962
000250 c9 ba 85 be fd b3 86 3e f6 11 cd 3d 1a 09 58 3e
       -0.26119068 0.26309195 0.100131914 0.21097222
000260 8a 44 b3 bd 96 5a 63 3d 6c 08 8e be 31 04 96 bd
       -0.08753307 0.05550631 -0.277408 -0.07325018
000270 a6 8b fd bd bc f9 61 3e 88 e3 a7 bb a6 15 0d bf
       -0.123801515 0.22067922 -0.0051235594 -0.5511116
000280 d7 05 59 be db 61 2c 3e 67 46 9c 3e e4 5a be 3c
       -0.21193634 0.16834204 0.30522463 0.0232367
000290 a6 6d 97 3d 3a e8 c8 3c 28 97 d2 be d6 ad b2 3e
       0.07393961 0.024524797 -0.41130948 0.3489825
0002a0 8e 69 e1 be b5 0e 03 3e 11 7c 2d bf b1 a2 0f 3d
       -0.44025844 0.12798579 -0.67767435 0.035067264
0002b0 9b db 28 bf 90 55 95 bc eb e5 63 bf 6a 5c 0a 3b
       -0.6596009 -0.018229276 -0.890227 0.0021112212
0002c0 6a b5 da 3e c4 84 d4 bc e3 1b 85 3d 46 b2 30 3c
       0.42716533 -0.025942214 0.064994596 0.010784691
0002d0 20 87 dc ba bc e0 89 3b d3 a3 26 3e 40 42 4f 3c
       -0.0016824938 0.0042076986 0.16273431 0.012650073
0002e0 c7 a3 ae bd f9 26 30 bd fa 1c 83 3d 28 22 8b 3d
       -0.08527332 -0.043005917 0.06402011 0.06793624
0002f0 8e be dd bd 2b 46 8d bd c0 50 da 3d 6e 6f 0c bc
       -0.10827361 -0.06898149 0.10659933 -0.008571489
000300 02 c6 58 3e 40 a1 25 3e 04 df c9 3e 2d 6d af 3c
       0.21169284 0.16174793 0.3942796 0.021414364
000310 b1 9c 56 bd 82 6e 3d 3e 08 6e 88 be a4 35 a0 bd
       -0.052395526 0.18499187 -0.26646447 -0.07822731
000320 31 74 6d bd c7 09 2d be 0e 78 96 bb c5 a9 4d be
       -0.057972137 -0.16898261 -0.0045919484 -0.20084293
000330 18 b4 a9 be 49 4a 07 bd 89 32 0d 3e 0b db 68 bd
       -0.33145213 -0.03302983 0.13788809 -0.05684952
000340 d5 f4 6a 3c af 98 ee bd 30 3d bd 3d ab 4b fe 3d
       0.014340599 -0.11650216 0.09240186 0.12416776
000350 6e e5 b1 3c 81 fb 6a bb 7f ff 99 3e 95 7f e3 3d
       0.021715846 -0.0035855474 0.3007774 0.11108319
000360 7a c8 37 3d 7c 02 50 3d ea fb 78 bd 87 d5 44 be
       0.044868924 0.05078362 -0.06078712 -0.19222079
000370 2c ee 11 be d8 57 65 bd 6d 75 43 be e3 21 81 bc
       -0.14251012 -0.055991977 -0.19087763 -0.015763229
000380 7e a1 5e 3e a5 bd ff 3d 94 db 70 3e e1 35 e2 3d
       0.21741292 0.12487344 0.23521262 0.11045433
000390 42 fc 87 3d d4 c8 05 bd 63 f7 e8 be b2 e3 cb bd
       0.06639911 -0.032662228 -0.4550124 -0.09955539
0003a0 55 d9 0d be e0 0d ab bc 97 e6 e7 bd 1a d8 03 3e
       -0.13852437 -0.02088064 -0.113232784 0.12875405
0003b0 24 4d e5 3d 39 46 e0 bc c5 ed 05 bd 6c 06 8a 3e
       0.11196354 -0.027377235 -0.032697458 0.26958025
0003c0 b9 9e 69 bd da b7 01 3e cd 4a de be 88 d9 a5 be
       -0.057036135 0.1266779 -0.43416443 -0.32392526
0003d0 86 25 b2 3e a0 8d e4 be 72 1e ad 3d 72 ac 9d 3d
       0.34794253 -0.446393 0.084530726 0.07698907
0003e0 bb e6 97 be 77 f0 be be ec ad 1f 3d e9 a3 1b bd
       -0.2966822 -0.37292835 0.038984224 -0.037998114
0003f0 fa fd bf bd d6 09 fd bd c3 21 77 bd 55 7e 23 be
       -0.09374614 -0.12355392 -0.060334932 -0.1596616

l4.bias f4 [256]
000000 b5 48 b9 3e 4f 06 8e 3d 15 cf b5 be e3 a2 e7 bd
       0.36188284 0.06934797 -0.35509554 -0.11310365
000010 3c ea 0f 3e b4 43 49 be 81 25 fc 3e 46 c9 de 3e
       0.14054197 -0.19654733 0.49247363 0.43512934
000020 16 78 16 3e a5 ae 90 3e a2 c8 f0 be 4b 2e 83 be
       0.14694247 0.28258243 -0.4702807 -0.25621256
000030 29 d5 1b bf 8d 94 22 be 3c a4 0a 3f ca 84 42 3e
       -0.6087213 -0.1587698 0.5415685 0.18995968
000040 41 a0 a0 be 40 ea a8 3e f7 f0 ac be 6e b1 86 be
       -0.31372264 0.3299122 -0.33777592 -0.26307243
000050 8a 10 4b 3d 15 be 27 be b1 07 94 be f4 21 5a bf
       0.04957632 -0.16381104 -0.28912118 -0.8520806
000060 c6 f5 ca 3e d5 a7 03 bf af c7 1b 3e 23 b7 99 bd
       0.39640635 -0.51427966 0.15212892 -0.07505634
000070 1e d0 4e be ce 42 a9 3c f7 c5 0b 3e 1d 6f c9 3e
       -0.20196578 0.020661738 0.13649736 0.39342585
000080 17 d4 c9 bc 41 94 83 bd bf 54 d8 be d4 a3 ab be
       -0.024637265 -0.064247616 -0.42252156 -0.33523428
000090 4a 60 3d be 3a 1d 4a 3e ec ab 8e 3d 37 10 e0 bb
       -0.18493763 0.19737712 0.06966385 -0.0068378705
0000a0 34 2f a6 3e 78 ea 58 be 46 a5 72 3e e5 dd 28 3e
       0.32457888 -0.21183193 0.2369586 0.16490896
0000b0 e9 59 7a 3e d6 c5 12 bf 56 88 32 bf 17 6a 16 bf
       0.2444836 -0.57333124 -0.6973928 -0.5875563
0000c0 3f 77 2e 3e 31 56 23 3e 27 97 44 bf df c7 59 3e
       0.17037676 0.15950848 -0.7679314 0.21267651
0000d0 f8 cd 5f be e7 2d 9c 3e 7b 10 3b 3e 91 26 1a bf
       -0.21855915 0.3050377 0.18268006 -0.602151
0000e0 0a 43 6c be f4 1b d2 be 8f 00 d7 bd c5 78 84 be
       -0.23072448 -0.41036952 -0.104981534 -0.2587339
0000f0 b1 8f d9 be 14 a2 b2 be 6c e1 cf be fc 96 db be
       -0.4249244 -0.3488928 -0.4060167 -0.4288863
000100 9b 30 3d 3d 6e d2 2d bf f8 02 8b be 61 15 b8 3e
       0.046188932 -0.67899215 -0.27150702 0.3595381
000110 24 f4 90 3e 10 b1 76 be 62 5e 93 bd 3b dd 00 bf
       0.28311265 -0.24090981 -0.071957365 -0.5033757
000120 58 48 ed be 31 ff 52 be 5f c0 3a be af 0d d2 3e
       -0.46344256 -0.2060516 -0.18237446 0.41026065
000130 95 fe 5f bf 33 b6 1c be 8b a9 f1 be 00 0a cb be
       -0.87497836 -0.15303878 -0.47199664 -0.39656067
000140 9b 7d 3e 3e 03 39 1a 3d c1 d4 81 bd 63 95 84 bf
       0.18602602 0.037652027 -0.06339408 -1.0358089
000150 87 3e d2 be 28 fa 65 be 57 38 9e 3e bb 66 dd bb
       -0.4106333 -0.22458708 0.3090236 -0.006756631
000160 d7 87 88 be b0 69 04 3f 40 10 d0 be 20 eb 0f bf
       -0.26666138 0.51723766 -0.40637398 -0.5621815
000170 80 c1 12 bd c4 0d 3d bf 28 32 6f 3d ac 15 ee 3b
       -0.035829067 -0.7384913 0.058397442 0.007265767
000180 27 7c a5 be 7a 88 91 3c ca 41 eb be 6f 18 a6 3e
       -0.32321283 0.017765272 -0.4594863 0.32440516
000190 b8 8b d3 3e 85 ea 37 bf 6d 7d 2a be b4 a8 26 bf
       0.41317534 -0.71842223 -0.16649409 -0.6510117
0001a0 22 fd 98 be 39 60 6d ba 1b 95 84 3e 4c 00 6a be
       -0.29880625 -0.0009055171 0.25895008 -0.22851676
0001b0 46 87 62 bd 42 4d 13 bf e4 d1 af be 84 94 a5 3e
       -0.055304788 -0.5753976 -0.3433982 0.3233987
0001c0 b8 48 b4 bc 1d 49 11 bf bf ff 53 3e 80 91 f6 be
       -0.022007331 -0.56752187 0.20703028 -0.48157883
0001d0 b6 24 04 bf 39 68 fc be e6 7f 0e be c1 bb 99 bd
       -0.51618516 -0.49298266 -0.13915977 -0.07506514
0001e0 8f d1 88 3e 74 ba 04 bf 34 1f 1e bf 26 3c b6 be
       0.2672238 -0.51847005 -0.6176636 -0.35592765
0001f0 63 66 0c be 29 48 7d 3e 4d 55 fb 3d ff bc 2e bf
       -0.13710932 0.24734558 0.12272129 -0.68257135
000200 5a fe 26 3e f2 e4 87 be f2 7b d5 3e 48 b5 71 3e
       0.16307965 -0.2654186 0.41696125 0.2360431
000210 8a a3 9c be fa 00 c2 3e 30 20 d1 3e 60 5f f7 be
       -0.3059352 0.3789137 0.4084487 -0.48314953
000220 57 81 17 bf 05 eb 8a bd 15 b9 99 bd eb 09 01 3e
       -0.5918173 -0.06783108 -0.07506005 0.1260144
000230 a8 65 0b be 67 a6 18 3f 1f 6c 0c 3d bf 4c b0 3d
       -0.13612998 0.5962891 0.0342828 0.08608388
000240 38 a1 76 bf 24 4d bc be 42 c7 7f 3e d9 3a c5 bd
       -0.9633975 -0.36777604 0.24978355 -0.09630365
000250 d0 9e 03 bf ff 01 09 3e 2c 2c 58 be 5a 57 1b be
       -0.51414204 0.13379668 -0.211106 -0.1517004
000260 08 90 97 be d2 27 17 3f 77 87 e9 be 67 1f ff bd
       -0.29602075 0.59045136 -0.45611164 -0.124571614
000270 33 e7 1e be 52 4f cb bd 6d 0b 29 bf b7 c3 61 bc
       -0.15517883 -0.099272385 -0.6603306 -0.013779572
000280 d1 44 7a 3d f1 09 7c 3e 09 8a 6e be 74 74 13 be
       0.061100785 0.24613167 -0.23294844 -0.14399892
000290 c0 13 9f be 21 47 fa be 92 4d 18 bd 57 24 e4 be
       -0.31069756 -0.48882392 -0.03718335 -0.44558975
0002a0 4b a6 50 be eb 50 1b bf 96 0e 95 be ec d5 72 3e
       -0.20375936 -0.60670346 -0.2911269 0.23714417
0002b0 2e 05 af be 97 b8 ea be 04 73 66 bf 65 e1 3d be
       -0.3418364 -0.45843956 -0.9001925 -0.18543012
0002c0 fa b4 0b 3e c7 d2 f1 3e fb 24 09 bf 52 82 ba 3d
       0.13643256 0.47231123 -0.5357205 0.09106888
0002d0 a9 4e 31 3e 89 51 0c 3f 0d 44 97 be 0a e9 9a 3e
       0.17315163 0.5481191 -0.29544106 0.3025592
0002e0 01 31 de 3d 80 44 7f bd 2e 34 e0 be 68 56 03 be
       0.108491905 -0.062321186 -0.4378981 -0.1282593
0002f0 a9 70 6f 3d 7f d4 d3 3e cd 96 ff 3e 34 a6 df be
       0.05845705 0.4137306 0.4991974 -0.4368149
000300 5b 90 51 be 5d f7 70 bf 5d 0e e6 be 11 b1 05 bf
       -0.20465223 -0.94127446 -0.44932833 -0.52223307
000310 3d 92 b3 3d 89 89 b2 3e b1 34 c9 3d 8f b8 e6 3e
       0.08768127 0.34870556 0.09824503 0.45062682
000320 a6 1a 18 bf 4c 75 01 be 38 a7 79 3e 71 4a 89 be
       -0.5941566 -0.12642401 0.24380195 -0.26814607
000330 95 18 b5 be 7d bf 8d 3b ad fd 06 3e 4b e6 83 be
       -0.35370317 0.0043258057 0.13182707 -0.25761637
000340 6e 1d 9f 3e b7 31 6d 3e 7b ef 07 3f f3 88 b0 be
       0.3107714 0.23163496 0.53099793 -0.34479484
000350 76 97 57 bd e1 b5 df 3e 78 c7 81 3e 33 ec 29 bf
       -0.05263468 0.4369345 0.25347495 -0.66376036
000360 e9 62 74 3d 54 cf 52 3e 06 be e3 be d5 f9 78 3e
       0.05966464 0.20586902 -0.44480914 0.24314053
000370 79 80 64 bf 2c 17 b8 be ec 6f 67 3e 05 e1 91 3e
       -0.89258534 -0.3595518 0.22601289 0.2849199
000380 2c 95 37 be 1e f6 0a bf fd a2 fd be a6 77 98 be
       -0.17927998 -0.54281795 -0.49538413 -0.29778785
000390 1f d2 63 be ec 29 7c 3e 55 55 21 bf 50 86 2a 3e
       -0.22248124 0.24625367 -0.6302083 0.16652799
0003a0 5d c7 95 3d 19 c5 da 3e fe 4e 1a bf b9 04 9e be
       0.07313416 0.427285 -0.6027678 -0.30862978
0003b0 99 08 bb be df 39 9c 3e ae 5d 3b be 8e 95 1e bf
       -0.36529997 0.30512902 -0.18297455 -0.6194695
0003c0 38 3e cf be 6a 1f 95 be f6 94 3b bd ae 27 1e bf
       -0.40477157 -0.2912553 -0.045796357 -0.61779296
0003d0 02 ec 06 3f 08 59 64 be 9b 7e a8 be 37 fa ef 3e
       0.5270387 -0.22299588 -0.32909092 0.46870586
0003e0 e1 93 c1 be a4 8a 3b bf c2 05 fa be 99 2c d7 3d
       -0.37808135 -0.73258424 -0.48832518 0.10506553
0003f0 d0 2c a9 3d c3 7f 15 3e eb 21 37 bf 1e ca 23 3e
       0.082605004 0.14599518 -0.7153613 0.1599507
