Project/upload/part2_q1/HalfCheetahBulletEnv-v0_TD3_BC_5_1638387524_td3_bc.pth (torch, 898095 bytes, 16 tensors)

l1.weight f4 [256, 32]
0	0x3f22690b	0.6344153
1	0x3dab409c	0.08361933
2	0x3d99c946	0.07509093
3	0x3e2b35d2	0.1671975
4	0x3d556224	0.052095547
5	0xbe050588	-0.12990391
6	0xbd10511f	-0.035233613
7	0x3e679d55	0.22618611
8	0xbd1e914c	-0.038712785
9	0x3da961a6	0.08270578
10	0xbe7696af	-0.24080919
11	0xbec1516f	-0.3775744
12	0x3f0183f9	0.50592
13	0xbe035131	-0.12823941
14	0x3e2ea079	0.17053403
15	0xbea91668	-0.33024907
16	0xbdc59ad9	-0.096486755
17	0xbcfe06a3	-0.031009024
18	0xbda623cb	-0.08112296
19	0x3e54a0ad	0.20764418
20	0xbd4cbd52	-0.049985237
21	0xbe218e42	-0.15776923
22	0xbe8a6107	-0.2702715
23	0xbdf2fb8e	-0.118643865
24	0xbc8ef6bc	-0.017451636
25	0x3e46cd7e	0.19414327
26	0x3ea092b5	0.3136193
27	0x3db8e146	0.090273425
28	0x3ee27e42	0.44236952
29	0x3d250bd1	0.040294472
30	0x3ec6c2d5	0.3882052
31	0x3d707f23	0.058714997
32	0x3eae2d4c	0.34018934
33	0xbe15522b	-0.14582126
34	0x3e3bf4bd	0.18355079
35	0xbd32216e	-0.043488912
36	0xbe13dbb2	-0.14439276
37	0x3e94cfb9	0.2906473
38	0xbdfaf1f2	-0.12253179
39	0xbe31b21c	-0.173531
40	0x3e26bbac	0.16282529
41	0xbe52bfe9	-0.2058102
42	0x3d725e4e	0.059171967
43	0x3c2a000d	0.010375989
44	0xbe0d6899	-0.13809432
45	0x3d3359c8	0.043786794
46	0xbf121edb	-0.5707833
47	0x3e75b256	0.23993811
48	0x3e653ae1	0.22385742
49	0xbd71e00b	-0.059051555
50	0x3d80e88d	0.062943555
51	0xbcef1512	-0.029184852
52	0x3f022592	0.5083858
53	0x3e42c7bb	0.19021504
54	0xbd96ad4f	-0.07357275
55	0xbc309568	-0.010777809
56	0x3da56c73	0.08077326
57	0xbe5c83bb	-0.21534626
58	0xbe8cd571	-0.27506593
59	0x3a31b535	0.0006779016
60	0xbd4e4f4f	-0.050368603
61	0x3ebb9805	0.3663942
62	0xbea2b81d	-0.31781092
63	0xbd04ea2d	-0.03244989
64	0x3f06efa6	0.52709424
65	0x3cb8ed8d	0.02257421
66	0x3e2f4044	0.17114359
67	0xbf0092e5	-0.50224143
68	0x3d0439f4	0.03228183
69	0x3ddceeb3	0.10787716
70	0xbeb5c07c	-0.35498416
71	0xbb095a22	-0.0020958264
72	0xbe882a4f	-0.2659478
73	0x3d91b7eb	0.07115158
74	0xbeff0ab7	-0.49812862
75	0xbc9103f9	-0.01770209
76	0x3e39db20	0.18149996
77	0x3dd13fe5	0.10217265
78	0x3eae9fd5	0.34106317
79	0xbe140cc1	-0.1445799
80	0x3d2d499d	0.04230653
81	0xbe3f6327	-0.18690167
82	0xbf18f764	-0.5975249
83	0xbc8d4444	-0.017244466
84	0x3db165ca	0.08661993
85	0xbd06eb8c	-0.03293948
86	0x3d19ec51	0.037578885
87	0x3e02c78d	0.12771435
88	0x3b099324	0.0020992244
89	0x3d0159f2	0.03157992
90	0xbe4df120	-0.20111513
91	0x3d520c56	0.051281296
92	0x3d8a664e	0.06757794
93	0x3d62d8a9	0.055382404
94	0xbe0ecd5e	-0.13945529
95	0x3d75bd62	0.059995063
96	0xbf095bcb	-0.5365569
97	0xbe2e1c89	-0.17003073
98	0xbcac1e43	-0.021010524
99	0xbebba02e	-0.36645645
100	0x3d6ded8f	0.05808788
101	0xbf13b254	-0.5769398
102	0xbd9178b8	-0.071031034
103	0x3e11eab1	0.14249684
104	0xbdcc3dd6	-0.09972732
105	0xbd98eb3c	-0.074667424
106	0x3e70d83d	0.23519988
107	0xbebf845e	-0.37405676
108	0xbd9456c3	-0.07243111
109	0x3def2fd4	0.11679044
110	0xbeaaa29a	-0.3332718
111	0xbd849efa	-0.06475635
112	0x3dec01b2	0.11523761
113	0x3e5b9a50	0.21445584
114	0x3e990e03	0.29893503
115	0x3e449673	0.19198017
116	0xbccd9d54	-0.025099434
117	0xbc22b278	-0.009930246
118	0x3dc1bb3d	0.09459541
119	0x3e241cd2	0.16026619
120	0x3daba869	0.08381731
121	0x3e3645b2	0.17800024
122	0xbd8ff94a	-0.0702997
123	0xbe1dd7a3	-0.1541429
124	0x3e07d8fd	0.13266368
125	0x3eeb2341	0.45925334
126	0xbec406a6	-0.38286322
127	0x3c9ae7f7	0.018909438
128	0xbd850447	-0.064949565
129	0xbdec7d3c	-0.11547324
130	0x3ebca912	0.3684774
131	0x3f0f11fd	0.5588682
132	0x3c949844	0.018139012
133	0xbdb75622	-0.089519754
134	0xbe926838	-0.28595138
135	0x3e96c33d	0.2944583
136	0xbe32e529	-0.1747023
137	0xbea66c32	-0.3250442
138	0x3d888d21	0.06667543
139	0x3d50fb11	0.051020686
140	0xbecbed6b	-0.39829573
141	0x3d015aa0	0.031580567
142	0xbe9909c9	-0.29890278
143	0x3e124d55	0.14287312
144	0x3ce563a3	0.028001612
145	0x3e52f874	0.2060259
146	0xbc66e725	-0.014093195
147	0x3e019e0f	0.12657951
148	0xbd641963	-0.055688273
149	0x3deade20	0.11468148
150	0xbe0a4f37	-0.1350678
151	0x3cac838d	0.021058822
152	0xbd3c75bb	-0.046010714
153	0xbecb3152	-0.39686066
154	0xbd783d5b	-0.060605388
155	0xbd22814e	-0.039674096
156	0xbbcbbf77	-0.0062178927
157	0x3e0d2b7d	0.1378612
158	0x3e224fbb	0.15850727
159	0x3d6d619e	0.057954423
160	0x3ea0cd3e	0.31406587
161	0x3e057826	0.13034114
162	0x3e3cdabf	0.1844282
163	0x3f081e59	0.53171307
164	0xbd15cab6	-0.036570273
165	0xbdcc8e11	-0.099880345
166	0xbe882873	-0.2659336
167	0xbe9824b4	-0.29715502
168	0xbd4208e8	-0.047371775
169	0xbde14a66	-0.110005185
170	0x3e7a4aaa	0.24442545
171	0xbc872fd7	-0.016502304
172	0xbcebde04	-0.028792389
173	0xbe0a42d8	-0.13502061
174	0x3ec69c05	0.38790908
175	0xbec8957c	-0.39176548
176	0xbe8b9a01	-0.27265933
177	0x3ec0fcde	0.37692922
178	0x3f401c38	0.7504306
179	0x3e477fdb	0.19482367
180	0xbe277add	-0.16355462
181	0xbd95acb0	-0.07308328
182	0xbe99eddf	-0.30064294
183	0xbe984063	-0.29736623
184	0x3d40c456	0.04706224
185	0x3e1d798f	0.15378402
186	0xbc825d3e	-0.015913602
187	0x3cd12f40	0.025535226
188	0x3d1cf734	0.03832169
189	0xbd03f2a3	-0.03221382
190	0x3e07be14	0.13256103
191	0xbd9ca1d0	-0.07648051
192	0x3f1c3bf9	0.6102901
193	0x3d604260	0.0547508
194	0xbdde0704	-0.10841182
195	0x3e8e5594	0.27799666
196	0x3e1b2000	0.15148926
197	0x3e909f2f	0.28246447
198	0x3e28d249	0.16486467
199	0xbf0993f6	-0.53741395
200	0xbf139434	-0.57648015
201	0xbc7479fe	-0.014921663
202	0xbed1b406	-0.4095766
203	0x3dd15926	0.10222082
204	0x3e48593e	0.19565293
205	0xbd8a21f0	-0.06744754
206	0x3de1849f	0.110116236
207	0x3eb386b5	0.3506371
208	0xbe8074f4	-0.25089228
209	0x3f345321	0.70439345
210	0xbd975448	-0.07389122
211	0x3d521fd7	0.051299896
212	0xbd9a465f	-0.075329535
213	0xbd844e50	-0.064602494
214	0x3e9d8ca3	0.3077136
215	0xbd8193a2	-0.06326987
216	0xbf182c9c	-0.5944307
217	0x3dbb6781	0.09150601
218	0x3e3d62bd	0.18494697
219	0xbd1aca28	-0.037790447
220	0xbe92713b	-0.28602013
221	0x3d3a0c74	0.045422032
222	0x3f148d04	0.5802767
223	0xbe8196f5	-0.25310484
224	0x3e77d815	0.24203523
225	0x3d4e6765	0.050391573
226	0x3eab07df	0.33404443
227	0x3da78382	0.0817938
228	0x3df32b0d	0.11873446
229	0xbe06ec97	-0.1317619
230	0xbe7d8ade	-0.24760005
231	0xbe455048	-0.19268906
232	0xbeba7fed	-0.36425725
233	0x3e3ff9b2	0.18747595
234	0xbe8c3b75	-0.27389112
235	0x3e25f35d	0.16206117
236	0xbe2bd7b2	-0.167815
237	0x3e29a9f5	0.1656874
238	0xbdd8646d	-0.1056603
239	0x3e108ade	0.14115474
240	0xbf06220b	-0.52395695
241	0xbd83ffdb	-0.06445285
242	0xbe8451c9	-0.25843647
243	0xbdd768ef	-0.10518061
244	0x3e66ce42	0.22539619
245	0xbe12c1a5	-0.14331682
246	0xbd4c31eb	-0.049852293
247	0xbe12a288	-0.14319813
248	0x3ca5d040	0.020240903
249	0x3d2dad5d	0.04240166
250	0x3dbe47df	0.09291052
251	0x3ea529db	0.32258496
252	0xbe830839	-0.2559221
253	0xbdc560c5	-0.09637598
254	0x3e8e21f4	0.2776028
255	0xbd116394	-0.035495356

l1.bias f4 [256]
0	0xbc83b7a0	-0.01607877
1	0x3e421a8c	0.1895544
2	0x3ecee16d	0.4040636
3	0xbe4c4dc9	-0.19951548
4	0x3edfaad7	0.43685028
5	0xbddab893	-0.10679736
6	0x3dcc3380	0.0997076
7	0x3eb434d3	0.35196552
8	0xbd8f5a5a	-0.06999655
9	0x3ec0b786	0.37640017
10	0x3ea2f3f7	0.31826755
11	0x3e6c581f	0.2308049
12	0xbeaa10fc	-0.33216083
13	0xbe93f68c	-0.28899038
14	0xbea8d42a	-0.32974368
15	0xbe8428db	-0.2581242
16	0x3e9215b2	0.28532177
17	0xbdd4c1f6	-0.103885576
18	0x3ec06b71	0.3758197
19	0xbe982d78	-0.2972219
20	0xbe98caff	-0.29842374
21	0xbe86448b	-0.2622417
22	0xbd3fb318	-0.046801656
23	0xbeb7be63	-0.3588744
24	0xbf26b71d	-0.6512316
25	0x3e3917e5	0.18075521
26	0xbef8e41f	-0.48611543
27	0x3e059dec	0.13048524
28	0x3e208e93	0.15679388
29	0xbdec66fb	-0.115430795
30	0xbe04d0f6	-0.12970337
31	0xbf51c004	-0.8193362
32	0xbe1d6477	-0.15370356
33	0x3ea70529	0.32621124
34	0xbec284cd	-0.37991944
35	0xbd685efb	-0.056731205
36	0x3ed4bd36	0.41550606
37	0x3e785dba	0.24254504
38	0xbe9b74ba	-0.30362493
39	0xbe06fc05	-0.13182075
40	0x3df0c8e5	0.117570676
41	0xbdaca0b2	-0.08429088
42	0xbf11e4c3	-0.5698969
43	0x3e1ffd0e	0.15623876
44	0x3e617660	0.22017813
45	0x3e0052a9	0.12531532
46	0xbd5ba603	-0.053625118
47	0x3e464938	0.19363868
48	0xbeaeb7d0	-0.34124613
49	0xbf1f5d47	-0.62251705
50	0x3e8c32ad	0.27382413
51	0xbef359a2	-0.47529322
52	0xbe732db9	-0.2374791
53	0xbecf9204	-0.4054109
54	0x3efeee31	0.497911
55	0xbee71e49	-0.45140293
56	0xbea95d81	-0.3307915
57	0x3e04c8a5	0.12967165
58	0x3dbafeb7	0.09130614
59	0xbe3416b2	-0.17586783
60	0xbef76434	-0.48318636
61	0xbe96498f	-0.29352996
62	0x3e954b20	0.29158878
63	0x3eebddae	0.46067566
64	0x3eec6f6a	0.46178752
65	0x3e899db7	0.2687814
66	0xbeb227de	-0.3479604
67	0xbf4991f8	-0.78738356
68	0x3c678e13	0.014132994
69	0x3d6de92f	0.05808371
70	0xbecf66a1	-0.40507987
71	0x3e92c62c	0.28666818
72	0xbeb71b0b	-0.3576282
73	0x3e8baba8	0.272794
74	0xbf2b2fac	-0.66869617
75	0xbdf2bc81	-0.118523605
76	0x3e3a64c2	0.18202499
77	0xbee9f44e	-0.45694202
78	0x3e044e98	0.12920606
79	0xbd6d12d2	-0.057879277
80	0xbd96235d	-0.07330964
81	0xbe84e880	-0.25958633
82	0xbdeed61c	-0.11661932
83	0xbe9b15d6	-0.30290097
84	0xbf0d7a4b	-0.5526473
85	0xbf03605e	-0.5131892
86	0xbc90cec1	-0.017676713
87	0x3eb48452	0.35257202
88	0xbd1ac917	-0.03778943
89	0xbed3ee3c	-0.41392696
90	0xbf144412	-0.5791637
91	0xbeecdc34	-0.46261752
92	0x3f08a18b	0.53371495
93	0xbd95c05f	-0.073120825
94	0xbee59f88	-0.44848275
95	0x3e8aec07	0.271332
96	0xbf2da52d	-0.67830163
97	0x3e9ce91e	0.30646604
98	0xbe63b244	-0.22235972
99	0xbe09a093	-0.1344016
100	0xbf01b1e1	-0.50662047
101	0xbdcdbd7f	-0.10045909
102	0x3eb1224a	0.34596473
103	0xbf3fdb93	-0.7494442
104	0xbe928a30	-0.28621054
105	0xbe8d262f	-0.27568194
106	0xbf19ca36	-0.60074174
107	0xbf25ac20	-0.64715767
108	0x3f0be79f	0.546503
109	0xbe8fec63	-0.28110036
110	0xbf03e097	-0.5151457
111	0xbe592053	-0.21203737
112	0xbea057a7	-0.31316873
113	0x3f21b887	0.6317219
114	0xbefd6e5a	-0.49498254
115	0xbf0f5d11	-0.56001383
116	0xbe942af2	-0.28939015
117	0xbe95dd00	-0.29270172
118	0xbd8e12b2	-0.069371596
119	0xbee97eb8	-0.4560449
120	0xbe5c3ca8	-0.21507514
121	0xbe4d37dc	-0.2004084
122	0xbebbc474	-0.3667332
123	0xbf04f219	-0.5193191
124	0xbed5f418	-0.4178779
125	0xbf663b69	-0.899344
126	0x3edfce43	0.43712053
127	0xbefdb3c3	-0.4955121
128	0x3df8d1a7	0.12149363
129	0xbf62ae13	-0.88546866
130	0x3bacf436	0.0052781356
131	0x3e0b5a82	0.13608745
132	0x3eabc130	0.33545828
133	0xbd84e2e3	-0.06488588
134	0xbf079d29	-0.5297418
135	0x3e122bd7	0.14274536
136	0xbf05cf96	-0.52269876
137	0x3e2eb012	0.17059353
138	0x3d8e48ec	0.069475025
139	0xbf17cafe	-0.59294116
140	0xbf2a5a26	-0.66543806
141	0x3ee92eac	0.4554342
142	0x3ea2d0b1	0.31799844
143	0x3ea459d7	0.32099792
144	0xbf03a205	-0.514191
145	0xbe14e037	-0.14538656
146	0xbddca659	-0.10773916
147	0x3e1ccecf	0.15313266
148	0x3ea42d4e	0.32065815
149	0x3e0ac0f6	0.13550171
150	0x3cd7dfbf	0.026351808
151	0xbe6df4ee	-0.23237965
152	0xbefadc9e	-0.48996443
153	0xbf3a2b49	-0.727223
154	0xbeed26db	-0.46318707
155	0xbe6caae1	-0.2311206
156	0x3f03e7ad	0.51525384
157	0x3e9f37e3	0.31097326
158	0xbe3f4ec8	-0.18682396
159	0xbf0196d7	-0.5062079
160	0x3cd3b148	0.02584137
161	0xbeda4cda	-0.42636758
162	0x3eb9e324	0.36306107
163	0xbe9b2140	-0.30298805
164	0x3d0edd69	0.034879122
165	0xbe4d59d7	-0.20053802
166	0xbe747e89	-0.23876394
167	0xbd72f833	-0.059318732
168	0x3ed0fc24	0.40817368
169	0xbd8d1500	-0.06888771
170	0x3ea6abb0	0.32552862
171	0x3e7171fe	0.23578641
172	0x3e25c733	0.1618927
173	0xbe8f9cff	-0.28049466
174	0x3e4d4bc5	0.20048435
175	0xbeb25efc	-0.34838092
176	0xbf2ddba3	-0.67913264
177	0x3eb2b7b2	0.34905773
178	0xbf44bf62	-0.76854527
179	0x3f0c2f46	0.54759634
180	0xbe0c5a11	-0.13706233
181	0xbd91761f	-0.07102608
182	0x3ea9e7b3	0.33184585
183	0x3c133d76	0.008986821
184	0xbe145513	-0.14485578
185	0xbe428583	-0.18996243
186	0xbe2ab27e	-0.16669652
187	0xbeea91ec	-0.45814455
188	0xbe7ee742	-0.24892905
189	0xbeb66105	-0.35620895
190	0x3eac5f0f	0.33666274
191	0x3e7a2020	0.24426317
192	0x3ec0a3ff	0.3762512
193	0xbe20789e	-0.15671012
194	0x3c107cbc	0.0088188015
195	0xbea9679a	-0.33086854
196	0xbf6b0d03	-0.9181673
197	0xbe5e0d77	-0.21684824
198	0xbf5b0c72	-0.85565865
199	0xbed0109a	-0.40637666
200	0x3e9ee5a0	0.31034565
201	0xbf63ace6	-0.889357
202	0xbe63c7eb	-0.22244231
203	0xbf0ac8b4	-0.542125
204	0xbec9cd35	-0.39414373
205	0xbe2b2565	-0.16713484
206	0xbf21defd	-0.6323088
207	0xbe861060	-0.26184368
208	0xbf01041a	-0.50396883
209	0x3ef7f989	0.48432568
210	0xbe3bd99a	-0.18344727
211	0xbda0fae5	-0.07860354
212	0xbc3b678d	-0.011438263
213	0x3d9c22c9	0.07623822
214	0xbc9243a0	-0.017854512
215	0x3d6bfecb	0.057616036
216	0xbe1831cd	-0.14862747
217	0xbe6d74a2	-0.23189023
218	0xbefa951a	-0.4894188
219	0x3f07f6f9	0.53111225
220	0xbe7214e4	-0.23640782
221	0xbbef71b5	-0.007307256
222	0x3e7c484a	0.24636951
223	0xbf052062	-0.5200254
224	0xbf0a7282	-0.54080975
225	0xbeffe4f0	-0.49979353
226	0xbf15c5ba	-0.5850483
227	0xbe84df95	-0.2595183
228	0xbf4cd77a	-0.8001629
229	0xbe88c24a	-0.2671073
230	0xbf246e41	-0.64230734
231	0x3e8e438f	0.27785918
232	0xbeac3aa2	-0.33638483
233	0xbefe252d	-0.49637738
234	0x3d92d181	0.07168866
235	0xbe9799dd	-0.29609576
236	0xbdcbba9c	-0.09947702
237	0x3e9909fb	0.29890427
238	0x3da701a3	0.08154609
239	0xbf1b12de	-0.60575664
240	0x3eefe5f6	0.46855134
241	0xbe9099c2	-0.28242308
242	0xbe96dfd9	-0.29467657
243	0xbde671b1	-0.11252154
244	0x3f0b8546	0.54500234
245	0xbe911046	-0.28332728
246	0x3d594f94	0.053054407
247	0x3f027c5b	0.50971
248	0xbf051ed4	-0.52000165
249	0x3c690b0a	0.014223823
250	0x3de086c8	0.109632075
251	0xbedf9b0f	-0.43672988
252	0x3eac6630	0.33671713
253	0xbe774c39	-0.2415017
254	0x3e9ffa5c	0.31245697
255	0xbe8f7589	-0.2801936

l2.weight f4 [256, 256]
0	0xbe033e86	-0.1281682
1	0xbc990ba4	-0.018682308
2	0x3b439a53	0.0029846623
3	0x3e2cc220	0.16870928
4	0xbdb27538	-0.08713764
5	0x3e40023e	0.18750855
6	0x3e3c5a27	0.18393765
7	0x3ed47190	0.4149289
8	0x3e59a4dc	0.21254295
9	0xbd911c11	-0.07085431
10	0xbe77d2aa	-0.24201456
11	0x3d499147	0.049210813
12	0x3dbb6701	0.09150506
13	0x3f299ed2	0.66257966
14	0xbe2ff19b	-0.17182009
15	0xbe5094ed	-0.2036931
16	0x3e4ec835	0.2019356
17	0xbc5d5206	-0.013508325
18	0x3ebec77c	0.3726157
19	0x3e3a9626	0.1822134
20	0xbdbf3c1d	-0.093376376
21	0xbec1bf79	-0.37841395
22	0xbd704139	-0.05865595
23	0xbe5961c8	-0.21228707
24	0x3e52522e	0.20539162
25	0x3e8c626f	0.2741885
26	0x3eab873b	0.3350161
27	0x3e21362f	0.15743326
28	0x3e0634ca	0.13106075
29	0xbf0731c4	-0.5281031
30	0xbc5a7ea2	-0.013335856
31	0xbf03e438	-0.5152011
32	0x3e06ca3a	0.13163081
33	0xbe6e3cfe	-0.23265454
34	0x3c74565b	0.014913167
35	0xbe72c0d8	-0.23706377
36	0x3dc5c25e	0.09656213
37	0x3de50a04	0.11183551
38	0xbe2b6b21	-0.16740085
39	0xbe99c4a5	-0.3003284
40	0xbe437fb2	-0.1909168
41	0xbe92fe2d	-0.28709546
42	0x3e47c949	0.19510378
43	0xbeb52654	-0.35380805
44	0x3d97dfe7	0.07415753
45	0x3dc5a8ba	0.09651323
46	0xbd510c56	-0.051037155
47	0x3e9526ae	0.29131073
48	0xbe3a8db5	-0.1821812
49	0xbea0f2d7	-0.31435272
50	0x3c622b80	0.0138043165
51	0x3e148010	0.14501977
52	0x3f5fde66	0.8744873
53	0xbde1dee5	-0.11028842
54	0x3ed1f318	0.41005778
55	0x3e4d094d	0.20023079
56	0x3dd74a2b	0.10512193
57	0x3e97ba75	0.29634443
58	0xbdefa1e1	-0.11700798
59	0x3db138b2	0.08653392
60	0x3d16b84a	0.036796845
61	0xbeabd7d2	-0.33563095
62	0xbebaeff8	-0.36511207
63	0x3e5f0c99	0.2178215
64	0xbe5450cf	-0.20733951
65	0x3db1aa5a	0.0867507
66	0x3e4e0a2f	0.20121072
67	0xbd46fd45	-0.04858138
68	0x3e04bb73	0.12962131
69	0xbe916887	-0.2840006
70	0xbea9753c	-0.33097255
71	0x3eb2d65d	0.3492917
72	0x3e8d6b34	0.27620852
73	0x3d20204f	0.039093312
74	0xbd6a8b9b	-0.057262044
75	0xbee18ac6	-0.44051188
76	0xbd10879a	-0.03528557
77	0x3da812dd	0.08206723
78	0x3da60f0e	0.0810834
79	0x3db814c1	0.089883335
80	0xbe0d92b9	-0.13825502
81	0x3e84dd63	0.25950155
82	0x3ed512da	0.41615945
83	0x3b48d306	0.0030643358
84	0xbefaf2f2	-0.49013478
85	0xbe4da616	-0.20082888
86	0xbf42cef8	-0.7609706
87	0x3d45e9e2	0.04831875
88	0x3e610abf	0.21976756
89	0x3f1a1f3c	0.6020391
90	0x3dc050f7	0.09390443
91	0xbe05aab2	-0.13053396
92	0xbdc424a6	-0.09577303
93	0x3d5cafee	0.053878717
94	0xbe921619	-0.28532484
95	0xbccdfd08	-0.025145069
96	0xbec05ece	-0.3757233
97	0x3ca5464f	0.020175127
98	0x3d323ea9	0.04351679
99	0x3d98812c	0.074465126
100	0xbe3645fc	-0.17800134
101	0x3e94ba3e	0.29048342
102	0xbe2d5378	-0.16926372
103	0xbc84b029	-0.016197281
104	0x3ef91b07	0.48653433
105	0x3dff93a8	0.12479335
106	0x3c93105c	0.017952137
107	0xbecc4804	-0.39898694
108	0x3d2ab5c9	0.04167727
109	0x3e987b40	0.29781532
110	0xbd72c960	-0.059274077
111	0x3da306c4	0.07960275
112	0xbe91a431	-0.2844558
113	0x3e02904d	0.12750359
114	0xbc8c41d0	-0.017121226
115	0xbe99b77c	-0.300228
116	0xbdfcc4e2	-0.1234224
117	0xbe8b6a6c	-0.2722963
118	0xbe637500	-0.222126
119	0x3e857881	0.260685
120	0x3dc3185f	0.09526133
121	0x3e809cd8	0.25119662
122	0xbe275e91	-0.16344668
123	0x3d710aa2	0.05884803
124	0xbe213432	-0.15742567
125	0x3e7279b3	0.23679237
126	0x3e5d3eb2	0.21605948
127	0x3d24c0c8	0.040222913
128	0x3d8759cc	0.06608924
129	0x3d0f04fe	0.03491687
130	0x3ee33e34	0.44383395
131	0xbde115aa	-0.1099046
132	0x3e8b44c1	0.27200893
133	0xbd85818f	-0.06518852
134	0x3e7a6bf1	0.24455239
135	0xbdf2e65a	-0.11860342
136	0xbe378ba0	-0.17924356
137	0xbf2047eb	-0.6260974
138	0x3b0e57fe	0.0021719928
139	0xbda9a6ab	-0.082837425
140	0x3cb97814	0.022640266
141	0xbddb597f	-0.107104294
142	0x3e746cab	0.23869579
143	0x3e25cc59	0.16191234
144	0xbd9fe730	-0.078077674
145	0x3e8f5b67	0.27999422
146	0x3e3d53ac	0.1848895
147	0x3d1f84bd	0.03894495
148	0xbe36a69d	-0.17836995
149	0xbeb1a9a8	-0.3469975
150	0x3de1b517	0.11020868
151	0x3a6141d0	0.00085928757
152	0xbeff888b	-0.49908862
153	0xbdefa6ae	-0.117017135
154	0x3e696ba2	0.22794965
155	0x3f0c8220	0.54886055
156	0x3d2b1a45	0.0417731
157	0x3d820a43	0.063496135
158	0xbe3c1698	-0.18367994
159	0x3e58e5f8	0.21181476
160	0x3dc855a8	0.09781963
161	0x3e7bd7c6	0.2459403
162	0xbe65582a	-0.22396913
163	0x3e85b00c	0.26110876
164	0xbd9bd264	-0.07608488
165	0xbd6298e0	-0.055321574
166	0x3ed68e43	0.41905412
167	0xbe3aac20	-0.18229723
168	0x3e41f3ed	0.18940707
169	0x3e29a5f5	0.16567214
170	0xbdc039bf	-0.09386014
171	0x3deb23df	0.11481451
172	0xbf0631db	-0.52419823
173	0xbe14077b	-0.14455979
174	0x3e2ec838	0.17068565
175	0xbe0c8e06	-0.13726053
176	0xbe2f82ac	-0.17139691
177	0xbe9548e8	-0.29157186
178	0xbeeed739	-0.46648577
179	0x3ea9c029	0.3315442
180	0x3c29a430	0.010354087
181	0x3e158c21	0.14604236
182	0xbe88c175	-0.26710096
183	0x3d49ba69	0.04925004
184	0xbe8e146a	-0.2774995
185	0xbec3edf0	-0.3826747
186	0x3bd73202	0.0065672407
187	0xbe373c6e	-0.17894146
188	0xbe728dac	-0.23686856
189	0x3d166794	0.036719874
190	0xbc7bd787	-0.01537121
191	0x3e9e073d	0.30864897
192	0x3ee2a5af	0.44267032
193	0xbd08fe00	-0.03344536
194	0xbf18070f	-0.5938577
195	0xbf31c8a0	-0.69446754
196	0xbee40316	-0.44533604
197	0xbe6aa4cd	-0.22914429
198	0xbcc3874d	-0.023868227
199	0xbeb9a704	-0.36260235
200	0xbde4219d	-0.11139224
201	0x3e669438	0.22517478
202	0x3e13c419	0.14430274
203	0xbcf48ba5	-0.029851744
204	0xbe762281	-0.240366
205	0x3c43bf5e	0.011947481
206	0xbee02910	-0.43781328
207	0xbec19a8c	-0.37813222
208	0xbf6751af	-0.90359014
209	0x3d00138a	0.031268634
210	0xbd0383dd	-0.032108176
211	0x3e78cb6d	0.24296351
212	0x3d902977	0.07039159
213	0x3e41b111	0.18915202
214	0x3e8472fd	0.2586898
215	0x3ca2a2b2	0.01985297
216	0x3e62eced	0.22160693
217	0xbeb85a2c	-0.36006296
218	0xbd10a216	-0.035310827
219	0xbe67b997	-0.2262939
220	0xbda4a76e	-0.08039747
221	0xbe758a35	-0.23978503
222	0x3e66df69	0.22546162
223	0xbe57ac81	-0.21061899
224	0xbc80cabd	-0.015721673
225	0xbdc10baf	-0.094260566
226	0x3debf6c3	0.115216754
227	0xbe2491f0	-0.16071296
228	0xbf1ec2c5	-0.62015945
229	0x3d8db158	0.06918591
230	0xbf058677	-0.521583
231	0x3d369b94	0.044581965
232	0xbed0001f	-0.40625092
233	0xbe49191a	-0.19638482
234	0x3e56a0de	0.20959803
235	0xbec2a23f	-0.3801441
236	0x3e4fab22	0.20280126
237	0x3e9a1872	0.30096775
238	0x3dae18b3	0.08500805
239	0x3e69b841	0.22824194
240	0xbdd956c2	-0.10612251
241	0x3d7115f0	0.05885881
242	0x3d93f09f	0.07223629
243	0xbb8761d9	-0.0041315374
244	0xbd83f096	-0.064423725
245	0x3ec3ae79	0.3821905
246	0xbe37caea	-0.179485
247	0x3e17ede5	0.14836843
248	0xbe254b7c	-0.16142076
249	0x3ba67d5d	0.0050808624
250	0xbce4012a	-0.027832586
251	0xbeb853af	-0.36001346
252	0xbd36aa23	-0.04459585
253	0x3f0ace8b	0.5422141
254	0x3e617285	0.22016342
255	0xbc4691b0	-0.012119696

l2.bias f4 [256]
0	0xbe7e8594	-0.24855644
1	0x3eaf2447	0.34207365
2	0x3f188db3	0.59591216
3	0xbeccc8e6	-0.39997023
4	0xbeb2dd69	-0.34934548
5	0x3efe6241	0.49684337
6	0x3f125b1a	0.5717026
7	0x3f163d5f	0.58687395
8	0x3f1b3db1	0.6064101
9	0x3f11c78f	0.5694513
10	0x3ee61b1a	0.44942552
11	0xbf0c6872	-0.5484687
12	0x3ee72284	0.4514352
13	0xbeae6450	-0.34060907
14	0xbe93358f	-0.287518
15	0x3e4ac000	0.19799805
16	0xbe974586	-0.2954523
17	0x3ed75e0a	0.42063934
18	0x3f057277	0.52127784
19	0x3f159a1d	0.58438283
20	0x3f1436d4	0.5789616
21	0x3f1f12f8	0.6213832
22	0x3f0236e9	0.50865036
23	0x3f0518b5	0.51990825
24	0x3eab1ce5	0.33420482
25	0xbe74335a	-0.23847714
26	0xbe282e7e	-0.16423985
27	0xbec578d9	-0.38568762
28	0x3ee06ea9	0.43834427
29	0x3f20623a	0.6264988
30	0xbeb57a69	-0.35444954
31	0x3f1b6571	0.6070166
32	0x3f2680de	0.65040386
33	0x3eeb6599	0.4597595
34	0xbd24ee74	-0.04026647
35	0x3f0b7942	0.544819
36	0xbe104ebd	-0.14092536
37	0x3ed56d44	0.41684926
38	0x3ed5e97d	0.417797
39	0x3ecbcda3	0.39805326
40	0xbef872a3	-0.4852496
41	0xbdd7c6c6	-0.1053596
42	0xbea6b356	-0.32558697
43	0xbe31606e	-0.17321941
44	0x3f0cc6e6	0.54990995
45	0x3f08cd2c	0.5343807
46	0xbf15a52c	-0.5845516
47	0x3ec55c4a	0.38546973
48	0x3f2df658	0.67954016
49	0xbecbfe30	-0.39842367
50	0x3ef42690	0.4768567
51	0x3f2aeacd	0.6676453
52	0xbe877413	-0.26455745
53	0x3f0c47c8	0.5479703
54	0xbed41ecc	-0.41429746
55	0xbf0fd598	-0.56185293
56	0x3f1dadbd	0.6159323
57	0x3f06aa5a	0.52603686
58	0xbf16732a	-0.58769476
59	0x3f06c215	0.52639896
60	0xbe9911b2	-0.29896313
61	0x3efbfa99	0.49214628
62	0xbddfc327	-0.10925894
63	0x3f1c2367	0.6099152
64	0xbe98da61	-0.2985411
65	0x3e8498e9	0.2589791
66	0xbed66e47	-0.4188101
67	0xbf017984	-0.50576043
68	0xbea6118f	-0.3243527
69	0x3f1f31b4	0.62185216
70	0x3f1d7c71	0.6151801
71	0xbe8c5a69	-0.27412727
72	0x3ef0cb66	0.4703018
73	0xbe9d297f	-0.30695722
74	0x3eea9769	0.45818642
75	0x3f281b17	0.65666336
76	0xbefc5c10	-0.49288988
77	0xbf0106b2	-0.5040084
78	0x3f0ff70d	0.56236345
79	0x3f27f3cc	0.6560638
80	0xbe767dfc	-0.24071497
81	0x3f007098	0.50171804
82	0x3f02f7c4	0.5115931
83	0xbef65395	-0.48110643
84	0xbe4363fb	-0.19081108
85	0x3f23c9c8	0.6397977
86	0xbe93d569	-0.28873757
87	0x3ec1c03a	0.3784197
88	0xbea25422	-0.31704813
89	0xbef6866d	-0.48149434
90	0x3f1184ec	0.5684345
91	0xbec0c9a2	-0.37653834
92	0x3ea0d1b8	0.31410003
93	0xbefd8e8e	-0.49522823
94	0xbec02d5e	-0.37534612
95	0xbf295050	-0.6613817
96	0x3f18a3fe	0.5962523
97	0xbec4834c	-0.38381422
98	0xbee9c150	-0.45655298
99	0x3f00ff20	0.5038929
100	0xbeea4f1d	-0.45763484
101	0x3ea032ae	0.31288666
102	0x3f041b9b	0.5160462
103	0xbea37fce	-0.31933445
104	0xbeabfbf7	-0.3359067
105	0xbeb730b3	-0.35779342
106	0x3ee2955a	0.4425457
107	0xbe94f5b7	-0.29093716
108	0xbec5bfdd	-0.38622943
109	0x3f044a08	0.5167546
110	0xbf083fe7	-0.5322251
111	0xbe249adb	-0.16074698
112	0xbec9041f	-0.39260957
113	0xbeb93f2b	-0.36181006
114	0x3ceb6281	0.028733494
115	0x3f13789c	0.5760591
116	0x3ef8aec7	0.48570845
117	0x3eed8568	0.46390843
118	0xbe9a5167	-0.3014023
119	0x3f07f28f	0.5310449
120	0xbe9986b2	-0.29985577
121	0x3ef67741	0.4813786
122	0x3f2fdc24	0.6869528
123	0xbf0fccfe	-0.5617217
124	0x3ed90267	0.42384645
125	0x3efcda90	0.493855
126	0x3f16e057	0.58936065
127	0x3f182392	0.59429276
128	0x3ef10170	0.4707141
129	0xbece638c	-0.40310323
130	0xbeb61349	-0.35561588
131	0xbea2f61d	-0.31828395
132	0xbef758cb	-0.4830993
133	0xbefb3b33	-0.49068603
134	0x3f16101d	0.58618337
135	0x3f33f6a0	0.70298195
136	0xbe8168d0	-0.25275278
137	0xbe8dd92a	-0.27704746
138	0xbf2cc6e2	-0.6749097
139	0x3f1219ff	0.57070917
140	0x3f1a9d0f	0.603959
141	0x3ee607a2	0.44927698
142	0x3f1fb7f4	0.62390065
143	0x3f08b005	0.53393584
144	0xbea82cb7	-0.32846615
145	0xbe8a445b	-0.27005276
146	0xbedf1339	-0.43569353
147	0xbeab2f28	-0.33434415
148	0xbe1bfa41	-0.15232183
149	0xbe90c169	-0.2827256
150	0xbec029aa	-0.37531787
151	0x3f2def7b	0.67943543
152	0x3f13c78a	0.5772635
153	0x3f1d2b52	0.61394227
154	0x3f263dfd	0.64938337
155	0x3effcd87	0.49961492
156	0xbc78af1b	-0.015178467
157	0x3f340c6c	0.70331454
158	0xbe849ccc	-0.25900877
159	0xbeb8374e	-0.35979694
160	0x3ea9f64e	0.33195728
161	0xbe5a533e	-0.21320817
162	0x3ecfd906	0.40595263
163	0x3f013970	0.5047827
164	0x3f2c39e9	0.67275864
165	0xbf09167c	-0.53549933
166	0xbef166eb	-0.47148833
167	0xbeb13d71	-0.3461719
168	0x3eb41d05	0.3517839
169	0xbe8527be	-0.26006883
170	0xbea8ccdd	-0.32968798
171	0x3f1d1180	0.6135483
172	0x3ea27d5f	0.31736276
173	0x3f11d35d	0.5696314
174	0x3f1bdbc4	0.6088221
175	0xbebbb7c8	-0.3666365
176	0x3f09b86a	0.5379702
177	0x3ef75cb5	0.48312917
178	0x3f08036d	0.5313023
179	0x3f0accc1	0.5421868
180	0x3f20d62c	0.628268
181	0xbe7c24b2	-0.24623373
182	0x3f089cc5	0.5336421
183	0xbea5f85b	-0.32416043
184	0x3f014587	0.50496715
185	0x3f049e3a	0.51803935
186	0x3ef6d093	0.48206005
187	0x3f127d23	0.57222193
188	0xbe882762	-0.26592547
189	0xbe2b8c2a	-0.16752687
190	0x3f163b2e	0.5868405
191	0xbeb9d20a	-0.3629306
192	0x3eb93e46	0.36180323
193	0xbef29eac	-0.47386682
194	0xbe890a04	-0.26765454
195	0x3ea8d839	0.32977465
196	0xbe96d047	-0.29455778
197	0x3f06b4e9	0.52619797
198	0x3f1b54b1	0.60676104
199	0x3e91d61b	0.28483662
200	0xbf04fbd9	-0.5194679
201	0x3f15140e	0.58233726
202	0x3e78fd89	0.24315466
203	0xbf116ffb	-0.56811494
204	0xbed6d151	-0.4195657
205	0xbe407ddd	-0.18798013
206	0x3edc3329	0.43007782
207	0x3ede87af	0.43462893
208	0x3f33a777	0.70177406
209	0xbf02451d	-0.5088671
210	0xbeed8ddf	-0.46397302
211	0xbecc1db7	-0.3986642
212	0xbc2024fb	-0.009774442
213	0x3f296a4d	0.6617783
214	0xbea235b3	-0.31681594
215	0xbee7b9a2	-0.45258814
216	0x3ee9bc6f	0.45651576
217	0xbefb341a	-0.49063188
218	0x3ef260b5	0.47339407
219	0x3f1aee3b	0.6051976
220	0x3f0a8d29	0.54121643
221	0xbe9bb466	-0.3041107
222	0x3f1c003f	0.60937876
223	0xbeb6af1d	-0.35680476
224	0x3f17ffc2	0.5937463
225	0xbeb8338f	-0.35976836
226	0x3f292dcd	0.6608551
227	0xbf08b893	-0.5340664
228	0x3efa310f	0.48865554
229	0x3f1f2e49	0.6218
230	0xbd18dc6b	-0.037319582
231	0x3f102710	0.56309605
232	0x3f1d2f1b	0.614
233	0xbe77eb08	-0.24210751
234	0x3ef6d9c9	0.48213032
235	0x3f0dff2b	0.5546748
236	0x3f165edd	0.587385
237	0xbe98da39	-0.2985399
238	0x3ef49bad	0.4777502
239	0xbef47f1d	-0.4775323
240	0x3f0f4029	0.55957276
241	0x3f090b64	0.53533006
242	0x3f108b54	0.564626
243	0x3ef4db77	0.47823688
244	0x3f022536	0.5083803
245	0x3e974705	0.2954637
246	0xbe2d048f	-0.1689627
247	0x3ebf5aaa	0.3737386
248	0x3f230f78	0.6369548
249	0xbeaa8564	-0.33304894
250	0xbec74602	-0.389206
251	0xbf02a00d	-0.5102547
252	0xbecc6646	-0.39921778
253	0xbe2b074d	-0.16702004
254	0x3f129591	0.5725947
255	0x3f29f8aa	0.66395056

l3.weight f4 [1, 256]
0	0xbfa20007	-1.2656258
1	0x3f5e97de	0.8695048
2	0x3eb96384	0.36208737
3	0xbf749c34	-0.9555085
4	0xbf37859b	-0.7168824
5	0x3f510a5e	0.81656444
6	0x3f3b4fc5	0.73168594
7	0x3f3bc691	0.73349863
8	0x3eb0f5b1	0.34562448
9	0x3ed3118e	0.4122433
10	0x3ec2b16f	0.38025996
11	0xbfe9c1b1	-1.8262235
12	0x3f1fcf03	0.6242525
13	0xbf967c65	-1.1756712
14	0xbfbaf1b7	-1.4605016
15	0x3f7860fc	0.97022986
16	0xbf5d23c7	-0.86382717
17	0x3eec626b	0.46168837
18	0x3f088ed7	0.53342956
19	0x3e87b986	0.2650873
20	0x3ee6c1c1	0.45069697
21	0x3f0cd854	0.5501759
22	0x3e609633	0.21932296
23	0x3e6df206	0.23236856
24	0x3f064e50	0.52463245
25	0xbf357ed7	-0.7089667
26	0xbfc4b31a	-1.5367157
27	0xbfb8505c	-1.4399524
28	0x3f86113e	1.0474012
29	0x3ebce072	0.36889988
30	0xbf4d3bd9	-0.80169445
31	0x3e9af5c2	0.30265623
32	0x3e879811	0.26483205
33	0x3f079e07	0.52975506
34	0xbfdc5a59	-1.7215072
35	0x3e9f5cfc	0.3112563
36	0xbf3d9b79	-0.7406536
37	0x3f174d48	0.59102297
38	0x3f19b4a9	0.6004129
39	0x3f947966	1.1599548
40	0xbf998a5c	-1.1995349
41	0xbf9c3e8d	-1.2206589
42	0xbf81519f	-1.0103034
43	0xbf96b7f8	-1.1774893
44	0x3f03034f	0.51176924
45	0x3e9b17af	0.30291507
46	0xbf434817	-0.76281875
47	0x3f2506b7	0.6446337
48	0x3f06d6d3	0.52671546
49	0xbf908ae1	-1.1292382
50	0x3e8992fe	0.2686996
51	0x3f27ae8d	0.6550072
52	0xbf57b533	-0.84260863
53	0x3e806cf5	0.25083128
54	0xbf5f1cf3	-0.8715355
55	0xbf98dbf1	-1.1942121
56	0x3ea773ee	0.32705635
57	0x3efc0bc0	0.49227715
58	0xbf478490	-0.7793665
59	0x3f851147	1.0395898
60	0xbf4e96cd	-0.80698854
61	0x3e31d164	0.17365032
62	0xbf6fc64a	-0.9366194
63	0x3eba83ee	0.3642878
64	0xbf502154	-0.81300855
65	0x3f8fd4a5	1.1236769
66	0xbf860ea3	-1.0473217
67	0xbf2ff0eb	-0.68726987
68	0xbf646465	-0.8921569
69	0x3eab4069	0.3344758
70	0x3e97d11e	0.2965173
71	0xbf73840d	-0.9512337
72	0x3ec240d6	0.3794009
73	0xbf504149	-0.8134962
74	0x3ea580bc	0.3232478
75	0x3f3274ef	0.69709677
76	0xbf8357db	-1.0261186
77	0xbf832f59	-1.0248824
78	0x3e2dffb7	0.16992079
79	0x3e861cfc	0.26193988
80	0xbfcff8e3	-1.6247829
81	0x3f5d7e02	0.865204
82	0x3f297369	0.66191727
83	0xbf3f82d7	-0.7480902
84	0xbfa7873c	-1.3088145
85	0x3ea56d40	0.32309914
86	0xbf6cf3ca	-0.9255949
87	0x3eff0010	0.49804735
88	0xbf4d4038	-0.80176115
89	0xbf97ee38	-1.1869574
90	0x3f4c891e	0.79896724
91	0xbf86021c	-1.0469394
92	0x3fd13f09	1.6347362
93	0xbfaa4b6b	-1.3304266
94	0xbf77115e	-0.96510875
95	0xbf71853b	-0.9434392
96	0x3f23f586	0.64046514
97	0xbf8b1c33	-1.0867981
98	0xbfa327ce	-1.2746522
99	0x3ec1c500	0.37845612
100	0xbf9e0c6d	-1.2347542
101	0x3f810c02	1.008179
102	0x3ec594a8	0.38589978
103	0xbf4d89cb	-0.8028838
104	0xbff0620b	-1.877992
105	0xbf6952b5	-0.91141826
106	0x3efa251a	0.4885643
107	0xbf683934	-0.90712285
108	0xbf813fbb	-1.0097574
109	0x3ea907fa	0.33013898
110	0xbf5861c0	-0.84524155
111	0xbf53cf02	-0.82737744
112	0xbf90c861	-1.1311151
113	0xbf34bbe1	-0.7059918
114	0xbfa73d12	-1.3065512
115	0x3ecd63ce	0.40115207
116	0x3f2e27fb	0.68029755
117	0x3eec73d3	0.46182117
118	0xbf65d6e1	-0.89781004
119	0x3ec175ca	0.37785178
120	0xbfa19d52	-1.2626135
121	0x3f4cd632	0.80014336
122	0x3ebef180	0.37293625
123	0xbf5037ee	-0.8133534
124	0x3f08e833	0.5347931
125	0x3e5f8114	0.21826583
126	0x3e9d7446	0.30752772
127	0x3f02341c	0.5086076
128	0x3f1d773b	0.61510056
129	0xbf88ce0d	-1.0687882
130	0xbf75ae43	-0.9596903
131	0xbf469b06	-0.77580297
132	0xbf8efb79	-1.1170493
133	0xbf37e303	-0.7183077
134	0x3eb850b6	0.35999078
135	0x3e898dab	0.26865897
136	0xbf669347	-0.9006848
137	0xbf88a3b5	-1.067496
138	0xbf79c722	-0.9756948
139	0x3ea69f3e	0.32543367
140	0x3eb7253d	0.35770598
141	0x3f86ca32	1.0530455
142	0x3ec6660f	0.3874974
143	0x3f3d6f0b	0.73997563
144	0xbf609012	-0.87719834
145	0xbf74ca61	-0.95621306
146	0xbfd1f190	-1.6401844
147	0xbf81cd48	-1.0140772
148	0xbfa10183	-1.2578586
149	0xbf7dc065	-0.99121696
150	0xbf8e319a	-1.1108887
151	0x3eac8100	0.3369217
152	0x3e8d52dd	0.27602282
153	0x3e8fe889	0.28107098
154	0x3e8a136e	0.2696795
155	0x3ea6bd26	0.32566184
156	0xbf5f55c6	-0.87240255
157	0x3f100177	0.56252235
158	0xbf6ca4f7	-0.92439216
159	0xbfa6efd7	-1.3041943
160	0x3f1ff340	0.62480545
161	0xbf7daa70	-0.9908819
162	0x3f226b99	0.6344543
163	0x3e8bff75	0.27343336
164	0x3f03310d	0.5124672
165	0xbf28833c	-0.6582525
166	0xbf2df344	-0.6794932
167	0xbfba30ed	-1.4546181
168	0x3f008f70	0.5021887
169	0xbf99fb36	-1.2029788
170	0xbf9d5f33	-1.2294677
171	0x3e84c212	0.25929314
172	0x3f101446	0.56280935
173	0x3f8af706	1.0856636
174	0x3f4d0db3	0.8009903
175	0xbf6e42e1	-0.930708
176	0x3f86be04	1.0526738
177	0x3eaa30a0	0.33240223
178	0x3ee4169b	0.44548497
179	0x3e813eaf	0.25243136
180	0x3f400c7d	0.75019056
181	0xbf7936b3	-0.9734909
182	0x3e8d435c	0.27590454
183	0xbf40ec68	-0.7536073
184	0x3ec74e97	0.38927147
185	0x3e36ad2f	0.17839502
186	0x3e6de4fe	0.23231885
187	0x3e9b8ddb	0.30381665
188	0xbf296b9f	-0.6617984
189	0xbfe7d166	-1.8110778
190	0x3ee2bbd1	0.44283918
191	0xbf3cd61e	-0.73764217
192	0x3f894657	1.0724591
193	0xbf7266f0	-0.9468832
194	0xbf673c54	-0.9032643
195	0x3f014940	0.50502396
196	0xbf5a7f86	-0.85350835
197	0x3f07a32b	0.5298335
198	0x3e9c3c59	0.30514792
199	0x3f9fd282	1.2486117
200	0xbf3b1b34	-0.73088384
201	0x3f10d790	0.5657892
202	0x3faeb310	1.3648396
203	0xbfa45586	-1.28386
204	0xbf3bdd5c	-0.7338464
205	0xbfc9ea83	-1.5774692
206	0x3e91c2e1	0.28468993
207	0x3f0b402e	0.54394805
208	0x3f34ff78	0.70702314
209	0xbf0d5992	-0.552148
210	0xbfa1b5c3	-1.2633594
211	0xbf88c0c4	-1.0683827
212	0xbd3e712e	-0.046494655
213	0x3ec7e6b1	0.3904319
214	0xbf6b619e	-0.91945827
215	0xbf84c7f4	-1.0373521
216	0x3e56eecc	0.20989531
217	0xbfdaaa10	-1.7083149
218	0x3f28ed33	0.6598694
219	0x3efd0c7f	0.49423596
220	0x3e77c15d	0.24194856
221	0xbf26548f	-0.64972776
222	0x3ebb8a7c	0.36629093
223	0xbfa3a475	-1.2784563
224	0x3ea99dbb	0.3312815
225	0xbf8e33e5	-1.1109587
226	0x3e7090ae	0.23492691
227	0xbf3dab17	-0.7408919
228	0x3eaa050d	0.33206978
229	0x3e733c34	0.23753434
230	0xbb8bacb5	-0.0042625316
231	0x3ed839c2	0.42231566
232	0x3f029eec	0.51023746
233	0xbf965d03	-1.1747135
234	0x3eccb0c9	0.39978626
235	0x3eb478b3	0.35248336
236	0x3eee602c	0.46557748
237	0xbfa24421	-1.2677041
238	0x3eee361e	0.46525663
239	0xbf9c3da4	-1.2206311
240	0x3ea4c3f0	0.32180738
241	0x3f129c55	0.57269794
242	0x3efee648	0.49785066
243	0x3f813546	1.0094383
244	0x3f10df4d	0.5659073
245	0x3f2398eb	0.6390521
246	0xbf837f55	-1.0273234
247	0x3f0aae6e	0.5417241
248	0x3e9d8c87	0.30771276
249	0xbfe012b9	-1.7505714
250	0xbf65e029	-0.89795166
251	0xbfa86118	-1.3154631
252	0xbf659f21	-0.89695936
253	0xbf3ee8b0	-0.745738
254	0x3ea61425	0.32437244
255	0x3f5c92c1	0.8616143

l4.weight f4 [256, 32]
0	0x3e91a863	0.2844878
1	0x3dbc07be	0.09181164
2	0x3e82ad90	0.25523043
3	0xbc7abfa1	-0.015304477
4	0x3b0a38af	0.0021090915
5	0x3c86f1f6	0.016472798
6	0xbe223b6c	-0.1584298
7	0xbe61ab4c	-0.22038001
8	0xbe7d95fd	-0.24764247
9	0xbd8c3474	-0.06845942
10	0xbd10e41c	-0.035373792
11	0xbebe0904	-0.37116253
12	0xbccd1bd9	-0.025037693
13	0xbcb41f88	-0.021987692
14	0x3e5eb1cc	0.21747512
15	0x3d34c4a4	0.044132844
16	0x3e9f5f1a	0.31127244
17	0x3d094f91	0.033523146
18	0xbd40dff7	-0.04708859
19	0xbd67950a	-0.05653862
20	0x3ebd4dd7	0.3697345
21	0x3e111ca0	0.14171076
22	0xbe147187	-0.14496432
23	0xbe91b80d	-0.28460732
24	0xbee88021	-0.45410255
25	0xbeb5cf1d	-0.35509577
26	0xbd0e31ee	-0.034715585
27	0xbdac60d1	-0.08416904
28	0xbddc6ef8	-0.10763353
29	0x3e60693d	0.21915145
30	0x3db1d8d9	0.086839385
31	0xbdebed75	-0.11519901
32	0x3bad337e	0.0052856794
33	0xbdb4daec	-0.088308185
34	0xbce8ebdc	-0.028432779
35	0xbe345a61	-0.17612602
36	0x3d76203b	0.06008933
37	0x3ef9b20b	0.48768649
38	0xbe8dc1b1	-0.27686837
39	0xbccbb8e7	-0.024868442
40	0x3e53e141	0.20691396
41	0xbe4b364a	-0.19844928
42	0x3e846cb8	0.25864196
43	0xbe73a993	-0.23795156
44	0x3f66439b	0.8994691
45	0xbe6467e5	-0.22305258
46	0x3df9ccc3	0.12197258
47	0x3df60533	0.120127104
48	0xbe81c30a	-0.25344115
49	0xbe07a50e	-0.13246557
50	0xbe4098b9	-0.18808259
51	0xbd9dea67	-0.07710724
52	0x3df2a372	0.11847581
53	0xbf069cd4	-0.5258305
54	0xbeea8dd3	-0.45811328
55	0xbe88665d	-0.26640597
56	0x3c3fbd55	0.011702855
57	0xbda1e2c5	-0.07904581
58	0xbe7e2f5c	-0.24822754
59	0x3e8ab328	0.2708981
60	0xbf8d6f0a	-1.1049511
61	0xbf111adb	-0.56681603
62	0xbe8bbe20	-0.2729349
63	0xbe03bafc	-0.12864298
64	0x3e33e28d	0.17566891
65	0x3db73eb6	0.08947508
66	0xbc168bfb	-0.009188647
67	0x3efacbd5	0.48983636
68	0xbc166c10	-0.009181038
69	0x3d7bea8c	0.06150298
70	0xbdcc7e76	-0.09985058
71	0xbdf92b66	-0.12166481
72	0x3eb2d9fd	0.34931937
73	0xbec40ec4	-0.38292515
74	0x3e8d6ae3	0.2762061
75	0xbda0fd48	-0.078608096
76	0x3e42a37c	0.19007677
77	0xbe1adebd	-0.1512403
78	0x3f1a7778	0.60338545
79	0xbda71cb2	-0.0815977
80	0xbe087b18	-0.13328207
81	0x3d15e33c	0.03659366
82	0xbdec51d0	-0.11539042
83	0x3e3c7ac0	0.184062
84	0xbe071e10	-0.13195062
85	0xbec01da9	-0.3752263
86	0xbe93c436	-0.28860635
87	0xbbacc85e	-0.005272909
88	0x3d56791a	0.052361585
89	0x3d72836c	0.059207365
90	0xbe35dc57	-0.17759834
91	0x3eb4249a	0.35184175
92	0xbdbf4142	-0.09338619
93	0xbc0e8519	-0.008698725
94	0xbcf9211e	-0.0304113
95	0x3cd01ea9	0.025405245
96	0xbdc208ca	-0.09474333
97	0xbe0317ca	-0.12802044
98	0x3d3b338a	0.04570345
99	0xbe89d7da	-0.26922494
100	0x3e1c4e89	0.15264334
101	0xbe983fc3	-0.29736146
102	0xbd6560df	-0.056000587
103	0xbe51e7a3	-0.20498519
104	0x3d5fc950	0.054635346
105	0x3edae277	0.42750904
106	0xbe3d74f1	-0.18501641
107	0x3d94f08c	0.07272443
108	0xbebb9995	-0.3664061
109	0x3dd7b104	0.1053181
110	0xbd57990c	-0.05263619
111	0x3c9ba0b8	0.018997535
112	0xbf2c90fe	-0.6740874
113	0x3e1c6e8b	0.15276544
114	0x3e1ad5f7	0.15120684
115	0x3dbdd23f	0.09268617
116	0x3e33b1a5	0.17548235
117	0x3d1b40e9	0.0379037
118	0x3e50ef2a	0.20403734
119	0x3e2e854c	0.17043036
120	0x3e506227	0.20349942
121	0xbe2dc135	-0.16968234
122	0x3eac1a56	0.33613843
123	0xbcf63dd7	-0.030058784
124	0xbe25f785	-0.16207702
125	0xbdfdbd82	-0.12389661
126	0x3dc643ad	0.09680877
127	0x3c5729ee	0.013132555
128	0xbecf4a61	-0.40486434
129	0x3e14ce44	0.14531809
130	0x3daa0b5a	0.083029464
131	0xbe06a343	-0.13148217
132	0x3e199318	0.14997518
133	0xbe2efefd	-0.17089458
134	0xbd08ac36	-0.03336736
135	0x3d8a7c25	0.0676196
136	0x3ea368c8	0.3191588
137	0x3e62a340	0.22132587
138	0xbec3640c	-0.38162267
139	0x3deec661	0.116589315
140	0x3b67a8ee	0.0035348493
141	0x3d9c062f	0.07618367
142	0xbe197006	-0.1498414
143	0x3e847cbe	0.2587642
144	0x3e8a6d9a	0.27036744
145	0x3dac5ebf	0.08416509
146	0x3e53d6c8	0.20687401
147	0xbe8e3656	-0.2777583
148	0x3d3de034	0.046356395
149	0xbe4fd5d1	-0.20296408
150	0xbd0a80a4	-0.033814088
151	0x3dc17425	0.09445981
152	0x3e6652ed	0.22492571
153	0xbe7bd404	-0.24592596
154	0xbed8c376	-0.42336625
155	0xbedbdf47	-0.42943785
156	0x3d9d1472	0.07669915
157	0xbe9d4363	-0.30715474
158	0x3db16062	0.08660962
159	0x3dcfc4fe	0.10144995
160	0x3e39842d	0.18116827
161	0xbcc8d402	-0.024515156
162	0xbda327a1	-0.07966543
163	0xbeb498a2	-0.352727
164	0x3c2310ef	0.009952768
165	0xbe492f18	-0.19646871
166	0x3dc18645	0.09449438
167	0xbee7e98e	-0.45295376
168	0xbf9c2565	-1.2198912
169	0xbdeafa41	-0.114735134
170	0xbe4ed894	-0.20199805
171	0x3b27d900	0.002561152
172	0xbe5d7430	-0.21626353
173	0xbd459e70	-0.0482468
174	0x3f2336be	0.63755405
175	0x3e8548f9	0.26032236
176	0x3e96666d	0.2937502
177	0x3ea20c6c	0.31650102
178	0xbe4ec4a1	-0.20192195
179	0x3eab1aee	0.33418983
180	0x3e8647fd	0.26226798
181	0xbe70fb17	-0.23533283
182	0x3d208cde	0.03919684
183	0xbd0b2f07	-0.033980396
184	0xbdc845be	-0.09778927
185	0x3e2831fa	0.16425315
186	0xbe365be6	-0.17808494
187	0xbdca1137	-0.09866565
188	0x3d5c2719	0.053748224
189	0x3e601a3d	0.21885009
190	0xbe2fdd7a	-0.1717433
191	0x3e7068e8	0.23477519
192	0xbf068d94	-0.5255978
193	0xbdacef1d	-0.08444045
194	0x3eb86ad0	0.3601899
195	0xbd50c657	-0.0509704
196	0xbdca3f98	-0.09875411
197	0x3f01c3e9	0.5068956
198	0xbdaa2cdb	-0.08309337
199	0x3e708f08	0.23492062
200	0x3e4108d5	0.18851025
201	0x3d4a81a2	0.049440034
202	0xbcdc37b9	-0.02688204
203	0xbd90ca62	-0.070698515
204	0x3db0fca3	0.08641937
205	0xbe120e5a	-0.14263287
206	0xbc5eb11c	-0.013592031
207	0xbb3c1fa7	-0.002870539
208	0xbef178d1	-0.47162488
209	0xbe9af94f	-0.30268332
210	0x3f15f808	0.5858159
211	0x3e52e0cd	0.20593567
212	0x3e166cf2	0.14689997
213	0xbd7b1fa8	-0.061309487
214	0x3bf2efb0	0.007413827
215	0xbeedb745	-0.46428886
216	0xbe982aa0	-0.2972002
217	0xbe421caa	-0.18956247
218	0x3e57e952	0.21085098
219	0xbe1d4799	-0.15359344
220	0x3dd11adf	0.102102034
221	0x3e94e750	0.29082727
222	0x3df1755a	0.11789961
223	0x3eb4dd22	0.3532496
224	0xbedbedec	-0.42954957
225	0x3cb2773b	0.02178537
226	0x3d6faa5e	0.058512084
227	0x3dc681a4	0.09692696
228	0x3d5d869b	0.054083448
229	0xbe23e4ed	-0.16005297
230	0xbdb28b2e	-0.08717953
231	0x3dfb3d9f	0.12267613
232	0xbf0a4705	-0.5401462
233	0xbe4e3171	-0.20136048
234	0x3dc9c077	0.09851163
235	0x3e290044	0.16504008
236	0xbef418fe	-0.47675318
237	0x3e1afbe6	0.15135154
238	0x3ebb7797	0.36614677
239	0xbe202efc	-0.15642923
240	0x3d039e0f	0.03213316
241	0xbde2eef7	-0.11080735
242	0xbdfe549f	-0.12418484
243	0x3d0bfd73	0.034177255
244	0x3e72e1d0	0.23718953
245	0xbe8237b9	-0.25433138
246	0xbd57bcf1	-0.052670423
247	0xbd80b365	-0.06284217
248	0x3b91e84a	0.00445274
249	0x3acc0668	0.0015565874
250	0xbe098717	-0.13430439
251	0x3e7dfc3e	0.24803254
252	0xbe780504	-0.24220663
253	0x3e33a090	0.17541718
254	0xbdac76ef	-0.08421122
255	0x3d7525e1	0.059850577

l4.bias f4 [256]
0	0x3ea68d34	0.32529604
1	0xbee9b4ed	-0.45645848
2	0x3e8a02ec	0.26955354
3	0x3eb202fc	0.34767902
4	0xbf0e7f3a	-0.5566288
5	0xbf158cf0	-0.5841818
6	0xbe90bbb3	-0.28268203
7	0xbe29f1fb	-0.16596214
8	0xbe133454	-0.1437543
9	0xbe2a3873	-0.16623096
10	0x3ec0926d	0.37611714
11	0xbeec79cb	-0.4618667
12	0x3e95a2f5	0.2922589
13	0x3e5a1224	0.21295983
14	0xbe5d18e5	-0.21591528
15	0xbe1bd1a8	-0.15216696
16	0xbd4f9192	-0.050675936
17	0xbf3b5e28	-0.73190546
18	0xbdd78e68	-0.10525209
19	0x3e68b80e	0.22726461
20	0xbed5ec86	-0.41782016
21	0xbb975a36	-0.0046189083
22	0xbef97d68	-0.4872849
23	0xbf01662c	-0.50546527
24	0x3c9c37a1	0.019069495
25	0xbdfa8c35	-0.122337736
26	0x3e5ab418	0.21357763
27	0xbf43c547	-0.76472896
28	0xbeba33d4	-0.36367667
29	0xbf25dae4	-0.64787126
30	0x3f0055e1	0.5013104
31	0x3ec2e20c	0.38063085
32	0xbe36c129	-0.17847122
33	0xbddd1f76	-0.10797016
34	0xbeaf10da	-0.34192544
35	0x3e499a7b	0.19687836
36	0xbec4ed73	-0.3846241
37	0xbf224ee3	-0.6340162
38	0x3e5cf653	0.2157834
39	0xbec4b85b	-0.38421902
40	0xbe3de417	-0.1854404
41	0x3ed62d20	0.41831303
42	0x3be7461a	0.0070579173
43	0x3e8bce0c	0.2730564
44	0x3dbe5ffc	0.09295651
45	0xbd6dec06	-0.058086418
46	0x3c8f9d95	0.017531196
47	0xbf282de0	-0.65695
48	0x3ebf2399	0.37331846
49	0xbcf722f7	-0.03016804
50	0xbc31849c	-0.010834839
51	0xbed5f9d0	-0.41792154
52	0xbf10fb0b	-0.5663306
53	0xbee22de6	-0.44175643
54	0xbed33fcf	-0.4125962
55	0x3ca51933	0.020153617
56	0x3e260793	0.16213827
57	0xbf103a9b	-0.56339425
58	0x3e5b806a	0.21435705
59	0x3e8a05ee	0.2695765
60	0x3e06e249	0.13172258
61	0x3e8436d0	0.2582307
62	0x3eec072d	0.46099225
63	0xbf2b70cf	-0.6696901
64	0xbf033a09	-0.5126043
65	0x3f0f0b62	0.55876744
66	0xbe680e6a	-0.22661749
67	0xbf2ac8a0	-0.6671238
68	0xbf896f36	-1.0737064
69	0xbdfc2151	-0.12311042
70	0x3e0368d3	0.12832956
71	0x3edb5245	0.42836204
72	0x3e57a212	0.21057919
73	0xbebc0047	-0.36718962
74	0xbce964dc	-0.028490476
75	0xbe5dfa6a	-0.21677557
76	0xbe94a176	-0.29029435
77	0x3d7bb042	0.06144739
78	0x3e7653ed	0.24055453
79	0x3ee9448f	0.4556012
80	0xbef35805	-0.4752809
81	0xbe874069	-0.2641633
82	0xbda8d873	-0.082444094
83	0xbe3019f3	-0.17197399
84	0xbe9c4303	-0.30519876
85	0xbef5aede	-0.47984976
86	0x3efa85f9	0.48930338
87	0x3e856a58	0.26057696
88	0x3e2dfd62	0.16991189
89	0x3e284a58	0.1643461
90	0xbf30379a	-0.6883484
91	0x3dd9571c	0.10612318
92	0xbf57e036	-0.84326494
93	0xbf4b52ce	-0.79423225
94	0x3e9e31a9	0.30897263
95	0x3e4e3b0d	0.20139714
96	0x3ead8173	0.33887824
97	0xbf291b4e	-0.6605729
98	0xbec2c1cf	-0.3803849
99	0x3e67d9d1	0.22641684
100	0xbe4bc3ad	-0.19898863
101	0xbe54c49e	-0.20778129
102	0xbe9ffe23	-0.31248578
103	0x3dfb75c3	0.12278321
104	0xbe8ef762	-0.27923113
105	0xbf40ed15	-0.7536176
106	0x3e006380	0.12537956
107	0xbee4c054	-0.44677985
108	0x3d972e6e	0.07381903
109	0x3d0028eb	0.031289022
110	0xbdce9d89	-0.10088641
111	0xbf2a306d	-0.6648014
112	0xbf7c74c6	-0.9861568
113	0x3e9ffbc7	0.31246778
114	0xbf16fd6e	-0.58980453
115	0xbed15866	-0.40887755
116	0xbef867c6	-0.48516673
117	0xbf1d3866	-0.6141418
118	0xbee5dc12	-0.44894463
119	0x3e8c6cda	0.27426797
120	0xbe5822af	-0.2110698
121	0xbe7919c3	-0.24326234
122	0xbe7c2721	-0.24624301
123	0xbec32997	-0.38117668
124	0xbe11665f	-0.14199208
125	0xbe7c3676	-0.2463015
126	0x3e87577a	0.26433927
127	0x3da48af8	0.08034319
128	0x3e9cc6ed	0.30620518
129	0xbf4226e8	-0.75840616
130	0x3e84c309	0.2593005
131	0xbefb6689	-0.49101666
132	0xbdfd5381	-0.12369443
133	0x3e08be96	0.13353953
134	0x3f078c82	0.5294877
135	0xbed566e2	-0.41680056
136	0x3ec34c88	0.38144326
137	0x3ec225de	0.37919515
138	0x3dc8e122	0.09808566
139	0x3ed56977	0.41682026
140	0xbec0d65e	-0.3766355
141	0x3d75e0ba	0.06002877
142	0x3eb1c04b	0.3471702
143	0x3e1c8c98	0.15288007
144	0x3ec63a49	0.38716343
145	0xbc917f47	-0.017760886
146	0x3e6ccef2	0.23125818
147	0x3e976710	0.29570818
148	0xbf077901	-0.5291901
149	0xbecaed3f	-0.3963413
150	0x3cae876f	0.021304814
151	0xbe156383	-0.14588742
152	0xbf4ebd68	-0.8075776
153	0xbe55c861	-0.2087722
154	0x3e9a7a75	0.30171552
155	0x3e725db6	0.2366856
156	0xbf0b07cc	-0.5430877
157	0xbe91640b	-0.2839664
158	0xbef9332b	-0.4867185
159	0xbcc846f0	-0.024447888
160	0x3d04e909	0.032448802
161	0xbe6b2f18	-0.22967184
162	0xbe61f1bc	-0.2206487
163	0xbf0aadbd	-0.54171354
164	0xbcb7711c	-0.022392802
165	0x3e8427c0	0.25811577
166	0x3e3d46ab	0.18483989
167	0x3e1c5011	0.15264918
168	0xbe07b139	-0.13251199
169	0xbe4df01d	-0.20111127
170	0xbf39426e	-0.7236699
171	0xbf48deea	-0.7846514
172	0xbef64dd9	-0.48106268
173	0xbdee3e44	-0.1163297
174	0xbf00343e	-0.50079715
175	0x3ee0b300	0.43886566
176	0xbdb1e4f6	-0.08686249
177	0x3efac4ca	0.48978263
178	0xbf02ddb8	-0.51119566
179	0x3ee903a5	0.45510593
180	0xbe021854	-0.12704593
181	0xbf35089f	-0.7071628
182	0xbc7d3029	-0.015453377
183	0x3e797ce9	0.24364056
184	0x3e2336b8	0.15938842
185	0xbe5a08da	-0.21292439
186	0xbe853d8d	-0.26023522
187	0xbf09562f	-0.5364713
188	0x3e31eac4	0.17374712
189	0x3e1a37c3	0.15060334
190	0x3e9eb588	0.30997872
191	0xbe105cbd	-0.14097877
192	0xbf1d3060	-0.6140194
193	0xbf066b9d	-0.52507955
194	0xbc383d51	-0.011245088
195	0x3e463bc6	0.1935874
196	0xbed22c95	-0.41049638
197	0x3cc5bbb9	0.024137365
198	0xbf16e95a	-0.58949816
199	0xbed1ca91	-0.40974858
200	0xbdbd5a7d	-0.09245775
201	0xbd2421d1	-0.040071312
202	0x3e3fc02c	0.18725652
203	0x3ebb4243	0.3657399
204	0xbf562c10	-0.83660984
205	0xbf4451d4	-0.7668736
206	0xbd52a200	-0.051424026
207	0x3ee1983c	0.44061458
208	0x3e61f0b3	0.22064476
209	0x3d67e296	0.056612574
210	0x3ea65c8f	0.32492492
211	0xbea7bf02	-0.32762915
212	0xbf0e8b1e	-0.55681026
213	0xbe811f98	-0.25219417
214	0xbdcb900c	-0.09939584
215	0xbe475303	-0.1946526
216	0xbe490c9e	-0.1963372
217	0x3e5a4741	0.21316244
218	0x3d8a089a	0.06739922
219	0xbf24775a	-0.64244616
220	0xbf4e9dcf	-0.80709547
221	0xbf218379	-0.63091236
222	0xbe19d4b4	-0.15022546
223	0xbe771d27	-0.24132214
224	0x3e5fe810	0.21865869
225	0xbe490b2e	-0.19633171
226	0xbeefbbf4	-0.46823084
227	0xbe935d39	-0.2878206
228	0xbed7b692	-0.42131478
229	0x3ea17de4	0.3154136
230	0xbf833893	-1.025164
231	0x3e23039a	0.15919343
232	0x3ebe5726	0.37175864
233	0x3dfeb706	0.12437253
234	0x3db7ddc9	0.08977849
235	0x3e62bbca	0.22141948
236	0x3ea57c2c	0.32321298
237	0xbe5b3fad	-0.21411009
238	0xbebc81eb	-0.3681787
239	0xbf6b6a74	-0.9195931
240	0x3e87e3a2	0.26540858
241	0xbe266dea	-0.16252866
242	0xbebfdbc2	-0.3747235
243	0xbdfc5fd3	-0.123229645
244	0xbf116ada	-0.5680367
245	0xbef4281c	-0.4768685
246	0x3ebc772f	0.3680968
247	0xbe99f841	-0.30072215
248	0xbf0ca2e7	-0.5493607
249	0xbe7400e1	-0.2382846
250	0x3e571d94	0.21007377
251	0x3da608f1	0.08107174
252	0xbe693c3f	-0.22776888
253	0xbf388226	-0.7207359
254	0x3e876154	0.26441443
255	0xbe0b5c3b	-0.13609402
