Project/upload/Part1_ppo_q2/HalfCheetahBulletEnv-v0_PPO_1_1638448401_ppo.pth (torch, 35262 bytes, 12 tensors)

actor_logstd f4 [6]
-0.8695233 -1.1800829 -0.53224665 -0.8921706 -1.2370931 -0.9958378
00000000: 1499 5ebf f50c 97bf 5141 08bf 4b65 64bf
00000010: 1159 9ebf 3aef 7ebf

critic.0.weight f4 [64, 26]
-0.29791763 0.10657951 0.03348247 0.28987682 -0.11922847 0.05184318 0.26711613 0.38228068
0.009890174 -0.13296703 0.017670743 0.014101245 -0.1204268 0.005340901 0.26641026 -0.13433754
0.28223583 -0.045289427 -0.21177448 0.31770262 0.20752604 0.07944812 0.44322696 0.09229064
-0.021184836 -0.0069004227 -0.13210928 0.33753726 0.20094188 -0.04630952 0.0633959 -0.2616461
-0.2567238 0.14120622 0.16633724 -0.22318725 0.1066985 -0.10775565 -0.19483164 -0.08198195
-0.19925176 -0.31458715 -0.046397448 -0.32921958 0.06666747 -0.05701132 0.13001636 -0.06769714
0.2884467 -0.015712135 0.038070098 -0.07988555 -0.06816985 -0.15816845 -0.031307604 0.07610795
-0.20616071 0.17050461 0.26873085 -0.25763533 -0.32550895 -0.16107047 -0.13825987 -0.053004198
-0.09174936 -0.14458485 0.09923394 0.048374817 0.18041354 -0.028638937 -0.44828108 -0.012858721
-0.12362787 -0.37355453 -0.04600621 -0.1583094 0.21710716 -0.09603194 0.1598592 -0.19944575
-0.06608709 -0.23470981 0.16593908 -0.1142154 -0.013427739 0.0027023987 0.18433174 0.15963832
0.03415225 -0.097091034 -0.040140186 -0.15844204 0.3684792 0.14840584 0.1886779 -0.04663045
-0.1944482 0.08995779 0.09298851 -0.0048056873 -0.36094543 0.09601939 -0.020870723 0.12566453
0.044711087 -0.10255595 0.016676048 0.13002717 -0.46229357 -0.046803497 0.22882263 0.5092702
0.16813804 0.21366496 0.37646648 0.1381842 0.03837407 0.10617712 0.21207546 0.041824408
0.29322213 -0.12879819 0.13370778 0.10253764 -0.036738917 -0.1446053 0.14346959 0.036881194
-0.3875188 -0.45018688 -0.5998977 0.11700858 0.17376044 0.069182746 -0.047936857 -0.058534883
-0.12863831 0.23069203 -0.049088053 0.1297813 -0.25731134 0.08045782 0.025273977 -0.016401248
-0.11849605 -0.03162037 0.1981625 -0.2492076 0.19423519 -0.20258914 0.13223846 0.032919094
0.19577312 -0.027989829 -0.058474496 -0.08185679 0.36337903 -0.1475997 0.037422914 0.076094046
-0.012663394 0.1714512 0.1424176 0.07838547 -0.10804691 0.041708563 0.019291395 0.2311865
0.15631106 0.08279309 -0.22521375 -0.1118751 -0.20415606 -0.34392667 -0.37807122 -0.18642966
-0.010163764 0.0853213 -0.096940584 0.10722406 -0.025254657 0.21563886 0.2227085 -0.26680556
-0.11590585 -0.20976032 0.0062685106 -0.12272826 0.070850365 -0.24004214 0.07006486 -0.08756266
-0.0005277395 -0.10034755 0.10684534 -0.10148581 -0.02204051 0.11369771 0.051274873 0.24247986
0.087770276 0.04852105 -0.002986592 0.075313285 -0.021018066 -0.11467569 0.033107016 -0.16966672
-0.0152510265 -0.20837873 -0.1731595 -0.055714276 0.1281234 -0.048163317 0.032153755 -0.47267756
0.26408494 0.12191145 0.13294075 0.042453412 -0.089053564 0.026310153 -0.4977982 0.031305786
-0.44865337 -0.10506142 -0.06961897 -0.111243136 -0.036718097 -0.21814099 -0.23252626 0.023571366
0.021766128 0.005754895 0.06370626 0.14375381 -0.1503704 0.08929322 -0.27006024 -0.36336824
0.039593276 0.24903095 -0.059037462 -0.00168658 0.0086492635 -0.29926217 -0.11612627 -0.0036165093
-0.3632132 -0.17978372 -0.08492658 0.14748684 -0.057843562 0.107733324 0.0048230137 -0.17580271
00000000: a988 98be 5c46 da3d ea24 093d bc6a 943e
00000010: 0e2e f4bd 8459 543d 72c3 883e 4bba c33e
00000020: 650a 223c 8228 08be 3cc2 903c e908 673c
00000030: 53a2 f6bd ba02 af3b ed66 883e c88f 09be
00000040: 3781 903e 6881 39bd 69db 58be eba9 a23e
00000050: b581 543e b2b5 a23d a5ee e23e e002 bd3d
00000060: d28b adbc f11c e2bb a847 07be afd1 ac3e
00000070: b5c3 4d3e 0daf 3dbd b6d5 813d 7af6 85be
00000080: 4d71 83be 5d98 103e 4f54 2a3e 338b 64be
00000090: be84 da3d ffae dcbd f281 47be 27e6 a7bd
000000a0: a708 4cbe 9111 a1be 400b 3ebd 788f a8be
000000b0: f488 883d b484 69bd 0223 053e cca4 8abd
000000c0: 49af 933e bcb6 80bc 64ef 1b3d 099b a3bd
000000d0: a29c 8bbd e9f6 21be 673c 00bd 7cde 9b3d
000000e0: cb1b 53be c398 2e3e 1797 893e c7e8 83be
000000f0: 1ca9 a6be a8ef 24be ff93 0dbe ee1a 59bd
00000100: 17e7 bbbd 0d0e 14be 2a3b cb3d ac24 463d
00000110: 54be 383e 349c eabc 1985 e5be 63ad 52bc
00000120: 9c30 fdbd 8a42 bfbe 0271 3cbd dc1b 22be
00000130: 5751 5e3e 65ac c4bd 21b2 233e 823b 4cbe
00000140: ab58 87bd c557 70be efeb 293e c3e9 e9bd
00000150: 0500 5cbc ba1a 313b 76c1 3c3e 3a78 233e
00000160: 3be3 0b3d aad7 c6bd 096a 24bd a13e 22be
00000170: 4ea9 bc3e b3f7 173e c834 413e 92ff 3ebd
00000180: 6e1d 47be ca3b b83d c370 be3d 0779 9dbb
00000190: d7cd b8be d0a5 c43d 14f9 aabc 34ae 003e
000001a0: f922 373d db08 d2bd 359c 883c d825 053e
000001b0: beb1 ecbe 06b5 3fbd 7b50 6a3e 885f 023f
000001c0: 612c 2c3e fdca 5a3e 37c0 c03e 2980 0d3e
000001d0: 212e 1d3d 6473 d93d 4f2a 593e 1250 2b3d
000001e0: 3621 963e ace3 03be b1ea 083e 41ff d13d
000001f0: 8c7b 16bd 6913 14be b1e9 123e bc10 173d
00000200: dd68 c6be e57e e6be e592 19bf 32a2 ef3d
00000210: 42ee 313e afaf 8d3d 7059 44bd 46c2 6fbd
00000220: c3b9 03be 883a 6c3e 8e10 49bd 64e5 043e
00000230: 50be 83be 12c7 a43d 5f0b cf3c e95b 86bc
00000240: 0fae f2bd 5c84 01bd 1ceb 4a3e 4730 7fbe
00000250: 97e5 463e 8773 4fbe 8569 073e 2cd6 063d
00000260: c078 483e ed4a e5bc f482 6fbd 88a4 a7bd
00000270: d10c ba3e 6024 17be c548 193d 32d7 9b3d
00000280: 207a 4fbc e790 2f3e ebd5 113e 9088 a03d
00000290: b347 ddbd 99d6 2a3d fd08 9e3c 27bc 6c3e
000002a0: 0210 203e 6c8f a93d 6f9e 66be c61e e5bd
000002b0: 490e 51be 2817 b0be 8d92 c1be 6be7 3ebe
000002c0: ea85 26bc efbc ae3d c988 c6bd 4a98 db3d
000002d0: dbe2 cebc 6fd0 5c3e b20d 643e bd9a 88be
000002e0: 0c60 edbd 69cb 56be 1468 cd3b f458 fbbd
000002f0: ff19 913d 9bcd 75be 2a7e 8f3d 0d54 b3bd
00000300: 0058 0aba 0483 cdbd bbd1 da3d cbd7 cfbd
00000310: 4d8e b4bc 58da e83d 9a05 523d a44c 783e
00000320: e7c0 b33d 02be 463d b3ba 43bb da3d 9a3d
00000330: 142e acbc 17db eabd 399b 073d 1dbd 2dbe
00000340: 71df 79bc 3c61 55be b950 31be a734 64bd
00000350: c832 033e e646 45bd a8b3 033d cb02 f2be
00000360: 2436 873e b6ac f93d 9f21 083e a1e3 2d3d
00000370: b761 b6bd 6488 d73c 68df febe 7f3a 003d
00000380: e5b5 e5be 712a d7bd 6494 8ebd 71d3 e3bd
00000390: b765 16bd 5a60 5fbe 5d1b 6ebe bd18 c13c
000003a0: e14e b23c 8f93 bc3b 6d78 823d 3334 133e
000003b0: b3fa 19be 5ddf b63d 5645 8abe 670b babe
000003c0: 8f2c 223d f801 7f3e 44d1 71bd 3c10 ddba
000003d0: a4b5 0d3c e438 99be 9cd3 edbd f502 6dbb
000003e0: 15f7 b9be 3919 38be fded adbd ca06 173e
000003f0: 5fed 6cbd 4aa3 dc3d 5f0a 9e3b a005 34be

critic.0.bias f4 [64]
-0.44494393 -0.21344338 -0.20416473 0.0121153975 0.37355438 -0.4893181 0.08105708 -0.5510521
0.2628769 0.75402147 0.2650281 0.6006228 -0.08473819 -0.43098843 0.44295597 9.548549e-05
-0.11092887 0.17229919 -0.027732711 -0.28493825 0.5466678 -0.35668144 -0.69438916 0.5160974
0.29277864 0.23988071 0.39216292 0.44962755 0.08683127 -0.62326115 0.27900586 -0.41671386
-0.37777805 0.012167024 0.19237688 -0.1052103 0.71154654 0.45146507 -0.623935 -0.38521627
0.04820276 -0.468198 -0.27310628 0.5327922 0.5728872 -0.5514335 0.014941186 0.486201
-0.71387845 -0.25527188 -0.30561242 -0.03458331 -0.293558 0.16841176 -0.3900379 -0.765447
-0.22375412 -0.40724483 0.26036164 -0.030647982 -0.63772047 0.16203764 0.36027265 0.22323439
00000000: b1cf e3be e790 5abe 8f10 51be a97f 463c
00000010: 8542 bf3e e787 fabe 4101 a63d c011 0dbf
00000020: cd97 863e 8d07 413f c3b1 873e 6ac2 193f
00000030: 378b adbd 84aa dcbe 20cb e23e 623f c838
00000040: ad2e e3bd 336f 303e b62f e3bc 6de3 91be
00000050: 6cf2 0b3f f39e b6be 7dc3 31bf f61e 043f
00000060: 15e7 953e 4aa3 753e 94c9 c83e 9535 e63e
00000070: 98d4 b13d 0b8e 1fbf dbd9 8e3e 855b d5be
00000080: 206c c1be 3358 473c 72fe 443e 7f78 d7bd
00000090: ea27 363f 6e26 e73e 34ba 1fbf 113b c5be
000000a0: 4270 453d a6b7 efbe 96d4 8bbe 1265 083f
000000b0: bca8 123f bf2a 0dbf e0cb 743c 56ef f83e
000000c0: bdc0 36bf ffb2 82be 3b79 9cbe 3ba7 0dbd
000000d0: 3c4d 96be 2274 2c3e 0cb3 c7be 56f4 43bf
000000e0: cd1f 65be 6582 d0be 1f4e 853e 7a11 fbbc
000000f0: a641 23bf 32ed 253e a875 b83e 8e97 643e

critic.2.weight f4 [32, 64]
-0.070458315 0.4182299 0.07107577 -0.13023902 -0.10918145 -0.416474 -0.3161829 0.09179325
-0.015776837 0.15980652 0.41191897 -0.0046135383 -0.13864422 -0.04666343 -0.25594294 0.16113463
0.12212171 0.18743773 -0.24170701 -0.12594189 0.3978592 0.042736307 0.10989642 -0.21057278
0.18411416 -0.25476816 -0.18107836 -0.25601125 0.11074794 -0.11332729 -0.090329744 0.16291831
0.16682546 -0.03846803 -0.0296862 0.00811007 -0.18411273 -0.015202401 0.08879046 -0.17050609
0.23057032 -0.4060166 0.058314104 0.15131538 0.05292222 0.09768512 -0.07442202 0.045507815
-0.2577773 -0.01313525 -0.003045385 -0.035578847 -0.27230164 -0.0406886 -0.18267845 -0.11215812
0.7562334 -0.42589045 -0.013434941 0.2066809 -0.01885437 -0.68755394 -0.207244 0.24020982
-0.062486388 -0.1563853 0.046737332 -0.15092057 0.21194823 -0.21090141 -0.32494232 0.10486644
-0.029170634 0.06457475 -0.17708121 0.14122935 -0.033620812 0.14618981 0.2567786 0.2845947
0.021812737 -0.09865059 0.19333535 0.17906192 0.44442418 0.30014467 0.045185152 0.008698819
-0.08474151 -0.2531258 -0.048633438 -0.20444734 -0.050398257 -0.23015587 -0.09083934 0.12776032
0.14687327 -0.19906726 0.436918 0.17835699 0.26373753 0.09577731 0.15025486 0.15211283
-0.10152512 0.12704308 0.009710114 0.42768192 -0.17582358 0.025062548 0.08532419 0.07230006
-0.009207652 0.2542914 -0.14386371 0.03528863 -0.06691289 0.28902924 -0.039632875 -0.31244957
-0.23929527 0.11765732 -0.19755588 -0.05974325 -0.35379386 0.5670938 -0.36863783 -0.2625641
0.03370562 0.14466907 0.22647159 0.13811024 0.17687671 0.23571864 0.057489857 -0.015108446
-0.16239722 -0.1723372 0.14044942 -0.04995576 -0.0019309383 -0.1542886 -0.24979436 0.18911846
0.018364532 0.30685413 -0.093743876 0.055862933 0.029684411 -0.06377034 0.16048 -0.11726553
-0.06840333 0.190375 -0.23395097 -0.2561719 0.27133676 0.08874975 -0.40385118 0.24764869
0.5598644 0.009574654 0.2916443 0.32753518 0.07426813 0.4298879 0.020460198 0.3665153
0.3118134 -0.25371924 0.055959873 0.0041036117 -0.1074778 0.29102668 0.07091749 0.079426356
0.23119417 0.5105749 -0.10394249 0.1940551 -0.26196632 0.38615537 -0.09093412 0.31243628
0.052462652 0.41923615 0.024582736 0.32758588 -0.06466469 -0.1874034 0.068692215 -0.25456527
-0.2880666 0.23859656 0.31651688 -0.13721396 0.17246868 0.11179675 0.0016256873 -0.1250199
-0.03539666 0.19187374 0.15307447 0.49958465 0.3096903 -0.28324747 0.16437893 0.26304284
-0.2521544 0.05827906 0.12080698 0.3006241 0.35040677 0.09373419 -0.18110563 0.07655501
-0.18837234 0.39711723 -0.0005557536 -0.1901184 0.07978472 0.19600655 -0.16245404 -0.20766456
-0.17812844 0.11146673 0.07590032 0.1190428 0.33370173 0.1985774 -0.10546469 -0.16962013
0.19979174 -0.2674846 0.20651735 0.2445015 -0.017113796 0.0814899 0.31255168 -0.06414771
-0.26431456 -0.17010704 -0.14355265 -0.20488648 -0.14260219 -0.011578067 -0.3334946 0.2130231
-0.17392632 0.030319372 -0.053214073 0.014499059 -0.21307006 -0.16390698 -0.17179272 0.15908945
00000000: 734c 90bd 3b22 d63e 2c90 913d 615d 05be
00000010: 869a dfbd 153c d5be bae2 a1be 19fe bb3d
00000020: 6d3e 81bc 52a4 233e 0be7 d23e 2a2d 97bb
00000030: c0f8 0dbe 2722 3fbd f40a 83be 7a00 253e
00000040: f21a fa3d adef 3f3e 0b82 77be e9f6 00be
00000050: 33b4 cb3e 440c 2f3d 6011 e13d 64a0 57be
00000060: 6c88 3c3e f970 82be 9b6c 39be e813 83be
00000070: d1cf e23d 2318 e8bd cdfe b8bd 0fd4 263e
00000080: 4bd4 2a3e a790 1dbd 7930 f3bc 19e0 043c
00000090: 0c88 3cbe 7e13 79bc c6d7 b53d 2699 2ebe
000000a0: a01a 6c3e 68e1 cfbe c5da 6e3d 6bf2 1a3e
000000b0: f8c4 583d 230f c83d 926a 98bd 6766 3a3d
000000c0: 63fb 83be 3b35 57bc 1595 47bb 20bb 11bd
000000d0: 1f6b 8bbe 17a9 26bd 0f10 3bbe 28b3 e5bd
000000e0: 8398 413f 500e dabe 3a1e 5cbc 28a4 533e
000000f0: 7b74 9abc 8903 30bf c537 54be 90f9 753e
00000100: baf1 7fbd 7823 20be a56f 3f3d ec8a 1abe
00000110: f508 593e 8af6 57be d75e a6be 37c4 d63d
00000120: 41f7 eebc c43f 843d c754 35be 6d9e 103e
00000130: fab5 09bd c8b2 153e 7c78 833e 66b6 913e
00000140: a0b0 b23c 5209 cabd b4f9 453e 025c 373e
00000150: 918b e33e 90ac 993e 1114 393d 7e85 0e3c
00000160: f58c adbd b499 81be db33 47bd a55a 51be
00000170: 676e 4ebd fbad 6bbe fa09 babd 9ad3 023e
00000180: f265 163e 4ad8 4bbe b7b3 df3e 37a3 363e
00000190: 9b08 873e e526 c43d 69dc 193e 77c3 1b3e
000001a0: 67ec cfbd 9517 023e 2c17 1f3c 20f9 da3e
000001b0: 190b 34be f94f cd3c 73be ae3d 0e12 943d
000001c0: b1db 16bc 7b32 823e 0251 13be cf8a 103d
000001d0: a009 89bd a4fb 933e 1556 22bd 64f9 9fbe
000001e0: d209 75be 52f6 f03d 174c 4abe 57b5 74bd
000001f0: 7824 b5be 0f2d 113f 19be bcbe cd6e 86be
00000200: e70e 0a3d 2124 143e 2be8 673e c56c 0d3e
00000210: 2b1f 353e 3a60 713e 7c7a 6b3d 6a89 77bc
00000220: 754b 26be 2a79 30be f9d1 0f3e 699e 4cbd
00000230: 8a17 fdba d5fd 1dbe 18ca 7fbe 45a8 413e
00000240: 3771 963c fc1b 9d3e cafc bfbd 88d0 643d
00000250: b92c f33c 069a 82bd de54 243e e928 f0bd
00000260: 0c17 8cbd aaf1 423e d890 6fbe f728 83be
00000270: a7ec 8a3e 6ec2 b53d 95c5 cebe 9e97 7d3e
00000280: 4653 0f3f 02df 1c3c 6752 953e b1b2 a73e
00000290: e419 983d 441a dc3e 259c a73c e5a7 bb3e
000002a0: 02a6 9f3e 7de7 81be 2e36 653d 9777 863b
000002b0: 521d dcbd 7301 953e 303d 913d 49aa a23d
000002c0: 2abe 6c3e 09b5 023f cddf d4bd 61b6 463e
000002d0: 7320 86be 28b6 c53e ab3b babd a6f7 9f3e
000002e0: 14e3 563d 1fa6 d63e bc61 c93c 56b9 a73e
000002f0: ec6e 84bd ade6 3fbe 81ae 8c3d 6156 82be
00000300: 777d 93be a852 743e 800e a23e d181 0cbe
00000310: a19b 303e b2f5 e43d 0415 d53a 3705 00be
00000320: 17fc 10bd 8d7a 443e 8ebf 1c3e 8fc9 ff3e
00000330: ba8f 9e3e d005 91be f352 283e 8dad 863e
00000340: 621a 81be 06b6 6e3d a669 f73d 67eb 993e
00000350: 8468 b33e b6f7 bf3d c173 39be e0c8 9c3d
00000360: aee4 40be f352 cb3e feaf 11ba 66ae 42be
00000370: 2c66 a33d f1b5 483e 5a5a 26be 05a6 54be
00000380: 4d67 36be ab48 e43d a171 9b3d b6cc f33d
00000390: f4da aa3e e057 4b3e dffd d7bd e6b0 2dbe
000003a0: 3596 4c3e bef3 88be 4979 533e 9a5e 7a3e
000003b0: 3b32 8cbc 2de4 a63d c606 a03e e05f 83bd
000003c0: 3d54 87be 8a30 2ebe 77ff 12be c3cd 51be
000003d0: 4f06 12be efb1 3dbc cebf aabe ba22 5a3e
000003e0: be19 32be 5560 f83c 00f7 59bd 768d 6d3c
000003f0: 0a2f 5abe 3bd7 27be 6eea 2fbe 58e8 223e

critic.2.bias f4 [32]
0.038623337 0.047055297 -0.10953152 0.2899775 -0.57778645 -0.30853507 0.1637591 -0.0328339
0.22604842 0.38567418 0.46484658 -0.1459099 -0.40940964 -0.45342126 0.07586913 -0.33223072
-0.46601003 -0.060513448 0.19724539 0.39416176 0.24438643 0.06317757 -0.08693827 -0.0658507
-0.0025872681 0.01431345 0.079699986 0.17935887 0.086445495 0.34078208 -0.009312057 0.02547413
00000000: 8133 1e3d 0ebd 403d 1052 e0bd ee77 943e
00000010: d0e9 13bf 4ff8 9dbe 77b0 273e d77c 06bd
00000020: 3d79 673e 1677 c53e 5f00 ee3e 6869 15be
00000030: 249e d1be d526 e8be 4661 9b3d 251a aabe
00000040: de98 eebe f3dc 77bd b2fa 493e 92cf c93e
00000050: 7040 7a3e 3e63 813d b10c b2bd bbdc 86bd
00000060: 288f 29bb f682 6a3c bf39 a33d daa9 373e
00000070: 560a b13d fd7a ae3e 9991 18bc 1faf d03c

critic.4.weight f4 [1, 32]
-0.032146197 -0.031542536 -0.06971812 0.106960505 -0.25299895 -0.051007446 0.070069104 0.036006417
0.0700773 0.1319888 0.24637231 0.03993095 -0.22474892 -0.1030271 -0.039549686 -0.14678118
-0.16909248 -0.037151296 0.050877858 0.1251563 0.065981954 0.03655999 0.032180533 0.0380506
-0.02037084 0.019281145 -0.017119253 0.05171492 -0.04150331 0.2893396 0.0060211658 0.0150731355
00000000: bbab 03bd bf32 01bd 60c8 8ebd 1c0e db3d
00000010: 1489 81be 2fed 50bd 6480 8f3d 777b 133d
00000020: b084 8f3d 1228 073e 0649 7c3e a38e 233d
00000030: 9524 66be dfff d2bd dafe 21bd ce4d 16be
00000040: 9426 2dbe f52b 18bd 4d65 503d f928 003e
00000050: 8c21 873d eebf 153d bccf 033d f2da 1b3d
00000060: bfe0 a6bc 7ef3 9d3c ad3d 8cbc 06d3 533d
00000070: 60ff 29bd 5224 943e 334d c53b 50f5 763c

actor_mean.0.weight f4 [64, 26]
0.014226174 0.036561433 0.3086592 -0.1266315 -0.059233755 -0.077609345 -0.24004394 -0.17888857
0.3143389 -0.059117373 0.3152516 0.16376862 0.21824335 -0.28589317 0.15437555 -0.25058976
-0.08779453 0.3349734 -0.3384438 -0.3237415 0.22718976 -0.02925261 0.08577592 0.29454848
0.30566332 -0.044043485 -0.24210092 -0.19715747 -0.063157 0.25226316 0.20864084 0.117444806
0.28663248 -0.35041344 -0.00046989816 -0.14830688 -0.12787077 0.32247603 -0.31871125 -0.1500835
0.124594234 -0.070201986 0.10608759 -0.17604633 0.015730996 0.13540642 -0.19090943 -0.06442914
0.041963127 -0.06877255 0.08218575 0.3554796 0.097860955 0.06569751 -0.15808506 0.0074530975
0.07715986 0.14137673 -0.115368664 0.05352722 0.06052903 -0.067961805 0.17841372 0.07222126
-0.08039564 -0.07379162 -0.45559794 0.34585637 -0.03351377 -0.3133272 0.15075728 -0.043162957
-0.19269857 -0.15918009 0.19623017 0.2385455 0.24286303 -0.07933013 0.26792258 -0.12321605
0.07583633 -0.06951482 0.04872878 0.17752649 0.21605451 -0.10615256 -0.1096402 0.05307601
-0.3389764 0.31153533 -0.054293178 0.2679005 0.1485193 0.25082046 0.35851464 -0.09423222
0.014323593 0.094808474 0.15389791 0.0029459815 0.12833945 0.18025765 0.0033430124 -0.03888879
0.065102056 -0.00038137243 0.2207429 0.035162523 0.019278202 0.1645588 0.19559376 -0.074642465
0.13971849 0.15591379 -0.102947436 -0.12111184 0.014838974 -0.16161552 0.031596035 -0.047025647
0.07689892 -0.23350549 -0.2167835 -0.26237327 -0.076555595 0.06846177 -0.44502652 0.26851752
0.2790332 -0.11689479 -0.13403139 0.23949178 -0.23596051 -0.18311706 0.100886375 0.1495029
-0.051241785 0.20900449 0.1557273 0.22023897 -0.0010263717 -0.1820809 -0.25430214 -0.012299162
0.13029556 -0.28527516 -0.13024072 -0.26784497 -0.15502898 -0.12999299 0.12143166 -0.31324154
-0.19683309 0.0236238 -0.0546099 0.1746713 0.15891103 -0.035378844 -0.32966956 -0.3275319
0.016542375 -0.34258366 0.21053448 -0.006487388 -0.26473066 -0.22431658 0.27862287 0.14927216
0.014161549 -0.0013153167 0.29398313 0.14126895 0.24275222 -0.04538313 -0.11341944 0.069169536
-0.18400131 -0.012126945 0.06695602 -0.0066661257 -0.19805719 -0.022509065 0.0792216 -0.2567974
0.00044048898 -0.19673759 0.2522997 -0.1704471 -0.027747806 0.18764096 0.009700277 0.10001495
0.31114146 0.13212457 0.04367263 -0.24736409 0.12977484 -0.044362597 -0.122184485 0.2628653
0.008687165 -0.21600148 -0.063662924 -0.09971538 -0.28877464 0.17980836 -0.11022647 0.33314866
-0.040720217 0.020230776 0.16465688 0.04775673 -0.05112116 -0.07495932 0.23789148 0.019533485
-0.2190694 0.28998497 -0.038952094 0.46492016 -0.15849572 -0.31744936 -0.2755222 -0.122808285
0.20666622 0.20243636 -0.3026734 -0.5266043 -0.35465488 0.10306277 0.18590559 0.010461448
0.00051566627 0.02394592 0.09367984 -0.18032913 -0.040955927 -0.19120155 0.01453425 0.19370426
-0.25967768 -0.009736156 0.029394131 -0.02142123 0.023233956 0.13145123 0.21040149 -0.017255839
-0.3692273 0.5184513 -0.24551027 -0.0018086039 -0.30610394 -0.2911513 -0.1730383 -0.16195646
00000000: e614 693c 71c1 153d 9408 9e3e b0ab 01be
00000010: 189f 72bd a6f1 9ebd 14ce 75be 912e 37be
00000020: 07f1 a03e 0f25 72bd a868 a13e f6b2 273e
00000030: 2f7b 5f3e 9760 92be a014 1e3e 4d4d 80be
00000040: 9ecd b3bd a281 ab3e 8148 adbe 72c1 a5be
00000050: 6fa4 683e 2ba3 efbc 49ab af3d 0fcf 963e
00000060: e77f 9c3e f166 34bd 4ee9 77be a6e3 49be
00000070: 7558 81bd a328 813e f2a5 553e e786 f03d
00000080: 7ec1 923e 6469 b3be aa5c f6b9 c2dd 17be
00000090: 8ef0 02be 941b a53e 1f2e a3be 7daf 19be
000000a0: 432b ff3d 0fc6 8fbd 7344 d93d 7d45 34be
000000b0: 4ade 803c fba7 0a3e c37d 43be 6df3 83bd
000000c0: 87e1 2b3d 9fd8 8cbd 0151 a83d 6c01 b63e
000000d0: 536b c83d 6b8c 863d 0de1 21be 1d39 f43b
000000e0: fd05 9e3d 10c5 103e 6846 ecbd 5c3f 5b3d
000000f0: 4aed 773d 8f2f 8bbd 16b2 363e bde8 933d
00000100: 78a6 a4bd 1020 97bd 2244 e9be 1614 b13e
00000110: bc45 09bd 6c6c a0be 1e60 1a3e a4cb 30bd
00000120: c652 45be 1b00 23be 90f0 483e 4645 743e
00000130: 16b1 783e d677 a2bd 262d 893e b258 fcbd
00000140: 1450 9b3d c95d 8ebd d497 473d 81c9 353e
00000150: 653d 5d3e 8366 d9bd 0b8b e0bd 3b66 593d
00000160: 518e adbe 8f81 9f3e 8662 5ebd 412a 893e
00000170: 7215 183e 8a6b 803e 3b8f b73e d2fc c0bd
00000180: 81ad 6a3c f22a c23d 6a97 1d3e 5e11 413b
00000190: 6b6b 033e 7695 383e 7116 5b3b da49 1fbd
000001a0: 3a54 853d f1f2 c7b9 6d0a 623e 9406 103d
000001b0: 52ed 9d3c 1a82 283e bb49 483e 26de 98bd
000001c0: 5d12 0f3e dda7 1f3e 1bd6 d2bd 7c09 f8bd
000001d0: 2b1f 733c 8a7e 25be d86a 013d f79d 40bd
000001e0: 2e7d 9d3d 101c 6fbe 7efc 5dbe ca55 86be
000001f0: 2ec9 9cbd af35 8c3d 84da e3be 217b 893e
00000200: 71dd 8e3e 8966 efbd 863f 09be 553d 753e
00000210: a29f 71be 0a83 3bbe 849d ce3d 4a17 193e
00000220: e8e2 51bd 4605 563e fa76 1f3e 5386 613e
00000230: 5287 86ba 6a73 3abe e433 82be 6d82 49bc
00000240: 336c 053e 960f 92be d35d 05be fa22 89be
00000250: ebbf 1ebe e21c 05be 2ab1 f83d 3261 a0be
00000260: 9d8e 49be b386 c13c a1ae 5fbd 09dd 323e
00000270: 93b9 223e 68e9 10bd 73ca a8be 43b2 a7be
00000280: e083 873c 2067 afbe 5a96 573e 2894 d4bb
00000290: c78a 87be 3fb3 65be a8a7 8e3e cdda 183e
000002a0: d705 683c b466 acba f584 963e cfa8 103e
000002b0: 0a94 783e a9e3 39bd 7448 e8bd c2a8 8d3d
000002c0: d76a 3cbe 18b0 46bc 3d20 893d 846f dabb
000002d0: 81cf 4abe ee64 b8bc ef3e a23d f37a 83be
000002e0: 6ef1 e639 9475 49be 6d2d 813e af89 2ebe
000002f0: 5e4f e3bc f424 403e e9ed 1e3c a3d4 cc3d
00000300: ef4d 9f3e aa4b 073e 12e2 323d 034d 7dbe
00000310: b2e3 043e 8eb5 35bd dc3b fabd 4896 863e
00000320: 9c54 0e3c 7e2f 5dbe b561 82bd 9437 ccbd
00000330: 45da 93be af1f 383e 6abe e1bd 7692 aa3e
00000340: 3eca 26bd 03bb a53c d09b 283e 909c 433d
00000350: 6c64 51bd 4684 99bd d399 733e b004 a03c
00000360: bb53 60be e978 943e 3b8c 1fbd 040a ee3e
00000370: b44c 22be b988 a2be 3f11 8dbe e982 fbbd
00000380: 4fa0 533e 7a4b 4f3e 02f8 9abe 8acf 06bf
00000390: 5395 b5be 9312 d33d 095e 3e3e 7e66 2b3c
000003a0: c72d 073a 3c2a c43c 37db bf3d 33a8 38be
000003b0: 67c1 27bd 57ca 43be 1021 6e3c 695a 463e
000003c0: 79f4 84be 6684 1fbc f6cb f03c 937b afbc
000003d0: 2355 be3c 279b 063e 7d73 573e 1e5c 8dbc
000003e0: 5c0b bdbe 39b9 043f 0b67 7bbe ad0e edba
000003f0: a8b9 9cbe c811 95be f430 31be ead7 25be

actor_mean.0.bias f4 [64]
-0.018853914 0.028912349 0.023411077 0.030589316 0.018485866 0.023477959 0.019048264 -0.08544901
-0.043519218 0.0922134 0.08122574 -0.005761273 -0.048663314 -0.0429656 -0.07061842 0.04774857
-0.07448651 -0.13772725 0.024932273 -0.033441726 -0.029270606 -0.115485854 -0.04681091 -0.007003324
-0.053058013 0.07991391 -0.046376172 0.081300855 0.00613256 0.0711338 0.021184359 0.023847517
0.03952663 -0.069637425 -0.07662597 0.058655426 0.13058807 -0.042536337 -0.08286089 -0.06435149
-0.028738331 0.009706383 -0.007830906 0.006478072 -0.0671189 0.06931916 -0.034648363 -0.16455153
-0.054336254 -0.05502814 0.17401524 0.028775359 0.039411392 -0.0022307257 0.12963562 -0.000354519
-0.016095284 0.123652376 -0.09635486 -0.028030563 -0.028247016 -0.026741942 -0.055365603 -0.0058816867
00000000: 8673 9abc 97d9 ec3c 96c8 bf3c 7296 fa3c
00000010: ac6f 973c d954 c03c 1b0b 9c3c e4ff aebd
00000020: 3541 32bd 61da bc3d ae59 a63d 10c9 bcbb
00000030: 2f53 47bd b2fc 2fbd 64a0 90bd 0194 433d
00000040: 628c 98bd 5f08 0dbe c43e cc3c 31fa 08bd
00000050: e9c8 efbc d983 ecbd ccbc 3fbd 247c e5bb
00000060: 5c53 59bd e7a9 a33d f1f4 3dbd 1081 a63d
00000070: a4f3 c83b 99ae 913d d28a ad3c de5b c33c
00000080: ade6 213d 119e 8ebd 14ee 9cbd ac40 703d
00000090: e1b8 053e 953a 2ebd f8b2 a9bd b7ca 83bd
000000a0: a66c ebbc 8507 1f3c 334d 00bc 0246 d43b
000000b0: a275 89bd 34f7 8d3d 71eb 0dbd 3280 28be
000000c0: b18f 5ebd 3065 61bd 0d31 323e 4dba eb3c
000000d0: d76d 213d 5e31 12bb 33bf 043e bcde b9b9
000000e0: 42da 83bc 753d fd3d b255 c5bd 5aa0 e5bc
000000f0: 4966 e7bc eb11 dbbc 0bc7 62bd 2abb c0bb

actor_mean.2.weight f4 [32, 64]
0.06906964 -0.008751079 0.042036347 -0.31455362 0.039840214 -0.08311652 -0.095980205 0.19709612
-0.013447707 -0.065553814 -0.0634178 -0.016742563 -0.005740853 -0.079327434 -0.15752003 0.28137854
-0.3755452 -0.28435156 0.41548026 0.05356103 0.09470403 0.08098681 0.036074933 -0.27333975
0.13674721 -0.085703485 -0.13739994 0.28530318 0.13673824 0.059848562 0.38877612 0.3136318
-0.383767 0.19921313 -0.114023484 0.4548852 0.15627666 -0.07595703 -0.07911768 0.1207675
0.0027064057 0.06720942 -0.011634611 -0.012810138 -0.027610691 -0.2679791 0.29700142 0.13404089
-0.026820857 -0.106413156 0.11430991 0.28271446 -0.247571 0.11586089 -0.4039138 0.28523573
0.014711686 0.41190007 0.07495383 -0.10876076 0.2422193 0.10443482 -0.007957328 -0.16270024
-0.13094157 -0.02261753 -0.22502874 0.018417196 0.112389825 0.24524432 -0.21681283 -0.084157184
-0.09197346 0.0833002 -0.36439863 -0.0071250587 0.32189256 -0.049520988 -0.03537806 0.19755796
-0.11127345 0.08800247 0.11995474 -0.4527637 -0.18812197 -0.22451176 0.17622231 0.008725944
-0.24293816 0.12968045 -0.016855858 0.059350383 0.05347871 -0.43054098 0.5124063 0.18072528
0.16533041 -0.0453892 0.26557478 -0.32117075 -0.024923759 0.013962125 0.11932935 0.12383771
-0.033169612 -0.21315019 -0.1806106 -0.24908672 -0.0364603 0.16398482 -0.016991178 0.12162699
-0.05400555 0.11344398 0.23817633 0.038115285 -0.22572544 -0.32232526 -0.1100982 -0.13640615
-0.63319206 -0.02784437 -0.10474301 0.08169885 0.06732069 -0.1861973 0.46681485 0.25841665
0.27243516 0.16118895 0.31269985 -0.09226796 0.15970334 0.1270921 -0.08485137 -0.032348737
0.011579421 -0.14296304 -0.26148164 -0.355766 0.07676871 0.40015867 0.15086707 -0.13331929
0.3787431 0.32089 -0.0095482925 0.041945275 0.25315544 0.2960576 -0.016078727 -0.16352782
0.13976291 0.13622092 0.18771933 0.097446024 0.22318946 -0.01978519 -0.25615057 0.14996406
-0.09552808 0.033736013 -0.090528086 0.26940486 0.12588675 0.013447178 -0.39474446 0.060027767
-0.09860445 -0.029664498 0.08349724 0.115146674 -0.3440038 -0.36512256 0.019918855 0.30173668
-0.15058075 -0.22662635 0.31659555 -0.14093783 -0.3291446 -0.09901206 -0.09246877 0.07272907
-0.12936799 -0.21818812 0.057904568 0.07598137 -0.022089353 -0.19644222 -0.1781144 -0.13792124
0.09734296 -0.27834445 0.20578621 -0.10840184 0.08235699 -0.19790496 0.22128402 0.08816805
-0.14798436 -0.25106126 -0.42109412 0.5463294 -0.025000684 -0.14709218 -0.19426084 0.1172591
0.23428378 0.11995545 0.088218674 0.1720559 0.10659305 0.11235796 -0.026842067 -0.10168049
0.1202559 -0.19684304 -0.15917075 -0.03022375 0.010048078 -0.1600442 0.3085003 0.036852777
-0.1736129 -0.33260825 0.39662215 0.07861118 -0.024636231 -0.30859447 0.03479718 0.08468988
-0.21783668 -0.15012929 0.22592743 0.17682606 -0.18914051 0.19209813 0.117385 0.06551271
-0.25010085 0.07017862 0.0034844463 0.23636588 -0.018067038 -0.22874187 0.018820757 -0.1754254
0.08221029 -0.0934902 -0.17191057 0.07960031 -0.13044503 0.16080564 0.0954877 0.179771
00000000: 6274 8d3d b060 0fbc 4e2e 2c3d 2c0d a1be
00000010: 7e2f 233d fe38 aabd 4591 c4bd 91d3 493e
00000020: c553 5cbc 1441 86bd 31e1 81bd b327 89bc
00000030: c41d bcbb 6c76 a2bd ee4c 21be d910 903e
00000040: 7647 c0be 8796 91be d4b9 d43e d062 5b3d
00000050: 30f4 c13d 6adc a53d 4fc3 133d 30f3 8bbe
00000060: 7607 0c3e 4f85 afbd 92b2 0cbe 4213 923e
00000070: 1c05 0c3e c423 753d aa0d c73e 5994 a03e
00000080: 1c7d c4be 87fe 4b3e 2585 e9bd b7e6 e83e
00000090: fd06 203e 5c8f 9bbd 7308 a2bd f354 f73d
000000a0: f45d 313b 18a5 893d 189f 3ebc 9de1 51bc
000000b0: d12f e2bc 8e34 89be 9210 983e 0442 093e
000000c0: 6ab7 dbbc 24ef d9bd 501b ea3d f3bf 903e
000000d0: 4183 7dbe 7948 ed3d cacd cebe 6b0a 923e
000000e0: 4909 713c 91e4 d23e 6581 993d f6bd debd
000000f0: 5608 783e ece1 d53d 745f 02bc e49a 26be
00000100: 8c15 06be 6648 b9bc ef6d 66be a9df 963c
00000110: a32c e63d 5421 7b3e 2f04 5ebe 9a5a acbd
00000120: 955c bcbd 4c99 aa3d 7592 babe 5379 e9bb
00000130: 1acf a43e 85d6 4abd 96e8 10bd a24c 4a3e
00000140: 56e3 e3bd a43a b43d d5aa f53d a5d0 e7be
00000150: 0ca3 40be 69e6 65be 9f73 343e 43f7 0e3c
00000160: c8c4 78be f4ca 043e 4c15 8abc 6319 733d
00000170: 7e0c 5b3d de6f dcbe 0f2d 033f 0c10 393e
00000180: 604c 293e 07ea 39bd 6bf9 873e 7e70 a4be
00000190: e92c ccbc 66c1 643c f262 f43d a09e fd3d
000001a0: dcdc 07bd 0b44 5abe fcf1 38be 9710 7fbe
000001b0: 6557 15bd a3eb 273e 1531 8bbc 9217 f93d
000001c0: ec34 5dbd 5155 e83d 7fe4 733e c61e 1c3d
000001d0: 9224 67be d107 a5be 2a7b e1bd 0eae 0bbe
000001e0: e018 22bf e019 e4bc 8183 d6bd ba51 a73d
000001f0: 6edf 893d 81aa 3ebe 5b02 ef3e 304f 843e
00000200: 9f7c 8b3e b70e 253e 321a a03e fcf6 bcbd
00000210: 4689 233e 6e24 023e 8ec6 adbd 1c80 04bd
00000220: 9db7 3d3c e764 12be ece0 85be f626 b6be
00000230: ea38 9d3d 99e1 cc3e e67c 1a3e da84 08be
00000240: 9eea c13e b24b a43e 7170 1cbc cfce 2b3d
00000250: 979d 813e dd94 973e 89b7 83bc d673 27be
00000260: 021e 0f3e 7f7d 0b3e 7f39 403e c891 c73d
00000270: c78b 643e 8d14 a2bc 2b26 83be 2e90 193e
00000280: 3aa4 c3bd c62e 0a3d ca66 b9bd 6fef 893e
00000290: 75e8 003e 8d51 5c3c f21b cabe addf 753d
000002a0: 21f1 c9bd f602 f3bc 9a00 ab3d 05d2 eb3d
000002b0: 4421 b0be 58f1 babe de2c a33c 3b7d 9a3e
000002c0: d731 1abe bd10 68be d018 a23e 0252 10be
000002d0: a485 a8be d6c6 cabd 4460 bdbd fbf2 943d
000002e0: 0b79 04be b56c 5fbe 572d 6d3d 1f9c 9b3d
000002f0: bbf4 b4bc 2628 49be 9f63 36be 3a3b 0dbe
00000300: bf5b c73d 2a83 8ebe 9fb9 523e c901 debd
00000310: c8aa a83d 99a7 4abe 4798 623e 7391 b43d
00000320: 3689 17be 1a8b 80be a699 d7be 3edc 0b3f
00000330: 3cce ccbc 559f 16be 50ec 46be 8a25 f03d
00000340: 16e8 6f3e 34ab f53d feab b43d 6c2f 303e
00000350: 754d da3d ee1b e63d e5e3 dbbc dc3d d0bd
00000360: ba48 f63d 3991 49be a8fd 22be cc97 f7bc
00000370: b2a0 243c a0e2 23be c0f3 9d3e f0f2 163d
00000380: 94c7 31be a14b aabe 0f12 cb3e e6fe a03d
00000390: ecd1 c9bc 1800 9ebe 7d87 0e3d e371 ad3d
000003a0: 9410 5fbe 7ebb 19be 8559 673e e411 353e
000003b0: 0dae 41be 5fb5 443e 8c67 f03d 872b 863d
000003c0: 380d 80be cfb9 8f3d 4f5b 643b e609 723e
000003d0: 5301 94bc 4f3b 6abe fd2d 9a3c b7a2 33be
000003e0: de5d a83d ca77 bfbd 5309 30be 7d05 a33d
000003f0: 6293 05be 3caa 243e 0e8f c33d e415 383e

actor_mean.2.bias f4 [32]
0.078434296 -0.045746353 -0.06739234 -0.05290677 -0.2029504 0.06625254 0.026532838 -0.07977619
0.08955926 -0.045392007 0.12529469 -0.073291264 0.032476928 -0.10744674 0.022743853 -0.024962416
-7.589949e-05 0.050151028 -0.19891725 -0.14332327 -0.052662037 -0.0762423 -0.06359092 -0.014447148
0.025151243 -0.068390235 0.023302604 0.033363383 -0.030409645 -0.11378458 0.16879648 -0.07581517
00000000: 29a2 a03d 8760 3bbd ff04 8abd c5b4 58bd
00000010: 3bd2 4fbe 69af 873d 655b d93c b361 a3bd
00000020: d86a b73d f8ec 39bd 404d 003e bb19 96bd
00000030: 8706 053d 090d dcbd 5151 ba3c fb7d ccbc
00000040: 3a2c 9fb8 2a6b 4d3d f7b0 4bbe 56c3 12be
00000050: 26b4 57bd ec24 9cbd f53b 82bd bbb3 6cbc
00000060: fb09 ce3c 2e10 8cbd 1ae5 be3c 0ba8 083d
00000070: a61d f9bc e407 e9bd fcd8 2c3e fc44 9bbd

actor_mean.4.weight f4 [6, 32]
-0.2505332 0.16944987 -0.18324138 -0.17025843 -0.08177948 0.15471953 -0.28776947 -0.2248244
0.15021159 -0.054587975 -0.29811567 -0.12058044 -0.1949998 -0.43345746 0.048029218 0.48440164
0.121972606 0.31765166 0.14285055 0.05031662 0.06661663 0.006758433 0.19200824 0.0598814
-0.181153 -0.045269687 -0.365861 0.46622047 0.087744206 -0.36977372 -0.06881118 -0.17298299
-0.38914236 0.12903632 -0.4368541 0.035637263 -0.026953729 -0.12987714 0.46036458 0.1279938
0.096549414 0.22146621 -0.22027776 0.09722716 0.17038843 0.11878407 0.0929632 -0.0964319
0.13234782 0.33797258 0.04431409 -0.02296387 -0.19580111 -0.03301672 0.08456012 0.036390033
-0.1260487 -0.141505 0.13003276 0.08791297 0.19182068 -0.19406474 0.12000086 0.31853423
0.103662595 0.14737321 0.20811827 -0.18506737 -0.14227815 0.20687959 -0.24483852 0.4393916
-0.10743849 0.10876711 -0.34461188 -0.32037193 0.00881052 0.06740379 -0.45631942 0.17197615
0.14215754 0.43750787 0.07164568 0.16278552 -0.32001975 0.21124168 0.24675997 -0.265819
0.02421882 0.059625845 0.2096459 -0.009757827 0.1730235 -0.15019378 0.16664626 -0.087073125
0.17644668 -0.08555299 0.0036958964 0.013433809 -0.47586688 0.08256973 -0.10724553 -0.4914092
0.34813052 -0.22322072 0.16119228 -0.4008986 -0.0007501299 0.082679234 -0.20651074 0.03859329
-0.23264171 0.32751355 0.11075673 -0.14032418 -0.17573768 0.21071419 -0.19499224 0.15402126
0.13122007 -0.51102674 -0.18260413 -0.023127684 0.4324582 -0.37513864 0.317017 -0.08856636
0.09132595 0.43221074 0.037076753 0.2771174 0.19310133 0.09066095 0.012018231 0.22562256
-0.0005966733 -0.2537279 0.06387883 -0.08557452 0.16354632 0.2678472 0.006361905 0.4286984
0.008921214 -0.21785794 0.1848682 0.12636454 -0.18427815 -0.0063912994 0.052406307 0.26288366
-0.01174699 -0.24459782 0.019062528 -0.18911164 -0.20376405 0.019318191 0.003450666 -0.16843808
0.28867015 0.09104859 -0.12048047 -0.00062967883 -0.17317489 0.265209 0.467917 -0.053167343
-0.20272574 -0.08432399 0.4406691 -0.018535165 0.23900898 -0.16909087 -0.1660876 -0.03045217
0.041854136 0.046988353 -0.15403764 -0.10263457 -0.03598018 -0.2697767 0.09367328 -0.3125469
-0.08549625 0.02113988 0.123805605 0.0840327 -0.4323368 -0.22388357 0.15189113 -0.30660483
00000000: e345 80be 4484 2d3e a1a3 3bbe 3a58 2ebe
00000010: 007c a7bd cc6e 1e3e 8556 93be 5e38 66be
00000020: 11d1 193e a497 5fbd 9ea2 98be e1f2 f6bd
00000030: 07ae 47be 23ee ddbe 49ba 443d 7e03 f83e
00000040: c6cc f93d 3da3 a23e 6a47 123e cd18 4e3d
00000050: 4d6e 883d d875 dd3b cf9d 443e 3346 753d
00000060: 2c80 39be b56c 39bd 2252 bbbe 73b4 ee3e
00000070: 3cb3 b33d fb52 bdbe e0ec 8cbd 7422 31be
00000080: ab3d c7be 1922 043e 57ab dfbe 61f8 113d
00000090: 11ce dcbc 83fe 04be e8b4 eb3e cf10 033e
000000a0: b3bb c53d 0ac8 623e 7e90 61be 091f c73d
000000b0: 4e7a 2e3e 1045 f33d 7d63 be3d 177e c5bd
000000c0: 3086 073e be0a ad3e b182 353d ba1e bcbc
000000d0: 1680 48be 8a3c 07bd db2d ad3d b70d 153d
000000e0: e912 01be b0e6 10be 4f27 053e b70b b43d
000000f0: a46c 443e e8b8 46be 03c3 f53d eb16 a33e
00000100: 0e4d d43d 01e9 163e f51c 553e 4d82 3dbe
00000110: 5db1 11be 3ed8 533e f3b6 7abe f0f7 e03e
00000120: b608 dcbd 4ac1 de3d f870 b0be ca07 a4be
00000130: 005a 103c 000b 8a3d b3a2 e9be 841a 303e
00000140: bf91 113e 0801 e03e f8ba 923d 3fb1 263e
00000150: a1d9 a3be bd4f 583e a5ae 7c3e 6e19 88be
00000160: 8c66 c63c 3b3a 743d 6aad 563e 4bdf 1fbc
00000170: 132d 313e 66cc 19be 51a5 2a3e 6553 b2bd
00000180: 70ae 343e 6836 afbd da36 723b 7b19 5c3c
00000190: d3a4 f3be 521a a93d 8ba3 dbbd fd99 fbbe
000001a0: 2a3e b23e f993 64be 970f 253e 9542 cdbe
000001b0: 5ea4 44ba bb53 a93d 8d77 53be ff13 1e3d
000001c0: a139 6ebe dbaf a73e 6dd4 e23d 24b1 0fbe
000001d0: 94f4 33be 76c5 573e 0cac 47be c0b7 1d3e
000001e0: 8e5e 063e a6d2 02bf 94fc 3abe 4576 bdbc
000001f0: 296b dd3e 2c12 c0be 0d50 a23e 4862 b5bd
00000200: 1a09 bb3d ba4a dd3e cbdd 173d 55e2 8d3e
00000210: 5bbc 453e 73ac b93d 1de8 443c 9a09 673e
00000220: 116a 1cba a0e8 81be e7d2 823d b241 afbd
00000230: b078 273e 4523 893e 8777 d03b 5b7e db3e
00000240: 492a 123c 2716 5fbe 174e 3d3e b565 013e
00000250: 69b3 3cbe 1b6e d1bb ffa7 563d b098 863e
00000260: 7276 40bc da77 7abe 0529 9c3c 7ba6 41be
00000270: 86a7 50be 2f41 9e3c 9224 623b 087b 2cbe
00000280: 93cc 933e af77 ba3d 77be f6bd 0811 25ba
00000290: c254 31be 79c9 873e d192 ef3e 00c6 59bd
000002a0: 5697 4fbe 0eb2 acbd 619f e13e 0fd7 97bc
000002b0: c5be 743e 2826 2dbe de12 2abe d476 f9bc
000002c0: 3e6f 2b3d dc76 403d 0bbc 1dbe 1332 d2bd
000002d0: f45f 13bd 2c20 8abe c7d7 bf3d 2606 a0be
000002e0: a818 afbd 8b2d ad3c cb8d fd3d 5619 ac3d
000002f0: 405b ddbe bc41 65be 5989 1b3e 4ffb 9cbe

actor_mean.4.bias f4 [6]
-0.07946185 0.044873144 -0.07053331 0.14720207 -0.073732756 0.19318427
00000000: e5bc a2bd e7cc 373d c573 90bd 24bc 163e
00000010: 3301 97bd 19d2 453e
