Project/upload/Part1_ppo_q2/HalfCheetahBulletEnv-v0_PPO_3_1638448378_ppo.pth (torch, 35262 bytes, 12 tensors)

actor_logstd f4 [6]
0	0xbf5397a4	-0.8265326
1	0xbfaac557	-1.3341473
2	0xbf82e271	-1.0225354
3	0xbf738ca3	-0.9513647
4	0xbf9a0708	-1.2033396
5	0xbfa10edb	-1.2582659

critic.0.weight f4 [64, 26]
0	0xbec0893c	-0.37604702
1	0x3d9f6c8f	0.07784378
2	0xbdda8ee7	-0.10671788
3	0xbe8f114a	-0.27942878
4	0xbe4ece07	-0.2019578
5	0xbc82b713	-0.015956437
6	0x3e6fb8b1	0.23410298
7	0xbe55a081	-0.20862009
8	0x3e1d665b	0.15371077
9	0x3ea38924	0.31940567
10	0x3cf2007f	0.029541252
11	0x3e4b6d10	0.19865823
12	0x3e87b20f	0.26503035
13	0x3da80042	0.08203174
14	0xbe2b6f84	-0.16741759
15	0x3d65eafe	0.05613231
16	0xbe8ba868	-0.2727692
17	0x3e4d2837	0.20034872
18	0x3cbc6dd9	0.023001598
19	0x3e5f8d7d	0.21831317
20	0x3d86d4f7	0.065835886
21	0xbdcc4f5e	-0.099760756
22	0xbdab407f	-0.08361911
23	0x3de6bd6c	0.11266598
24	0xbbf48352	-0.0074619437
25	0x3e349ba0	0.17637491
26	0xbe2afe58	-0.16698587
27	0xbe022c8b	-0.12712304
28	0x3d1c09fb	0.038095456
29	0x3e090e6b	0.13384406
30	0xbd9734a7	-0.073830895
31	0xbd87ac1d	-0.06624625
32	0xbe12c4b7	-0.14332853
33	0xbdab34ec	-0.083597034
34	0x3ea17549	0.31534794
35	0xbcb55bfa	-0.022138584
36	0xbe11cd2c	-0.14238423
37	0x3d378bae	0.044810943
38	0xbe09c115	-0.13452561
39	0x3d1ce790	0.038306773
40	0xbe663c3f	-0.2248392
41	0xbdde7230	-0.10861623
42	0x3d5b92c2	0.053606756
43	0x3d85be4b	0.06530436
44	0x3d2e23b7	0.04251453
45	0x3e40fa86	0.18845567
46	0xbda4d4ab	-0.08048376
47	0x3e46b364	0.1940437
48	0x3df40533	0.11915054
49	0xbe190aa3	-0.14945464
50	0xbc81a5e4	-0.015826173
51	0xbe1c246d	-0.1524827
52	0x3ea8443c	0.3286456
53	0x3dfd1de2	0.12359215
54	0xbe136716	-0.14394793
55	0x3d4e6a09	0.05039409
56	0x3e321fca	0.17394939
57	0x3d02e607	0.031957652
58	0xbd2410ab	-0.04005496
59	0xbe227888	-0.15866292
60	0x3d15f5bd	0.036611307
61	0xbd460fbc	-0.04835485
62	0xbdce6c0d	-0.10079203
63	0xbd13fb69	-0.036128435
64	0xbbacca6b	-0.0052731535
65	0xbe0f4529	-0.13991226
66	0xbb992a3c	-0.004674224
67	0xbcdfd1b9	-0.027321683
68	0xbe185723	-0.1487699
69	0xbd9bd5af	-0.07609116
70	0x3a1f2bd2	0.00060718984
71	0xbd7f44ca	-0.06232146
72	0xbd6a9064	-0.057266608
73	0xbd3ea86b	-0.046547335
74	0x3ddbac1d	0.107261874
75	0x3da08c56	0.07839267
76	0xbec1a021	-0.3781748
77	0x3dd8dea3	0.105893396
78	0x3de0f8c2	0.10984947
79	0xbd7e9304	-0.062151924
80	0xbdd65645	-0.10465673
81	0xbe0cecf0	-0.1376226
82	0xbe8a0041	-0.2695332
83	0x3e2d6170	0.169317
84	0x3d21d563	0.039510142
85	0x3b1e2873	0.0024132996
86	0xbe635b22	-0.22202733
87	0x3eaadb33	0.3337036
88	0x3d370974	0.04468675
89	0x3e5bfcfd	0.21483226
90	0x3dcc3efc	0.09972951
91	0xbda66751	-0.08125175
92	0xbc1163f9	-0.008873933
93	0xbe388cef	-0.18022512
94	0x3cf190e3	0.029488033
95	0xbdf6c564	-0.12049368
96	0xbe2d1d4b	-0.16905706
97	0xbe0467f9	-0.12930287
98	0x3e15af16	0.14617571
99	0x3e0388fe	0.12845227
100	0xbdb2c717	-0.087293796
101	0xbe1bcf69	-0.1521584
102	0x3e18a772	0.14907625
103	0x3e22f770	0.15914702
104	0x3e2e6d06	0.17033777
105	0x3e197181	0.14984705
106	0xbe5cdaaa	-0.21567789
107	0xbd6f2b68	-0.058391005
108	0x3eb48f46	0.3526556
109	0x3e4b208c	0.19836634
110	0x3dd08f87	0.10183626
111	0x3d5167f5	0.05112453
112	0x3e336ef0	0.17522788
113	0x3bd65962	0.006541417
114	0x3eda289f	0.42609116
115	0x3ca60192	0.02026442
116	0xbe3c0384	-0.18360716
117	0xbd9bf018	-0.076141536
118	0xbdf4e608	-0.119579375
119	0xbd60d4b7	-0.05489036
120	0xbe2268db	-0.15860312
121	0xbe438e74	-0.1909731
122	0xbd14a438	-0.036289424
123	0x3d389ceb	0.045071524
124	0xbe8fc807	-0.28082296
125	0xbd870139	-0.0659203
126	0xbaca397c	-0.0015428509
127	0xbdb4753d	-0.08811424
128	0xbe4411c4	-0.19147402
129	0x3cc3903c	0.023872487
130	0xbd0354bc	-0.03206323
131	0xbe9473e7	-0.28994676
132	0xbe0a42ab	-0.13501994
133	0xbdca41e7	-0.09875851
134	0x3e8205f8	0.2539518
135	0xbceac781	-0.028659584
136	0x3e3425df	0.17592572
137	0x3caa86eb	0.020816287
138	0xbe1274ed	-0.14302416
139	0xbe232145	-0.1593066
140	0xbe7047ca	-0.23464885
141	0xbe902187	-0.2815058
142	0x3e71dc21	0.23619129
143	0x3ce3417c	0.027741186
144	0x3e86332d	0.2621092
145	0x3c99bf78	0.018768057
146	0xbcd362de	-0.02580398
147	0x3d6b4fda	0.0574492
148	0x3cf7f017	0.030265851
149	0x3df82b8a	0.121176794
150	0xbdf43e09	-0.11925895
151	0xbdea86b4	-0.11451474
152	0x3e89bb8a	0.26900893
153	0xbd956c6d	-0.07296071
154	0x3e1f5e4e	0.15563318
155	0x3c9d8baf	0.019231645
156	0x3db1dcf5	0.08684722
157	0x3d9ad074	0.075592905
158	0xbdd5ba2f	-0.10435902
159	0x3d737c80	0.059444904
160	0x3efa69aa	0.4890874
161	0x3c72cd8f	0.014819517
162	0xbd270c97	-0.04078349
163	0x3e00a85a	0.12564221
164	0x3c4335ca	0.01191468
165	0xbe36dff1	-0.17858864
166	0xbd922f89	-0.07137973
167	0x3eaa1a88	0.33223367
168	0x3e5a4a07	0.21317302
169	0x3d840480	0.06446171
170	0x3dcd759c	0.10032198
171	0x3e394052	0.18090943
172	0xbd6dcb59	-0.058055256
173	0x3e0f1fcb	0.13976972
174	0x3dbeedb6	0.093226835
175	0xbd02669e	-0.031836145
176	0xbcd66ba1	-0.026174368
177	0x3ea79a75	0.3273503
178	0xbda76a7f	-0.081746094
179	0xbdde6966	-0.10859947
180	0xbd60adec	-0.054853365
181	0xbcf1ff21	-0.0295406
182	0x3e04ac17	0.12956272
183	0x3e19305b	0.14959852
184	0xbd957586	-0.072978064
185	0x3e0b33ff	0.13594054
186	0xbe1ba41e	-0.15199324
187	0xbe347989	-0.17624487
188	0x3df60704	0.12013057
189	0xbea237c2	-0.31683165
190	0x3ec9167e	0.39274973
191	0x3c53f98e	0.012937916
192	0xbd9e7c8c	-0.07738599
193	0x3dcebc57	0.10094517
194	0x3d45b194	0.048265055
195	0xbdc0141c	-0.093788356
196	0xbed2b547	-0.4115393
197	0xbe5b8dc2	-0.21440795
198	0xbe3204d7	-0.17384659
199	0xbe1848e8	-0.14871562
200	0xbdb02014	-0.085998684
201	0x3cc425ff	0.0239439
202	0x3df0bb25	0.11754445
203	0xbe7421d6	-0.23841032
204	0x3d3d07a0	0.04614985
205	0x3dd491df	0.10379385
206	0x3e9664c0	0.2937374
207	0x3d01d064	0.031692877
208	0xbcae89ea	-0.021305997
209	0x3d812c1e	0.06307243
210	0xbe4a9661	-0.19783928
211	0x3c9034ae	0.017603245
212	0x3e0c53ac	0.13703793
213	0x3e62cc0e	0.22148153
214	0xbe88b353	-0.26699314
215	0x3e2bce8a	0.16778007
216	0xbe0bc076	-0.13647637
217	0xbe014a50	-0.12626004
218	0xbe990b57	-0.29891464
219	0x3d3b2b34	0.0456955
220	0x3e15e5fd	0.14638515
221	0x3da3bf11	0.079954274
222	0x3c9224f2	0.017839883
223	0xbd711166	-0.058854483
224	0x3db584ee	0.08863245
225	0xbe0e6eef	-0.13909505
226	0x3e2c222e	0.16809914
227	0x3e474434	0.19459611
228	0x3d3db5d3	0.04631598
229	0xbe93f2f7	-0.28896305
230	0x3e3055db	0.17220251
231	0x3ccd61ea	0.025071103
232	0x3e2225a6	0.15834674
233	0xbe81d00b	-0.25354037
234	0xbf046c23	-0.51727504
235	0xbe5ef85f	-0.21774434
236	0x3d572120	0.052521825
237	0xbee61253	-0.44935855
238	0x3e2dab97	0.16959988
239	0xbc77cd0b	-0.01512457
240	0x3c380cac	0.01123349
241	0xbe91f6a2	-0.28508478
242	0x3e6097ab	0.21932857
243	0x3df8b875	0.121445574
244	0xbe923156	-0.28553265
245	0xbd5cbe90	-0.053892672
246	0xbd430f90	-0.047622263
247	0xbcf1749c	-0.029474549
248	0xbe9bafb6	-0.30407494
249	0xbe13a36d	-0.1441781
250	0xbe0aae97	-0.13543163
251	0xbdb85f47	-0.09002548
252	0xbe9c90bd	-0.30579177
253	0xbda218c9	-0.07914884
254	0x3df88652	0.121349946
255	0xbe30fca7	-0.17283879

critic.0.bias f4 [64]
0	0xbf4aa0f8	-0.7915187
1	0xbecdbe3e	-0.40184206
2	0x3ea72214	0.32643187
3	0xbeb350fa	-0.35022718
4	0xbe2608ba	-0.16214266
5	0xbe132752	-0.14370468
6	0xbc856ded	-0.016287768
7	0x3d8582cc	0.06519088
8	0x3ea2bea3	0.3178607
9	0xbe8a1b95	-0.26974168
10	0xbe30310f	-0.17206214
11	0xbc6c5ba7	-0.0144261485
12	0xbd9c79fe	-0.07640456
13	0xbb05c699	-0.0020412563
14	0xbdf9c0ca	-0.12194975
15	0xbe2c22ae	-0.16810104
16	0xbdf31dd4	-0.11870924
17	0x3e3a7098	0.18207014
18	0xbdf1d175	-0.11807529
19	0xbe3d1abe	-0.18467233
20	0x3ecf4a43	0.40486345
21	0x3eea8dfd	0.45811453
22	0xbe201aa0	-0.15635157
23	0xbe7c4cb7	-0.2463864
24	0xbe383cf0	-0.17991996
25	0xbe2e758f	-0.17037033
26	0x3d528a34	0.051401332
27	0x3d9e6c85	0.07735542
28	0xbeaaef24	-0.33385575
29	0x3ed31d34	0.41233218
30	0x3e7c3fa5	0.24633653
31	0x3ef946bd	0.48686782
32	0x3e20d3fb	0.15705864
33	0xbef76c9f	-0.4832506
34	0xbd2ce836	-0.04221364
35	0x3e73492d	0.23758383
36	0xbf2436da	-0.64146197
37	0xbed69163	-0.41907796
38	0x3e38799e	0.18015143
39	0xbdf1d9b5	-0.118091024
40	0x3eb7e485	0.35916534
41	0x3e5f2787	0.21792422
42	0x3ccbec40	0.024892926
43	0x3e5f5681	0.21810342
44	0x3e0fde4a	0.1404964
45	0x3ccb51e5	0.024819324
46	0x3ede16eb	0.4337686
47	0xbec3151a	-0.38102037
48	0x3ef5b495	0.47989336
49	0xbe9ac213	-0.30226192
50	0xbc92505b	-0.017860582
51	0xbc8b6fe2	-0.017021123
52	0xbdf762b1	-0.12079371
53	0xbd86bc32	-0.06578864
54	0x3f189213	0.5959789
55	0xbc9d57bd	-0.019206876
56	0x3bca1773	0.006167346
57	0xbe51bd52	-0.20482376
58	0x3c0c1c9b	0.008551742
59	0xbdc88994	-0.09791866
60	0x3ef711af	0.4825568
61	0x3e3d8c79	0.18510617
62	0xbf1d08a9	-0.6134134
63	0x3e501fd1	0.20324637

critic.2.weight f4 [32, 64]
0	0xbb6a3c31	-0.0035741443
1	0xbeeb0e77	-0.45909473
2	0x3e8e044f	0.27737662
3	0xbe82876d	-0.25493947
4	0xbdefd2fc	-0.11710164
5	0x3eaa4a8a	0.33259994
6	0x3ef81db3	0.4846016
7	0xbe97db6a	-0.29659587
8	0x3e1d210d	0.15344639
9	0xbc2f8e6b	-0.010715107
10	0x3ecb4996	0.3970458
11	0x3e9b1bc5	0.30294624
12	0x3c9dd0db	0.01926463
13	0x3e8cab30	0.27474356
14	0xbe987b33	-0.29781494
15	0xbddff464	-0.10935286
16	0xbea79dbd	-0.32737532
17	0xbe861b88	-0.2619288
18	0x3cccab69	0.024984078
19	0x3e0c2999	0.13687743
20	0xbdd85ca1	-0.105645426
21	0x3dab0999	0.0835144
22	0x3e593abe	0.21213815
23	0x3de0b8be	0.10972737
24	0x3e4f0ae1	0.20218994
25	0x3e733bca	0.23753276
26	0xbe9069f1	-0.28205827
27	0xbe1b4003	-0.15161137
28	0xbf08ee47	-0.5348858
29	0xbd110cf4	-0.035412744
30	0xbde0e468	-0.10981065
31	0x3e55f53b	0.20894329
32	0x3de056a0	0.109540224
33	0x3cf0e429	0.02940567
34	0x3da4be3e	0.08044098
35	0x3d13098d	0.03589778
36	0xbeb12ed0	-0.34606028
37	0x3de5e8a4	0.11226013
38	0xbe1622d7	-0.14661728
39	0xbebf78cc	-0.37396848
40	0xbe7bece6	-0.24602088
41	0x3eaaeed2	0.3338533
42	0x3da27026	0.07931547
43	0xbdee61de	-0.116397604
44	0x3de410d2	0.11136021
45	0xbde501c2	-0.11181976
46	0x3ee2d3e0	0.44302273
47	0xbd409e36	-0.04702588
48	0x3e3ec70d	0.1863062
49	0xbeae5b93	-0.3405424
50	0x3cbae298	0.022813126
51	0x3e0b2c06	0.13591012
52	0xbe572aa8	-0.21012366
53	0xbca78904	-0.020451076
54	0xbc51fb0f	-0.012816205
55	0x3ec31949	0.3810523
56	0x3ea232f5	0.31679502
57	0xbcdd4a59	-0.02701299
58	0xbe297bf5	-0.16551192
59	0x3e22f07c	0.1591205
60	0x3e5c17db	0.21493475
61	0x3e90bd33	0.28269348
62	0xbc7af7c2	-0.015317859
63	0xbe3bf41e	-0.18354842
64	0x3c5c3396	0.013440033
65	0xbd78064c	-0.06055288
66	0x3d15a6bb	0.03653596
67	0x3cea2785	0.028583298
68	0xbed92a13	-0.42414913
69	0xbd55b9eb	-0.05217926
70	0xbe2dbb66	-0.16966018
71	0x3e9852e1	0.29750732
72	0x3e2521c5	0.16126163
73	0x3e0a3370	0.13496184
74	0xbd9f603d	-0.07782028
75	0xbe9f5670	-0.31120634
76	0x3d4b40f8	0.049622506
77	0x3d486dab	0.048932713
78	0xbddc9408	-0.10770422
79	0xbd70f50c	-0.058827445
80	0xbd1b05e3	-0.03784741
81	0x3e41fad9	0.18943347
82	0x3e5ca72a	0.21548143
83	0xbc1b406a	-0.009475807
84	0x3ee16fc7	0.44030592
85	0x3e64937e	0.22321889
86	0x3dc5ae31	0.09652365
87	0xbdbff99f	-0.09373783
88	0xbdb14e69	-0.08657534
89	0x3e292052	0.16516235
90	0x3eaba5be	0.3352489
91	0xbe146b76	-0.14494118
92	0xbcfd31c6	-0.030907523
93	0x3b06a4e4	0.002054506
94	0xbe79afa3	-0.24383406
95	0xbe64bc25	-0.22337396
96	0x3da07af4	0.078359514
97	0xbdd5c63d	-0.104382016
98	0xbe0df266	-0.13861999
99	0xbe5de9bc	-0.21671194
100	0x3d5db722	0.054129727
101	0x3e211d1e	0.15733764
102	0xbe383e19	-0.17992438
103	0x3ea3ea9c	0.3201493
104	0xbdad99a3	-0.084765695
105	0xbe96efe2	-0.2947989
106	0xbd971114	-0.07376304
107	0x3e0977e6	0.13424644
108	0x3e3ca764	0.1842323
109	0x3ea56d83	0.32310113
110	0x3d90ffd3	0.070800446
111	0xbe0b2eb3	-0.13592033
112	0xbdf05459	-0.11734838
113	0xbe887605	-0.26652542
114	0x3cb407ba	0.02197634
115	0xbe5174b5	-0.20454676
116	0xbd54e524	-0.051976338
117	0xbe283155	-0.16425069
118	0x3c84eef7	0.016227229
119	0xbe1a871e	-0.15090606
120	0xbd1ea754	-0.038733795
121	0xbe0245f1	-0.12721993
122	0xbe6a6d9a	-0.22893372
123	0xbe425076	-0.18976006
124	0x3e9b40bf	0.30322835
125	0xbe4129c8	-0.18863595
126	0x3e2b6663	0.16738276
127	0x3ec93d35	0.3930451
128	0xbedba7b7	-0.42901394
129	0xbe9824c1	-0.2971554
130	0x3d239015	0.03993233
131	0xbec26a20	-0.37971592
132	0xbe8611cc	-0.26185453
133	0xbb3a698a	-0.0028444254
134	0x3cb6ace3	0.022299236
135	0xbe4270f0	-0.18988395
136	0x3e90a87e	0.2825355
137	0xbea90437	-0.33011028
138	0xbde1a141	-0.11017085
139	0x3e98a5c1	0.2981396
140	0x3daa1360	0.08304477
141	0xbd26bec7	-0.040709283
142	0xbf0c3b39	-0.54777867
143	0xbf1b13af	-0.6057691
144	0xbec483f1	-0.38381913
145	0x3ce4b027	0.027916027
146	0xbdcbc2b6	-0.099492475
147	0xbe7d5ff1	-0.2474363
148	0xbd0da0e8	-0.03457728
149	0x3b872cd6	0.004125218
150	0xbe8ef114	-0.27918303
151	0xbde38f7f	-0.11111354
152	0x3e4b7dbd	0.19872184
153	0x3d173dce	0.036924176
154	0xbe715052	-0.23565796
155	0xbe741e69	-0.23839726
156	0xbe29f9a5	-0.16599138
157	0xbde204b9	-0.11036057
158	0xbc5927f7	-0.013254157
159	0x3f0ad2f9	0.5422817
160	0x3ebd159a	0.36930543
161	0xbe639eb9	-0.22228517
162	0x3e1a5b9d	0.1507401
163	0x3dffcd4f	0.124903314
164	0xbed26091	-0.410893
165	0xbe84dede	-0.25951284
166	0x3e9509e0	0.29109097
167	0xbebb2c48	-0.3655722
168	0x3f0809d6	0.5314001
169	0x3ddcd18e	0.10782157
170	0xbe3b2ab8	-0.18278015
171	0x3e9b368d	0.30315056
172	0xbd473d7f	-0.04864263
173	0xbdd5b3b1	-0.10434664
174	0x3e51b523	0.20479254
175	0xbde95c6a	-0.1139458
176	0x3e69edf9	0.22844686
177	0xbcd8e820	-0.026477873
178	0x3df2cb92	0.11855234
179	0x3e4af642	0.19820502
180	0xbf01a01f	-0.5063495
181	0xbedf9a15	-0.43672243
182	0x3e686d21	0.2269788
183	0x3cd080b4	0.025451995
184	0xbe33b5cf	-0.17549823
185	0x3ca582c6	0.02020396
186	0xbeb5e843	-0.35528764
187	0x3e5e3145	0.21698482
188	0x3ed82288	0.42213845
189	0x3ecf63c9	0.40505818
190	0xbdfce5a1	-0.12348486
191	0x3e0c3340	0.13691425
192	0x3e2b275f	0.16714238
193	0xbe8fb114	-0.28064787
194	0x3d163b24	0.036677495
195	0x3d40eceb	0.047100943
196	0xbb877ba0	-0.0041346103
197	0xbe6af44c	-0.22944754
198	0x3d40661f	0.04697239
199	0xbe1be80f	-0.15225242
200	0x3e3464fb	0.17616646
201	0x3e811656	0.25212353
202	0x3dad163d	0.08451507
203	0x3bae3c92	0.005317279
204	0xbd250952	-0.04029209
205	0xbd758335	-0.059939582
206	0xbe892f54	-0.2679392
207	0x3f14497e	0.5792464
208	0x3edbf412	0.42959648
209	0x3eac49c1	0.3365002
210	0x3b9bf3a5	0.0047592693
211	0xbdb04e30	-0.08608663
212	0x3d30e573	0.04318757
213	0xbe36befc	-0.17846292
214	0xbe926139	-0.285898
215	0xbe1c5fb3	-0.15270881
216	0xbe6286ef	-0.22121786
217	0x3dd846d1	0.10560382
218	0x3ccabd61	0.024748506
219	0x3c3b95ce	0.01144929
220	0xbe9905de	-0.2988729
221	0x3e56c46d	0.20973368
222	0x3df9965f	0.12186884
223	0xbe37a494	-0.17933875
224	0x3d87dde5	0.0663412
225	0xbeb721eb	-0.35768065
226	0x3e51bf97	0.20483242
227	0x3e3c78d1	0.18405463
228	0x3e35e4dd	0.17763086
229	0xbdfb5634	-0.12272301
230	0x3e22c1de	0.15894267
231	0x3e12d381	0.14338495
232	0xbde4c15a	-0.111696914
233	0xbe164aec	-0.14677018
234	0xbc9d4b4a	-0.01920094
235	0x3ddf86d3	0.109143876
236	0xbe8bd714	-0.2731253
237	0x3d07ff15	0.03320225
238	0x3e429be4	0.1900478
239	0xbd0cf608	-0.03441432
240	0xbeacec34	-0.3377396
241	0xbd4828cd	-0.048867036
242	0xbe87df1d	-0.2653741
243	0xbe59f6f7	-0.21285616
244	0x3d815d23	0.063165925
245	0x3df343fc	0.11878201
246	0xbe7231c2	-0.23651794
247	0x3d82e399	0.06391067
248	0xbea92dc2	-0.33042723
249	0x3e669c69	0.22520603
250	0xbd4665ca	-0.048436917
251	0x3cb797e6	0.022411298
252	0xbdf4e6d5	-0.1195809
253	0xbea9db78	-0.33175254
254	0xbe9340da	-0.28760415
255	0x3ea50c85	0.32236114

critic.2.bias f4 [32]
0	0x3da204b8	0.07911056
1	0x3e45f8a0	0.19333124
2	0x3ea693ec	0.3253473
3	0xbc406dc0	-0.011744916
4	0x3e472564	0.19447857
5	0xbeb1cdda	-0.34727365
6	0x3d140676	0.036138974
7	0x3e2a3ea1	0.16625454
8	0x3ef08a69	0.469806
9	0xbd8a6e2b	-0.06759294
10	0xbebc897a	-0.36823636
11	0x3c9a34d0	0.018824011
12	0x3e8c995b	0.2746075
13	0x3cc52074	0.024063326
14	0x3ea6e340	0.32595253
15	0x3d9b208f	0.075745694
16	0x3e1f9124	0.1558271
17	0x3d975db0	0.07390916
18	0xbeaf63e5	-0.342559
19	0xbea2f1fb	-0.3182524
20	0xbe3a355a	-0.18184415
21	0xbeb8a6d5	-0.36064783
22	0xbe0b3f99	-0.1359848
23	0xbe219933	-0.15781097
24	0xbdb83d9f	-0.08996128
25	0x3dc6e63c	0.097118825
26	0x3e3f9673	0.18709736
27	0x3c2f642d	0.010705036
28	0x3e5a1df0	0.21300483
29	0xbec8f49f	-0.3924913
30	0xbc74de2d	-0.014945549
31	0xbe8d8940	-0.27643776

critic.4.weight f4 [1, 32]
0	0x3d66305d	0.056198467
1	0x3ab165e1	0.0013534391
2	0x3e3da66f	0.1852052
3	0xbc92a853	-0.017902529
4	0x3baf54be	0.005350678
5	0xbe8e68a6	-0.27814215
6	0x3bd976bd	0.006636469
7	0x3e044efa	0.12920752
8	0x3dcea1c3	0.10089447
9	0x3d1e6704	0.038672462
10	0xbd9211d8	-0.0713231
11	0x3c69110b	0.014225255
12	0x3ddda852	0.1082312
13	0x3d4a2280	0.049349308
14	0x3d4070f5	0.046982724
15	0x3b24768f	0.002509508
16	0xbcfeb32d	-0.031091297
17	0x3d58f52e	0.052968197
18	0xbd5e3684	-0.05425121
19	0xbe514872	-0.20437792
20	0xbc80b323	-0.015710419
21	0xbd92a712	-0.071607724
22	0x3bf81175	0.0075704404
23	0xbc202832	-0.009775208
24	0x3c2f1385	0.010685806
25	0xbbf6f1da	-0.007536155
26	0x3c120811	0.008913056
27	0xbcb43faa	-0.022003014
28	0x3e0a577c	0.13509935
29	0xbd820b27	-0.063497834
30	0x3d10a7c2	0.035316236
31	0xbce5abd1	-0.02803603

actor_mean.0.weight f4 [64, 26]
0	0xbd03cc99	-0.03217754
1	0x3da13950	0.078722596
2	0x3de4926c	0.1116074
3	0xbded16b2	-0.115765944
4	0x3ea419c9	0.32050923
5	0xbe67fffe	-0.22656247
6	0x3eeed318	0.46645427
7	0xbe298d3a	-0.1655778
8	0x3e95a20f	0.29225203
9	0xbd9ed26c	-0.077549785
10	0xbdacbcb3	-0.08434429
11	0xbe14eb59	-0.14542903
12	0x3d4a63c6	0.049411558
13	0x3c8e825d	0.017396146
14	0x3da9b5e3	0.08286645
15	0x3e55104f	0.20807002
16	0xbe4f9131	-0.2027023
17	0xbdb8c84b	-0.09022578
18	0x3e5d0fac	0.2158801
19	0xbe2b5757	-0.16732536
20	0x3e28e633	0.16494064
21	0x3e7d09bc	0.24710745
22	0x3dcf0352	0.10108055
23	0x3e61b161	0.22040321
24	0xbe881232	-0.26576382
25	0x3e3e19ad	0.18564482
26	0xbe153565	-0.1457115
27	0xbe68d4ea	-0.2273747
28	0xbc9478a0	-0.018123925
29	0xbd9d876c	-0.07691845
30	0x3d14ed4f	0.036359128
31	0x3e375c1d	0.17906232
32	0xbe966602	-0.293747
33	0xbc995e1b	-0.01872163
34	0xbe8c5e63	-0.2741576
35	0xbe8a3603	-0.26994333
36	0x3cb9fc79	0.022703396
37	0xbe08d21d	-0.13361402
38	0x3ba8796b	0.0051414273
39	0xbdec51aa	-0.11539014
40	0xbda0cf0b	-0.0785199
41	0x3d80651e	0.062692866
42	0x3cb5a43f	0.022173045
43	0x3c98dc6f	0.018659798
44	0xbf0b380a	-0.54382384
45	0xbe385996	-0.18002924
46	0xbddbb496	-0.107278034
47	0x3de9c631	0.11414755
48	0x3b02eaf3	0.0019976466
49	0x3df41b7f	0.11919307
50	0xbeb5acfc	-0.3548354
51	0xbe16447a	-0.14674559
52	0xbd1dd868	-0.03853646
53	0xbe3635d0	-0.17793965
54	0x3d321c7f	0.043484207
55	0x3e6457ac	0.22299069
56	0xbd4ac25f	-0.049501773
57	0xbe7679ae	-0.24069855
58	0x3d935234	0.071934134
59	0x3e81d7a3	0.2535983
60	0xbdd94ff1	-0.10610951
61	0x3f18cb4a	0.59685194
62	0x3e682219	0.22669257
63	0x3dde85e6	0.10865383
64	0xbd52968e	-0.05141311
65	0x3e261f82	0.16222957
66	0x3e090a41	0.13382818
67	0x3e71fd10	0.23631692
68	0xbe1c6090	-0.1527121
69	0xbde4ec85	-0.11177925
70	0x3b01570a	0.0019735717
71	0x3e973e71	0.29539827
72	0xbe94da0f	-0.29072616
73	0x3e1c2a76	0.15250573
74	0x3eb4f248	0.35341096
75	0x3b95d2e8	0.004572261
76	0x3d4ae4b9	0.049534533
77	0x3e230cda	0.15922871
78	0x3e92ad5b	0.28647885
79	0xbc9425c7	-0.01808442
80	0xbdde52dd	-0.10855649
81	0x3ce74743	0.028232222
82	0xbbc96611	-0.0061462005
83	0xbe26caa0	-0.16288233
84	0x3d055230	0.032549083
85	0x3e264a5c	0.16239303
86	0xbe14bd26	-0.1452528
87	0xbdeeb5d7	-0.11655777
88	0xbe5c0a5b	-0.21488325
89	0xbd4fc4f0	-0.050724924
90	0xbe8073f2	-0.2508846
91	0xbccb3340	-0.024804711
92	0xbe8d322e	-0.27577347
93	0xbd919759	-0.071089454
94	0xbee31f39	-0.44359758
95	0x3dde520e	0.108554944
96	0xbe2d4ddb	-0.16924231
97	0x3e5c9584	0.2154141
98	0x3d4c72d9	0.049914215
99	0x3e8f6247	0.28004667
100	0xbdd5bff2	-0.10437001
101	0x3e818c24	0.2530223
102	0x3e76499a	0.24051514
103	0x3ec4f0d0	0.38464975
104	0x3a328ece	0.00068114407
105	0xbda681e7	-0.08130246
106	0x3e058b2f	0.13041376
107	0x3eced968	0.40400243
108	0xbd338b9a	-0.043834306
109	0xbda9cd1f	-0.08291077
110	0x3dbe3be3	0.09288766
111	0xbcad8e50	-0.021186024
112	0x3dbfb66b	0.09360965
113	0xba0bdcb5	-0.0005335317
114	0x3c80d406	0.0157261
115	0x3d0780ff	0.033082005
116	0x3d9c98af	0.076463096
117	0x3db539c1	0.08848906
118	0x3e37cfbf	0.17950343
119	0x3c422491	0.011849538
120	0xbeb504d6	-0.35355252
121	0xbf0a8840	-0.5411415
122	0xbbe72151	-0.007053532
123	0xbe29a822	-0.16568044
124	0xbba5ef56	-0.0050639315
125	0x3c4a7f25	0.012359415
126	0x3c5497ea	0.012975672
127	0xbe1026d0	-0.14077306
128	0x3e80fbc3	0.2519208
129	0xbdeca23c	-0.11554381
130	0xbe40e475	-0.1883715
131	0x3de48a68	0.111592114
132	0xbe8a88eb	-0.27057585
133	0xbd59869e	-0.053106897
134	0xbdfd8a0b	-0.12379845
135	0xbf20971f	-0.6273059
136	0x3e8a0c84	0.26962674
137	0xbedef34f	-0.43545005
138	0x3e824523	0.25443372
139	0xbed5a171	-0.41724733
140	0x3eec18c0	0.46112633
141	0x3d96599a	0.07341309
142	0xbe90f6d9	-0.2831333
143	0xbe3cd6ff	-0.1844139
144	0xbb968ede	-0.004594668
145	0x3d59ceea	0.053175844
146	0x3dbc5e81	0.09197713
147	0x3c7a789a	0.015287543
148	0xbe5a064d	-0.21291466
149	0x3d2eda73	0.0426888
150	0xbe001f67	-0.12511979
151	0xbdaa9085	-0.08328346
152	0x3d735f3c	0.059416994
153	0xbe695219	-0.22785224
154	0x3bc61088	0.006044451
155	0x3d58d739	0.052939627
156	0xbd06c63f	-0.032903906
157	0xbd81a856	-0.06330936
158	0xbda496d2	-0.08036579
159	0x3dcfa54c	0.1013895
160	0xbd80c96b	-0.062884174
161	0x3c792a58	0.015207849
162	0xbc569371	-0.013096676
163	0x3e9181b4	0.28419268
164	0xbe4b1ceb	-0.1983525
165	0xbdaf7a57	-0.08568256
166	0xbdcf16a0	-0.10111737
167	0x3dd1b53a	0.10239644
168	0x3e5fcec2	0.21856216
169	0x3e73da71	0.23813798
170	0xbeb0238e	-0.34402126
171	0xbde1c3c7	-0.1102367
172	0xbe24dbae	-0.16099426
173	0x3d6ac95d	0.05732094
174	0x3ed6ad93	0.41929302
175	0xbd1bfd04	-0.03808309
176	0xbd790f8b	-0.06080584
177	0x3dfa0151	0.12207282
178	0xbe774ef7	-0.24151216
179	0x3cd06b5c	0.025441818
180	0xbc6349c6	-0.013872569
181	0xbe049b96	-0.12949976
182	0x3e2603e1	0.16212417
183	0xbda2ca37	-0.07948726
184	0xbccb1f81	-0.024795296
185	0x3e211d1b	0.15733759
186	0xbab8f13d	-0.001410998
187	0x3e0d4082	0.13794139
188	0x3dc4577c	0.09586999
189	0x3d7ba00d	0.061431933
190	0xbe27306d	-0.16327067
191	0x3f016e2c	0.50558734
192	0xbe9a6a66	-0.301593
193	0xbde1d11a	-0.11026211
194	0x3de59a88	0.11211115
195	0xbe2090b6	-0.15680203
196	0xbde1870e	-0.11012088
197	0x3c338e32	0.010959195
198	0x3e4d397b	0.20041458
199	0x3db731d4	0.08945051
200	0x3e511b12	0.20420483
201	0x3d160d14	0.036633566
202	0x3db4b3f3	0.08823385
203	0x3e38a413	0.1803134
204	0xbe0f4055	-0.13989384
205	0x3e454b1d	0.19266935
206	0xbde0d124	-0.109773904
207	0x3e2c10f1	0.16803338
208	0xbe71d545	-0.23616512
209	0xbca24ecd	-0.019812966
210	0xbdcb1a72	-0.099171534
211	0x3dfbacde	0.12288831
212	0x3d671286	0.05641415
213	0xbc9bc00e	-0.019012477
214	0xbe310faf	-0.17291139
215	0x3dd5f97f	0.10447978
216	0xbd159dc8	-0.036527425
217	0xbd6bc2d1	-0.05755884
218	0x3ef86e29	0.48521546
219	0x3dee3bb8	0.11632484
220	0x3e4a60ba	0.19763461
221	0xbf17e3d4	-0.59332013
222	0xbe69d403	-0.22834782
223	0xbe83db58	-0.25753284
224	0xbd1922d0	-0.037386715
225	0xbdf2205a	-0.11822577
226	0x3e90ba8e	0.2826733
227	0xbd428f30	-0.047499835
228	0x3e38e3be	0.18055627
229	0x3e0b552e	0.13606712
230	0x3e993549	0.29923466
231	0x3e300e24	0.17192894
232	0x3e52e27e	0.20594212
233	0x3cb48da8	0.022040203
234	0x3d94564a	0.07243021
235	0xbe86162e	-0.26188797
236	0xbdd37ec8	-0.10326916
237	0xbe2b318f	-0.16718124
238	0xbe39e41f	-0.18153428
239	0xbedaf4ba	-0.42764837
240	0x3db8dd98	0.09026641
241	0x3c775912	0.01509692
242	0x3d968532	0.07349624
243	0x3e754b64	0.2395454
244	0x3da03e01	0.07824326
245	0x3cb61967	0.02222891
246	0xbeb639f4	-0.3559109
247	0xbe3d7464	-0.18501431
248	0x3dc49f52	0.096007004
249	0xbe2cc4b4	-0.16871911
250	0xbdafac28	-0.08577758
251	0x3e7b1b5e	0.24522159
252	0xbea02d4c	-0.3128456
253	0xbeac4caa	-0.3365224
254	0xbe4e7097	-0.20160137
255	0x3e044258	0.12915933

actor_mean.0.bias f4 [64]
0	0xbdec20d1	-0.11529697
1	0x3db1a1a1	0.086734064
2	0x3c6d7b0f	0.0144946715
3	0xbd85ae2b	-0.065273605
4	0xbca99f74	-0.020705916
5	0xbd856f14	-0.06515327
6	0x3d13e66b	0.036108416
7	0xbde1c97c	-0.11024758
8	0x3d00dfa3	0.031463277
9	0x3d3b555b	0.0457357
10	0xbd5fba54	-0.054621056
11	0x3d853c70	0.06505668
12	0x3cc33cc6	0.02383269
13	0x3dcba3a8	0.09943324
14	0xbdbb9abd	-0.09160373
15	0x3b866c60	0.004102275
16	0xbdd373c5	-0.10324816
17	0xbd5d891d	-0.05408584
18	0xbde3e379	-0.11127371
19	0x3d8c6f52	0.0685717
20	0x3cbdac8a	0.023153562
21	0xbd173553	-0.03691609
22	0xbd47ec80	-0.04880953
23	0x3d0642cd	0.03277855
24	0x394720c7	0.0001899033
25	0xbd8c47f6	-0.06849663
26	0x3d32b964	0.043633834
27	0x3d3078ee	0.043084078
28	0x3d611ab9	0.054957125
29	0xbdb1effe	-0.08688353
30	0xbdd53fa7	-0.10412531
31	0xbc8b2046	-0.016983163
32	0x3cf52ea6	0.02992947
33	0x3e049769	0.12948383
34	0x3dccbddc	0.0999715
35	0x3d42f3d1	0.047595803
36	0xbdb25909	-0.08708388
37	0x3d8c947c	0.06864259
38	0x3d4b5136	0.049637996
39	0xbbbf6f0d	-0.0058420957
40	0x3db94979	0.09047217
41	0xbe1263af	-0.14295839
42	0x3e2b9b68	0.16758502
43	0xbdcbc6de	-0.0995004
44	0x3c241452	0.01001461
45	0xbd56a57b	-0.05240391
46	0x3d8f92a5	0.07010392
47	0xbd1638da	-0.03667531
48	0x3cc767db	0.024341514
49	0x3ddeac6f	0.10872733
50	0xbd469f6c	-0.04849188
51	0xbd90fcf3	-0.07079496
52	0xbd8fda5b	-0.0702407
53	0x3bc5d647	0.0060375067
54	0x3d5d6b9b	0.0540577
55	0x3ddc50fe	0.107576355
56	0xbc93b25c	-0.018029384
57	0xbe106c18	-0.14103734
58	0x3d425752	0.047446556
59	0xbbd801d9	-0.006592017
60	0xbd309490	-0.04311043
61	0x3da2b6d8	0.07945031
62	0x3d221a3e	0.039575808
63	0x3cd2a2c4	0.025712378

actor_mean.2.weight f4 [32, 64]
0	0xbe96cf2c	-0.29454935
1	0x3a2167a8	0.00061571086
2	0x3d66903e	0.056289904
3	0xbcc0fc42	-0.023557786
4	0x3defb37d	0.117041565
5	0x3e467e07	0.19384013
6	0x3e043de6	0.12914237
7	0xbe23c5a2	-0.1599336
8	0xbc1bcc30	-0.009509131
9	0x3e9e79e5	0.30952373
10	0xbe2f6789	-0.1712934
11	0x3bbb28a4	0.005711632
12	0x3e36e81b	0.17861979
13	0xbe2f00ef	-0.170902
14	0xbe380a28	-0.17972624
15	0x3d193d73	0.03741212
16	0xbdf1f648	-0.118145525
17	0x3c36cb71	0.011156903
18	0xbec72252	-0.38893372
19	0xbe0018cf	-0.12509464
20	0x3c8d8458	0.01727502
21	0xbe9e083a	-0.3086565
22	0xbe926619	-0.2859352
23	0xbe473067	-0.19452058
24	0x3e094f13	0.1340907
25	0xbe815bed	-0.25265446
26	0x3e52ded9	0.20592822
27	0xbdb23c2b	-0.087028824
28	0x3e43b7d3	0.19113092
29	0x3d7f1ce3	0.062283408
30	0x3bed19eb	0.0072357557
31	0x3cf9c12e	0.030487623
32	0x3e4834e1	0.19551422
33	0xbcba74a0	-0.02276069
34	0xbe998a87	-0.299885
35	0xbe48c139	-0.19604959
36	0xbe4204fd	-0.18947215
37	0x3e2c0c67	0.16801606
38	0xbc1ecbc4	-0.009692136
39	0xbe804448	-0.25052094
40	0x3e047139	0.12933816
41	0x3dc0ec84	0.09420112
42	0xbea7be3d	-0.32762328
43	0x3d7c4fde	0.061599605
44	0x3dade017	0.08490007
45	0x3d772b06	0.060343765
46	0x3d96b274	0.07358256
47	0xbe2813e9	-0.16413845
48	0xbde5f3e5	-0.1122816
49	0x3e3efee2	0.18651918
50	0x3e0c02b7	0.1367291
51	0xbd01a30b	-0.03164963
52	0x3e425659	0.18978252
53	0x3e0bba6e	0.13645336
54	0xbd2a1993	-0.041528296
55	0x3e04e53d	0.12978072
56	0x3bb7ec5b	0.0056128926
57	0xbc29ed24	-0.01037148
58	0x3ee42271	0.44557527
59	0xbe548a0e	-0.20755789
60	0x3e40f572	0.1884363
61	0x3e230e61	0.15923454
62	0xbe529336	-0.20563969
63	0x3ecf3bac	0.40475214
64	0x3d5bf88e	0.053703837
65	0x3cf11f37	0.02943383
66	0x3d6c4acc	0.05768852
67	0xbdd2c822	-0.102920786
68	0x3dd251d0	0.10269511
69	0x3d1b7907	0.037957218
70	0x3df5fd29	0.12011177
71	0xbbbe5547	-0.0058085057
72	0xbe15ed0f	-0.14641212
73	0xbeb35e90	-0.35033083
74	0xbe2cb8a7	-0.16867314
75	0xbcf10fdd	-0.02942651
76	0x3dd0c4c0	0.10193777
77	0xbe9556de	-0.29167837
78	0x3d52fff5	0.05151363
79	0xbead5d5a	-0.33860284
80	0x3eacb1d3	0.3372942
81	0x3e181384	0.14851195
82	0xbd9bbf63	-0.076048635
83	0xbdc1aa14	-0.09456268
84	0x3c622dc0	0.013804853
85	0xbd7e6f0a	-0.062117614
86	0xbe0afe25	-0.13573511
87	0x3db498b8	0.08818191
88	0xbe7ebde9	-0.24877132
89	0x3e95b068	0.2923615
90	0xbe2faf47	-0.17156707
91	0xbd65596b	-0.05599348
92	0xbe037a16	-0.12839541
93	0xbe498534	-0.19679719
94	0x3dea8eab	0.11452993
95	0x3e34d03d	0.17657562
96	0xbd3c05d7	-0.045904007
97	0xbd8b1d2d	-0.06792674
98	0xbc8ca50d	-0.017168546
99	0xbe72954d	-0.23689766
100	0xbd8a0ba2	-0.067405
101	0x3e4a6ef1	0.19768883
102	0xbcc1c9eb	-0.023655852
103	0xbda2c580	-0.079478264
104	0xbead09c2	-0.33796507
105	0x3d938c6f	0.0720452
106	0xbd2a21b9	-0.041536067
107	0xbe71061a	-0.23537484
108	0xbda2fa8d	-0.07957945
109	0x3f343370	0.7039099
110	0x3dbc78e7	0.09202748
111	0x3eb606d8	0.35552096
112	0xbdd09978	-0.10185522
113	0xbe149138	-0.14508522
114	0xbe6049de	-0.21903178
115	0xbcad371c	-0.021144442
116	0xbde8a3c7	-0.11359363
117	0xbcc4fb18	-0.024045512
118	0xbe034160	-0.12817907
119	0xbdc73a76	-0.097279474
120	0x3d84b19f	0.06479191
121	0x3e92fcfb	0.28708634
122	0x3e7b2724	0.2452665
123	0xbbe8df86	-0.007106724
124	0x3e66d785	0.22543152
125	0x3f0433b4	0.5164139
126	0x3ebefcb4	0.37302172
127	0x3c84cb23	0.016210144
128	0xbe49e1e2	-0.19715074
129	0x3e56e120	0.20984316
130	0xbe895d8a	-0.26829177
131	0x3d82609a	0.063660815
132	0x3e2e2867	0.170076
133	0x3e42daaa	0.19028726
134	0x3ce707b9	0.028201925
135	0xbe2b5ee6	-0.1673542
136	0xbd28c516	-0.04120358
137	0x3e5f279c	0.21792454
138	0x3f05b199	0.5222412
139	0xbe71a442	-0.23597816
140	0xbe058282	-0.13038066
141	0x3d86b447	0.06577354
142	0x3ec9d7d6	0.39422482
143	0x3e99a544	0.300089
144	0xbe7adf7d	-0.24499317
145	0x3df6eb6f	0.12056624
146	0x3d5e4a54	0.054270104
147	0x3e589e44	0.21154124
148	0x3e1d4ef2	0.15362146
149	0x3ba16881	0.004925788
150	0x3bafa6fa	0.0053604813
151	0xbe0220f3	-0.12707882
152	0xbdb02a44	-0.086018115
153	0xbda0d272	-0.07852639
154	0x3e128744	0.14309412
155	0x3d0a4c7f	0.03376436
156	0xbe823a87	-0.25435278
157	0xbd8ede98	-0.0697605
158	0xbd2dce0b	-0.042432826
159	0xbe3c0938	-0.18362892
160	0x3e0d5d27	0.13805066
161	0x3e938e9e	0.28819746
162	0xbddaaf29	-0.106779404
163	0xbe9c0e36	-0.30479592
164	0x3e29df0c	0.16588992
165	0x3e413955	0.18869527
166	0xbe0bc4d2	-0.136493
167	0x3e03c421	0.12867786
168	0xbe53e1eb	-0.2069165
169	0xbe00354d	-0.12520333
170	0xbca45e54	-0.02006451
171	0x3b658065	0.0035019156
172	0xbe7a2cc2	-0.24431136
173	0x3e14ce3a	0.14531794
174	0xbe1b4b85	-0.15165527
175	0x3e71313c	0.23553938
176	0x3c318f78	0.010837428
177	0x3ea35fd7	0.31909057
178	0xbd93c0d0	-0.072145104
179	0x3e5857da	0.21127263
180	0x3df2cc68	0.11855394
181	0x3d8d478d	0.06898413
182	0x3d76bff5	0.06024166
183	0xbe3f75b8	-0.1869725
184	0x3e890591	0.2676206
185	0xbd940689	-0.07227809
186	0xbe7f332d	-0.24921866
187	0xbddb9ef7	-0.107236795
188	0x3e2b7100	0.16742325
189	0xbcd3413d	-0.025787944
190	0x3e742e71	0.23845841
191	0x3dd6d29a	0.10489388
192	0x3e271e89	0.16320242
193	0x3e1a878a	0.15090767
194	0x3e2554f6	0.16145691
195	0xbecc4092	-0.39893013
196	0x3e8d3e4d	0.27586594
197	0xbe042cbb	-0.12907688
198	0xbe73d520	-0.2381177
199	0x3e0c06c6	0.13674459
200	0xbe2c325d	-0.16816087
201	0x3e394c78	0.18095577
202	0xbe668e4a	-0.22515216
203	0x3d16c5cb	0.036809724
204	0x3e6a3745	0.22872646
205	0xbe11ae77	-0.1422671
206	0x3e269211	0.16266657
207	0x3e241e03	0.16027074
208	0x3d960211	0.07324613
209	0xbd1d9320	-0.038470387
210	0xbe3f38eb	-0.18674056
211	0x3de7539b	0.11295243
212	0x3e4a9e03	0.19786839
213	0x3e03f45d	0.12886186
214	0xbe5b79ed	-0.2143323
215	0xbe11abec	-0.14225739
216	0x3db0e882	0.08638097
217	0x3e246392	0.16053608
218	0xbd114c6c	-0.035473272
219	0x3e0fb6ec	0.14034623
220	0x3c539d71	0.012915955
221	0xbe07b50b	-0.13252656
222	0x3d48292b	0.048867386
223	0x3de4be6c	0.111691326
224	0x3e9a6158	0.30152392
225	0x3ea67f26	0.32518882
226	0x3e869e27	0.26292536
227	0x3dcf5c7c	0.10125062
228	0xbe3f4908	-0.18680203
229	0x3de0047a	0.10938354
230	0x3e0b611c	0.13611263
231	0x3d9cedc2	0.07662536
232	0x3e3c622c	0.18396825
233	0xbee04351	-0.43801358
234	0x3e6a81b9	0.22901048
235	0xbcfdac0f	-0.030965833
236	0x3e363d54	0.17796832
237	0xbdf0b165	-0.11752585
238	0xbd887ab8	-0.06664032
239	0xbdeba3e5	-0.1150587
240	0xbd12ed61	-0.035870913
241	0x3e140bc2	0.1445761
242	0xbdf3ba0c	-0.1190072
243	0xbebc3ba8	-0.36764264
244	0x3c7b4c99	0.0153380865
245	0xbe8fe027	-0.28100702
246	0x3bd5f1be	0.006529062
247	0x3e9234fd	0.28556052
248	0x3e92e324	0.2868892
249	0xbd335fda	-0.043792583
250	0xbb90b585	-0.00441617
251	0x3e336fb1	0.17523076
252	0x3c785f44	0.015159432
253	0xbe55f93c	-0.20895857
254	0x3e228dee	0.15874454
255	0x3dd2d121	0.102937944

actor_mean.2.bias f4 [32]
0	0x3d9d0426	0.07666807
1	0xbdcbe254	-0.09955278
2	0x3cc03c34	0.023466207
3	0x3e537d4f	0.2065327
4	0x3e6b7a71	0.22995926
5	0x3d99da4a	0.075123385
6	0xbb1f7ac4	-0.0024334649
7	0x3d1d779a	0.03844414
8	0xbe447693	-0.19185857
9	0xbdcb4686	-0.09925561
10	0x3cb9eec4	0.02269686
11	0xbdd0c556	-0.10193889
12	0x3d35abf9	0.04435346
13	0x3d3d9138	0.04628107
14	0x3c489af5	0.012243976
15	0x3cdbb253	0.02681843
16	0xbc5cd309	-0.013478049
17	0x3d5adb21	0.053431634
18	0x3d71f5cf	0.059072312
19	0xbd30db55	-0.04317792
20	0xbd86d1f6	-0.065830156
21	0x3dd8611b	0.105653964
22	0x3db921e2	0.09039666
23	0x3d41641d	0.047214616
24	0x3d531bc5	0.051540155
25	0x3c891257	0.016732378
26	0x3de8bde1	0.113643415
27	0x3ddd0376	0.10791676
28	0x3d95f523	0.07322147
29	0x3d852c65	0.06502608
30	0x3e3f3b70	0.18675017
31	0x3c1ea69b	0.0096832765

actor_mean.4.weight f4 [6, 32]
0	0x3e38e376	0.1805552
1	0x3e8a4154	0.27002966
2	0xbe5ffb41	-0.2187319
3	0xbe35d70f	-0.1775782
4	0xbed86a2b	-0.422685
5	0xbe1308c3	-0.14358811
6	0xbd465c3a	-0.048427798
7	0x3e0a26f9	0.1349143
8	0x3e74ec19	0.23918189
9	0xbdf4c9b8	-0.11952537
10	0xbe9b612d	-0.30347577
11	0x3e24b75a	0.16085568
12	0xbed79bdf	-0.42111108
13	0xbde8034f	-0.11328756
14	0x3e23ef56	0.16009268
15	0xbd9fb7b9	-0.07798714
16	0x3de7cdee	0.11318575
17	0x3d0af517	0.033925142
18	0xbedfd77b	-0.43719086
19	0x3d07bd68	0.033139616
20	0xbdc12ef6	-0.09432785
21	0xbe0b37f3	-0.13595562
22	0xbe77d296	-0.24201426
23	0xbe4acc9c	-0.19804615
24	0xbe30e97a	-0.17276564
25	0x3e6ccb59	0.23124446
26	0xbe561340	-0.20905781
27	0xbd049f5f	-0.03237855
28	0x3d496e60	0.049177527
29	0x3d46e3c5	0.04855706
30	0xbe7cf3be	-0.24702355
31	0x3d802076	0.062561914
32	0xbe6b563c	-0.22982115
33	0x3c5cd54c	0.013478588
34	0x3e00be83	0.12572674
35	0xbe86df89	-0.2634242
36	0xbb8d1d22	-0.0043064514
37	0x3d57d001	0.052688602
38	0x3e251043	0.16119485
39	0xbeadf6e5	-0.33977428
40	0x3d9d6ef3	0.076871775
41	0x3e5e7c30	0.21727061
42	0xbdb2027f	-0.08691882
43	0x3e240290	0.16016603
44	0x3e3088e9	0.17239727
45	0xbda2e862	-0.0795448
46	0x3d2b4296	0.04181155
47	0x3e1ce94e	0.15323374
48	0xbceecbdc	-0.029149942
49	0xbe1eb92f	-0.1550033
50	0xbe574905	-0.21023948
51	0x3e86e6d3	0.2634798
52	0x3c8ca5cc	0.017168902
53	0xbe52cc4e	-0.20585749
54	0xbd7009d8	-0.058603138
55	0xbe7facde	-0.24968287
56	0x3e2e129b	0.16999285
57	0x3c7bea2b	0.015375654
58	0x3d93c12b	0.07214578
59	0xbdfe1650	-0.124065995
60	0xbd15907b	-0.03651474
61	0xbe71f6e0	-0.23629332
62	0xbd83d626	-0.0643733
63	0x3d9affa9	0.075682946
64	0x3dbdef01	0.09274102
65	0xbe55aaab	-0.20865886
66	0xbe4de9c4	-0.20108706
67	0x3ea01f41	0.31273845
68	0x3e0e9bcf	0.13926624
69	0x3e4f8990	0.2026732
70	0xbdfe138e	-0.124060735
71	0xbe891c38	-0.26779342
72	0xbe4596dd	-0.19295831
73	0x3e9d840b	0.30764803
74	0xbda7595f	-0.08171343
75	0x3e666d5d	0.22502656
76	0x3e0de55a	0.13857022
77	0x3de02f0e	0.10946475
78	0x3df7956b	0.12089046
79	0xbebe8592	-0.3721128
80	0x3ebbecf3	0.36704215
81	0xbe8a32fd	-0.26992026
82	0xbe5d10ef	-0.21588491
83	0xbc3cc4c8	-0.011521526
84	0xbeb6edc3	-0.35728273
85	0x3e0ff901	0.14059831
86	0xbe88f2df	-0.26747796
87	0xbea11377	-0.31460163
88	0xbd62f3a3	-0.05540813
89	0x3b857ba4	0.004073577
90	0xbdf05c18	-0.117363155
91	0x3d93e447	0.07221275
92	0xbe3aebe1	-0.18254043
93	0xbdc10575	-0.09424869
94	0x3e14b053	0.14520387
95	0xbd8a728c	-0.06760129
96	0x3e9f9a92	0.31172615
97	0xbcc3d2ec	-0.023904286
98	0xbda24045	-0.07922415
99	0x3e9f3ca3	0.3110095
100	0x3e6950b2	0.22784689
101	0xbe036117	-0.12830006
102	0x3e157592	0.14595631
103	0xbd7dcdb1	-0.06196374
104	0x39f20e8b	0.00046168672
105	0xbe9823fa	-0.29714948
106	0xbe37ee94	-0.17962104
107	0xbdecb914	-0.11558738
108	0x3e97af06	0.2962572
109	0xbe04af48	-0.1295749
110	0x3d831625	0.06400708
111	0x3e0956e6	0.13412055
112	0xbe28455a	-0.16432706
113	0x3e127781	0.143034
114	0xbe26c078	-0.16284359
115	0x3e2e8eb2	0.17046621
116	0xbee4c5c0	-0.4468212
117	0x3d34902b	0.0440828
118	0x3d837efb	0.06420704
119	0xbea780ef	-0.32715556
120	0x3e19b75c	0.15011352
121	0x3e3c6e4d	0.18401451
122	0x3cee3892	0.02907971
123	0xbdec98a3	-0.11552551
124	0x3e4f32b5	0.20234187
125	0xbe209986	-0.15683565
126	0x3e2c1e46	0.16808423
127	0x3ea56600	0.32304382
128	0x3d323db9	0.043515895
129	0xbd49306d	-0.049118448
130	0xbd38b56d	-0.045094896
131	0x3ddc939f	0.10770344
132	0xbe625bea	-0.22105375
133	0xbe099712	-0.13436535
134	0xbdf637ad	-0.12022338
135	0xbcba0a52	-0.02271
136	0xbe2e8f44	-0.17046839
137	0x3db92ec1	0.09042121
138	0xbe3a0502	-0.18165973
139	0x3e9c0da4	0.30479157
140	0x3e9fba43	0.31196794
141	0xbeda65b4	-0.42655718
142	0xbe41032c	-0.18848866
143	0x3de98df0	0.114040256
144	0x3e509341	0.20368673
145	0x3de7a853	0.11311402
146	0x3ebb603a	0.36596853
147	0xbc05b551	-0.008160905
148	0xbd9c2e1c	-0.07625982
149	0xbde97ad8	-0.11400384
150	0x3d2bd44e	0.041950516
151	0xbed96676	-0.42460984
152	0xbe15c037	-0.14624105
153	0xbe0cf0cf	-0.13763736
154	0x3dc94623	0.09827831
155	0xbe1ecbd7	-0.15507446
156	0xbd59566c	-0.053060934
157	0xbd2621d9	-0.040559623
158	0xbda613ea	-0.08109267
159	0x3e7dcf9d	0.2478623
160	0x3ddf054c	0.10889682
161	0x3da637c9	0.08116109
162	0x3e68132d	0.22663565
163	0x3dced1f6	0.100986406
164	0xbe2e2109	-0.1700479
165	0x3e80bdf2	0.25144917
166	0x3da2d3e8	0.07950574
167	0x3d4d9264	0.050188437
168	0xbe69c469	-0.22828831
169	0xbe709950	-0.23495984
170	0x3d4bc168	0.049744993
171	0x3e33397e	0.175024
172	0xbe475a2e	-0.19467995
173	0xbe1e8228	-0.15479338
174	0x3dd1e90f	0.102495305
175	0xbd0a950e	-0.033833556
176	0x3e26652f	0.16249536
177	0x3c805b3f	0.01566851
178	0xbe127070	-0.14300704
179	0x3e30671c	0.17226833
180	0x3e015e54	0.1263364
181	0x3d8ddd3f	0.06926965
182	0x3e1f76bd	0.15572639
183	0x3e8bb1ee	0.27284187
184	0xbdae78c2	-0.085191265
185	0xbdef9e0e	-0.117000684
186	0xbebb1724	-0.36541092
187	0xbbebae8d	-0.007192439
188	0x3da85f61	0.08221317
189	0xbdeff354	-0.11716333
190	0x3e5d9fe7	0.21643029
191	0x3da13721	0.07871843

actor_mean.4.bias f4 [6]
0	0xbe4955e9	-0.19661678
1	0xbde55cf7	-0.11199372
2	0xba6269fd	-0.00086370093
3	0x3dd64961	0.10463215
4	0xbc6da472	-0.014504539
5	0x3d6e3129	0.05815235
